MachineLearning/results/testSumo19/MoveTOGoal/MoveTOGoal-499973.pt (torch, 441819 bytes, 36 tensors)

network_body._body_endoder.seq_layers.0.weight f4 [128, 6]
000000 25 84 a1 3d e6 a3 fb bd 54 b7 cc 3e 01 53 69 3e
       0.07886533 -0.122871205 0.39983618 0.2278557
000010 6c d6 b6 3b 5f 4e 7e 3e c6 6c 57 3d 63 05 bc bb
       0.0055797603 0.24834584 0.05259397 -0.005737947
000020 69 36 2a 3f 0e 3a b3 3e 13 a5 f5 3b 01 e3 23 be
       0.66489273 0.3500523 0.007496485 -0.16004564
000030 af cf 34 bf 49 45 c8 be 17 57 50 bf d8 26 93 3d
       -0.706294 -0.3911536 -0.8138289 0.07185143
000040 26 fc 79 3d 5d 55 18 3f c3 86 ca bd 23 25 9d 3e
       0.061031483 0.59505254 -0.09888985 0.30692396
000050 7e 99 9e 3d 9d 77 1f bf d2 23 98 bc b9 ee f6 be
       0.0774412 -0.6229189 -0.018571768 -0.48229006
000060 87 8f d0 3c 4f f3 06 3e ce b1 0a bf 53 52 1e 3f
       0.025459064 0.13178752 -0.5417756 0.61844367
000070 62 a7 38 be 13 ed 9a 3d 24 dd 39 be 2d 42 bb 3e
       -0.18032601 0.075647496 -0.18150765 0.36573926
000080 24 f8 93 be a6 62 b8 bd 79 75 a6 3e ff ce 79 be
       -0.28900254 -0.09003191 0.325115 -0.24395369
000090 88 84 9b be 97 b7 b7 3e 0c ba d0 3e 23 f9 82 be
       -0.3037455 0.35882255 0.40766943 -0.255807
0000a0 0b 5d 25 be 8b a0 c3 be 5d ad a7 3d fd e0 8f bc
       -0.16148774 -0.38208422 0.08187363 -0.017563337
0000b0 4e 16 4a bf 3a 89 0b 3e fc 3b 29 3e ae db 33 bf
       -0.78940284 0.13626567 0.16526788 -0.7025708
0000c0 2a a6 9c 3e b2 3c 5c 3a a5 d6 16 bf e7 82 86 be
       0.30595523 0.0008401378 -0.5892127 -0.26271746
0000d0 40 4f d1 be 73 9b 9c be 4e de a0 be e7 26 62 3e
       -0.40880775 -0.30587348 -0.31419605 0.22085153
0000e0 62 23 4a 3f b5 83 99 3d e1 d3 bf 3e f0 5b 3f bf
       0.7896024 0.07495824 0.37466338 -0.7474966
0000f0 51 f6 39 be 09 3d a2 3d 9b b0 9c 3c 28 54 f8 3e
       -0.18160369 0.07921798 0.01912718 0.48501706
000100 f5 8a dd 3a 37 55 fb be 05 28 70 3f eb f8 69 3e
       0.0016902374 -0.4908845 0.93811065 0.22848861
000110 87 78 97 be c9 2b 75 3d 52 8d 0f bf 7b 27 a0 3e
       -0.29584143 0.05985621 -0.5607501 0.3128012
000120 61 f2 bf bd 9c 96 dd be 8b 6a eb be e3 e2 8b be
       -0.09372402 -0.43278968 -0.45979723 -0.27321538
000130 31 fe ac be 02 f5 91 3d 9d 4d 30 bf f0 ed f8 be
       -0.33787683 0.0712681 -0.6886843 -0.48619032
000140 de e2 c8 be d1 ab d9 be de 95 80 3e b3 62 28 3e
       -0.39235586 -0.42513898 0.2511434 0.16443901
000150 42 12 17 bf 5a af 0a 3d 7e 2d 71 bd 00 c9 27 bf
       -0.59012234 0.033858635 -0.058881275 -0.65541077
000160 f8 4a 94 bd 18 84 d7 be 4d 12 e3 be c8 b8 17 bf
       -0.07240862 -0.42092967 -0.443499 -0.5926633
000170 b8 b1 a5 be a2 fb 21 bf 32 94 29 3e 74 f3 2f be
       -0.3236215 -0.63274586 0.16560438 -0.17182714
000180 ba de 92 bd 01 91 21 be 13 bd 3b 3e 20 80 d4 3d
       -0.07171388 -0.15777971 0.18333845 0.103760004
000190 47 98 ff 3c 1f 66 43 3e 83 d5 9c bf fc cf 32 bf
       0.031200541 0.19081925 -1.2252659 -0.6984861
0001a0 63 a8 be bd 1f fb 98 bf 55 36 c0 3e 91 e8 c8 3d
       -0.09309461 -1.1951636 0.37541452 0.098099835
0001b0 82 5d e6 3d 9b 0f b9 bd 44 c1 d4 3e f6 9b c8 be
       0.11248304 -0.0903618 0.415537 -0.3918149
0001c0 44 3a 9f be c0 12 fc bd 89 43 18 bf 36 01 1f be
       -0.3109914 -0.12308264 -0.5947805 -0.15527806
0001d0 a0 3b d7 3e 35 e8 24 be 79 58 bf 3c ba 78 94 be
       0.42037678 -0.16104205 0.023357617 -0.28998357
0001e0 6a 2d 50 3f 65 07 03 bd 93 ff d9 be 04 d9 8b 3e
       0.81319296 -0.031989474 -0.425778 0.27314007
0001f0 8e cc 85 bd 22 bf aa be 0b 47 79 3d 8f c9 fb be
       -0.06533156 -0.33348948 0.060858767 -0.49177215
000200 b5 41 50 bf 35 9f a3 3e 63 b9 b5 be 9c 24 e8 be
       -0.8135026 0.31957403 -0.35493 -0.4534043
000210 57 10 4a be 8e 8c f0 3e a3 3f 7d be c2 92 01 3f
       -0.19732796 0.46982235 -0.24731307 0.5061456
000220 af 55 3f bf b7 c7 e7 3e 32 a7 cf be 58 b5 43 be
       -0.7474012 0.45269558 -0.40557247 -0.19112146
000230 ec d3 46 3d 31 0b c4 3e 93 7d d4 3e 9b b4 86 be
       0.04854195 0.38289788 0.41502056 -0.26309666
000240 a4 e0 1e 3f e8 ce 06 be bf 8c ce 3e 3c d8 30 3e
       0.62061524 -0.13164866 0.40341756 0.17269987
000250 c0 ce 9b be 95 e3 b5 bd 72 0a ce 3e 0a f0 86 be
       -0.30431175 -0.088812985 0.40242344 -0.2635501
000260 a8 bc 1c bd 56 50 3e bf c4 66 1d 3f 3a b6 f7 3e
       -0.038265854 -0.7434133 0.6148493 0.48381215
000270 6c c2 c5 3e 8f a8 fe be 51 9e 9d 3d 44 3f 5b bf
       0.38624895 -0.49737975 0.07696212 -0.8564341
000280 ea 02 44 3c 76 ad 65 be b0 ea 85 bd 43 52 aa 3e
       0.011963585 -0.22429451 -0.06538904 0.33265886
000290 1d b9 44 bf bd b6 04 3f ac 55 df 3d 6d ae 4a bd
       -0.7684496 0.51841336 0.109050125 -0.04948275
0002a0 9a f6 a0 be e5 1e 26 3f 8a f2 24 bf 9e 53 13 3e
       -0.31438142 0.6489089 -0.64432585 0.14387366
0002b0 81 b3 4c be bb f0 05 3f ef 4f 91 3e 2d 68 0f bf
       -0.1999035 0.5232045 0.28381297 -0.56018335
0002c0 38 6a 79 be 55 03 68 3f c8 38 43 3e 7b d8 36 3f
       -0.24356925 0.90630084 0.19064629 0.71424073
0002d0 30 26 6b be 78 5c 27 bf 53 b7 88 3e 70 e2 09 bf
       -0.22963786 -0.6537547 0.26702365 -0.5386114
0002e0 95 06 94 3d f0 c8 8d 3e 7f e6 e2 3d c4 0f 2d bf
       0.07227818 0.27692366 0.1107912 -0.6760218
0002f0 42 0c 27 be 1e f1 1b 3e a5 a2 ad 3e 8f 28 66 be
       -0.1631327 0.15228698 0.3391315 -0.2247641
000300 b5 eb d2 3c 36 87 4b 3d b6 f5 20 bf 56 5e e1 3d
       0.02574716 0.049689494 -0.62874925 0.11004321
000310 57 86 77 be 12 24 a6 be c2 40 53 bd 7e 32 11 be
       -0.2417234 -0.32449394 -0.05157543 -0.14179417
000320 75 96 fc 3d f2 97 15 3f 07 c8 de be 34 98 9c be
       0.12333385 0.58434975 -0.43511984 -0.30584872
000330 c9 9f 8c bd 4a 15 fb 3d 76 56 6c 3e 9a 9b ba 3e
       -0.06866414 0.1225992 0.23079857 0.3644684
000340 2c d0 09 bd b3 2b a3 be 82 ff f2 3e 11 59 a4 3e
       -0.033645794 -0.31869277 0.47460562 0.32099202
000350 6a e5 e4 be 5e 87 65 3e 60 ce 0f bf 93 03 4b bf
       -0.4470628 0.2241492 -0.5617428 -0.7930233
000360 9f 60 f4 3e ed 0b 14 3f 6d 22 ed be c2 25 7b be
       0.47729966 0.578307 -0.46315327 -0.24526122
000370 ae 13 99 3d f6 3f 8e be da 51 1f bf 6e b8 e4 3e
       0.07474457 -0.27783173 -0.6223427 0.4467196
000380 37 5a 07 bd 68 3e f1 3e 1b 90 a4 3e d6 c5 b3 be
       -0.03304502 0.47117925 0.32141194 -0.35111874
000390 5e d1 f3 3e 5b cc 07 bd df e6 0b bd e9 21 68 be
       0.47620672 -0.033153873 -0.034155723 -0.22669186
0003a0 77 c1 d9 bd 02 2f b5 be 3a 17 f9 be ad c9 06 3f
       -0.106326036 -0.35387427 -0.48650533 0.5265148
0003b0 59 e0 fe 3d 9a 35 a1 bd 8b 6b 04 3e c3 2e b2 be
       0.12445135 -0.07871552 0.1293165 -0.348013
0003c0 dd 04 96 be 69 7b 57 3f 56 75 9a 3d a7 10 8c be
       -0.29300585 0.84172684 0.07541911 -0.27356455
0003d0 c7 3a cf be d6 36 00 bf 4a e3 ae 3d 03 8d f1 3e
       -0.4047453 -0.50083673 0.08539446 0.47177896
0003e0 85 01 c4 be f4 ca 57 be c5 2d 27 3d 45 40 6b bd
       -0.3828241 -0.21073514 0.040815134 -0.05743434
0003f0 53 dd 17 bf 66 85 af be 2e 0c 0c be 7c 4f 1b 3e
       -0.5932209 -0.34281462 -0.13676521 0.1516704

network_body._body_endoder.seq_layers.0.bias f4 [128]
000000 6e d0 8f bd 3b e7 07 ba be bd e8 bd c1 bd 74 bd
       -0.07022177 -0.00051842973 -0.113643155 -0.059751276
000010 27 8e 07 3d 16 1b 00 be dc d2 91 3b fb 78 a7 bd
       0.03309455 -0.12510332 0.004450185 -0.08177372
000020 b6 60 bd bc c1 f6 2b bd 55 db a4 3c 8a 22 0b bb
       -0.023117404 -0.04198337 0.020124117 -0.0021230304
000030 5d 4b ab ba 67 c8 31 bb 87 a3 55 3c b2 0e 0d be
       -0.0013068725 -0.0027127506 0.013039476 -0.13775137
000040 9b 42 e0 bd 2f c2 04 bd 74 60 c5 bd 28 5e c3 bc
       -0.10950204 -0.03241175 -0.096375376 -0.023848608
000050 5e b3 eb bd ba 13 d4 bc d9 9b 7e 3d 39 b5 af 3c
       -0.11508821 -0.025888313 0.062160347 0.021448718
000060 58 ba 7d 3d 59 75 ae 3c 71 60 48 bd 98 8f 5e 3c
       0.06194529 0.02129619 -0.0489201 0.01358404
000070 74 8a c2 3c fe 8e 08 bd bb 92 2b bd fa 0b c3 bd
       0.02374766 -0.033339493 -0.04188798 -0.09523769
000080 c2 3d ad bd 07 15 a5 bc aa ce b5 bb 3c 34 82 bc
       -0.08459045 -0.020151628 -0.005548318 -0.015894048
000090 5d 63 a9 bc f9 5d 82 bd e0 41 b2 bc 36 c8 c4 bc
       -0.020677263 -0.0636558 -0.021759927 -0.02402125
0000a0 fd 97 5c 3d 58 5f c7 bd 12 7e d7 ba 0d c0 44 b9
       0.053855885 -0.09734982 -0.001644077 -0.00018763561
0000b0 4f f7 21 be 4b 90 2a be b2 1a de bb 2d 36 89 bd
       -0.15816997 -0.16656606 -0.0067780847 -0.06699786
0000c0 61 e6 99 3c 2b f7 2c be 40 6d bd bc a8 84 59 3c
       0.018786611 -0.16891162 -0.023123384 0.013276257
0000d0 bd 5d a4 3c d2 74 56 3a 89 01 a5 bd 9a bb b1 bd
       0.02006423 0.000818086 -0.080569334 -0.0867836
0000e0 a3 76 f7 3b 8e 89 19 bd 9e d1 80 bd 62 d3 87 bd
       0.0075519844 -0.037484698 -0.06289981 -0.06632115
0000f0 2f fe ab bc 17 95 2e bb cd 1f b1 bb ef 62 55 3d
       -0.020995228 -0.0026639157 -0.0054054023 0.052096304
000100 0b 8c 99 bc e3 09 c9 bc 6d b5 b5 bd 01 83 60 3c
       -0.018743536 -0.024540847 -0.08872495 0.013703109
000110 23 60 b3 bd 2d fc 2c be 15 e9 d3 bd e0 4f 21 3e
       -0.08758571 -0.16893072 -0.10347191 0.15753126
000120 e1 fd 97 bd 47 61 2c bd 9d 42 50 bd 32 48 c3 bd
       -0.074214704 -0.04208496 -0.050844777 -0.095352545
000130 c3 2e 64 bc 0e a5 8d bb 99 d9 53 bd 7f 56 0d bd
       -0.0139271645 -0.0043226546 -0.05172119 -0.034506317
000140 55 aa 85 bb 34 da 01 be 0b 89 df bb ba 23 a5 bc
       -0.004079143 -0.12680894 -0.0068217567 -0.020158637
000150 ee 21 96 bc 8f 69 55 bd d9 57 1d bd f2 22 7c bc
       -0.018326726 -0.05210262 -0.038413856 -0.015389191
000160 ab 96 cc bc 2d 81 ec bc f9 b5 1d bd ba fb 39 bd
       -0.024974188 -0.02887019 -0.03850362 -0.04540608
000170 6b 8f 5d bc 1c 4d 8b bd 6a db ec bc 73 d7 dc bd
       -0.013522963 -0.06801817 -0.028913219 -0.10783281
000180 3d 4e a5 bd c2 84 c0 bd c0 2e dc bd af 09 5b bd
       -0.080715634 -0.094003215 -0.10751104 -0.053476032
000190 33 59 81 3d 10 29 25 bd d5 18 7d bd b3 2d 76 bc
       0.063158415 -0.040322363 -0.06179126 -0.015025544
0001a0 30 3a 39 3d 07 26 0f be 1e 9f 91 bc 91 c8 a0 bd
       0.045221508 -0.1397935 -0.017776068 -0.07850755
0001b0 7e 98 fb bc 7f 1b 0d bd c1 a7 bd bd f6 93 0d 3d
       -0.030712362 -0.03445005 -0.09260512 0.034564935
0001c0 16 a1 9c 3b ac d0 6b bd f7 a4 02 be 95 75 12 be
       0.004779945 -0.057572052 -0.12758242 -0.14302666
0001d0 ad a8 7b bd 2a a4 c7 3d 48 d3 18 3d c6 7d 92 bd
       -0.06144016 0.09748109 0.03731087 -0.07152896
0001e0 ac 3c 8e 3b e0 9f 76 bd bc 16 ab 3d fc 2a 72 bd
       0.0043407287 -0.060211062 0.083539456 -0.059123024
0001f0 a8 d4 33 bd 50 62 43 bd 6b fe f3 3c f3 b0 2b 3d
       -0.043903977 -0.04770118 0.029784402 0.0419168

network_body._body_endoder.seq_layers.2.weight f4 [128, 128]
000000 29 26 2f bd 25 00 21 be 86 62 6f be 9e 18 a6 bd
       -0.042761 -0.15722711 -0.23377427 -0.08110164
000010 48 e2 a1 3d 02 34 fe 3d 79 89 80 bc 60 de 08 3d
       0.07904488 0.124122635 -0.015690552 0.0334152
000020 29 dd c4 bb e5 dc 80 be 32 1f 3a 3d 82 ab 18 3d
       -0.0060078097 -0.2516853 0.045439906 0.037272938
000030 00 7f f5 bd 66 36 33 be ab 4f 1c be 4c 0a ee 3c
       -0.11987114 -0.1750122 -0.15264766 0.029057644
000040 9b 81 42 bd 00 9d 3e be a8 90 f9 bc ae 56 5c bd
       -0.047486883 -0.18614578 -0.030464485 -0.0537936
000050 df 18 8c 3c 8b d6 00 bd aa ee 8e bd 42 cd 98 bd
       0.017101703 -0.031454604 -0.06979115 -0.07461025
000060 90 21 27 be 82 35 2a be 8e 70 6d 3c f7 ca 01 3d
       -0.16321397 -0.16621974 0.014492167 0.031687703
000070 a4 af 6a 3d a8 61 38 bd d0 a9 0b bd 22 4b 5f bd
       0.05729641 -0.045015007 -0.034097493 -0.05451501
000080 4e 80 1f 3c 2e cd 07 3e c6 07 ee 3d 82 ca 9a 3c
       0.00973518 0.13261864 0.116225764 0.018895391
000090 e6 7c cf bd af de 19 bc c2 db e2 bd d9 9c 1a be
       -0.10131244 -0.009391471 -0.11077072 -0.15098895
0000a0 1c ca 46 bc 4d 3f 0e 3e 61 c8 5a be ba bb 98 be
       -0.012133148 0.13891335 -0.21365501 -0.29830724
0000b0 89 56 5d 3d 3e 2a 43 3b 78 ce 6d be c0 57 f6 bd
       0.054037604 0.0029779817 -0.23223293 -0.12028456
0000c0 bf e7 95 bd d9 88 bd bc d1 f1 31 3e 96 b7 94 3d
       -0.07319593 -0.023136543 0.17377402 0.07261579
0000d0 76 eb 8a bd 10 63 9f 3d 28 8c 9e 3c af d1 24 be
       -0.06783192 0.077825665 0.019353941 -0.16095613
0000e0 cd 1f 85 bc 80 b7 07 bc 45 4c 1f 3e bc 3c b2 3d
       -0.016250515 -0.008283496 0.15556438 0.087029904
0000f0 a1 92 a0 bc c5 84 eb bd 1b 88 33 be 75 84 ff bc
       -0.019601168 -0.11499933 -0.17532389 -0.03119109
000100 2e 04 d5 bd 2c 78 db 3c 78 1e dc 3d 74 d6 80 3d
       -0.10401188 0.0267907 0.10747999 0.06290904
000110 3b ae 96 3d 72 bd b7 3d d7 a8 a1 bd a8 49 42 bd
       0.073574506 0.08971681 -0.07893532 -0.047433525
000120 5c c2 bd bd e7 fc 3c bd 7a 71 99 bd 1e 19 2a 3d
       -0.09265587 -0.046139624 -0.07492347 0.04152786
000130 21 aa 81 3b 7d 4e 7e 3c 62 cd 35 3e 46 bb ae 3d
       0.0039570485 0.015521643 0.17754129 0.08531813
000140 90 fa a2 3d 01 bb 17 be b5 fb db 3c 2f bb 7b be
       0.07957947 -0.1481743 0.026853422 -0.24583124
000150 bb ee ab 3d c5 2d e7 bd 3a 19 b7 3b 3d e9 10 3e
       0.083951436 -0.11288027 0.005587724 0.14151473
000160 0d d4 96 bd 42 63 61 3d 86 f4 02 be 2e f0 be 3d
       -0.07364664 0.0550263 -0.12788591 0.093231544
000170 95 ce c9 bd 43 c7 bd bc d9 0f b1 bd 88 0b 97 bb
       -0.098538555 -0.023166304 -0.08645601 -0.004609529
000180 65 ad 09 be 7b 42 b9 bd 2d f6 91 3d d0 0a dc bc
       -0.13445051 -0.09045883 0.071270324 -0.026860625
000190 31 a2 c8 3d c6 9a c5 3d dd 87 4b 3d b3 0a f6 bd
       0.097965606 0.09648661 0.049690116 -0.120137595
0001a0 2a b2 78 bd 96 3d eb 3d a9 e8 9d 3d 79 3f 50 3e
       -0.060716785 0.11486356 0.07710392 0.20336713
0001b0 43 72 70 be 14 38 5c be 94 ca e8 3d 51 97 e7 bd
       -0.23481087 -0.21505767 0.11366764 -0.11308158
0001c0 13 0f be 3c 1c c6 88 bd b6 2f ae 3d 57 a8 96 3d
       0.023200547 -0.06678411 0.08505194 0.07356327
0001d0 ef a2 a6 3c b5 c5 d1 bd ee 7d a1 3a 5c a5 b7 3d
       0.020341365 -0.10242788 0.0012320855 0.08967087
0001e0 13 c4 47 3c cc 02 62 bd be e4 3b bc 8c a8 9c bd
       0.012192744 -0.05517845 -0.011468111 -0.07649335
0001f0 a3 66 e6 bc 58 9e c6 bd 82 d0 9d 3d 2d 30 d6 3b
       -0.028125113 -0.096981704 0.07705785 0.0065365047
000200 60 a9 7d bd 83 45 9d 3c 31 4e 6f 3d 78 f8 07 3e
       -0.061929107 0.019198185 0.05842418 0.13278377
000210 18 a0 3c bd db 32 f0 bd b1 2b e0 bc 28 d4 00 bd
       -0.046051115 -0.1172845 -0.027364584 -0.031452328
000220 e6 38 cb 3d ef bf d9 3d b1 13 c6 ba 7d 1e e0 bb
       0.09922962 0.106323116 -0.001511207 -0.006839572
000230 16 10 09 bd 1e 39 0e 3e 8a 89 90 bd bb ba 23 3e
       -0.033462606 0.13888976 -0.070574835 0.15989201
000240 e5 a4 0a bc 64 e4 e0 bd 72 23 af bc d6 d6 f8 3d
       -0.0084621655 -0.10981062 -0.021379206 0.12150352
000250 27 9b 5e bd b1 f0 01 be 36 cc 0c 3c e5 1d ff bc
       -0.054347184 -0.12689473 0.00859361 -0.031142185
000260 2f 5e 40 3e b6 32 87 bd 70 9a 2b 3e 0e 40 12 be
       0.18785928 -0.06601469 0.16758132 -0.14282247
000270 5e d0 04 3e 45 6f 4d 3d 28 a2 44 3e df 6c f1 3d
       0.12970111 0.050154943 0.19202483 0.11788344
000280 36 15 86 bd c2 6d 48 bc d2 87 e3 bd b0 e0 a0 bd
       -0.065470144 -0.0122332 -0.1110989 -0.07855356
000290 d1 26 ec bd 15 19 fa 3d c8 ed 0a 3e 8a cb 6d bd
       -0.11530841 0.12211815 0.13567269 -0.058055438
0002a0 ae 58 d1 3d ab 47 3e bc 9b b7 0c 3d 4c 73 72 bd
       0.102219924 -0.011613767 0.034354787 -0.059191987
0002b0 c0 db 60 3b e6 41 04 be 33 bb fe bd f5 f1 2b 3d
       0.0034310669 -0.12915763 -0.12438049 0.041978795
0002c0 71 18 f0 bd 8b 9b 1c 3c 4a ae 76 be 83 6e 81 bd
       -0.11723412 0.009558569 -0.24089924 -0.063199066
0002d0 aa da 76 3c 7a 55 87 bd 0a 48 12 3d 11 f9 5d bd
       0.015066782 -0.066081 0.035713233 -0.054192606
0002e0 54 b0 c1 bd 48 53 9a bc 7f c7 dd bb 49 a3 4b be
       -0.0945746 -0.01883854 -0.0067681666 -0.19886507
0002f0 6e 07 4e 3d c2 58 e3 bc 1d fd a8 bd 66 19 be 3c
       0.050300054 -0.027752284 -0.082514025 0.02320547
000300 b9 4d 07 be 90 d9 b0 bc cb bc 32 be 90 6c 4b 3d
       -0.13213243 -0.021588117 -0.17454831 0.04966408
000310 43 91 89 3c dd 57 f6 3d dc fe 45 3d bb e5 9e 3d
       0.016792899 0.12028477 0.048338756 0.07758661
000320 f3 9c 9c 3d df 2c 00 3e bf 0c 28 bd b3 bd a3 bc
       0.07647123 0.12517117 -0.04102778 -0.019987917
000330 65 fe 1d 3d 50 fa 31 3d a1 29 02 3e 7a d4 0f be
       0.038572688 0.043451607 0.12711193 -0.14045897
000340 d4 8f a7 bc e6 01 b5 bd 6b 25 8a bd 2d a3 c3 3d
       -0.020454325 -0.08838253 -0.06745418 0.09552608
000350 1f a4 c3 3d c2 46 ec 3c 21 69 fd bd a7 54 27 3e
       0.09552788 0.028842334 -0.123735674 0.16340886
000360 90 aa 8b bc 67 8d c7 bd ec 30 c8 3c cf 6f 4c 3d
       -0.017049104 -0.09743767 0.02443739 0.049911316
000370 7e 06 2f bd e0 c9 55 3d 51 bd 9d bd 3b 0e 01 be
       -0.0427308 0.052194476 -0.07702125 -0.12603085
000380 10 8f 0e 3d 29 4b 00 be 41 1b d8 3d 20 4a 01 bc
       0.034804404 -0.12528671 0.10552073 -0.007891208
000390 18 e6 31 3e d0 47 aa 3d ca 48 f5 3c ff ba 28 bd
       0.1737293 0.083144784 0.029941935 -0.04119396
0003a0 a7 36 05 3e d5 54 06 be 22 14 ec bb bc 54 c3 bc
       0.1300913 -0.13118298 -0.0072045485 -0.023844115
0003b0 12 7d 41 bd 1c 4d 2a be 2a b2 18 be 4c 0d 8b 3d
       -0.047238417 -0.16630977 -0.14911714 0.067896456
0003c0 4e 8e fa 3c 5c 1b 35 be b4 65 b6 bd a7 73 ef bd
       0.030585434 -0.17686218 -0.08906117 -0.11691981
0003d0 8d 1a b0 bd f4 52 a1 3d 24 ff b9 3d 2f b6 a8 3d
       -0.08598814 0.0787715 0.09081867 0.08237874
0003e0 93 84 81 bd 8d 44 15 be 3e 73 cf 3d c3 5d 83 bd
       -0.06324115 -0.14576931 0.101294026 -0.06414368
0003f0 df b1 83 bd 14 01 ae bd d0 c7 52 3d 3d f6 36 bc
       -0.064304106 -0.084962994 0.051460087 -0.011167106

network_body._body_endoder.seq_layers.2.bias f4 [128]
000000 67 64 b2 bb 15 54 eb bd dc 8d f9 bc c9 71 30 3d
       -0.005444098 -0.11490647 -0.030463152 0.043077264
000010 a6 20 54 bc 65 7d c2 bc 86 80 5d bd 41 31 35 be
       -0.012947237 -0.023741433 -0.054077648 -0.1769457
000020 c8 5e 50 bc 73 e0 66 bd 04 bf 3e bd d4 ea f0 bd
       -0.01271791 -0.056366395 -0.046568885 -0.1176354
000030 57 15 1e be 4f 9f af bd a2 e3 be bd 93 ae de bd
       -0.15437828 -0.085753076 -0.09320761 -0.10873141
000040 b0 b5 1b be 6b 80 0c bd f8 06 41 bd 44 e9 e4 3b
       -0.15206027 -0.034302156 -0.047125787 0.0069858152
000050 6e c5 94 bd 6d 1b 13 3c c6 25 33 3d 69 10 d2 bd
       -0.07264219 0.008978707 0.043737195 -0.10257036
000060 e3 b7 97 bd 29 99 2e bd 65 6f c0 bd 43 8f f1 bd
       -0.074081205 -0.042626534 -0.09396247 -0.11794903
000070 a7 4c 96 bd 1b 2c 3a 3b d0 43 ae ba 15 7e 0d be
       -0.07338839 0.0028407637 -0.0013295356 -0.13817628
000080 04 4e 75 bc 1f 42 30 be 03 b4 84 bd ea 6e 0e 3d
       -0.014972214 -0.17212723 -0.06479647 0.034773745
000090 64 d4 c1 bc 49 0c c9 bb be 87 a8 bd 50 16 32 bd
       -0.023660846 -0.0061354977 -0.08229016 -0.04347831
0000a0 75 44 9e 3a 8a a2 f9 bd 3c a2 67 3c 0d c8 a5 bd
       0.0012074845 -0.12189205 0.014137801 -0.08094797
0000b0 a9 9a 8b bd 42 e4 03 3d 30 c0 6c bd c3 bd 55 be
       -0.068166085 0.032200105 -0.05780047 -0.2087317
0000c0 e9 ec 90 bd dd 89 ab 3c 6b b0 76 bd 04 67 12 3d
       -0.07076437 0.020939762 -0.06022684 0.035742775
0000d0 fe e6 b3 bd 9f f3 fc bd 38 83 0a be ca 3b bd bd
       -0.08784293 -0.123511545 -0.13526618 -0.092399195
0000e0 a0 7b 13 be 0b 24 91 bd ea 52 8c bd e1 61 d3 bc
       -0.14402628 -0.07086953 -0.06851752 -0.025803508
0000f0 26 0b 39 bd 7b 72 5a bd a0 c4 87 bd 50 6e 45 bc
       -0.045176648 -0.053331833 -0.066293 -0.012050226
000100 e7 e5 85 bd db e7 c1 3b 79 94 14 be 05 35 9a bd
       -0.06537991 0.005917532 -0.14509763 -0.07529644
000110 ba ec ac bd e2 22 0c bd 11 a0 e9 3b 7a b1 a8 bc
       -0.084435895 -0.034212954 0.007129677 -0.02059244
000120 13 2a 3b be 60 52 9f 3b 8a fb 24 be fb 3e fa bc
       -0.18277769 0.004862115 -0.1611158 -0.03054761
000130 35 b5 ba bc 52 4f 5c 3c 85 3d d2 bd d2 2e 92 bd
       -0.022791484 0.013446646 -0.1026564 -0.071378365
000140 e9 53 79 bd c8 09 27 bb e4 dd 03 bd 67 f2 40 bb
       -0.06087104 -0.0025488008 -0.032194033 -0.0029441358
000150 05 de 2c be 9d b3 68 bc 5f e3 c5 bc 2d 40 df bd
       -0.16881569 -0.014202979 -0.02415627 -0.109009124
000160 ec 55 63 bd 0a 34 83 bc fd 6b 10 be 44 8d 25 3b
       -0.055501863 -0.016016025 -0.14103694 0.0025261203
000170 b9 5a c4 3c aa fa 0b bd 61 fc 08 bd c3 12 4a bd
       0.023969041 -0.0341746 -0.033443812 -0.0493343
000180 68 12 0a be d9 c8 ad 3c 32 04 ab bd 70 8f a0 bd
       -0.13483584 0.021213936 -0.083504096 -0.078398585
000190 51 b0 1e be 2d b5 3d be 8c 51 0b 3b 83 fe cf bd
       -0.15496947 -0.18526144 0.0021258323 -0.10155966
0001a0 d4 45 f5 3c bb 31 2e bb b3 3b 50 bd 2a 59 c2 bb
       0.029940523 -0.0026579935 -0.050838184 -0.0059310393
0001b0 4a d9 b0 bd f2 f4 f3 3c 94 5d 5b be e0 93 42 bd
       -0.086351946 0.029779885 -0.21422416 -0.047504306
0001c0 60 28 00 bc d2 e8 23 bd d3 12 41 bd 60 c1 e2 bd
       -0.007822126 -0.040016957 -0.047137093 -0.110720396
0001d0 0a ff 7c bd 43 aa ab bd a6 f8 0a 3d d1 54 1e bd
       -0.06176666 -0.08382084 0.033928536 -0.038655106
0001e0 49 e1 bb 3c 8c c8 8a bd d9 52 e4 3b 2d ab 43 bd
       0.022934573 -0.067765325 0.006967884 -0.047770668
0001f0 22 11 a4 bd ef 54 3d bc 88 fd bd bd ed 9d f1 bc
       -0.0801108 -0.011555894 -0.09276873 -0.02949425

action_model._continuous_distribution.log_sigma f4 [1, 2]
000000 7f 85 85 be 13 b9 9d be
       -0.26078412 -0.30805263

action_model._continuous_distribution.mu.weight f4 [2, 128]
000000 c2 c9 0c 3d e6 7c 92 bc fd d5 66 3c 73 34 4f bb
       0.0343721 -0.017881822 0.014089105 -0.0031616956
000010 b6 dc 28 3c f8 a2 ba bd 95 c5 ee bb 02 9a de 39
       0.010306528 -0.09113115 -0.007286737 0.00042457884
000020 ab ac 17 3b ca 10 89 bc 93 e1 1b bd dc ae 53 3c
       0.002314369 -0.016731638 -0.03805692 0.012920108
000030 6f e3 f5 3b 0d 44 03 bd 02 84 6d bc 65 1e 58 3c
       0.007503919 -0.03204732 -0.014496805 0.01319084
000040 28 fb fe ba 76 5a c8 bd 5c 55 b4 bc bb 4a e2 3d
       -0.0019453513 -0.09782879 -0.022013359 0.1104941
000050 bc 8e 3d bc 67 c8 5f 3b 59 d0 bc bd 8a 4a 3f bd
       -0.011569675 0.0034146549 -0.09219427 -0.046701945
000060 68 d2 81 bb 86 8d 8c bd d7 36 d7 3c 5c 91 b5 bc
       -0.00396185 -0.06862931 0.026271267 -0.02216404
000070 0b ff 1c bc 2f 6a 2d bd 77 bf 79 3a 12 50 3b 3b
       -0.009582291 -0.042337593 0.00095271267 0.0028581661
000080 42 46 a0 bd 99 8e 94 3b b0 7b 80 3d b6 f0 d8 bd
       -0.078259006 0.0045336005 0.062735915 -0.10592787
000090 0d 50 08 bd 4f d2 97 3d f7 b4 db bc 5a 7a 07 bc
       -0.033279467 0.0741316 -0.02681969 -0.008268917
0000a0 cc 8b c9 3d cc 91 e9 bc 99 79 65 bd 00 5c 25 3c
       0.09841117 -0.028511904 -0.056024168 0.010092735
0000b0 6e ff e0 bc 2f 0a eb 39 d7 71 02 3c 33 ae af 3b
       -0.027465548 0.0004483028 0.007961712 0.0053613423
0000c0 21 8b e4 bc 00 34 85 3c cc af af 3b 0c ce df 3d
       -0.027898373 0.016260147 0.005361533 0.10927972
0000d0 e4 32 6b bb 43 3f 45 bd be 84 47 bc 33 1d b2 3c
       -0.0035888487 -0.048156034 -0.012177644 0.021742439
0000e0 69 4c c2 bb 0c 28 2f bd 05 3e 49 bb 56 9e be bc
       -0.005929519 -0.0427628 -0.0030707133 -0.02326886
0000f0 64 57 9a bd 83 9e d0 3c 0c e2 4e 3c 51 a3 dd bb
       -0.075362 0.02546621 0.012627136 -0.0067638536
000100 7d 58 c7 3b a2 a6 57 bd 30 1b 27 bc 37 f0 03 3b
       0.0060835467 -0.052649148 -0.010199353 0.0020132193
000110 45 11 75 bd 0e 3d 8f bb 44 d9 64 bd 99 dc c6 3c
       -0.059830923 -0.004371292 -0.055871263 0.024275111
000120 0e 2c 58 3c d5 20 f9 3a e1 50 36 bb ec d2 99 bc
       0.013194097 0.0019006977 -0.0027819204 -0.018777333
000130 2c 9d 1a bc d3 93 3b 3d 01 49 e0 bc 32 7b 33 bd
       -0.009436887 0.045795273 -0.027378561 -0.04381866
000140 09 80 f1 bb 18 65 ac 3b 80 84 93 bb 40 81 3f bc
       -0.0073699993 0.0052610748 -0.004501879 -0.01168853
000150 a7 d9 1f 3c 9c 41 5d bd e8 2b 1e 3d cd b7 b3 3c
       0.009756482 -0.054017648 0.03861609 0.021938229
000160 f6 4f 9b bd c6 70 63 3d 51 92 c3 bc 34 1a 27 bc
       -0.07583611 0.05552747 -0.02387348 -0.010199118
000170 17 d5 f7 bc 68 12 a6 bc b9 11 48 bd 56 6c 90 bb
       -0.030252976 -0.020272449 -0.048845027 -0.004407446
000180 36 5b f8 3b ad 7a 6c 3d b5 de e9 3b 2f fe d1 ba
       0.0075792326 0.05773418 0.0071371445 -0.0016021187
000190 0b 81 12 3b 8a 5b 82 bc 39 8d 9b bc 92 a9 16 bd
       0.0022354748 -0.01591279 -0.018988239 -0.03678281
0001a0 e8 df 00 3d 9b a7 f7 bc be 48 79 bc e5 0c 7a bd
       0.031463534 -0.030231288 -0.015215097 -0.061047453
0001b0 10 10 f4 bc 25 d7 a7 bc 9f c7 d2 b9 d1 78 90 bc
       -0.029792815 -0.020488331 -0.0004020305 -0.017635735
0001c0 45 ba 41 bc 11 e9 5d bd b4 f2 c7 bc 2d 21 4f bd
       -0.011824195 -0.054177348 -0.024407722 -0.05056875
0001d0 6d 4f 40 3c ca 00 3e 3a 3d cd 17 3e db d2 59 bd
       0.011737687 0.00072480424 0.14824386 -0.053179603
0001e0 08 54 15 bd 67 22 98 bc 50 43 e4 3c a9 78 2c 3c
       -0.03645709 -0.018571092 0.027864128 0.0105268145
0001f0 d8 0f 17 bc 8a 98 50 bc d3 2e b5 bb df 59 e8 3d
       -0.009220086 -0.012731681 -0.0055292635 0.113452666
000200 ab 62 c0 3b 66 0b 3f 3d c0 7f 93 39 48 2f 80 3d
       0.005871137 0.04664173 0.00028133206 0.06259018
000210 24 7e 9d bb 68 1f 56 3b 74 c3 72 3d a4 38 3f bc
       -0.004806297 0.0032672528 0.05926843 -0.011671219
000220 f2 ac 93 bd a1 b0 39 3d 53 8c f1 3c 82 c4 1d 3b
       -0.07210721 0.045334462 0.029485857 0.0024073427
000230 4c 7c 45 bb 55 cc c6 3c 6b 36 23 3d b3 95 4c 3c
       -0.00301339 0.024267355 0.03984682 0.012486863
000240 08 af 12 bc b4 97 3a 3d 01 8b 8f 3d f3 a7 31 bd
       -0.0089528635 0.04555483 0.07008935 -0.04337306
000250 90 0f b5 3c 79 28 65 3d 09 07 6e 3d 19 75 98 3d
       0.022102147 0.0559468 0.058112178 0.074442096
000260 45 2b 40 3c 7c e9 10 3c 81 f0 09 3d 6e 71 f5 3c
       0.011729066 0.0088447295 0.033676628 0.029961314
000270 f3 bf 74 3d 88 33 f2 bb 34 2f 65 3c d0 7c e1 bb
       0.05975337 -0.007391397 0.013988305 -0.006881334
000280 f6 f2 87 39 6c ac 45 bb ec 61 06 bd 96 a0 ab bd
       0.00025930227 -0.0030162586 -0.03280823 -0.08380239
000290 df 2a 33 3b 19 e3 47 bd 70 13 66 3d d0 e7 2f 3c
       0.0027338786 -0.04880056 0.05617088 0.010736421
0002a0 02 45 74 39 6f a7 2c 3d 68 10 cb 3c 86 e6 a0 b8
       0.00023295361 0.042151865 0.024788097 -7.672333e-05
0002b0 74 e5 70 3d 10 e6 84 bd fc 99 25 bc c5 f3 17 bc
       0.058812574 -0.064891934 -0.0101075135 -0.009274428
0002c0 7b 27 9f 3d ff 90 a3 bd e5 28 94 bb 23 8e b0 3c
       0.07771202 -0.0798664 -0.0045214766 0.021552151
0002d0 a2 3b d0 3c 46 c0 f1 3b a8 c4 44 3b cb 9f 99 3b
       0.02541906 0.007377657 0.0030024443 0.0046882383
0002e0 27 2d 75 bc 51 5d c8 3c 79 a3 d6 3c d8 3b a8 3d
       -0.014964378 0.02445856 0.026200997 0.08214539
0002f0 47 06 72 bc db d0 c4 bc f7 4b 8a 3d 62 b0 c1 3c
       -0.014772004 -0.024025371 0.067527704 0.023643676
000300 7d e1 90 3c e1 84 3c 3d 88 60 8b 3b 54 7e a8 3c
       0.017685646 0.04602516 0.004253451 0.02056805
000310 23 67 5d 3d 14 30 a8 3b 55 2b 23 3d 43 31 ab 3c
       0.054053437 0.0051326845 0.039836247 0.020897513
000320 3a 06 48 3c 5b 45 69 3d 74 ea 20 3c 10 d0 55 3d
       0.012208516 0.05695091 0.009821523 0.052200377
000330 47 88 39 3c 79 7c 85 3b 2b 02 7a 3c dd 6a 56 3d
       0.011323995 0.004073676 0.015259306 0.052348007
000340 ce 31 88 bc 08 03 84 bd fd 8c 08 3c cc 05 1c 3d
       -0.016625311 -0.06445891 0.0083343955 0.038091466
000350 5b c1 c2 bc f4 ff e0 3c 0a ee d0 bd 8b 52 a1 3a
       -0.02377384 0.027465798 -0.10201652 0.0012307925
000360 77 17 0b bd 4b 9f a7 bc ea 74 a8 3b d0 a9 82 3d
       -0.033957925 -0.020461699 0.0051408904 0.063800454
000370 80 82 93 3d 22 1b 18 3d 80 a8 df 3c 60 4f 31 bc
       0.07202625 0.03713525 0.027302027 -0.010822147
000380 53 1d 23 bc 62 09 cb 3c b6 a9 ca 3a 3b d6 05 bc
       -0.009955722 0.024784748 0.0015461955 -0.008168752
000390 d3 e6 95 3c b5 ba 3c 3d 75 f0 93 bd b3 fe 1d 3d
       0.018298542 0.046076495 -0.07223598 0.03857298
0003a0 a1 43 74 3d 2a a2 8c bc 2a 1a 6d 3d e3 16 14 bd
       0.05963481 -0.01716717 0.05788628 -0.03615464
0003b0 62 78 07 bd 25 5b 81 3d a4 4d 56 bc b7 d0 77 3d
       -0.03307379 0.063162126 -0.013080034 0.06050178
0003c0 c7 87 6b 3d 5b 58 64 3d 97 7f 3e 3d 95 64 d2 3b
       0.057502534 0.055748325 0.046508398 0.0064206817
0003d0 b2 3d 63 3d 4f cb 73 3d f5 68 60 bb 7b 39 91 bb
       0.05547876 0.059520062 -0.0034242247 -0.004431901
0003e0 84 dc 63 3d 4d 9a 30 3d 80 ae 2e 3d de 9c a4 bb
       0.055630222 0.043115903 0.042646885 -0.005023583
0003f0 0a b6 d6 bb d9 be 7c 3d fc a6 02 3d e1 26 3b bd
       -0.0065524625 0.061705444 0.03189753 -0.045691375

action_model._continuous_distribution.mu.bias f4 [2]
000000 29 74 8c bb 16 1f e7 bc
       -0.0042863083 -0.028213065

exp_avg f4 [128, 6]
000000 91 ab 2b 3b 8b 90 51 b9 ea fb 92 ba 12 c0 d3 39
       0.002619479 -0.0001998564 -0.0011213992 0.0004038816
000010 58 f5 dc be a5 64 51 3c bc e0 04 3a ce d7 e9 bb
       -0.43155932 0.012780343 0.00050688884 -0.0071363216
000020 b9 d4 cd b9 c1 47 0e 3b 57 62 a2 3a 52 b3 9e ba
       -0.00039259138 0.002171025 0.0012388927 -0.0012107885
000030 d8 25 69 37 23 83 cd 3a 36 b4 0f b8 f6 3e b7 b9
       1.3896693e-05 0.001567934 -3.426169e-05 -0.0003495139
000040 e4 18 bb b8 1a 8b e7 39 03 2b 4b bb 31 4c 8f 3b
       -8.921491e-05 0.00044163392 -0.0031000979 0.0043730964
000050 22 a9 18 3c 1f 92 1b bb 20 ad 8a c0 d8 31 f3 3d
       0.009317668 -0.0023738218 -4.3336334 0.11874741
000060 8f 97 7a bb 99 4c 87 bb 2e 0c a9 3b 2e 32 b1 bb
       -0.0038237309 -0.004129004 0.0051589226 -0.005407593
000070 40 ed aa bf f1 c2 1b 3d f6 cd b4 ba c4 e0 2c bb
       -1.3353653 0.038027707 -0.0013794291 -0.0026379088
000080 e0 ca cb 39 6f 1d c6 ba 37 61 21 bb c4 01 5b ba
       0.0003887033 -0.0015114973 -0.0024624595 -0.000835445
000090 1c 0b 97 bb 19 0f d1 bb f3 63 a0 bb ae 2c 02 3b
       -0.0046094786 -0.0063799736 -0.0048947274 0.0019863057
0000a0 8f 84 9f 40 8a c1 0e be c1 93 00 3a 02 cc 5b 3a
       4.9849315 -0.13941017 0.00049048295 0.00083845865
0000b0 3a 8a 1c 39 84 aa 36 39 14 e1 3f 3a 0e ac 22 3a
       0.00014928813 0.00017420395 0.0007319611 0.0006205448
0000c0 e9 20 65 bb b4 1d 0e ba 14 f5 36 ba 8c bd fe 39
       -0.0034962243 -0.0005421296 -0.00069792685 0.0004858788
0000d0 55 a3 f8 3f d2 0e 61 bd 4e 27 10 ba ce a9 09 3a
       1.9424845 -0.054945774 -0.0005499021 0.0005251438
0000e0 3c 55 3f b9 80 1f 64 3a 92 65 2b 3a 54 1c cc ba
       -0.00018246932 0.00087022036 0.00065382675 -0.0015572407
0000f0 b0 6b 18 ba f7 8b cc ba b6 0d b1 39 51 ac a3 ba
       -0.00058143865 -0.0015605678 0.00033770286 -0.0012487267
000100 89 24 c6 ba 50 3d 10 3a 3e f4 57 bb 30 b1 81 ba
       -0.001511709 0.00055023003 -0.0032951976 -0.0009894725
000110 0f f3 ff ba 82 49 48 3b 24 8c 39 40 72 00 a8 bd
       -0.0019527393 0.0030561392 2.8991785 -0.0820321
000120 57 9f 97 ba 1e 5c f7 3b 1a 13 c4 3b 5b f6 ee ba
       -0.0011567873 0.007548823 0.0059837224 -0.0018231379
000130 f7 d0 47 c0 94 1d b0 3d 92 3f 3e b9 8e 23 6d 3b
       -3.1221292 0.085993916 -0.00018143494 0.0036184522
000140 ba 6a 92 38 ed b5 ae b9 43 d0 82 b7 88 24 0d 36
       6.981702e-05 -0.00033323411 -1.5594187e-05 2.1031901e-06
000150 6e 6f a6 bb fa 9f af 3a d4 56 f1 3b 32 73 fb ba
       -0.0050792014 0.0013399117 0.007365087 -0.0019184111
000160 01 60 0f c0 b0 4f 77 3d 07 48 0e 38 a6 8d fa 3b
       -2.2402346 0.06037873 3.392252e-05 0.0076462803
000170 51 45 54 b8 84 c1 7c 37 03 11 57 3a 17 f6 52 b8
       -5.0609295e-05 1.5065427e-05 0.0008204134 -5.029709e-05
000180 a4 a1 91 37 80 70 dc ba 1a 5b ee b5 4f 8c 91 38
       1.7360617e-05 -0.0016818196 -1.7758896e-06 6.940273e-05
000190 c2 f4 e7 b8 fa 5e d1 b6 c8 b0 b0 37 2c d0 c7 3b
       -0.00011060528 -6.239742e-06 2.1063155e-05 0.006097814
0001a0 c2 9d e5 b7 b4 e0 34 b7 b1 ab 26 3a 42 d9 0a b6
       -2.7372389e-05 -1.0781154e-05 0.00063579815 -2.0690063e-06
0001b0 d3 3e 61 bb 74 08 38 3c d0 fc 21 3c af ad 22 bb
       -0.0034369722 0.011232484 0.009886935 -0.0024822762
0001c0 a7 92 8e c0 39 ff f9 3d df 42 46 b8 38 14 7d 3b
       -4.455402 0.12206883 -4.7269157e-05 0.0038616788
0001d0 b4 05 4d 36 40 4a be b8 b9 6d 95 39 88 6c 7b b6
       3.05507e-06 -9.073736e-05 0.00028501244 -3.7465088e-06
0001e0 f0 91 73 3a e0 00 35 3a c8 3a 91 ba f7 da 88 3a
       0.0009291461 0.00069047324 -0.001108014 0.0010441233
0001f0 d0 a7 a6 3e 51 7d 14 bc 3d 7f 31 bb 49 28 0d bb
       0.32549906 -0.009063081 -0.0027083897 -0.0021538904
000200 ac 40 13 bb b7 7a d7 39 47 bf 23 40 19 c3 91 bd
       -0.0022468967 0.00041099425 2.5585496 -0.0711729
000210 15 6b a5 bb 9b 12 8b bb 69 cf ce 3a 94 79 a8 ba
       -0.0050481656 -0.0042441613 0.0015778366 -0.0012853616
000220 be 63 b1 3f f8 4f 22 bd 65 52 49 39 0e d4 e5 39
       1.3858564 -0.039627045 0.00019199548 0.00043836277
000230 3c b0 d3 b7 c2 eb de 38 54 28 7f 39 18 07 b0 38
       -2.5235226e-05 0.00010629698 0.00024333718 8.393655e-05
000240 c8 08 ed 3a 66 40 20 3b 7e 2f fc ba f1 45 07 3b
       0.0018084282 0.0024452447 -0.0019240228 0.0020641054
000250 71 77 05 3f 10 f7 6e bc 16 9c de 39 61 91 d6 3a
       0.5213538 -0.0145852715 0.00042459433 0.0016370231
000260 6a 23 97 b9 c8 24 2c 3a b5 c3 91 3a dc 37 03 3a
       -0.0002882735 0.000656676 0.0011120947 0.0005005577
000270 4e 39 33 38 88 40 18 3c 36 a6 3e b8 d2 74 0d 38
       4.2730295e-05 0.009292729 -4.5454326e-05 3.3725817e-05
000280 ff 94 86 3a b9 08 c7 b7 3c be 9b ba 1e 15 65 bb
       0.0010267793 -2.372671e-05 -0.0011882256 -0.0034955214
000290 4c ba 5f 3a 0b b0 39 bb 48 41 65 bb 07 5b 80 3a
       0.00085345353 -0.002833369 -0.0034981538 0.0009792753
0002a0 66 00 04 bb 11 71 a9 bb 23 d5 04 3a bd 3a 5b bb
       -0.002014184 -0.0051709493 0.000506716 -0.0033451759
0002b0 19 35 1a 3f ee 55 82 bc e3 12 73 3a 9e 71 25 3b
       0.6023727 -0.015910115 0.00092725287 0.0025244723
0002c0 62 c5 9a b9 c6 8a 7a 3a e3 6c bd 3a 6c e6 4e 39
       -0.0002952023 0.0009557422 0.0014452006 0.0001973153
0002d0 de 63 fd 36 99 fa cd 3b f6 ba ae b7 72 84 e2 b7
       7.5516136e-06 0.006285977 -2.0829477e-05 -2.7002974e-05
0002e0 92 db 21 3a 62 a6 ec b6 cd 4c d2 39 44 27 bf 3b
       0.0006174381 -7.0527176e-06 0.00040111542 0.0058335382
0002f0 2e 26 9e b9 16 44 54 3a 3c 42 ba 3a f2 02 c7 b9
       -0.00030164554 0.0008097304 0.0014210413 -0.00037958432
000300 0b e7 dc ba 92 38 b7 bb 9f 04 cd bb 2f c1 d9 3a
       -0.0016853524 -0.0055914605 -0.0062566544 0.0016613359
000310 fb 0b 93 40 28 25 02 be 10 99 ca ba 57 8f af 3b
       4.5952125 -0.12709486 -0.0015456993 0.0053576636
000320 36 a2 ad 3b ba 3a 21 bb b3 4b 1f c0 19 2b 8e 3d
       0.005298878 -0.0024601654 -2.4889953 0.06941814
000330 dc 86 07 39 06 f8 c4 bb 6a 2e 07 bc 6d 4c 09 3b
       0.00012924842 -0.006011012 -0.008250812 0.0020950094
000340 0b 3c 9d 40 d4 f2 0a be 94 2b 76 bb 78 6d 3a b8
       4.9135795 -0.13569194 -0.0037562596 -4.4447806e-05
000350 c7 a7 9f 3a 8d 10 d4 3a 7b e5 a3 3f 6a c3 16 bd
       0.0012180739 0.0016179249 1.2804407 -0.036807455
000360 7a 9f 36 3a c0 dc bb 3a 8a 6c 97 b9 86 91 77 3a
       0.0006966513 0.0014332756 -0.00028881832 0.0009443987
000370 a0 1f b0 3a 7c d5 1c 39 d4 64 d5 ba c9 68 88 bb
       0.0013437159 0.00014956848 -0.001628066 -0.004162882
000380 6f bd 2e 3a ea 1d 42 bb 0a 4a 83 bb ea 37 1e 3a
       0.0006665801 -0.002961988 -0.004006629 0.00060355535
000390 c6 4e 16 bb 2e a6 1c 3c 66 61 d3 3b a2 6f 72 ba
       -0.0022935136 0.009561105 0.00645082 -0.0009248202
0003a0 d3 ba 2c c0 9d 80 97 3d 0c f9 ee ba 84 64 66 bb
       -2.6989028 0.07397578 -0.0018232181 -0.0035155127
0003b0 be 23 fa 39 14 db 17 bb 90 6a 57 bb 30 12 69 b8
       0.00047710346 -0.0023171352 -0.0032869913 -5.5568467e-05
0003c0 ee 83 50 bb 60 ac fd 38 60 b4 b1 3b 66 9b 28 bb
       -0.0031816917 0.000120960874 0.0054231137 -0.002572739
0003d0 b0 03 05 c0 4d d9 68 3d ac 62 69 ba 72 85 08 bb
       -2.07835 0.05684786 -0.0008902948 -0.0020831493
0003e0 78 82 9e 39 e6 54 ae ba 59 be 04 bb c0 65 f8 b6
       0.00030233315 -0.0013300448 -0.0020255058 -7.402821e-06
0003f0 8c 25 13 bb ba b9 01 3c 4f f8 e0 3b 0f 64 02 bb
       -0.00224528 0.007917816 0.006865538 -0.0019896065

exp_avg_sq f4 [128, 6]
000000 74 0c dd 3b 8c b7 e5 43 c1 f3 24 3c c5 6a 8c 3b
       0.0067458693 459.43396 0.010067881 0.004285189
000010 c1 2a c8 43 10 3a 4b 3d 09 49 39 3e cd 53 11 46
       400.334 0.04961592 0.18094267 9300.95
000020 84 91 5f 3e 64 98 32 3c d5 03 26 45 cd 03 94 3d
       0.21832854 0.010900591 2656.2395 0.072272874
000030 e9 04 1a 3c 3f 04 cc 43 09 8f 36 3c 37 af 67 3b
       0.009400585 408.03317 0.011142501 0.003535224
000040 fa 60 bd 42 45 9c 1f 3b 2e b1 80 38 da 0c e2 39
       94.68941 0.0024354619 6.136518e-05 0.00043115654
000050 de ac 0a 3a b6 ac b7 39 25 7b c6 43 f2 9d b6 3e
       0.00052900414 0.0003503316 396.96207 0.35667378
000060 aa 84 50 3b 7a 28 47 43 07 70 99 3b 01 c6 95 3b
       0.0031817355 199.15811 0.004682544 0.004570723
000070 cf 6e 9c 43 27 b0 ad 3d a5 7d 95 39 96 ee 45 3a
       312.8657 0.08480864 0.00028513107 0.00075505057
000080 ae 80 e4 38 a7 42 be 39 0d c1 44 3a 72 94 0d 39
       0.00010895856 0.00036289284 0.00075055734 0.00013502108
000090 12 43 1d 38 be dd fe 3d 76 77 4c 39 cd ae 17 39
       3.749418e-05 0.12444638 0.00019499459 0.000144656
0000a0 17 9c 3e 42 7a 85 22 3d 0b a5 b9 39 d1 d4 43 41
       47.65243 0.039678074 0.00035408916 12.239457
0000b0 0e e9 93 39 69 a8 e9 38 64 20 78 3d 35 49 5b 38
       0.00028211664 0.000111416746 0.060577765 5.228185e-05
0000c0 1f 7c 47 3c 0c 17 31 44 21 61 79 3c 17 84 96 3b
       0.012175589 708.3601 0.015220911 0.004593383
0000d0 41 02 d4 43 87 db 51 3d d1 c6 b8 3a 9d f9 5c 3b
       424.0176 0.05123475 0.0014097338 0.0033718117
0000e0 b7 7c 66 3a e2 fa ad 3a 98 64 5d 3b 22 d3 80 3a
       0.00087923877 0.0013273621 0.0033781882 0.0009828547
0000f0 13 a4 7b 39 d0 8e 3b 3a 9a 16 d3 38 68 c7 8b 39
       0.00023998348 0.00071547646 0.00010065474 0.00026660715
000100 f3 f5 8c 3b 83 8a 1c 39 0a f1 8f 3b 2f f8 a5 43
       0.0043017804 0.00014928919 0.004392748 331.93893
000110 c9 cb f0 3b 45 d3 c0 3b a1 3c e5 43 05 d1 ab 3d
       0.007348512 0.0058845603 458.47366 0.08389477
000120 95 ab 3b 3d 30 11 19 45 20 4b 64 3d 06 da 77 3c
       0.04581793 2449.0742 0.055735707 0.015127664
000130 84 66 96 44 47 36 02 3e 1a db 0f 3d cb cf dd 44
       1203.2036 0.12716018 0.03512106 1774.4935
000140 ef 9c 25 3d 06 e6 f3 3b 64 0a 11 44 9a 63 3b 3c
       0.040432867 0.0074431924 580.16235 0.011437321
000150 77 44 a6 3c e4 6c f2 44 99 b5 2a 3d af 18 e1 3c
       0.020296318 1939.4028 0.04167709 0.02747759
000160 1d b6 22 45 98 ea d9 3e a7 52 f5 3d 36 5b b5 45
       2603.382 0.42561793 0.11978655 5803.4014
000170 5c f8 08 3e 0b 41 a7 3c 3d 89 b2 44 9c e5 dd 3c
       0.13375992 0.020416757 1428.2887 0.027087025
000180 c4 27 0e 3c e9 84 03 44 4e 5e 40 3c a5 29 8e 3b
       0.008676473 526.0767 0.011741234 0.0043384605
000190 7a ae a7 43 7c 5e da 3b 8c f4 a6 3d e3 e4 7f 45
       335.3631 0.0066640954 0.08152112 4094.3054
0001a0 27 03 c2 3d 92 d3 a3 3c 48 83 a6 44 fd a6 d5 3c
       0.094732575 0.019998346 1332.1025 0.026080603
0001b0 ba c4 d0 3d 9b 5a af 45 a0 a7 00 3e 12 ed 08 3d
       0.101937726 5611.3257 0.12563944 0.033429213
0001c0 50 0d 41 45 27 37 ef 3e 47 23 04 3d df 62 cb 44
       3088.832 0.46721765 0.032260206 1627.0897
0001d0 d6 0d 15 3d 67 5d db 3b 1b 53 00 44 3a 9b 21 3c
       0.036390148 0.006694484 513.2985 0.009863669
0001e0 70 3b d1 39 8c 48 f0 40 b2 ab 84 39 28 83 bb 39
       0.0003990787 7.508856 0.00025304925 0.00035765138
0001f0 19 67 16 41 44 b5 92 3b 4a b5 ef 3b 31 42 d0 43
       9.40017 0.004477175 0.0073153125 416.51712
000200 d5 90 18 3c 31 f8 28 3b b6 67 5e 43 b0 7b 6f 3c
       0.009311874 0.00257827 222.40512 0.014616892
000210 64 a0 ae 3b d4 1e fb 43 da fa 32 3c e8 6f e5 3b
       0.0053291786 502.24084 0.0109240655 0.0070018657
000220 e7 b3 29 44 f5 c9 f8 3d 9a 75 af 39 a6 9b 1f 41
       678.811 0.12147895 0.0003346622 9.9755
000230 58 f4 d2 3a d9 bf 5d 39 2d 3c 7f 3d 10 f2 08 39
       0.0016094549 0.00021147671 0.062313247 0.00013060146
000240 aa a1 26 3b df 04 d2 42 8a a9 a3 3b 1e 4a 3b 3b
       0.002542595 105.009514 0.004994576 0.0028578113
000250 7d 9d ff 42 59 aa 57 3c 83 2f 33 3b eb 18 a8 42
       127.807594 0.013163173 0.0027341552 84.04867
000260 a8 01 ba 3b 0b 46 54 3a 84 86 4b 3f 5f 4f 9a 3a
       0.005676467 0.00080975954 0.7950213 0.0011772922
000270 50 f4 3d 3e ff a9 0f 46 41 bf 5a 3e 39 28 27 3d
       0.18550229 9194.499 0.2136202 0.040809844
000280 f6 9c 35 45 a7 8b 6b 3d 9b 30 66 3a 20 69 0b 3b
       2905.81 0.05750623 0.00087810465 0.0021272376
000290 a1 58 8e 39 2f 17 77 3a 7c ca 0b 3b 31 6e 45 3a
       0.00027150384 0.0009425757 0.0021330407 0.00075313734
0002a0 96 c1 0a 3a 8b b5 72 3c d7 d4 88 39 09 ba 2a 3a
       0.0005293129 0.014813791 0.0002609852 0.0006512707
0002b0 e0 60 93 3f 28 e0 95 3a 99 69 a9 3b 1c 22 93 43
       1.1513939 0.0011434602 0.005170059 294.26648
0002c0 0c 3f f7 3b 70 1b 82 3b d3 69 5a 43 80 f5 a0 3b
       0.0075453576 0.003970556 218.41338 0.0049120784
0002d0 55 d1 af 3d 57 7a 87 45 b0 45 cb 3d 10 3b 9c 3c
       0.08584849 4335.2925 0.09925401 0.019071132
0002e0 38 f6 b9 44 f4 85 f2 3c 3c a3 50 3d ef 46 17 45
       1487.6943 0.02960489 0.050936922 2420.4333
0002f0 d0 e7 68 3d 9b 54 1f 3c 76 96 0f 44 14 2d 39 3c
       0.0568617 0.009724761 574.35095 0.011302251
000300 a8 f6 a0 3a 86 36 b5 42 cf 44 0f 3b 80 b3 13 3b
       0.001228054 90.60649 0.0021861081 0.002253741
000310 7c 51 1f 43 23 b1 3f 3d 4a c7 cc 3c a5 e2 9c 44
       159.3183 0.04679979 0.024997372 1255.0826
000320 16 7e eb 3c 3a 81 be 3b 74 d0 01 44 5c 27 c3 3d
       0.028746646 0.005813745 519.2571 0.095289916
000330 19 2e 2c 39 22 4e 78 3e 83 8d b3 39 59 9f be 39
       0.00016420371 0.24248555 0.00034246975 0.00036358347
000340 5e b7 3e 43 49 1b 24 3e e8 52 67 3c 95 c9 aa 44
       190.71628 0.16026033 0.0141188875 1366.2994
000350 87 b8 ed 3c 1d 14 99 3c 65 31 d2 44 3f 1e 2e 3e
       0.029018654 0.018686349 1681.5436 0.17003725
000360 6f e5 21 3a 65 24 97 3a ac fc 80 39 62 b5 00 3a
       0.0006175851 0.0011531232 0.00024602318 0.00049098406
000370 10 7f 97 3a 69 1d d2 39 a1 f3 38 3a fa 87 19 3b
       0.0011558253 0.00040076234 0.00070553465 0.0023426996
000380 e3 69 97 3a dc 94 64 3a b4 d1 18 3b ae 11 2c 3a
       0.0011551942 0.00087196915 0.0023318352 0.0006563914
000390 c3 e5 8c 3d 6b 72 5a 45 34 c5 a0 3d 7f 9c 82 3c
       0.06879761 3495.1511 0.078501135 0.015943764
0003a0 a5 50 b2 44 c5 d6 6d 3e 30 ba 50 3a 1e a5 33 3b
       1426.5201 0.2322646 0.00079623144 0.002741165
0003b0 f9 8d a2 3a 1d 9b 5e 3a d3 57 32 3b fb ef 29 3a
       0.001240193 0.00084917416 0.0027212992 0.0006482598
0003c0 94 74 df 38 8f 88 db 3d b2 4c b5 39 9e 4f 94 39
       0.00010655183 0.10719406 0.00034580153 0.0002828808
0003d0 37 04 18 43 5e 84 07 3e 2b 64 b1 39 89 b1 67 3a
       152.01646 0.13234088 0.00033834702 0.00088384055
0003e0 3d 36 d6 38 05 a9 be 39 31 a1 68 3a d6 aa c5 39
       0.00010214418 0.00036365553 0.0008874117 0.0003770205
0003f0 84 77 61 3d 89 c6 38 45 fd 8a 87 3d ed d8 85 3c
       0.05504562 2956.4084 0.06618307 0.01633879

exp_avg f4 [128]
000000 4a 8b a9 39 34 bb 11 3a 70 2d a7 b8 29 fa 90 3a
       0.0003233797 0.00055592065 -7.971644e-05 0.0011060882
000010 4a ee 87 ba 2e cc 21 ba ac a2 d1 ba c0 43 40 39
       -0.0010370698 -0.0006172088 -0.0015993915 0.00018335786
000020 d1 2c 3b ba 36 e8 2e 39 d7 42 c7 b9 d2 f9 96 b9
       -0.0007140162 0.00016680438 -0.00038006037 -0.0002879636
000030 f4 c2 4d 3a 9c 3f e8 b8 8e 28 b3 39 00 13 de 35
       0.00078491797 -0.0001107447 0.00034171756 1.6545819e-06
000040 8b 78 91 37 05 37 95 b6 03 15 96 3a 40 0a 03 b8
       1.734148e-05 -4.446951e-06 0.0011450354 -3.124238e-05
000050 1d 22 6d 39 17 10 7f ba 03 d3 8b ba 5e 30 86 38
       0.0002261479 -0.00097298756 -0.0010667745 6.398627e-05
000060 fc e5 1a 3a 74 05 83 39 ec 9e 3c 37 e9 9d 66 ba
       0.0005908904 0.0002499033 1.1242675e-05 -0.0008797334
000070 4d f0 a9 ba b1 14 ad 39 dd 9c 2b b7 12 7b 6b 39
       -0.0012965292 0.00033012548 -1.0228917e-05 0.00022457194
000080 e3 36 b9 ba 75 d3 f7 39 1a 53 c5 ba e0 d0 03 b8
       -0.0014130737 0.0004726906 -0.0015054673 -3.1427364e-05
000090 a8 9c af 39 bc ef 83 ba 35 70 75 3a 88 17 58 ba
       0.0003349532 -0.0010065953 0.00093627285 -0.00082432525
0000a0 bc 75 6c 38 8b 95 05 ba d2 2f 42 3a d7 b7 24 ba
       5.6376433e-05 -0.0005095831 0.00074076385 -0.0006283498
0000b0 4c 68 8e b8 83 65 85 39 b3 c3 92 3a fb 81 53 3a
       -6.7905145e-05 0.0002544337 0.0011197239 0.000806838
0000c0 ea dd ad 3a 2e 4d 26 37 a1 14 a4 b7 c2 e4 76 3a
       0.0013264988 9.912341e-06 -1.955993e-05 0.0009418243
0000d0 ac 6c b0 39 b5 7f ea b9 7a 29 29 39 3f 3b 5b 38
       0.00033650303 -0.00044727107 0.00016132547 5.2268846e-05
0000e0 08 56 51 3a 33 a6 ea 3a b4 40 fe b8 97 77 0a ba
       0.0007985537 0.0017902314 -0.00012123716 -0.00052821025
0000f0 95 07 b4 39 fe d2 be 3a c1 7e aa 3a 70 02 82 3a
       0.00034337924 0.001455873 0.0013007746 0.0009918939
000100 b6 c3 ab b9 e7 34 05 3a b8 f0 1a ba ce f6 41 ba
       -0.00032761478 0.00050814304 -0.00059105037 -0.00073991425
000110 12 1f a6 38 6f b3 f0 37 f4 67 39 b8 c2 9c 91 ba
       7.921284e-05 2.8693785e-05 -4.420425e-05 -0.001110934
000120 48 31 59 3a 0c eb af b8 f5 74 a5 37 d8 30 6f b7
       0.00082852365 -8.388431e-05 1.9723995e-05 -1.4256882e-05
000130 15 df 04 3b 88 7b 9e 38 71 83 23 3a 86 39 02 39
       0.0020274569 7.5570366e-05 0.0006237543 0.00012419195
000140 31 aa 64 3a 6f f6 7b 39 b7 54 ff b9 3e 0a b3 b9
       0.000872287 0.00024029029 -0.00048700508 -0.00034149172
000150 a1 e3 26 ba 39 d0 7f 3a 75 00 1c ba d8 98 6e 3a
       -0.0006366317 0.00097585056 -0.0005950996 0.0009101755
000160 8f 6b fd 39 1d d1 b5 3a de 39 21 3a d1 48 0a 3a
       0.00048336058 0.0013871525 0.00061502855 0.0005275133
000170 5c 78 8d 3a 52 ba 08 3b 74 03 f8 3a 0e b1 1a 38
       0.0010793316 0.0020863009 0.0018921928 3.6881356e-05
000180 25 b3 d4 39 f4 08 d2 3a 43 be de 39 84 f6 81 39
       0.00040569264 0.0016024397 0.00042484896 0.00024788466
000190 20 a5 64 38 0f 28 c5 b9 f3 a1 5a b9 aa ef c4 3a
       5.451322e-05 -0.00037604614 -0.00020850431 0.0015025039
0001a0 17 6e b5 b9 fd 78 02 3a c2 53 e7 b9 8a 98 25 38
       -0.00034605034 0.0004977135 -0.00044122158 3.948113e-05
0001b0 9e 3e d9 39 de d6 ef 3a ce a3 ca 39 60 aa ad 3a
       0.0004143612 0.0018298288 0.00038650486 0.0013249628
0001c0 54 9e de b8 f7 20 11 3a d4 57 0c ba 40 31 be 39
       -0.00010615276 0.0005536223 -0.00053536636 0.00036276318
0001d0 48 29 61 ba 2a 56 80 ba 93 c6 1e 3b c8 eb 97 3a
       -0.000858922 -0.0009791304 0.0024227246 0.0011590654
0001e0 98 20 ae b7 7a 90 20 ba 6c a9 0b 39 88 77 75 b7
       -2.0757594e-05 -0.00061250443 0.00013319188 -1.46309685e-05
0001f0 f6 78 c7 b9 07 ac fa b9 1c e1 47 b9 69 af ce b9
       -0.0003804636 -0.00047811886 -0.00019061979 -0.00039422073
