MachineLearning/results/MoveToGoal--force/MoveTOGoal/checkpoint.pt (torch, 441378 bytes, 36 tensors)

network_body._body_endoder.seq_layers.0.weight f4 [128, 6]
00000000: cb64 f23e 732e a6be 01c7 6abe 7346 b2be
00000010: 7582 be3d 0284 a0bd 7e71 6e3e a919 f2bd
00000020: 8684 913c 92e2 c93d a508 643e 097c e7be
00000030: 84e0 40bc db0d aabe 4960 28be 9d18 883e
00000040: 0bd6 2b3f ba7f 64bd 6f69 8d3d 59b2 56be
00000050: 381c df3e 44d9 aabe 3485 fdbd c647 453e
00000060: 1928 18be dd45 f6be 2dd1 8abe c206 9a3e
00000070: 1939 bb3d 6f0a 23be 32a6 25bf dde5 583e
00000080: cb4a bc3e 0b39 f53e db0d 5dbf 0199 81be
00000090: bba5 3dbe a78b bf3d 8b51 253e fdfa b83e
000000a0: 17e6 303f ee7e 563e 96c2 573f 433d 3e3e
000000b0: 83ea 173f fa3d 9bbf f9a6 243f d1b4 f3be
000000c0: 62c5 26bf 9b51 12be 9025 3f3e ac99 7cbe
000000d0: a68d 163d 0279 9bbe 8f30 6cbe 8f5c 1a3d
000000e0: 9afc a4be da20 b53d 7ba0 09be 9ba7 2cbf
000000f0: 9c4e ef3e 1e58 10be b30c a03e 307f 6b3d
00000100: 3368 0f3e ea2a 66be 7fed 89be 2398 30bc
00000110: 3d74 bf3d 33c5 e8be 19ef 3a3e 1fd3 f0be
00000120: 6cc2 bf3e ef46 febe 1bf1 8c3e 930e b4be
00000130: 124e 753c 2218 393e c08f 123f 6149 58be
00000140: 751f 7dbd 8e73 04bf f738 b43c 7dc8 483e
00000150: 3415 18be 2528 b4be d880 b63e eb0a 213e
00000160: 3d29 8fbe 0d6c 26be aeaf 0bbf d5c0 3e3e
00000170: d0f4 143f 2dae 3d3e 251a 8f3e 5ca4 abbd
00000180: 5cd6 4fbd 7945 cfbe 0743 f43d 95e7 2f3f
00000190: 2805 13be 02a5 253e 6c1a 73be 0c01 0dbe
000001a0: 58dd e5be 35a6 c9be b534 fcbe d564 28be
000001b0: 0ce2 443f da4f c33e 08d0 853e 9c4d 87be
000001c0: 675b 783e a44f e33e 6ffc 84be 63db 12be
000001d0: 4899 25be 82f1 4fbe 5d46 95bd 2562 1cbf
000001e0: fc48 233e 2844 983e 3b48 633f 9dcf 0a3e
000001f0: 7e91 2abf 3e28 29bf e50b 243c fb01 643e
00000200: d3ca b93e 4459 dbbc 444b d53e 11b7 06bd
00000210: 6bb1 1cbf 37da 3abd eca9 f23c 10a6 4cbf
00000220: 5055 0bbd 119c 2d3e ccd2 ea3e 2a4e 1c3f
00000230: 167e cbbe 34b5 9b3e b460 dcbe 5586 cfbd
00000240: 6c69 08bf dd9e 443e de74 3e3f 4876 8abe
00000250: 333c a5be 4876 303d 1037 753f 9405 833e
00000260: caa7 1e3f 89b6 e93e b1d1 b23e b3ad 893e
00000270: d306 fc3d 8709 aa3e be03 f63d dbf3 663e
00000280: 704c 35be 1970 303f b53a 373e ef52 653e
00000290: dbda 093e 2715 093e a7c4 7fbe 382e 353f
000002a0: 8cd8 1f3f 7457 8a3f 3565 753e 4d56 b6bc
000002b0: fc84 16bd f4cf 233f 7859 8bbe ce52 f03e
000002c0: 4669 973e 969f 303f 11d7 00be 1af9 91bb
000002d0: 4b28 b73e 0cc6 8f3e 9308 18bd cb4f ebbe
000002e0: 106e 3cbf ad83 50bf 7c88 2fbe 4546 1bbd
000002f0: f23f ce3c b08f 3e3f 89a4 773f febe 0abf
00000300: 30dd 08bf 5555 acbe e5a5 27bf f4ce 1d3f
00000310: 2811 2fbe 7bf9 c43d 9c42 69bd 8662 abbe
00000320: 3b34 633e a3ab 2abd cbfa 2bbe 55cd 913c
00000330: df79 13be 1247 2cbe 7e62 1dbe 27da dabd
00000340: c421 143d 191b ce3e 12d1 8abe 39ef e6bd
00000350: fd7b f43d 48e3 093f 1b51 1b3f ecfa bf3e
00000360: 22c4 e0be aae4 32bf 9dc2 eb3e 4696 d6be
00000370: 8d4b 9bbc 1c04 2d3e 7300 25be 28fe 553f
00000380: da3a 6cbe ded0 b5be 1d5b c0bc 3b2e 49be
00000390: 1674 053e 2276 8d3e dfad 153f 48d6 c8bc
000003a0: b463 233f 60b0 963d 3415 9fbd 1c6b 133e
000003b0: c16c 0f3f 2d2b 1dbe 3b37 86be 3ed3 7fbe
000003c0: ae4a d73e be9c 9b3e 6450 06bf b06a 583e
000003d0: 4646 f9be df0d a83e 0bca 3bbf 3681 df3d
000003e0: b61a 6c3e f3a8 1fbe d714 1d3d 81bf bdbe
000003f0: 0fed 523e 891f ba3e 2096 183f 0da1 7bbe
0.47342524 -0.32457313 -0.22927476 -0.34819373 0.093022265 -0.078376785 0.23285481 -0.118213005
0.017763387 0.09857668 0.22268923 -0.4521182 -0.011772279 -0.33213696 -0.1644298 0.26581278
0.6712348 -0.055785872 0.069048755 -0.20966472 0.43576217 -0.33368886 -0.12378922 0.1926566
-0.14859046 -0.48100176 -0.27112713 0.3008328 0.0914175 -0.15921949 -0.6470672 0.21181436
0.36775813 0.47895083 -0.86349267 -0.25312045 -0.18520252 0.093528084 0.16144387 0.3612899
0.6910109 0.20946857 0.8428129 0.18578057 0.5934221 -1.2128289 0.6431728 -0.4759889
-0.6514493 -0.14288943 0.18666673 -0.24667996 0.03675618 -0.3036576 -0.23065399 0.037685927
-0.3222397 0.088441566 -0.13440125 -0.67443246 0.46739662 -0.14096114 0.3125969 0.057494342
0.14004593 -0.22477308 -0.26939008 -0.01077846 0.093483426 -0.4546295 0.18255271 -0.47036073
0.3745302 -0.49663493 0.275277 -0.3516737 0.014972227 0.18075612 0.57250595 -0.21121742
-0.061797578 -0.5173882 0.02199982 0.1960773 -0.14851838 -0.35186878 0.35645175 0.15726821
-0.2796115 -0.16252156 -0.5456494 0.18628247 0.58186054 0.18523474 0.27949634 -0.083809584
-0.05074154 -0.4048269 0.11926847 0.6871274 -0.14357436 0.16176227 -0.23740548 -0.1376993
-0.44895434 -0.39384618 -0.49258962 -0.16444714 0.7690742 0.3814686 0.26135278 -0.264264
0.24253617 0.44396698 -0.25973842 -0.14341502 -0.16171753 -0.20306972 -0.07288811 -0.61087257
0.1594581 0.297395 0.8878209 0.1355576 -0.66628253 -0.6607703 0.0100126015 0.2226638
0.36287555 -0.026775964 0.41658986 -0.03288943 -0.6120822 -0.045618262 0.02962204 -0.7994089
-0.034016907 0.16954066 0.4586395 0.6105677 -0.39744633 0.30411685 -0.4304253 -0.10133044
-0.5328586 0.19201227 0.74397075 -0.27043366 -0.3227249 0.04308155 0.95787144 0.25590193
0.61974776 0.45647076 0.34925607 0.26890334 0.12305989 0.33210394 0.120124325 0.22553961
-0.1770494 0.6892105 0.17893489 0.22394918 0.13462393 0.13386975 -0.2497736 0.7077365
0.624398 1.0807939 0.23964389 -0.022257948 -0.036747918 0.63989186 -0.27216697 0.46938175
0.29572505 0.6899351 -0.12582041 -0.004454744 0.3577293 0.28080785 -0.037117552 -0.45959315
-0.7360544 -0.8145092 -0.17141908 -0.03790881 0.025176976 0.74438 0.96735436 -0.5419768
-0.53462505 -0.33658853 -0.6548751 0.6164391 -0.17096388 0.09617897 -0.05694829 -0.33473605
0.22187893 -0.04166759 -0.16794889 0.017798105 -0.14401959 -0.16823986 -0.15369603 -0.106861405
0.036165014 0.4025505 -0.27112633 -0.11276097 0.119377114 0.5386243 0.6067063 0.37496126
-0.43899637 -0.69880164 0.46046916 -0.41911525 -0.018956924 0.16896099 -0.16113453 0.83590937
-0.23069325 -0.35510916 -0.023480946 -0.19646542 0.13032565 0.2762919 0.5846843 -0.02451624
0.6382401 0.073578596 -0.07767716 0.14396328 0.5602532 -0.15348502 -0.26214013 -0.24982926
0.42049164 0.30393022 -0.52466416 0.21134448 -0.48686427 0.32823083 -0.7335517 0.10913317
0.23057064 -0.15591793 0.038349953 -0.37060168 0.20598243 0.36352184 0.5960407 -0.24573155

network_body._body_endoder.seq_layers.0.bias f4 [128]
00000000: e0f9 32bc f2b3 b6bb 1fc7 c1bb 0146 9dbb
00000010: 0fc1 08bb b3fd 903b ffd3 0e3b d645 a3bb
00000020: cb31 7a3b ccad 863a bb96 bfbb 0558 ccbb
00000030: aeeb 9e3c ab66 613b c7f4 0fbc 9bdd 21bb
00000040: d4ba e2bb 24d8 e7bb d92f acba 406c 0fbb
00000050: 0ad0 eb3b f367 8f3b 982f 683b ce9d 49bc
00000060: 2508 ff3a 5f13 0cbc b4de 603b 24fc 16bc
00000070: fc64 76bc 7917 8cbc 5bfe e83a 66cd b73b
00000080: eadd 82bb e29d 49bb 2f81 38b9 d6f8 9ebb
00000090: 1146 50bb 912f d93b 8e01 e7bb dff1 c23a
000000a0: b312 5b3b b7dc 82ba 12f6 06bc f37b ea3b
000000b0: c4b2 05bc cd5c b73a 3d7d 14bc 9e98 513b
000000c0: ff43 e93b 48e5 62bb 5500 90bb c5f4 7eba
000000d0: bcd5 bd3b 0017 caba 2e01 a23b b9d0 e03a
000000e0: 3825 b43b ba67 5c3b 5aac e83b 3d20 97bb
000000f0: 654a a53b aebf b1ba 222c 99bb 1523 c1bb
00000100: dd7d 543a 150b c4bb ddf0 8ebc 9c4a 1a3b
00000110: 1b99 143b c8ee 13bb 99f9 153c e66e 2bbb
00000120: 3ec6 a3bb 0373 d43b 1a09 40bb b8ca e4ba
00000130: 2641 303b ad11 dcbb 4f27 dfbb c24c 47bb
00000140: d190 9ebb 6964 8a38 1878 f2bb 8ccd aa3b
00000150: e156 af3b 1c58 aebb 7b03 413b f5c5 9fba
00000160: 96bd 68ba ddce a1bb 3ea7 8fbb 4aab 73bb
00000170: 6e0d 0f3c 26fd 433b 3898 3b3b 004c 473b
00000180: 23ce 213c c20f b8bc da0e f9bb d6e5 fe3b
00000190: 980f 80bb 3b4a ef3b bf15 84bb 638b 27bc
000001a0: 5aa9 01b8 bd45 2eba 1b6d fb3b 39b8 683a
000001b0: 0151 c3bb 0472 a53b bc48 dabb 7176 04bc
000001c0: f061 fa3b 82ed 7a3b c13c 173c 4de3 98bb
000001d0: dac5 8d3a b4e1 aa3b b50f 9e3b cc2d 32bc
000001e0: 035d 0dbc 24b9 de3a ca7b db3a 70f7 883b
000001f0: c0cc 8d3b 53b2 58bb 514f 2c3c 91b3 233c
-0.010923833 -0.0055756504 -0.0059136297 -0.004799605 -0.0020867025 0.0044247746 0.002179384 -0.0049826903
0.0038176652 0.0010275184 -0.005846826 -0.0062360787 0.01939949 0.003439347 -0.008786387 -0.0024698738
-0.0069192443 -0.0070753265 -0.0013136818 -0.002188459 0.007196431 0.0043764054 0.0035428759 -0.01230569
0.0019457383 -0.00854954 0.003431243 -0.009215388 -0.015038725 -0.017101036 0.0017775999 0.005609202
-0.0039937394 -0.0030764272 -0.00017595732 -0.004851441 -0.0031780044 0.006627985 -0.007049746 0.0014873109
0.0033427894 -0.0009983991 -0.008237379 0.007155889 -0.008160297 0.0013989449 -0.009063062 0.0031981836
0.0071187015 -0.0034621526 -0.004394571 -0.00097258046 0.0057933014 -0.0015418231 0.0049439883 0.0017152048
0.005497601 0.0033631162 0.007100624 -0.0046119974 0.005044269 -0.0013561153 -0.0046744505 -0.0058940747
0.00081059133 -0.0059827664 -0.017448837 0.0023543006 0.0022674266 -0.0022572745 0.009153747 -0.002615863
-0.0049979975 0.006483437 -0.00293023 -0.0017455434 0.00268943 -0.0067159743 -0.006810106 -0.0030410741
-0.004839041 6.5990556e-05 -0.00739957 0.0052124914 0.005350933 -0.005320562 0.0029451537 -0.0012189733
-0.0008878348 -0.00493799 -0.0043839505 -0.0037180954 0.008731229 0.0029905527 0.0028624665 0.003041029
0.009875807 -0.022468451 -0.0076006474 0.0077788634 -0.003908109 0.00730255 -0.0040309126 -0.0102261035
-3.0913718e-05 -0.0006647965 0.0076729185 0.0008877549 -0.005960584 0.005048992 -0.0066615026 -0.008084879
0.0076410696 0.0038288538 0.009230793 -0.0046657682 0.0010816411 0.005214894 0.00482365 -0.010875177
-0.008628133 0.0016992432 0.0016745266 0.0041798875 0.0043273866 -0.0033065274 0.010516957 0.009991542

network_body._body_endoder.seq_layers.2.weight f4 [128, 128]
00000000: 95bb 943d 8b86 16be e672 7dbd 93b3 1bbd
00000010: 038f 89bd 5f96 f7bc 87c6 8e3d 630f 303e
00000020: d502 603c ccc2 3f3d 216e 703d 5a9e 11be
00000030: bd56 183e c6c1 dcbc 6c8a 2e3e 5a4c 1cbd
00000040: 2773 493e b16f 53be 9bd8 253e 543f f1bc
00000050: e2ad 97bc 9b38 893d 3292 383d e017 47bd
00000060: 1b5b c33c eb8d f7bd 8db5 a93d 60f0 203d
00000070: 5a4b c23d 8664 acbd 0bac 81bd 08ea d33d
00000080: 6521 b73d 4b7d 30bc 3102 e1bd d4f8 2f3c
00000090: c77a 143d c3e3 8b3e 5b5f d7bd 7cf0 ee3d
000000a0: 437b 123e e120 39bd e82a 253d e69d 883c
000000b0: b47c 55bd cf3a 0b3d fc89 60be e202 42bc
000000c0: f06b 353d 3871 a4bd e2d5 fcbb 9702 2ebe
000000d0: d0bf a8bc 020a 9b3c 4854 f73d 1548 13bd
000000e0: 3b05 7f3a 1605 b83d ef47 6c3d 3fa4 86bd
000000f0: 7da7 11bd 7708 993c e925 a43d 0425 1f3e
00000100: 01fe 55bd 3c39 f5bc 1c25 9f3c a9a7 65bd
00000110: 37e3 42bd d410 84be 91e9 8bbc e7f0 cb3c
00000120: ba5e 0e3c 1c28 47bd 118a 8cbd 0baf 90bd
00000130: 3875 aabd 3264 a8bc 469c f93c d31f 8f3d
00000140: 7e56 683d 86ed 81bc 4456 81bc 987d b4bd
00000150: 87eb c73d 38a6 553d 04fd a93d 4c61 acbd
00000160: e76b 14be b49b b4bc da5e 023d 3c34 9f3d
00000170: 9d46 74bd e9ff e6bc dc7b ca3d d70a 9abd
00000180: 30b4 5ebe 7467 d1bd c14a 3d3d 08ff 4d3d
00000190: 4a75 12be 24e0 d8bb 16d5 9e3d b780 42bd
000001a0: 242c 2f3e 8121 05be a06a 763b e752 8dbd
000001b0: fad3 0d3d 70b7 82bd e041 85bd f92a 083c
000001c0: 7dc0 fd3d 475c 89bd 3a2a 653d 9c38 dabd
000001d0: 86ef 013c 3a3e 38bd 154b 693d 8c83 5e3c
000001e0: d40b 84be 2689 9abd 1669 023e 4bfe 013c
000001f0: 98d2 443d 5e71 b8ba 79fe 1d3c 0226 913d
00000200: e4ad ab3d ece1 cc3d b531 393c cd74 b23d
00000210: f2ac 46bd 8618 7d3d 76ed 56bd 048c 123d
00000220: 36d0 7c3d fa69 90bd 7b8d 063e 24e6 c2bb
00000230: 3b50 e5bd fc4d c33d 4c6b 663b e83e 823d
00000240: 743d a33d a355 bbbd 4d78 72bd 4b19 6a3d
00000250: c181 0a3d 795c 643d fab3 ebbc 0008 34bd
00000260: 2de4 9d3c 384b da3d cc31 89bd 9452 453d
00000270: 9bfc a7bd 1e5a 3dbc e76f d73d 89d6 b2bd
00000280: 8cd6 46be 714e 833d 3a01 13bd f732 b3bd
00000290: c04e 10bd b07c 503a dc03 613d 479e d33d
000002a0: 083e 993d 26b8 18bd 3435 0f3e f8a4 05bd
000002b0: 5249 453b 1b1e ef3c 33d2 f23c 30a1 33bd
000002c0: c4f8 f5bd 41cf 06bc 8e65 723c 951f 673d
000002d0: 913d 11ba 04ca cb3d a76f 2cbe 5a0b b3bd
000002e0: 4b8b 75bd 408a e5bc d970 44bd 9edc a9bd
000002f0: 9a85 6e3d e191 bb3d fbf9 2fbe 1259 8a3d
00000300: 2732 27be e3a6 b23d 8682 56bd 3c67 4bbd
00000310: 14ec 2ebc 8b4f 52bd 5008 11bd 250d 2b3d
00000320: ac3e 313e e18f 14bd 0d5b 6a3d 9f74 f73b
00000330: 70d2 563e b7f2 9b3b ae74 eabc 2249 f23d
00000340: 4f2a 0c3d 1897 063e 6515 ffbd b240 09bd
00000350: 2277 113e b35d 323d e3fe 243d 6a4a a3bd
00000360: ea20 f73d 014f 8ebc a41d b73c 5b92 233e
00000370: 191d f73b 8b97 023e ff07 933b e81b 2bbd
00000380: a52e c23d e60b 1dbe 55f5 c7bd 31e0 1f3d
00000390: 85ae 8ebd 2176 58bc 7984 27be 2dbe b6bd
000003a0: 9bc1 e8bc 62c8 fc3d 1962 09bd b273 10bc
000003b0: 25a4 703e 5320 e83d 76ba f63b d47c a5bc
000003c0: 97b9 c6bc 348b 47bd 9044 b0bd 4960 6b3d
000003d0: 2065 af3c 7ff4 c93d cd11 f8bc 6621 21be
000003e0: 1fc2 c1bd 7a26 1fbd fe4a a1bd d7b3 073d
000003f0: 7967 0bbe a598 073e 432b a23d e350 68bd
0.07262341 -0.14699762 -0.061877154 -0.038013052 -0.067167304 -0.03022307 0.0697146 0.1719337
0.01367255 0.046816632 0.058698777 -0.14220563 0.14876838 -0.026947867 0.17044991 -0.038158752
0.19672833 -0.20648076 0.1619591 -0.029449143 -0.018515531 0.0670025 0.045061298 -0.048606753
0.023847153 -0.120876156 0.08286581 0.03929174 0.094870284 -0.08417611 -0.06331643 0.10347372
0.089419164 -0.01077206 -0.10986746 0.010740478 0.036249902 0.27322206 -0.105162345 0.116669625
0.14304833 -0.04519737 0.04032412 0.016676854 -0.05212088 0.03399163 -0.21927637 -0.011841508
0.04429239 -0.08029407 -0.0077159265 -0.16993175 -0.020599276 0.01892567 0.12076622 -0.035957415
0.00097282574 0.08985345 0.05768579 -0.06574296 -0.03556012 0.018680794 0.08015043 0.15541464
-0.05224419 -0.029934518 0.019426875 -0.056068096 -0.04757997 -0.2579409 -0.017079147 0.024895145
0.008689577 -0.048622236 -0.068622716 -0.07064637 -0.08323139 -0.02055559 0.030470025 0.06988492
0.05672311 -0.01586033 -0.015788205 -0.088130176 0.0976172 0.05216047 0.08300212 -0.084169954
-0.14494286 -0.022046901 0.03182874 0.07773635 -0.059637655 -0.0281982 0.098869056 -0.07521599
-0.21748424 -0.1022481 0.04621387 0.050292045 -0.14302555 -0.0066185165 0.07755487 -0.047486033
0.17106682 -0.13001062 0.0037600175 -0.06900578 0.034625985 -0.06382644 -0.06506705 0.008311027
0.1239023 -0.06707054 0.055948474 -0.10655329 0.007930642 -0.04498122 0.05695637 0.013581168
-0.25790274 -0.0754569 0.127354 0.007934163 0.0480524 -0.0014071872 0.009643191 0.070873275
0.083827764 0.10004029 0.011303355 0.08713684 -0.048504777 0.061790965 -0.052472554 0.03577806
0.061722003 -0.070514634 0.13139908 -0.005947845 -0.11196943 0.09536359 0.0035159169 0.06359655
0.07970706 -0.09147193 -0.05919676 0.057153028 0.03381515 0.05575225 -0.028772343 -0.043952942
0.019273842 0.10658878 -0.06698951 0.048174456 -0.082024775 -0.01155713 0.105193906 -0.087323256
-0.1941778 0.06411446 -0.03588984 -0.08749955 -0.03523135 0.000795315 0.05493532 0.103329234
0.07482535 -0.037284993 0.13985139 -0.03262803 0.0030103517 0.02918916 0.029641246 -0.043854892
-0.12010339 -0.008228124 0.01479472 0.056426603 -0.0005540485 0.09950641 -0.16839467 -0.087423995
-0.059947293 -0.028020024 -0.047959182 -0.082940325 0.05823288 0.091586836 -0.17185204 0.0675527
-0.16327725 0.08723237 -0.05237057 -0.049659 -0.010676403 -0.05134539 -0.035408318 0.041760582
0.17309064 -0.036270026 0.05721574 0.007551744 0.20978713 0.0047591585 -0.02862009 0.11830355
0.034220036 0.13143575 -0.124552526 -0.033508964 0.14205602 0.04354639 0.04028214 -0.07973178
0.12066825 -0.017371656 0.022353001 0.15973799 0.0075413105 0.12753122 0.004487037 -0.04177466
0.09481553 -0.1533657 -0.0976359 0.039032165 -0.06966881 -0.013211758 -0.16359128 -0.08922992
-0.02841263 0.123429075 -0.03354082 -0.008816646 0.23500116 0.1133429 0.007529552 -0.020201124
-0.024258418 -0.04871674 -0.08606827 0.05746487 0.021410525 0.09861087 -0.030281926 -0.15735397
-0.09460854 -0.038855053 -0.07875632 0.033130493 -0.1361369 0.13241823 0.07918408 -0.056717765

network_body._body_endoder.seq_layers.2.bias f4 [128]
00000000: bd75 75bb 214a 3cbc 3aaa c5ba 3e78 86bb
00000010: 5684 973b 6179 a2bb 444c 323b 09e7 e1ba
00000020: d64f bb3a 97ba 55bb 6788 9b3b a008 d0bb
00000030: 37fb 943a ebec 373b b9fc ccbb 922c 9c3a
00000040: 7bef 30bb 23f9 703b 5f40 b7bb fe37 4c3c
00000050: 415c d039 1985 aebb c7ca 943b d773 9a3a
00000060: 18c6 eabb fff7 9fbb 06dd 063c 7d25 d4bb
00000070: 7d73 aebb 6539 3bbb 5b41 393b 7932 fb3a
00000080: 453e 8cbb ef7d 8d3b e95c ebbb c6d5 e1bb
00000090: 46e5 433b bc5a a1bb f40a a6bb ac9f 203a
000000a0: 27cb e13a 7db7 8f3b 26eb f5bb f8ac b1bb
000000b0: c62c 55ba 11b2 ccba 68d4 aa3b f60d a1bb
000000c0: 8be8 a6bb ca90 ee3b 0374 963b d002 38bb
000000d0: cfcb ef3b 0457 343b 419a d4bb 9e86 2f3b
000000e0: 108c 9e3b 742e c3bb 79a8 363c 1a1f a0bb
000000f0: e952 4d3b 6d43 ed3b bc3d 1cbb a7ed a6bb
00000100: 9a8b 25bc 9138 163a d771 823a b40a bdbb
00000110: 0be3 3a3a aba0 583b 9725 48ba 427d a6ba
00000120: c336 123b e5e9 b6bb 7ec9 cb3a 17db 3ebb
00000130: 36b7 9e3b e40c 903b 4eb2 053b 6678 5a3a
00000140: be8e dcbb d72a f2ba b3ea 013c a0a5 dbba
00000150: 0d6f 3c3b 3749 a13b 0819 94ba f2a1 74ba
00000160: 7d7f ddbb 0499 633b 68c3 9d3b 49cc 1ab9
00000170: 2e0f 92bb c410 a03b a776 8fbb a130 f43b
00000180: d4cd babb 8fb0 94bb 5cbc 6c39 08a0 0a3b
00000190: 9e8d 4abb 1746 2b3c 25ef 1d3c 0b13 a73a
000001a0: e816 44bb 242e 8cba 6ad8 59bb 41c1 e2ba
000001b0: 6577 9a3b fae1 f73a ccd7 a53a 83d9 9d3b
000001c0: de50 a3bb ab3e 763b d1e2 afbb eec8 ba3b
000001d0: 5013 453c b96a 563a 8139 1bb9 4560 223a
000001e0: fc5d a1bb cf91 cabb 9b0c ce3b 981a c3bb
000001f0: cde6 fe3a 8563 d5bb 168b 273b 0d0c d13a
-0.003745421 -0.011492283 -0.0015080639 -0.0041036895 0.00462393 -0.004958317 0.0027206102 -0.0017234992
0.0014290761 -0.0032612437 0.004746485 -0.0063486844 0.0011366372 0.0028064798 -0.006255713 0.0011915138
-0.002699821 0.003676959 -0.0055923904 0.012464521 0.00039741586 -0.005325925 0.0045407745 0.001178379
-0.007164728 -0.0048818584 0.008231407 -0.0064741955 -0.005323826 -0.0028568145 0.0028267715 0.0019164822
-0.004279884 0.004317991 -0.0071827066 -0.006891939 0.0029891296 -0.0049241465 -0.0050672237 0.00061273086
0.0017226682 0.004385887 -0.0075048385 -0.005422231 -0.0008131977 -0.0015617033 0.005213309 -0.0049149944
-0.0050936393 0.007280444 0.0045914664 -0.0028077848 0.007317997 0.0027517686 -0.006488115 0.002678312
0.004838474 -0.0059564654 0.011148565 -0.00488652 0.0031329936 0.007240704 -0.0023840507 -0.0050942483
-0.010104084 0.0005730475 0.000995214 -0.005769098 0.0007129169 0.003305475 -0.0007634996 -0.0012702125
0.0022310473 -0.0055820816 0.001554772 -0.0029122287 0.004843618 0.004396068 0.0020400467 0.0008333981
-0.0067308834 -0.0018475902 0.007929492 -0.0016757734 0.0028752715 0.004922058 -0.0011298964 -0.0009331993
-0.0067595826 0.0034728656 0.004814554 -0.00014762687 -0.004457376 0.004884811 -0.004378158 0.007452086
-0.005700806 -0.004537649 0.00022576883 0.0021152515 -0.0030907164 0.010453722 0.009639536 0.0012746764
-0.002992088 -0.0010694903 -0.0033240565 -0.0017300026 0.00471394 0.0018911951 0.0012652813 0.004817189
-0.0049840054 0.0037573974 -0.005367615 0.005700222 0.01202853 0.0008179355 -0.00014803374 0.0006194155
-0.004924534 -0.0061819325 0.006288124 -0.005954098 0.0019447446 -0.006512108 0.002556508 0.0015949026

action_model._continuous_distribution.log_sigma f4 [1, 2]
00000000: 6f26 18bd 9d17 4abc
-0.037146028 -0.012334731

action_model._continuous_distribution.mu.weight f4 [2, 128]
00000000: 54af 06ba 505a ca3b 882e 07bc ba0e 87bb
00000010: cf17 afbc 909d 1abc fa16 12bc 89de 823c
00000020: 7103 b13c ee1c 9e3a 4d6d d53b 7848 aebb
00000030: 6768 56ba eb54 d73b 2290 023d 1a33 95bc
00000040: b222 6bbc b151 5dbc 6bd9 31bc 3b8e 19bb
00000050: 2899 a53b 9173 b8bb 1049 c3bc 430b 053c
00000060: 775e b53c b70b bcbc 5ed2 333c 4586 d83b
00000070: 013f 31bd f75a b2bb b004 3bbd 2421 ed3b
00000080: ddcd a0bc 9550 fb3c eb52 afbc 4e9d 6e3c
00000090: fd95 88bc b6a1 92bc 7624 2dbc 5160 843c
000000a0: c789 203c a983 5fbb e69f 6dbb 9c21 7b3a
000000b0: 3bc5 20bb 154c edbc dcc0 6fbc d70e 63bd
000000c0: 026f bfbc dff6 4f3c b829 afbc cf5f 0dbd
000000d0: 0e7c 6fbc a08e 113c 0bc2 423a b47e 9d3b
000000e0: 1a23 0d3d 0a75 bf3c 5ab7 a6bb 0e4d e4bc
000000f0: 0b32 223c 8609 a53c 8989 7a3c 5517 e2bb
00000100: 61ab 13bd cc2f 5d3c e448 e3bb ae22 e9bb
00000110: eb9e 5b3b 1da9 653c e81a bf3b ea4b b4bb
00000120: 11ac 393c d905 4ebc 64f8 3939 2f8b 1bbc
00000130: 0b7e 693c 0cd1 0a3d 37c2 7cbb 4b36 1ebd
00000140: beca 93bc a282 4b3b da01 57bc bdd6 c83a
00000150: 4ed5 c4ba 436a 08bd dbab bd3b 662f 1c3a
00000160: 0f7c 81bc 4d33 a33c 20a1 f83b fbb0 183c
00000170: 179f 99bc 8b4f 6b3c 6589 7ebc 2e00 babc
00000180: aa5b c73c dbde a9bc 6c20 183b ef61 003b
00000190: a940 483b 12c3 07bb 2641 c63a 1797 d9bc
000001a0: 4e37 8cbb 7c59 1ebd bdde 30bb f56c c83a
000001b0: 7718 013d 4c16 693b 09b6 a5bc 9de5 b13c
000001c0: 96d4 eebb 5a56 b53c 47c8 18bc 5b5e 0a3c
000001d0: bd35 0cbc 9d1f 933b aef7 5cbb fd5b 3aba
000001e0: 0219 8a3b 2580 a7bc 5c27 ac3b 97b9 9abb
000001f0: f327 173c d321 bfbb a708 593c 5313 81bc
00000200: 3099 113c 1e58 6dbc d67b d23c dc0a b3bc
00000210: 679d 113c 5ba5 503c e7fd 2e3c 2841 17bc
00000220: 0c1c 21ba 7233 e2bb b2ae 1a3d 2867 4fbc
00000230: dece aa3c 4930 b8bb 9998 e13b bab9 14bd
00000240: b625 463c 9d82 2ebb 3060 96bb ec85 1e3d
00000250: 04a4 43bc c8ef 563c dde0 07bd 23ac 0dbc
00000260: c023 17bc 7c4e aebc 4b83 22bd 0e69 ddbb
00000270: b3e4 cb3c 5940 bebc 66db ddb8 ccfd c03b
00000280: b3ed 2cbd 56c8 783c 8e0b 96bc 5ae3 4cbb
00000290: 2a1e 20bd 23f3 ac3c e0fe 01bc 27e9 deba
000002a0: ff74 23bc 4743 5c3d 27df 373b 6c64 0d3c
000002b0: 4533 1dbd d81c 99bc 27f9 0b3d a2ea 90bc
000002c0: 0ace 64bc 1f4b dc3c d93e d63c c2cf 943c
000002d0: 0d60 b0bb 185d 8a3c f063 0b3c 66b7 933c
000002e0: 2107 a13c d651 a6bb 5b2a fdbc c44f 813b
000002f0: b94a ef3c 46e3 363d 36e4 083d 1e91 43bc
00000300: 616b 3a3c 082f 823c 85d3 a3bc d108 273b
00000310: 4fb2 983c 6b56 963c e267 0dbc c47f 4a3c
00000320: 2069 81bc 4117 4d3c d42f 6bbb be97 b6bc
00000330: 841b b3bc 03b2 173c 8c53 10bd 9b0f aebc
00000340: 85a4 52b9 db4c 31bc f633 04bd 0d38 78bc
00000350: 17c6 81bc 1ccb 0bbc ca61 97bc 8502 a23c
00000360: b8e4 e1ba 765b c8bc a64b 9bbc a48c ffbc
00000370: e02b 103d 3639 fabb dbd6 de3b bec1 b9bc
00000380: 2ffa 453c 8217 9fbc ae76 ef3b c22f a3bc
00000390: d3c1 adbc 9ae9 e8bc e1ee 9a3c cfeb 5a3d
000003a0: d080 04bd 448f ac3c 4473 953c 8360 323c
000003b0: 08be 3bbc e8ca 46bc 1739 f03b cb49 443c
000003c0: 9a1f a0bb 042a 6dbb aea4 b8bc 61e7 333c
000003d0: fc84 483d dde5 983b a023 703b 9373 223d
000003e0: 4ce2 f03b edaa 91bc 8f53 a7bc adef 4737
000003f0: 88b9 02bc fe1e 54bb 06ce c43c 9e82 f9bc
-0.000513782 0.006175317 -0.00825084 -0.0041216286 -0.021373658 -0.00943698 -0.008916611 0.015975254
0.021608086 0.0012063065 0.006513274 -0.0053186975 -0.00081790093 0.0065714023 0.031875737 -0.018212844
-0.014351534 -0.013508246 -0.010855059 -0.0023430723 0.005053658 -0.005629011 -0.02383855 0.008120361
0.02213977 -0.022954805 0.010975448 0.006607803 -0.043272976 -0.0054429728 -0.045658767 0.0072366167
-0.019629413 0.030678073 -0.021401843 0.014563872 -0.016673082 -0.017899375 -0.010567775 0.016159208
0.009798474 -0.0034105575 -0.0036258637 0.00095798983 -0.002453162 -0.028966943 -0.014633384 -0.055434074
-0.023368362 0.012693136 -0.021382198 -0.0345152 -0.014616979 0.008884102 0.00074294274 0.004806364
0.034457304 0.023371238 -0.005087775 -0.027868774 0.0098996265 0.020146143 0.01529158 -0.006899754
-0.03605211 0.013500165 -0.0069361795 -0.00711473 0.003351147 0.0140173705 0.005832065 -0.0055022137
0.011332528 -0.012574636 0.00017735508 -0.009493633 0.014251242 0.03389077 -0.003856791 -0.038625997
-0.018041011 0.0031053205 -0.013123 0.0015322786 -0.0015017183 -0.033304464 0.005788309 0.00059579907
-0.015806226 0.019921923 0.007587567 0.009319539 -0.018752618 0.014362226 -0.015535687 -0.022705164
0.024335701 -0.020736149 0.0023212684 0.0019589623 0.0030556119 -0.0020715636 0.0015125617 -0.026561303
-0.004279054 -0.038659558 -0.002698823 0.0015291261 0.031517472 0.0035566268 -0.020228403 0.021715933
-0.007288526 0.022135902 -0.009325094 0.008445348 -0.008557734 0.0044898526 -0.0033716965 -0.0007109044
0.004214407 -0.020446846 0.0052537154 -0.004721831 0.009225833 -0.0058328896 0.013246692 -0.015756285
0.00888662 -0.014486341 0.025693815 -0.021855764 0.008887625 0.012734736 0.010680652 -0.009231843
-0.0006145842 -0.0069031054 0.03776426 -0.012658872 0.020850595 -0.0056209904 0.006884646 -0.036309935
0.012093952 -0.0026628145 -0.004589103 0.038701937 -0.01194096 0.013118692 -0.03317343 -0.008646998
-0.009224832 -0.021277659 -0.039675992 -0.0067569083 0.024889326 -0.023224043 -0.00010578967 0.00588963
-0.042218875 0.015184483 -0.018316057 -0.0031263442 -0.039091267 0.02111203 -0.007934302 -0.0017006741
-0.0099766245 0.0537751 0.0028056593 0.0086298995 -0.038378973 -0.018690512 0.034173157 -0.017690007
-0.013965139 0.02689129 0.026153015 0.018165473 -0.005382544 0.016890094 0.008507714 0.018031787
0.01965672 -0.0050756736 -0.030903986 0.0039462764 0.029210435 0.04465034 0.033420764 -0.011936454
0.01137814 0.015891567 -0.019998321 0.0025487433 0.018639712 0.018351754 -0.008630725 0.012359563
-0.015797198 0.012517751 -0.0035886662 -0.022289153 -0.021863706 0.00925875 -0.035235927 -0.021247676
-0.00020088449 -0.010821546 -0.032276116 -0.015150082 -0.015841527 -0.008532312 -0.018479247 0.019776592
-0.0017234301 -0.024457674 -0.01895697 -0.031194992 0.035198092 -0.0076362146 0.006800515 -0.022675391
0.012083574 -0.01942039 0.007307849 -0.019920234 -0.021210587 -0.028431702 0.018912734 0.05344754
-0.032349408 0.021064408 0.01824344 0.010887268 -0.011458881 -0.012133338 0.0073310244 0.011980484
-0.0048865797 -0.0036188373 -0.022539463 0.010980458 0.04895495 0.0046660737 0.0036642328 0.039661
0.0073511954 -0.0177817 -0.020425586 1.1917128e-05 -0.007978804 -0.0032367106 0.02402402 -0.030457791

action_model._continuous_distribution.mu.bias f4 [2]
00000000: 741b 9d3b 0352 f73a
0.0047945324 0.0018869046

exp_avg f4 [128, 6]
00000000: 9fa6 2e38 b2b0 a337 ae4a a2b7 8680 d737
00000010: 9d8b a237 18c5 0b37 409d 1538 4877 28b7
00000020: 9d1f c2b7 cc09 80b7 3826 41b7 ec15 a6b6
00000030: 5d86 a5b9 ec02 2eb9 ec2a 21b8 e750 6cb9
00000040: 913e 32b9 ea44 99b8 d065 6737 8af2 1437
00000050: 0f04 b2b6 f86a 4537 b4e7 1437 7c0a 8036
00000060: 381a 48b6 52f4 d036 de83 f1b7 c471 f036
00000070: c25b b536 6ef2 1b36 067e 5c37 0df5 f736
00000080: a089 da33 1d6a 2737 9c8c fc36 9a29 5936
00000090: ca46 dc39 321f 8839 e05f 1b36 64bd b739
000000a0: 8e96 8a39 c256 ee38 282a 7c38 40cd c037
000000b0: 4073 f136 8058 0138 401f c337 28c8 2737
000000c0: 87c6 8b35 28ba 8334 3fd1 9735 6c5e c534
000000d0: 3cde 9434 5802 0034 afc7 0637 ea50 7236
000000e0: 70a2 3c34 d851 a336 415f 7636 d6d9 d335
000000f0: 4001 4739 aaea 0539 c2a6 85b8 9816 3339
00000100: 6214 0739 284e 6838 f2e9 d236 4af1 9036
00000110: 4d6a 30b6 a196 c136 4404 9236 441d fb35
00000120: f934 1238 54cb 7e37 b83f 4f36 3124 ac37
00000130: fcd6 8137 3b4b df36 bbfc 02ba 0b1a bfb9
00000140: 33c6 4838 3cc8 00ba 7345 c2b9 e70c 27b9
00000150: ace8 37b6 361d 0cb6 661c 16b6 4cd5 42b6
00000160: 9cf4 12b6 98ba 7cb5 f4eb 8a37 b21e 4537
00000170: bab7 4ab7 bdaf 8137 b2a2 4337 3739 a836
00000180: d644 d4b8 a83c 8ab8 99d4 07b7 a75e bbb8
00000190: 7f53 8db8 2e0c f3b7 16cd d236 293f 8936
000001a0: 8ab0 e3b5 3c00 b836 fcc8 8a36 7cad ee35
000001b0: b02e 4ab9 886b 29b9 1c0d cf38 e167 61b9
000001c0: e503 2ab9 6931 92b8 50b0 e234 541c 8b35
000001d0: df5d 95b6 a334 a335 3f33 7635 ecb3 d334
000001e0: eecd 5038 02d4 bf37 3785 e6b6 b6ad 0038
000001f0: 741d c237 82ea 2637 8bc2 413a f153 f839
00000200: 9efd aab8 6c0b 273a c8fd fb39 c8ae 5839
00000210: 123d 3635 9e55 a634 5097 8934 5e94 e534
00000220: d829 ad34 72e6 1434 ef3e 64b9 9838 13b9
00000230: c823 8937 fcf8 45b9 ca52 15b9 8a66 80b8
00000240: a261 3036 4e73 d135 3106 b4b4 1b27 0c36
00000250: 926c d335 b8cc 3535 3d80 bb39 e4c8 6b39
00000260: 42e0 a1b8 eec6 9d39 c602 6e39 47a9 cc38
00000270: a812 19b9 2a48 19b9 9065 2139 ae10 4ab9
00000280: 1069 18b9 0e0e 83b8 0576 28b9 8709 e2b8
00000290: 097d 1438 7484 17b9 6c91 e4b8 a18a 44b8
000002a0: d80f 1837 1452 8e36 7aef f5b6 489a c036
000002b0: c845 9136 a8d5 f935 bc4b d838 3c4b a938
000002c0: 2a43 2637 d6ea e638 282c ae38 88c4 1538
000002d0: a001 92b6 e444 93b6 2aad 4a36 18f1 c3b6
000002e0: b0ca 93b6 b02a feb5 9913 1c3a 5f56 c039
000002f0: 2c33 9db6 76cd 013a 85cf c339 c85f 2839
00000300: a597 fcb8 0487 c2b8 d751 c038 508d ffb8
00000310: e4c0 c0b8 c8be 25b8 21c7 9038 9ef2 4438
00000320: 44e4 73b7 b81d 8438 f44c 4738 0260 ab37
00000330: ba6d 0937 5514 2837 bd00 7cb7 8614 5937
00000340: 51bc 2337 17cb 8c36 14fb 9f39 4ce9 5c39
00000350: bcbe 8cb8 de3a 9439 db9b 5f39 f846 c038
00000360: 07dd 50b5 b574 f7b4 e05b 7333 5832 26b5
00000370: 45b6 fab4 2e95 57b4 b9cf e238 6293 4d38
00000380: b6c0 6938 bea3 8e38 f62c 5738 9806 b937
00000390: b00b b039 7b5f 7039 5bd7 6eb8 8cae a139
000003a0: b3e6 7339 e8b9 d138 2a76 1e38 25e6 e037
000003b0: 7cf6 ebb6 48fa 1638 fcc0 e337 69d7 4337
000003c0: 8e58 8e39 6c1a 1139 8b7d ac38 35c6 4639
000003d0: 93ed 1539 a0eb 8038 e40e 44b6 62b1 b6b5
000003e0: 7f17 76b5 762d fbb5 4674 bdb5 7be8 22b5
000003f0: ace8 3539 6482 ef38 0381 5fb8 7388 1f39
4.164001e-05 1.9513394e-05 -1.934668e-05 2.5689846e-05 1.9376917e-05 8.330935e-06 3.567082e-05 -1.0041353e-05
-2.3141323e-05 -1.5263351e-05 -1.1512595e-05 -4.9497376e-06 -0.0003157136 -0.00016595022 -3.8425365e-05 -0.00022536852
-0.0001699871 -7.308445e-05 1.3792378e-05 8.877958e-06 -5.305286e-06 1.1767021e-05 8.875435e-06 3.815918e-06
-2.9817584e-06 6.2273257e-06 -2.8790844e-05 7.1658014e-06 5.4049024e-06 2.3237913e-06 1.3142364e-05 7.3897013e-06
1.017645e-07 9.978682e-06 7.5265543e-06 3.2359735e-06 0.00042014412 0.00025963184 2.3152606e-06 0.00035045587
0.00026433583 0.00011364884 6.0120743e-05 2.298376e-05 7.1957766e-06 3.083842e-05 2.3260363e-05 1.0000578e-05
1.0414086e-06 2.4536098e-07 1.1311275e-06 3.676281e-07 2.7728845e-07 1.1921782e-07 8.033515e-06 3.6107908e-06
1.7567959e-07 4.8673064e-06 3.6712302e-06 1.5784124e-06 0.00018978585 0.00012771288 -6.372995e-05 0.00017079187
0.00012882196 5.53859e-05 6.2857225e-06 4.319624e-06 -2.628792e-06 5.7693837e-06 4.3516357e-06 1.8709475e-06
3.4858447e-05 1.5186921e-05 3.0882493e-06 2.052085e-05 1.5478108e-05 6.654676e-06 -0.0004996766 -0.00036449762
4.7868303e-05 -0.000491265 -0.00037054307 -0.00015931168 -2.7404558e-06 -2.0878629e-06 -2.2368272e-06 -2.9032408e-06
-2.1898077e-06 -9.4148845e-07 1.6560756e-05 1.1749262e-05 -1.2082915e-05 1.5459833e-05 1.1660786e-05 5.013451e-06
-0.000101217694 -6.591651e-05 -8.096126e-06 -8.934485e-05 -6.738956e-05 -2.8973529e-05 6.282363e-06 4.090271e-06
-1.6964198e-06 5.4836546e-06 4.136118e-06 1.7782872e-06 -0.00019281614 -0.00016157154 9.872971e-05 -0.0002149637
-0.00016213914 -6.971026e-05 4.2224065e-07 1.0364552e-06 -4.451474e-06 1.2159766e-06 9.1716714e-07 3.9432723e-07
4.978285e-05 2.2867698e-05 -6.8700424e-06 3.067936e-05 2.3140317e-05 9.948972e-06 0.0007391355 0.00047364787
-8.1534716e-05 0.00063722464 0.00048063532 0.00020664476 6.788915e-07 3.0982204e-07 2.5628333e-07 4.2762525e-07
3.2254206e-07 1.386741e-07 -0.00021767219 -0.00014040095 1.6348335e-05 -0.00018880138 -0.00014240589 -6.122615e-05
2.6282873e-06 1.5605272e-06 -3.3532118e-07 2.0884388e-06 1.5752323e-06 6.772566e-07 0.00035762964 0.00022486184
-7.7188495e-05 0.00030093588 0.00022698482 9.7590084e-05 -0.00014598167 -0.000146181 0.00015391991 -0.00019270435
-0.00014534988 -6.249185e-05 -0.00016065694 -0.000107782944 3.5402398e-05 -0.00014449825 -0.00010898974 -4.685915e-05
9.063595e-06 4.241485e-06 -7.3294477e-06 5.7400066e-06 4.3294604e-06 1.8614128e-06 0.00010313789 8.0725615e-05
9.910009e-06 0.00011010996 8.305191e-05 3.5707402e-05 -4.3513282e-06 -4.3889613e-06 3.020114e-06 -5.83952e-06
-4.4045373e-06 -1.8936898e-06 0.0005953848 0.00036685445 -4.684922e-06 0.00049515755 0.00037347912 0.0001605741
-0.000120445424 -9.2757895e-05 9.170517e-05 -0.00012185669 -9.191202e-05 -3.9516744e-05 6.903546e-05 4.6955996e-05
-1.4537076e-05 6.299786e-05 4.7516965e-05 2.0429496e-05 8.191384e-06 1.0018314e-05 -1.5020542e-05 1.2938986e-05
9.759403e-06 4.195968e-06 0.0003051391 0.00021067745 -6.711247e-05 0.0002827262 0.00021324998 9.1684924e-05
-7.7807675e-07 -4.609225e-07 5.6661406e-08 -6.191308e-07 -4.6698747e-07 -2.0077707e-07 0.00010815211 4.901307e-05
5.5731005e-05 6.801587e-05 5.1301868e-05 2.2056789e-05 0.00033578044 0.00022923753 -5.6944187e-05 0.0003083836
0.00023260228 0.00010000524 3.7780184e-05 2.681005e-05 -7.0322403e-06 3.599588e-05 2.7150374e-05 1.167306e-05
0.0002715033 0.0001383812 8.224983e-05 0.0001895659 0.0001429825 6.147404e-05 -2.9214943e-06 -1.3611682e-06
-9.167633e-07 -1.8714188e-06 -1.4115437e-06 -6.0688006e-07 0.00017348182 0.00011420695 -5.3287495e-05 0.00015214253

exp_avg_sq f4 [128, 6]
00000000: 75f6 3035 6753 6634 dea6 a333 b692 ce34
00000010: 530b 6b34 7cca 2d33 d383 7a36 6c48 ae35
00000020: e0f8 8634 888c 1c36 2020 b235 96b4 8334
00000030: 09ec c436 3676 8036 1d83 4b35 3ccd e636
00000040: 5d4e 8336 c12c 4235 44de c133 7b49 e732
00000050: f9d3 5032 a0d9 4f33 3f7f ec32 87dd ae31
00000060: 4dd3 1533 a3e9 2134 c718 9533 6a6a 9134
00000070: 3375 2534 88ad f432 8997 b631 9fe4 0032
00000080: 96d0 6132 93ac 6732 6dcd 0332 a3e8 c230
00000090: d61f c036 200a c735 aeeb d033 dfdb 3236
000000a0: a282 cb35 9479 9634 bc11 eb35 4564 b234
000000b0: 5f3b 4a32 1656 2035 466f b634 47e4 8633
000000c0: f18d a330 2d1b a731 0d48 8330 b42d 1632
000000d0: 86e0 aa31 26b1 7c30 06ad 9d30 385e ba31
000000e0: 86ab 8431 4e7d 2732 fa92 be31 f0e8 8c30
000000f0: 7860 6b37 078b 6f36 f977 7e34 3344 d736
00000100: 93ef 7436 d41a 3535 4b43 c131 9ff7 0832
00000110: c07c 0031 b222 7632 8e07 0c32 3213 cf30
00000120: c9a9 ff34 7de9 9833 3b22 6430 916e 0934
00000130: 9e5f 9c33 8c3e 6732 f1fc a837 6d48 8736
00000140: 18b2 0a34 b226 f336 f154 8a36 7390 4c35
00000150: c4c6 f232 cef3 6a32 0a45 6332 da1f d332
00000160: 0739 7032 d79e 3131 83db de34 670c 9835
00000170: f51e 8a34 02aa 0836 ee7f 9b35 c3f3 6534
00000180: 6780 ad35 bf64 8235 5629 5034 6547 ea35
00000190: d148 8535 a019 4534 117b 0a30 11a3 2630
000001a0: 14cf f32f b58a 9530 0f27 2a30 dc9e fb2e
000001b0: b816 1e36 3b42 9635 1e1a c834 3ff9 0636
000001c0: 9993 9935 a61b 6334 7064 dd30 d2f3 0731
000001d0: 5552 9030 1322 7431 01e4 0a31 f963 cd2f
000001e0: 552c 1234 6fcd 1633 b71c a632 008a 8733
000001f0: 4338 1a33 340f e431 14af 3f37 d0fe 7236
00000200: 22c7 8d34 0f5b da36 6c73 7836 31b4 3735
00000210: 36a2 0e2f 47d7 7b30 0ae1 0d2f ad54 e230
00000220: 36c3 8030 e669 3e2f 0d0e 0d36 d0f8 6a35
00000230: 4780 8133 ab2b d335 7146 7035 b2a8 3134
00000240: a68d 7231 aa3b 9432 bcc7 0833 d73a 0533
00000250: ac97 9732 972c 6031 cbfe e735 de50 1835
00000260: 1e48 a433 49d8 8835 a2b4 1b35 b241 e633
00000270: c8a0 1b37 79f3 2136 8d3e f534 3f74 9136
00000280: 5c80 2536 08be f434 c20f ad35 c198 2c35
00000290: 21f0 fc33 4812 9b35 be71 3035 6476 0234
000002a0: fd08 9634 2ae7 5e34 08ee 9533 d03a c834
000002b0: a2d3 6334 5574 2833 cba4 c535 aebd b334
000002c0: fc73 3d33 0f78 2135 3cb9 b734 39d8 8733
000002d0: 9598 1733 2793 1432 d546 0b30 2d81 8532
000002e0: a9e7 1732 d8a2 e030 26ed 7337 eb53 9a36
000002f0: c6b6 8334 b0ae 0a37 e7cb 9d36 3959 6935
00000300: 4ab1 b933 b2c5 a533 305a 2d33 499d 1434
00000310: e418 a933 600f 7a32 62a9 d533 288b 1633
00000320: 8bcc d031 6e3e 8733 54e2 1933 1890 e331
00000330: c0f5 8c32 36b1 b932 ef0b 0432 6cc5 2633
00000340: bdc1 bd32 344e 8c31 4928 5b36 b348 8635
00000350: cea8 1d34 b34a f135 2846 8935 0000 4b34
00000360: ae5e 752e 7e09 792f d38e 292f d9d3 df2f
00000370: 35ad 7e2f a14e 3c2e 0c94 1936 6741 e335
00000380: 6040 a834 7320 4c36 b742 e835 a0bb ab34
00000390: 156e 9436 3e45 c735 c510 9334 3d00 3336
000003a0: e5ab cb35 1a98 9634 74b7 9033 c580 9232
000003b0: 3045 4331 9fa8 0333 04ce 9532 c587 5d31
000003c0: 096c 3a37 4bd7 7436 17ac 1e35 e0f4 db36
000003d0: bc45 7a36 ee0c 3935 edc7 6631 83a9 dc31
000003e0: bca2 f231 cf50 4632 19a6 e131 0ed8 a630
000003f0: 0582 4336 8b83 4535 d508 9e33 f077 b135
6.592375e-07 2.1450761e-07 7.620632e-08 3.8477236e-07 2.18902e-07 4.046386e-08 3.7329635e-06 1.2985088e-06
2.5140525e-07 2.3327611e-06 1.3271383e-06 2.4532045e-07 5.8687333e-06 3.828459e-06 7.581419e-07 6.8784266e-06
3.913227e-06 7.233576e-07 9.027693e-08 2.6925354e-08 1.21553905e-08 4.8393872e-08 2.753188e-08 5.0892512e-09
3.4883943e-08 1.507929e-07 6.94286e-08 2.708578e-07 1.540946e-07 2.8484251e-08 5.3141247e-09 7.502563e-09
1.3144151e-08 1.34852085e-08 7.671912e-09 1.4181477e-09 5.725752e-06 1.4829602e-06 9.728625e-08 2.6652049e-06
1.5162698e-06 2.8028137e-07 1.7514026e-06 3.322804e-07 1.1771447e-08 5.9729916e-07 3.3981104e-07 6.281385e-08
1.1900153e-09 4.863429e-09 9.551983e-10 8.741541e-09 4.9731765e-09 9.192881e-10 1.147243e-09 5.424024e-09
3.8612056e-09 9.74917e-09 5.546437e-09 1.0252545e-09 1.4029552e-05 3.56947e-06 2.3699239e-07 6.4154387e-06
3.6498284e-06 6.7466794e-07 5.6246896e-09 7.972544e-09 1.8697364e-09 1.4326973e-08 8.15079e-09 1.5066688e-09
4.7620986e-07 7.120523e-08 8.299456e-10 1.2799343e-07 7.281709e-08 1.3460191e-08 2.0144946e-05 4.031745e-06
1.2917042e-07 7.246469e-06 4.122609e-06 7.6206123e-07 2.8262896e-08 1.3676027e-08 1.3228837e-08 2.4578117e-08
1.3982805e-08 2.584718e-09 4.1510438e-07 1.1328492e-06 2.5727027e-07 2.0364537e-06 1.1585632e-06 2.1415967e-07
1.2926874e-06 9.715076e-07 1.9386547e-07 1.7455137e-06 9.930465e-07 1.8356377e-07 5.0378995e-10 6.062218e-10
4.434858e-10 1.08806e-09 6.1901145e-10 1.14423776e-10 2.3557059e-06 1.1195146e-06 3.7271906e-07 2.0112636e-06
1.1442345e-06 2.1151081e-07 1.6108412e-09 1.9783681e-09 1.0500779e-09 3.5526042e-09 2.0211248e-09 3.7360318e-10
1.3613437e-07 3.5111437e-08 1.9338001e-08 6.3115294e-08 3.590709e-08 6.6374017e-09 1.1425251e-05 3.620913e-06
2.6408185e-07 6.507507e-06 3.7022064e-06 6.8435025e-07 1.2972454e-10 9.1619196e-10 1.2903825e-10 1.646773e-09
9.368708e-10 1.7318022e-10 2.1018816e-06 8.753386e-07 6.030364e-08 1.5733434e-06 8.9509473e-07 1.654578e-07
3.5296153e-09 1.72566e-08 3.1846625e-08 3.101999e-08 1.7647686e-08 3.2621637e-09 1.7284996e-06 5.674209e-07
7.649963e-08 1.0195737e-06 5.8004855e-07 1.07221595e-07 9.276155e-06 2.413259e-06 4.5680318e-07 4.3348696e-06
2.466163e-06 4.5586808e-07 1.289409e-06 6.429728e-07 1.17783436e-07 1.155372e-06 6.5730626e-07 1.2150264e-07
2.7946217e-07 2.0759458e-07 6.981651e-08 3.7295695e-07 2.1218014e-07 3.922135e-08 1.4725605e-06 3.3479358e-07
4.411048e-08 6.015188e-07 3.4221182e-07 6.325758e-08 3.52962e-08 8.648192e-09 5.0668564e-10 1.554198e-08
8.84203e-09 1.6344428e-09 1.4539144e-05 4.599327e-06 2.4533637e-07 8.266114e-06 4.702702e-06 8.69291e-07
8.6469825e-08 7.719372e-08 4.0361726e-08 1.3840794e-07 7.874203e-08 1.4555411e-08 9.949396e-08 3.505116e-08
6.0768506e-09 6.297783e-08 3.5828933e-08 6.622951e-09 1.64099e-08 2.161742e-08 7.686125e-09 3.882944e-08
2.2090598e-08 4.083427e-09 3.2656992e-06 1.0004936e-06 1.4683175e-07 1.797764e-06 1.0227714e-06 1.8905848e-07
5.5790643e-11 2.264979e-10 1.5421202e-10 4.071399e-10 2.3162701e-10 4.2816087e-11 2.2884951e-06 1.6931853e-06
3.1339277e-07 3.0417257e-06 1.7304764e-06 3.1987747e-07 4.423559e-06 1.4846808e-06 2.7393085e-07 2.6673217e-06
1.5174707e-06 2.8050346e-07 6.7388925e-08 1.7055195e-08 2.8415563e-09 3.0654174e-08 1.7439568e-08 3.2236909e-09
1.1111618e-05 3.648415e-06 5.911001e-07 6.555216e-06 3.7293494e-06 6.8936686e-07 3.358305e-09 6.422114e-09
7.0616277e-09 1.1543491e-08 6.567245e-09 1.2139496e-09 2.9132946e-06 7.357964e-07 7.359055e-08 1.3222434e-06

exp_avg f4 [128]
00000000: 60cc a136 c842 40b6 eb6c 31b8 8438 1436
00000010: 7486 b435 8763 fb35 8af3 8938 c039 c236
00000020: 182f 9433 723d 7535 8875 0638 8258 9135
00000030: 413e 8136 ee60 c1b8 c047 12b5 90bc 4236
00000040: 3ead 8cb7 be25 8a35 e53b 29b8 9f11 7534
00000050: 1639 c136 57d5 fa38 2b5e ac33 24a3 14b8
00000060: d473 d234 d0ea 6c38 ceb5 17b8 8384 e3b7
00000070: 049b 9035 425f ad37 d41c 93b5 2ce9 c238
00000080: 25de bfb7 8862 4637 b4fb 2236 d294 5e38
00000090: 5d8f f9b3 de2f 5637 ccc7 7238 13b5 e236
000000a0: 383d 1538 6395 bcb4 cc8d ef37 681f 1b36
000000b0: ed6b beb5 15a4 e133 62a2 59b9 3801 8036
000000c0: c275 5537 09f6 54b9 b646 bd35 7d8f 6433
000000d0: c894 0a39 1e8f 8135 1cfd 0db8 340a 9435
000000e0: 7062 bbb7 b841 9bb3 9e4f 00b8 3282 5937
000000f0: 7248 12b4 0205 b0b8 7ebf d8b7 d6d2 1938
00000100: 807d 35b5 1f32 8136 478c c9b6 4ccb 25b8
00000110: 4430 a237 b6ef 2839 19a5 15b9 0744 0738
00000120: 9070 1634 e0fd 1ab7 ff90 2a33 c1d2 7fb8
00000130: c076 30b6 669e 8bb5 3ce7 a234 1e8e 2fb6
00000140: a0fe 6cb5 3bf7 1cb9 7ae7 d7b8 9ef5 2737
00000150: 9308 a9b7 8049 55b8 c182 2237 568d 3bb7
00000160: 4843 03b8 f7ba 5d38 2579 fdb7 18bb 9fb4
00000170: 942c 1db7 1fe8 1334 f800 6337 dadd bf36
00000180: de2f 32b8 00fb 0fb5 5864 6c38 fcd7 df37
00000190: f263 4db7 674c 1438 80ab 2433 10fb 8936
000001a0: 9fdf 11b5 4ebb 7a36 0a86 8038 7806 1736
000001b0: 1a39 78b7 d871 d6b6 537a eab8 30a4 66b6
000001c0: 7289 1e38 4bdb 5030 6ec2 3bb8 408f 4e37
000001d0: a001 24b7 9676 7a36 235e fa37 a4e2 d636
000001e0: c077 da35 3bc0 50b8 b41f 6fb8 9653 b2b8
000001f0: b8e6 5336 134f 6136 d027 72b6 e42c 16b6
4.8219663e-06 -2.8649101e-06 -4.2301526e-05 2.2086615e-06 1.3450176e-06 1.8729924e-06 6.578032e-05 5.7883735e-06
6.9003534e-08 9.1359027e-07 3.205755e-05 1.0829101e-06 3.851747e-06 -9.221012e-05 -5.449365e-07 2.901801e-06
-1.6769973e-05 1.0292786e-06 -4.034852e-05 2.2823814e-07 5.758494e-06 0.000119606666 8.026503e-08 -3.5437886e-05
3.9199824e-07 5.648547e-05 -3.6170524e-05 -2.7122214e-05 1.0773952e-06 2.0667565e-05 -1.0960744e-06 9.2940725e-05
-2.2872418e-05 1.1824661e-05 2.4286392e-06 5.3067524e-05 -1.1621044e-07 1.2766539e-05 5.788337e-05 6.7564047e-06
3.5581383e-05 -3.5126422e-07 2.855705e-05 2.311508e-06 -1.4187514e-06 1.0507225e-07 -0.00020755225 3.814839e-06
1.2723207e-05 -0.00020309551 1.4102177e-06 5.321589e-08 0.00013216131 9.652902e-07 -3.3852746e-05 1.1029829e-06
-2.2337976e-05 -7.229704e-08 -3.0591727e-05 1.2964521e-05 -1.3623665e-07 -8.393267e-05 -2.5838377e-05 3.66744e-05
-6.761038e-07 3.8503345e-06 -6.0065972e-06 -3.95284e-05 1.933438e-05 0.00016111028 -0.00014271251 3.2249864e-05
1.4010789e-07 -9.238225e-06 3.9713083e-08 -6.0993018e-05 -2.6295165e-06 -1.0402407e-06 3.0343097e-07 -2.6159755e-06
-8.828738e-07 -0.0001496942 -0.00010295115 1.0011163e-05 -2.0150363e-05 -5.085161e-05 9.686396e-06 -1.1178976e-05
-3.1295494e-05 5.286463e-05 -3.0216363e-05 -2.9752186e-07 -9.368308e-06 1.3774887e-07 1.353048e-05 5.7180705e-06
-4.2483087e-05 -5.3636904e-07 5.6360237e-05 2.6684247e-05 -1.22422225e-05 3.5357105e-05 3.8340204e-08 4.1121457e-06
-5.434212e-07 3.7361929e-06 6.128482e-05 2.2504519e-06 -1.4795247e-05 -6.39095e-06 -0.00011180774 -3.436824e-06
3.779814e-05 7.5981593e-10 -4.476535e-05 1.231191e-05 -9.77554e-06 3.732193e-06 2.9846158e-05 6.4040814e-06
1.6277118e-06 -4.9770093e-05 -5.7011566e-05 -8.5032705e-05 3.1575746e-06 3.357364e-06 -3.6083984e-06 -2.2377872e-06

exp_avg_sq f4 [128]
00000000: a1e3 6832 057e b033 2c1a 8234 2554 ea30
00000010: d5f0 2332 2098 0230 f4a4 c933 1bc3 b432
00000020: 744f a92f 8dd3 bc2f abb0 7234 d8be 0a30
00000030: 98f0 9a31 3b10 8934 4005 6e30 f912 9a33
00000040: f20f 8433 a197 282e 192b 9833 e99d 092f
00000050: 4bce 1831 4a2c 7634 ed29 7f2e 7a12 6e33
00000060: db33 9630 2647 1a33 e9fb 2334 a0d3 2e33
00000070: d3bc 6132 fb09 b632 1f83 1630 8859 9c34
00000080: ff8b a731 1d79 1831 4904 bc30 f103 8833
00000090: 6a57 7c2d 9d21 e633 ebcd c933 626e 9430
000000a0: 43fa 7734 6794 df2f a813 4833 77b0 a730
000000b0: cd79 8630 686d 942e 04a3 1c35 82b3 0330
000000c0: f28e 6331 cbbf 2235 b26b de2f a2eb ba2b
000000d0: 98a5 3535 141d f930 f8b1 a134 b2bc 292f
000000e0: 7196 c333 2573 0e2c cd69 5d34 140f 4233
000000f0: 8cac c32b e891 db33 263c 2333 4fc8 8c34
00000100: 6258 1233 d444 0330 346f 4331 8586 0f34
00000110: 0c18 c532 b80d cb34 a98b d134 b916 ed32
00000120: 494e 652e f1da 0735 c2df c22b eb16 8c33
00000130: 7f1e 3b2f e3ab e32f 6d29 1e2f c012 f52e
00000140: eb09 1a2f 6a1a e334 9709 3734 0ad8 3333
00000150: d5eb db31 2628 2934 deb3 0031 8ffc 6733
00000160: 41ae ce33 7b09 8d33 1d97 5e34 0e5a 9530
00000170: 32f7 a532 a17a fa2e 4c58 c633 5ca1 f52f
00000180: 87da 8c33 9e6e 8632 7c46 b033 effa 8132
00000190: 02be 5f34 7fc4 1233 6209 042d b672 8d34
000001a0: 82e4 532e 898d 3231 a1df 9234 9a98 b930
000001b0: 5d73 be33 4642 6233 4c4f 7433 e08d 1b33
000001c0: c671 6332 fa80 7b27 a1a6 0732 adf0 d033
000001d0: ca9f cb30 16d4 9930 d320 4933 f99a 6d33
000001e0: 39ad 3733 41d1 fa33 f115 6e33 06f4 a834
000001f0: 1ab3 a131 47b8 242f d297 9230 9626 272f
1.3555934e-08 8.2185615e-08 2.423343e-07 1.7049656e-09 9.542608e-09 4.7509907e-10 9.389797e-08 2.1043482e-08
3.0797376e-10 3.4347317e-10 2.2602278e-07 5.0475313e-10 4.5093422e-09 2.5530048e-07 8.6591356e-10 7.174635e-08
6.1496294e-08 3.833345e-11 7.085891e-08 1.2516178e-10 2.2236175e-09 2.2926648e-07 5.8017525e-11 5.5430498e-08
1.0928675e-09 3.592063e-08 1.5272202e-07 4.0705004e-08 1.3139657e-08 2.1192127e-08 5.4756016e-10 2.9122407e-07
4.8762554e-09 2.2187756e-09 1.3680018e-09 6.3337104e-08 1.4343951e-11 1.0716324e-07 9.397248e-08 1.079979e-09
2.3094712e-07 4.066891e-10 4.6584006e-08 1.2201004e-09 9.784401e-10 6.749695e-11 5.835175e-07 4.791262e-10
3.3114103e-09 6.06288e-07 4.0458087e-10 1.3281496e-12 6.7668725e-07 1.8125399e-09 3.0118076e-07 1.5437499e-10
9.10776e-08 2.0243332e-12 2.0620719e-07 4.518286e-08 1.3903475e-12 1.02245224e-07 3.80061e-08 2.6222776e-07
3.4073658e-08 4.7755333e-10 2.8439446e-09 1.3366851e-07 2.2944754e-08 3.7821678e-07 3.90309e-07 2.7600764e-08
5.2138103e-11 5.061002e-07 1.3846634e-12 6.523427e-08 1.7018385e-10 4.1413192e-10 1.4384734e-10 1.1144641e-10
1.4009742e-10 4.2301264e-07 1.7046692e-07 4.187317e-08 6.40055e-09 1.5753957e-07 1.8728694e-09 5.401358e-08
9.624319e-08 6.5675486e-08 2.0730336e-07 1.0866772e-09 1.932094e-08 1.1390467e-10 9.2361546e-08 4.4679893e-10
6.559008e-08 1.5649956e-08 8.20846e-08 1.5131688e-08 2.0837618e-07 3.4171986e-08 7.505415e-12 2.634676e-07
4.81788e-11 2.5982863e-09 2.735733e-07 1.3503894e-09 8.868549e-08 5.268e-08 5.6882797e-08 3.6217784e-08
1.3239008e-08 3.4903166e-15 7.895921e-09 9.7295334e-08 1.4815609e-09 1.1192494e-09 4.6828813e-08 5.532181e-08
4.2765553e-08 1.1679595e-07 5.543365e-08 3.146999e-07 4.706078e-09 1.4981182e-10 1.0666048e-09 1.520227e-10
