MachineLearning/results/MoveToGoal--force/MoveTOGoal/MoveTOGoal-174497.onnx (onnx, 75062 bytes, 7 tensors)

network_body._body_endoder.seq_layers.0.weight f4 [128, 6]
00000000: cb64 f23e 732e a6be 01c7 6abe 7346 b2be
00000010: 7582 be3d 0284 a0bd 7e71 6e3e a919 f2bd
00000020: 8684 913c 92e2 c93d a508 643e 097c e7be
00000030: 84e0 40bc db0d aabe 4960 28be 9d18 883e
00000040: 0bd6 2b3f ba7f 64bd 6f69 8d3d 59b2 56be
00000050: 381c df3e 44d9 aabe 3485 fdbd c647 453e
00000060: 1928 18be dd45 f6be 2dd1 8abe c206 9a3e
00000070: 1939 bb3d 6f0a 23be 32a6 25bf dde5 583e
00000080: cb4a bc3e 0b39 f53e db0d 5dbf 0199 81be
00000090: bba5 3dbe a78b bf3d 8b51 253e fdfa b83e
000000a0: 17e6 303f ee7e 563e 96c2 573f 433d 3e3e
000000b0: 83ea 173f fa3d 9bbf f9a6 243f d1b4 f3be
000000c0: 62c5 26bf 9b51 12be 9025 3f3e ac99 7cbe
000000d0: a68d 163d 0279 9bbe 8f30 6cbe 8f5c 1a3d
000000e0: 9afc a4be da20 b53d 7ba0 09be 9ba7 2cbf
000000f0: 9c4e ef3e 1e58 10be b30c a03e 307f 6b3d
00000100: 3368 0f3e ea2a 66be 7fed 89be 2398 30bc
00000110: 3d74 bf3d 33c5 e8be 19ef 3a3e 1fd3 f0be
00000120: 6cc2 bf3e ef46 febe 1bf1 8c3e 930e b4be
00000130: 124e 753c 2218 393e c08f 123f 6149 58be
00000140: 751f 7dbd 8e73 04bf f738 b43c 7dc8 483e
00000150: 3415 18be 2528 b4be d880 b63e eb0a 213e
00000160: 3d29 8fbe 0d6c 26be aeaf 0bbf d5c0 3e3e
00000170: d0f4 143f 2dae 3d3e 251a 8f3e 5ca4 abbd
00000180: 5cd6 4fbd 7945 cfbe 0743 f43d 95e7 2f3f
00000190: 2805 13be 02a5 253e 6c1a 73be 0c01 0dbe
000001a0: 58dd e5be 35a6 c9be b534 fcbe d564 28be
000001b0: 0ce2 443f da4f c33e 08d0 853e 9c4d 87be
000001c0: 675b 783e a44f e33e 6ffc 84be 63db 12be
000001d0: 4899 25be 82f1 4fbe 5d46 95bd 2562 1cbf
000001e0: fc48 233e 2844 983e 3b48 633f 9dcf 0a3e
000001f0: 7e91 2abf 3e28 29bf e50b 243c fb01 643e
00000200: d3ca b93e 4459 dbbc 444b d53e 11b7 06bd
00000210: 6bb1 1cbf 37da 3abd eca9 f23c 10a6 4cbf
00000220: 5055 0bbd 119c 2d3e ccd2 ea3e 2a4e 1c3f
00000230: 167e cbbe 34b5 9b3e b460 dcbe 5586 cfbd
00000240: 6c69 08bf dd9e 443e de74 3e3f 4876 8abe
00000250: 333c a5be 4876 303d 1037 753f 9405 833e
00000260: caa7 1e3f 89b6 e93e b1d1 b23e b3ad 893e
00000270: d306 fc3d 8709 aa3e be03 f63d dbf3 663e
00000280: 704c 35be 1970 303f b53a 373e ef52 653e
00000290: dbda 093e 2715 093e a7c4 7fbe 382e 353f
000002a0: 8cd8 1f3f 7457 8a3f 3565 753e 4d56 b6bc
000002b0: fc84 16bd f4cf 233f 7859 8bbe ce52 f03e
000002c0: 4669 973e 969f 303f 11d7 00be 1af9 91bb
000002d0: 4b28 b73e 0cc6 8f3e 9308 18bd cb4f ebbe
000002e0: 106e 3cbf ad83 50bf 7c88 2fbe 4546 1bbd
000002f0: f23f ce3c b08f 3e3f 89a4 773f febe 0abf
00000300: 30dd 08bf 5555 acbe e5a5 27bf f4ce 1d3f
00000310: 2811 2fbe 7bf9 c43d 9c42 69bd 8662 abbe
00000320: 3b34 633e a3ab 2abd cbfa 2bbe 55cd 913c
00000330: df79 13be 1247 2cbe 7e62 1dbe 27da dabd
00000340: c421 143d 191b ce3e 12d1 8abe 39ef e6bd
00000350: fd7b f43d 48e3 093f 1b51 1b3f ecfa bf3e
00000360: 22c4 e0be aae4 32bf 9dc2 eb3e 4696 d6be
00000370: 8d4b 9bbc 1c04 2d3e 7300 25be 28fe 553f
00000380: da3a 6cbe ded0 b5be 1d5b c0bc 3b2e 49be
00000390: 1674 053e 2276 8d3e dfad 153f 48d6 c8bc
000003a0: b463 233f 60b0 963d 3415 9fbd 1c6b 133e
000003b0: c16c 0f3f 2d2b 1dbe 3b37 86be 3ed3 7fbe
000003c0: ae4a d73e be9c 9b3e 6450 06bf b06a 583e
000003d0: 4646 f9be df0d a83e 0bca 3bbf 3681 df3d
000003e0: b61a 6c3e f3a8 1fbe d714 1d3d 81bf bdbe
000003f0: 0fed 523e 891f ba3e 2096 183f 0da1 7bbe
0.47342524 -0.32457313 -0.22927476 -0.34819373 0.093022265 -0.078376785 0.23285481 -0.118213005
0.017763387 0.09857668 0.22268923 -0.4521182 -0.011772279 -0.33213696 -0.1644298 0.26581278
0.6712348 -0.055785872 0.069048755 -0.20966472 0.43576217 -0.33368886 -0.12378922 0.1926566
-0.14859046 -0.48100176 -0.27112713 0.3008328 0.0914175 -0.15921949 -0.6470672 0.21181436
0.36775813 0.47895083 -0.86349267 -0.25312045 -0.18520252 0.093528084 0.16144387 0.3612899
0.6910109 0.20946857 0.8428129 0.18578057 0.5934221 -1.2128289 0.6431728 -0.4759889
-0.6514493 -0.14288943 0.18666673 -0.24667996 0.03675618 -0.3036576 -0.23065399 0.037685927
-0.3222397 0.088441566 -0.13440125 -0.67443246 0.46739662 -0.14096114 0.3125969 0.057494342
0.14004593 -0.22477308 -0.26939008 -0.01077846 0.093483426 -0.4546295 0.18255271 -0.47036073
0.3745302 -0.49663493 0.275277 -0.3516737 0.014972227 0.18075612 0.57250595 -0.21121742
-0.061797578 -0.5173882 0.02199982 0.1960773 -0.14851838 -0.35186878 0.35645175 0.15726821
-0.2796115 -0.16252156 -0.5456494 0.18628247 0.58186054 0.18523474 0.27949634 -0.083809584
-0.05074154 -0.4048269 0.11926847 0.6871274 -0.14357436 0.16176227 -0.23740548 -0.1376993
-0.44895434 -0.39384618 -0.49258962 -0.16444714 0.7690742 0.3814686 0.26135278 -0.264264
0.24253617 0.44396698 -0.25973842 -0.14341502 -0.16171753 -0.20306972 -0.07288811 -0.61087257
0.1594581 0.297395 0.8878209 0.1355576 -0.66628253 -0.6607703 0.0100126015 0.2226638
0.36287555 -0.026775964 0.41658986 -0.03288943 -0.6120822 -0.045618262 0.02962204 -0.7994089
-0.034016907 0.16954066 0.4586395 0.6105677 -0.39744633 0.30411685 -0.4304253 -0.10133044
-0.5328586 0.19201227 0.74397075 -0.27043366 -0.3227249 0.04308155 0.95787144 0.25590193
0.61974776 0.45647076 0.34925607 0.26890334 0.12305989 0.33210394 0.120124325 0.22553961
-0.1770494 0.6892105 0.17893489 0.22394918 0.13462393 0.13386975 -0.2497736 0.7077365
0.624398 1.0807939 0.23964389 -0.022257948 -0.036747918 0.63989186 -0.27216697 0.46938175
0.29572505 0.6899351 -0.12582041 -0.004454744 0.3577293 0.28080785 -0.037117552 -0.45959315
-0.7360544 -0.8145092 -0.17141908 -0.03790881 0.025176976 0.74438 0.96735436 -0.5419768
-0.53462505 -0.33658853 -0.6548751 0.6164391 -0.17096388 0.09617897 -0.05694829 -0.33473605
0.22187893 -0.04166759 -0.16794889 0.017798105 -0.14401959 -0.16823986 -0.15369603 -0.106861405
0.036165014 0.4025505 -0.27112633 -0.11276097 0.119377114 0.5386243 0.6067063 0.37496126
-0.43899637 -0.69880164 0.46046916 -0.41911525 -0.018956924 0.16896099 -0.16113453 0.83590937
-0.23069325 -0.35510916 -0.023480946 -0.19646542 0.13032565 0.2762919 0.5846843 -0.02451624
0.6382401 0.073578596 -0.07767716 0.14396328 0.5602532 -0.15348502 -0.26214013 -0.24982926
0.42049164 0.30393022 -0.52466416 0.21134448 -0.48686427 0.32823083 -0.7335517 0.10913317
0.23057064 -0.15591793 0.038349953 -0.37060168 0.20598243 0.36352184 0.5960407 -0.24573155

network_body._body_endoder.seq_layers.0.bias f4 [128]
00000000: e0f9 32bc f2b3 b6bb 1fc7 c1bb 0146 9dbb
00000010: 0fc1 08bb b3fd 903b ffd3 0e3b d645 a3bb
00000020: cb31 7a3b ccad 863a bb96 bfbb 0558 ccbb
00000030: aeeb 9e3c ab66 613b c7f4 0fbc 9bdd 21bb
00000040: d4ba e2bb 24d8 e7bb d92f acba 406c 0fbb
00000050: 0ad0 eb3b f367 8f3b 982f 683b ce9d 49bc
00000060: 2508 ff3a 5f13 0cbc b4de 603b 24fc 16bc
00000070: fc64 76bc 7917 8cbc 5bfe e83a 66cd b73b
00000080: eadd 82bb e29d 49bb 2f81 38b9 d6f8 9ebb
00000090: 1146 50bb 912f d93b 8e01 e7bb dff1 c23a
000000a0: b312 5b3b b7dc 82ba 12f6 06bc f37b ea3b
000000b0: c4b2 05bc cd5c b73a 3d7d 14bc 9e98 513b
000000c0: ff43 e93b 48e5 62bb 5500 90bb c5f4 7eba
000000d0: bcd5 bd3b 0017 caba 2e01 a23b b9d0 e03a
000000e0: 3825 b43b ba67 5c3b 5aac e83b 3d20 97bb
000000f0: 654a a53b aebf b1ba 222c 99bb 1523 c1bb
00000100: dd7d 543a 150b c4bb ddf0 8ebc 9c4a 1a3b
00000110: 1b99 143b c8ee 13bb 99f9 153c e66e 2bbb
00000120: 3ec6 a3bb 0373 d43b 1a09 40bb b8ca e4ba
00000130: 2641 303b ad11 dcbb 4f27 dfbb c24c 47bb
00000140: d190 9ebb 6964 8a38 1878 f2bb 8ccd aa3b
00000150: e156 af3b 1c58 aebb 7b03 413b f5c5 9fba
00000160: 96bd 68ba ddce a1bb 3ea7 8fbb 4aab 73bb
00000170: 6e0d 0f3c 26fd 433b 3898 3b3b 004c 473b
00000180: 23ce 213c c20f b8bc da0e f9bb d6e5 fe3b
00000190: 980f 80bb 3b4a ef3b bf15 84bb 638b 27bc
000001a0: 5aa9 01b8 bd45 2eba 1b6d fb3b 39b8 683a
000001b0: 0151 c3bb 0472 a53b bc48 dabb 7176 04bc
000001c0: f061 fa3b 82ed 7a3b c13c 173c 4de3 98bb
000001d0: dac5 8d3a b4e1 aa3b b50f 9e3b cc2d 32bc
000001e0: 035d 0dbc 24b9 de3a ca7b db3a 70f7 883b
000001f0: c0cc 8d3b 53b2 58bb 514f 2c3c 91b3 233c
-0.010923833 -0.0055756504 -0.0059136297 -0.004799605 -0.0020867025 0.0044247746 0.002179384 -0.0049826903
0.0038176652 0.0010275184 -0.005846826 -0.0062360787 0.01939949 0.003439347 -0.008786387 -0.0024698738
-0.0069192443 -0.0070753265 -0.0013136818 -0.002188459 0.007196431 0.0043764054 0.0035428759 -0.01230569
0.0019457383 -0.00854954 0.003431243 -0.009215388 -0.015038725 -0.017101036 0.0017775999 0.005609202
-0.0039937394 -0.0030764272 -0.00017595732 -0.004851441 -0.0031780044 0.006627985 -0.007049746 0.0014873109
0.0033427894 -0.0009983991 -0.008237379 0.007155889 -0.008160297 0.0013989449 -0.009063062 0.0031981836
0.0071187015 -0.0034621526 -0.004394571 -0.00097258046 0.0057933014 -0.0015418231 0.0049439883 0.0017152048
0.005497601 0.0033631162 0.007100624 -0.0046119974 0.005044269 -0.0013561153 -0.0046744505 -0.0058940747
0.00081059133 -0.0059827664 -0.017448837 0.0023543006 0.0022674266 -0.0022572745 0.009153747 -0.002615863
-0.0049979975 0.006483437 -0.00293023 -0.0017455434 0.00268943 -0.0067159743 -0.006810106 -0.0030410741
-0.004839041 6.5990556e-05 -0.00739957 0.0052124914 0.005350933 -0.005320562 0.0029451537 -0.0012189733
-0.0008878348 -0.00493799 -0.0043839505 -0.0037180954 0.008731229 0.0029905527 0.0028624665 0.003041029
0.009875807 -0.022468451 -0.0076006474 0.0077788634 -0.003908109 0.00730255 -0.0040309126 -0.0102261035
-3.0913718e-05 -0.0006647965 0.0076729185 0.0008877549 -0.005960584 0.005048992 -0.0066615026 -0.008084879
0.0076410696 0.0038288538 0.009230793 -0.0046657682 0.0010816411 0.005214894 0.00482365 -0.010875177
-0.008628133 0.0016992432 0.0016745266 0.0041798875 0.0043273866 -0.0033065274 0.010516957 0.009991542

network_body._body_endoder.seq_layers.2.weight f4 [128, 128]
00000000: 95bb 943d 8b86 16be e672 7dbd 93b3 1bbd
00000010: 038f 89bd 5f96 f7bc 87c6 8e3d 630f 303e
00000020: d502 603c ccc2 3f3d 216e 703d 5a9e 11be
00000030: bd56 183e c6c1 dcbc 6c8a 2e3e 5a4c 1cbd
00000040: 2773 493e b16f 53be 9bd8 253e 543f f1bc
00000050: e2ad 97bc 9b38 893d 3292 383d e017 47bd
00000060: 1b5b c33c eb8d f7bd 8db5 a93d 60f0 203d
00000070: 5a4b c23d 8664 acbd 0bac 81bd 08ea d33d
00000080: 6521 b73d 4b7d 30bc 3102 e1bd d4f8 2f3c
00000090: c77a 143d c3e3 8b3e 5b5f d7bd 7cf0 ee3d
000000a0: 437b 123e e120 39bd e82a 253d e69d 883c
000000b0: b47c 55bd cf3a 0b3d fc89 60be e202 42bc
000000c0: f06b 353d 3871 a4bd e2d5 fcbb 9702 2ebe
000000d0: d0bf a8bc 020a 9b3c 4854 f73d 1548 13bd
000000e0: 3b05 7f3a 1605 b83d ef47 6c3d 3fa4 86bd
000000f0: 7da7 11bd 7708 993c e925 a43d 0425 1f3e
00000100: 01fe 55bd 3c39 f5bc 1c25 9f3c a9a7 65bd
00000110: 37e3 42bd d410 84be 91e9 8bbc e7f0 cb3c
00000120: ba5e 0e3c 1c28 47bd 118a 8cbd 0baf 90bd
00000130: 3875 aabd 3264 a8bc 469c f93c d31f 8f3d
00000140: 7e56 683d 86ed 81bc 4456 81bc 987d b4bd
00000150: 87eb c73d 38a6 553d 04fd a93d 4c61 acbd
00000160: e76b 14be b49b b4bc da5e 023d 3c34 9f3d
00000170: 9d46 74bd e9ff e6bc dc7b ca3d d70a 9abd
00000180: 30b4 5ebe 7467 d1bd c14a 3d3d 08ff 4d3d
00000190: 4a75 12be 24e0 d8bb 16d5 9e3d b780 42bd
000001a0: 242c 2f3e 8121 05be a06a 763b e752 8dbd
000001b0: fad3 0d3d 70b7 82bd e041 85bd f92a 083c
000001c0: 7dc0 fd3d 475c 89bd 3a2a 653d 9c38 dabd
000001d0: 86ef 013c 3a3e 38bd 154b 693d 8c83 5e3c
000001e0: d40b 84be 2689 9abd 1669 023e 4bfe 013c
000001f0: 98d2 443d 5e71 b8ba 79fe 1d3c 0226 913d
00000200: e4ad ab3d ece1 cc3d b531 393c cd74 b23d
00000210: f2ac 46bd 8618 7d3d 76ed 56bd 048c 123d
00000220: 36d0 7c3d fa69 90bd 7b8d 063e 24e6 c2bb
00000230: 3b50 e5bd fc4d c33d 4c6b 663b e83e 823d
00000240: 743d a33d a355 bbbd 4d78 72bd 4b19 6a3d
00000250: c181 0a3d 795c 643d fab3 ebbc 0008 34bd
00000260: 2de4 9d3c 384b da3d cc31 89bd 9452 453d
00000270: 9bfc a7bd 1e5a 3dbc e76f d73d 89d6 b2bd
00000280: 8cd6 46be 714e 833d 3a01 13bd f732 b3bd
00000290: c04e 10bd b07c 503a dc03 613d 479e d33d
000002a0: 083e 993d 26b8 18bd 3435 0f3e f8a4 05bd
000002b0: 5249 453b 1b1e ef3c 33d2 f23c 30a1 33bd
000002c0: c4f8 f5bd 41cf 06bc 8e65 723c 951f 673d
000002d0: 913d 11ba 04ca cb3d a76f 2cbe 5a0b b3bd
000002e0: 4b8b 75bd 408a e5bc d970 44bd 9edc a9bd
000002f0: 9a85 6e3d e191 bb3d fbf9 2fbe 1259 8a3d
00000300: 2732 27be e3a6 b23d 8682 56bd 3c67 4bbd
00000310: 14ec 2ebc 8b4f 52bd 5008 11bd 250d 2b3d
00000320: ac3e 313e e18f 14bd 0d5b 6a3d 9f74 f73b
00000330: 70d2 563e b7f2 9b3b ae74 eabc 2249 f23d
00000340: 4f2a 0c3d 1897 063e 6515 ffbd b240 09bd
00000350: 2277 113e b35d 323d e3fe 243d 6a4a a3bd
00000360: ea20 f73d 014f 8ebc a41d b73c 5b92 233e
00000370: 191d f73b 8b97 023e ff07 933b e81b 2bbd
00000380: a52e c23d e60b 1dbe 55f5 c7bd 31e0 1f3d
00000390: 85ae 8ebd 2176 58bc 7984 27be 2dbe b6bd
000003a0: 9bc1 e8bc 62c8 fc3d 1962 09bd b273 10bc
000003b0: 25a4 703e 5320 e83d 76ba f63b d47c a5bc
000003c0: 97b9 c6bc 348b 47bd 9044 b0bd 4960 6b3d
000003d0: 2065 af3c 7ff4 c93d cd11 f8bc 6621 21be
000003e0: 1fc2 c1bd 7a26 1fbd fe4a a1bd d7b3 073d
000003f0: 7967 0bbe a598 073e 432b a23d e350 68bd
0.07262341 -0.14699762 -0.061877154 -0.038013052 -0.067167304 -0.03022307 0.0697146 0.1719337
0.01367255 0.046816632 0.058698777 -0.14220563 0.14876838 -0.026947867 0.17044991 -0.038158752
0.19672833 -0.20648076 0.1619591 -0.029449143 -0.018515531 0.0670025 0.045061298 -0.048606753
0.023847153 -0.120876156 0.08286581 0.03929174 0.094870284 -0.08417611 -0.06331643 0.10347372
0.089419164 -0.01077206 -0.10986746 0.010740478 0.036249902 0.27322206 -0.105162345 0.116669625
0.14304833 -0.04519737 0.04032412 0.016676854 -0.05212088 0.03399163 -0.21927637 -0.011841508
0.04429239 -0.08029407 -0.0077159265 -0.16993175 -0.020599276 0.01892567 0.12076622 -0.035957415
0.00097282574 0.08985345 0.05768579 -0.06574296 -0.03556012 0.018680794 0.08015043 0.15541464
-0.05224419 -0.029934518 0.019426875 -0.056068096 -0.04757997 -0.2579409 -0.017079147 0.024895145
0.008689577 -0.048622236 -0.068622716 -0.07064637 -0.08323139 -0.02055559 0.030470025 0.06988492
0.05672311 -0.01586033 -0.015788205 -0.088130176 0.0976172 0.05216047 0.08300212 -0.084169954
-0.14494286 -0.022046901 0.03182874 0.07773635 -0.059637655 -0.0281982 0.098869056 -0.07521599
-0.21748424 -0.1022481 0.04621387 0.050292045 -0.14302555 -0.0066185165 0.07755487 -0.047486033
0.17106682 -0.13001062 0.0037600175 -0.06900578 0.034625985 -0.06382644 -0.06506705 0.008311027
0.1239023 -0.06707054 0.055948474 -0.10655329 0.007930642 -0.04498122 0.05695637 0.013581168
-0.25790274 -0.0754569 0.127354 0.007934163 0.0480524 -0.0014071872 0.009643191 0.070873275
0.083827764 0.10004029 0.011303355 0.08713684 -0.048504777 0.061790965 -0.052472554 0.03577806
0.061722003 -0.070514634 0.13139908 -0.005947845 -0.11196943 0.09536359 0.0035159169 0.06359655
0.07970706 -0.09147193 -0.05919676 0.057153028 0.03381515 0.05575225 -0.028772343 -0.043952942
0.019273842 0.10658878 -0.06698951 0.048174456 -0.082024775 -0.01155713 0.105193906 -0.087323256
-0.1941778 0.06411446 -0.03588984 -0.08749955 -0.03523135 0.000795315 0.05493532 0.103329234
0.07482535 -0.037284993 0.13985139 -0.03262803 0.0030103517 0.02918916 0.029641246 -0.043854892
-0.12010339 -0.008228124 0.01479472 0.056426603 -0.0005540485 0.09950641 -0.16839467 -0.087423995
-0.059947293 -0.028020024 -0.047959182 -0.082940325 0.05823288 0.091586836 -0.17185204 0.0675527
-0.16327725 0.08723237 -0.05237057 -0.049659 -0.010676403 -0.05134539 -0.035408318 0.041760582
0.17309064 -0.036270026 0.05721574 0.007551744 0.20978713 0.0047591585 -0.02862009 0.11830355
0.034220036 0.13143575 -0.124552526 -0.033508964 0.14205602 0.04354639 0.04028214 -0.07973178
0.12066825 -0.017371656 0.022353001 0.15973799 0.0075413105 0.12753122 0.004487037 -0.04177466
0.09481553 -0.1533657 -0.0976359 0.039032165 -0.06966881 -0.013211758 -0.16359128 -0.08922992
-0.02841263 0.123429075 -0.03354082 -0.008816646 0.23500116 0.1133429 0.007529552 -0.020201124
-0.024258418 -0.04871674 -0.08606827 0.05746487 0.021410525 0.09861087 -0.030281926 -0.15735397
-0.09460854 -0.038855053 -0.07875632 0.033130493 -0.1361369 0.13241823 0.07918408 -0.056717765

network_body._body_endoder.seq_layers.2.bias f4 [128]
00000000: bd75 75bb 214a 3cbc 3aaa c5ba 3e78 86bb
00000010: 5684 973b 6179 a2bb 444c 323b 09e7 e1ba
00000020: d64f bb3a 97ba 55bb 6788 9b3b a008 d0bb
00000030: 37fb 943a ebec 373b b9fc ccbb 922c 9c3a
00000040: 7bef 30bb 23f9 703b 5f40 b7bb fe37 4c3c
00000050: 415c d039 1985 aebb c7ca 943b d773 9a3a
00000060: 18c6 eabb fff7 9fbb 06dd 063c 7d25 d4bb
00000070: 7d73 aebb 6539 3bbb 5b41 393b 7932 fb3a
00000080: 453e 8cbb ef7d 8d3b e95c ebbb c6d5 e1bb
00000090: 46e5 433b bc5a a1bb f40a a6bb ac9f 203a
000000a0: 27cb e13a 7db7 8f3b 26eb f5bb f8ac b1bb
000000b0: c62c 55ba 11b2 ccba 68d4 aa3b f60d a1bb
000000c0: 8be8 a6bb ca90 ee3b 0374 963b d002 38bb
000000d0: cfcb ef3b 0457 343b 419a d4bb 9e86 2f3b
000000e0: 108c 9e3b 742e c3bb 79a8 363c 1a1f a0bb
000000f0: e952 4d3b 6d43 ed3b bc3d 1cbb a7ed a6bb
00000100: 9a8b 25bc 9138 163a d771 823a b40a bdbb
00000110: 0be3 3a3a aba0 583b 9725 48ba 427d a6ba
00000120: c336 123b e5e9 b6bb 7ec9 cb3a 17db 3ebb
00000130: 36b7 9e3b e40c 903b 4eb2 053b 6678 5a3a
00000140: be8e dcbb d72a f2ba b3ea 013c a0a5 dbba
00000150: 0d6f 3c3b 3749 a13b 0819 94ba f2a1 74ba
00000160: 7d7f ddbb 0499 633b 68c3 9d3b 49cc 1ab9
00000170: 2e0f 92bb c410 a03b a776 8fbb a130 f43b
00000180: d4cd babb 8fb0 94bb 5cbc 6c39 08a0 0a3b
00000190: 9e8d 4abb 1746 2b3c 25ef 1d3c 0b13 a73a
000001a0: e816 44bb 242e 8cba 6ad8 59bb 41c1 e2ba
000001b0: 6577 9a3b fae1 f73a ccd7 a53a 83d9 9d3b
000001c0: de50 a3bb ab3e 763b d1e2 afbb eec8 ba3b
000001d0: 5013 453c b96a 563a 8139 1bb9 4560 223a
000001e0: fc5d a1bb cf91 cabb 9b0c ce3b 981a c3bb
000001f0: cde6 fe3a 8563 d5bb 168b 273b 0d0c d13a
-0.003745421 -0.011492283 -0.0015080639 -0.0041036895 0.00462393 -0.004958317 0.0027206102 -0.0017234992
0.0014290761 -0.0032612437 0.004746485 -0.0063486844 0.0011366372 0.0028064798 -0.006255713 0.0011915138
-0.002699821 0.003676959 -0.0055923904 0.012464521 0.00039741586 -0.005325925 0.0045407745 0.001178379
-0.007164728 -0.0048818584 0.008231407 -0.0064741955 -0.005323826 -0.0028568145 0.0028267715 0.0019164822
-0.004279884 0.004317991 -0.0071827066 -0.006891939 0.0029891296 -0.0049241465 -0.0050672237 0.00061273086
0.0017226682 0.004385887 -0.0075048385 -0.005422231 -0.0008131977 -0.0015617033 0.005213309 -0.0049149944
-0.0050936393 0.007280444 0.0045914664 -0.0028077848 0.007317997 0.0027517686 -0.006488115 0.002678312
0.004838474 -0.0059564654 0.011148565 -0.00488652 0.0031329936 0.007240704 -0.0023840507 -0.0050942483
-0.010104084 0.0005730475 0.000995214 -0.005769098 0.0007129169 0.003305475 -0.0007634996 -0.0012702125
0.0022310473 -0.0055820816 0.001554772 -0.0029122287 0.004843618 0.004396068 0.0020400467 0.0008333981
-0.0067308834 -0.0018475902 0.007929492 -0.0016757734 0.0028752715 0.004922058 -0.0011298964 -0.0009331993
-0.0067595826 0.0034728656 0.004814554 -0.00014762687 -0.004457376 0.004884811 -0.004378158 0.007452086
-0.005700806 -0.004537649 0.00022576883 0.0021152515 -0.0030907164 0.010453722 0.009639536 0.0012746764
-0.002992088 -0.0010694903 -0.0033240565 -0.0017300026 0.00471394 0.0018911951 0.0012652813 0.004817189
-0.0049840054 0.0037573974 -0.005367615 0.005700222 0.01202853 0.0008179355 -0.00014803374 0.0006194155
-0.004924534 -0.0061819325 0.006288124 -0.005954098 0.0019447446 -0.006512108 0.002556508 0.0015949026

action_model._continuous_distribution.log_sigma f4 [1, 2]
00000000: 6f26 18bd 9d17 4abc
-0.037146028 -0.012334731

action_model._continuous_distribution.mu.weight f4 [2, 128]
00000000: 54af 06ba 505a ca3b 882e 07bc ba0e 87bb
00000010: cf17 afbc 909d 1abc fa16 12bc 89de 823c
00000020: 7103 b13c ee1c 9e3a 4d6d d53b 7848 aebb
00000030: 6768 56ba eb54 d73b 2290 023d 1a33 95bc
00000040: b222 6bbc b151 5dbc 6bd9 31bc 3b8e 19bb
00000050: 2899 a53b 9173 b8bb 1049 c3bc 430b 053c
00000060: 775e b53c b70b bcbc 5ed2 333c 4586 d83b
00000070: 013f 31bd f75a b2bb b004 3bbd 2421 ed3b
00000080: ddcd a0bc 9550 fb3c eb52 afbc 4e9d 6e3c
00000090: fd95 88bc b6a1 92bc 7624 2dbc 5160 843c
000000a0: c789 203c a983 5fbb e69f 6dbb 9c21 7b3a
000000b0: 3bc5 20bb 154c edbc dcc0 6fbc d70e 63bd
000000c0: 026f bfbc dff6 4f3c b829 afbc cf5f 0dbd
000000d0: 0e7c 6fbc a08e 113c 0bc2 423a b47e 9d3b
000000e0: 1a23 0d3d 0a75 bf3c 5ab7 a6bb 0e4d e4bc
000000f0: 0b32 223c 8609 a53c 8989 7a3c 5517 e2bb
00000100: 61ab 13bd cc2f 5d3c e448 e3bb ae22 e9bb
00000110: eb9e 5b3b 1da9 653c e81a bf3b ea4b b4bb
00000120: 11ac 393c d905 4ebc 64f8 3939 2f8b 1bbc
00000130: 0b7e 693c 0cd1 0a3d 37c2 7cbb 4b36 1ebd
00000140: beca 93bc a282 4b3b da01 57bc bdd6 c83a
00000150: 4ed5 c4ba 436a 08bd dbab bd3b 662f 1c3a
00000160: 0f7c 81bc 4d33 a33c 20a1 f83b fbb0 183c
00000170: 179f 99bc 8b4f 6b3c 6589 7ebc 2e00 babc
00000180: aa5b c73c dbde a9bc 6c20 183b ef61 003b
00000190: a940 483b 12c3 07bb 2641 c63a 1797 d9bc
000001a0: 4e37 8cbb 7c59 1ebd bdde 30bb f56c c83a
000001b0: 7718 013d 4c16 693b 09b6 a5bc 9de5 b13c
000001c0: 96d4 eebb 5a56 b53c 47c8 18bc 5b5e 0a3c
000001d0: bd35 0cbc 9d1f 933b aef7 5cbb fd5b 3aba
000001e0: 0219 8a3b 2580 a7bc 5c27 ac3b 97b9 9abb
000001f0: f327 173c d321 bfbb a708 593c 5313 81bc
00000200: 3099 113c 1e58 6dbc d67b d23c dc0a b3bc
00000210: 679d 113c 5ba5 503c e7fd 2e3c 2841 17bc
00000220: 0c1c 21ba 7233 e2bb b2ae 1a3d 2867 4fbc
00000230: dece aa3c 4930 b8bb 9998 e13b bab9 14bd
00000240: b625 463c 9d82 2ebb 3060 96bb ec85 1e3d
00000250: 04a4 43bc c8ef 563c dde0 07bd 23ac 0dbc
00000260: c023 17bc 7c4e aebc 4b83 22bd 0e69 ddbb
00000270: b3e4 cb3c 5940 bebc 66db ddb8 ccfd c03b
00000280: b3ed 2cbd 56c8 783c 8e0b 96bc 5ae3 4cbb
00000290: 2a1e 20bd 23f3 ac3c e0fe 01bc 27e9 deba
000002a0: ff74 23bc 4743 5c3d 27df 373b 6c64 0d3c
000002b0: 4533 1dbd d81c 99bc 27f9 0b3d a2ea 90bc
000002c0: 0ace 64bc 1f4b dc3c d93e d63c c2cf 943c
000002d0: 0d60 b0bb 185d 8a3c f063 0b3c 66b7 933c
000002e0: 2107 a13c d651 a6bb 5b2a fdbc c44f 813b
000002f0: b94a ef3c 46e3 363d 36e4 083d 1e91 43bc
00000300: 616b 3a3c 082f 823c 85d3 a3bc d108 273b
00000310: 4fb2 983c 6b56 963c e267 0dbc c47f 4a3c
00000320: 2069 81bc 4117 4d3c d42f 6bbb be97 b6bc
00000330: 841b b3bc 03b2 173c 8c53 10bd 9b0f aebc
00000340: 85a4 52b9 db4c 31bc f633 04bd 0d38 78bc
00000350: 17c6 81bc 1ccb 0bbc ca61 97bc 8502 a23c
00000360: b8e4 e1ba 765b c8bc a64b 9bbc a48c ffbc
00000370: e02b 103d 3639 fabb dbd6 de3b bec1 b9bc
00000380: 2ffa 453c 8217 9fbc ae76 ef3b c22f a3bc
00000390: d3c1 adbc 9ae9 e8bc e1ee 9a3c cfeb 5a3d
000003a0: d080 04bd 448f ac3c 4473 953c 8360 323c
000003b0: 08be 3bbc e8ca 46bc 1739 f03b cb49 443c
000003c0: 9a1f a0bb 042a 6dbb aea4 b8bc 61e7 333c
000003d0: fc84 483d dde5 983b a023 703b 9373 223d
000003e0: 4ce2 f03b edaa 91bc 8f53 a7bc adef 4737
000003f0: 88b9 02bc fe1e 54bb 06ce c43c 9e82 f9bc
-0.000513782 0.006175317 -0.00825084 -0.0041216286 -0.021373658 -0.00943698 -0.008916611 0.015975254
0.021608086 0.0012063065 0.006513274 -0.0053186975 -0.00081790093 0.0065714023 0.031875737 -0.018212844
-0.014351534 -0.013508246 -0.010855059 -0.0023430723 0.005053658 -0.005629011 -0.02383855 0.008120361
0.02213977 -0.022954805 0.010975448 0.006607803 -0.043272976 -0.0054429728 -0.045658767 0.0072366167
-0.019629413 0.030678073 -0.021401843 0.014563872 -0.016673082 -0.017899375 -0.010567775 0.016159208
0.009798474 -0.0034105575 -0.0036258637 0.00095798983 -0.002453162 -0.028966943 -0.014633384 -0.055434074
-0.023368362 0.012693136 -0.021382198 -0.0345152 -0.014616979 0.008884102 0.00074294274 0.004806364
0.034457304 0.023371238 -0.005087775 -0.027868774 0.0098996265 0.020146143 0.01529158 -0.006899754
-0.03605211 0.013500165 -0.0069361795 -0.00711473 0.003351147 0.0140173705 0.005832065 -0.0055022137
0.011332528 -0.012574636 0.00017735508 -0.009493633 0.014251242 0.03389077 -0.003856791 -0.038625997
-0.018041011 0.0031053205 -0.013123 0.0015322786 -0.0015017183 -0.033304464 0.005788309 0.00059579907
-0.015806226 0.019921923 0.007587567 0.009319539 -0.018752618 0.014362226 -0.015535687 -0.022705164
0.024335701 -0.020736149 0.0023212684 0.0019589623 0.0030556119 -0.0020715636 0.0015125617 -0.026561303
-0.004279054 -0.038659558 -0.002698823 0.0015291261 0.031517472 0.0035566268 -0.020228403 0.021715933
-0.007288526 0.022135902 -0.009325094 0.008445348 -0.008557734 0.0044898526 -0.0033716965 -0.0007109044
0.004214407 -0.020446846 0.0052537154 -0.004721831 0.009225833 -0.0058328896 0.013246692 -0.015756285
0.00888662 -0.014486341 0.025693815 -0.021855764 0.008887625 0.012734736 0.010680652 -0.009231843
-0.0006145842 -0.0069031054 0.03776426 -0.012658872 0.020850595 -0.0056209904 0.006884646 -0.036309935
0.012093952 -0.0026628145 -0.004589103 0.038701937 -0.01194096 0.013118692 -0.03317343 -0.008646998
-0.009224832 -0.021277659 -0.039675992 -0.0067569083 0.024889326 -0.023224043 -0.00010578967 0.00588963
-0.042218875 0.015184483 -0.018316057 -0.0031263442 -0.039091267 0.02111203 -0.007934302 -0.0017006741
-0.0099766245 0.0537751 0.0028056593 0.0086298995 -0.038378973 -0.018690512 0.034173157 -0.017690007
-0.013965139 0.02689129 0.026153015 0.018165473 -0.005382544 0.016890094 0.008507714 0.018031787
0.01965672 -0.0050756736 -0.030903986 0.0039462764 0.029210435 0.04465034 0.033420764 -0.011936454
0.01137814 0.015891567 -0.019998321 0.0025487433 0.018639712 0.018351754 -0.008630725 0.012359563
-0.015797198 0.012517751 -0.0035886662 -0.022289153 -0.021863706 0.00925875 -0.035235927 -0.021247676
-0.00020088449 -0.010821546 -0.032276116 -0.015150082 -0.015841527 -0.008532312 -0.018479247 0.019776592
-0.0017234301 -0.024457674 -0.01895697 -0.031194992 0.035198092 -0.0076362146 0.006800515 -0.022675391
0.012083574 -0.01942039 0.007307849 -0.019920234 -0.021210587 -0.028431702 0.018912734 0.05344754
-0.032349408 0.021064408 0.01824344 0.010887268 -0.011458881 -0.012133338 0.0073310244 0.011980484
-0.0048865797 -0.0036188373 -0.022539463 0.010980458 0.04895495 0.0046660737 0.0036642328 0.039661
0.0073511954 -0.0177817 -0.020425586 1.1917128e-05 -0.007978804 -0.0032367106 0.02402402 -0.030457791

action_model._continuous_distribution.mu.bias f4 [2]
00000000: 741b 9d3b 0352 f73a
0.0047945324 0.0018869046
