MachineLearning/results/TestParameters/MoveTOGoal.onnx (onnx, 75062 bytes, 7 tensors)

network_body._body_endoder.seq_layers.0.weight f4 [128, 6]
000000 fc f1 d2 3d 2d 31 db 3d 12 a6 8e be 16 0f af bd
       0.10300061 0.10702739 -0.27861077 -0.08547799
000010 dc ca 7c 3d 67 3e 7a bf 33 f4 4b be e8 d1 ad be
       0.0617169 -0.9775147 -0.19917373 -0.33949208
000020 f5 d9 1a be 32 45 cc 3d 10 e6 86 3e 22 20 3c bd
       -0.15122207 0.099741355 0.263474 -0.04592908
000030 f7 91 d9 3e 6f 21 8a be 22 83 a0 be 70 97 58 be
       0.42494175 -0.26978633 -0.31350046 -0.21151519
000040 7c 81 fe be 16 13 04 bf 41 bb 6b 3c 41 50 dc 3e
       -0.49708164 -0.5159162 0.0143879065 0.4302998
000050 eb d6 25 3d 61 a1 25 3f 85 29 c9 3d d9 5f b2 bd
       0.040488165 0.6469937 0.09822372 -0.08709688
000060 12 06 cd bd 39 f2 2d 3f 00 11 48 3e 09 2f 52 bd
       -0.100109234 0.6794773 0.19537735 -0.051314387
000070 b2 17 72 3d 49 0d 7a be 1d 18 8a 39 e2 29 4d bf
       0.05910463 -0.2441913 0.00026339377 -0.80142033
000080 5a 06 18 bf 92 0d 04 be 5b f5 78 3e 30 a7 1b 3e
       -0.5938469 -0.12895802 0.24312346 0.15200496
000090 bd 5b 03 3f 22 20 72 3e 54 51 26 bc 5b f3 14 3f
       0.51311857 0.2364507 -0.010151226 0.5818383
0000a0 53 a5 04 bf 79 c6 d8 3c 08 58 64 3e 0e 8c 96 3d
       -0.51814765 0.026461827 0.22299206 0.07350932
0000b0 bc 31 4a 3d 6d 46 14 bf 37 16 a6 3a ef 39 04 be
       0.049363837 -0.5791996 0.0012671415 -0.12912725
0000c0 ec af cb 3e 84 68 83 bc 60 fc c2 3e 0a 41 c6 be
       0.39782655 -0.016041048 0.38083172 -0.38721496
0000d0 a2 c8 ac be b4 77 a2 be 4d ba 64 3e ea 20 b3 3c
       -0.3374682 -0.3173195 0.22336693 0.02186628
0000e0 09 a1 04 3e a6 ff 0a 3f e0 f5 4d bd e0 20 93 be
       0.12952055 0.5429634 -0.050283313 -0.2873602
0000f0 a0 75 08 be 7c ee 30 be 71 92 1a be 5e 7c 79 bd
       -0.1332612 -0.17278475 -0.15094925 -0.06090962
000100 43 87 8d bd 1a 87 12 bf ef 86 67 bf d5 22 b0 be
       -0.06910565 -0.572374 -0.9044027 -0.34401575
000110 c6 98 af 3e 76 e4 bc be 5d 6b 8c be 26 66 e7 be
       0.34296244 -0.36893052 -0.27425662 -0.4519512
000120 10 53 25 3e f1 07 1c 3e 5d 2d d3 be 69 7f 03 3e
       0.16144967 0.15237404 -0.41245547 0.12841572
000130 e2 ae 8b be 0f ff f5 3e 97 7f 32 3e 82 ec 10 bd
       -0.27281862 0.48046157 0.17431484 -0.0353818
000140 95 87 38 3d 95 ab 80 3c 15 e9 ef 3e 45 0b 0e bf
       0.045051176 0.015706817 0.46857515 -0.55485946
000150 2c 94 81 be 22 50 03 3f f2 50 0b 3f e8 64 c7 3e
       -0.2530836 0.5129415 0.5442039 0.38944173
000160 24 17 7f bd 93 1d 56 3e c2 2b a7 bf 1e 63 61 3d
       -0.062277928 0.20909719 -1.3060229 0.055026166
000170 4b 2b e0 3e 65 68 c0 bd cb 2e 02 bf bf ee 81 3f
       0.4378303 -0.09394912 -0.5085265 1.0150985
000180 bc 41 82 3e 94 8d 9c be d9 1d f4 be aa a7 3a be
       0.25440776 -0.30576766 -0.47679022 -0.18228021
000190 00 99 95 3e 3b f6 3b 3d 14 24 20 3e a5 80 96 be
       0.29218292 0.04588912 0.15638763 -0.29395023
0001a0 c7 f8 f4 3e b4 6d 93 be c9 fd 6f 3e 46 be f4 3d
       0.47846052 -0.28794634 0.23436655 0.11950354
0001b0 fe b5 01 bd 0a 7e 47 be 40 c2 fd bd 8d a8 db 3d
       -0.031667702 -0.19481674 -0.12390566 0.10725508
0001c0 66 5b 99 3e 6a 9a 4c bf b0 91 fa be 28 4c 4d bf
       0.29952544 -0.7992312 -0.48939276 -0.8019433
0001d0 f6 cb e2 3d cd a6 50 bf 13 40 6e be 66 b4 41 3b
       0.11074059 -0.8150452 -0.2326663 0.0029556989
0001e0 f1 09 33 3b 12 d0 84 3d 2d 04 34 3e 5a bd d4 bc
       0.0027319158 0.06484999 0.17579718 -0.025969196
0001f0 6b 76 ef 3e ba f7 06 bf 54 19 0c be 76 de 51 bf
       0.46770033 -0.5272175 -0.13681537 -0.81980073
000200 a4 35 45 bf 43 0b 23 3f fc 16 88 3d eb 69 49 3e
       -0.77034974 0.6368906 0.06645009 0.19669311
000210 77 d8 0a bf a2 92 01 be d5 56 0e 3d ea b1 e3 b9
       -0.5423655 -0.12653592 0.03475078 -0.0004342937
000220 b1 79 5e 3f a1 35 99 be b3 92 dc 3e c4 18 a4 3e
       0.86904436 -0.29923728 0.43080673 0.32050145
000230 7b 6a 52 be 7f 6c 12 be 47 c4 30 3b e3 56 ad bc
       -0.20548432 -0.142992 0.002697246 -0.021159595
000240 ac 03 53 3f 62 af 16 be c4 ce 1f bd 03 7b 19 bf
       0.8242748 -0.1471534 -0.039015546 -0.59953326
000250 af 69 0f be ae af 2d 3e 16 e7 0b 3f 58 3d 11 be
       -0.14005159 0.16961548 0.54649484 -0.14183557
000260 af 1d 8f be b4 db 83 be 53 5f 45 bf da 52 e4 be
       -0.27952334 -0.25753558 -0.7709858 -0.4459446
000270 a6 ce 21 3f 95 0e 8f bc 99 4a 1a 3f 5e 72 e4 bd
       0.63205945 -0.017463008 0.60270077 -0.11154626
000280 06 23 83 3e a8 09 5e be 70 ff 22 3d 7a 8b 89 3f
       0.25612658 -0.21683371 0.039794385 1.074569
000290 3d 1f 4d 3f ac dd f6 3d 93 c1 41 be 8d 94 92 3e
       0.8012579 0.12053999 -0.18921499 0.2862896
0002a0 d1 b6 57 3e e4 ad b2 3d c4 8b 18 3f 7e cb 8a be
       0.21065833 0.08724573 0.59588265 -0.27108377
0002b0 10 b7 20 3f 8f 2f 2c 3f 95 fb e1 bd d7 5c 09 3f
       0.6277933 0.6726007 -0.110343136 0.5365729
0002c0 c1 11 d3 3e 89 4b 88 3e 7c b4 e6 3e 00 b4 05 bd
       0.41224483 0.2662013 0.45059574 -0.032642365
0002d0 2a c4 01 3f 9c d6 83 be a0 e8 6a 3f 58 13 ca be
       0.5068995 -0.2574967 0.9176121 -0.39467883
0002e0 57 83 db bd 88 86 fa 3e ad b5 50 3e 71 4d 99 be
       -0.107184105 0.48930764 0.20381804 -0.29941896
0002f0 ea f2 94 be 97 aa c0 be 2d 01 14 bf bc 60 14 be
       -0.2909158 -0.3763015 -0.57814294 -0.14490026
000300 cd 78 49 be b2 b5 d4 be fd df 55 3f 71 95 f4 3d
       -0.19674988 -0.41544873 0.83544904 0.11942566
000310 e0 04 d2 3e 74 d0 12 bf 1d 40 a9 be 85 6a 98 3e
       0.41019344 -0.57349324 -0.33056727 0.29768768
000320 23 86 81 3e 37 da 86 3e e1 d2 8c 3e 31 7f 06 3e
       0.2529765 0.2633836 0.27504638 0.13134457
000330 98 a9 b3 be b6 39 88 3e 55 8b e6 3e dc b5 47 3d
       -0.35090327 0.2660653 0.45028177 0.04875742
000340 8d c8 4e be 6d 29 7b be ab 6e b4 3d 93 c3 35 bd
       -0.20193692 -0.24527521 0.08810171 -0.044375967
000350 20 53 6e bf 7a 3f 0f bf 1b ae 2e be cd fe 98 3e
       -0.9309559 -0.5595623 -0.17058603 0.29881898
000360 7e 86 ae be 6d c6 a5 be 8b ee 84 be b1 fb 14 3f
       -0.34086984 -0.3237795 -0.25963244 0.5819655
000370 57 42 2f 3d a3 82 01 3d 33 9c 93 bf 11 62 f5 3d
       0.042787876 0.031618726 -1.1532043 0.11981595
000380 3c c5 b3 3e 81 a1 61 be 85 89 a4 bd 04 11 d1 3e
       0.35111415 -0.22034265 -0.08034042 0.40833294
000390 cb 62 58 be 57 74 ee 3e 0d e7 92 be a9 a7 d3 3e
       -0.21131437 0.46573135 -0.28691903 0.41338852
0003a0 07 6b e8 3d c6 0b 24 3f b0 c6 bd be 0c 44 23 3f
       0.11348539 0.64080465 -0.3706565 0.63775706
0003b0 dd 4f d6 bd 0f a6 1b 3e 05 f1 c0 be 15 41 ac 3d
       -0.104644515 0.15200065 -0.37683883 0.08410851
0003c0 e4 09 e2 3e ad 6c 63 be a9 d2 f2 3d 97 32 59 bf
       0.4414817 -0.22209425 0.118565865 -0.8484282
0003d0 4b eb 3f 3d 21 a5 12 3f 16 1b 1e be 14 37 89 bf
       0.046855252 0.57283217 -0.1544002 -1.0719934
0003e0 db a5 90 be ee db dc 3e e1 37 05 bf 69 fd 89 3d
       -0.28251538 0.43136543 -0.5203839 0.06737787
0003f0 74 93 38 3f b3 ad 9f 3e 33 54 fb 3e a1 f7 0c bf
       0.72099996 0.3118721 0.49087676 -0.5506535

network_body._body_endoder.seq_layers.0.bias f4 [128]
000000 1e 6f d6 3c 0e ed a3 bd 67 a6 19 3d 1a 8d 0e bd
       0.026176032 -0.08004199 0.03751221 -0.034802534
000010 2b 0f 5e bc b3 0b c0 3b 5e af fd bc 37 0b 3b bc
       -0.013553421 0.0058607697 -0.03096741 -0.011416248
000020 e1 f9 28 bd d1 68 f4 bc f3 98 5a bd 9d 0b e2 bb
       -0.041253928 -0.029835137 -0.05336852 -0.006898357
000030 db 83 20 bd ef df c8 3c 03 36 c8 3c 8f 32 30 3e
       -0.039188247 0.024520842 0.024439817 0.17206787
000040 8d a8 80 3c 46 30 a7 3b 2d a5 16 3b 67 63 09 bd
       0.015705371 0.00510219 0.0022986636 -0.033542063
000050 d4 2e ea bc f3 b8 2f bd d0 8d 27 bc 40 15 0d bc
       -0.028586783 -0.04290099 -0.010226682 -0.008611023
000060 70 75 9f 3c c0 1b 4b 3c 93 af 28 3c f8 c7 75 3d
       0.019465178 0.012396753 0.010295766 0.06000516
000070 7e 3f ae bd 89 fd 07 bd 28 74 3f bd 54 00 ba 3c
       -0.08508204 -0.033200774 -0.046741635 0.022705235
000080 b3 cd c3 3c 54 97 36 bc 2c 76 73 bd b9 57 7b 3d
       0.023901796 -0.011144478 -0.05943887 0.061362956
000090 1d a2 1e bd a8 a6 7c 3d bf f4 b5 bd e0 48 00 bd
       -0.038728822 0.061682373 -0.08884572 -0.0313195
0000a0 b9 25 5d 3c 12 71 03 bd 6c b1 08 3d a0 a1 58 bc
       0.013497763 -0.032090254 0.033372328 -0.013222128
0000b0 ee dd ca 3b 2c 2f 99 3c 4c fa 72 bd 4d cc 7a bd
       0.006191007 0.018699251 -0.059320733 -0.061229993
0000c0 13 58 83 bd ef 3a 00 3c aa b2 8c 3c 90 ea a7 bd
       -0.06413283 0.007826551 0.017175037 -0.08199036
0000d0 55 66 f7 3b c9 50 ae bd 0c e0 dc bb e8 55 a5 3c
       0.0075500407 -0.08511502 -0.0067405757 0.020182565
0000e0 43 74 a4 bd 7e 4e 71 bd ae ce 76 bc 33 eb ad bd
       -0.08029988 -0.058912747 -0.015063925 -0.08492126
0000f0 3c 60 1a bc 19 28 2e bd be 1c 90 bd f0 79 b0 bb
       -0.009422358 -0.04251871 -0.07036732 -0.00538563
000100 99 31 82 bd 20 b0 5c 3c fe bc 64 3c 5d 7f d4 bb
       -0.06357116 0.013469726 0.013961075 -0.0064849094
000110 be f2 ac bd a8 ea 81 bd f4 d1 1a 3c 9f 17 47 bc
       -0.08444737 -0.06343585 0.009449471 -0.012151628
000120 3b 78 8b 3b 1b 2a e2 3b b5 5e b9 b9 41 3e 49 3d
       0.004256276 0.006901992 -0.00035356512 0.049131636
000130 11 9d 09 3d c0 3b a8 3c ff cb 58 bd 35 92 34 bd
       0.033597056 0.020536304 -0.05292892 -0.044084746
000140 2f 08 b8 3d cc 51 d2 bc ab f3 45 3d df 54 7e 3c
       0.08985936 -0.02567377 0.048328083 0.0155231645
000150 26 c9 1d bd e7 93 3a 3b 48 a8 15 3d 68 96 3c bd
       -0.03852191 0.0028469504 0.03653744 -0.046041876
000160 9f 1f 3b bd ce 16 e7 3b 1f af 4c bd 42 bf 15 3c
       -0.045684453 0.007052279 -0.049971696 0.009139838
000170 af 74 9c bc c9 34 d0 bc 01 c8 31 3c b8 6a b4 3d
       -0.019098608 -0.025415795 0.010850907 0.088094175
000180 b1 fe b0 bc 5b 91 a4 3c e8 1b 35 bd 69 77 d5 bc
       -0.021605821 0.020088842 -0.044216067 -0.026057916
000190 3d 44 0d 3d 97 f5 12 3b f0 ca 9b bc 3c b2 a4 3c
       0.034488905 0.0022424215 -0.019017667 0.02010452
0001a0 b0 87 7c 3d 67 07 8c ba 1c 87 e4 bc 7a ca f3 bc
       0.06165284 -0.0010683358 -0.027896456 -0.029759634
0001b0 3f 6f 72 bd ba ac 24 bb b6 1a 6a 3d 4c 4e c9 bc
       -0.059188124 -0.0025127367 0.05715438 -0.024573468
0001c0 7c 75 54 3d 36 38 ab bd 3c fd ef bc 03 e6 91 bd
       0.051869854 -0.08360331 -0.029295556 -0.071239494
0001d0 84 6c 9c bd d4 61 d9 3c d9 c6 e7 bc de a9 35 ba
       -0.07637885 0.026535906 -0.02829306 -0.0006929914
0001e0 88 4e c9 3c 59 98 c3 bc 0a 27 c8 bd fc a6 d3 bb
       0.02457358 -0.023876356 -0.09773071 -0.006459115
0001f0 88 db c6 3b ce 6c fc bc 7f d1 b2 bb a8 54 b5 bc
       0.0060686506 -0.0308136 -0.005457103 -0.022135094

network_body._body_endoder.seq_layers.2.weight f4 [128, 128]
000000 85 da c6 bd f1 d3 2a 3e c9 6f bc 3c 73 d5 b7 3c
       -0.09709648 0.16682412 0.023002522 0.022440648
000010 c6 12 13 3d f0 51 91 bd d8 a8 08 be 3c 2c 52 be
       0.035906576 -0.070957065 -0.13345659 -0.20524687
000020 3d 7e eb bc ab bc d2 3c b8 8d 4f 3d 18 5b 33 b9
       -0.028746719 0.02572473 0.050672263 -0.00017104705
000030 d3 6f 0e be 7c 40 4c bd f9 53 45 bc e2 61 09 3e
       -0.13909845 -0.049866185 -0.012043946 0.13416246
000040 12 a0 15 be b4 2c 44 bd 99 1d a8 3b fa 24 22 3e
       -0.14611843 -0.047894195 0.0051304814 0.15834418
000050 19 86 2d 3d be b3 5a bd 25 cd 06 be d1 68 0e 3e
       0.042364214 -0.05339407 -0.13164194 0.13907172
000060 a9 ba 9e 3c ab 3a 04 3c cc d6 ca bd 46 e4 e0 bd
       0.019376116 0.008070628 -0.099042505 -0.1098104
000070 58 e6 a6 3c f1 86 f1 3d db 6d bb 3c 12 87 1f bd
       0.020373508 0.11793316 0.022879532 -0.038947172
000080 45 dc 16 be 63 a3 90 bc ae 40 8e 3d ac 6a e6 bc
       -0.14732464 -0.017656034 0.069459304 -0.028127037
000090 1b 01 d6 bd d1 8e a2 bd 93 3f 91 3d 69 26 86 3b
       -0.104494296 -0.07937396 0.07092204 0.0040939343
0000a0 21 51 63 3c 6c 3a 9a bd c2 29 8f bd 07 3d db bb
       0.013874323 -0.07530674 -0.069903865 -0.0066906246
0000b0 a1 ed 63 bd 79 19 c2 3d 97 22 93 bd 7a 51 cd bd
       -0.055646542 0.09477515 -0.07184332 -0.10025306
0000c0 1a 3d db 3c f4 62 27 be f5 da bc 3d c2 21 ac 3d
       0.026762534 -0.16346341 0.0922145 0.08404876
0000d0 2b 05 11 3d cd ea 37 bd c4 4b f0 bc 5e 8c b6 3c
       0.03540532 -0.044901658 -0.029333003 0.02228373
0000e0 c1 62 03 be a3 dc 89 bd 93 b7 38 be 78 cb 02 3d
       -0.1283064 -0.06731536 -0.18038778 0.031932324
0000f0 35 71 5a bd 84 e3 ff 3d 85 53 f0 3c 3b c2 a6 3b
       -0.05333062 0.12494567 0.0293367 0.005089072
000100 db 3a 0b be 21 14 fe bc 0c a5 f3 bd 10 e2 00 be
       -0.1359667 -0.031015458 -0.118967146 -0.12586236
000110 a9 8d a0 3c bc 90 22 bd 4b 76 ce bd 0f 5a 36 3d
       0.019598799 -0.03968881 -0.10081156 0.04451948
000120 ec a1 1b 3e 8d c4 d2 3c eb 2e 48 3c 36 53 39 bd
       0.15198487 0.025728488 0.012218217 -0.04524537
000130 2a 91 bf bd 46 2f 9a bc ae 49 a6 3d 87 d2 3a be
       -0.0935386 -0.01882137 0.08119522 -0.18244372
000140 af 0a d5 bd a3 af c7 3d c2 e2 69 3d fe f8 9c bd
       -0.10402428 0.09750297 0.05710102 -0.07664679
000150 b9 bb 04 3e b3 5b e7 3d 1a 31 58 bc 7d 56 f5 bd
       0.12962236 0.11296787 -0.0131953005 -0.11979387
000160 a1 0b b1 bd 66 20 de 3d d2 65 c4 bd 7e d9 21 bd
       -0.08644796 0.10846023 -0.09589733 -0.039514057
000170 e3 df d2 bc 08 55 1d 3e 4d f2 d6 3d 05 bf ae 3d
       -0.025741523 0.15364468 0.10495434 0.08532528
000180 26 0b ab bd 6b 59 d8 bd d9 48 09 be bf f3 95 3d
       -0.08351736 -0.1056393 -0.13406695 0.073218815
000190 f4 fe 31 3e 75 90 7b 3d b8 cc a9 3d 78 c3 7a 3d
       0.17382413 0.06141706 0.08291 0.06122157
0001a0 b3 23 1e bd 86 92 b8 bd 88 6e f2 3b f5 ce 1c be
       -0.038608264 -0.09012322 0.0073984303 -0.15313323
0001b0 f9 62 e7 bc 21 34 df bd c1 75 f7 bd ce 56 f7 bc
       -0.028245436 -0.10898615 -0.12083007 -0.030192759
0001c0 aa 9b d8 3d fe ce a8 3e 44 69 98 3d 89 3a 2d 3d
       0.105765656 0.32970423 0.07441953 0.04229215
0001d0 18 ce ca bc d9 e9 e9 3c b1 51 44 bd 66 58 94 ba
       -0.024756476 0.02855389 -0.04792947 -0.0011317849
0001e0 af 95 c2 3c 48 50 ec bd 48 0a f5 3d 14 42 a4 3d
       0.023753015 -0.1153875 0.119648516 0.08020416
0001f0 a2 aa 5e 3e 07 1c 25 be 68 38 03 bd c9 3f e4 3c
       0.21744779 -0.16123973 -0.032036215 0.027862446
000200 ee 7b 1d be ec 93 12 3d da 93 32 bd 75 d8 09 3d
       -0.15379307 0.0357856 -0.043598033 0.033653695
000210 ba f1 e2 bd e2 04 51 bd 4b 8e 12 be 4c 01 75 ba
       -0.11081262 -0.051030047 -0.14312093 -0.00093462016
000220 f9 b3 9b bd ba 0b d2 bb fb 3f 3b 3a 07 d4 d6 bd
       -0.076026864 -0.0064100893 0.0007143018 -0.1048966
000230 83 23 54 bd ea 30 c5 3d 84 18 b5 3d 75 36 5c be
       -0.05179168 0.0962847 0.088425666 -0.21505149
000240 82 ec 4c be f2 48 2b 3d 49 84 43 bc 22 56 fe bd
       -0.20012096 0.041817613 -0.011933395 -0.12418772
000250 c6 cc de bd 9d 68 a2 bd 32 a8 5d 3e f7 c2 00 3d
       -0.10878901 -0.0793011 0.21646193 0.031435933
000260 9e 9f 89 bd 3f f2 75 3e bb a8 44 3d 86 6b 09 3e
       -0.06719898 0.24018191 0.048012476 0.13419923
000270 be 10 bb 3d a3 8c ab 3d 5b c6 08 bd 96 f5 0c 3d
       0.09134053 0.08376434 -0.03339229 0.034413897
000280 9e ce 26 be c9 64 54 3d a2 f6 8f 3d 00 a4 13 bd
       -0.16289756 0.05185393 0.07029463 -0.036045074
000290 7e 10 77 bd 89 d4 e0 bd fa ca 7d bc 03 d9 8c 3d
       -0.060318463 -0.10978038 -0.015490288 0.06877329
0002a0 fe 68 8c bd d8 6a 31 3c bc 85 22 3a 0b 53 a7 bd
       -0.06855963 0.010828696 0.00061997375 -0.08170136
0002b0 2e dc 29 bc 5f 86 20 be 17 d2 92 3b ee c7 be 3c
       -0.010367436 -0.15676259 0.004480611 0.023288693
0002c0 dd 39 d9 3d 4f b7 39 bd 68 ab d3 3c ac d6 28 3d
       0.1060674 -0.045340832 0.025838569 0.041220352
0002d0 04 7d 64 bd 06 a9 a7 bd ab 3b 47 3d 10 cb 30 bd
       -0.055783287 -0.081865355 0.04864089 -0.043162405
0002e0 e6 c8 19 be ac 56 67 bd 95 bb 33 3d 4b ca 32 be
       -0.15018043 -0.05647914 0.043880064 -0.17459981
0002f0 81 c3 bf bd 4c 3c 0b 3e 8f cc 2b 3d 91 3b e6 3d
       -0.09363461 0.1359722 0.04194313 0.1124183
000300 67 bd af bd 85 73 d6 bd f9 63 fc bd b6 d4 b7 3d
       -0.085810475 -0.10471252 -0.12323756 0.08976118
000310 ab 8f e7 3c 6f 35 99 3c a8 12 10 be ba cc 03 bd
       0.028266748 0.018702237 -0.14069617 -0.032177664
000320 e9 ee 7a b7 c8 46 7a bd 70 1d 2c 3e f5 44 b8 bc
       -1.4956787e-05 -0.06110266 0.16808105 -0.022493819
000330 de fd 2f 3d 60 b8 fc bd e5 ef 73 3d 29 74 cf 3d
       0.042966716 -0.12339854 0.059554953 0.10129578
000340 ed 49 23 3e 96 62 26 bd 28 cc c4 bd 28 2d c8 bd
       0.15946169 -0.040621363 -0.09609252 -0.09774238
000350 0f cd ce bd 2b c4 1b bd 48 88 9d bd b0 15 eb 3d
       -0.100977056 -0.038028877 -0.07692009 0.11478746
000360 65 3c 75 3d 7b 65 c7 bd ec ba 96 3d 35 42 39 bd
       0.05987205 -0.09736153 0.07359871 -0.045229156
000370 c4 c6 a9 3c e2 b0 c5 bd ba 71 64 bc 5a 56 3c bd
       0.020724662 -0.09652878 -0.01394313 -0.04598079
000380 14 20 69 3d 21 30 9f bd 76 1d 9c 3d fd a0 91 bc
       0.056915358 -0.07772852 0.07622807 -0.01777696
000390 fe fb b9 3d 0e d0 d8 bd 76 df 24 3e 5c 67 80 bc
       0.09081267 -0.10586558 0.16100869 -0.015674286
0003a0 ce ec f6 3d 65 d8 19 3d 46 22 fe 3d 56 5d e9 bc
       0.12056886 0.037559886 0.12408881 -0.028486889
0003b0 20 e9 b5 bc 6c 39 fc bd 97 a4 9b 3d ee 59 f3 bd
       -0.02220589 -0.1231564 0.075997524 -0.11882387
0003c0 93 42 b9 3b a7 6e 0e be c0 c7 c2 3d 32 87 48 b9
       0.005653688 -0.13909398 0.095107555 -0.0001912385
0003d0 8b 44 43 be 58 60 eb bc 68 fc ab bd a1 1c ba bd
       -0.19069116 -0.028732464 -0.08397752 -0.09087492
0003e0 a1 6f 88 3c b7 37 86 3d c6 21 0a bb a7 5f dd 3c
       0.016654791 0.065535955 -0.002107726 0.02702315
0003f0 39 e7 74 bc 10 60 ba bc 51 ce 72 3e c1 64 7d 3d
       -0.014947706 -0.022750884 0.23711516 0.061863665

network_body._body_endoder.seq_layers.2.bias f4 [128]
000000 a0 50 b9 3a ef 07 9a 3c 7d df 09 bd 0b 14 b4 bc
       0.0014138408 0.018802611 -0.0336604 -0.021982213
000010 0d 20 42 bd 9c ca c9 bb a8 2c 39 bd 8e 29 56 3c
       -0.047393847 -0.006158186 -0.045208603 0.013071431
000020 02 be fc 3a a3 da e7 bb e3 ed 94 bc f4 cf cf bc
       0.0019282701 -0.007075624 -0.01817984 -0.025367714
000030 45 22 d9 bc 92 d8 23 bd 69 e5 84 bd 29 33 af bc
       -0.026505599 -0.04000146 -0.06489069 -0.0213867
000040 ff be 89 bd 5b 4c 81 bd 0a 26 37 3a fb 01 15 bd
       -0.06725883 -0.06313392 0.0006986564 -0.03637884
000050 51 12 36 bd fd 1b 62 bd 32 53 66 bc 0c d4 7b bc
       -0.04445106 -0.055202473 -0.014057921 -0.01537038
000060 48 54 9b bd 51 26 0d 3c e6 be 80 bd 07 ec 7d bd
       -0.07584435 0.008615092 -0.06286411 -0.06199267
000070 81 9a 33 bd 52 fa 0f bd a0 2c 66 bd 4f 81 48 bd
       -0.04384852 -0.035150833 -0.0561949 -0.048951443
000080 56 6e 20 bc 39 c9 d4 bc 62 2c 5b bd 5d cc db bc
       -0.009791931 -0.025974857 -0.053509124 -0.026830846
000090 d2 18 1e bd 1c 7c 86 bd 69 70 8a bd f1 e8 0d 3b
       -0.03859789 -0.06566641 -0.06759722 0.0021653736
0000a0 61 85 91 bd 4c 03 99 bd 06 5c 1d bd 64 02 38 bd
       -0.07105518 -0.07471332 -0.03841784 -0.044924155
0000b0 8b 29 2a bc 9e d6 52 bd f2 4a 93 bd 6a 62 45 bc
       -0.010385881 -0.051474206 -0.07192029 -0.0120473895
0000c0 b5 fd 7f bd a9 0f 25 bd e2 43 6b bc ca 55 58 bc
       -0.062497813 -0.040298138 -0.014359446 -0.013204047
0000d0 43 a4 23 bc a1 96 89 bd 66 65 19 bd 40 ac 98 bc
       -0.0099878935 -0.06718183 -0.037450217 -0.018636823
0000e0 22 d2 92 b9 95 ed a8 bd 49 ef 6b bc 72 97 07 bd
       -0.0002800385 -0.0824844 -0.014400312 -0.033103414
0000f0 25 0e 29 bd e4 0c 6e bd 6d f1 6d bd 7c f3 9c bd
       -0.041273255 -0.058117762 -0.05809157 -0.076636285
000100 3b bd f2 3a 8c bb a3 bc a6 6a ef b9 f4 7f 83 bd
       0.001851953 -0.01998689 -0.00045665092 -0.064208895
000110 de b4 37 bd 62 6d 66 bc 98 21 33 bd 5c dc 04 bd
       -0.044850223 -0.014064165 -0.04373321 -0.032436714
000120 2f 23 41 bd 21 4d c8 bb 28 ac 2c bc 1c d1 71 3b
       -0.047152694 -0.00611271 -0.010539092 0.003689832
000130 a5 73 7c bd 36 f0 3d bd 4c 53 71 bd 2d 8b 45 bd
       -0.061633725 -0.04637166 -0.05891733 -0.04822843
000140 d7 82 86 bd d3 b2 14 bd fc c2 f0 bb 20 7c 16 bd
       -0.065679245 -0.036303353 -0.0073474627 -0.03673947
000150 5f ef e4 bc 1e 2d 83 bd f1 72 49 3c 56 9c 56 bd
       -0.027946172 -0.0640509 0.012295471 -0.052395187
000160 fe 0d 8b bd 61 b6 ad 3b ae c2 71 bd ac 3d 58 3b
       -0.06789778 0.0053012823 -0.05902355 0.0032995744
000170 2d 4a 4d bd e1 ad 33 bd ee 0d 94 bd 79 28 57 bd
       -0.050119568 -0.043866996 -0.072292194 -0.052528832
000180 b7 a0 62 bd fe 03 3e bd d5 a9 41 bd 3d 9f 8b bd
       -0.05532905 -0.046390526 -0.047281105 -0.06817482
000190 28 48 7b 3b 65 ed e9 bc 3e 36 5d bd 54 28 ac ba
       0.003834257 -0.028555581 -0.054006808 -0.0013134577
0001a0 fb 20 89 bd da e8 49 bd 9e 2f a6 bc 10 ee 25 bd
       -0.06695744 -0.04929433 -0.020286378 -0.040510237
0001b0 60 4a 24 bd ee ca 61 bd 3b f6 83 bc 36 2f 54 bd
       -0.040109992 -0.05512517 -0.016108623 -0.051802836
0001c0 38 9e 01 bd 52 9c a0 bc 1a 59 81 bc 21 c9 87 bd
       -0.03164503 -0.01960579 -0.015789557 -0.06630159
0001d0 d0 0d db bc 06 ed 62 bd 14 07 9e bd d5 52 04 3c
       -0.026739985 -0.055401824 -0.07716194 0.008076389
0001e0 11 98 2b bd 10 da 1f bd 60 ec 26 bd dc db c6 bc
       -0.04189307 -0.03902632 -0.04075277 -0.024274759
0001f0 04 d5 5d bd 93 9b 82 bb 46 bf a4 bd d7 c4 0b bc
       -0.054158226 -0.003985831 -0.08044295 -0.008530817

action_model._continuous_distribution.log_sigma f4 [1, 2]
000000 16 0f a8 be 5a c0 bb bd
       -0.3282401 -0.091675475

action_model._continuous_distribution.mu.weight f4 [2, 128]
000000 c5 dc 9b 3b 27 59 64 3c e4 cd ed 3c f6 69 ae bb
       0.0047565424 0.013937271 0.02902884 -0.00532269
000010 34 17 b3 bb ab ae bb 3b 96 24 59 bb e4 69 31 bc
       -0.0054654125 0.005727609 -0.003313338 -0.010828469
000020 3f 1e 42 bc 64 b1 c7 3c 59 1f 4c b9 10 ad 41 3b
       -0.011848032 0.024376579 -0.00019466634 0.0029552616
000030 80 eb 18 3c 29 28 f4 3b 01 f9 a6 ba 71 cf 5e 3b
       0.009333491 0.0074510765 -0.0012739004 0.0033998156
000040 49 71 27 3b c0 ef 25 ba fc 84 f0 38 88 ff 0a bc
       0.00255497 -0.0006329976 0.00011468862 -0.008483775
000050 cb bd 23 3c 01 ec c8 3b 49 b7 31 3b ba 20 4b ba
       0.009993981 0.0061316495 0.0027117303 -0.0007748712
000060 ac 0d 1a bb 58 b9 2d 3c 68 b3 ab 37 4c cc d0 3a
       -0.0023506684 0.010603271 2.0468331e-05 0.0015930026
000070 6d cb c0 ba d7 a9 fc 3b 01 5c e8 b8 8a 29 ad 3a
       -0.0014709063 0.007710676 -0.00011079759 0.0013211232
000080 94 28 88 3c 0f 22 23 3d db 19 d1 39 6b 27 4d bb
       0.016620912 0.039827403 0.0003988285 -0.0031304013
000090 de a2 6e 3c f8 db 15 bb 27 da a2 ba f1 7f ce ba
       0.014565198 -0.0022866707 -0.0012424634 -0.0015754682
0000a0 4f 5a 4d bb 9d d6 fe b9 2e ea b7 39 bd 23 5f 3b
       -0.0031334346 -0.00048606555 0.00035078957 0.0034048401
0000b0 90 3e 68 bb fb 16 8b 3b 89 3d 81 bb 48 de 3e b7
       -0.003543768 0.004244683 -0.003944103 -1.1376636e-05
0000c0 d5 73 5e 3b 35 2c da 3b ba 5e a4 3b 29 f6 aa 3c
       0.0033943553 0.006658102 0.005016175 0.020869331
0000d0 98 19 9c bc 6d b3 52 bb ed 13 d9 3b 5c 65 b1 3b
       -0.019055173 -0.0032150403 0.00662469 0.0054136943
0000e0 11 2d 1b bb 7c 49 bb bb ae 2d 5c bb b9 c4 e9 3b
       -0.0023677985 -0.005715547 -0.0033596563 0.007134047
0000f0 51 4e 82 3c 56 fb 09 3b 58 c7 a0 3b 84 fb df ba
       0.015906485 0.002105435 0.004906576 -0.0017088507
000100 a2 eb 5d 3c fb a1 98 3b a4 77 38 3c db 6a c0 3a
       0.013544949 0.0046579815 0.011258993 0.0014680283
000110 ba 8a 41 3c 15 49 8f 3b e0 a5 e4 ba 25 e4 8b 3a
       0.01181286 0.0043727257 -0.0017444454 0.0010672851
000120 a4 db 23 3c 1d a0 97 3c 1e df 80 3d a4 6e a2 3a
       0.010001097 0.018508965 0.06292556 0.0012392593
000130 b4 6b 45 3a 94 db 0c 3c 8d a0 95 3b e0 be 93 3b
       0.00075310026 0.008597273 0.0045662583 0.004508838
000140 a5 92 9b 3b 17 7d 86 3b ab 6e a5 bc ed e6 b6 3b
       0.004747706 0.0041042673 -0.020194372 0.0055817277
000150 34 48 22 3b aa 17 de b9 0c f8 9c 3d 0b 85 03 3b
       0.0024762275 -0.0004236077 0.07664499 0.0020068313
000160 0d 4f c4 ba 19 45 80 bc d6 fd 09 3c b2 18 0f 3c
       -0.0014977172 -0.015657948 0.008422336 0.008733915
000170 94 80 2f 3c 48 39 e1 3b 81 8b 07 ba 6f d9 23 3c
       0.010711808 0.0068732835 -0.0005170629 0.010000571
000180 99 1e 10 3c 4c c5 1a bb 11 1c b7 bb 1d 8a 54 3b
       0.008796358 -0.0023616133 -0.0055880626 0.0032430955
000190 54 8d f0 b9 59 90 10 3b 46 63 8b 3b ca c3 01 3b
       -0.00045881665 0.0022058694 0.0042537777 0.0019800537
0001a0 03 ac f3 b9 86 71 dc b9 4b aa 1c 3b 81 ad 08 3c
       -0.0004647673 -0.00042046251 0.0023905213 0.008342148
0001b0 b1 08 48 bc bf d9 bc bb d4 41 98 3b 7b 8d 54 3c
       -0.012209103 -0.005763262 0.004646519 0.012973185
0001c0 49 f8 a1 3b 72 3a 92 bb b5 1c 36 bb 8c 1c b2 ba
       0.004942928 -0.0044625336 -0.0027788107 -0.001358883
0001d0 a2 00 e7 bb 43 c8 20 3b 72 b9 07 ba ea 51 fb 3c
       -0.007049636 0.0024533428 -0.0005177475 0.030678708
0001e0 80 d3 44 3a ea 02 73 3b f3 a4 8b 3c ae 14 61 3c
       0.00075083226 0.0037080594 0.017046427 0.013737841
0001f0 a4 a0 2c 3b df 16 46 3c 8e 72 85 ba 33 18 f1 bc
       0.0026340866 0.012090414 -0.0010181235 -0.029430484
000200 52 0f 03 3c 93 c9 92 bd 31 ab 9d 3b 5e cb 6c 3c
       0.007999258 -0.071673535 0.0048116674 0.014452783
000210 c9 fa 0b 3d 99 43 63 bb 72 c2 64 bc b0 1d b4 3d
       0.034174714 -0.0034677743 -0.013962375 0.08794725
000220 15 69 8d 3d 3f 65 2d bd 98 68 16 3d 4d e4 0a 3b
       0.069048084 -0.042332884 0.036720842 0.0021193207
000230 8b 60 aa bb 2b f3 22 3d 19 74 c6 3a 20 21 18 bb
       -0.005199497 0.039782684 0.0015140801 -0.0023213103
000240 b7 4c 27 3c dc 36 07 bb 60 81 92 3c 66 88 40 3d
       0.010211161 -0.0020632064 0.017883956 0.04700508
000250 65 a8 cb 3c 0e db df 3c b7 cc 70 ba e8 85 5b 3d
       0.02486057 0.027326133 -0.00091857783 0.0535945
000260 64 82 3d 3b cd f6 82 3d af 83 6b 3b 1d ab b9 3b
       0.002891683 0.0639473 0.0035936644 0.0056661502
000270 2c 60 d2 3c 71 8c fe 3c e7 94 d0 3c 7e 46 cf 3c
       0.025680624 0.031072827 0.025461627 0.025302168
000280 0a 29 db 3c 1a 0c e2 b9 1e 1a c7 3c 02 df 2d 3d
       0.026752967 -0.00043115095 0.024304446 0.042449005
000290 f8 43 0e 3d 7d 31 83 3c 56 8c 21 3c ef a4 84 3c
       0.03473279 0.016014809 0.009860119 0.016191928
0002a0 dd 2d 65 3a ae c6 f6 bb 98 25 02 3d 13 97 0c 3d
       0.0008742491 -0.0075310087 0.031774133 0.034323763
0002b0 64 b7 3c 3b 66 9e cd 3c b8 c7 87 bb 6d a4 e1 3c
       0.0028795833 0.025099944 -0.0041436814 0.027544225
0002c0 51 8c e5 3a db 6e 32 3d 38 42 94 3d 0b 77 0f 3d
       0.0017513131 0.04356275 0.07239193 0.035025638
0002d0 90 f9 a8 3c 76 a4 21 bc 57 43 1d 3d 65 a8 e8 3c
       0.020626813 -0.009865871 0.0383943 0.02840061
0002e0 5d 37 95 b9 07 b0 35 3b 1f 4d 79 3d b0 1e ec 3a
       -0.00028460743 0.0027723329 0.060864564 0.0018014517
0002f0 40 fe 0d 3d 5c e2 98 38 1a b1 e4 bb 0a 13 f3 3b
       0.0346663 7.2900875e-05 -0.00697912 0.007418041
000300 29 a2 a6 bd e0 81 82 3d 91 d9 2b 3c b4 6b dc ba
       -0.08136398 0.06372428 0.010488884 -0.0016816766
000310 5e 7b 4b 3a e9 f8 68 3d 32 98 11 3c 94 7d 55 3d
       0.00077622186 0.056878004 0.008886384 0.052121714
000320 41 c4 d5 3b 57 93 89 3c 36 b8 c1 3b e4 a1 23 3d
       0.0065236394 0.01679389 0.0059118522 0.039949313
000330 d3 a3 88 3b 87 c4 e3 3b 08 fc 2e 3a f1 19 c3 3c
       0.00416992 0.006950918 0.0006675129 0.02381608
000340 5f 82 91 3b e8 84 4d 3d 4f 73 19 bb b0 58 8a 3c
       0.0044405903 0.050175577 -0.0023414677 0.016887993
000350 f6 70 64 3b 0b f0 2b 3c 28 a4 a9 3c b3 c9 7e 3c
       0.003485737 0.010494242 0.020708159 0.0155510185
000360 de a1 3e 3c df 40 84 3d 23 0e 81 3c 34 92 b7 3b
       0.011635272 0.06457686 0.015753811 0.0056021456
000370 97 60 9f 3c ec 2c 07 3d d3 2e 8a ba ca c6 8d 3c
       0.019455237 0.033001825 -0.0010542519 0.017306704
000380 ad 38 21 3c e2 cb 96 3a 29 3a 01 3d 96 a0 48 3c
       0.009840173 0.0011504854 0.031549606 0.012245318
000390 ae 3f 6f 3b 0b 72 d5 3c f9 c2 cd 3c 7e ca d8 3a
       0.0036506462 0.026055356 0.025117384 0.001653984
0003a0 49 d6 4d 3b 62 8d c8 bc 26 50 2f 3d 91 38 84 3c
       0.0031408241 -0.02448148 0.042801045 0.016140254
0003b0 83 3e 01 3d 52 cf 85 3c d9 fd 50 3d 5b 7f ea 3b
       0.031553756 0.01633421 0.051023338 0.0071562952
0003c0 d6 6e 10 3d d8 08 97 3c 3f 1c 69 39 2e 28 71 3b
       0.03526195 0.018436834 0.00022231134 0.003679763
0003d0 9e 2b 48 3d 3b 8c 52 3c a9 f3 df 39 6c 48 e1 3c
       0.04886972 0.012850816 0.00042715415 0.027500354
0003e0 1c 6d ca 3c 51 3b 25 3c 59 1c 29 3c 98 c2 f8 3b
       0.02471023 0.010084943 0.0103217 0.0075915568
0003f0 e1 d8 bb 3c 7e 99 8e 3c f1 61 23 3c 75 7c 1e 3b
       0.022930564 0.017407175 0.0099720815 0.002418307

action_model._continuous_distribution.mu.bias f4 [2]
000000 ed 5e b3 bc 0b 42 a9 bc
       -0.02189585 -0.020661375
