MachineLearning/results/Test3/MoveTOGoal/MoveTOGoal-10282.pt (torch, 441756 bytes, 36 tensors)

network_body._body_endoder.seq_layers.0.weight f4 [128, 6]
0.6185103 0.38159996 -0.4451021 0.2569497 0.2767082 0.19904722 0.44872648 -0.08477534
-0.53439295 0.03417406 0.43115318 -0.30890372 0.046068814 -0.72855514 -0.046139125 0.055013645
-0.124509126 -0.09276687 0.19290274 0.50549924 0.7752449 0.37992972 0.36634648 0.40153182
-0.3470151 0.55091685 -0.25304186 -0.21391135 0.30310845 -0.8301214 -0.89187634 0.03874381
0.9033082 0.5356127 -0.18821286 0.25084096 0.2288701 -0.17540935 0.45043585 -0.012821791
-0.14538902 0.1392149 -0.18382959 0.05235426 0.33461887 -0.20948839 -0.4963467 -0.29335618
-0.5302735 0.36948112 0.35232744 -0.09143638 -0.13290566 0.38999814 0.25371906 0.5837408
0.46580318 -0.3559003 0.34970713 -0.61850125 -0.24450871 0.6059811 -0.66532725 0.56844276
-0.16712458 0.22744215 0.09306823 -0.9890359 0.8323104 0.92208415 0.47206053 -0.20748045
0.9038514 0.078688405 0.6524966 -0.070783176 -0.29626513 -0.07384417 0.33884263 0.15088256
0.4543616 -0.93610877 -0.5838144 0.19904087 -0.26817212 -0.082395375 -0.09921527 0.06434198
-0.11450329 0.26130882 0.027982961 -0.68232083 0.12827785 -0.40427798 -0.07381319 -0.24247073
1.1919606 0.28520042 0.1289331 -0.015492412 0.13014503 -0.055817608 -0.5914262 -0.22438507
0.092247866 0.10697425 0.0043291557 -0.23396483 -0.62551165 -0.07838512 0.21650161 -0.1322407
-0.30171534 1.0025212 -0.11714144 0.62897944 -0.28334928 -0.18093863 -0.5236979 -0.2514812
-0.35287222 -0.41376317 1.0190797 0.22464576 0.36447483 -0.44725573 -0.19730307 0.71929026
-0.24145243 0.82690555 -0.3239372 0.13555302 -0.093991265 -0.14067426 0.32566148 0.34411627
0.93449974 0.063820876 -0.2788313 0.3864426 -0.49374506 0.27218643 0.65007734 -0.26481062
-0.20689906 -0.2348688 0.09864205 0.20227887 -0.42455116 -0.48775646 -0.22432327 0.29134402
0.3906645 0.0059513445 -0.35990614 0.010273971 0.26855043 0.14801227 -0.70992196 -0.07634875
-0.12636651 -0.12675975 -0.25758454 0.47008666 -0.008706589 -0.11392037 0.28003994 0.29239103
-0.185917 -0.039742608 -0.15223762 0.61607164 -0.37193158 0.09943305 -0.45856777 0.5175584
0.67539686 -0.4393349 -0.4401859 0.43391597 -0.21765105 0.20734812 0.039614145 -0.16242893
-0.5721017 -0.12072529 0.16639213 0.03499572 -0.73776793 -0.6107582 0.17325932 0.085283756
-0.56276447 -0.29585895 0.6425338 0.5159939 0.3021128 -0.060060807 -0.4631273 -0.4175811
0.5380578 -0.57005334 0.22859234 0.77853686 -0.6430499 0.12275449 -0.029620338 0.858024
-0.2945469 0.3145011 0.5946284 -0.1325329 -0.64543253 0.19713253 -0.28878146 -0.059999775
0.5208963 -0.40866283 0.095781244 -0.5804944 -0.17725846 -0.3809195 -0.6022742 0.102368794
0.18364707 0.23534985 0.30327678 0.26286256 -0.094199456 -0.28058234 -0.44904757 -0.18421212
-0.14423376 0.80775875 0.005114389 -0.4336146 0.42579535 0.05518195 -0.74495935 -0.33642232
-0.016609503 0.606417 -0.15456535 0.3839667 -0.29163212 -0.22469996 -0.11415712 -0.32406023
0.32393658 -0.25820136 0.2308514 -0.2061482 -0.43774757 0.18607903 0.015547345 0.19985442
00000000: b156 1e3f 1261 c33e 6ce4 e3be e98e 833e
00000010: b2ac 8d3e 09d3 4b3e 7abf e53e b29e adbd
00000020: facd 08bf 19fa 0b3d 1cc0 dc3e a128 9ebe
00000030: a7b2 3c3d 9782 3abf 61fc 3cbd fd55 613d
00000040: a4fe febd 8ffc bdbd 4c88 453e 6668 013f
00000050: 7376 463f 2686 c23e c491 bb3e 9495 cd3e
00000060: f7ab b1be e308 0d3f b48e 81be 940b 5bbe
00000070: 0831 9b3e d682 54bf 0252 64bf d4b1 1e3d
00000080: 353f 673f ea1d 093f dfba 40be 3a6e 803e
00000090: ec5c 6a3e 829e 33be 879f e63e 7d12 52bc
000000a0: dce0 14be 5a8e 0e3e d33d 3cbe 6c71 563d
000000b0: 2a53 ab3e 2084 56be 2821 febe c832 96be
000000c0: 01c0 07bf a12c bd3e 4364 b43e ff42 bbbd
000000d0: 6c18 08be d6ad c73e 77e7 813e 0970 153f
000000e0: c17d ee3e 9038 b6be d00c b33e 1956 1ebf
000000f0: 7e60 7abe 9421 1b3f e352 2abf 7785 113f
00000100: b522 2bbe 98e6 683e 8e9a be3d 7531 7dbf
00000110: 4b12 553f b50d 6c3f ebb1 f13e c175 54be
00000120: ce62 673f 6327 a13d 040a 273f c5f6 90bd
00000130: 10b0 97be 9d3b 97bd c87c ad3e f580 1a3e
00000140: 15a2 e83e d3a4 6fbf dc74 15bf 5fd1 4b3e
00000150: db4d 89be e8be a8bd 6031 cbbd bac5 833d
00000160: b380 eabd 45ca 853e 863c e53c 94ac 2ebf
00000170: 455b 033e 86fd cebe 5f2b 97bd 3f4a 78be
00000180: 2a92 983f ca05 923e 0a07 043e e3d3 7dbc
00000190: bd44 053e 01a1 64bd b567 17bf 33c5 65be
000001a0: 73ec bc3d 5115 db3d 97db 8d3b 7a94 6fbe
000001b0: 8821 20bf 6188 a0bd 99b2 5d3e 1b6a 07be
000001c0: 6f7a 9abe 9d52 803f dae7 efbd cc04 213f
000001d0: 2813 91be fa47 39be 1111 06bf 25c2 80be
000001e0: abab b4be c4d8 d3be 3471 823f 8a09 663e
000001f0: 729c ba3e b4fe e4be d109 4abe 6823 383f
00000200: 4e3f 77be 15b0 533f 19db a5be 69ce 0a3e
00000210: 7e7e c0bd ea0c 10be 1abd a63e 0230 b03e
00000220: 603b 6f3f 85b4 823d fac2 8ebe cedb c53e
00000230: 27cc fcbe 055c 8b3e 786b 263f 4295 87be
00000240: 59dd 53be 7281 70be d804 ca3d 3122 4f3e
00000250: c55e d9be 37bb f9be 00b5 65be 0b2b 953e
00000260: 2d05 c83e 7f03 c33b 9e45 b8be 2854 283c
00000270: 717f 893e 8790 173e 72bd 35bf bc5c 9cbd
00000280: 3966 01be 4fcd 01be 1fe2 83be 33af f03e
00000290: 15a6 0ebc 154f e9bd 6561 8f3e 47b4 953e
000002a0: 0761 3ebe 25c9 22bd 2ee4 1bbe dfb6 1d3f
000002b0: d16d bebe 8ea3 cb3d 65c9 eabe b57e 043f
000002c0: cfe6 2c3f 81f0 e0be 0c60 e1be 3c2a de3e
000002d0: ebdf 5ebe 1153 543e 7142 223d c553 26be
000002e0: 4275 12bf d23e f7bd b362 2a3e ac57 0f3d
000002f0: 5cde 3cbf a65a 1cbf e46a 313e 40a9 ae3d
00000300: 5511 10bf d37a 97be 187d 243f 2d18 043f
00000310: 87ae 9a3e 5202 76bd 051f edbe 31cd d5be
00000320: 28be 093f 04ef 11bf 1c14 6a3e 314e 473f
00000330: eb9e 24bf b566 fb3d 5aa6 f2bc 76a7 5b3f
00000340: dace 96be 4a06 a13e 9139 183f b4b6 07be
00000350: 113b 25bf 1cdd 493e 2adb 93be 53c2 75bd
00000360: 7659 053f 413c d1be f528 c43d 489b 14bf
00000370: 3e83 35be e107 c3be a42e 1abf bba6 d13d
00000380: fa0d 3c3e 8dff 703e 1847 9b3e ec95 863e
00000390: a5eb c0bd 7da8 8fbe 90e9 e5be 1aa2 3cbe
000003a0: 04b2 13be 47c9 4e3f 9b96 a73b bc02 debe
000003b0: d901 da3e 7806 623d a8b5 3ebf 8c3f acbe
000003c0: a710 88bc 253e 1b3f 6146 1ebe 4997 c43e
000003d0: ce50 95be bf17 66be 35cb e9bd 39eb a5be
000003e0: 04db a53e f832 84be 4f64 6c3e 8418 53be
000003f0: 7320 e0be 808b 3e3e 4bba 7e3c a3a6 4c3e

network_body._body_endoder.seq_layers.0.bias f4 [128]
0.00020654382 -0.00048798497 -0.00011272883 0.0012172316 0.0005464874 0.00081907446 0.0010883664 0.0012431738
0.00025815063 -0.0029951471 -0.0006991945 -0.003691715 -0.0032288537 -0.0023005826 0.00029287985 0.0007625497
-0.0068456773 -0.0021017587 0.00026321245 0.0002989623 0.003989172 -0.00049084733 -0.003191764 -0.0002500783
-0.00041886666 -0.0011621278 -0.00014287207 -0.00059592846 6.58727e-05 0.0015770593 -0.0010593607 2.548966e-05
-0.00049666513 0.00023749212 -0.00024302707 -0.000105794235 0.00074935757 -8.5626976e-05 -0.00024483175 0.0012867068
-0.00034798204 0.0004806836 -0.00054618804 0.0056328773 0.004009018 0.0010072441 -0.0008505561 -1.3565691e-05
-0.002885038 0.0016018571 -0.00049679424 0.0021122238 -0.0009433364 0.0012521934 -0.00070528494 -0.000804951
0.00015888877 0.002603068 0.00671937 -0.00028748927 -0.001295328 0.0005151913 -0.0026468465 -0.0005798478
-0.0008217629 -0.000103001395 -0.00015065397 -0.001350839 -0.0010247276 -0.0016718836 0.00025555334 0.0001117289
-0.0071884743 0.0006366718 -7.325454e-05 0.0014793812 -0.00043550195 -0.00058431516 -0.0017199637 4.430745e-05
-0.00071342476 0.00044865347 -0.00039839346 0.003055829 0.0013443908 -0.00076330017 0.00052113406 -0.00044035204
0.0014680173 -0.0002535423 -0.0009865945 0.0012125752 0.0006769274 0.006942108 0.00064312894 -0.0006472858
-0.0002987924 0.0016160316 0.00018723261 3.8947375e-05 -0.0005434453 0.00036591289 0.0007840441 -0.0001665522
-0.00037785585 -0.0006524274 0.00034959507 -0.0006729169 -0.0013523436 -0.002013958 -0.00015532105 -0.006016498
-0.00057214504 -0.0034140437 -0.0006311025 0.0008277497 -0.000114603245 -2.0611453e-05 0.00033930998 -0.0012402269
-0.002662112 -7.474786e-05 -0.0002010141 -0.0010813773 0.004317996 0.002263312 0.0008865532 0.0002903799
00000000: af93 5839 3cd8 ffb9 d468 ecb8 848b 9f3a
00000010: 2642 0f3a 28b7 563a 84a7 8e3a fef1 a23a
00000020: 6458 8739 3b4a 44bb 264a 37ba b3f0 71bb
00000030: 2d9b 53bb 5fc5 16bb ab8d 9939 d8e5 473a
00000040: b451 e0bb a9bd 09bb c7ff 8939 0abe 9c39
00000050: 9ab7 823b 35ac 00ba ea2c 51bb f11c 83b9
00000060: 559b dbb9 8a52 98ba eecf 15b9 1538 1cba
00000070: 2325 8a38 54b5 ce3a 3fda 8aba a1d2 d537
00000080: a232 02ba 4e07 7939 15d5 7eb9 d9dd ddb8
00000090: 8970 443a a292 b3b8 c35c 80b9 b7a6 a83a
000000a0: 5c71 b6b9 4304 fc39 0f2e 0fba 0094 b83b
000000b0: 155e 833b 8105 843a dbf7 5eba 3398 63b7
000000c0: e812 3dbb 68f5 d13a 4c3b 02ba 3c6d 0a3b
000000d0: 3c4a 77ba a320 a43a dfe2 38ba 5903 53ba
000000e0: 619b 2639 3c98 2a3b 292e dc3b 28ba 96b9
000000f0: ffc7 a9ba e70d 073a b776 2dbb ed00 18ba
00000100: 936b 57ba 7402 d8b8 def8 1db9 a30e b1ba
00000110: 2750 86ba 1b23 dbba cafb 8539 ff4f ea38
00000120: 4b8d ebbb 52e6 263a 3ba0 99b8 cce7 c13a
00000130: 1554 e4b9 ba2c 19ba 6870 e1ba c3d6 3938
00000140: 2005 3bba 4039 eb39 77df d0b9 4e44 483b
00000150: 4536 b03a 3518 48ba b79c 083a 0ddf e6b9
00000160: 7d6a c03a dfed 84b9 9e50 81ba 46ef 9e3a
00000170: d473 313a 9f7a e33b a797 283a 9dae 29ba
00000180: 3da7 9cb9 06d1 d33a df53 4439 6d5b 2338
00000190: ff75 0eba ffd7 bf39 4f88 4d3a 84a4 2eb9
000001a0: f41a c6b9 a907 2bba db49 b739 b066 30ba
000001b0: 1f41 b1ba 9cfc 03bb addd 22b9 0b26 c5bb
000001c0: 01fc 15ba 26be 5fbb 9270 25ba 58fd 583a
000001d0: 2657 f0b8 c2e6 acb7 6ae5 b139 1c8f a2ba
000001e0: d476 2ebb f4c1 9cb8 50c7 52b9 00bd 8dba
000001f0: fa7d 8d3b 1354 143b 9467 683a 213e 9839

network_body._body_endoder.seq_layers.2.weight f4 [128, 128]
0.03470497 0.1476069 0.05162168 0.06737842 -0.012204552 -0.03676569 -0.08676979 0.033344038
-0.09416823 -0.1181204 0.1503172 0.08712684 0.1507039 -0.003819221 -0.021853374 0.0011452012
-0.13820486 0.11871534 0.1906087 -0.090238824 -0.08933185 0.007818628 0.017010696 -0.03644539
0.057752393 0.072869964 0.012077287 0.15378931 -0.13400581 0.002220591 -0.12075837 -0.13440228
-0.01756007 0.012994686 0.22355962 -0.1699485 0.076615706 -0.03167731 -0.060728546 -0.0811871
0.03553711 0.122091055 -0.0038250815 -0.08032965 -0.0159438 -0.030598832 -0.10297456 0.002866866
-0.038944658 -0.053878594 0.054767825 0.030338366 -0.09698755 0.061978646 -0.11561656 0.15384169
-0.0563057 -0.082560435 -0.058970205 -0.009552192 0.0022644927 0.12116634 0.055521596 0.07466695
-0.03327771 -0.020498315 0.019573072 0.06677277 -0.009809914 -0.16494797 -0.09203906 0.1271899
0.041663304 0.031206446 0.0128958 0.05847588 0.07698793 0.08825351 -0.0764276 -0.0074813776
-0.059332427 -0.12218427 -0.05576583 0.018642072 0.09612453 0.01854319 0.2006806 0.030104171
-0.115139484 0.0073453677 -0.053238273 -0.008023695 0.15124835 -0.08886379 0.08243849 0.044176877
-0.101558045 0.0378396 -0.0607654 0.04647141 0.10154629 0.009794335 -0.04354432 -0.06251807
-0.008193566 -0.028798064 -0.07683742 0.014881813 -0.0706622 -0.19496237 0.03060403 0.028750531
0.010938218 -0.22608519 0.015496322 -0.017877 0.038204867 0.11743786 0.042983238 0.07542284
-0.09574158 -0.007922853 0.11575844 0.098967224 0.040287603 -0.015246531 0.079679966 -0.113049984
0.056180812 -0.10040216 -0.16575126 0.08341127 0.0050092936 -0.12771754 -0.22409637 -0.009699018
0.050282415 -0.091645464 -0.005491606 -0.062924094 -0.24767879 0.17583714 -0.025959816 -0.11756613
-0.087977074 -0.043950822 -0.06354871 -0.022291232 0.14574024 -0.004141036 0.008769451 0.07204109
0.06415282 0.05940991 0.054115456 0.00613018 -0.07757387 0.05050575 0.03428398 -0.0030754677
0.0030742225 -0.0069854683 -0.034900617 -0.16538557 -0.012612046 0.05552227 0.06405223 0.113363035
-0.0211806 -0.03870021 -0.14295258 -0.013661088 0.19869927 0.07820746 -0.00073624135 0.021153605
0.006101861 -0.0013117878 0.08842119 0.0497418 0.0054980484 0.034293324 -0.008286293 -0.088307515
0.10773429 0.037654676 0.17713095 0.2099285 -0.026428463 0.0443606 0.12707762 -0.016531501
-0.09666331 0.021633238 0.1437154 0.09933885 -0.10312791 0.098604344 -0.10747901 -0.0052155373
-0.085540816 -0.046892207 0.12859471 -0.057056747 -0.08092279 -0.34948552 -0.020444639 0.05486629
-0.123124585 0.021939516 0.024567531 0.10528509 0.11049151 0.019289853 0.14756422 -0.011686184
-0.12886071 0.009351755 -0.096523985 -0.06805915 0.15515327 -0.03420764 0.2003159 0.18312693
-0.016054515 0.13063946 0.004505259 0.02405442 0.005073049 -0.028182326 -0.028996639 -0.09900806
0.098423794 -0.04132204 0.012430764 -0.10525531 0.055889577 0.1467705 0.0016139443 0.13274443
-0.15962559 0.15417203 -0.11345076 -0.26426902 0.048437644 0.024254708 -0.013722394 -0.06585669
0.045052465 0.023353698 0.021633448 0.029998261 0.14478086 0.17720112 -0.06698984 0.19084325
00000000: cc26 0e3d 4326 173e 4171 533d b2fd 893d
00000010: 9af5 47bc 9f97 16bd 5cb4 b1bd c293 083d
00000020: 46db c0bd 1ce9 f1bd c1ec 193e 8f6f b23d
00000030: 2052 1a3e e54b 7abb d905 b3bc 931a 963a
00000040: 9385 0dbe 0721 f33d ed2e 433e 22cf b8bd
00000050: 9ef3 b6bd b419 003c 045a 8b3c c347 15bd
00000060: c68d 6c3d d93c 953d d0df 453c f27a 1d3e
00000070: d238 09be 5687 113b 2a50 f7bd c0a0 09be
00000080: 23da 8fbc aae7 543c d0ec 643e fb06 2ebe
00000090: b2e8 9c3d 11c0 01bd 7fbe 78bd 6c45 a6bd
000000a0: 5c8f 113d e00a fa3d 38ae 7abb df83 a4bd
000000b0: 929c 82bc 67aa fabc 53e4 d2bd 08e2 3b3b
000000c0: 6f84 1fbd cdaf 5cbd 3a54 603d 2a88 f83c
000000d0: 69a1 c6bd 52dd 7d3d 60c8 ecbd ad88 1d3e
000000e0: cea0 66bd 7215 a9bd be8a 71bd cc80 1cbc
000000f0: e267 143b 0f26 f83d 9d6a 633d fcea 983d
00000100: 354e 08bd 15ec a7bc b557 a03c 29c0 883d
00000110: c3b9 20bc 1fe8 28be fa7e bcbd 123e 023e
00000120: 24a7 2a3d a9a4 ff3c e848 533c 6884 6f3d
00000130: d9ab 9d3d 42be b43d 1386 9cbd 5826 f5bb
00000140: 8f06 73bd bf3b fabd b66a 64bd 42b7 983c
00000150: f0dc c43d e3e7 973c 377f 4d3e 069d f63c
00000160: 40ce ebbd 69b1 f03b 6010 5abd d175 03bc
00000170: d9e0 1a3e 38fe b5bd 83d5 a83d d0f2 343d
00000180: aafd cfbd b2fd 1a3d 24e5 78bd ce58 3e3d
00000190: 80f7 cf3d 6b78 203c 875b 32bd 7909 80bd
000001a0: 4f3e 06bc ebe9 ebbc f05c 9dbd d9d2 733c
000001b0: 58b7 90bd 37a4 47be 4db5 fa3c 3c86 eb3c
000001c0: 3636 333c e082 67be 49e4 7d3c c972 92bc
000001d0: b57c 1c3d 4383 f03d 310f 303d 4a77 9a3d
000001e0: 2914 c4bd dbce 01bc c312 ed3d 54af ca3d
000001f0: 9d04 253d 96cc 79bc 402f a33d c086 e7bd
00000200: da1d 663d a69f cdbd b3ba 29be 87d3 aa3d
00000210: 0025 a43b 63c8 02be 8579 65be a1e8 1ebc
00000220: eff4 4d3d 9eb0 bbbd eef2 b3bb 59de 80bd
00000230: 829f 7dbe a70e 343e aea9 d4bc 83c6 f0bd
00000240: 532d b4bd c705 34bd d325 82bd 1a9c b6bc
00000250: ee3c 153e 87b1 87bb bead 0f3c 478a 933d
00000260: 8e62 833d ce57 733d 2ba8 5d3d addf c83b
00000270: 0ddf 9ebd 1edf 4e3d 5c6d 0c3d c98d 49bb
00000280: e578 493b 5be6 e4bb f3f3 0ebd d65a 29be
00000290: c1a2 4ebc 526b 633d d12d 833d e12a e83d
000002a0: f082 adbc 1d84 1ebd 2962 12be c2d2 5fbc
000002b0: d277 4b3e 3c2b a03d 5200 41ba 534a ad3c
000002c0: 1ff2 c73b 4bf0 abba 2b16 b53d 0fbe 4b3d
000002d0: f928 b43b 2877 0c3d 3bc3 07bc 92da b4bd
000002e0: cca3 dc3d ca3b 1a3d d161 353e 7ff7 563e
000002f0: 8180 d8bc 76b3 353d a320 023e 126d 87bc
00000300: 6af7 c5bd 3038 b13c 212a 133e 2b72 cb3d
00000310: ba34 d3bd 13f1 c93d f51d dcbd 19e7 aabb
00000320: 0630 afbd 0b12 40bd 55ae 033e 56b4 69bd
00000330: d9ba a5bd c4ef b2be 847b a7bc 7abb 603d
00000340: be28 fcbd 80ba b33c d941 c93c b69f d73d
00000350: 5f49 e23d c105 9e3c 131b 173e 6977 3fbc
00000360: 10f4 03be 1a38 193c 5eae c5bd 9862 8bbd
00000370: 80e0 1e3e 4f1d 0cbd 9c1f 4d3e a085 3b3e
00000380: c284 83bc 5ac6 053e daa0 933b c60d c53c
00000390: d23b a63b 9fde e6bc 5c8a edbc bdc4 cabd
000003a0: 6a92 c93d 4d41 29bd 67aa 4b3c 1990 d7bd
000003b0: 78ec 643d 024b 163e fc8a d33a 28ee 073e
000003c0: e474 23be 46df 1d3e df58 e8bd 454e 87be
000003d0: 8d66 463d cfb1 c63c e4d3 60bc dfdf 86bd
000003e0: ef88 383d 4150 bf3c a138 b13c eabe f53c
000003f0: 6f41 143e 3674 353e f831 89bd 6a6c 433e

network_body._body_endoder.seq_layers.2.bias f4 [128]
-0.00016941028 4.789234e-05 0.00033732332 0.00015835903 0.0002721791 -1.0033749e-05 0.00037184352 -0.00019283043
4.107464e-05 -0.00061629666 6.924758e-05 0.00016023565 -0.00037691763 -8.67386e-05 0.0006640243 -0.0011623428
-0.002086296 0.00017756436 0.0025572784 -0.00011695347 -0.0018063742 2.7654414e-05 -0.00012628819 0.0002877178
0.004611357 -0.00056656275 -0.00014431422 -5.7781384e-05 -0.003336787 8.459629e-05 4.627399e-05 -0.0001209587
0.0007140961 -0.00014589555 -0.0020489404 0.0012163385 -0.0005892157 -0.00021508068 0.00013649011 -1.6846561e-05
0.0011185327 0.00028088168 -8.731028e-05 0.00047834244 0.0041183596 3.7800313e-05 -0.0005694015 0.00022641802
-0.00012303182 0.0004562172 -0.00027548242 -0.0005643738 0.0012715051 -0.00027966473 -0.00075975485 -6.996061e-05
-0.00067562744 -0.00018338741 0.001825978 0.0032891987 -0.00015732128 -0.00047646623 -2.9022483e-05 -0.00024156591
-6.1454084e-05 -0.00027018602 -0.0008158547 0.0010796126 0.00044957755 -6.2252555e-05 0.006276604 0.0008537819
-0.00089862663 0.00015334756 -0.000790343 -0.00025903684 -0.000683827 0.00021064383 0.0003978682 0.00030344297
-0.0006260283 -9.1421156e-05 -0.0019783566 -0.0014638271 -0.00037381527 -0.0009535756 -0.00026146544 -0.000931576
-0.0013230215 8.0632446e-05 -0.00014688188 0.00013488706 -0.00071149593 -0.0020719976 0.00015870685 -0.00025019262
-0.0002508738 -1.404497e-05 0.00045095375 -0.0003644439 -6.23919e-05 -0.0015605917 -0.00053220376 0.0012440191
-0.00066390133 -0.00043447706 -0.00027988796 -0.00017098061 -1.4890151e-05 -6.8351495e-05 -0.00011726244 -0.00057482265
-0.00021392804 -0.0011030945 -0.00021614322 -0.00012452382 -0.00025692512 0.00041277512 0.00054678594 0.0030973116
0.00040868006 0.0006734026 -0.0005085981 -0.0016925153 0.00011540093 -0.0005903973 -0.0014322216 -0.0007856082
00000000: baa3 31b9 02e0 4838 c5da b039 2e0d 2639
00000010: 43b3 8e39 a056 28b7 fef3 c239 8632 4ab9
00000020: 8f47 2c38 f88e 21ba 0339 9138 ee04 2839
00000030: 079d c5b9 6ee7 b5b8 eb11 2e3a c159 98ba
00000040: 3dba 08bb 9230 3a39 0398 273b eb44 f5b8
00000050: dcc3 ecba 67fb e737 3a6c 04b9 d4d8 9639
00000060: de1a 973b 6285 14ba 0e53 17b9 4a5a 72b8
00000070: ffad 5abb 4a69 b138 5216 4238 35ab fdb8
00000080: 2e32 3b3a 8afb 18b9 8447 06bb 8c6d 9f3a
00000090: 9975 1aba 4887 61b9 c91e 0f39 b751 8db7
000000a0: bb9b 923a 4d43 9339 5a1a b7b8 09ca fa39
000000b0: 4ef3 863b c78b 1e38 e343 15ba a06a 6d39
000000c0: 1a02 01b9 7030 ef39 a06e 90b9 7cf2 13ba
000000d0: a2a8 a63a f79f 92b9 492a 47ba d1b7 92b8
000000e0: 971c 31ba af4b 40b9 a855 ef3a 998f 573b
000000f0: 9cf6 24b9 37ce f9b9 4f75 f3b7 db4c 7db9
00000100: e9e0 80b8 c1a7 8db9 15df 55ba ca81 8d3a
00000110: 47b5 eb39 968d 82b8 f8ab cd3b 55d0 5f3a
00000120: d091 6bba eccb 2039 052f 4fba 56cf 87b9
00000130: da42 33ba 46e0 5c39 f798 d039 6d17 9f39
00000140: 0c1c 24ba 5cb9 bfb8 51a7 01bb e3dd bfba
00000150: a3fc c3b9 60f9 79ba 4c15 89b9 0235 74ba
00000160: 3c69 adba 3719 a938 4e04 1ab9 7870 0d39
00000170: af83 3aba 5aca 07bb 8c6a 2639 492c 83b9
00000180: b687 83b9 b0a2 6bb7 fd6d ec39 d512 bfb9
00000190: 65d8 82b8 c58c ccba 9783 0bba 5b0e a33a
000001a0: aa09 2eba 86ca e3b9 edbd 92b9 4249 33b9
000001b0: b6d0 79b7 ee57 8fb8 cbea f5b8 b2af 16ba
000001c0: df51 60b9 b695 90ba 81a4 62b9 9c92 02b9
000001d0: e8b3 86b9 bd69 d839 2f56 0f3a 44fc 4a3b
000001e0: 1c44 d639 4987 303a 7153 05ba 64d7 ddba
000001f0: 6703 f238 e4c4 1aba 62b9 bbba 46f1 4dba

action_model._continuous_distribution.log_sigma f4 [1, 2]
0.002885872 0.004677744
00000000: e620 3d3b c347 993b

action_model._continuous_distribution.mu.weight f4 [2, 128]
0.021895196 0.012840861 0.006739335 -0.03461713 0.006175839 0.013368363 -0.004611339 0.019174242
-0.0196164 -0.0023638606 -0.012230349 -0.01915884 -0.031392444 -0.02302472 -0.0069646034 -0.011082967
0.014881847 0.00067948113 0.018752696 -0.010897675 0.0031441078 -0.019488947 -0.011057792 -0.016927505
-0.0027891991 0.016023133 0.005549342 -0.022227937 -0.015733248 0.0032422342 0.030694814 0.0017822494
0.011674785 0.013167189 -0.00040871714 0.013712554 -0.014671702 -0.028095799 6.4543947e-06 0.009487392
-0.00025193312 -0.030817727 0.005652661 -0.009980119 0.0016553449 -0.017770816 0.0067130025 0.045109447
-0.009265309 -0.03016943 -0.022396205 -0.013313992 0.009033834 -0.018835388 -0.007953713 -0.0041706925
0.0026017556 0.025847383 0.023195103 0.009317643 0.0106811095 0.0088565955 0.007998099 0.012628518
-0.009488442 0.002736789 -0.017597662 -0.03150235 0.018358447 -9.6908385e-05 -0.017061582 0.022102784
0.0130479615 0.0035958346 0.01859043 -0.017146219 0.0038976148 -0.02238581 -0.0148707405 -0.008020023
-0.00033795807 -0.0051860902 0.023067456 0.013249345 -0.01009284 -0.0040140525 -0.00890199 -0.007047581
0.00035738733 -0.025498278 0.002745815 -0.0030612436 -0.004708621 0.024807196 0.010819356 -0.0015440925
0.020296695 0.026726967 0.032628193 0.0030850414 -0.0054358533 0.009523087 0.013637576 -0.020163909
0.0039195255 -0.0044441586 0.022919243 0.006885109 0.0004746815 0.042078733 0.013442669 -0.008753393
-0.0022532714 -0.02413451 0.02327305 -0.0004212718 -0.021449024 0.0038434186 -0.025191637 0.0023298196
0.03342598 -0.027147103 0.011620087 0.0009905547 0.01719985 -0.0064251004 0.013727177 0.009201954
0.026965182 -0.0024888238 -0.008097989 -0.025977392 -0.022430127 -0.0027680006 -0.020626727 0.009292242
-0.011795205 -0.010765333 -0.009011328 -0.016820712 0.010999446 -0.013400583 0.032124445 -0.00415499
0.02056869 0.015303862 0.04050484 -0.012257714 0.012270507 -0.014296455 -0.022069136 0.002312786
-0.017620478 0.0020802517 0.0074949292 -0.007500563 -0.032478165 0.026655413 -0.0011008157 -0.01613586
0.028823683 0.00051391404 -0.0087246215 -0.018747885 0.0037380746 0.02744677 -0.003496004 -0.016568182
0.02595869 -0.0021331604 -0.008340784 -0.033119448 -0.015140261 -0.012602958 0.039109938 -0.012555234
0.014866053 -0.015772704 0.0021962372 0.0034123345 0.009166402 0.012016279 0.014030571 0.0076422957
0.018039173 0.011536952 -0.012768803 0.02434864 -0.013191179 0.0049979663 -0.012123313 0.010336929
0.03765785 -0.037674315 -0.014642766 -0.026552241 -0.01367377 0.02166772 -0.019887328 0.0170437
-0.012345289 -0.017938184 -0.0043548914 0.016208073 0.010817534 -0.017531615 -0.023550536 0.04920302
0.0027457383 0.041600578 0.022153046 -0.0039752237 0.008435223 0.025023924 0.009263448 -0.012167943
-0.02006095 -0.0077843457 -0.019235974 0.0352036 0.014174587 -0.002624818 -0.022959273 -0.018162293
-0.013082622 -0.025755966 0.00025525573 -0.03081345 0.00583987 0.00751464 0.017217258 -0.03951122
0.017735155 0.027231062 0.020635366 -0.0005805056 0.03157785 -0.01243874 -0.03994173 0.0025135118
-0.02166962 -0.005933549 0.04634383 -0.005164464 0.0047314647 0.013735398 -0.016474077 -0.014635567
-0.019657543 0.016897742 0.020884763 0.0057091583 -0.007064574 0.00055351516 0.04312085 -0.019802926
00000000: 8e5d b33c 7a62 523c a4d5 dc3b b1ca 0dbd
00000010: b15e ca3b fa06 5b3c b71a 97bb 4d13 9d3c
00000020: 93b2 a0bc 00eb 1abb cd61 48bc 00f3 9cbc
00000030: 5d95 00bd 569e bcbc 5437 e4bb 5595 35bc
00000040: fed2 733c 351f 323a 419f 993c 298c 32bc
00000050: 600d 4e3b 49a7 9fbc be2b 35bc 8dab 8abc
00000060: ffca 36bb f242 833c 41d7 b53b 5d17 b6bc
00000070: 03e3 80bc aa7b 543b b173 fb3c 5e9a e93a
00000080: 9947 3f3c 32bb 573c 1649 d6b9 9faa 603c
00000090: 9461 70bc 2929 e6bc d492 d836 0271 1b3c
000000a0: e415 84b9 7575 fcbc f539 b93b a783 23bc
000000b0: 28f8 d83a 1a94 91bc bff8 db3b afc4 383d
000000c0: 86cd 17bc e125 f7bc 3f78 b7bc ee22 5abc
000000d0: a502 143c ac4c 9abc 4a50 02bc 4eaa 88bb
000000e0: 3782 2a3b e4bd d33c a803 be3c 07a9 183c
000000f0: d2ff 2e3c 411b 113c 750a 033c d8e7 4e3c
00000100: 6975 1bbc b35b 333b f928 90bc 9c08 01bd
00000110: 7464 963c 4b3b cbb8 bbc4 8bbc e610 b53c
00000120: 1ec7 553c 18a8 6b3b f54a 983c 3a76 8cbc
00000130: 206f 7f3b 7262 b7bc 68a4 73bc 6a66 03bc
00000140: f72f b1b9 14f0 a9bb f6f7 bc3c c813 593c
00000150: 705c 25bc 5088 83bb a7d9 11bc 65ef e6bb
00000160: b75f bb39 c4e1 d0bc 22f3 333b 259f 48bb
00000170: c74a 9abb 7638 cb3c ab43 313c 2663 caba
00000180: 4145 a63c 83f2 da3c 24a5 053d 682e 4a3b
00000190: 3e1f b2bb b906 1c3c 2470 5f3c c82e a5bc
000001a0: 5d6f 803b 4ea0 91bb 23c1 bb3c 7b9c e13b
000001b0: acde f839 c05a 2c3d a43e 5c3c 646a 0fbc
000001c0: 9fab 13bb bcb5 c5bc 20a7 be3c 25de dcb9
000001d0: ddb5 afbc dde1 7b3b b15e cebc e3af 183b
000001e0: aee9 083d 9a63 debc 2d62 3e3c 80d5 813a
000001f0: b3e6 8c3c a689 d2bb f4e7 603c cbc3 163c
00000200: 16e6 dc3c 891b 23bb 6dad 04bc 8ace d4bc
00000210: 63bf b7bc 5867 35bb 62f9 a8bc 7d3e 183c
00000220: ad40 41bc 1461 30bc 40a4 13bc 97cb 89bc
00000230: 0537 343c 1e8e 5bbc ec94 033d 9526 88bb
00000240: ab7f a83c 0dbd 7a3c 67e8 253d 94d4 48bc
00000250: 3d0a 493c ae3b 6abc 55ca b4bc 1c92 173b
00000260: d258 90bc d554 083b 0698 f53b 48c7 f5bb
00000270: d307 05bd 745c da3c 3f49 90ba 5a2f 84bc
00000280: a51f ec3c 30b8 063a b7f1 0ebc 2a95 99bc
00000290: 7cfa 743b 0cd8 e03c 371d 65bb ffb9 87bc
000002a0: 52a7 d43c 7ecc 0bbb c9a7 08bc 42a8 07bd
000002b0: db0e 78bc a37c 4ebc be31 203d 78b4 4dbc
000002c0: bf90 733c c235 81bc bfee 0f3b 79a1 5f3b
000002d0: ad2e 163c eddf 443c 7be0 653c 396c fa3b
000002e0: e3c6 933c 7c05 3d3c 3e34 51bc cd76 c73c
000002f0: d11f 58bc fbc5 a33b dca0 46bc 395c 293c
00000300: 1e3f 1a3d 6250 1abd 36e8 6fbc 1684 d9bc
00000310: f307 60bc 8180 b13c c0ea a2bc 3b9f 8b3c
00000320: e543 4abc 19f3 92bc 7ab3 8ebb cbc6 843c
00000330: 073c 313c 769e 8fbc 0eed c0bc 1b89 493d
00000340: d8f1 333b 5e65 2a3d 4e7a b53c 9842 82bb
00000350: e433 0a3c f9fe cc3c b8c5 173c 0d5c 47bc
00000360: dd56 a4bc d313 ffbb c394 9dbc a631 103d
00000370: 873c 683c 2305 2cbb 1615 bcbc 17c9 94bc
00000380: 7e58 56bc 2dfe d2bc d8d3 8539 7d6c fcbc
00000390: 615c bf3b 5f3d f63b 350b 8d3c 84d6 21bd
000003a0: 5149 913c ad13 df3c 800b a93c 122d 18ba
000003b0: c757 013d dbcb 4bbc f199 23bd bbb9 243b
000003c0: 7d84 b1bc 376e c2bb 07d3 3d3d aa3a a9bb
000003d0: 670a 9b3b 6f0a 613c a5f4 86bc 04ca 6fbc
000003e0: db08 a1bc 226d 8a3c 8616 ab3c e413 bb3b
000003f0: f17d e7bb c619 113a 7d9f 303d bf39 a2bc

action_model._continuous_distribution.mu.bias f4 [2]
0.00011875662 7.4178635e-05
00000000: fa0c f938 5a90 9b38

exp_avg f4 [128, 6]
5.5147473e-05 -5.215952e-06 0.00026851366 -4.0525174e-07 -5.492664e-06 -1.2985503e-05 3.69628e-05 -1.332814e-05
0.0001873776 -1.0277281e-06 -1.3929506e-05 -3.293164e-05 -1.0312639e-05 2.2612776e-06 -4.1786097e-05 1.7467781e-07
2.3675282e-06 5.5972296e-06 6.758181e-07 -8.6594656e-07 6.1263277e-06 -6.668775e-08 -9.038649e-07 -2.1368846e-06
5.6820732e-05 -1.831477e-05 0.0003636954 -1.4148816e-06 -1.917686e-05 -4.5337256e-05 1.2232929e-06 -9.751824e-07
6.530383e-06 -7.5140974e-08 -1.0184373e-06 -2.4077526e-06 -3.6101162e-06 -1.2871055e-07 -9.338378e-06 -9.815238e-09
-1.3303304e-07 -3.1451145e-07 -2.6886235e-06 -1.7346085e-06 -4.2064858e-07 -1.3345283e-07 -1.8087785e-06 -4.276249e-06
6.521641e-05 -3.620174e-05 0.00029381784 -2.7905614e-06 -3.78224e-05 -8.941834e-05 1.501846e-06 6.439639e-06
-3.430113e-05 4.959239e-07 6.7215983e-06 1.5890959e-05 1.0228638e-06 -5.1931966e-07 -1.7134571e-05 -3.934673e-08
-5.3329484e-07 -1.2607866e-06 4.096934e-08 -1.5398857e-08 8.077983e-08 -1.1863285e-09 -1.607913e-08 -3.8013678e-08
7.622603e-08 2.5809496e-07 -1.6160252e-06 1.9907741e-08 2.6982326e-07 6.3790657e-07 2.9606451e-06 2.6404568e-06
-8.014102e-06 2.0336103e-07 2.7562921e-06 6.516326e-06 1.1265642e-05 -1.3091674e-05 0.00011199142 -1.0085525e-06
-1.3669605e-05 -3.2317203e-05 -7.927663e-06 8.195916e-07 -2.8784612e-05 6.350949e-08 8.6078694e-07 2.035044e-06
-1.7588813e-05 3.9152445e-05 -0.0003212074 3.0169967e-06 4.089143e-05 9.6674026e-05 3.4108438e-05 3.0600313e-07
-2.2702341e-05 2.333661e-08 3.1629406e-07 7.47772e-07 2.543426e-05 -1.418353e-05 0.00014221255 -1.0932122e-06
-1.4817059e-05 -3.502992e-05 2.3799803e-05 -7.137274e-06 0.00019804623 -5.520699e-07 -7.4825857e-06 -1.7690021e-05
1.8394427e-08 -1.3619538e-07 8.58642e-07 -1.0494066e-08 -1.4223326e-07 -3.362628e-07 -3.0754465e-05 1.5762185e-05
-0.00019632603 1.2158206e-06 1.6478853e-05 3.89587e-05 -2.5036504e-06 2.239393e-06 -2.0301513e-05 1.7262158e-07
2.3396592e-06 5.5313367e-06 5.5511086e-05 6.1537357e-06 0.00019611196 4.6996036e-07 6.369706e-06 1.5059006e-05
-9.9264935e-06 2.1358328e-06 -5.0170132e-05 1.6513278e-07 2.2381582e-06 5.2913665e-06 -1.0887284e-06 1.130601e-06
-1.2354148e-05 8.7136414e-08 1.1810205e-06 2.7921249e-06 -2.9430568e-05 1.7029604e-05 -0.00016586069 1.3121494e-06
1.7784447e-05 4.2045347e-05 -3.70238e-07 -1.4632884e-06 -2.6180698e-05 -1.1157094e-07 -1.5121957e-06 -3.5750704e-06
-8.4273655e-05 2.7495633e-05 -0.00042110414 2.1217936e-06 2.8758122e-05 6.79889e-05 1.7061957e-06 -2.7731019e-06
1.6329532e-05 -2.1361132e-07 -2.8952215e-06 -6.8447775e-06 -9.395959e-06 5.5375513e-06 -9.3378294e-05 4.273727e-07
5.7924717e-06 1.3694364e-05 -8.464118e-05 2.6053469e-05 -0.0004062617 2.0106368e-06 2.7251543e-05 6.442712e-05
-1.5470339e-06 1.43637e-06 -8.83538e-06 1.1066449e-07 1.499912e-06 3.546038e-06 -1.5801015e-05 4.176777e-06
-6.9348716e-05 3.2255664e-07 4.37183e-06 1.0335724e-05 8.667556e-05 -3.464345e-05 0.0005431116 -2.6734795e-06
-3.623553e-05 -8.566668e-05 -9.077389e-05 4.438812e-05 -0.00051041873 3.4215168e-06 4.6374134e-05 0.000109636094
-1.2566879e-05 2.4430947e-06 -5.1671588e-05 1.8872917e-07 2.55798e-06 6.0474717e-06 1.647315e-05 -7.2259327e-06
0.00010376232 -5.573536e-07 -7.554202e-06 -1.785937e-05 -2.434315e-05 -1.9436666e-06 -8.524915e-05 -1.4748201e-07
-1.9989197e-06 -4.725778e-06 -6.0808546e-08 -1.4590017e-06 7.4819645e-06 -1.1233877e-07 -1.5226044e-06 -3.5996864e-06
5.8393758e-05 -1.2347877e-05 0.00028031348 -9.542439e-07 -1.2933531e-05 -3.057698e-05 -2.0104906e-06 -1.9461395e-06
9.824807e-07 -1.4973122e-07 -2.0294106e-06 -4.7978565e-06 -5.979482e-05 9.796991e-06 -0.00026944705 7.584948e-07
00000000: 264e 6738 b004 afb6 4bc7 8c39 6091 d9b4
00000010: a04d b8b6 50dc 59b7 8108 1b38 ed9b 5fb7
00000020: cb7a 4439 78f0 89b5 c6b2 69b7 1420 0ab8
00000030: 7204 2db7 74c0 1736 7b43 2fb8 128f 3b34
00000040: d3e1 1e36 d6cf bb36 de69 3535 6573 68b5
00000050: c190 cd36 fa35 8fb3 1fa1 72b5 6667 0fb6
00000060: cc52 6e38 aba2 99b7 5fae be39 f6e6 bdb5
00000070: fedd a0b7 8228 3eb8 0630 a435 03e3 82b5
00000080: 901f db36 305d a1b3 3db1 88b5 e094 21b6
00000090: 5345 72b6 b033 0ab4 07ac 1cb7 e09f 28b2
000000a0: d8d7 0eb4 20da a8b4 336e 34b6 b2d0 e8b5
000000b0: 80d5 e1b4 3c4b 0fb4 28c5 f2b5 b37c 8fb6
000000c0: cbc4 8838 53d7 17b8 900b 9a39 7b45 3bb6
000000d0: 7ea3 1eb8 1b86 bbb8 0993 c935 1414 d836
000000e0: 8fde 0fb8 a21f 0535 178a e136 934d 8537
000000f0: 5549 8935 6067 0bb5 36bc 8fb7 30fe 28b3
00000100: be27 0fb5 4c38 a9b5 44f6 2f33 7246 84b2
00000110: 2e79 ad33 390c a3b0 611e 8ab2 7b44 23b3
00000120: b4b1 a333 4d90 8a34 34e6 d8b5 9601 ab32
00000130: 3adc 9034 9b3c 2b35 7faf 4636 b432 3136
00000140: 4e74 06b7 745b 5a34 bdf8 3836 d0a6 da36
00000150: 9001 3d37 50a4 5bb7 f0dc ea38 9a5d 87b5
00000160: 8256 65b7 558c 07b8 0e01 05b7 e801 5c35
00000170: 7c76 f1b7 b662 8833 d410 6735 ca91 0836
00000180: b08b 93b7 9e37 2438 ba67 a8b9 9c77 4a36
00000190: d782 2b38 79bd ca38 a80f 0f38 c048 a434
000001a0: e870 beb7 c075 c832 20cf a934 80ba 4835
000001b0: a85b d537 ccf5 6db7 e41e 1539 7cba 92b5
000001c0: c996 78b7 17ed 12b8 b0a5 c737 b87c efb6
000001d0: a1aa 4f39 f431 14b5 ec12 fbb6 0865 94b7
000001e0: c601 9e32 1a3d 12b4 6e7d 6635 6449 34b2
000001f0: c8b8 18b4 9b87 b4b4 5bfe 00b8 0939 8437
00000200: dedc 4db9 472f a335 113c 8a37 9667 2338
00000210: 6304 28b6 7b48 1636 2b4d aab7 dc59 3934
00000220: 0a03 1d36 d299 b936 93d4 6838 307c ce36
00000230: 67a3 4d39 dc4e fc34 5cbb d536 f0a5 7c37
00000240: f789 26b7 5455 0f36 c56d 52b8 5a4f 3134
00000250: 4433 1636 7e8c b136 6c20 92b5 28bf 9735
00000260: a944 4fb7 c01f bb33 8e83 9e35 5760 3b36
00000270: aae1 f6b7 ccda 8e37 e4ea 2db9 1c1d b035
00000280: cf2f 9537 d959 3038 20c5 c6b4 3566 c4b5
00000290: 9f9e dbb7 c698 efb3 a6f6 cab5 3eeb 6fb6
000002a0: 13bc b0b8 6ca6 e637 a4c7 dcb9 2364 0e36
000002b0: 993d f137 4395 8e38 7000 e535 8719 3ab6
000002c0: 67fb 8837 085d 65b4 874b 42b6 31ac e5b6
000002d0: 56a3 1db7 34cf b936 17d4 c3b8 a871 e534
000002e0: f45c c236 d8c0 6537 6381 b1b8 668d da37
000002f0: 86ff d4b9 7aee 0636 3e9a e437 0c1d 8738
00000300: aea3 cfb5 4cc9 c035 ab3b 14b7 72a6 ed33
00000310: 9550 c935 78f8 6d36 6c8c 84b7 3e26 8c36
00000320: 4f6f 91b8 d92b ad34 bcb1 9236 9967 2d37
00000330: 96c5 b538 1f4e 11b8 9a5f 0e3a 076a 33b6
00000340: 9bfb 17b8 f3a7 b3b8 dc5d beb8 622d 3a38
00000350: 9fcd 05ba 369d 6536 d981 4238 6eec e538
00000360: 56d6 52b7 0cf4 2336 f2b9 58b8 7ba5 4a34
00000370: c3a9 2b36 63eb ca36 d22f 8a37 4a76 f2b6
00000380: f99a d938 0c9d 15b5 1a7a fdb6 b4d0 95b7
00000390: 8434 ccb7 f06f 02b6 cac7 b2b8 8c5b 1eb4
000003a0: 2e25 06b6 2092 9eb6 da95 82b3 ebd2 c3b5
000003b0: 960d fb36 e43e f1b3 4a5c ccb5 2492 71b6
000003c0: d2eb 7438 ba29 4fb7 0af7 9239 9213 80b5
000003d0: 18fd 58b7 c83f 00b8 f7eb 06b6 6c9a 02b6
000003e0: c8dd 8335 cec5 20b4 0231 08b6 46fd a0b6
000003f0: 33cc 7ab8 c25d 2437 9244 8db9 5e9b 4b35

exp_avg_sq f4 [128, 6]
8.65213e-09 3.9183337e-09 2.8058975e-07 2.3277723e-11 4.276174e-09 2.3900691e-08 1.6301602e-09 9.194385e-10
6.4789674e-08 5.462682e-12 1.003508e-09 5.608876e-09 6.485715e-11 4.0061645e-11 2.8534561e-09 2.380085e-13
4.3722744e-11 2.4437816e-10 4.45089e-13 4.606285e-13 2.9252503e-11 2.7367827e-15 5.027539e-13 2.8100265e-12
7.981456e-09 3.5034946e-09 2.5322896e-07 2.081453e-11 3.823682e-09 2.1371585e-08 1.6307679e-12 3.6003896e-13
2.5166029e-11 2.1391328e-15 3.9296398e-13 2.1963822e-12 1.1367768e-11 8.046898e-12 5.5378846e-10 4.7802765e-14
8.781483e-12 4.9082093e-11 2.2046046e-11 1.1117691e-11 7.7658385e-10 6.604195e-14 1.213207e-11 6.7809404e-11
1.8045544e-09 2.2250221e-10 1.6266975e-08 1.3220802e-12 2.4286936e-10 1.3574624e-09 2.3826661e-11 1.9714367e-11
1.2687799e-09 1.1707925e-13 2.1507749e-11 1.2021263e-10 4.6429124e-10 2.1697343e-10 1.5202229e-08 1.2892774e-12
2.3684346e-10 1.3237815e-09 8.922171e-16 4.3615733e-16 2.7762528e-14 2.5913705e-18 4.7604115e-16 2.6607236e-15
4.458199e-14 1.5869486e-13 9.362355e-12 9.427733e-16 1.7318974e-13 9.680043e-13 1.6941356e-11 1.5588015e-11
1.0231668e-09 9.2589815e-14 1.7008976e-11 9.5067794e-11 6.5074807e-10 3.391842e-10 2.3875572e-08 2.015407e-12
3.702353e-10 2.0693451e-09 4.55842e-11 2.6466534e-11 1.882459e-09 1.5721929e-13 2.8881567e-11 1.6142683e-10
8.505719e-11 9.6913574e-11 6.6168266e-09 5.7589144e-13 1.0579268e-10 5.913038e-10 2.7556002e-09 4.7319537e-10
3.5263586e-08 2.811699e-12 5.165159e-10 2.8869467e-09 1.2363267e-09 4.5300447e-10 3.2942864e-08 2.6916093e-12
4.944553e-10 2.7636442e-09 3.9802197e-09 1.6574478e-09 1.1902238e-07 9.846957e-12 1.8089098e-09 1.0110486e-08
3.285089e-15 3.254796e-15 1.9538922e-13 1.9332066e-17 3.551348e-15 1.984945e-14 1.1570062e-09 5.343669e-10
3.9392187e-08 3.1745969e-12 5.831814e-10 3.2595575e-09 1.9646591e-12 9.972907e-13 7.477304e-11 5.925791e-15
1.0885826e-12 6.084383e-12 8.798505e-09 4.535747e-09 3.19154e-07 2.6945807e-11 4.95001e-09 2.7666955e-08
1.6836951e-10 7.958278e-11 5.7372995e-09 4.727822e-13 8.685124e-11 4.85435e-10 4.978449e-12 1.9657342e-12
1.4259648e-10 1.1678708e-14 2.1454075e-12 1.199126e-11 1.138013e-09 7.303072e-10 5.0682374e-08 4.3393024e-12
7.9714035e-10 4.4554325e-09 2.1566082e-09 1.052782e-09 7.4068915e-08 6.2556882e-12 1.1491853e-09 6.423107e-09
6.4917596e-09 3.2510183e-09 2.3602637e-07 1.931317e-11 3.5478775e-09 1.9830045e-08 8.253181e-12 3.4972108e-12
2.3499275e-10 2.0774767e-14 3.8163756e-12 2.1330755e-11 7.361172e-10 2.574644e-10 1.8859126e-08 1.5296376e-12
2.809982e-10 1.5705746e-09 5.1431246e-09 2.5977533e-09 1.8885245e-07 1.5432489e-11 2.834985e-09 1.58455e-08
6.608431e-12 1.8135982e-12 1.2667159e-10 1.07745445e-14 1.9793106e-12 1.1062901e-11 1.3729352e-10 8.201747e-11
5.9072276e-09 4.8722647e-13 8.9504695e-11 5.0026594e-10 9.188937e-09 4.5921373e-09 3.321794e-07 2.7281118e-11
5.01161e-09 2.801124e-08 1.18904016e-08 5.8659824e-09 4.162723e-07 3.4852808e-11 6.402546e-09 3.5785558e-08
8.001713e-11 5.307452e-11 3.7708703e-09 3.1528456e-13 5.7918555e-11 3.237224e-10 7.290087e-10 2.1076936e-10
1.5532015e-08 1.252235e-12 2.3003857e-10 1.2857484e-09 2.3217372e-09 1.1155261e-09 7.919484e-08 6.6280883e-12
1.217596e-09 6.805474e-09 2.995092e-12 1.826345e-12 1.224966e-10 1.0850235e-14 1.9932144e-12 1.1140615e-11
4.810307e-09 2.3227928e-09 1.6723922e-07 1.3798834e-11 2.5348803e-09 1.41681245e-08 3.1283892e-11 1.5176067e-11
1.0612142e-09 9.015645e-14 1.6561967e-11 9.2569306e-11 5.28044e-09 2.5473001e-09 1.8398383e-07 1.5133693e-11
00000000: 78a4 1432 07a2 8631 f6a3 9634 c6c0 cc2d
00000010: a0ed 9231 2d4e cd32 2a0c e030 bcbb 7c30
00000020: 8022 8b33 7733 c02c cdeb 8930 32b8 c031
00000030: 549f 8e2e 6731 302e 8816 4431 a4fc 852a
00000040: 6f4b 402e 2b59 862f 1690 fa2a c8a7 012b
00000050: 64a7 002e bb34 4527 3d83 0d2b f0bc 452c
00000060: d11e 0932 21c2 7031 86f3 8734 2816 b72d
00000070: 7661 8331 9d94 b732 9b82 e52b 15af ca2a
00000080: dc5c dd2d 0924 1a27 1438 dd2a 818e 1a2c
00000090: e0fb 472d 0290 0d2d 6639 1830 d648 5729
000000a0: 497c 1a2d 86dd 572e 48eb c12d a195 432d
000000b0: 3b77 5530 98b6 9429 fc6d 552d 4d1d 952e
000000c0: 1d04 f830 cea4 742f 75bb 8b32 f610 ba2b
000000d0: d384 852f 7691 ba30 df94 d12d cf68 ad2d
000000e0: 3961 ae30 ccd1 032a 252f bd2d d92c 042f
000000f0: 2f3f ff2f 9790 6e2f 0e96 8232 1d73 b52b
00000100: c134 822f 6cf0 b530 0095 8026 766d fb25
00000110: 0810 fa28 9b35 3f22 a335 0926 b0b9 3f27
00000120: 89c7 4829 aeac 322a 4cb4 242d 32de 8726
00000130: 8bfe 422a 083c 882b 8b04 952d 171d 892d
00000140: 7b9f 8c30 657e d029 cf9c 952d 690e d12e
00000150: 53e0 3230 ef77 ba2f f016 cd32 58d2 0d2c
00000160: fc89 cb2f 4e34 0e31 3f7b 482e 56cd e82d
00000170: 925c 0131 6003 312a 820b fe2d 9d7d 312f
00000180: f10a bb2e 7e1d d52e 395a e331 5a19 222b
00000190: fca3 e82e 4e89 2230 085d 3d31 2a12 0230
000001a0: b974 1733 11db 452c 93fa 0d30 b463 4631
000001b0: 61eb a930 b60a f92f 107d 0d33 b967 3d2c
000001c0: 33ea 0730 8bea 3d31 62c2 8831 43cc e330
000001d0: 3f99 ff33 c03a 2d2d 5b9d f830 63b2 2d32
000001e0: 32b7 6c27 6488 6a27 1cfd 5b2a 8d4e b223
000001f0: cfe6 7f27 b7c9 b228 8904 9f30 bae2 1230
00000200: 2b30 2933 7464 5f2c be4d 2030 befe 5f31
00000210: 2740 0a2c 2f5b 8c2b 7b6d a42e c67f d527
00000220: 5234 992b 4013 d62c 3c28 1732 dad8 9b31
00000230: 3158 ab34 9004 ed2d c014 aa31 47a8 ed32
00000240: ce1f 392f 1f01 af2e d221 c531 8c13 052b
00000250: e7fc be2e 746f 0530 e229 af2c 8553 0a2c
00000260: 57c9 1c2f 8962 5228 3af8 162c d6f3 522d
00000270: 4668 9c30 cdbe 4830 dcad 5933 f6ac 982c
00000280: c41d 5b30 6616 9931 7433 1431 79b1 9030
00000290: d10f 9f33 3b1a dc2c 5df1 9d30 3fb2 dc31
000002a0: 1f0e df31 8568 5f31 6f6e 7d34 65e1 a92d
000002b0: ecce 7331 bb56 aa32 0631 112d 2618 762c
000002c0: 4a30 812f 5a1f bb28 db46 862c 97a0 bb2d
000002d0: a557 4a30 e58a 8d2f a8ff a132 0147 d72b
000002e0: fb7a 9a2f aedb d730 67b7 b031 2984 3231
000002f0: 5ec7 4a34 e0be 872d 95d1 4231 9f1c 8832
00000300: 7483 e82c c33d ff2b e246 0b2f d118 4228
00000310: 1748 0b2c e09e 422d b1f4 162f bb5b b42e
00000320: 86f8 ca31 5e24 092b aad2 c42e 1683 0930
00000330: 5fdd 1d32 dec8 9d31 6456 b234 9ef7 ef2d
00000340: 9632 ac31 5e9d f032 8a46 4c32 ba8d c931
00000350: 077c df34 c648 192e 64fd db31 a3b2 1933
00000360: a4f5 af2e 996c 692e ed90 8131 4b7d b12a
00000370: 7fba 7e2e e1f7 b12f 6d63 4830 4dbe 672f
00000380: 436b 8532 853c b02b 1aee 7c2f 40b6 b030
00000390: 6f8c 1f31 1651 9930 d311 aa33 8334 e92c
000003a0: 5a58 a730 95d5 e931 c8c2 522c 8284 002c
000003b0: baaf 062f e175 4328 8f42 0c2c dffc 432d
000003c0: e847 a531 019f 1f31 5e92 3334 6cc0 722d
000003d0: 1632 2e31 1268 7332 8896 092e 777d 852d
000003e0: 28da 9130 a803 cb29 3cae 912d e38f cb2e
000003f0: 3e6f b531 940c 2f31 178d 4534 0c1e 852d

exp_avg f4 [128]
-5.257294e-06 -1.3332644e-05 2.2660834e-06 -8.6513546e-07 -1.8355167e-05 -9.747986e-07 -1.2733278e-07 -1.7312752e-06
-3.620176e-05 6.433587e-06 -5.104432e-07 -1.5390157e-08 2.5826165e-07 2.6381886e-06 -1.3083887e-05 8.239034e-07
3.9139286e-05 3.027435e-07 -1.4182157e-05 -7.1619525e-06 -1.3613877e-07 1.5772755e-05 2.2394079e-06 6.096765e-06
2.142256e-06 1.1304153e-06 1.7022416e-05 -1.447399e-06 2.7525875e-05 -2.7711653e-06 5.544275e-06 2.608384e-05
1.4356426e-06 4.1845046e-06 -3.4682886e-05 4.438708e-05 2.4483716e-06 -7.2305074e-06 -1.9132708e-06 -1.4573632e-06
-1.2379338e-05 -1.9424524e-06 9.839905e-06 -1.26288e-05 -1.0229136e-06 -3.2815901e-06 1.2425333e-05 -1.2473811e-05
2.1698077e-05 1.6829571e-06 3.0091858e-05 -4.794872e-07 3.2904122e-06 -1.4470097e-06 2.6306267e-05 2.4911506e-05
2.9196812e-05 -2.0056211e-06 -6.7061105e-06 -1.8829782e-05 5.0960807e-08 -1.2369511e-05 1.5533233e-05 7.4919594e-06
8.1854405e-06 -2.0207957e-05 8.974787e-06 3.5617737e-05 -1.51491195e-05 5.1609527e-07 4.5733694e-05 -2.1494307e-05
1.11681875e-05 -3.51979e-06 -8.160786e-06 -4.716126e-06 7.948479e-06 1.7107553e-06 3.458505e-06 2.1360529e-07
9.221134e-05 -5.805685e-06 -6.554161e-06 -4.0638297e-06 -3.4979632e-05 -3.662592e-07 -4.2270062e-07 -3.4146222e-05
-1.8192873e-06 2.0854784e-05 1.3249228e-06 -6.838801e-08 1.4876457e-06 -1.5865924e-05 2.3599111e-07 -9.7616885e-06
3.7757818e-05 3.7724562e-06 2.4791432e-05 -1.8506562e-06 -3.5335255e-05 9.8738865e-06 -3.529312e-05 -3.1247903e-06
9.265903e-06 1.2256765e-05 -1.2276439e-05 -2.268459e-06 -6.434935e-08 4.941713e-06 -1.2916715e-05 1.7811532e-05
-1.4040021e-05 1.3600393e-06 -1.7823331e-06 -4.5702827e-06 9.540644e-07 1.16945885e-05 -6.6050375e-06 1.8612639e-07
3.859709e-07 -4.558674e-05 -2.5542726e-05 4.015407e-06 -6.6821494e-06 -6.356524e-05 -2.035084e-05 3.870239e-05
00000000: d067 b0b6 45af 5fb7 0413 1836 a83b 68b5
00000010: 6cf9 99b7 d3d5 82b5 f8b8 08b4 2a5e e8b5
00000020: 58d7 17b8 17e0 d736 6405 09b5 5033 84b2
00000030: 36a7 8a34 bc0b 3136 de82 5bb7 362a 5d35
00000040: 7d29 2438 c088 a234 e7ef 6db7 b450 f0b6
00000050: 8a2d 12b4 bc4f 8437 bc48 1636 d092 cc36
00000060: aec3 0f36 c6b8 9735 5ccb 8e37 4044 c2b5
00000070: 5ee7 e637 42f8 39b6 f608 ba36 9fce da37
00000080: 4eb0 c035 9f68 8c36 7778 11b8 442c 3a38
00000090: b44e 2436 969d f2b6 be65 00b6 9e9a c3b5
000000a0: dab0 4fb7 145b 02b6 1216 2537 48e0 53b7
000000b0: 0b4b 89b5 4a39 5cb6 6676 5037 9c46 51b7
000000c0: 4404 b637 f7e1 e135 c66d fc37 1cb6 00b5
000000d0: dad0 5c36 e036 c2b5 47ac dc37 0df9 d037
000000e0: adeb f437 4f98 06b6 0d05 e1b6 a6f4 9db7
000000f0: 00e0 5a33 a586 4fb7 5d4d 8237 7163 fb36
00000100: 3354 0937 4284 a9b7 6b92 1637 4164 1538
00000110: f928 7eb7 cc89 0a35 2ed2 3f38 ac4e b4b7
00000120: 005f 3b37 8835 6cb6 4fea 08b7 373f 9eb6
00000130: 755a 0537 1b9d e535 aa18 6836 605b 6534
00000140: 9661 c138 74ce c2b6 d0eb dbb6 085c 88b6
00000150: 18b7 12b8 48a2 c4b4 88ef e2b4 3a38 0fb8
00000160: 3c2e f4b5 4ff1 ae37 00d4 b135 b5dc 92b3
00000170: 1eab c735 d017 85b7 be64 7d34 22c6 23b7
00000180: 265e 1e38 4e2a 7d36 32f7 cf37 1064 f8b5
00000190: f134 14b8 05a8 2537 b307 14b8 7db3 51b6
000001a0: c074 1b37 68a2 4d37 e7f6 4db7 d43b 18b6
000001b0: 6e30 8ab3 fed0 a536 deb4 58b7 f969 9537
000001c0: 6e8d 6bb7 988a b635 8038 efb5 6e5a 99b6
000001d0: 670d 8035 e033 4437 d7a0 ddb6 08da 4734
000001e0: 7037 cf34 6434 3fb8 9644 d6b7 15bc 8636
000001f0: 3a37 e0b6 544e 85b8 19b7 aab7 6054 2238

exp_avg_sq f4 [128]
3.917569e-09 9.193523e-10 4.0056097e-11 4.605922e-13 3.5030214e-09 3.6000944e-13 8.045057e-12 1.1114656e-11
2.22502e-10 1.9704077e-11 2.169814e-10 4.3611966e-16 1.5866583e-13 1.5582586e-11 3.3918676e-10 2.6459517e-11
9.6920735e-11 4.732002e-10 4.5298953e-10 1.6572125e-09 3.2535272e-15 5.3427485e-10 9.972923e-13 4.5348956e-09
7.956778e-11 1.9654907e-12 7.302911e-10 1.052813e-09 3.2503473e-09 3.4963282e-12 2.5743319e-10 2.5972398e-09
1.8133226e-12 8.199871e-11 4.5913287e-09 5.865619e-09 5.3061427e-11 2.1074728e-10 1.1154868e-09 1.8260612e-12
2.3223008e-09 1.5173054e-11 2.5469535e-09 1.696445e-11 5.056121e-12 6.757573e-11 2.8509883e-10 7.166142e-09
3.253135e-10 2.5076195e-11 3.3470893e-09 4.3097877e-14 1.2897668e-11 1.2746713e-12 1.1996258e-09 1.7690934e-09
2.8611187e-09 1.3650917e-12 3.064055e-12 1.1593877e-09 3.8015613e-09 2.955076e-10 9.266612e-11 5.594588e-11
6.206071e-11 2.2578477e-09 2.0365853e-10 9.808996e-10 3.4926206e-09 3.4243333e-12 8.161966e-09 8.792338e-09
1.0340655e-11 9.043478e-11 1.4226754e-09 1.5086534e-11 8.959678e-10 8.929481e-12 4.0242643e-11 4.2060347e-10
7.860819e-09 3.103798e-11 4.8851206e-10 7.1249005e-12 1.8612024e-09 4.1457008e-11 7.2722357e-13 3.2111174e-09
5.4993406e-11 3.2775112e-09 1.8112669e-09 1.33952035e-14 2.8639133e-11 2.1924513e-11 2.7067687e-13 2.2699493e-09
3.912494e-09 1.5410215e-10 4.4019615e-09 6.310565e-10 9.225255e-09 9.733115e-10 6.9301698e-09 2.3100312e-11
7.1497253e-09 2.0514705e-09 8.265806e-10 2.6095901e-11 2.1933297e-13 4.193748e-11 3.7715036e-09 5.6910324e-11
4.3878523e-09 6.4991204e-13 4.913481e-10 4.2118274e-11 4.8446963e-12 8.363567e-09 8.171662e-11 3.3600074e-12
1.8169436e-11 6.497488e-09 1.8218166e-09 1.6306045e-11 8.809075e-12 2.6382214e-09 2.8989857e-09 5.6563745e-09
00000000: 4d9b 8631 abb5 7c30 282b 302e 2aa5 012b
00000010: ceb9 7031 d4aa ca2a b787 0d2d f687 432d
00000020: bfa4 742f a351 ad2d d692 6e2f e767 fb25
00000030: 50a4 322a dd10 892d 4b78 ba2f 89bd e82d
00000040: 8621 d52e 8112 0230 9c08 f92f fbc3 e330
00000050: fc70 6a27 40dc 1230 3e5b 8c2b 5dd1 9b31
00000060: aef8 ae2e 224f 0a2c abbd 4830 90b2 9030
00000070: b75c 5f31 4008 762c 8086 8d2f 207b 3231
00000080: d533 ff2b 2c51 b42e c1c1 9d31 888a c931
00000090: db5d 692e 16b8 672f b44f 9930 657f 002c
000000a0: 5996 1f31 ae76 852d 7b06 2f31 8c38 952d
000000b0: 7de5 b12c c199 942e 18bc 9c2f 0d3a f631
000000c0: ced7 b22f 9292 dc2d 9e02 6631 7818 4229
000000d0: efe5 622d e064 b32b 15e0 a430 7124 f330
000000e0: 559d 4431 9d1e c02b 1c9d 572c 5458 9f30
000000f0: e39e 8231 ff74 a22f 63c6 cb2e 760d 762e
00000100: 1379 882e 7a28 1b31 c8ec 5f2f 56d0 8630
00000110: d502 7031 4ef7 702c b538 0c32 1d0d 1732
00000120: 2cea 352d 41de c62e f187 c330 dbb3 842d
00000130: 2148 7630 cf16 1d2d 30fd 302e ad3a e72f
00000140: 3f0c 0732 a981 082e fb47 0630 66af fa2c
00000150: 3dcd ff30 7154 362e fbb1 4c2b 93aa 5c31
00000160: 12dd 712e 963a 6131 4af0 f830 794e 7128
00000170: 98e9 fb2d 9dd9 c02d a660 982a 5ffd 1b31
00000180: a96e 8631 e66f 292f 1040 9731 a776 2d30
00000190: 1a7d 1e32 5bc5 8530 6b1e ee31 4731 cb2d
000001a0: a6a9 f531 daf9 0c31 7035 6330 bf8a e52d
000001b0: 6df2 762a 6871 382e 7f96 8131 544b 7a2e
000001c0: f5c3 9631 19ef 362b 8c0f 0730 f63c 392e
000001d0: 2575 aa2c 5baf 0f32 5eb2 b32e 8370 6c2c
000001e0: efd1 9f2d 8240 df31 7963 fa30 f36d 8f2d
000001f0: 8cf8 1a2d 154c 3531 7f37 4731 ff59 c231
