MachineLearning/results/TestParameters2/MoveTOGoal/checkpoint.pt (torch, 441378 bytes, 36 tensors)

network_body._body_endoder.seq_layers.0.weight f4 [128, 6]
0.67976934 -0.8046132 -0.21520829 0.07113224 -0.03811163 0.091508925 0.27249998 0.023527777
-0.46813247 0.045018315 0.4464876 0.19278227 0.51711243 0.27255923 -0.0022569215 -0.54316044
-0.30017206 0.44075128 0.055747055 -0.086417295 0.36299118 -0.59915024 1.1487056 0.12902321
0.4800816 -0.77250725 0.6131411 -0.11305021 -0.13557601 0.05178934 0.27500585 0.74604905
0.1566126 -0.28284222 0.46377426 -0.41498187 -0.33045498 -0.019242562 -0.3568676 -0.6405251
0.071756616 -0.10150728 -0.14217353 -0.30446467 -0.04851324 0.021389553 -0.30350792 0.59735405
-0.47981447 -0.055577636 0.45594528 0.24021819 -0.18003744 -0.30690017 0.5827651 -0.35546917
-0.30378947 0.6001792 -0.30081522 -0.39515296 -0.6238806 -0.075230025 -0.36856452 -0.17828497
0.38582578 0.3671499 -0.38971907 -0.15791869 0.595343 -0.12427819 0.7120809 0.011768866
0.1036884 -0.38587603 -0.04720334 0.8831411 -0.29585272 0.13740145 0.644252 -0.51570576
-0.30243263 -0.21082541 0.34200755 -0.3087938 -0.656281 -0.19770321 0.9929104 0.08405764
-0.18955295 0.31792113 0.00042146596 0.7597894 0.20875186 0.43639094 -0.2287702 -0.22608855
-0.41003874 0.20961092 -0.49349236 0.53381675 0.15240136 0.80048573 -0.13082406 0.3745837
0.09844245 0.106052205 0.025267635 -0.33369613 -0.27866957 -0.28010607 -0.22189838 -0.6183192
-0.8544038 -0.39229995 -0.5273741 1.0524712 0.54434043 0.11418026 0.5366843 -0.33476025
0.31997356 -0.91048896 0.86204773 -0.19676107 -0.26923972 0.55317914 -0.008664883 -0.30340952
-0.014852789 -0.12678568 -0.5913611 0.80399925 0.093354195 -0.23873064 -0.123248965 -0.5311411
-0.16741385 -0.386543 0.17261928 0.13729896 0.58959496 0.14883013 -0.059511345 -0.1993822
-0.13321936 -0.059701156 0.5069259 0.4617516 -0.23885791 0.083210096 -0.3919076 -0.29105115
-0.18559545 -0.2552501 -0.62456805 0.85985917 0.36566594 -0.66390383 -0.16181485 0.21172401
-0.50643444 0.7175575 0.8883454 0.11789548 0.42128146 -0.4241479 -0.32672143 -0.24939325
-0.04276772 0.40748435 0.79779786 -0.8743578 0.12933776 0.25902244 -0.59607416 -0.034497403
0.33899045 0.15797059 0.32143646 0.026537903 0.21778908 0.24803968 -0.18153894 -0.21328594
0.018406805 0.04316569 -0.24168055 -0.0053079915 0.2879281 -0.29310334 -0.32475024 -0.11371194
-0.37946653 -0.31416932 0.011913477 -0.47387502 0.12292973 0.45320913 0.37308624 0.19222839
0.2829072 -0.2530101 0.91594183 -0.2647114 -0.8272768 -0.3490711 0.15747367 0.28582147
0.030995263 -0.2027885 -0.12320817 -0.010840256 -0.40510923 0.13320999 0.18008916 0.38966447
-0.35599944 0.50565886 -0.8270905 -0.30825627 -0.40349194 -0.33703142 -0.20785923 0.12885754
0.8249695 0.36598945 -0.29216784 0.0021118303 -0.09811028 0.20269036 -0.53798634 0.5273585
-0.3276791 0.6562995 -1.2714978 0.03308566 -0.08855486 0.4526026 -0.26518404 -0.2606716
0.09424229 0.13677481 -0.15872788 -0.011094312 -0.18021995 0.5263884 0.6345614 -0.06457807
0.017869718 -0.28640112 -0.07266189 0.11815614 -0.111564666 0.1594238 0.16867764 0.1922431
00000000: 5d05 2e3f 21fb 4dbf 905f 5cbe c8ad 913d
00000010: f11a 1cbd 0869 bb3d 1e85 8b3e 53bd c03c
00000020: 0faf efbe 2065 383d 069a e43e b768 453e
00000030: 7b61 043f e28c 8b3e dce8 13bb 900c 0bbf
00000040: 27b0 99be 27aa e13e 0657 643d 8dfb b0bd
00000050: fbd9 b93e e961 19bf c908 933f a91e 043e
00000060: 41cd f53e 09c3 45bf d1f6 1c3f de86 e7bd
00000070: 70d4 0abe 0f21 543d 91cd 8c3e 12fd 3e3f
00000080: 0e5f 203e b2d0 90be d273 ed3e 8178 d4be
00000090: 6531 a9be 94a2 9dbc 5ab7 b6be 74f9 23bf
000000a0: 22f5 923d 0ce3 cfbd f095 11be cbe2 9bbe
000000b0: d2b5 46bd 2539 af3c 6465 9bbe 32ec 183f
000000c0: 3eaa f5be 60a5 63bd a971 e93e c2fb 753e
000000d0: bc5b 38be 0522 9dbe 1830 153f 0e00 b6be
000000e0: 4b8a 9bbe 58a5 193f 7404 9abe 7d51 cabe
000000f0: a4b6 1fbf 3312 9abd 7db4 bcbe 5690 36be
00000100: f58a c53e 12fb bb3e 4289 c7be 70b5 21be
00000110: 6668 183f 9085 febd ef4a 363f 34d2 403c
00000120: 955a d43d 8b91 c5be 4a58 41bd 8915 623f
00000130: 027a 97be f7b2 0c3e b3ed 243f 4b05 04bf
00000140: 73d8 9abe 9ee2 57be 9d1b af3e 391a 9ebe
00000150: 0802 28bf b672 4abe 602f 7e3f 6926 ac3d
00000160: 2b1a 42be 8fc6 a23e 34f8 dc39 8f81 423f
00000170: 0cc3 553e a26e df3e bc42 6abe c283 67be
00000180: 99f0 d1be 3fa4 563e 08ab fcbe 37a8 083f
00000190: 1a0f 1c3e a2ec 4c3f bef6 05be 6fc9 bf3e
000001a0: 329c c93d e631 d93d 12fe ce3c 38da aabe
000001b0: c7ad 8ebe 106a 8fbe 5439 63be 2b4a 1ebf
000001c0: 35ba 5abf 8adb c8be fd01 07bf 60b7 863f
000001d0: e559 0b3f 57d7 e93d 2464 093f b265 abbe
000001e0: 93d3 a33e ce15 69bf 29af 5c3f bc7b 49be
000001f0: cad9 89be 269d 0d3f 27f7 0dbc 7e58 9bbe
00000200: 1d59 73bc 1bd4 01be 7163 17bf e5d2 4d3f
00000210: 7c30 bf3d ce75 74be f469 fcbd ddf8 07bf
00000220: 896e 2bbe f7e8 c5be 1cc3 303e 1998 0c3e
00000230: b2ef 163f ed66 183e 2bc2 73bd d92a 4cbe
00000240: a86a 08be 3389 74bd e5c5 013f b56a ec3e
00000250: 2b97 74be 0e6a aa3d 1da8 c8be a804 95be
00000260: bc0c 3ebe 24b0 82be b1e3 1fbf bb1f 5c3f
00000270: 9138 bb3e 9af5 29bf cbb2 25be 2ece 583e
00000280: b0a5 01bf d9b1 373f 9b6a 633f 2f73 f13d
00000290: 34b2 d73e ea29 d9be 0848 a7be f260 7fbe
000002a0: 342d 2fbd caa1 d03e 7b3c 4c3f ead5 5fbf
000002b0: 1e71 043e 979e 843e 5198 18bf 264d 0dbd
000002c0: 2890 ad3e 0bc3 213e 5293 a43e 0466 d93c
000002d0: 1a04 5f3e 1dfe 7d3e 58e5 39be a167 5abe
000002e0: dec9 963c 82ce 303d 1b7b 77be a9ee adbb
000002f0: 506b 933e a411 96be aa45 a6be cee1 e8bd
00000300: 7049 c2be cdda a0be bf30 433c bf9f f2be
00000310: 95c2 fb3d 070b e83e 2905 bf3e 85d7 443e
00000320: 36d9 903e 8a8a 81be 2a7b 6a3f 4188 87be
00000330: 6ac8 53bf 72b9 b2be c740 213e 3157 923e
00000340: c7e9 fd3c caa7 4fbe 9154 fcbd 549b 31bc
00000350: 7a6a cfbe 3368 083e 4b69 383e 1a82 c73e
00000360: 8f45 b6be dc72 013f 34bc 53bf c4d3 9dbe
00000370: 7f96 cebe 628f acbe 0dd9 54be 3bf3 033e
00000380: 3331 533f f862 bb3e 0697 95be a266 0a3b
00000390: 0bee c8bd 108e 4f3e 79b9 09bf f700 073f
000003a0: 8ec5 a7be 3e03 283f 71c0 a2bf d484 073d
000003b0: 405c b5bd 87bb e73e 34c6 87be bf76 85be
000003c0: 1a02 c13d b20e 0c3e 9089 22be ebc4 35bc
000003d0: 948b 38be 64c1 063f 9e72 223f 8241 84bd
000003e0: 8463 923c 2ba3 92be c2cf 94bd d9fb f13d
000003f0: 047c e4bd fe3f 233e d5b9 2c3e 60db 443e

network_body._body_endoder.seq_layers.0.bias f4 [128]
-0.02556985 -0.05919999 0.060970858 -0.0908326 0.03656574 -0.0740885 -0.06076336 -0.09185246
-0.025204161 -0.033945475 0.022214279 -0.022126812 -0.07089711 0.009962719 -0.04409555 -0.11629528
0.003434284 -0.12431423 -0.022981893 -0.07864485 -0.08280063 0.0063664163 0.114003524 -0.024576971
0.0063805524 0.012780797 0.0142892245 -0.047538288 -0.12770757 -0.018784467 -0.10445832 -0.09286106
0.00509607 -0.119806565 0.13905941 0.030658802 -0.15573262 0.0054743197 0.118572146 -0.06312367
0.00421698 0.006175027 0.0021983976 -0.033347704 -0.05616039 -0.05860965 -0.05173601 -0.025677146
-0.04921225 -0.034577183 -0.036997937 -0.0745939 0.01021864 -0.031059397 0.023429241 0.06282198
-0.09912581 0.115037374 -0.13981783 -0.05141094 -0.14462326 -0.023431515 0.0049826847 -0.029848104
-0.018446157 0.08904684 -0.06942815 -0.10292081 0.037221897 -0.055151243 0.034887526 0.065801926
-0.0077608475 0.0038676283 -0.08529128 -0.025134686 -0.0243968 -0.029271329 0.08657517 0.07156288
-0.020205827 0.003617213 -0.0020771471 -0.0090434635 -0.025791857 -0.0907632 -0.033776205 -0.10048529
-0.04229644 -0.040774383 -0.0048149833 -0.043678135 -0.043103177 -0.018458724 0.085107625 -0.030772926
-0.004109338 0.06830538 0.094155334 -0.062243424 -0.04974072 0.002064328 -0.14058447 -0.11123361
0.06712031 0.00422996 -0.0021516837 -0.06621369 -0.08626334 -0.05401084 0.021942422 0.096148156
-0.07460569 -0.2027626 -0.11311166 -0.07827 -0.04816799 -0.08233915 -0.10876381 -0.014734083
-0.10019733 -0.06683742 -0.047223788 -0.046946384 -0.063236035 -0.037346847 -0.0967917 0.050382443
00000000: dd77 d1bc b07b 72bd 94bc 793d 7106 babd
00000010: f5c5 153d b6bb 97bd 00e3 78bd 241d bcbd
00000020: f578 cebc 690a 0bbd b8fa b53c 4a43 b5bc
00000030: 8132 91bd ac3a 233c 899d 34bd 382c eebd
00000040: b911 613b 7698 febd 8644 bcbc 8d10 a1bd
00000050: 6093 a9bd 5f9d d03b ae7a e93d a555 c9bc
00000060: f413 d13b 8c66 513c 5a1d 6a3c 82b7 42bd
00000070: c6c5 02be e2e1 99bc 3eee d5bd f02d bebd
00000080: effc a63b 255d f5bd 9765 0e3e 2b28 fb3c
00000090: 5f78 1fbe ec61 b33b f4d5 f23d fc46 81bd
000000a0: 982e 8a3b e257 ca3b fe12 103b 9a97 08bd
000000b0: 7008 66bd ac10 70bd 23e9 53bd e158 d2bc
000000c0: c992 49bd cea0 0dbd 268b 17bd b0c4 98bd
000000d0: 156c 273c 4770 febc aeee bf3c cfa8 803d
000000e0: 7902 cbbd b798 eb3d 682c 0fbe 4794 52bd
000000f0: 1f18 14be 73f3 bfbc ca45 a33b 0384 f4bc
00000100: 651c 97bc 315e b63d 5930 8ebd 25c8 d2bd
00000110: fd75 183d 45e6 61bd 39e6 0e3d 29c3 863d
00000120: b54e febb 0978 7d3b 32ad aebd 42e7 cdbc
00000130: ccdb c7bc 6dca efbc 534e b13d 8f8f 923d
00000140: b186 a5bc c40e 6d3b bf20 08bb 092b 14bc
00000150: 7249 d3bc 0ee2 b9bd eb58 0abd 3bcb cdbd
00000160: 083f 2dbd 0a03 27bd 02c7 9dbb d8e7 32bd
00000170: f58c 30bd c036 97bc e84c ae3d 8117 fcbc
00000180: a0a7 86bb b1e3 8b3d 83d4 c03d f6f2 7ebd
00000190: edbc 4bbd ad49 073b 60f5 0fbe 72ce e3bd
000001a0: 6076 893d 7a9b 8a3b 4303 0dbb 0b9b 87bd
000001b0: d6aa b0bd 783a 5dbd 98c0 b33c 53e9 c43d
000001c0: deca 98bd 00a1 4fbe 16a7 e7bd 064c a0bd
000001d0: cc4b 45bd 6ea1 a8bd 8fbf debd 3967 71bc
000001e0: 4234 cdbd 0fe2 88bd bb6d 41bd da4a 40bd
000001f0: e581 81bd 02f9 18bd ba3a c6bd d25d 4e3d

network_body._body_endoder.seq_layers.2.weight f4 [128, 128]
-0.16820337 0.12480331 0.0040104017 0.10639697 -0.049749043 -0.0859829 0.063934945 -0.24769786
-0.3215376 0.024224823 -0.1542709 0.022479951 0.11367349 -0.04571228 -0.0017984436 0.19977981
-0.06579783 -0.10955894 -0.14982267 0.032227468 -0.058370885 0.054125693 -0.07289109 0.08609564
-0.059599098 -0.18449073 -0.0018413365 0.0270462 0.060257547 -0.115427196 -0.028331714 -0.24297127
-0.04461758 0.10608745 -0.23904139 -0.25713846 0.014072628 0.026871724 -0.33081082 -0.16583276
-0.10910489 -0.0660236 0.0719314 0.0788216 -0.21163696 0.06607511 -0.27663487 -0.13568643
0.0020652926 -0.20972034 -0.13541596 0.019451024 0.06312395 -0.14765716 -0.18626015 -0.1190597
0.03766377 0.017194439 0.01407428 -0.060562793 -0.032255236 0.008486573 0.09248989 -0.15898031
-0.06726983 -0.17164525 0.06558681 -0.036942635 0.05875082 -0.009561709 -0.16966595 -0.07048944
-0.1692515 -0.116051175 0.055785485 -0.093597285 -0.015321883 0.15472189 -0.12636195 0.12055124
-0.081299886 0.020309918 -0.123255566 -0.084338166 -0.20596367 0.025455028 0.03728686 0.015546038
-0.04806225 -0.020879967 0.16713628 0.05965266 0.0018969591 -0.023361165 0.10275711 -0.07663114
0.04832389 -0.28711742 -0.13891736 -0.20796862 -0.06726821 -0.06310298 0.010547318 0.15443239
-0.022113169 0.15574148 -0.091231346 0.12535557 0.10474309 -0.12907375 -0.11921732 -0.13862163
-0.19908857 0.057247937 -0.07167544 -0.17907493 -0.07166029 -0.050075985 -0.009454129 0.14381444
-0.033475492 0.018174354 0.0003692912 0.08799105 0.006023415 -0.11228402 -0.12701832 0.051121734
0.09257358 0.099725194 0.12027896 -0.07962687 0.14521833 -0.028382748 0.09491538 -0.098624766
-0.049319386 -0.13743511 -0.15151076 -0.06730796 -0.017813802 -0.043909386 -0.113083616 -0.033983454
0.121501304 0.041126896 -0.028685886 -0.08838304 -0.083277725 -0.05142322 0.013302384 0.18046686
-0.027960291 -0.006205716 -0.03427967 -0.171326 0.13969462 0.005763883 -0.038568757 -0.043804362
-0.044501156 -0.14505334 -0.13255364 -0.078729734 -0.05324192 -0.0011724234 0.06971148 -0.102400124
0.018120809 0.020659722 -0.1557991 -0.140101 -0.1067945 -0.06824189 -0.10692351 0.09422091
0.031682845 -0.0849435 0.052637305 0.10118596 -0.042347528 -0.09485458 -0.055260856 -0.00015415193
0.15977722 -0.017730968 0.0879737 -0.11901767 -0.00036251542 -0.04548578 -0.10796656 -0.0052015376
-0.06905409 -0.07262075 0.17164797 -0.16179925 0.016809013 0.013550228 -0.1193481 -0.08220961
0.07511777 0.039893575 0.09498988 -0.026005229 0.015302281 0.14101121 -0.07360603 -0.086078115
-0.059002846 -0.062564895 0.0009735638 -0.13155246 0.11288805 0.01760125 -0.06699412 -0.14299203
0.051340416 0.048822824 -0.1370619 -0.20513007 -0.13803461 -0.06806565 0.05579272 0.059062444
-0.00543429 -0.08766173 0.035933252 0.027684024 0.13417502 0.04501461 0.14101237 0.02380265
0.123525634 -0.10553291 -0.15876907 -0.0065984577 -0.14117719 0.061776068 -0.19413617 0.037195913
0.05340274 -0.13047932 -0.08509 0.020959837 0.0634379 0.0097113 -0.027371705 0.08778744
-0.07924056 -0.0064000958 -0.041678455 -0.10139705 -0.12942849 -0.26031104 0.12879993 0.15201712
00000000: 813d 2cbe e198 ff3d b069 833b a8e6 d93d
00000010: a7c5 4bbd cd17 b0bd 53f0 823d 82a4 7dbe
00000020: 94a0 a4be 2373 c63c 31f9 1dbe e027 b83c
00000030: a6cd e83d cd3c 3bbd c1b9 ebba 1493 4c3e
00000040: 03c1 86bd 7060 e0bd 1d6b 19be f300 043d
00000050: 4f16 6fbd e7b2 5d3d ec47 95bd e952 b03d
00000060: 2f1e 74bd 23eb 3cbe 0059 f1ba fe8f dd3c
00000070: 9ed0 763d 1865 ecbd e917 e8bc 76cd 78be
00000080: ecc0 36bd 6144 d93d 44c7 74be a7a7 83be
00000090: e190 663c 1722 dc3c 0960 a9be 10d0 29be
000000a0: 6272 dfbd 6237 87bd c550 933d 386d a13d
000000b0: 5cb7 58be 6352 873d 16a3 8dbe 62f1 0abe
000000c0: dc59 073b eec0 56be 7baa 0abe c157 9f3c
000000d0: 2147 813d 7033 17be fbba 3ebe 92d5 f3bd
000000e0: 5345 1a3d 5adb 8c3c cf97 663c b110 78bd
000000f0: 111e 04bd 440b 0b3c 576b bd3d bccb 22be
00000100: c4c4 89bd c6c3 2fbe 6152 863d 2951 17bd
00000110: b3a4 703d b7a8 1cbc e9bc 2dbe c45c 90bd
00000120: 4450 2dbe 3dac edbd 527f 643d efaf bfbd
00000130: a308 7bbc 6a6f 1e3e 0765 01be 92e3 f63d
00000140: 8e80 a6bd fc60 a63c 6a6d fcbd 7db9 acbd
00000150: 24e8 52be 1087 d03c 1bba 183d cfb4 7e3c
00000160: ecdc 44bd 770c abbc c625 2b3e 5956 743d
00000170: 63a3 f83a ea5f bfbc 5272 d23d caf0 9cbd
00000180: 45ef 453d 0e01 93be 5a40 0ebe baf5 54be
00000190: eac3 89bd 233c 81bd a8ce 2c3c 8623 1e3e
000001a0: ad26 b5bc b27a 1f3e 80d7 babd 365d 003e
000001b0: 8c83 d63d e92b 04be 3628 f4bd d4f2 0dbe
000001c0: e0dd 4bbe d07c 6a3d 93ca 92bd 6b5f 37be
000001d0: a1c2 92bd 7a1c 4dbd 7ee5 1abc 1844 133e
000001e0: 991d 09bd 62e2 943c 6d9d c139 a734 b43d
000001f0: 1160 c53b 2af5 e5bd 1711 02be 0665 513d
00000200: 3897 bd3d b93c cc3d d154 f63d 6a13 a3bd
00000210: 1db4 143e f082 e8bc ff62 c23d c8fb c9bd
00000220: 2003 4abd cabb 0cbe a325 1bbe c1d8 89bd
00000230: 40ee 91bc 54da 33bd 6298 e7bd 3c32 0bbd
00000240: add5 f83d ad74 283d aafe eabc 2b02 b5bd
00000250: 838d aabd 28a1 52bd 3ef2 593c 4ecc 383e
00000260: fb0c e5bc 5259 cbbb d768 0cbd 1570 2fbe
00000270: 1b0c 0f3e f4de bc3b 46fa 1dbd 346c 33bd
00000280: d846 36bd dd88 14be 24bc 07be 0e3d a1bd
00000290: 3314 5abd 00ac 99ba e4c4 8e3d 28b7 d1bd
000002a0: 1772 943c 943e a93c cd89 1fbe a376 0fbe
000002b0: 13b7 dabd 67c2 8bbd b7fa dabd e4f6 c03d
000002c0: dfc5 013d dcf6 adbd 379a 573d 963a cf3d
000002d0: 9a74 2dbd 1e43 c2bd 3559 62bd d8a3 21b9
000002e0: a49c 233e 8940 91bc 8e2b b43d 89bf f3bd
000002f0: ff0f beb9 4c4f 3abd 921d ddbd a971 aabb
00000300: 3b6c 8dbd 30ba 94bd 7cc4 2f3e b4ae 25be
00000310: 0eb3 893c c701 5e3c c76c f4bd 835d a8bd
00000320: 58d7 993d 7267 233d 0e8a c23d eb08 d5bc
00000330: 6bb6 7a3c 3e65 103e c2be 96bd b949 b0bd
00000340: f8ac 71bd 0622 80bd c336 7f3a b0b5 06be
00000350: da31 e73d 7f30 903c 3734 89bd 816c 12be
00000360: 544a 523d 71fa 473d f459 0cbe 9e0d 52be
00000370: f258 0dbe 0166 8bbd e886 643d 76eb 713d
00000380: 2112 b2bb fe87 b3bd bf2e 133d 9bc9 e23c
00000390: 2d65 093e 3d61 383d 8c65 103e c6fd c23c
000003a0: 02fb fc3d a321 d8bd 5c94 22be e037 d8bb
000003b0: c190 10be e708 7d3d a2cb 46be be5a 183d
000003c0: d5bc 5a3d 5f9c 05be aa43 aebd f7b3 ab3c
000003d0: bbeb 813d 251c 1f3c a03a e0bc e7c9 b33d
000003e0: e048 a2bd e5b7 d1bb 07b7 2abd 42a9 cfbd
000003f0: e788 04be 7d47 85be 21e4 033e 60aa 1b3e

network_body._body_endoder.seq_layers.2.bias f4 [128]
0.04746931 -0.07619672 -0.05338179 -0.02938359 -0.15699102 -0.066753164 -0.15480183 -0.12988068
-0.014899701 0.0074084927 0.0055404063 0.0011180653 -0.030862976 -0.04781921 0.0054772347 -0.03163678
0.03377711 -0.06516115 -0.056734372 -0.07510611 0.0067437463 -0.08143079 -0.0675541 -0.050976783
-0.036381297 -0.05545537 -0.047783572 -0.03886065 -0.045042958 -0.018510746 -0.0059962748 -0.018931856
-0.042544506 -0.027179759 -0.099948145 -0.01328634 -0.048558988 0.046661723 0.043928675 -0.07341739
-0.024721459 -0.083363816 -0.032687638 0.044376086 -0.042773157 -0.07950244 -0.017112236 -0.009081937
-0.024806274 -0.10166416 -0.10502327 -0.03375066 -0.09742627 -0.030676037 -0.09488562 -0.12592335
-0.04182234 -0.060912155 -0.048866402 -0.03907922 -0.03412462 -0.0471182 -0.024645358 -0.043283314
-0.07786956 -0.054090995 -0.03719853 -0.020238785 0.028370665 -0.03909453 -0.05087484 -0.04956213
-0.04232015 -0.039781246 -0.04339358 -0.04438421 -0.07936377 -0.020428667 0.019850312 -0.123391435
-0.044440944 -0.01834392 -0.06504879 -0.06359394 -0.01492306 -0.035195578 -0.046188418 -0.033290368
0.015821705 -0.058530264 -0.17239037 -0.038447592 -0.10262137 -0.025654538 0.019569477 -0.09262686
0.018721124 -0.051697336 -0.024835657 -0.007219135 -0.047178276 -0.0031793497 -0.023122903 -0.056957334
-0.07951392 -0.028867392 0.036415022 -0.10081827 -0.02701626 -0.04145099 -0.018616889 -0.08354889
-0.07060639 -0.009244478 0.036450002 0.006422385 0.03092141 -0.14159788 0.027319254 -0.03976919
-0.030880444 0.057055827 -0.041304834 0.004446212 -0.10614521 -0.05752061 -0.029763792 -0.046165127
00000000: 2e6f 423d 070d 9cbd dda6 5abd dbb5 f0bc
00000010: 41c2 20be e2b5 88bd 5f84 1ebe 71ff 04be
00000020: e01d 74bc f1c2 f23b 4c8c b53b 0c8c 923a
00000030: 5ad4 fcbc 13de 43bd 607a b33b 9195 01bd
00000040: de59 0a3d 3673 85bd 4d62 68bd 3bd1 99bd
00000050: a5fa dc3b 30c5 a6bd ce59 8abd 08cd 50bd
00000060: 8e04 15bd 2c25 63bd b5b8 43bd 582c 1fbd
00000070: f77e 38bd d9a3 97bc 667c c4bb fb16 9bbc
00000080: 2643 2ebd 16a8 debc 9db1 ccbd f3ae 59bc
00000090: cae5 46bd 5d20 3f3d 8eee 333d db5b 96bd
000000a0: a884 cabc a6ba aabd 79e3 05bd b3c3 353d
000000b0: e832 2fbd 2dd2 a2bd f62e 8cbc 68cc 14bc
000000c0: 8736 cbbc 4d35 d0bd 7116 d7bd 223e 0abd
000000d0: 6d87 c7bd 504c fbbc 6453 c2bd 0df2 00be
000000e0: e74d 2bbd 067f 79bd 2328 48bd 8811 20bd
000000f0: 42c6 0bbd 04ff 40bd 10e5 c9bc d849 31bd
00000100: 137a 9fbd 858e 5dbd 7c5d 18bd cfcb a5bc
00000110: 9969 e83c 9621 20bd 2362 50bd a901 4bbd
00000120: e557 2dbd a9f1 22bd 77bd 31bd 38cc 35bd
00000130: 7989 a2bd 055a a7bc 1f9d a23c a6b4 fcbd
00000140: b507 36bd fd45 96bc 4d38 85bd 8a3d 82bd
00000150: da7f 74bc 3d29 10bd 1130 3dbd 7b5b 08bd
00000160: 859c 813c 6ebd 6fbd 1a87 30be 397b 1dbd
00000170: 272b d2bd 7729 d2bc 2b50 a03c 27b3 bdbd
00000180: 0b5d 993c 96c0 53bd 2674 cbbc 7e8e ecbb
00000190: 023e 41bd a35c 50bb 3e6c bdbc 184c 69bd
000001a0: 32d8 a2bd 4f7b ecbc eb27 153d cf79 cebd
000001b0: 3451 ddbc 83c8 29bd 7282 98bc ae1b abbd
000001c0: 159a 90bd 2776 17bc 994c 153d df72 d23b
000001d0: e64e fd3c 09ff 10be a1cc df3c 05e5 22bd
000001e0: fcf8 fcbc 5fb3 693d 422f 29bd 88b1 913b
000001f0: a962 d9bd bb9a 6bbd 32d3 f3bc a517 3dbd

action_model._continuous_distribution.log_sigma f4 [1, 2]
-0.37403655 -0.3330961
00000000: b881 bfbe 928b aabe

action_model._continuous_distribution.mu.weight f4 [2, 128]
-0.012071626 -0.00066456565 -0.02363808 -0.042978697 0.007561831 -0.0038332506 0.04684468 0.032230444
0.07630784 -0.07564322 -0.006092005 0.002312296 -0.042116772 -0.02700482 -0.06817976 0.07847634
-0.07803253 -0.041758258 0.0048052827 0.026782742 0.08498384 0.07172781 0.060436014 -0.021184353
0.015464646 -0.011864275 -0.047789138 -0.07687855 -0.0061433488 0.05442752 -0.008437834 -0.035794422
0.029340928 -0.075897 -0.00070925 0.09780058 -0.07870839 -0.086216435 0.104630925 -0.07766908
-0.0020772654 -0.04497277 -0.064240485 0.07925547 -0.013876654 0.056295663 0.030166745 -0.020884022
-0.021423222 -0.011157795 -0.042261332 -0.002598101 -0.060189247 0.06711177 -0.031430326 0.032338943
0.03802907 -0.06175006 -0.08195237 0.06267356 0.045128055 -0.020798275 0.009634424 0.04581266
-0.05231839 -0.050181866 0.09354499 -0.048124526 0.074382134 0.032589376 -0.030624686 0.05213996
0.03703282 0.10520803 0.038075864 0.037497204 0.019775663 -0.11847653 0.023054997 0.025822151
-0.090958044 -0.080507606 0.03196147 0.033936925 -0.02144692 -0.0060064155 0.024382493 -0.11721515
-0.011900917 -0.069232784 -0.004329002 0.012257884 -0.016044898 -0.109270744 -0.007355096 -0.02039057
-0.013148697 -0.10414796 -0.041245412 0.04951709 0.007760183 0.06373377 0.07360551 0.071663395
-0.06680168 -0.06873327 0.05023124 -0.005873071 0.08451836 0.058327172 -0.11540356 0.01845979
-0.0362459 -0.051488694 -0.018480614 0.05240425 -0.042755775 -0.01002958 -0.07609655 -0.07895182
-0.013957498 0.08388938 0.037356935 -0.065133475 0.051353607 0.05102562 0.030921463 0.02232085
-0.108619265 -0.06774252 0.09842064 0.07658031 -0.01004205 0.07138431 0.007831974 0.0089182295
-0.04244939 0.020735405 -0.04821278 -0.07888966 0.064882785 0.06405815 -0.047661804 0.043103907
-0.052526377 0.058287915 0.024600463 0.05324994 -0.055315815 0.05084427 -0.06896237 -0.051387668
0.07987158 0.04875458 0.033559695 0.01916039 -0.009951218 -0.019814601 -0.11424795 0.022119813
-0.06785003 0.10246463 -0.051120006 0.05547838 0.031787176 0.06421344 0.025451671 0.02254367
-0.04563881 0.0020757988 0.007286656 0.08509363 0.026725 -0.048298556 -0.030963233 -0.0612896
-0.03708935 -0.04585814 0.022208504 -0.0694606 -0.04353452 -0.028400503 -0.0028067974 0.022571087
-0.04979533 -0.06926868 -0.00049853884 -0.053786386 0.08096927 0.06768142 0.08174012 -0.043885216
0.02060012 -0.06211412 0.05079294 -0.036867697 -0.026780711 -0.06541262 0.06357368 0.043686632
0.06669211 -0.033093303 -0.029876685 0.08509607 0.08484356 0.03759978 -0.062984504 0.029698243
0.093534924 0.006897796 0.0029986661 0.011048464 -0.051101957 -0.061226875 -0.048772957 0.025650823
-0.06766648 0.056058295 -0.0045774733 0.13644533 -0.029240262 0.031211505 -0.1328131 0.028963083
0.07167882 0.051080886 -0.11818894 0.008792883 0.06805097 -0.0022203699 -0.13303407 0.0054387767
0.039831888 -0.0021314113 -0.08005509 0.045299694 0.0030761661 0.045102265 0.048802968 0.022585101
0.04585701 -0.028689664 0.04244051 0.06816233 -0.08819243 0.008446481 -0.06386374 0.019418715
-0.045526866 -0.04351212 0.08872 0.033151586 -0.020499876 0.06412823 -0.039451215 -0.05886813
00000000: 12c8 45bc 3f36 2eba a6a4 c1bc 6e0a 30bd
00000010: 3cc9 f73b 4637 7bbb 35e0 3f3d 1204 043d
00000020: 4947 9c3d d5ea 9abd 719f c7bb e489 173b
00000030: a382 2cbd 3639 ddbc d4a1 8bbd 34b8 a03d
00000040: 85cf 9fbd b50a 2bbd a275 9d3b 7b67 db3c
00000050: 020c ae3d 08e6 923d c18b 773d cf8a adbc
00000060: 6d5f 7d3c 6062 42bc 8bbe 43bd 8072 9dbd
00000070: 254e c9bb 64ef 5e3d d73e 0abc 2c9d 12bd
00000080: 635c f03c e36f 9bbd f6ec 39ba ac4b c83d
00000090: dd31 a1bd 3e92 b0bd bd48 d63d f710 9fbd
000000a0: bb22 08bb 5e35 38bd 8490 83bd b150 a23d
000000b0: e85a 63bc 4896 663d 4020 f73c f814 abbc
000000c0: c17f afbc 2fcf 36bc 381a 2dbd e744 2abb
000000d0: 0089 76bd e571 893d 16bd 00bd d775 043d
000000e0: 5fc4 1b3d a2ed 7cbd a5d6 a7bd ff5a 803d
000000f0: 32d8 383d 2561 aabc b4d9 1d3c 0ea6 3b3d
00000100: cf4b 56bd 808b 4dbd 8494 bf3d 391e 45bd
00000110: a955 983d 707c 053d 9fe0 fabc b690 553d
00000120: baaf 173d 4f77 d73d 70f5 1b3d ab96 193d
00000130: 9200 a23c d3a3 f2bd d5dd bc3c fa88 d33c
00000140: 3648 babd 2ce1 a4bd 08ea 023d 7201 0b3d
00000150: 73b1 afbc 77d1 c4bb cbbd c73c 7f0e f0bd
00000160: 10fc 42bc ebc9 8dbd 4dda 8dbb 4bd5 483c
00000170: 9770 83bc 57c9 dfbd 0403 f1bb 200a a7bc
00000180: a26d 57bc 874b d5bd f3f0 28bd 6fd2 4a3d
00000190: 2249 fe3b da86 823d 7cbe 963d 42c4 923d
000001a0: 52cf 88bd 07c4 8cbd 46bf 4d3d e472 c0bb
000001b0: f617 ad3d 79e8 6e3d b458 ecbd fc38 973c
000001c0: 9576 14bd cfe5 52bd a864 97bc d7a5 563d
000001d0: ae20 2fbd 1c53 24bc 82d8 9bbd 7eb1 a1bd
000001e0: fdad 64bc 32ce ab3d 9603 193d b364 85bd
000001f0: 2958 523d 3e00 513d 024f fd3c 37da b63c
00000200: c773 debd 97bc 8abd c390 c93d 23d6 9c3d
00000210: 6987 24bc f031 923d ae51 003c c41d 123c
00000220: 69df 2dbd 4cdd a93c c47a 45bd e790 a1bd
00000230: 44e1 843d eb30 833d 0639 43bd b98d 303d
00000240: e625 57bd 4fbf 6e3d e986 c93c 9c1c 5a3d
00000250: d692 62bd 1542 503d 253c 8dbd e07b 52bd
00000260: b693 a33d e2b2 473d e475 093d 40f6 9c3c
00000270: 6f0a 23bc 3b52 a2bc d4fa e9bd 9c34 b53c
00000280: f5f4 8abd fad8 d13d 3663 51bd 4c3d 633d
00000290: 4533 023d 5682 833d 0680 d03c 81ad b83c
000002a0: c3ef 3abd 200a 083b e7c4 ee3b 9245 ae3d
000002b0: 63ee da3c b5d4 45bd 9ba6 fdbc ce0a 7bbd
000002c0: 01eb 17bd bfd5 3bbd 9cee b53c 5c41 8ebd
000002d0: 4151 32bd 2ca8 e8bc 3ff2 37bb 00e7 b83c
000002e0: 30f6 4bbd bddc 8dbd 60b0 02ba 1d4f 5cbd
000002f0: 37d3 a53d 8e9c 8a3d 5d67 a73d fcc0 33bd
00000300: 95c1 a83c 606b 7ebd 420c 503d 9502 17bd
00000310: 3963 dbbc 0df7 85bd eb32 823d c1f0 323d
00000320: df95 883d d88c 07bd f3bf f4bc d946 ae3d
00000330: 76c2 ad3d 3a02 1a3d 05fe 80bd bb49 f33c
00000340: 3d8f bf3d e806 e23b 4585 443b 9e04 353c
00000350: 4950 51bd 08c9 7abd 27c6 47bd ad21 d23c
00000360: b994 8abd 629d 653d a1fe 95bb 53b8 0b3e
00000370: 4689 efbc 45af ff3c 2800 08be fd43 ed3c
00000380: 58cc 923d 313a 513d 0b0d f2bd 0610 103c
00000390: 4f5e 8b3d a083 11bb 153a 08be c437 b23b
000003a0: c326 233d 26af 0bbb ecf3 a3bd 2c8c 393d
000003b0: 8199 493b 27bd 383d 9fe5 473d 6404 b93c
000003c0: 8fd4 3b3d 9606 ebbc 1ad6 2d3d b198 8b3d
000003d0: 3c9e b4bd 1c63 0a3c feca 82bd ff13 9f3c
000003e0: 617a 3abd c439 32bd d5b2 b53d f5c9 073d
000003f0: 5bef a7bc a955 833d 9997 21bd b51f 71bd

action_model._continuous_distribution.mu.bias f4 [2]
0.026264433 0.029589768
00000000: 8228 d73c 3e66 f23c

exp_avg f4 [128, 6]
0.026064904 0.012491715 -0.017245399 0.029717634 0.012876963 -0.022035806 -0.007027017 -0.008385403
0.0018220089 -0.01773078 -0.008555362 0.0034366078 -0.0072057135 -0.0037317253 -0.0020142114 -0.007808864
-0.0038599602 -0.0020843567 -3.582996e-05 0.0006527223 0.0012113868 0.0014136862 0.00065927533 0.0011157622
-0.018102104 -0.011988665 -0.019608876 -0.019433571 -0.012342721 -0.015345132 -0.0043455316 -0.0039467257
-0.010962214 -0.0037722462 -0.0040079993 -0.018758135 -6.3739506e-05 -0.00010382263 -0.00010219381 -0.00010271509
-0.00010620783 -8.900535e-05 -0.00031351604 5.8903737e-05 -0.00689597 -0.00072526693 3.880731e-05 0.00054118666
0.013601165 0.022474546 0.014558468 0.05041724 0.022866651 -0.027373292 -0.035504337 -0.024647597
0.008920122 -0.055718247 -0.025311114 0.031100327 -0.0005328717 -0.00051851984 -0.00081548776 -0.0008707824
-0.00052810565 -0.0007421507 -0.0014883856 -0.004834067 -0.0027476326 -0.009781355 -0.0049094325 0.0051943427
-0.04998875 -0.03627468 0.008362874 -0.08113699 -0.0372242 0.04202067 0.022320082 0.011679794
-0.010119015 0.026504334 0.012032307 -0.015085994 -0.008558215 -0.002981837 -0.0064781695 -0.0023155715
-0.0031075187 -0.015582334 -0.018482666 -0.016284296 0.008216976 -0.037809197 -0.016639149 0.0290088
-0.030345941 -0.014639249 0.027221197 -0.038771063 -0.015093762 0.041145876 -0.023048513 -0.016229931
0.004457121 -0.03624281 -0.016680257 0.020197984 4.635579e-06 -4.0417927e-07 -6.2771987e-06 -2.2420886e-07
-3.576764e-07 -1.570572e-07 -0.026558511 -0.02776399 -0.009949111 -0.060037397 -0.028401554 0.02481259
0.004279488 0.0025585627 0.0006785509 0.0035068446 0.0026258114 0.0056808875 -0.006461792 -0.003427443
-0.009743061 -0.0059486837 -0.0035312762 -0.0072670407 -0.0015908954 -0.0011811778 0.00018818054 -0.0026462432
-0.001210877 0.0013815751 -0.016116217 -0.009146038 -0.008217669 -0.014488922 -0.009423329 -0.011944529
-0.0286782 -0.017181173 -0.0012143222 -0.033563793 -0.01767712 -0.0019843662 0.00010615104 0.00042602897
0.00091547886 -0.0004219304 0.00044201844 0.0008484208 0.0026409137 0.0018195441 -0.0015370146 0.0021501814
0.001870578 0.0029130024 0.05293367 0.028970033 -0.0445968 0.07218635 0.029798439 -0.06397519
-0.0051339786 -0.0032981175 -0.002595853 -0.004770272 -0.0033945104 -0.0059801824 0.005520346 0.004647228
0.00055521773 0.010621924 0.0047108736 -0.0046079988 0.025322776 0.013271432 -0.011714037 0.029787013
0.013668422 -0.018043932 -0.00031078732 -0.0005744883 -0.00059919164 -0.0010483767 -0.0005838784 0.00033594406
0.00014437185 0.00027924412 0.00083779206 -0.0003399785 0.0002859508 0.0011702473 0.00087288674 -0.0038300408
-0.015397017 -0.0012017853 -0.0038240822 -0.024894059 0.0073283445 0.015863478 0.012965506 0.03546463
0.016131245 -0.019219812 -0.03324472 -0.017215645 0.023586713 -0.043725528 -0.017719619 0.03788202
-0.0014100104 -0.00075005466 0.00060048176 -0.0017113028 -0.0007720468 0.0009412075 -0.005114499 -0.0046471283
-0.004849866 -0.0073580276 -0.004752852 -0.007631409 -0.069002315 -0.035810396 0.048146702 -0.087589115
-0.03685084 0.0668906 0.007538285 0.01633973 0.013297203 0.03661806 0.016643183 -0.02011369
0.0055321557 0.0032219533 0.0047632 0.0040199272 0.0033186711 0.0074064317 0.036079887 0.01815077
-0.020474594 0.039650224 0.018681023 -0.018404111 -0.044314966 -0.030207299 0.014485573 -0.06552366
00000000: 1186 d53c 0daa 4c3c 3946 8dbc 6572 f33c
00000010: e6f9 523c 6f84 b4bc e442 e6bb ee62 09bc
00000020: 79d0 ee3a 2440 91bc ca2b 0cbc b638 613b
00000030: e81d ecbb f68f 74bb dc00 04bb 80e1 ffbb
00000040: 63f7 7cbb b499 08bb 2048 16b8 741b 2b3a
00000050: 65c7 9e3a 704b b93a 38d3 2c3a c43e 923a
00000060: dd4a 94bc 1b6c 44bc cba2 a0bc 2733 9fbc
00000070: 2039 4abc 266a 7bbc f664 8ebb 8953 81bb
00000080: dc9a 33bc ca37 77bb 8955 83bb a9aa 99bc
00000090: e3ab 85b8 5abb d9b8 e250 d6b8 be68 d7b8
000000a0: e5bb deb8 62a8 bab8 695f a4b9 680f 7738
000000b0: 97f7 e1bb d71f 3eba 08c5 2238 6cde 0d3a
000000c0: 6cd7 5e3c 8a1c b83c a486 6e3c 4f82 4e3d
000000d0: d852 bb3c f43d e0bc ff6c 11bd c2e9 c9bc
000000e0: b425 123c d138 64bd 4159 cfbc 1dc6 fe3c
000000f0: 6ab0 0bba 47ed 07ba 75c6 55ba 3845 64ba
00000100: 9270 0aba e48c 42ba ef15 c3ba 1867 9ebb
00000110: a011 34bb fa41 20bc 4edf a0bb 4e35 aa3b
00000120: 01c1 4cbd c294 14bd 7004 093c 262b a6bd
00000130: 6778 18bd de1d 2c3d 9bd8 b63c 9b5c 3f3c
00000140: 3aca 25bc 9e1f d93c 2723 453c 3f2b 77bc
00000150: c137 0cbc ec6a 43bb d346 d4bb d8c0 17bb
00000160: 83a7 4bbb 0c4d 7fbc f668 97bc a566 85bc
00000170: 7fa0 063c d1dd 1abd d34e 88bc dda3 ed3c
00000180: 0d98 f8bc 76d9 6fbc fdfe de3c 68ce 1ebd
00000190: d44b 77bc 9488 283d 3cd0 bcbc a2f4 84bc
000001a0: 0a0d 923b 5773 14bd 09a5 88bc 3e76 a53c
000001b0: 528b 9b36 fafd d8b4 baa0 d2b6 10be 70b4
000001c0: ac06 c0b4 8ea3 28b4 3c91 d9bc 4f71 e3bc
000001d0: 9901 23bc c6e9 75bd 60aa e8bc c643 cb3c
000001e0: f33a 8c3b 8fad 273b c8e0 313a 17d3 653b
000001f0: ce15 2c3b bd26 ba3b 71bd d3bb f49e 60bb
00000200: 5ca1 1fbc 2ded c2bb fc6c 67bb 5b20 eebb
00000210: 9785 d0ba c0d1 9aba 5452 4539 986c 2dbb
00000220: 4ab6 9eba f815 b53a 2806 84bc 44d9 15bc
00000230: 67a3 06bc f262 6dbc 4e64 1abc fcb2 43bc
00000240: 8bee eabc 88bf 8cbc e429 9fba 307a 09bd
00000250: 9ccf 90bc 240c 02bb 689d de38 a45c df39
00000260: bffc 6f3a 8a36 ddb9 b6be e739 8e68 5e3a
00000270: 2e13 2d3b c57d ee3a a775 c9ba 0fea 0c3b
00000280: 2f2e f53a 12e8 3e3b fad0 583d 9052 ed3c
00000290: 22ab 36bd 70d6 933d db1b f43c 6d05 83bd
000002a0: ef3a a8bb 3b25 58bb 301f 2abb f14f 9cbb
000002b0: 6f76 5ebb 68f5 c3bb 05e4 b43b c647 983b
000002c0: 088c 113a 9407 2e3c ac5d 9a3b b2fe 96bb
000002d0: b671 cf3c 6c70 593c 3bec 3fbc e503 f43c
000002e0: 84f1 5f3c ded0 93bc 2bf1 a2b9 4299 16ba
000002f0: 1213 1dba af69 89ba 6b0f 19ba a621 b039
00000300: 8662 1739 8367 9239 469f 5b3a 243f b2b9
00000310: abeb 9539 fc62 993a 70d2 643a 6c01 7bbb
00000320: c543 7cbc 3985 9dba 749d 7abb a0ee cbbc
00000330: 9c22 f03b 20f4 813c 466d 543c 5c43 113d
00000340: ac25 843c de72 9dbc 9e2b 08bd d307 8dbc
00000350: ec38 c13c 8a19 33bd bc28 91bc 2d2a 1b3d
00000360: 19d0 b8ba 519f 44ba a669 1d3a cb4d e0ba
00000370: 2f63 4aba 5ebb 763a 8797 a7bb f046 98bb
00000380: a0eb 9ebb 9c1b f1bb d0bd 9bbb e610 fabb
00000390: 1651 8dbd ecad 12bd 7a35 453d ec61 b3bd
000003a0: e8f0 16bd f0fd 883d b803 f73b e6da 853c
000003b0: 83dc 593c d2fc 153d 4957 883c 77c5 a4bc
000003c0: 1647 b53b 6827 533b 9e14 9c3b 98b9 833b
000003d0: 107e 593b a7b1 f23b 81c8 133d ecb0 943c
000003e0: 56ba a7bc 4668 223d f208 993c 38c4 96bc
000003f0: 9c83 35bd 4c75 f7bc e654 6d3c 4531 86bd

exp_avg_sq f4 [128, 6]
0.0027241742 0.000799037 0.0012535194 0.0027628846 0.0008468334 0.0018464795 0.002310217 0.001147216
0.0013120337 0.0018040654 0.001213547 0.0032345762 0.0029942696 0.0008439997 0.0004983133 0.0030413212
0.00089279475 0.0011278484 0.0015148686 0.001128104 0.000962618 0.0012450306 0.0011936001 0.0023966874
0.004775679 0.0015813514 0.002589943 0.0039201337 0.0016764516 0.0054591545 0.0008931963 0.00051799795
0.00050541875 0.0008979282 0.0005472292 0.0012800607 1.1845851e-05 7.1553724e-05 8.931553e-05 1.34985585e-05
7.5403674e-05 0.00022424746 0.0012332611 0.0007115503 0.0013006226 0.00072031416 0.0007545043 0.0031773364
0.00063630746 0.001474207 0.0005354214 0.0027800389 0.0015399011 0.0055497373 0.00426754 0.0019380496
0.0025737265 0.004530697 0.002050857 0.0044305483 8.102314e-05 0.00044050466 0.00030680175 9.449429e-05
0.00046302384 0.0005811925 0.00016768221 0.00028296688 0.00020400799 0.00023465877 0.0002975297 0.00070424355
0.00518773 0.00159396 0.001619155 0.00613027 0.0016861261 0.0031290168 0.0020325324 0.0010262441
0.0013823179 0.002236332 0.0010866942 0.0025027217 0.0004953781 0.00028821718 0.0005390022 0.00049951737
0.00030413034 0.0010924553 0.0041043437 0.0023147902 0.002864683 0.003971331 0.002448757 0.0054324963
0.008601291 0.0041436837 0.0036991616 0.008582695 0.004380079 0.005185815 0.0009918254 0.00067227095
0.00063475396 0.0011959469 0.0007090089 0.0015595908 2.3653326e-06 8.590775e-06 2.5859257e-05 1.9081333e-06
9.051945e-06 3.6063604e-05 0.0038050103 0.0023970546 0.0029921383 0.004471551 0.0025318502 0.0058265976
0.00074389874 0.00039201952 0.00070744415 0.00056602096 0.00041553003 0.0014837016 0.0020126759 0.0010122495
0.0019184675 0.0013022394 0.0010725005 0.0043486697 0.0006136485 0.0009616415 0.0020839544 0.0005430748
0.0010155488 0.004353064 0.001039815 0.00058298005 0.0005623067 0.00083501684 0.0006163515 0.001269911
0.0030039167 0.0009305239 0.0006768959 0.0032000262 0.0009843019 0.001523926 0.00021195438 0.00017753302
0.0002674124 5.276315e-05 0.00018816425 0.0008293938 0.0008785694 0.00039212554 0.00066456356 0.00056392694
0.00041555858 0.0016579096 0.012073756 0.0042413916 0.005260684 0.011856362 0.004492733 0.010772139
0.00014893028 0.00015621618 8.3472085e-05 6.424793e-05 0.00016497675 0.00026388853 0.00016661413 0.0005108885
0.00024227986 0.00074509496 0.00053700653 0.0010477336 0.0032195027 0.0018399768 0.0024103296 0.0029833135
0.001947633 0.0039569004 3.1834672e-06 7.953865e-06 7.775238e-06 4.543399e-06 8.391056e-06 2.0877433e-05
0.00035988938 0.00068818015 0.00075422437 6.814599e-05 0.0007292167 0.0018619613 0.002091502 0.0011286117
0.0013947365 0.0019455956 0.0011935664 0.0026106914 5.6532375e-05 0.00043324666 0.00024224268 0.0006118605
0.00045139168 0.001507323 0.010204916 0.0054066633 0.010081772 0.009359328 0.00572486 0.012954388
5.79328e-05 4.4935045e-05 6.382575e-05 5.980016e-05 4.7414414e-05 0.0001715395 0.002044451 0.0006629162
0.00043715263 0.00203329 0.0007013987 0.00092066685 0.018327631 0.006477905 0.010462524 0.0190703
0.006858703 0.015378165 9.623133e-05 0.00060215767 0.000854527 0.0007167274 0.0006315726 0.0026646825
0.0012177713 0.0006611185 0.00030787446 0.00092931767 0.000699641 0.0007493895 0.004013681 0.0015019323
0.0018857478 0.0035298527 0.001591168 0.0029645022 0.004110138 0.0019699866 0.0020748584 0.0046168235
00000000: 0f88 323b 7776 513a 224d a43a 8311 353b
00000010: 07fe 5d3a 9205 f23a 0267 173b 2e5e 963a
00000020: 8cf8 ab3a 6476 ec3a e10f 9f3a 2ffb 533b
00000030: 823b 443b dc3f 5d3a 3da1 023a e750 473b
00000040: 710a 6a3a 50d4 933a 8e8e c63a e4dc 933a
00000050: 3358 7c3a 4b30 a33a 9372 9c3a be11 1d3b
00000060: 4d7d 9c3b 5945 cf3a 08bc 293b 7774 803b
00000070: 62bc db3a b5e2 b23b 6425 6a3a 41ca 073a
00000080: 147e 043a f162 6b3a ee73 0f3a b6c7 a73a
00000090: 8bbd 4637 1d0f 9638 e94e bb38 de77 6237
000000a0: 0a22 9e38 f823 6b39 60a5 a13a 5587 3a3a
000000b0: a779 aa3a 77d3 3c3a edc9 453a dc3a 503b
000000c0: dfcd 263a 2e3a c13a 865b 0c3a 5031 363b
000000d0: 82d6 c93a 92da b53b b8d6 8b3b 2706 fe3a
000000e0: f7ab 283b 3e76 943b ac67 063b 222e 913b
000000f0: f8ea a938 89f3 e639 3cda a039 3c2b c638
00000100: 02c2 f239 2b5b 183a dad3 2f39 2c5b 9439
00000110: faea 5539 bc0e 7639 c3fd 9b39 fc9c 383a
00000120: d5fd a93b 6cec d03a d439 d43a 6fe0 c83b
00000130: 0101 dd3a 3110 4d3b 3c34 053b 0a83 863a
00000140: e42e b53a 6d8f 123b 686f 8e3a b404 243b
00000150: 43dc 013a db1b 9739 d34b 0d3a 0bf2 023a
00000160: af73 9f39 b830 8f3a bb7d 863b bcb3 173b
00000170: 68bd 3b3b f021 823b 537b 203b 1503 b23b
00000180: 6eec 0c3c bdc7 873b a26d 723b 6f9e 0c3c
00000190: c486 8f3b c5ed a93b 2300 823a 573b 303a
000001a0: 9e65 263a 52c1 9c3a c8dc 393a 2f6b cc3a
000001b0: 1bbc 1e36 1921 1037 55ec d837 7b0d 0036
000001c0: cfdd 1737 0043 1738 7b5d 793b e717 1d3b
000001d0: c017 443b 1786 923b 66ed 253b 0bed be3b
000001e0: 3302 433a f887 cd39 c673 393a 0661 143a
000001f0: 7fdb d939 c478 c23a 19e7 033b 75ad 843a
00000200: 1675 fb3a e7af aa3a 2593 8c3a 497f 8e3b
00000210: 41dd 203a ab16 7c3a f492 083b 225d 0e3a
00000220: 2a1c 853a 26a4 8e3b 674a 883a 21d3 183a
00000230: c467 133a 08e5 5a3a a692 213a 2473 a63a
00000240: 5cdd 443b 67ee 733a b771 313a 88b7 513b
00000250: b103 813a 79be c73a 1240 5e39 2828 3a39
00000260: 7c33 8c39 004e 5d38 f54d 4539 ad6b 593a
00000270: cb4f 663a 3396 cd39 1b36 2e3a 7fd4 133a
00000280: 54df d939 374e d93a 01d1 453c 5ffb 8a3b
00000290: d161 ac3b 3041 423c c737 933b a07d 303c
000002a0: 2b2a 1c39 f6cd 2339 bc0d af38 d8bc 8638
000002b0: 9cfd 2c39 855a 8a39 24b5 2e39 26ed 053a
000002c0: 810c 7e39 7a52 433a e6c5 0c3a 1b54 893a
000002d0: 4bfe 523b 602b f13a 9ff6 1d3b b283 433b
000002e0: b847 ff3a e3a8 813b 8da3 5536 9771 0537
000002f0: 6572 0237 8073 9836 50c7 0c37 f221 af37
00000300: 89af bc39 fd66 343a 24b7 453a 9ae9 8e38
00000310: e828 3f3a 0e0d f43a 9511 093b eded 933a
00000320: 97cf b63a 5b03 ff3a 7171 9c3a 2218 2b3b
00000330: 2d1d 6d38 6225 e339 8602 7e39 4365 203a
00000340: c4a8 ec39 5e91 c53a 8532 273c 612a b13b
00000350: 042e 253c de57 193c 9b97 bb3b a43e 543c
00000360: dffc 7238 a378 3c38 30da 8538 efd1 7a38
00000370: d7de 4638 49df 3339 32fc 053b 8ec7 2d3a
00000380: a231 e539 f240 053b 12de 373a e858 713a
00000390: d423 963c 9b44 d43b 026b 2b3c 5139 9c3c
000003a0: f9be e03b b3f4 7b3c cdcf c938 1eda 1d3a
000003b0: 5602 603a c3e2 3b3a 1f90 253a f4a1 2e3b
000003c0: a09d 9f3a e94e 2d3a 366a a139 749d 733a
000003d0: 1d68 373a ae72 443a 3285 833b 7cdc c43a
000003e0: 322b f73a 1a55 673b bd8e d03a 1848 423b
000003f0: 56ae 863b e41a 013b 59fa 073b b948 973b

exp_avg f4 [128]
0.003145559 -0.0020898865 -0.00094290316 0.00016104657 -0.0030150549 -0.0009790658 -2.594423e-05 9.479787e-06
0.0055858176 -0.0061829467 -0.00012900459 -0.0011992662 -0.00909305 0.0029392273 -0.00075909833 -0.0040645767
-0.003687073 -0.00407462 -8.7372406e-08 -0.0069378726 0.0006414277 -0.00086261274 -0.00029579055 -0.0023019114
-0.0043181307 0.00010797534 0.0004569408 0.0072791004 -0.0008292039 0.0011507622 0.0033388943 -0.00014262862
6.985153e-05 -0.000934139 0.0039405073 -0.0043285117 -0.00018859403 -0.0011610168 -0.009001848 0.004065563
0.0008106781 0.0045633614 -0.0075689014 -0.008077413 -0.00011833891 -0.0023491331 -0.0010129719 -2.5916718e-06
5.1384563e-05 0.002149498 0.0015486113 -0.00021922518 -0.005317046 -7.446669e-05 -0.0049401224 0.0028333226
1.0847656e-05 0.0010894075 0.0016069137 0.00062039774 6.675271e-05 -0.0010445154 2.9859351e-05 0.00015759881
0.002311476 -6.518951e-05 0.0012671545 -0.00038023986 0.0019461007 0.002971639 0.0015930223 -0.00014293393
-7.482822e-08 0.0008683259 0.000119068514 -1.7893351e-05 0.0044053206 0.002798437 -0.0015755501 0.0008180507
-0.002451231 0.0006851018 -0.0035587882 -0.0033093854 -0.0061420053 0.00023185942 -0.0007499438 0.00035664788
-0.00066802313 0.00027738023 -0.0044073104 -0.012420717 0.00093292934 -1.773545e-05 -0.0020411545 -0.0007114153
-0.000390657 0.0015932417 0.003519887 -3.370379e-05 7.510607e-07 -4.70656e-06 0.0008584014 -0.0065788385
-0.007659886 -0.0016215763 0.0004728896 0.003954553 0.004755565 -0.0006423626 0.0029199948 0.0032202343
0.0008400973 -4.6938185e-05 -0.0016723977 0.00026329196 9.624506e-06 0.0004327353 1.5062335e-06 0.006480506
-6.902031e-05 9.227276e-06 0.006789866 -0.0036465398 -0.0020545877 -0.0027564585 0.00016771146 -0.0015768951
00000000: b925 4e3b 7af6 08bb 292d 77ba 9cde 2839
00000010: 3a98 45bb ff53 80ba cfa2 d9b7 600b 1f37
00000020: 3c09 b73b 519a cabb 6845 07b9 b230 9dba
00000030: 04fb 14bc 0da0 403b 3afe 46ba 2430 85bb
00000040: d2a2 71bb 6484 85bb 7da1 bbb3 1857 e3bb
00000050: 7c25 283a f620 62ba 5614 9bb9 aadb 16bb
00000060: 1b7f 8dbb d270 e238 8e91 ef39 8585 ee3b
00000070: ef5e 59ba 2cd5 963a 5ad1 5a3b 948e 15b9
00000080: 417d 9238 02e1 74ba 5f1f 813b 30d6 8dbb
00000090: 53c1 45b9 422d 98ba 7d7c 13bc 6a38 853b
000000a0: b083 543a 4088 953b 8c04 f8bb 2057 04bc
000000b0: b82c f8b8 eaf3 19bb b2c5 84ba 95ec 2db6
000000c0: c185 5738 98de 0c3b c6fa ca3a d0df 65b9
000000d0: 9d3a aebb 002b 9cb8 c0e0 a1bb 44af 393b
000000e0: 54fe 3537 73ca 8e3a 149f d23a 30a2 223a
000000f0: 97fd 8b38 1fe8 88ba 787a fa37 1c41 2539
00000100: 227c 173b 5ab6 88b8 a616 a63a ee5a c7b9
00000110: 4e14 ff3a d4bf 423b f5cc d03a 89e0 15b9
00000120: 40b1 a0b3 5da0 633a 6cb4 f938 ae19 96b7
00000130: 825a 903b fb65 373b b082 ceba 7472 563a
00000140: d5a4 20bb 6798 333a 8f3a 69bb 46e2 58bb
00000150: e042 c9bb 4a1f 7339 e097 44ba 78fc ba39
00000160: 461e 2fba 586d 9139 336b 90bb 4380 4bbc
00000170: d48f 743a 97c6 94b7 e4c4 05bb 467e 3aba
00000180: 18d1 ccb9 52d4 d03a e8ad 663b 2b5d 0db8
00000190: 809c 4935 0bed 9db6 5806 613a 4c93 d7bb
000001a0: c8ff fabb 128b d4ba 2bee f739 3295 813b
000001b0: 92d4 9b3b 3964 28ba 625d 3f3b 910a 533b
000001c0: fa39 5c3a 7edf 44b8 5b34 dbba 730a 8a39
000001d0: f078 2137 c0e0 e239 ca29 ca35 6d5a d43b
000001e0: ffbe 90b8 d9ce 1a37 867d de3b c9fa 6ebb
000001f0: 43a6 06bb b3a5 34bb b4db 2f39 d2af ceba

exp_avg_sq f4 [128]
5.053201e-05 7.241447e-05 5.327459e-05 7.122414e-05 0.00010003661 3.265413e-05 4.499467e-06 4.5022512e-05
9.1888694e-05 0.00012237811 2.762947e-05 1.7754086e-05 0.00010061405 6.484473e-05 1.8147988e-05 0.0001461212
0.00026136695 4.2307707e-05 5.401454e-07 0.00015107985 2.4795376e-05 6.399786e-05 6.0599625e-05 3.6778645e-05
5.8734957e-05 1.1228087e-05 2.4797093e-05 0.00026808947 9.844441e-06 3.2044103e-05 0.00011621846 5.007089e-07
4.3513643e-05 7.1222195e-05 2.6935348e-05 0.00034161197 2.8292984e-06 4.1853633e-05 0.00040927072 3.7687016e-05
4.174876e-05 9.494774e-05 0.00012429639 4.8250346e-05 8.7060295e-07 4.2146134e-05 1.0237291e-05 4.107062e-08
1.1706769e-07 5.9280606e-05 2.3375149e-05 1.804063e-05 0.00016747821 2.3962753e-05 0.00017753855 0.00034160356
8.7546375e-08 0.00014468872 1.0221666e-05 7.763667e-05 3.4289274e-05 1.5292548e-05 5.37729e-07 3.6394176e-05
3.0052825e-05 7.430486e-07 4.4383723e-05 6.3420116e-06 0.00012607298 8.612843e-05 7.687938e-05 1.5111796e-05
1.4819305e-05 7.918069e-05 8.232918e-05 2.9060224e-05 5.339011e-05 0.00012608992 2.2060243e-05 0.00015236225
2.2289076e-05 9.21979e-05 0.00013093014 1.8252693e-05 0.00027563132 1.223874e-05 4.277601e-05 2.1095539e-05
3.251288e-05 1.706118e-05 0.00013187098 0.0003992147 8.908894e-05 7.0712495e-06 4.076789e-05 0.00013660539
0.000110540415 6.5537024e-05 0.00039229926 3.46414e-05 2.9048233e-06 6.339056e-08 2.1249605e-05 0.00017327593
0.0002289168 5.4660726e-05 1.0841616e-05 0.0001642105 0.0002574954 1.4431614e-05 7.627346e-05 0.00045965766
8.889681e-05 2.85054e-05 1.626937e-05 3.0166608e-05 4.103708e-06 4.116383e-06 7.2111754e-07 0.00026029683
1.6266413e-05 1.2092649e-07 0.00013466572 7.011804e-05 2.0090376e-05 3.7082875e-05 2.6628425e-06 3.436885e-05
00000000: 55f2 5338 39dd 9738 2873 5f38 2b5e 9538
00000010: bfca d138 1bf6 0838 21fa 9636 8ed6 3c38
00000020: 5eb4 c038 a052 0039 d6c5 e737 9cee 9437
00000030: c200 d338 40fd 8738 823c 9837 1c38 1939
00000040: 1408 8939 8e73 3138 82fe 1035 306b 1e39
00000050: aaff cf37 9736 8638 5a2c 7e38 c542 1a38
00000060: 2e5a 7638 4460 3c37 5a03 d037 5c8e 8c39
00000070: 8d29 2537 1867 0638 50ba f338 7468 0635
00000080: 6b82 3638 205d 9538 38f3 e137 621a b339
00000090: fade 3d36 ff8b 2f38 6393 d639 2012 1e38
000000a0: 641b 2f38 ae1e c738 8f55 0239 6a60 4a38
000000b0: 61b3 6935 11c6 3038 d4c0 2b37 a065 3033
000000c0: a566 fb33 11a4 7838 c015 c437 f555 9737
000000d0: 179d 2f39 9f03 c937 a429 3a39 4119 b339
000000e0: 2101 bc33 95b7 1739 b97d 2b37 dfd0 a238
000000f0: d4d1 0f38 7f48 8037 7558 1035 f3a5 1838
00000100: f319 fc37 e975 4735 a928 3a38 77cd d436
00000110: 7532 0439 d99f b438 4e3a a138 ab88 7d37
00000120: 6ea0 7837 cf0d a638 24a8 ac38 5bc6 f337
00000130: 32ef 5f38 0137 0439 030e b937 6ec3 1f39
00000140: 6df9 ba37 5f5a c138 4b4a 0939 5c1d 9937
00000150: 9c82 9039 fd54 4d37 646a 3338 53f6 b037
00000160: 705e 0838 9b1e 8f37 d946 0a39 b14d d139
00000170: 43d5 ba38 9245 ed36 30fe 2a38 bb3d 0f39
00000180: efd1 e738 ec70 8938 84ad cd39 ec4b 1138
00000190: 7cf0 4236 5421 8833 2e41 b237 67b1 3539
000001a0: 6309 7039 8243 6538 63e4 3537 ec2f 2c39
000001b0: 7300 8739 4f1f 7237 01f5 9f38 35fe f039
000001c0: 1d6e ba38 e11e ef37 357a 8837 4c0e fd37
000001d0: 95b2 8936 761f 8a36 d292 4135 7378 8839
000001e0: db73 8837 05d8 0134 0e35 0d39 560c 9338
000001f0: c187 a837 6f89 1b38 49b3 3236 4627 1038
