MachineLearning/results/testSumo15/MoveTOGoal/checkpoint.pt (torch, 441378 bytes, 36 tensors)

network_body._body_endoder.seq_layers.0.weight f4 [128, 6]
0.0543195 -0.17541136 0.36683446 0.20332836 -0.07432986 0.34130734 -0.013737301 -0.08820012
0.5591337 0.3155203 -0.027326247 -0.14805464 -0.6061321 -0.41440004 -0.75939703 0.15434112
0.005207972 0.73845154 -0.04233101 0.31423217 0.057804633 -0.7460367 -0.09800493 -0.32899985
0.068912365 -0.02589926 -0.44016406 0.64176476 -0.24215275 0.081496395 -0.13861601 0.42160088
-0.19017118 -0.079395056 0.37595508 -0.13506502 -0.39866206 0.27454832 0.43951866 -0.28831202
-0.16040711 -0.39487103 0.13761006 0.06137916 -0.68691415 0.24876915 0.29214555 -0.6146404
0.34114325 -0.013078652 -0.550647 -0.19333126 -0.462106 -0.34491664 -0.36404374 0.17514598
0.691379 -0.036222756 0.27827927 -0.62326276 -0.23554279 0.07052694 -0.02687827 0.39413902
-0.052344695 -0.31587878 1.0224922 0.25244665 -0.27923295 0.06792477 -0.5212983 0.3469893
-0.02848788 -0.3563591 -0.56263536 -0.17607968 -0.30602142 0.074229784 -0.608893 -0.49885306
-0.49777636 -0.2509552 0.27484486 0.2435003 -0.6442205 0.04168428 -0.03242164 -0.66267
-0.056087777 -0.33225828 -0.417313 -0.54211974 -0.37514558 -0.7173492 0.23259348 -0.12110273
-0.060947113 -0.17168112 0.16973731 0.08673939 -0.018282242 0.29696554 -1.293394 -0.65641075
-0.044622134 -1.2383202 0.31045902 0.030998468 0.1170139 -0.06136782 0.22286358 -0.4364605
-0.2994745 -0.14803837 -0.4933456 -0.08544321 0.5064767 -0.08309508 0.11571361 -0.20282096
0.84910965 0.007431722 -0.32001716 0.29805002 -0.04030789 -0.25912976 0.03863654 -0.53009576
-0.8762093 0.3587673 -0.44603884 -0.36823067 -0.19359615 0.42536712 -0.20746045 0.495805
-0.71628684 0.35601604 -0.4341041 -0.18089531 0.13021813 0.36030403 0.44177076 -0.21698217
0.61249375 -0.17883246 0.28128555 0.192318 -0.33661622 -0.14255501 0.39115468 -0.30957144
-0.12425064 -0.707188 0.59863067 0.43119314 0.3539227 -0.45557022 -0.008982832 -0.9025365
0.032119624 -0.27893737 -0.070157126 0.26926893 -0.6837026 0.49812666 0.06089376 -0.11008107
-0.38544056 0.5504162 -0.58054966 0.05087725 -0.27957702 0.52213794 0.25555903 -0.64995676
-0.22805716 0.87014097 0.1615694 0.7007777 -0.21558467 -0.606292 0.15677479 -0.5707041
-0.029102147 0.20291187 0.17688376 -0.6398726 -0.09820554 0.12931147 0.40247983 -0.1654865
0.048503872 0.09736173 -0.5413667 0.1374507 -0.4416393 -0.22349146 -0.021057464 -0.18772988
0.12602729 0.5672638 -0.45596495 -0.18864211 -0.008597241 0.14423798 0.21088111 0.28599396
-0.15180103 -0.19498576 0.52073514 0.2359139 -0.41085276 0.17809086 -0.5114551 -0.7386551
0.48935938 0.56008005 -0.3699446 -0.2554203 0.060944855 -0.28506294 -0.6197151 0.46747643
0.14008911 0.47522375 0.35540566 -0.3061459 0.51969504 -0.041925758 -0.00028337017 -0.28832236
-0.08975072 -0.30188802 -0.46676102 0.5643241 0.12487037 -0.05133145 0.1492692 -0.20041592
-0.33721948 0.7381007 0.076421715 -0.31712073 -0.43462515 -0.45052278 0.1669564 0.42052832
-0.1574027 -0.22164656 -0.031563725 -0.08549517 -0.6959055 -0.35942334 -0.12933938 0.14518858
00000000: 207e 5e3d 099f 33be bad1 bb3e 4f35 503e
00000010: 413a 98bd d6bf ae3e 6b12 61bc 44a2 b4bd
00000020: 6323 0f3f e08b a13e 4bdb dfbc a39b 17be
00000030: 792b 1bbf 3e2c d4be d867 42bf 990b 1e3e
00000040: a3a7 aa3b 290b 3d3f 4863 2dbd 0ae3 a03e
00000050: 8dc4 6c3d 43fc 3ebf cfb6 c8bd ab72 a8be
00000060: ed21 8d3d af2a d4bc 2f5d e1be b24a 243f
00000070: e4f6 77be 95e7 a63d 5bf1 0dbe 12dc d73e
00000080: 3cbc 42be e099 a2bd 2f7d c03e 7c4e 0abe
00000090: 6f1d ccbe 9991 8c3e 9708 e13e a29d 93be
000000a0: c341 24be 892c cabe a7e9 0c3e b768 7b3d
000000b0: 9bd9 2fbf 57bd 7e3e 1a94 953e 1359 1dbf
000000c0: 54aa ae3e d847 56bc 34f7 0cbf a1f8 45be
000000d0: 2899 ecbe ea98 b0be f163 babe 7859 333e
000000e0: 37fe 303f 505e 14bd 9f7a 8e3e 268e 1fbf
000000f0: 2132 71be 6e70 903d d12f dcbc 97cc c93e
00000100: 6467 56bd ddba a1be 06e1 823f b040 813e
00000110: 9ff7 8ebe 241c 8b3d ce73 05bf 95a8 b13e
00000120: 6a5f e9bc b374 b6be df08 10bf 3b4e 34be
00000130: d7ae 9cbe c905 983d 69e0 1bbf ab69 ffbe
00000140: 8bdc febe 337d 80be 77b8 8c3e 2558 793e
00000150: a2eb 24bf 23bd 2a3d 8ecc 04bd bea4 29bf
00000160: 4cbc 65bd c21d aabe 0daa d5be 5cc8 0abf
00000170: 1513 c0be 32a4 37bf fc2c 6e3e b504 f8bd
00000180: aea3 79bd 2dcd 2fbe 9ecf 2d3e 6ca4 b13d
00000190: a4c4 95bc de0b 983e ef8d a5bf 890a 28bf
000001a0: b3c5 36bd 4781 9ebf 7cf4 9e3e 80f0 fd3c
000001b0: fca4 ef3d d35c 7bbd 5a36 643e c077 dfbe
000001c0: b954 99be 5f97 17be cb97 fcbe dafc aebd
000001d0: 75a8 013f c12d aabd 42fb ec3d 4cb0 4fbe
000001e0: 405f 593f cd85 f33b 4ad9 a3be 039a 983e
000001f0: e319 25bd a8ac 84be 5941 1e3d 5bb4 07bf
00000200: 414f 60bf 59b0 b73e 345f e4be bb88 bcbe
00000210: 123e 46be b8c9 d93e 8370 54be 27da fd3e
00000220: 935e 37bf bc47 b63e e542 debe 9f3c 39be
00000230: e757 053e c579 b83e c72f e23e 9330 5ebe
00000240: 64cc 1c3f db1f 37be a904 903e 03ef 443e
00000250: f658 acbe f1f9 11be 6d45 c83e 2680 9ebe
00000260: 1f77 febd 460a 35bf dc3f 193f 59c5 dc3e
00000270: 5b35 b53e 8040 e9be ba2c 13bc a20c 67bf
00000280: de8f 033d e1d0 8ebe 8aae 8fbd 9edd 893e
00000290: 2207 2fbf 750a ff3e bc6b 793d 2f72 e1bd
000002a0: 7758 c5be 13e8 0c3f e79e 14bf aa64 503d
000002b0: b824 8fbe d5aa 053f a2d8 823e 9163 26bf
000002c0: d187 69be 8fc1 5e3f 7372 253e 2b66 333f
000002d0: 3ac2 5cbe f435 1bbf 9289 203e aa19 12bf
000002e0: a067 eebc 21c8 4f3e 0421 353e b1ce 23bf
000002f0: fc1f c9bd 3a6a 043e d611 ce3e 4b75 29be
00000300: ffab 463d 9665 c73d 0297 0abf e0bf 0c3e
00000310: 8c1e e2be f2da 64be b480 acbc 433c 40be
00000320: 4c0d 013e 3338 113f 3d74 e9be 662b 41be
00000330: 71db 0cbc 1fb3 133e 38f1 573e cd6d 923e
00000340: bb71 1bbe 59aa 47be e64e 053f 6a93 713e
00000350: 4b5b d2be 735d 363e b9ee 02bf 8018 3dbf
00000360: 508d fa3e 6861 0f3f 6169 bdbe 73c6 82be
00000370: 50a1 793d c5f3 91be a6a5 1ebf 1259 ef3e
00000380: 8573 0f3e 8750 f33e bbf7 b53e 28bf 9cbe
00000390: bc0a 053f 58ba 2bbd 4d91 94b9 fd9e 93be
000003a0: 3acf b7bd 1191 9abe 4dfb eebe 8b77 103f
000003b0: 09bc ff3d ed40 52bd 06da 183e d539 4dbe
000003c0: 08a8 acbe 2bf4 3c3f fd82 9c3d a65d a2be
000003d0: 3087 debe ecaa e6be 9ef6 2a3e 7d4f d73e
000003e0: 2c2e 21be 51f7 62be f748 01bd 1718 afbd
000003f0: dd26 32bf 5606 b8be 8b71 04be 51ac 143e

network_body._body_endoder.seq_layers.0.bias f4 [128]
-0.024692861 -0.0048610033 0.034744855 -0.053945255 0.024248594 -0.074598186 -0.028109599 0.040605843
0.024001071 -0.1337909 -0.0063904035 -0.0044398597 -0.07286667 0.09938364 -0.052029885 -0.05928524
-0.082340725 -0.06094666 -0.20381564 0.054090276 -0.080218725 -0.04032983 0.04022602 0.012235054
0.023294318 0.02611726 -0.08912636 -0.049807135 -0.06110018 -0.09782627 -0.07562873 -0.037731282
-0.034783892 -0.053186677 -0.020619407 -0.027890868 -0.039428223 -0.033205613 0.002953687 0.005858751
-0.051137798 -0.14827996 -0.07927919 -0.07270791 -0.06464458 -0.10593228 0.08285321 -0.0622981
-0.008256636 0.010292609 0.0054705357 -0.06362114 0.042256255 0.017269645 -0.06597069 -0.075270444
0.03640035 -0.04372058 -0.07640488 -0.05195671 -0.01946496 -0.050822426 0.0061854646 0.03172775
-0.041744623 -0.01269661 -0.14102969 -0.019815682 -0.110838 -0.053751394 -0.098347515 0.027064623
-0.10012542 -0.03960466 -0.078208 -0.075856 -0.03290218 -0.040522933 -0.11751718 -0.028552694
-0.09526192 -0.03879106 0.013190625 0.003918408 0.012076986 -0.07704078 -0.059137996 -0.09658017
-0.006163945 -0.1299719 -0.024635177 -0.045284223 -0.024768721 -0.06288147 -0.09198783 -0.0762399
-0.013136752 -0.14245321 -0.066322714 -0.070073575 0.042060975 -0.034032267 -0.05840682 0.06538077
-0.043505453 -0.02650748 -0.055093467 -0.11543 0.015868664 -0.06759528 -0.08624758 -0.026571032
-0.022547578 -0.068878934 -0.061538048 -0.18572162 -0.05742583 0.01844962 0.0010968863 -0.05714141
-0.09124959 -0.028396789 -0.073283024 -0.23055387 0.02238342 -0.013958552 0.003083222 0.034622826
00000000: af48 cabc 0d49 9fbb 9f50 0e3d b3f5 5cbd
00000010: fda4 c63c efc6 98bd 1a46 e6bc 5052 263d
00000020: e59d c43c 7b00 09be 9766 d1bb 3e7c 91bb
00000030: 1f3b 95bd a689 cb3d 4a1d 55bd 14d5 72bd
00000040: 41a2 a8bd 34a3 79bd 0cb5 50be c48d 5d3d
00000050: b749 a4bd e430 25bd 0ac4 243d 8975 483c
00000060: bad3 be3c ddf3 d53c e287 b6bd 9102 4cbd
00000070: 2f44 7abd 2459 c8bd 3ce3 9abd 1e8c 1abd
00000080: 8e79 0ebd 46da 59bd 08ea a8bc 647b e4bc
00000090: 7d7f 21bd 9c02 08bd a592 413b c4fa bf3b
000000a0: de75 51bd b4d6 17be 215d a2bd e2e7 94bd
000000b0: 6164 84bd 06f3 d8bd f2ae a93d 4b2c 7fbd
000000c0: d746 07bc 55a2 283c 2e42 b33b cd4b 82bd
000000d0: e514 2d3d 1279 8d3c a41b 87bd 6427 9abd
000000e0: 8918 153d 5a14 33bd 297a 9cbd 8fd0 54bd
000000f0: fb74 9fbc 2d2b 50bd 70af ca3b f5f4 013d
00000100: 69fc 2abd 7105 50bc 166a 10be 7f54 a2bc
00000110: 09ff e2bd 6c2a 5cbd 6c6a c9bd a1b6 dd3c
00000120: 8e0e cdbd 7f38 22bd 842b a0bd 645a 9bbd
00000130: 70c4 06bd 60fb 25bd d9ac f0bd 57e7 e9bc
00000140: ae18 c3bd 60e3 1ebd 7e1d 583c fd65 803b
00000150: 8dde 453c 8ec7 9dbd af3a 72bd d3cb c5bd
00000160: ebfa c9bb 5b17 05be b6cf c9bc f37b 39bd
00000170: c6e7 cabc 00c8 80bd 1e64 bcbd aa23 9cbd
00000180: 883b 57bc 41df 11be 34d4 87bd bc82 8fbd
00000190: 2148 2c3d 6b65 0bbd fd3b 6fbd 5ae6 853d
000001a0: c632 32bd 3726 d9bc b0a9 61bd 9066 ecbd
000001b0: 00ff 813c 656f 8abd 92a2 b0bd 7eab d9bc
000001c0: b3b5 b8bc 6610 8dbd 520f 7cbd cf2d 3ebe
000001d0: 5937 6bbd a823 973c 66c5 8f3a 1c0d 6abd
000001e0: 11e1 babd 62a0 e8bc 6915 96bd 5016 6cbe
000001f0: 6f5d b73c 69b2 64bc e20f 4a3b aad0 0d3d

network_body._body_endoder.seq_layers.2.weight f4 [128, 128]
-0.046884175 -0.087397106 -0.31421915 -0.09674859 0.019430643 0.0743542 0.09357722 -0.0027367866
-0.110360004 -0.1825255 0.13404442 0.05551171 0.008916173 -0.009173568 -0.021561477 0.17427997
-0.11743174 -0.097930774 0.029285531 -0.053654496 0.07396887 -0.06618883 -0.19709097 -0.035478048
-0.05695451 -0.15097514 -0.117781885 -0.079973094 -0.06196696 -0.12175844 0.030783143 -0.014440401
-0.005053701 0.27505887 0.18660675 0.15867995 -0.11212734 -0.03740478 0.073044285 -0.20446771
0.06183388 0.03693242 -0.032981068 -0.1759041 0.038381238 0.022664338 -0.17944445 0.01584309
-0.13849136 0.040075738 0.18745184 0.022832116 0.05825918 0.09945006 -0.036615916 -0.20701495
0.08096136 0.010027596 0.057079498 -0.035890922 0.077245116 -0.0020078546 -0.099398725 0.011774429
-0.05567979 0.11415747 0.005693246 -0.13723783 -0.025880622 -0.013759895 0.03024557 -0.26427624
0.025274346 -0.04519644 -0.03558682 0.0037542179 0.14912994 0.010486516 0.24473433 0.046901822
0.18891062 -0.1659198 0.06618052 -0.21407373 -0.071755394 -0.040112995 -0.12775974 0.18132772
-0.09569828 0.032806024 -0.14323562 -0.008323186 -0.13176793 -0.05632864 0.101877764 -0.015166502
-0.2836902 0.008290862 0.08211034 0.061447296 0.10132536 -0.06114355 0.023949465 0.0188781
-0.14410734 0.15413892 0.08049714 0.10599901 -0.11719212 -0.20216416 0.14257212 0.07789083
-0.04773857 -0.030668857 0.08665733 0.1350387 -0.119886994 -0.049537808 0.17128384 0.06173894
-0.07615656 -0.019574609 -0.021788958 -0.016624311 0.024838904 -0.13523121 -0.042816002 -0.09994725
-0.1193798 0.07673358 0.036978386 0.1311189 -0.13173538 -0.12770407 0.021873878 -0.13580899
0.14724131 0.16237226 0.0315711 -0.22806963 -0.024362512 0.1345897 -0.019432189 0.121921584
-0.04033731 -0.17772545 -0.054201636 0.08211127 -0.040545534 -0.13506669 6.808907e-05 -0.10670964
0.151479 -0.24566844 0.15078168 -0.17890757 0.073749125 -0.010433473 0.1515736 0.08598076
-0.0038057398 -0.03634242 -0.09023091 0.021357791 -0.19769214 0.15989731 0.11847458 -0.05758188
0.12127029 -0.16546553 0.03320898 -0.12844215 -0.065471604 -0.12147413 -0.16965897 0.06666449
-0.1478721 -0.010005907 -0.19902244 -0.10988641 0.06726923 -0.0289676 0.025367895 -0.072818086
-0.12880184 -0.04407956 -0.1248704 -0.2029803 -0.019126115 0.002258089 -0.19386372 0.04553373
-0.09022088 0.008096286 -0.14247978 0.0071597476 -0.047450263 0.092027545 0.042503785 0.024810288
0.029505169 0.10676991 -0.05486878 -0.06549693 0.06856216 -0.03874811 0.17399414 -0.38619936
-0.015260106 -0.14975029 -0.0647655 0.01370753 0.056491382 0.01977904 -0.084688015 0.15797284
-0.044040043 -0.12552387 -0.10717981 0.11291926 -0.07426467 -0.10319814 -0.11450089 -0.11702907
-0.05950372 -0.10979394 0.051005833 -0.045128454 0.13376658 -0.0202964 -0.09981026 -0.043843526
0.007040014 -0.041606255 0.039492246 -0.050704975 -0.04387077 -0.36993867 -0.067008615 0.081729986
0.018722754 -0.13295642 -0.17149585 -0.06542203 -0.0898445 0.08167697 0.107931405 0.15972057
-0.10468051 -0.1711519 0.06829825 -0.09697777 -0.033773318 -0.09247107 -0.116342776 -0.0015716738
00000000: 9f09 40bd 41fd b2bd 55e1 a0be 2024 c6bd
00000010: 032d 9f3c 0447 983d 6aa5 bf3d a95b 33bb
00000020: 6d04 e2bd f7e7 3abe f142 093e 3f60 633d
00000030: 2415 123c bc4c 16bc b2a1 b0bc 7376 323e
00000040: 0d80 f0bd ee8f c8bd 36e8 ef3c d1c4 5bbd
00000050: fe7c 973d 028e 87bd 37d2 49be 6e51 11bd
00000060: 2249 69bd 3a99 1abe a137 f1bd efc8 a3bd
00000070: 11d1 7dbd 7d5c f9bd ee2c fc3c 6f97 6cbc
00000080: 8499 a5bb 84d4 8c3e d715 3f3e ff7c 223e
00000090: 05a3 e5bd c135 19bd 3e98 953d fc5f 51be
000000a0: 8645 7d3d 7346 173d 2817 07bd 3420 34be
000000b0: a535 1d3d 90aa b93c 49c0 37be 5ec9 813c
000000c0: aed0 0dbe 7526 243d 60f3 3f3e 6b0a bb3c
000000d0: 2ea1 6e3d 79ac cb3d 92fa 15bd bafb 53be
000000e0: 12cf a53d c94a 243c 31cc 693d 5c02 13bd
000000f0: b032 9e3d 3696 03bb 8f91 cbbd 89e9 403c
00000100: 7e10 64bd 64cb e93d 698e ba3b 1388 0cbe
00000110: 9903 d4bc 2f71 61bc 8fc5 f73c 374f 87be
00000120: 250c cf3c e71f 39bd 7cc3 11bd 5309 763b
00000130: 85b5 183e a3cf 2b3c a39b 7a3e 201c 403d
00000140: c971 413e e1e6 29be a789 873d 2536 5bbe
00000150: 7ef4 92bd 864d 24bd 73d3 02be f9ad 393e
00000160: 76fd c3bd 9c5f 063d 5cac 12be f95d 08bc
00000170: 2cee 06be dcb8 66bd 4aa5 d03d ec7c 78bc
00000180: d83f 91be 65d6 073c 7729 a83d 29b0 7b3d
00000190: ac83 cf3d a971 7abd ab31 c43c 3fa6 9a3c
000001a0: e090 13be 98d6 1d3e afdb a43d 0216 d93d
000001b0: 6c02 f0bd 1f04 4fbe 6dfe 113e 3a85 9f3d
000001c0: 8589 43bd 413d fbbc 6679 b13d 9647 0a3e
000001d0: 5087 f5bd 28e8 4abd 0865 2f3e f9e1 7c3d
000001e0: f8f7 9bbd ee5a a0bc c27e b2bc b52f 88bc
000001f0: f57a cb3c 0d7a 0abe d55f 2fbd 25b1 ccbd
00000200: 667d f4bd 7f26 9d3d a676 173d 0844 063e
00000210: a4e5 06be dbc4 02be d930 b33c 8311 0bbe
00000220: 6dc6 163e ea44 263e b350 013d 168b 69be
00000230: e493 c7bc e2d1 093e 4130 9fbc 06b2 f93d
00000240: bc38 25bd a9fd 35be 8902 5ebd f429 a83d
00000250: 1313 26bd ec4e 0abe 0bcb 8e38 958a dabd
00000260: 501d 1b3e 8290 7bbe 8366 1a3e 8c33 37be
00000270: c809 973d 28f1 2abc 1c36 1b3e ae16 b03d
00000280: b869 79bb cadb 14bd fcca b8bd 89f6 ae3c
00000290: cf6f 4abe 1fbc 233e cda2 f23d fada 6bbd
000002a0: 8f5c f83d cc6f 29be 2406 083d 5786 03be
000002b0: fa15 86bd 6ec7 f8bd 15bb 2dbe 6487 883d
000002c0: c96b 17be d1ef 23bc 8acc 4bbe 200c e1bd
000002d0: 73c4 893d 764d edbc 55d0 cf3c a621 95bd
000002e0: a1e4 03be c58c 34bd 0dbc ffbd 11da 4fbe
000002f0: 5fae 9cbc 72fc 133b 3684 46be 9481 3a3d
00000300: bac5 b8bd 49a6 043c 38e6 11be 519c ea3b
00000310: 355b 42bd f078 bc3d 7318 2e3d f23e cb3c
00000320: d3b4 f13c 2faa da3d 16be 60bd 4123 86bd
00000330: 516a 8c3d 57b6 1ebd 852b 323e ecbb c5be
00000340: 8605 7abc 2458 19be c6a3 84bd 8c95 603c
00000350: 8263 673d a707 a23c e970 adbd a2c3 213e
00000360: 5563 34bd 5489 00be 1781 dbbd 3742 e73d
00000370: 1318 98bd 8c59 d3bd 717f eabd f0ac efbd
00000380: 2cba 73bd a5db e0bd 7eeb 503d 9dd8 38bd
00000390: 1bfa 083e a344 a6bc 5269 ccbd 4595 33bd
000003a0: ebaf e63b 526b 2abd 9fc2 213d 05b0 4fbd
000003b0: d6b1 33bd 9a68 bdbe d03b 89bd 0d62 a73d
000003c0: 7660 993c ba25 08be 9c9c 2fbe fcfb 85bd
000003d0: 6500 b8bd 4146 a73d 240b dd3d ca8d 233e
000003e0: bc62 d6bd 7242 2fbe f4df 8b3d 489c c6bd
000003f0: e455 0abd 7961 bdbd 1f45 eebd 9f00 ceba

network_body._body_endoder.seq_layers.2.bias f4 [128]
-0.042692035 -0.084409654 -0.17289914 -0.06937426 -0.124968104 -0.019763093 -0.12161909 -0.09252803
-0.23523869 -0.055362567 -0.17268324 -0.16678938 -0.05188374 -0.15227243 -0.16198944 -0.12845011
-0.09374809 -0.022188427 -0.07858779 -0.0017384366 -0.08346952 -0.014119477 -0.0012049202 0.040655483
-0.16206238 -0.15618211 -0.026907044 -0.115995474 -0.14106482 -0.105810255 -0.038573314 -0.17073457
-0.028122036 -0.13859878 -0.07403644 -0.016948873 -0.079842955 -0.19341606 -0.16961186 -0.15381311
0.008775179 -0.063050635 0.0013165028 -0.16346256 -0.06264284 -0.033404924 -0.11508264 -0.19451948
-0.13634163 -0.0016863637 -0.052358188 -0.017517226 -0.14648089 -0.13592617 -0.117225155 -0.029506525
-0.060820363 -0.10870385 -0.03390423 -0.0832552 -0.06749207 -0.21906793 -0.1338961 -0.034220316
-0.14450215 -0.1759008 -0.12015853 -0.16085473 -0.01559275 -0.044370156 -0.047226653 -0.07118639
-0.01823822 -0.012867599 -0.057118036 -0.006048995 -0.0024079117 0.013795361 -0.14685383 -0.03658583
-0.12474187 -0.07752331 0.008583543 0.007049659 -0.13085097 -0.04765203 -0.034478698 -0.13519232
-0.028975364 0.004375436 -0.17594257 -0.08602878 -0.08965707 0.0006496635 -0.055381317 -0.15794474
-0.009684356 0.046337318 -0.0438906 -0.12569185 -0.14687827 -0.035262473 -0.044527553 -0.19588964
-0.066583015 -0.13293335 -0.11867296 -0.0364559 -0.04018309 -0.03630464 0.024480993 -0.11726143
-0.055485252 -0.15110095 -0.029598366 -0.051110834 -0.0018091708 -0.06723584 0.011933002 -0.006624277
-0.06925533 -0.04989878 0.0032236094 -0.085716434 -0.18321839 -0.0014271091 -0.07335725 -0.10301253
00000000: d8dd 2ebd f8de acbd 790c 31be 1814 8ebd
00000010: 47ef ffbd 36e6 a1bc 6e13 f9bd 567f bdbd
00000020: 69e2 70be dcc3 62bd e0d3 30be d6ca 2abe
00000030: 0b84 54bd 4eed 1bbe 8fe0 25be 6d88 03be
00000040: 00ff bfbd 81c4 b5bc a3f2 a0bd 41dc e3ba
00000050: 11f2 aabd 6155 67bc 6aee 9dba 5d86 263d
00000060: aef3 25be 34ee 1fbe 296c dcbc 098f edbd
00000070: 4c73 10be 0cb3 d8bd 0dff 1dbd 0bd5 2ebe
00000080: 2f60 e6bc d7ec 0dbe 6ba0 97bd 5dd8 8abc
00000090: b484 a3bd dc0e 46be bbae 2dbe 2f81 1dbe
000000a0: c5c5 0f3c b120 81bd 818e ac3a bb62 27be
000000b0: e44a 80bd 9ad3 08bd 72b0 ebbd 1d30 47be
000000c0: 249d 0bbe fa08 ddba 8a75 56bd 4980 8fbc
000000d0: 16ff 15be 3b30 0bbe be13 f0bd abb7 f1bc
000000e0: c61e 79bd 20a0 debd 29df 0abd b481 aabd
000000f0: 4839 8abd 5853 60be 0f1c 09be 9a2a 0cbd
00000100: 5ff8 13be 571f 34be ad15 f6bd 1ab7 24be
00000110: bc78 7fbc 7bbd 35bd bc70 41bd 2cca 91bd
00000120: 5268 95bc 9fd2 52bc 9af4 69bd a636 c6bb
00000130: 0ece 1dbb f005 623c da60 16be 06db 15bd
00000140: aa78 ffbd 8bc4 9ebd fda1 0c3c d300 e73b
00000150: ccfd 05be c62e 43bd 8939 0dbd db6f 0abe
00000160: be5d edbc d15f 8f3b 4a2a 34be db2f b0bd
00000170: 209e b7bd 2e4e 2a3a 85d7 62bd 44bc 21be
00000180: 22ab 1ebc 33cc 3d3d a1c6 33bd 5db5 00be
00000190: 4267 16be 626f 10bd 8662 36bd 4b97 48be
000001a0: ad5c 88bd ae1f 08be cf0a f3bd c852 15bd
000001b0: 0697 24bd 2db4 14bd 5d8c c83c c326 f0bd
000001c0: 8144 63bd 35ba 1abe 4678 f2bc 9859 51bd
000001d0: b321 edba f2b2 89bd a382 433c 7710 d9bb
000001e0: bdd5 8dbd aa62 4cbd 3143 533b 198c afbd
000001f0: 9a9d 3bbe d60d bbba 533c 96bd 3cf8 d2bd

action_model._continuous_distribution.log_sigma f4 [1, 2]
-0.10799159 -0.17737249
00000000: b22a ddbd 22a1 35be

action_model._continuous_distribution.mu.weight f4 [2, 128]
-0.021792423 0.013403607 0.008455956 -0.02714392 -0.028424181 -0.07042457 -0.019254714 -0.0016382111
0.004019501 -0.091343835 0.023086546 0.03319248 0.04020908 -0.009342137 -0.014605858 0.024090752
0.023493294 -0.072227165 0.005422484 0.006791334 -0.063793205 0.012621463 -0.035012107 0.015492551
0.0026358583 -0.01031703 -0.02506485 0.0031429504 0.0015989312 -0.030605847 -0.004306131 -0.012990142
-0.04150541 0.04303283 0.04361554 -0.06330519 -0.009541534 0.0011269362 0.010819146 0.011091107
0.029943673 0.008846042 -0.008329443 0.015577788 0.009411078 -0.020430665 -0.013075924 -0.01896645
-0.038110185 0.030146794 0.003964997 -0.0032803146 0.000994353 -0.008295646 0.005431272 -0.037862524
-0.02533465 -0.03236845 0.0053288587 0.0052680676 -0.057836816 0.004870873 0.002566534 0.050589275
-0.02311752 0.0143769 -0.0045085195 -0.017209938 -0.02904951 -0.05980363 -0.009485702 -0.033940595
0.029209388 -0.094714805 -0.053491842 -0.047266565 -0.0012874064 0.06796635 -0.025731133 -0.052911803
-0.025785716 0.03575907 -0.031244671 0.05050402 -0.028562995 -0.015200973 -0.08642574 -0.043315988
-0.05119893 0.04432618 0.0040021823 0.022295315 0.0027762654 0.065308034 -0.03572887 -0.016235152
-0.021354927 -0.04242877 -0.01442499 0.06533464 0.01969634 -0.0059833857 -0.06245169 0.020932466
-0.057164304 0.027544767 -0.017037256 0.011844786 -0.08221317 -0.012164702 -0.012646497 0.020334577
-0.06358323 -0.008497815 -0.0076526613 -0.057230704 -0.0036610954 0.02511671 0.080273554 -0.06757787
-0.0010199096 -0.035147406 0.038070086 0.049945857 -0.013531878 0.031646688 0.016929412 0.044031586
-0.034322213 0.026027905 -0.010632093 -0.027845835 -0.043843362 0.06787138 -0.031654656 -0.02155892
-0.014901241 0.029554855 -0.034812324 -0.009967646 -0.003864363 -0.025190484 0.004743446 -0.009158374
-0.023243625 0.0889285 0.0024483805 -0.016576575 -0.04700852 -0.03992697 -0.0054193893 0.12316481
-0.015479884 0.0022500749 -0.057685446 -0.01723367 0.0056493483 -0.026203098 -0.049211085 -0.017595151
0.032921854 0.003717721 -0.03334449 -0.023116086 -0.008863766 -0.008392517 -0.019585997 -0.012514861
-0.052083403 -0.035383277 0.060303073 -0.025094233 -0.017138746 0.020493388 -0.010349711 -0.028080586
-0.018887358 -0.011432196 -0.03742868 -0.030872066 -0.02188005 -0.05310893 0.041424207 -0.03314828
0.0057235197 0.024482327 -0.050165735 0.038701594 -0.026139438 -0.012580937 -0.02481012 -0.014674382
0.035059858 -0.024158113 -0.04504226 0.007986426 0.017054783 -0.04360739 -0.039865047 0.04290347
-0.0677883 0.070792094 0.005212373 0.017817125 0.0013910702 0.028395774 -0.0065643657 0.06391215
0.009446378 0.050635304 0.023842236 -0.010292025 -0.032229718 -0.019887326 -0.066794686 -0.006300531
0.08129757 -0.027135862 -0.01131502 0.0182712 -0.0014312445 0.03840861 0.02899113 -0.015987387
-0.03093336 0.046482783 -0.050979283 0.0038407838 -0.039173145 0.009528982 -0.014849016 -0.023739934
-0.0062902197 -2.2186223e-05 -0.01748792 -0.04461946 -0.04665044 0.03441272 0.08171451 -0.01141001
0.0027132076 0.007988166 -0.020833392 -0.028572364 -0.04809111 0.03192323 -0.017313585 0.004802751
-0.01533478 0.025678135 -0.03253082 0.02388584 0.019489346 -0.025554612 0.029594306 -0.019437334
00000000: 0686 b2bc cd9a 5b3c da8a 0a3c ed5c debc
00000010: d4d9 e8bc c23a 90bd 10bc 9dbc 3eb9 d6ba
00000020: 05b6 833b 7a12 bbbd ff1f bd3c d7f4 073d
00000030: 47b2 243d c30f 19bc 694d 6fbc f859 c53c
00000040: 0275 c03c d6eb 93bd 18af b13b d789 de3b
00000050: 03a6 82bd 41ca 4e3c db68 0fbd 78d4 7d3c
00000060: 5dbe 2c3b c308 29bc cd54 cdbc f5f9 4d3b
00000070: 3a93 d13a 1db9 fabc 721a 8dbb 9bd4 54bc
00000080: 9401 2abd 3143 303d 35a6 323d 27a6 81bd
00000090: 1854 1cbc b4b5 933a ca42 313c 79b7 353c
000000a0: 6f4c f53c fdee 103c 3778 08bc fb39 7f3c
000000b0: ec30 1a3c 365e a7bc 663c 56bc 875f 9bbc
000000c0: 6d19 1cbd 69f6 f63c ceec 813b 8cfa 56bb
000000d0: f354 823a 76ea 07bc d0f8 b13b bc15 1bbd
000000e0: 9d8a cfbc c894 04bd b59d ae3b c19f ac3b
000000f0: 4ce6 6cbd d89b 9f3b 4c33 283b b336 4f3d
00000100: f460 bdbc 178d 6b3c 34bc 93bb dbfb 8cbc
00000110: 3df9 edbc a7f4 74bd eb69 1bbc 4b05 0bbd
00000120: 8748 ef3c d6f9 c1bd 431a 5bbd 969a 41bd
00000130: 31be a8ba f131 8b3d 19ca d2bc 0cba 58bd
00000140: 913c d3bc 1a78 123d d3f4 ffbc 4edd 4e3d
00000150: f1fc e9bc 800d 79bc faff b0bd 1b6c 31bd
00000160: f8b5 51bd 5e8f 353d bd24 833b aaa4 b63c
00000170: 01f2 353b 38c0 853d 7058 12bd 95ff 84bc
00000180: 87f0 aebc cac9 2dbd cb56 6cbc 2bce 853d
00000190: 385a a13c 4710 c4bb 58cd 7fbd 907a ab3c
000001a0: 1e25 6abd 90a5 e13c b791 8bbc a210 423c
000001b0: 615f a8bd 754e 47bc 4133 4fbc b394 a63c
000001c0: ed37 82bd 6b3a 0bbc 2dc3 fabb be6a 6abd
000001d0: fdee 6fbb 8fc1 cd3c 7666 a43d 4466 8abd
000001e0: 7dae 85ba baf6 0fbd 61ef 1b3d 0794 4c3d
000001f0: cfb4 5dbc f59f 013d 8daf 8a3c 775a 343d
00000200: 7395 0cbd 7938 d53c 3b32 2ebc f31c e4bc
00000210: 1995 33bd 2600 8b3d 50a8 01bd 559c b0bc
00000220: 5624 74bc 061d f23c 5e97 0ebd 564f 23bc
00000230: 4141 7dbb 465c cebc e96e 9b3b 010d 16bc
00000240: 6a69 bebc 2520 b63d 0275 203b 99cb 87bc
00000250: 028c 40bd 768a 23bd 2295 b1bb d53d fc3d
00000260: 579f 7dbc fe75 133b 9347 6cbd a02d 8dbc
00000270: 2b1e b93b e1a7 d6bc 9091 49bd b523 90bc
00000280: 11d9 063d 02a5 733b 3b94 08bd f25d bdbc
00000290: 5439 11bc c580 09bc d072 a0bc 220b 4dbc
000002a0: 6855 55bd 0eee 10bd 5b00 773d 6c92 cdbc
000002b0: 8e66 8cbc c0e1 a73c d691 29bc 4209 e6bc
000002c0: a9b9 9abc 1b4e 3bbc d14e 19bd 6ae7 fcbc
000002d0: ca3d b3bc c088 59bd 6eac 293d 7ec6 07bd
000002e0: 5d8c bb3b 298f c83c 967a 4dbd 9085 1e3d
000002f0: 6022 d6bc 4620 4ebc 983e cbbc d26c 70bc
00000300: ed9a 0f3d 3ce7 c5bc 3c7e 38bd 80d9 023c
00000310: 79b6 8b3c aa9d 32bd 8849 23bd 8dbb 2f3d
00000320: 98d4 8abd 72fb 903d 8ecc aa3b 38f5 913c
00000330: 9254 b63a 419e e83c e419 d7bb 60e4 823d
00000340: fbc4 1a3c f766 4f3d cb50 c33c e29f 28bc
00000350: 4f03 04bd bfea a2bc a7cb 88bd af74 cebb
00000360: 577f a63d 074c debc a262 39bc 7cad 953c
00000370: 9998 bbba 5952 1d3d ce7e ed3c fbf7 82bc
00000380: f567 fdbc bb64 3e3d a7cf 50bd a9b5 7b3b
00000390: 0574 20bd 731f 1c3c 4a49 73bc 407a c2bc
000003a0: 301e cebb 8d1c bab7 d442 8fbc e5c2 36bd
000003b0: 8814 3fbd 5af4 0c3d f059 a73d 0df1 3abc
000003c0: 12d0 313b cce0 023c caaa aabc 9710 eabc
000003d0: 2ffb 44bd efc1 023d 38d5 8dbc 6560 9d3b
000003e0: bb3e 7bbc f45a d23c 0a3f 05bd 3dac c33c
000003f0: 1fa8 9f3c e857 d1bc c26f f23c 0b3b 9fbc

action_model._continuous_distribution.mu.bias f4 [2]
-0.015593059 -0.010009537
00000000: 087a 7fbc 0bff 23bc

exp_avg f4 [128, 6]
0.00066618 0.00066367147 -0.00024254608 0.00031832833 0.00066367164 -0.00012820947 0.00035251796 0.0003111263
8.248033e-05 -0.0001178494 0.00031112615 0.0006735344 -5.475579e-05 -7.783572e-05 -7.774317e-05 -9.3225855e-05
-7.7835866e-05 3.429638e-05 -0.00037809293 -0.00034859835 4.1142648e-05 -0.00011791725 -0.00034859835 -3.5371468e-06
0.0029984356 0.0030516214 -0.0010903218 0.0018320931 0.003051622 -0.0008836793 0.0075572156 0.009009513
-0.0015488272 0.0058723413 0.009009514 -0.0022407246 0.00047470548 0.0005417926 -2.976221e-05 0.00033917837
0.0005417927 -0.0001930749 0.0056085 0.005629585 -0.0007470249 0.0035235425 0.0056295865 -0.0030024422
0.0014852686 0.0017166857 0.0002817147 0.0011953616 0.0017166862 -0.0014450286 -0.003744626 -0.0042013167
0.000574243 -0.003341594 -0.004201317 0.0021945667 0.001333061 0.0021080805 0.00012894608 0.00039286635
0.0021080808 0.0013728236 -0.005656641 -0.009025411 0.00249661 -0.00499589 -0.009025413 -0.00025552715
0.0001641642 8.49584e-05 -5.6501452e-05 0.00014805335 8.4958454e-05 -0.00035081245 -5.5857163e-06 -9.785944e-05
-4.1914454e-06 -2.4997189e-05 -9.7859556e-05 -8.9688205e-05 -0.00017464832 -0.00012099839 1.6163092e-05 -0.00015144167
-0.00012099834 0.00024365103 0.00030292632 0.00025088183 1.2605766e-05 0.00015855776 0.00025088177 -0.00013587314
8.188824e-05 0.00013713508 -4.8931528e-05 8.071607e-05 0.00013713483 0.00018278214 -9.1582456e-07 -8.109371e-07
-6.336745e-07 -2.455837e-07 -8.1100035e-07 -5.31535e-07 -0.00021783677 -0.00027844464 5.8523387e-05 -0.0001758089
-0.0002784447 5.5607135e-05 5.993537e-05 -2.4477366e-05 -2.5056313e-05 1.3455223e-05 -2.4477271e-05 -0.00016981522
0.004092304 0.0023360685 0.00010819535 0.0025437716 0.0023360704 -0.00495309 -0.001374251 -0.00083462446
0.0004672784 -0.0005460452 -0.00083462487 0.0008383306 -5.3932516e-05 0.00073752744 -0.00047661675 0.0006245932
0.00073752744 -0.0002788956 -0.0018627115 -0.00040198292 -0.0010447649 -0.00066644716 -0.00040198385 0.0010734422
-0.0054556695 -0.0062208315 0.0020587384 -0.0045169154 -0.0062208325 0.0025545845 -0.0031649966 -0.0035637848
0.00073548756 -0.0017875563 -0.0035637855 0.00029478033 -0.00022586544 -0.000257862 7.6196266e-05 -0.0001689643
-0.00025786227 4.0582716e-05 0.0038508219 0.004164812 -0.00059980864 0.0028843381 0.0041648126 -0.0007004909
0.0012464239 0.0024211966 -0.0006422313 0.0014891899 0.0024211966 -0.00042164835 -0.0028367909 -0.0032407646
0.001313379 -0.001978197 -0.0032407646 0.00036288617 9.594925e-05 0.00010061843 -8.093198e-07 6.463776e-05
0.000100618505 -3.289269e-05 -0.0019709931 -0.0032690745 0.0010040682 -0.0024055531 -0.0032690738 8.356257e-05
-0.00030119735 0.00030837214 -0.00040154657 0.00037992728 0.00030837167 0.0004889266 -0.002179298 -0.0023855213
0.00070363685 -0.0020087478 -0.0023855218 0.0017341106 -0.006434403 -0.006764077 0.0017965628 -0.005904929
-0.0067640785 0.0053022895 -0.0023501927 -0.003173936 -4.177606e-05 -0.0017920238 -0.003173936 0.00016225888
0.005790559 0.005132036 -0.0007181214 0.004949521 0.0051320377 -0.0046458067 0.0065119704 0.008971665
-0.0018638565 0.004979389 0.008971667 -0.00019236158 -0.0054007447 -0.0061679264 0.0017830589 -0.004356816
-0.0061679278 0.0028772464 0.009979578 0.013345227 -0.003981362 0.008934157 0.013345229 -0.0033755642
-4.995163e-05 -7.531118e-05 0.00010151359 -0.00010145492 -7.531115e-05 0.00022331852 0.0012778743 0.0009879183
0.00012688506 0.0008673181 0.0009879188 8.8747445e-05 0.0001533839 0.00025745085 -9.799542e-05 0.0001802161
00000000: 95a2 2e3a 3dfa 2d3a f853 7eb9 4ee5 a639
00000010: 40fa 2d3a f86f 06b9 29d2 b839 aa1e a339
00000020: 4af9 ac38 ea25 f7b8 a51e a339 2190 303a
00000030: 95a9 65b8 bc3b a3b8 0c0a a3b8 4082 c3b8
00000040: d03b a3b8 75d9 0f38 c63a c6b9 14c4 b6b9
00000050: 9590 2c38 574a f7b8 14c4 b6b9 b85f 6db6
00000060: 6781 443b b6fd 473b 21e9 8eba d822 f03a
00000070: b9fd 473b b7a6 67ba 85a2 f73b a39c 133c
00000080: 0402 cbba c56c c03b a49c 133c 1fd9 12bb
00000090: e4e1 f839 1607 0e3a dca9 f9b7 c0d3 b139
000000a0: 1807 0e3a 2674 4ab9 82c7 b73b 6278 b83b
000000b0: fed3 43ba 3ceb 663b 6578 b83b 9fc4 44bb
000000c0: 58ad c23a 6a02 e13a 1bb3 9339 aead 9c3a
000000d0: 6e02 e13a 1d67 bdba 6668 75bb 33ab 89bb
000000e0: cc88 163a a5fe 5abb 34ab 89bb b8d2 0f3b
000000f0: 1bba ae3a b927 0a3b b335 0739 a1f9 cd39
00000100: ba27 0a3b 51f0 b33a 585b b9bb 51df 13bc
00000110: 2a9e 233b 90b4 a3bb 53df 13bc 46f8 85b9
00000120: 7e23 2c39 b22b b238 f9fb 6cb8 c53e 1b39
00000130: b92b b238 40ed b7b9 f06c bbb6 e339 cdb8
00000140: 3ea4 8cb6 0eb1 d1b7 f339 cdb8 fd16 bcb8
00000150: cd21 37b9 84c0 fdb8 fa95 8737 50cc 1eb9
00000160: 7dc0 fdb8 937c 7f39 15d2 9e39 ca88 8339
00000170: 5a7d 5337 8642 2639 c888 8339 2b79 0eb9
00000180: 6abb ab38 ebcb 0f39 d43b 4db8 1c46 a938
00000190: dacb 0f39 35a9 3f39 fcd6 75b5 2caf 59b5
000001a0: c819 2ab5 c4d8 83b4 85b3 59b5 cfae 0eb5
000001b0: 1d6b 64b9 35fc 91b9 0277 7538 5859 38b9
000001c0: 37fc 91b9 b53b 6938 1d63 7b38 be54 cdb7
000001d0: 0630 d2b7 bebd 6137 8a54 cdb7 6d10 32b9
000001e0: bc18 863b ba18 193b f0e6 e238 68b5 263b
000001f0: c218 193b 884d a2bb 3620 b4ba b3ca 5aba
00000200: 0cfd f439 7924 0fba baca 5aba 6ac3 5b3a
00000210: 9935 62b8 a156 413a 6be2 f9b9 bdbb 233a
00000220: a156 413a bc38 92b9 3a26 f4ba 3cc1 d2b9
00000230: 7ef0 88ba 83b4 2eba 5cc1 d2b9 beb2 8c3a
00000240: 79c5 b2bb 1ed8 cbbb e6eb 063b a202 94bb
00000250: 20d8 cbbb d16a 273b d56b 4fbb 638e 69bb
00000260: bccd 403a 704c eaba 668e 69bb bf8c 9a39
00000270: 4bd6 6cb9 a731 87b9 8fcb 9f38 022c 31b9
00000280: b031 87b9 5c37 2a38 125e 7c3b fa78 883b
00000290: 7a3c 1dba 2a07 3d3b fb78 883b 26a1 37ba
000002a0: 0c5f a33a f0ac 1e3b 6a5b 28ba ec30 c33a
000002b0: f0ac 1e3b af10 ddb9 74e9 39bb 0263 54bb
000002c0: b025 ac3a a3a4 01bb 0263 54bb c241 be39
000002d0: 5d38 c938 1c03 d338 0840 59b5 228e 8738
000002e0: 2603 d338 42f6 09b8 c72b 01bb f83d 56bb
000002f0: f09a 833a 7ca6 1dbb f53d 56bb 503e af38
00000300: 06ea 9db9 02ad a139 ab86 d2b9 fa30 c739
00000310: f2ac a139 4f2b 003a 8ed2 0ebb 6856 1cbb
00000320: 4574 383a 32a5 03bb 6a56 1cbb 194b e33a
00000330: afd7 d2bb 31a5 ddbb a57a eb3a 227e c1bb
00000340: 34a5 ddbb d4be ad3b b105 1abb cf01 50bb
00000350: b438 2fb8 57e2 eaba cf01 50bb 0924 2a39
00000360: bbbe bd3b a32a a83b 5040 3cba 972f a23b
00000370: a72a a83b da3b 98bb 5e62 d53b e4fd 123c
00000380: a54c f4ba 242a a33b e6fd 123c abb4 49b9
00000390: bbf8 b0bb 511c cabb 87b5 e93a 9fc3 8ebb
000003a0: 541c cabb 2f90 3c3b 6281 233c f0a5 5a3c
000003b0: 1676 82bb 9260 123c f3a5 5a3c 9238 5dbb
000003c0: 2883 51b8 62f0 9db8 b2e3 d438 32c4 d4b8
000003d0: 5ef0 9db8 9c2a 6a39 597e a73a 0a7d 813a
000003e0: 730c 0539 bb5c 633a 0e7d 813a ec1d ba38
000003f0: add5 2039 78fa 8639 e482 cdb8 64f8 3c39

exp_avg_sq f4 [128, 6]
0.00025671374 16.827124 0.0005141342 0.00029815 18.550589 0.000436655 0.001262884 596.7572
0.0018111671 0.003738992 585.6631 0.005380659 0.00084025564 450.04718 0.0012562359 0.0028535316
442.30048 0.0040687625 3.1050917e-05 3.6907255e-05 5.0715415e-05 8.859043e-05 5.8207507 0.00016853822
0.0005702616 160.95036 0.0008227671 0.0010040319 151.58278 0.001457893 0.000109431705 0.00012557874
9.149908e-05 9.5691365e-05 0.00012557722 8.78431e-05 2.6234742e-05 5.8886322e-05 7.043143e-05 9.764598e-05
2.592259 0.00012375157 0.00010209813 0.0008461829 2.1390024e-05 4.3791995e-05 5.9343147e-05 3.8134694e-05
0.00031035044 100.36143 0.00028526803 0.0006470234 97.55962 0.0009108271 6.515125e-05 0.00018122923
7.376219e-05 6.869401e-05 9.970205e-05 7.624931e-05 4.4132074e-05 9.0175774e-05 4.992704e-05 0.00013336643
4.971899 0.00015345826 0.0038154295 2110.9646 0.005077216 0.01386787 2112.562 0.019480385
9.042726e-05 50.00895 0.00016939308 0.0004636148 58.345276 0.00065289787 0.0006128869 341.70267
0.00096781104 0.0021772736 334.49884 0.0030752786 0.0001935069 115.936 0.00031139766 0.0008771273
122.79949 0.0012493365 0.00032261957 172.52765 0.0007119671 0.0010733475 148.19206 0.0014521807
0.00097564346 582.4205 0.0017589453 0.003985202 568.0373 0.0055091926 0.00014860768 84.33673
0.00025657128 0.00055125525 79.97977 0.0007630723 6.7492176e-05 25.310806 0.00012024424 0.00017813891
24.882977 0.00025843835 6.134968e-05 8.059842 0.00017143793 1.7117687e-05 5.5014407e-05 2.2923256e-05
0.0007651982 235.33318 0.00075499166 0.0017773932 238.45384 0.0023456353 0.00053405814 193.31915
0.0007279686 0.0011899393 190.17351 0.001717924 0.00028862437 193.30922 0.0004902824 0.0014727126
200.82951 0.0020065487 0.00036331764 37.111603 0.0007620012 0.00019753982 0.000202892 0.0001744038
0.00030703007 68.72591 0.00048231016 0.00068071723 66.337685 0.0008327757 0.00039735937 36.977036
0.0007358137 0.00012256259 0.00016759739 0.00015393198 0.0005765367 307.90805 0.0009707879 0.0020076889
293.44 0.0027813737 5.413773e-05 6.475595e-05 2.3619043e-05 7.5747485e-05 6.567677e-05 4.6211084e-05
3.107893e-05 5.1815827e-05 3.9124843e-05 6.150252e-05 0.12586755 5.2278345e-05 0.00025134702 89.064384
0.00030101664 0.0006729923 86.67611 0.000875033 0.00015434854 70.1153 0.0002861388 0.00065282325
80.34142 0.00093113683 0.00014156074 19.439684 0.00022018523 0.00015825543 13.203566 0.00019130937
0.0002394086 112.45015 0.0003042395 0.00076984806 113.62031 0.0010728335 0.00032449892 154.10133
0.00042537283 0.0010869998 156.47246 0.0015334864 0.00046202337 321.9091 0.0007389886 0.0024382574
324.61502 0.0032704398 0.00041799972 323.52505 0.00070079963 0.0023130532 323.70245 0.0031254871
0.00026398076 0.00028311103 0.00013847063 0.0002239853 0.00030858078 0.00016499404 0.0001754319 0.00029110748
0.00012651431 0.0003343078 0.00029126304 0.00032351806 0.00066925376 322.41922 0.0010394106 0.0020203495
305.7955 0.0028657913 0.00026829354 0.0004291109 0.00018100103 0.00043340895 0.00042934186 0.00030204083
6.443199e-06 1.650335e-05 1.3917053e-05 4.2842614e-05 1.5547456 5.709947e-05 7.076148e-05 9.149273e-05
6.222794e-05 7.0712354e-05 1.1361126 6.483062e-05 0.000326247 112.27429 0.00049699226 0.0006584039
00000000: 8997 8639 f39d 8641 f6c6 063a 0451 9c39
00000010: 9b67 9441 d8ee e439 5b87 a53a 7630 1544
00000020: af64 ed3a e009 753b 706a 1244 3d50 b03b
00000030: 9a44 5c3a 0a06 e143 48a8 a43a 5102 3b3b
00000040: 7626 dd43 4153 853b ab3c 0238 ddcc 1a38
00000050: 43b7 5438 a0c9 b938 9743 ba40 a2b9 3039
00000060: 9c7d 153a 4bf3 2043 f7ae 573a b899 833a
00000070: 3195 1743 c616 bf3a b37e e538 c9ad 0339
00000080: 32e3 bf38 e9ad c838 61ad 0339 6838 b838
00000090: ae12 dc37 b5fc 7638 96b4 9338 49c7 cc38
000000a0: 92e7 2540 4fc3 0139 841d d638 60d2 5d3a
000000b0: ba6e b337 4cad 3738 38e7 7838 d1f2 1f38
000000c0: 88b6 a239 0db9 c842 0790 9539 019d 293a
000000d0: 871e c342 92c4 6e3a d0a1 8838 5a08 3e39
000000e0: c6b0 9a38 d10f 9038 2117 d138 09e8 9f38
000000f0: 741a 3938 c01c bd38 c068 5138 47d8 0b39
00000100: cc19 9f40 a3e9 2039 490c 7a3b 6fef 0345
00000110: c65e a63b 1036 633c fe08 0445 5495 9f3c
00000120: c4a3 bd38 2a09 4842 1c9f 3139 5311 f339
00000130: 9061 6942 3c27 2b3a 25aa 203a f1d9 aa43
00000140: b3b4 7d3a 97b0 0e3b da3f a743 9d8a 493b
00000150: 1de8 4a39 3bdf e742 1643 a339 04ef 653a
00000160: 5799 f542 c7c0 a33a 4425 a939 1487 2c43
00000170: 4ea3 3a3a 91af 8c3a 2b31 1443 1957 be3a
00000180: 53c2 7f3a e99a 1144 698c e63a 4c96 823b
00000190: 6302 0e44 7586 b43b 92d3 1b39 68ac a842
000001a0: 6a84 8639 1d82 103a a4f5 9f42 ea08 483a
000001b0: 968a 8d38 887c ca41 a32b fc38 cdca 3a39
000001c0: 5610 c741 027f 8739 dca8 8038 1df5 0041
000001d0: 05c4 3339 f497 8f37 45bf 6638 514b c037
000001e0: 9597 483a 4b55 6b43 a2ea 453a 6bf7 e83a
000001f0: 2f74 6e43 3bb9 193b 0900 0c3a b451 4143
00000200: 25d5 3e3a bdf7 9b3a 6b2c 3e43 f72b e13a
00000210: 8252 9739 294f 4143 4b86 003a 0908 c13a
00000220: 5bd4 4843 4d80 033b ab7b be39 4872 1442
00000230: 09c1 473a b122 4f39 68bf 5439 2ae0 3639
00000240: e1f8 a039 aa73 8942 93de fc39 2972 323a
00000250: e5ac 8442 a24e 5a3a ac54 d039 7ce8 1342
00000260: 9fe3 403a 2584 0039 15bd 2f39 cd68 2139
00000270: b922 173a 3bf4 9943 797c 7e3a 6e93 033b
00000280: 52b8 9243 b547 363b f211 6338 96cd 8738
00000290: 8221 c637 9fda 9e38 f3bb 8938 c6d2 4138
000002a0: bf5a 0238 d254 5938 fb19 2438 eafa 8038
000002b0: 6ce3 003e 7245 5b38 3ac7 8339 f720 b242
000002c0: c5d1 9d39 c06b 303a 2b5a ad42 7862 653a
000002d0: 9fd8 2139 093b 8c42 e604 9639 3a22 2b3a
000002e0: cfae a042 8917 743a ec6f 1439 7984 9b41
000002f0: 86e1 6639 5ef1 2539 ce41 5341 389a 4839
00000300: c209 7b39 7ae6 e042 5682 9f39 a1cf 493a
00000310: 993d e342 529e 8c3a 8221 aa39 f119 1a43
00000320: 9304 df39 a979 8e3a f378 1c43 44ff c83a
00000330: ba3b f239 5df4 a043 afb8 413a 2ccb 1f3b
00000340: b94e a243 e054 563b f926 db39 35c3 a143
00000350: deb5 373a 9896 173b ead9 a143 f9d4 4c3b
00000360: e666 8a39 856e 9439 6d32 1139 99dd 6a39
00000370: 03c9 a139 4002 2d39 24f4 3739 c99f 9839
00000380: eda8 0439 0946 af39 aab4 9839 dc9d a939
00000390: dc70 2f3a a935 a143 d53c 883a d767 043b
000003a0: d3e5 9843 00d0 3b3b c0a9 8c39 4afa e039
000003b0: 18cb 3d39 2a3b e339 4a19 e139 3c5b 9e39
000003c0: a832 d836 ad70 8a37 4a7d 6937 e8b1 3338
000003d0: e701 c73f 177e 6f38 c865 9438 c9df bf38
000003e0: 5f80 8238 684b 9438 236c 913f adf5 8738
000003f0: 220c ab39 708c e042 9648 023a bd98 2c3a

exp_avg f4 [128]
0.00016678161 7.9280144e-05 -1.9486606e-05 -8.762802e-05 0.0007660696 0.0022661835 0.00013606492 0.0014140115
0.00043317306 -0.0010545305 0.0005333847 -0.0022753421 2.1066862e-05 -2.4688574e-05 -3.0340863e-05 6.318936e-05
3.4917262e-05 -9.494535e-08 -6.9985166e-05 -6.405504e-06 0.00058100995 -0.00020672224 0.0001860755 -9.7380595e-05
-0.0015622011 -0.0008971142 -6.455976e-05 0.0010461324 0.00061035337 -0.0008154427 2.5215466e-05 -0.0008236764
7.889721e-05 -0.00059765135 -0.0016966372 -0.0007999221 0.0012845427 0.0022601911 -0.0015503136 0.0033579883
-1.8584455e-05 0.00024731006 6.4828004e-05 -2.1034518e-06 0.00055489875 0.00012320769 -0.00012156657 4.86488e-05
-0.0004314586 -0.00012369046 -2.2315027e-05 0.00036631973 -6.753598e-05 -0.0007378919 -0.00018359558 -0.0003438019
0.00028572895 0.00015784171 -0.0013386847 0.0020886923 -0.00056837924 -3.785795e-05 -6.770554e-06 7.971923e-05
0.0005002815 7.296683e-05 0.0004018259 0.0005687441 0.00045635676 3.767696e-05 1.3648539e-05 0.0012699047
-4.5701454e-06 -2.0921101e-05 0.00016554042 0.00056797854 -0.0006627603 -7.7549026e-05 -0.00012857643 -0.001140094
1.0739943e-05 0.0017333574 -0.0011870925 -2.8464376e-05 0.0012272024 5.3688073e-06 0.00017728019 3.8917865e-06
-0.00024515454 4.355143e-05 -0.0020833588 -1.1736785e-05 9.867847e-06 -0.0006768948 2.584316e-05 -0.00042195243
-0.00091909105 2.7311367e-05 -0.0005579442 0.00011094298 0.0012136702 6.4667904e-05 0.0015956226 -0.0003440493
0.00048227864 -1.2342636e-05 -0.0012528276 -0.0010941477 2.623308e-05 -0.00024503208 -0.0025215154 -0.0014063062
-0.00013358462 -0.0018180669 0.00062382955 0.00076095597 0.0009039619 0.0010933417 9.544831e-05 0.00011417764
0.00011971225 0.0006899792 1.15226985e-05 0.0009055031 0.00045433638 0.0018889926 0.0006606628 5.793057e-05
00000000: 19e2 2e39 3443 a638 2b77 a3b7 efc4 b7b8
00000010: 10d2 483a 4084 143b a6ac 0e39 5a56 b93a
00000020: 811b e339 2c38 8aba d7d2 0b3a e81d 15bb
00000030: beb8 b037 4f1a cfb7 8284 feb7 8884 8438
00000040: 2074 1238 c2e4 cbb3 00c5 92b8 dcee d6b6
00000050: eb4e 183a 94c3 58b9 431d 4339 cf38 ccb8
00000060: c5c2 ccba 512c 6bba 4264 87b8 611e 893a
00000070: 1f00 203a 6fc3 55ba cd85 d337 fdeb 57ba
00000080: 9e75 a538 b4ab 1cba b361 deba ddb1 51ba
00000090: 1a5e a83a b71f 143b e433 cbba b211 5c3b
000000a0: d0e5 9bb7 65a9 8139 45f4 8738 0729 0db6
000000b0: a076 113a 5031 0139 8ef1 feb8 400c 4c38
000000c0: 6535 e2b9 e8b2 01b9 2831 bbb7 9a0e c039
000000d0: 1aa2 8db8 166f 41ba 9083 40b9 4f40 b4b9
000000e0: e4cd 9539 5082 2539 ce76 afba 71e2 083b
000000f0: 49ff 14ba aac9 1eb8 9e2e e3b6 f02e a738
00000100: 5325 033a c505 9938 29ac d239 c517 153a
00000110: 2b43 ef39 5407 1e38 07fc 6437 ee72 a63a
00000120: 4059 99b6 b97f afb7 eb94 2d39 65e4 143a
00000130: 17bd 2dba d1a1 a2b8 79d2 06b9 356f 95ba
00000140: b42f 3437 d331 e33a 3798 9bba c8c6 eeb7
00000150: 14da a03a b425 b436 4ae4 3939 3196 8236
00000160: 1688 80b9 feaa 3638 f688 08bb 1ce9 44b7
00000170: 158e 2537 a471 31ba c3c9 d837 7f39 ddb9
00000180: 28ef 70ba b71a e537 0043 12ba 0faa e838
00000190: 0414 9f3a 519e 8738 3624 d13a 8461 b4b9
000001a0: 58da fc39 3813 4fb7 eb35 a4ba 8169 8fba
000001b0: 1c0f dc37 a677 80b9 0240 25bb ce53 b8ba
000001c0: d912 0cb9 344c eeba 7e88 233a e47a 473a
000001d0: dbf7 6c3a 764e 8f3a 6c2b c838 a772 ef38
000001e0: 060e fb38 b8df 343a 9d51 4137 495f 6d3a
000001f0: ff33 ee39 1398 f73a 5430 2d3a 7afa 7238

exp_avg_sq f4 [128]
8.810362e-06 1.2390265e-05 6.088144e-06 2.3162013e-06 7.224592e-06 7.875089e-06 3.6154152e-06 3.7442671e-06
4.2244287e-06 6.2717895e-06 4.343348e-06 4.686074e-05 3.4012305e-06 4.3838945e-06 3.2412813e-06 3.0862727e-06
1.0431526e-05 1.0741203e-06 1.3139784e-06 1.727169e-06 2.1445245e-05 5.4339484e-06 6.458647e-06 1.282527e-05
1.2138369e-05 1.0565629e-05 4.9219975e-06 4.0979958e-06 3.2816567e-06 6.249819e-06 5.1706397e-06 4.0997993e-06
3.0877725e-06 4.521263e-06 1.0508497e-05 5.256272e-06 1.7912349e-05 1.8401199e-05 7.0928413e-06 2.7134753e-05
1.0381536e-06 5.772366e-06 2.7421554e-06 1.9764718e-06 4.659266e-06 4.5153774e-06 2.03623e-05 5.972436e-06
7.729495e-06 9.764359e-07 1.3993497e-06 5.1504608e-06 2.5773331e-06 2.1054353e-05 6.269863e-06 1.0042279e-05
1.260965e-05 1.8446882e-06 8.824471e-06 1.068435e-05 6.0636903e-06 1.8189822e-06 6.2534823e-06 5.163492e-06
6.197944e-06 2.0820169e-06 2.8888735e-06 6.963161e-06 8.357231e-06 1.3930787e-05 6.2523856e-07 1.36243925e-05
4.733317e-06 9.1118585e-07 6.553831e-07 3.9852252e-06 4.4225953e-06 4.02489e-08 5.773325e-06 1.4488198e-05
4.276984e-06 6.7612596e-06 2.8701731e-06 4.1626295e-06 1.104855e-05 3.2726223e-06 3.8792864e-06 4.447462e-06
9.1052325e-06 2.4221977e-06 3.940881e-05 1.7824672e-05 5.5872933e-06 1.2201091e-05 4.7303074e-06 9.004848e-06
1.7661778e-05 7.3282354e-06 5.1124543e-06 3.317061e-06 7.709581e-06 8.409202e-06 4.27854e-06 1.06373445e-05
1.8419349e-06 2.392652e-06 1.0987449e-05 1.0164693e-05 4.430276e-06 1.7022516e-05 7.980686e-06 6.2363692e-06
3.3218807e-06 1.1880099e-05 3.4415336e-06 4.236095e-06 3.745414e-06 1.1118782e-05 1.139101e-05 4.722877e-06
7.8726935e-06 2.257288e-05 4.6868243e-07 3.7966902e-06 8.474044e-06 2.2085182e-05 7.5220123e-06 4.821472e-06
00000000: 37d0 1337 c8df 4f37 c248 cc36 0970 1b36
00000010: c66a f236 401f 0437 5ca0 7236 0546 7b36
00000020: 91bf 8d36 4372 d236 13bd 9136 568c 4438
00000030: b240 6436 5e19 9336 ca84 5936 c31d 4f36
00000040: 1003 2f37 7e2a 9035 f45b b035 13d1 e735
00000050: 50e5 b337 4355 b636 5bb7 d836 1d2c 5737
00000060: e6a5 4b37 0843 3137 a327 a536 8481 8936
00000070: 6f3a 5c36 89b5 d136 757f ad36 0291 8936
00000080: 8737 4f36 5ab5 9736 a74d 3037 085f b036
00000090: 7a42 9637 465c 9a37 0bff ed36 709f e337
000000a0: b056 8b35 3fb0 c136 df05 3836 87a3 0436
000000b0: ca56 9c36 cc82 9736 b5cf aa37 d666 c836
000000c0: eead 0137 150e 8335 4ad1 bb35 1fd2 ac36
000000d0: 3ff6 2c36 e19d b037 b761 d236 437b 2837
000000e0: 098e 5337 0197 f735 d00c 1437 ef40 3337
000000f0: b476 cb36 c123 f435 01d5 d136 0f42 ad36
00000100: eff7 cf36 c7b8 0b36 78de 4136 19a5 e936
00000110: 0936 0c37 46b8 6937 11d6 2735 5294 6437
00000120: e2d2 9e36 3798 7435 95ed 2f35 d3b8 8536
00000130: ce65 9436 22de 2c33 7cb8 c136 5612 7337
00000140: 0383 8f36 c7de e236 339d 4036 b7ac 8b36
00000150: 295d 3937 399f 5b36 d12a 8236 683b 9536
00000160: adc2 1837 0a8d 2236 e34a 2538 3186 9537
00000170: 7c7a bb36 49b3 4c37 08b9 9e36 8713 1737
00000180: 6128 9437 10e5 f536 a68b ab36 ad9a 5e36
00000190: 6658 0137 3f15 0d37 6190 8f36 0c77 3237
000001a0: 6738 f735 7391 2036 bc56 3837 0689 2a37
000001b0: c8a7 9436 93cb 8e37 c9e4 0537 0142 d136
000001c0: 7aed 5e36 a350 4737 19f5 6636 c723 8e36
000001d0: b959 7b36 ce8a 3a37 041c 3f37 3479 9e36
000001e0: f614 0437 e45a bd37 399f fb34 a4ca 7e36
000001f0: be2b 0e37 9143 b937 9865 fc36 21c8 a136
