MachineLearning/results/testSumo10/MoveTOGoal/MoveTOGoal-499974.pt (torch, 441819 bytes, 36 tensors)

network_body._body_endoder.seq_layers.0.weight f4 [128, 6]
0.088011265 -0.08217295 0.47290823 0.28955728 0.039102707 0.3854095 0.044967607 0.0062592733
0.64024985 0.39514038 0.06406136 -0.053909812 -0.5707822 -0.3927995 -0.7672594 0.25223467
0.02539817 0.7597013 -0.05968949 0.3173809 0.054158323 -0.7009888 -0.105116576 -0.41323772
0.07719673 0.04984398 -0.5470109 0.56329864 -0.22174504 0.012514478 -0.1426097 0.3889223
-0.17891645 -0.068043076 0.34421226 -0.19302958 -0.50052005 0.1983202 0.34143394 -0.2870523
-0.2717734 -0.33906668 0.16088057 0.037676115 -0.661856 0.15460412 0.2524037 -0.5609464
0.31793338 -0.05254177 -0.5398138 -0.28613317 -0.4343419 -0.4131289 -0.30304515 0.20490995
0.79080695 0.110308826 0.36290196 -0.632862 -0.16152649 0.07657733 0.004534428 0.4234575
-0.07658555 -0.361891 0.95126814 0.16872586 -0.35281593 0.0293992 -0.63196176 0.3045108
-0.16001235 -0.4275868 -0.61303926 -0.27440554 -0.32790005 -0.011933809 -0.61556613 -0.44112173
-0.47446045 -0.34893534 0.30021226 0.177954 -0.6420217 -0.019013189 -0.104360655 -0.58642364
-0.08084861 -0.40658173 -0.4252726 -0.55716735 -0.36374673 -0.6864667 0.14012997 -0.14545527
-0.13365333 -0.19280942 0.11502793 0.05948246 -0.070386454 0.26137882 -1.2266642 -0.55338997
-0.07565178 -1.223293 0.48147273 0.16118737 0.104707986 -0.089385286 0.33064064 -0.32503515
-0.30354443 -0.12853372 -0.5569363 -0.16640437 0.3998588 -0.06853715 0.02233847 -0.25780633
0.85671556 0.029778592 -0.4044578 0.29895058 -0.022237252 -0.28746292 0.010827017 -0.5106353
-0.8459676 0.37231517 -0.39529327 -0.47792944 -0.24381587 0.30613694 -0.2773087 0.45018044
-0.7654601 0.34638327 -0.46258134 -0.26104 0.08284706 0.29119545 0.3868526 -0.31893826
0.5712485 -0.13783403 0.37113813 0.18019944 -0.33151874 -0.10254781 0.36744305 -0.27205426
0.033807922 -0.745526 0.60791683 0.44991326 0.3443978 -0.48176354 -0.051909734 -0.84739536
-0.108059615 -0.33425182 0.015652062 0.3189413 -0.72964364 0.4861877 0.073684126 -0.08230336
-0.35329923 0.46610078 -0.5755235 -0.0328058 -0.38788864 0.49039808 0.23907483 -0.5880812
-0.23035319 0.8565137 0.19830424 0.65840113 -0.19204295 -0.5999062 0.22289553 -0.5528446
-0.015470375 0.20226191 0.049919408 -0.7565554 -0.2228345 0.14530732 0.30722296 -0.28842634
-0.0010071183 0.07694838 -0.5890678 0.1275766 -0.41693735 -0.20926154 -0.11735249 -0.16759582
-0.08941999 0.5706294 -0.47129366 -0.34881765 -0.037536882 0.15025516 0.15707904 0.28467643
-0.12772723 -0.22018115 0.44464797 0.20401986 -0.46833465 0.11297911 -0.5993621 -0.7508138
0.44952664 0.5438176 -0.45239618 -0.26450962 0.03934574 -0.30701882 -0.60530025 0.41848472
0.018584376 0.459131 0.30787438 -0.29088676 0.47210336 -0.06837674 -0.06711428 -0.26239327
-0.070839055 -0.3932039 -0.4635732 0.53851515 0.06477724 -0.029561378 0.126119 -0.30821553
-0.3093541 0.7539209 0.100279145 -0.28670678 -0.45954192 -0.44222465 0.20579205 0.48278502
-0.24079046 -0.20082548 0.029060945 -0.081127316 -0.72116345 -0.43052712 -0.25499862 0.117295794
00000000: 403f b43d 4b4a a8bd 0721 f23e da40 943e
00000010: 292a 203d 6554 c53e f42f 383d 971a cd3b
00000020: 6ae7 233f d74f ca3e 9a32 833d 89d0 5cbd
00000030: c81e 12bf 041d c9be 1d6b 44bf e724 813e
00000040: d30f d03c c97b 423f f77c 74bd c07f a23e
00000050: 1ed5 5d3d 0174 33bf 5c47 d7bd e593 d3be
00000060: 5219 9e3d 3429 4c3d e808 0cbf 5734 103f
00000070: 2211 63be 8609 4d3c 4708 12be d320 c73e
00000080: e035 37be 2b5a 8bbd 973c b03e 8ca9 45be
00000090: 1522 00bf 7314 4b3e 6ed0 ae3e 85f8 92be
000000a0: e225 8bbe 269a adbe e0bd 243e 4552 1a3d
000000b0: 656f 29bf 8b50 1e3e 0f3b 813e 2f9a 0fbf
000000c0: 2ac8 a23e 0a36 57bd 3d31 0abf 0c80 92be
000000d0: 1062 debe a285 d3be bc28 9bbe ead3 513e
000000e0: 5372 4a3f 98e9 e13d 49ce b93e 3e03 22bf
000000f0: 3367 25be 93d4 9c3d 8a95 943b 6ccf d83e
00000100: e3d8 9cbd c749 b9be 4f86 733f 79c6 2c3e
00000110: 4aa4 b4be 97d6 f03c 3fc8 21bf d7e8 9b3e
00000120: 47da 23be a8ec dabe 24f0 1cbf e27e 8cbe
00000130: 84e2 a7be 0686 43bc be95 1dbf b5da e1be
00000140: 7bec f2be a7a7 b2be 6cb5 993e 9339 363e
00000150: 895b 24bf 8cc1 9bbc 0abb d5bd dc1f 16bf
00000160: f593 a5bd 7b2b d0be 55bd d9be 85a2 0ebf
00000170: 033d babe 48bc 2fbf 3b7e 0f3e 3af2 14be
00000180: 6bdc 08be d56f 45be c393 eb3d e1a3 733d
00000190: c626 90bd 72d3 853e 5503 9dbf f7aa 0dbf
000001a0: 52ef 9abd dd94 9cbf 9883 f63e 4d0e 253e
000001b0: 2471 d63d a20f b7bd bb49 a93e 026b a6be
000001c0: 2d6a 9bbe 589e 03be 6193 0ebf e865 2abe
000001d0: 4bba cc3e 355d 8cbd 2bff b63c 31ff 83be
000001e0: b651 5b3f 3cf2 f33c 1815 cfbe 0d10 993e
000001f0: e62a b6bc 572e 93be cd63 313c ffb8 02bf
00000200: 5591 58bf 18a0 be3e e163 cabe 2bb3 f4be
00000210: deaa 79be fbbd 9c3e 68fb 8dbe 0d7e e63e
00000220: 31f5 43bf 2659 b13e 76d7 ecbe 09a7 85be
00000230: b8ab a93d 9217 953e 8b11 c63e e04b a3be
00000240: 573d 123f 5d24 0dbe d105 be3e 3486 383e
00000250: d3bc a9be 9604 d2bd 7f21 bc3e b24a 8bbe
00000260: 2d7a 0a3d cbda 3ebf 70a0 1b3f 085b e63e
00000270: e954 b03e b6a9 f6be 4d9f 54bd e7ee 58bf
00000280: 5c4e ddbd 0e23 abbe c138 803c 464c a33e
00000290: edc9 3abf 98ed f83e b4e7 963d aa8e a8bd
000002a0: a3e3 b4be c3a4 ee3e 8255 13bf 605f 06bd
000002b0: 5799 c6be 7515 fb3e 08d0 743e 7d8c 16bf
000002c0: b5e1 6bbe 7b44 5b3f 4410 4b3e fa8c 283f
000002d0: e8a6 44be 7493 19bf ba3e 643e 3987 0dbf
000002e0: 7577 7dbc bf1d 4f3e 4b78 4c3d 9dad 41bf
000002f0: ba2e 64be 71cb 143e 544c 9d3e 9eac 93be
00000300: 4801 84ba 1d97 9d3d 26cd 16bf 71a3 023e
00000310: d078 d5be a848 56be 8156 f0bd 3d9e 2bbe
00000320: d421 b7bd c514 123f 674d f1be 3a98 b2be
00000330: 46c0 19bd 7ddc 193e 54d9 203e 1cc1 913e
00000340: edca 02be 2b77 61be e6a8 e33e 95ea 503e
00000350: 8fc9 efbe 9761 e73d cb6f 19bf 5535 40bf
00000360: 5b28 e63e a137 0b3f 79a0 e7be ce6d 87be
00000370: 0029 213d 9231 9dbe f5f4 1abf a143 d63e
00000380: 433e 983c 3813 eb3e b6a1 9d3e 1cef 94be
00000390: 88b7 f13e 1b09 8cbd 3673 89bd 6958 86be
000003a0: 1114 91bd 0652 c9be 7759 edbe 21dc 093f
000003b0: eea9 843d b42a f2bc 5725 013e 6dce 9dbe
000003c0: a963 9ebe f600 413f 275f cd3d 3bcb 92be
000003d0: 1449 ebbe 456b e2be 27bb 523e 992f f73e
000003e0: c691 76be 32a5 4dbe 3811 ee3c 1426 a6bd
000003f0: 2b9e 38bf 0d6e dcbe 2e8f 82be c738 f03d

network_body._body_endoder.seq_layers.0.bias f4 [128]
0.0494202 0.056238946 -0.021742383 -0.05198121 -0.034814443 -0.10593852 -0.09684873 -0.00053565414
-0.0065767593 -0.04712808 0.0046845693 -0.05518858 -0.06446612 0.06490592 -0.02621383 -0.090922326
-0.08625741 0.13772713 -0.04289819 -0.047171865 -0.06700835 0.0021354265 -0.064177215 -0.043791045
0.06561076 0.042722818 -0.12174121 0.0027913828 -0.14583975 -0.054031484 -0.039173435 -0.10842454
-0.045111272 -0.08822548 -0.02015203 -0.08713718 -0.058945812 -0.08069269 -0.0049486235 -0.017490499
-0.035161234 -0.08646246 -0.11015729 -0.12650578 -0.047663905 -0.16330312 0.032822732 -0.055096254
-0.016550912 -0.012231028 0.0025454473 0.0012567069 0.003205558 0.018233273 -0.04272885 -0.11971468
0.047044273 -0.06953456 -0.07239115 -0.10176173 -0.024446469 -0.057384603 0.019818319 -0.00035101068
-0.0649219 0.0010510796 -0.12710005 0.02672851 -0.053429198 -0.11528348 -0.04041024 0.011751736
-0.09932035 -0.09212315 -0.021906234 -0.050553694 -0.033475548 -0.12312763 -0.02749369 -0.0072630625
-0.02843852 -0.08483264 -0.031447668 0.0004989728 -0.012373556 -0.10816736 -0.0808749 -0.04360325
-0.03075576 -0.03853135 -0.073123105 -0.105013855 -0.04805144 -0.04971202 0.07340176 -0.049112417
0.0015887228 -0.09697589 -0.03790584 -0.068389975 -0.048916135 -0.06056252 -0.035499368 0.07351491
-0.053826638 -0.02232374 -0.024057144 -0.04029959 0.02417379 -0.029335434 -0.09444618 0.044480514
-0.05272279 -0.007660733 -0.13659276 -0.16062553 -0.16447508 0.014553179 -0.04557712 0.018087042
-0.02188753 0.0006484628 -0.045784485 -0.08793017 -0.014117298 -0.06300155 0.00035763145 -0.0067976927
00000000: d66c 4a3d cf5a 663d 151d b2bc 40ea 54bd
00000010: 9799 0ebd 4bf6 d8bd a158 c6bd 246b 0cba
00000020: db81 d7bb 6009 41bd 0481 993b 6c0d 62bd
00000030: d006 84bd 65ed 843d 63be d6bc 7c35 babd
00000040: baa7 b0bd 5708 0d3e 03b6 2fbd 4937 41bd
00000050: ac3b 89bd 83f2 0b3b 586f 83bd 3d5e 33bd
00000060: ef5e 863d 1ffe 2e3d 7553 f9bd a2ef 363b
00000070: 0457 15be 1e50 5dbd 5374 20bd af0d debd
00000080: 99c6 38bd 8faf b4bd df15 a5bc fa74 b2bd
00000090: 2a71 71bd 3642 a5bd 1028 a2bb 3c48 8fbc
000000a0: 3a05 10bd 3b13 b1bd 259a e1bd bb8a 01be
000000b0: 3a3b 43bd ef38 27be 2171 063d 9cac 61bd
000000c0: c795 87bc a664 48bc 85d1 263b 16b8 a43a
000000d0: 5714 523b f25d 953c 7204 2fbd f82c f5bd
000000e0: 7fb1 403d 2368 8ebd d041 94bd 7468 d0bd
000000f0: f643 c8bc 1e0c 6bbd 075a a23c db07 b8b9
00000100: c6f5 84bd 61c4 893a 8426 02be c0f5 da3c
00000110: 93d8 5abd bf19 ecbd 3585 25bd 5a8a 403c
00000120: 7868 cbbd 10ab bcbd b474 b3bc 6411 4fbd
00000130: a81d 09bd 572a fcbd 723a e1bc fcfe edbb
00000140: e6f7 e8bc bcbc adbd 45cf 00bd 7fcd 023a
00000150: 75ba 4abc d986 ddbd bda1 a5bd 5299 32bd
00000160: 81f3 fbbc 0dd3 1dbd 91c1 95bd 8111 d7bd
00000170: 96d1 44bd d59e 4bbd a953 963d 1a2a 49bd
00000180: b13c d03a 4c9b c6bd 2743 1bbd 0b10 8cbd
00000190: 495c 48bd 6810 78bd c967 11bd fc8e 963d
000001a0: 5279 5cbd 47e0 b6bc 7d13 c5bc 2f11 25bd
000001b0: 1d08 c63c dd50 f0bc 006d c1bd 3331 363d
000001c0: daf3 57bd e306 fbbb f9de 0bbe 057b 24be
000001d0: 286c 28be 7570 6e3c 13af 3abd 472b 943c
000001e0: 7a4d b3bc 9afd 293a 8388 3bbd bc14 b4bd
000001f0: 3d4c 67bc f506 81bd 7b80 bb39 2ebf debb

network_body._body_endoder.seq_layers.2.weight f4 [128, 128]
-0.07947716 -0.13879786 -0.27581015 -0.031988017 -0.010175401 0.12651782 0.051871322 0.022988664
0.073854 -0.13180304 0.09883435 -0.03499709 -0.09420536 -0.1523336 -0.13669927 0.041910384
-0.036876317 -0.1336649 -0.046866383 -0.05286352 -0.018154252 0.07253335 -0.22982424 -0.004294369
-0.19273493 -0.100263 -0.07768199 -0.06716496 -0.117807955 -0.12599222 -0.06837538 0.022302711
0.12985861 0.26903626 0.13854924 0.16509534 -0.124678984 -0.009876991 -0.018010087 -0.10532875
0.031155745 0.102917105 -0.11477557 -0.26232597 0.021784434 -0.011183122 -0.036143515 -0.08176492
-0.18566841 -0.05229883 0.11357998 -0.008056354 -0.007535091 0.059603907 -0.074537 -0.025408102
0.046545494 -0.011798336 0.06528594 0.031655893 -0.02247746 -0.00510882 -0.13924614 0.040442817
-0.010116647 0.05571246 0.11977641 -0.082809806 0.0007165672 0.05798887 -0.01592659 -0.23314005
-0.0027326583 0.087673 -0.075483024 0.11254104 0.109513216 -0.017815886 0.21340704 0.011653594
0.09461766 -0.15747 -0.0015798792 -0.19986027 0.17091611 -0.114536785 -0.124475025 0.12041617
-0.01594068 -0.007145247 -0.20699556 0.119403936 -0.083120115 -0.05786775 0.01574072 -0.04258718
-0.28405124 -0.07525641 0.033577953 -0.04480355 0.1263743 0.031304695 0.06273681 -0.09046117
-0.021119762 0.14172061 0.08584933 0.106513955 -0.2002912 -0.17496206 0.11765592 -0.026913999
-0.04824221 -0.07312445 0.07860778 0.074746236 -0.030527921 -0.06460446 0.15216169 0.02860815
0.021428786 -0.106108956 -0.02533678 -0.0040798597 -0.027870053 -0.060104363 0.04049962 -0.04253651
-0.22871453 -0.050982326 -0.06371544 0.21043687 -0.05358327 -0.22785832 0.05141411 -0.078132026
0.22847226 -0.019066412 -0.08757185 -0.042141113 0.015944825 0.1558118 0.117645055 0.17701748
-0.101987496 -0.13911436 0.007287819 0.12939018 -0.07860083 -0.1146251 0.020790655 -0.17020698
0.047166623 -0.18451688 0.16319782 -0.20046772 0.049854502 -0.09552893 0.1939965 0.12586579
0.039602347 0.011259581 -0.22197114 -0.028995099 -0.20016627 -0.0021039094 0.12534095 -0.2014074
0.11236481 -0.1758641 0.08893327 0.008362465 -0.16074346 -0.24454507 -0.21878698 -0.0048113307
-0.13974929 0.043579042 -0.20140822 -0.17713568 0.1293993 -0.22212088 -0.03366634 -0.16348878
-0.23067088 0.104972795 -0.13639024 -0.26017073 -0.08399762 0.030574385 -0.22998765 0.041100863
-0.21125063 0.021801975 -0.24386314 -0.048230536 -0.14177428 0.13388485 0.040995583 -0.031834017
0.014117149 0.059467625 -0.036188304 -0.13935585 0.05829286 0.10160937 0.16441187 -0.28631616
-0.016745916 -0.209974 -0.07888498 -0.034537166 -0.022564055 0.020670064 -0.09808635 0.16141658
-0.16326886 -0.046043918 -0.053090096 0.12679371 -0.0074177007 -0.084410995 -0.063805126 -0.21247342
-0.09041116 -0.07604793 -0.0583493 0.006994776 0.20492409 0.023371276 0.0029723065 -0.06361783
0.25187376 -0.013114149 -0.13851824 -0.053727765 -0.02246622 -0.2528992 -0.16143428 -0.046794396
-0.001437126 -0.27415738 -0.25695068 -0.20412594 -0.11301345 -0.052915763 0.07853082 0.12246094
-0.0033629553 -0.27079016 0.15806636 -0.16853599 -0.11459249 -0.21671827 -0.003949377 -0.0685616
00000000: ecc4 a2bd 0721 0ebe fd36 8dbe de05 03bd
00000010: bab6 26bc e38d 013e 0677 543d b952 bc3c
00000020: c440 973d 60f7 06be aa69 ca3d 1c59 0fbd
00000030: bdee c0bd 57fd 1bbe e5fa 0bbe 39aa 2b3d
00000040: 9f0b 17bd 74df 08be f7f6 3fbd 6b87 58bd
00000050: 3ab8 94bc 5d8c 943d 0c57 6bbe c7b7 8cbb
00000060: 4e5c 45be b056 cdbd bc17 9fbd c88d 89bd
00000070: 4c45 f1bd 1b04 01be 6408 8cbd 2db4 b63c
00000080: a8f9 043e 1fbf 893e dadf 0d3e c10e 293e
00000090: b257 ffbd 1ad3 21bc e489 93bc 9ab6 d7bd
000000a0: 553a ff3c 34c6 d23d 740f ebbd 974f 86be
000000b0: 4575 b23c 6a39 37bc 390b 14bd 5e74 a7bd
000000c0: dc1f 3ebe 4c37 56bd 9f9c e83d ccfe 03bc
000000d0: ede8 f6bb 3a23 743d dba6 98bd a724 d0bc
000000e0: 7da6 3e3d cf4d 41bc a3b4 853d 9ca9 013d
000000f0: a622 b8bc e367 a7bb 8a96 0ebe 5ea7 253d
00000100: 4bc0 25bc c032 643d 564d f53d 3098 a9bd
00000110: 03d8 3b3a bd85 6d3d 7b78 82bc 44bc 6ebe
00000120: 6616 33bb e78d b33d d896 9abd eb7b e63d
00000130: 7748 e03d 9ff2 91bc 6087 5a3e b7ee 3e3c
00000140: e7c6 c13d d13f 21be f313 cfba 2ca8 4cbe
00000150: a204 2f3e 4392 eabd c3ec febd c19c f63d
00000160: 0796 82bc ad22 eabb a5f6 53be 0d8a f43d
00000170: e13a aabd bc06 6dbd aff2 803c e56f 2ebd
00000180: 2a6f 91be 0820 9abd 0989 093d ed83 37bd
00000190: 4468 013e 5a39 003d 287c 803d b543 b9bd
000001a0: 5a03 adbc 351f 113e c6d1 af3d fd23 da3d
000001b0: 2319 4dbe 4129 33be 96f5 f03d bf7a dcbc
000001c0: a099 45bd 46c2 95bd 1efd a03d 8e14 993d
000001d0: b115 fabc 584f 84bd 46d0 1b3e a45b ea3c
000001e0: 6c8b af3c a74f d9bd 148f cfbc 58b0 85bb
000001f0: bd4f e4bc fe2f 76bd eee2 253d c33a 2ebd
00000200: 2434 6abe d8d2 50bd 3e7d 82bd c37c 573e
00000210: 227a 5bbd b153 69be 9a97 523d af03 a0bd
00000220: a2f4 693e 2a31 9cbc df58 b3bd 299c 2cbd
00000230: b99e 823c 218d 1f3e e4ef f03d 1244 353e
00000240: d2de d0bd ff73 0ebe a8ce ee3b dc7e 043e
00000250: 79f9 a0bd 90c0 eabd 2a51 aa3c bd4a 2ebe
00000260: ca31 413d fef1 3cbe 541d 273e 6947 4dbe
00000270: 3c34 4c3d aca4 c3bd 05a7 463e f6e2 003e
00000280: 1236 223d 1b7a 383c 674c 63be 2187 edbc
00000290: 63f8 4cbe bee1 09bb 6159 003e be3d 4ebe
000002a0: 861f e63d b815 34be a522 b63d b802 093c
000002b0: ef99 24be 066a 7abe b209 60be 5ea8 9dbb
000002c0: 701a 0fbe f07f 323d f53d 4ebe 0e63 35be
000002d0: 4081 043e a873 63be b7e5 09bd 9a69 27be
000002e0: fd34 6cbe fafb d63d e2a9 0bbe 1935 85be
000002f0: f206 acbd 2277 fa3c e281 6bbe 6159 283d
00000300: 1652 58be 0e9a b23c 42b7 79be 628d 45bd
00000310: 472d 11be 1c19 093e fcea 273d 6364 02bd
00000320: 9d4b 673c 5394 733d 303a 14bd 4db3 0ebe
00000330: 7ec4 6e3d 9318 d03d 965b 283e 0898 92be
00000340: bb2e 89bc 6d03 57be 738e a1bd d876 0dbd
00000350: 41d8 b8bc 4454 a93c 7fe1 c8bd 634a 253e
00000360: f42f 27be 8c98 3cbd 0075 59bd 36d6 013e
00000370: 2f10 f3bb acdf acbd 43ac 82bd a292 59be
00000380: 7c29 b9bd 04bf 9bbd adff 6ebd 6f34 e53b
00000390: 9fd7 513e 1e75 bf3c 07cb 423b 114a 82bd
000003a0: 99f5 803e badc 56bc bad7 0dbe a511 5cbd
000003b0: 140b b8bc 017c 81be 074f 25be 7bab 3fbd
000003c0: f25d bcba 5b5e 8cbe 0a8f 83be 6406 51be
000003d0: 9873 e7bd 33be 58bd c4d4 a03d cdcc fa3d
000003e0: 0765 5cbb 02a5 8abe 26dc 213e b394 2cbe
000003f0: 78af eabd 65eb 5dbe c769 81bb 066a 8cbd

network_body._body_endoder.seq_layers.2.bias f4 [128]
-0.01916178 -0.17702225 -0.098322995 -0.019140527 0.019040858 -0.055946115 -0.099173956 -0.08860785
-0.04555363 -0.06917995 -0.057577714 -0.086739846 -0.1348085 -0.13801612 -0.16508333 -0.12131614
-0.028047007 0.013792941 -0.05262995 -0.1560042 0.023705967 -0.09512865 0.013665143 -0.13395041
-0.11752951 -0.07375446 -0.12439115 0.03731749 -0.068381585 0.022163622 -0.09241838 -0.11257943
-0.04745793 -0.15107279 0.043844927 0.025318509 -0.094873615 -0.11429411 -0.105882086 -0.09598958
-0.0911084 -0.14391482 -0.13996565 -0.0625082 -0.16225943 -0.16534466 -0.19870436 -0.17715093
-0.093339965 -0.09099804 -0.11030328 -0.037853427 -0.11200584 -0.016400978 0.011124397 -0.14654024
-0.09307416 -0.066934325 -0.1340145 -0.06075652 -0.105668545 -0.084097855 -0.056360215 -0.04372282
-0.12883615 -0.11637339 -0.04311009 -0.060212016 -0.033727143 -0.11659636 -0.050722465 -0.11102745
0.0017183296 -0.07893166 -0.106555566 -0.047255132 -0.029351333 -0.09123149 -0.19068228 -0.11389829
0.020546723 -0.1358229 -0.16286072 -0.04144071 -0.08508677 -0.10776712 -0.061263274 -0.08581481
-0.094850786 -0.0077713756 -0.025197363 -0.027009213 -0.02059452 -0.1368349 -0.04875478 -0.1603838
-0.058826838 -0.08984257 -0.023983922 -0.108278215 -0.19020618 -0.16534318 -0.040399536 -0.014235105
-0.095722 -0.03488309 -0.11399546 0.010504705 -0.13268054 -0.061585467 -0.06859687 -0.12690671
-0.088385925 -0.06974934 -0.0348494 -0.076799005 -0.06895872 -0.020687781 -0.022604575 -0.12017341
0.024670778 -0.06697725 -0.11140836 -0.1645917 -0.0069208383 -0.0201727 -0.052007772 -0.066176526
00000000: 2af9 9cbc 5245 35be 915d c9bd 98cc 9cbc
00000010: 93fb 9b3c c127 65bd b71b cbbd 0878 b5bd
00000020: 7196 3abd 38ae 8dbd 9cd6 6bbd a9a4 b1bd
00000030: 3d0b 0abe 1954 0dbe 9b0b 29be 9974 f8bd
00000040: d6c2 e5bc cafb 613c 8192 57bd 91bf 1fbe
00000050: 0433 c23c cfd2 c2bd c4e3 5f3c 4c2a 09be
00000060: 50b3 f0bd 940c 97bd cac0 febd 39da 183d
00000070: a50b 8cbd 7c90 b53c d945 bdbd 0b90 e6bd
00000080: 3f63 42bd d3b2 1abe bd96 333d c368 cf3c
00000090: 194d c2bd 0813 eabd b5d8 d8bd 2f96 c4bd
000000a0: 0a97 babd 685e 13be 2853 0fbe 4d04 80bd
000000b0: 5627 26be 1c50 29be 2879 4bbe 0e67 35be
000000c0: 0629 bfbd 2e5d babd b0e6 e1bd 320c 1bbd
000000d0: 5163 e5bd 585b 86bc 1a43 363c a50e 16be
000000e0: aa9d bebd dd14 89bd 193b 09be d4db 78bd
000000f0: c068 d8bd 7f3b acbd f8d9 66bd b316 33bd
00000100: a0ed 03be 2c55 eebd 3594 30bd e0a0 76bd
00000110: 7925 0abd 13ca eebd 5cc2 4fbd 5c62 e3bd
00000120: 9339 e13a eca6 a1bd ce39 dabd 998e 41bd
00000130: 3572 f0bc 93d7 babd 3742 43be 8243 e9bd
00000140: 9a51 a83c 2915 0bbe f6c4 26be bcbd 29bd
00000150: f941 aebd 02b5 dcbd 33ef 7abd adbf afbd
00000160: 2141 c2bd 06a7 febb b36a cebc 6d42 ddbc
00000170: d7b5 a8bc 731e 0cbe 18b3 47bd a73b 24be
00000180: 69f4 70bd 62ff b7bd ee79 c4bc f8c0 ddbd
00000190: 69c5 42be b94f 29be fc79 25bd 5c3a 69bc
000001a0: e509 c4bd 92e1 0ebd 7476 e9bd ed1b 2c3c
000001b0: 68dd 07be 0b41 7cbd 847c 8cbd d5f3 01be
000001c0: ae03 b5bd bed8 8ebd 3fbe 0ebd cc48 9dbd
000001d0: 3b3a 8dbd 6c79 a9bc 3b2d b9bc 7a1d f6bd
000001e0: 5f1a ca3c 5e2b 89bd 112a e4bd ba8a 28be
000001f0: 33c8 e2bb 3841 a5bc 1a06 55bd 8f87 87bd

action_model._continuous_distribution.log_sigma f4 [1, 2]
-0.2711138 -0.25941515
00000000: 6ecf 8abe 10d2 84be

action_model._continuous_distribution.mu.weight f4 [2, 128]
0.029124232 -0.008166883 -0.05747897 0.004880663 0.014664667 -0.060072396 -0.010913134 0.01042782
-0.06875386 -0.042440258 -0.04290765 -0.047712706 -0.0031927803 0.014539921 -0.030813197 -0.016535284
-0.08133323 -0.1013631 0.03610622 -0.011249636 0.008183993 -0.009978634 -0.079300955 0.006836073
-0.043053742 -0.05305862 -0.01871851 -0.017299103 -0.060324617 0.0034869513 0.003345739 -0.019825758
-0.09453543 -0.0032312784 0.011339778 -0.062456112 0.0063412664 -0.025695805 -0.033894684 -0.03570789
-0.014344822 -0.02120714 -0.01755656 -0.025518622 -0.0587023 -0.013018885 -0.015379286 0.006732616
-0.012043229 0.005155204 -0.020537067 -0.057443544 0.044232685 -0.048638646 0.016594619 -0.00781752
-0.005918853 -0.067259885 0.022634868 -0.06574435 -0.0460376 -0.06186246 -0.06368751 0.02408519
-0.04023399 -0.06448232 -0.0074311593 -0.031095855 -0.008830253 -0.043823488 -0.053095136 0.023775691
-0.09437835 -0.041114926 -0.012236863 -0.012357833 -0.029519634 -0.018050645 0.0101835355 -0.03970116
0.057996918 -0.024681173 0.034904256 -0.0018453231 -0.05025437 -0.010377705 -0.0797783 -0.002605094
-0.05037703 0.049208738 -0.018980796 0.013709273 -0.0056531625 -0.016292125 -0.0011076586 -0.011286038
-0.03291865 -0.0073147533 -0.006948761 -0.015420753 -0.0083335675 -0.0146603435 -0.03567545 -0.0018381343
-0.013492843 -0.0314297 -0.030363265 -0.059635893 0.001975199 0.004424478 0.0034787345 -0.015938947
-0.012835438 -0.0047098817 0.039130576 -0.008854588 -0.0024421974 -0.0052532097 -0.031835645 -0.002592799
0.026955936 -0.050219197 -0.012234089 -0.020043729 -0.024953447 0.005143712 0.0026452083 0.024924684
-0.04502351 0.021560578 -0.027139561 0.057879653 0.031472523 0.022068607 0.058823325 -0.0077997097
-0.042584684 0.015324454 -0.005988873 0.0032166827 0.022821575 0.030679855 0.028415862 0.036766566
0.0014190872 -0.054275278 0.010379905 0.032056365 -0.046298668 0.010530152 -0.03400635 0.020245869
0.0023954094 -0.0074152118 0.007134005 -0.11214775 0.001102415 0.046124548 0.05172553 0.018298395
0.005100901 0.029509054 -0.10947088 -0.028267348 0.0033310498 0.032014523 0.034210287 0.0019332068
0.03464084 0.015155803 0.015667323 0.051108453 -0.0032601028 0.031590223 0.029630264 0.016885286
0.052331533 0.024100034 -0.01243793 0.012085138 0.018358072 0.0067842463 -0.03647913 -0.019263227
0.015423716 -0.008272906 0.023134127 0.007840023 0.02767405 -0.0025847885 -0.004481359 0.07308298
0.021487977 0.01641926 0.03187017 0.01232137 0.051996596 0.033795476 0.037692625 -0.00398559
-0.04827378 0.036405727 0.050553944 0.060951702 0.04824023 0.011131884 0.03327394 0.010888524
-0.048348024 0.019857915 0.025600197 -0.03511782 0.019146789 -0.0026407295 0.007327001 -0.030187977
0.03447842 -0.004157155 -0.020988973 -0.015219862 0.032722022 0.022575287 0.052304253 0.013902165
0.029471181 0.039658263 -0.04166552 -0.023074424 0.026559515 -0.0005666839 0.034850646 -0.036148306
0.029080955 0.04890112 -0.012499363 0.0028068712 0.023832109 0.039410908 0.03020655 0.02686853
0.022364495 -0.016444033 -0.028080776 0.04265544 0.06561369 0.0509786 -0.025968462 0.041518845
0.016257962 0.018444987 0.03274251 0.012708991 -0.054171618 -0.03495514 0.03754607 -0.057694517
00000000: f195 ee3c 64ce 05bc 126f 6bbd f8ed 9f3b
00000010: 1244 703c 790e 76bd 00cd 32bc 72d9 2a3c
00000020: d3ce 8cbd d6d5 2dbd efbf 2fbd 666e 43bd
00000030: f73d 51bb d938 6e3c f56b fcbc 0175 87bc
00000040: 0992 a6bd 7597 cfbd 1ee4 133d 6550 38bc
00000050: 2816 063c 6d7d 23bc 8a68 a2bd 2301 e03b
00000060: 1f59 30bd ff53 59bd 9057 99bc d9b6 8dbc
00000070: f216 77bd 5685 643b 3044 5b3b a169 a2bc
00000080: cb9b c1bd dbc3 53bb 7aca 393c fbd1 7fbd
00000090: 66ca cf3b 0280 d2bc 27d5 0abd 7042 12bd
000000a0: 8b06 6bbc 99ba adbc c6d2 8fbc 6e0c d1bc
000000b0: d371 70bd 294d 55bc 67f9 7bbc 479d dc3b
000000c0: f750 45bc fcec a83b 5a3d a8bc ec49 6bbd
000000d0: 552d 353d 5139 47bd 70f1 873c 0e15 00bc
000000e0: f0f2 c1bb 8dbf 89bd c26c b93c f9a4 86bd
000000f0: ec91 3cbd 7e63 7dbd 996e 82bd 4e4e c53c
00000100: 65cc 24bd 4e0f 84bd 1581 f3bb bcbc febc
00000110: c4ac 10bc 4280 33bd 497a 59bd 3dc5 c23c
00000120: 7049 c1bd 2068 28bd 207d 48bc 8278 4abc
00000130: 29d3 f1bc f2de 93bc d8d8 263c af9d 22bd
00000140: 2d8e 6d3d 2c30 cabc c4f7 0e3d c5de f1ba
00000150: 87d7 4dbd 4007 2abc ce62 a3bd 3aba 2abb
00000160: 2558 4ebd 1a8f 493d 9d7d 9bbc dc9c 603c
00000170: 2a3e b9bb 1077 85bc db2e 91ba 13e9 38bc
00000180: b5d5 06bd 99b0 efbb 6fb2 e3bb 53a7 7cbc
00000190: 8489 08bc f031 70bc 6c20 12bd 8ded f0ba
000001a0: 1611 5dbc 6ebc 00bd 62bc f8bc c444 74bd
000001b0: 5772 013b 36fb 903b 7bfb 633b 6592 82bc
000001c0: bb4b 52bc 5a55 9abb 6247 203d d512 11bc
000001d0: 460d 20bb 1e23 acbb 1866 02bd f3eb 29bb
000001e0: b2d2 dc3c a5b2 4dbd 7d71 48bc bf32 a4bc
000001f0: 2c6b ccbc 958c a83b 3b5b 2d3b da2e cc3c
00000200: 926a 38bd cf9f b03c c953 debc 3713 6d3d
00000210: 55e9 003d 39c9 b43c baf0 703d b594 ffbb
00000220: 476d 2ebd 6b13 7b3c 4f3e c4bb fbce 523b
00000230: 50f4 ba3c 5254 fb3c 62c8 e83c 8a98 163d
00000240: aa00 ba3a c14f 5ebd 7a10 2a3c 894d 033d
00000250: aca3 3dbd a986 2c3c 3e4a 0bbd aada a53c
00000260: 4dfc 1c3b 4efb f2bb 5fc4 e93b b8ad e5bd
00000270: e97e 903a 18ed 3c3d 26de 533d 84e6 953c
00000280: 7525 a73b f9bc f13c 4532 e0bd ed90 e7bc
00000290: be4d 5a3b a921 033d 1620 0c3d a863 fd3a
000002a0: 8ee3 0d3d 0c50 783c c258 803c 1957 513d
000002b0: 73a7 55bb c064 013d 2bbb f23c 0353 8a3c
000002c0: 9759 563d 6f6d c53c 76c8 4bbc be00 463c
000002d0: ab63 963c 624e de3b 246b 15bd eacd 9dbc
000002e0: c1b3 7c3c 158b 07bc c883 bd3c 7173 003c
000002f0: b0b4 e23c 8e65 29bb 5dd8 92bb 88ac 953d
00000300: 8e07 b03c af81 863c 4c8a 023d 92df 493c
00000310: 62fa 543d 206d 0a3d 9563 1a3d 8d99 82bb
00000320: baba 45bd 2c1e 153d a711 4f3d 7ea8 793d
00000330: 8c97 453d 8162 363c 414a 083d c865 323c
00000340: 9408 46bd 11ad a23c 81b7 d13c b4d7 0fbd
00000350: bad9 9c3c 1710 2dbb 5717 f03b c74c f7bc
00000360: 3e39 0d3d be38 88bb 11f1 abbc ba5c 79bc
00000370: 8707 063d cfef b83c fc3c 563d e8c5 633c
00000380: 8c6d f13c b470 223d 77a9 2abd 9306 bdbc
00000390: 5793 d93c 838d 14ba 8dbf 0e3d 3f10 14bd
000003a0: 2f3b ee3c 8a4c 483d 21ca 4cbc 7cf3 373b
000003b0: 8e3b c33c 556d 213d ba73 f73c 641b dc3c
000003c0: bf35 b73c a3b5 86bc a809 e6bc 78b7 2e3d
000003d0: 7860 863d f0ce 503d d0bb d4bc aa0f 2a3d
000003e0: 6b2f 853c f119 973c 031d 063d 5f39 503c
000003f0: 0fe3 5dbd 1f2d 0fbd e8c9 193d 1651 6cbd

action_model._continuous_distribution.mu.bias f4 [2]
0.040551815 0.019323274
00000000: a919 263d d84b 9e3c

exp_avg f4 [128, 6]
-0.0016556915 -0.0016412192 6.624566e-05 -0.0015529492 -0.0016412192 1.357845e-05 0.002804791 0.0038810764
-0.00033827545 0.0019269183 0.0038810722 0.004144746 0.0027877414 0.0032190655 -0.0004677836 0.0019881285
0.0032190639 0.003291783 0.0004562203 0.00055393274 -0.00022527175 0.0001197473 0.00055393187 0.0011887889
-0.0041902266 -0.005403723 0.00029819936 -0.0027428297 -0.005403715 -0.007748466 0.006133752 0.007574913
-0.00094811444 0.0041278396 0.007574905 0.008696793 -0.00029435146 -0.0003815874 4.211841e-05 -0.00020060883
-0.000381587 -0.00039459264 -0.0012789273 -0.0018648689 8.772158e-05 -0.00068560283 -0.0018648662 -0.0026554882
0.00019736402 0.00034071004 0.00029964908 0.00048309506 0.00034070975 0.00013124662 -0.00013420187 -8.260602e-05
7.413681e-05 -8.278474e-05 -8.260596e-05 -0.0002588567 0.00096668064 0.0012874285 0.0010818108 0.0022717803
0.0012874284 -0.002570419 0.0087237 0.010649107 -0.0015851563 0.005515433 0.010649095 0.012258982
-4.6326364e-05 -4.9089176e-05 1.6266476e-05 -2.1145373e-05 -4.908914e-05 -5.841499e-05 0.0002572155 0.00035857188
1.9716133e-05 0.00017722909 0.00035857141 0.00043530905 3.9299543e-05 5.746787e-05 3.1734133e-05 7.421973e-05
5.746785e-05 -3.836844e-05 -0.00012270063 -0.00016106079 -5.6404456e-06 -9.121788e-05 -0.00016106061 -0.00016780579
-0.00047624914 -0.00051340123 0.00013092703 -0.0003847779 -0.00051340065 -0.0005827185 2.6917969e-05 3.7029415e-05
-1.9532713e-06 2.0522006e-05 3.702937e-05 4.1938572e-05 -0.0002669964 -0.00030685792 3.903936e-05 -0.00019614518
-0.00030685758 -0.0002571413 0.000651558 0.0008386135 0.0001422037 0.000883909 0.0008386128 -0.0002537995
0.010799664 0.013316524 -0.0028955047 0.0058146184 0.01331651 0.016530048 0.0005662138 0.00071125006
0.00021844654 0.0015354637 0.0007112505 -0.0013510035 0.00056216546 0.0004702625 -6.158532e-05 0.00032602221
0.0004702626 0.0004940321 0.001259941 0.0015332468 0.0007337105 0.0019742537 0.0015332464 -0.0011299053
3.680907e-07 0.00015546163 -0.00090730714 -0.00049128843 0.00015546099 0.0011567845 -0.0015243654 -0.0018376445
0.001109551 -0.000594147 -0.0018376426 -0.0022151817 6.206684e-05 0.00014827956 0.00012389371 0.000110788744
0.00014827937 9.461795e-05 0.00075562333 0.000525143 -0.001209103 -0.00016812101 0.00052514236 0.0015141014
-0.004030803 -0.005523382 -7.27835e-05 -0.0027620886 -0.0055233752 -0.0065571275 -0.0008939631 -0.0007409938
-4.7099835e-05 -0.0012186255 -0.000740994 0.0004878962 0.00011844947 0.00016658986 7.735002e-06 8.740398e-05
0.00016658966 0.0001899435 0.00038435298 0.00046328688 0.000110039124 0.00065958936 0.00046328682 -0.00040161313
0.000277259 0.0002440458 -0.00014612291 0.00054680416 0.00024404595 -0.00041180366 0.001496904 0.0017900105
0.00049403246 0.0021693395 0.0017900099 -0.00100515 0.0008824907 0.0014577764 0.00065118173 0.001485879
0.0014577754 -0.0008100168 0.0003142617 -0.0003875647 -0.0020132058 -0.0011754006 -0.00038756483 0.002310782
0.0088521615 0.011122012 -0.002503891 0.0047440003 0.011121999 0.014066169 -0.0073168785 -0.009348258
0.00042311117 -0.0055250954 -0.009348249 -0.009117873 0.00030396658 0.00023193061 -0.00017861213 0.0001602725
0.00023193067 6.83994e-05 -0.000952863 -0.0015461195 0.0007852719 0.00091171113 -0.0015461165 -0.005634507
0.00056939723 0.0006790771 -0.00010843466 0.00033056008 0.0006790763 0.0009953965 -0.0061105518 -0.007505588
3.0174444e-05 -0.005388174 -0.0075055812 -0.0050544604 -0.00014030373 -0.00017801406 2.0203906e-05 -8.839465e-05
00000000: ca03 d9ba 2e1e d7ba 5eed 8a38 548c cbba
00000010: 2e1e d7ba 00cf 6337 96d0 373b a859 7e3b
00000020: 905a b1b9 a690 fc3a 9659 7e3b a6d0 873b
00000030: 8ab2 363b f5f6 523b da40 f5b9 434b 023b
00000040: eef6 523b f4ba 573b da30 ef39 cc35 113a
00000050: ed36 6cb9 d820 fb38 bd35 113a 23d1 9b3a
00000060: 2b4e 89bb b711 b1bb a457 9c39 0cc1 33bb
00000070: a611 b1bb d8e6 fdbb a4fd c83b fa36 f83b
00000080: e28a 78ba d442 873b e936 f83b fe7c 0e3c
00000090: 2f53 9ab9 cb0f c8b9 4ca8 3038 865a 52b9
000000a0: bd0f c8b9 54e1 ceb9 aea1 a7ba 9e6e f4ba
000000b0: 2af7 b738 07ba 33ba 876e f4ba b307 2ebb
000000c0: 80f3 4e39 54a1 b239 381a 9d39 ec47 fd39
000000d0: 4aa1 b239 3f9f 0939 8ab8 0cb9 c53c adb8
000000e0: e679 9b38 b89c adb8 bd3c adb8 28b7 87b9
000000f0: d768 7d3a efbe a83a 8ccb 8d3a 26e2 143b
00000100: eebe a83a 7a74 28bb daed 0e3c 9879 2e3c
00000110: 05c5 cfba ceba b43b 8b79 2e3c e6d9 483c
00000120: 8e4e 42b8 1ae5 4db8 fe73 8837 5861 b1b7
00000130: 10e5 4db8 9e02 75b8 e1da 8639 b4fe bb39
00000140: 1364 a537 92d6 3939 a4fe bb39 313a e439
00000150: 90d5 2438 a809 7138 441a 0538 6aa6 9b38
00000160: a209 7138 cced 20b8 33a9 00b9 6de2 28b9
00000170: 0f43 bdb6 3a4c bfb8 61e2 28b9 06f5 2fb9
00000180: 14b1 f9b9 c695 06ba 7549 0939 04bc c9b9
00000190: bc95 06ba 94c1 18ba e6cd e137 0850 1b38
000001a0: f214 03b6 ac26 ac37 fc4f 1b38 33e7 2f38
000001b0: a6fb 8bb9 c6e1 a0b9 32be 2338 52ac 4db9
000001c0: bae1 a0b9 ecd0 86b9 51cd 2a3a 66d6 5b3a
000001d0: 841c 1539 21b6 673a 5ad6 5b3a 6410 85b9
000001e0: 13f1 303c 8d2d 5a3c 82c2 3dbb 8e88 be3b
000001f0: 7e2d 5a3c 066a 873c f76d 143a 2f73 3a3a
00000200: cc0e 6539 9d41 c93a 3773 3a3a 2814 b1ba
00000210: 495e 133a 908d f639 5e27 81b8 f6ed aa39
00000220: 948d f639 ef81 013a 9b24 a53a 3af7 c83a
00000230: 7a56 403a 7b62 013b 36f7 c83a 5519 94ba
00000240: 009e c534 6a03 2339 5ad8 6dba cfc9 00ba
00000250: 3e03 2339 3f9f 973a 37cd c7ba 1edd f0ba
00000260: 5b6e 913a 88c0 1bba 0edd f0ba 952c 11bb
00000270: e229 8238 7e7b 1b39 77e9 0139 4157 e838
00000280: 717b 1b39 a06d c638 0615 463a c0a9 093a
00000290: c47a 9eba a449 30b9 b5a9 093a d074 c63a
000002a0: d414 84bb 7dfd b4bb 58a3 98b8 2804 35bb
000002b0: 6efd b4bb 2cdd d6bb d958 6aba 413f 42ba
000002c0: 108d 45b8 49ba 9fba 443f 42ba 52cc ff39
000002d0: 1368 f838 a0ae 2e39 95c5 0137 a84c b738
000002e0: 92ae 2e39 922b 4739 fc82 c939 50e5 f239
000002f0: cec4 e638 4be8 2c3a 4ee5 f239 9a8f d2b9
00000300: 135d 9139 8ce6 7f39 9238 19b9 6857 0f3a
00000310: 96e6 7f39 5ae7 d7b9 c333 c43a c99e ea3a
00000320: f581 013a 7a2b 0e3b c49e ea3a 3dbf 83ba
00000330: f356 673a dc12 bf3a 11b4 2a3a d3c1 c23a
00000340: d312 bf3a 4f57 54ba 7ec3 a439 0e32 cbb9
00000350: fdef 03bb e60f 9aba 1232 cbb9 7d70 173b
00000360: a808 113c 1939 363c 5218 24bb 8f73 9b3b
00000370: 0b39 363c ca75 663c 6dc2 efbb 7029 19bc
00000380: 05d5 dd39 dc0b b5bb 6629 19bc 2263 15bc
00000390: b45d 9f39 6632 7339 d449 3bb9 d20e 2839
000003a0: 6a32 7339 a671 8f38 8ec9 79ba 29a7 caba
000003b0: b5da 4d3a e6ff 6e3a 10a7 caba aca1 b8bb
000003c0: 9a43 153a 1804 323a 6a67 e3b8 064f ad39
000003d0: 0a04 323a f777 823a 063b c8bb 6ff1 f5bb
000003e0: 201f fd37 488f b0bb 61f1 f5bb e39f a5bb
000003f0: 7f1e 13b9 49a9 3ab9 8f7b a937 8460 b9b8

exp_avg_sq f4 [128, 6]
0.00042117492 0.00052170083 0.00017915294 0.00030884362 0.00052170147 0.000495041 0.00014943063 0.00027309288
0.00015666282 0.00013244977 0.00027309713 0.0003840371 5.0343144e-05 0.00013039573 7.918728e-05 5.317873e-05
0.00013039526 0.00014430609 8.639969e-06 5.3413085e-05 3.886123e-05 4.230796e-06 5.3413092e-05 0.00010826663
0.00062471494 0.0007160469 9.171887e-05 0.0004153566 0.0007160466 0.000867397 0.000117785705 0.00023304594
0.00012329491 7.9796526e-05 0.00023304595 0.00033761957 3.2011958e-06 2.107302e-05 1.4567054e-05 1.7223783e-06
2.1073007e-05 4.291122e-05 6.45494e-05 0.00012275655 6.629446e-05 4.0972343e-05 0.0001227574 0.00016912543
1.5673177e-05 4.663176e-06 4.47203e-06 2.6602715e-06 4.663029e-06 2.04321e-06 6.09887e-05 6.898952e-05
4.7212903e-05 5.87305e-05 6.899298e-05 5.964036e-05 0.00014278764 0.00036746648 0.00028295172 0.00015606039
0.00036747078 0.00042527093 0.00030937558 0.00030483594 9.203903e-05 0.00021724771 0.00030483544 0.00032202722
2.190288e-07 1.0004162e-06 1.547829e-06 1.971678e-07 1.0004171e-06 8.177744e-07 1.0659415e-06 5.1003562e-06
5.9934437e-06 8.124796e-07 5.100375e-06 4.996269e-06 1.1671307e-05 8.691231e-05 6.326521e-05 5.5818564e-06
8.691234e-05 0.00017914285 2.696664e-07 1.6064262e-06 1.0846925e-06 1.3472977e-07 1.6064287e-06 3.1300272e-06
5.9493796e-05 7.500972e-05 1.5087971e-05 3.1326068e-05 7.5010474e-05 0.00010805748 2.0676931e-05 0.00016424624
0.0001381946 1.1158347e-05 0.00016424624 0.00032086606 7.0617293e-06 2.0948853e-05 1.3908606e-05 2.2122515e-06
2.0948837e-05 3.8350256e-05 2.9302275e-05 0.00016509867 0.00012069664 2.2539225e-05 0.00016509903 0.00029751472
0.0008946304 0.000991329 0.00014041118 0.00072796055 0.0009913353 0.0011065628 1.6484651e-05 8.859822e-06
7.1813647e-06 2.9029869e-05 8.858721e-06 4.309472e-06 2.7713128e-05 3.428102e-05 1.0223203e-05 3.7063368e-05
3.4281147e-05 3.9624974e-05 1.2073022e-05 3.361982e-05 2.5437372e-05 3.7240843e-05 3.3620046e-05 1.9023026e-05
0.0002138986 0.00025536556 0.00020335104 0.00018850062 0.00025537334 0.00015915271 0.00054050045 0.000620792
0.000104538994 0.00031532996 0.00062079605 0.0007454724 4.29176e-06 6.0665375e-06 3.4774653e-06 5.475333e-07
6.066544e-06 1.0287099e-05 0.00013494474 0.00013609925 8.3293446e-05 0.00012848078 0.00013609898 9.442851e-05
4.981367e-05 7.039604e-05 1.3007197e-05 3.876014e-05 7.039611e-05 9.567909e-05 5.8850776e-05 6.8644316e-05
6.103648e-05 6.721999e-05 6.864445e-05 3.9615163e-05 4.2218346e-07 7.5856985e-07 5.082374e-07 3.3384802e-07
7.5857247e-07 8.167013e-07 1.7502521e-06 1.2236452e-06 5.77011e-07 2.0731752e-06 1.2236281e-06 1.1840594e-06
3.9629217e-06 4.9689706e-06 6.0457924e-06 6.036923e-06 4.969245e-06 3.1586173e-06 5.978097e-06 8.01302e-06
2.147973e-06 2.5961068e-05 8.011872e-06 6.6955445e-06 6.4799e-05 9.884337e-05 4.351427e-05 6.21259e-05
9.884632e-05 0.000109124965 2.6518166e-05 9.792203e-05 6.359733e-05 1.4757839e-05 9.7922166e-05 0.00019013586
0.00038654509 0.00048311037 9.804481e-05 0.00037600406 0.00048311078 0.00053093885 0.00047296888 0.0006889284
0.000519425 0.00048607378 0.0006889241 0.0004387849 2.6477344e-05 0.00011233138 7.5818134e-05 1.1426963e-05
0.00011233146 0.00022054133 0.00019534273 0.0003485566 0.00014746212 0.00020524736 0.00034856427 0.00022695458
4.340985e-06 2.1043928e-05 1.7634977e-05 3.5634841e-06 2.1043992e-05 3.4295117e-05 0.00013564313 0.00019730769
7.558356e-05 9.037604e-05 0.00019730824 0.00019645631 5.3408538e-08 1.6819094e-07 1.08689115e-07 8.368116e-08
00000000: 24d1 dc39 c0c2 083a 00db 3b39 4aec a139
00000010: cbc2 083a a4c5 013a 7bb0 1c39 e82d 8f39
00000020: db45 2439 37e2 0a39 7a2e 8f39 9658 c939
00000030: 8a27 5338 d6ba 0839 5911 a638 3a0c 5f38
00000040: b6ba 0839 df50 1739 62f4 1037 dd07 6038
00000050: eefe 2238 43f6 8d36 df07 6038 340d e338
00000060: e9c3 233a 18b5 3b3a 3259 c038 38c4 d939
00000070: 13b5 3b3a 0762 633a b803 f738 cb5d 7439
00000080: ba48 0139 6f58 a738 cc5d 7439 8802 b139
00000090: 20d4 5636 f7c5 b037 0565 7437 782c e735
000000a0: f0c5 b037 92fb 3338 b25e 8738 36b8 0039
000000b0: 9107 8b38 b8d9 2b38 70b8 0039 4357 3139
000000c0: e479 8337 6078 9c36 720e 9636 1e87 3236
000000d0: 1d77 9c36 151e 0936 1ece 7f38 77ae 9038
000000e0: 7806 4638 6555 7638 53b0 9038 5926 7a38
000000f0: 44b9 1539 84a8 c039 2359 9439 24a4 2339
00000100: 18a9 c039 e6f6 de39 b033 a239 63d2 9f39
00000110: 1405 c138 fdcc 6339 52d2 9f39 c3d5 a839
00000120: 2e2e 6b34 0a46 8635 00bf cf35 12b5 5334
00000130: 1246 8635 0785 5b35 7911 8f35 ba23 ab36
00000140: 4a1b c936 2c19 5a35 e323 ab36 a0a5 a736
00000150: e2cf 4337 b144 b638 40ad 8438 c84b bb36
00000160: b544 b638 4bd8 3b39 abc6 9034 629c d735
00000170: c095 9135 3daa 1034 789c d735 750d 5236
00000180: fa88 7938 894e 9d38 5822 7d37 1c64 0338
00000190: f14e 9d38 eb9c e238 5f73 ad37 8439 2c39
000001a0: 55e8 1039 bc34 3b37 8439 2c39 ea39 a839
000001b0: cbf3 ec36 52bb af37 0259 6937 3176 1436
000001c0: 49bb af37 46da 2038 28ce f537 561e 2d39
000001d0: 841e fd38 9e12 bd37 6f1e 2d39 c0fb 9b39
000001e0: a185 6a3a 7bef 813a 573b 1339 9bd4 3e3a
000001f0: b1ef 813a 160a 913a 8548 8a37 a5a4 1437
00000200: 74f7 f036 2b85 f337 eb9f 1437 159a 9036
00000210: 7d79 e837 f7c8 0f38 5384 2b37 7d74 1b38
00000220: 1ac9 0f38 fe32 2638 3c8d 4a37 0203 0d38
00000230: 5762 d537 0d33 1c38 4003 0d38 a393 9f37
00000240: f849 6039 96e2 8539 a13a 5539 40a8 4539
00000250: a1e3 8539 3be2 2639 5fb0 0d3a a5bc 223a
00000260: f23b db38 df52 a539 ebbc 223a ce6b 433a
00000270: f001 9036 298f cb36 665e 6936 34fa 1235
00000280: 378f cb36 c196 2c37 f47f 0d39 ddb5 0e39
00000290: d4ad ae38 ccb8 0639 cbb5 0e39 ec07 c638
000002a0: 05ef 5038 96a1 9338 7c39 5a37 6292 2238
000002b0: a0a1 9338 52a7 c838 8ad6 7638 23f5 8f38
000002c0: b600 8038 75f8 8c38 35f5 8f38 7528 2638
000002d0: 74a8 e234 86a0 4b35 cf6d 0835 b93b b334
000002e0: b4a0 4b35 493b 5b35 34ea ea35 213c a435
000002f0: e5e3 1a35 e120 0b36 8b3b a435 f9eb 9e35
00000300: 3df9 8436 22bb a636 f6dc ca36 c690 ca36
00000310: 7dbd a636 a2f8 5336 7697 c836 a96f 0637
00000320: e525 1036 f8c6 d937 ba6a 0637 4aaa e036
00000330: b3e4 8738 214a cf38 1783 3638 9749 8238
00000340: b74b cf38 05da e438 5473 de37 7d5b cd38
00000350: 8e5f 8538 7098 7737 905b cd38 355f 4739
00000360: 34a9 ca39 fa49 fd39 689d cd38 6922 c539
00000370: 084a fd39 b42e 0b3a cff8 f739 3499 343a
00000380: 062a 083a b8d7 fe39 ea98 343a b60c e639
00000390: aa1b de37 7393 eb38 8d00 9f38 6fb6 3f37
000003a0: 7e93 eb38 1d41 6739 ead4 4c39 7abe b639
000003b0: 10a0 1a39 ab37 5739 81bf b639 a8fa 6d39
000003c0: c7a8 9136 7e87 b037 d3ee 9337 3124 6f36
000003d0: a187 b037 1ad8 0f38 6d3b 0e39 61e4 4e39
000003e0: 9d82 9e38 4488 bd38 87e4 4e39 d7ff 4d39
000003f0: 4f63 6533 f997 3434 7968 e933 34b4 b333

exp_avg f4 [128]
-0.00041340973 0.00097634963 0.0008105708 0.00013869253 -0.0013585208 0.0019062911 -9.5952266e-05 -0.00046903983
8.6224805e-05 -2.147873e-05 0.00032485672 0.0026794123 -1.238265e-05 9.025989e-05 1.4579088e-05 -4.059092e-05
-0.00012924577 9.319767e-06 -7.720395e-05 0.00021108123 0.003349857 0.00017978386 0.00011916596 0.00038661255
3.6915757e-05 -0.0004625402 3.7448808e-05 0.00012953127 -0.0013905675 -0.0001855721 4.1924235e-05 0.000116713345
6.153596e-05 0.00045257085 0.0003674759 -9.82185e-05 0.0027960115 -0.0023529045 5.9592014e-05 -0.000388756
0.00017083788 -0.0018895791 -4.4795033e-05 -2.078827e-05 -0.0006272018 0.00049391034 0.00019295895 -4.889775e-05
-0.0007519779 3.5150144e-05 -0.0016347097 0.0022030342 0.00015297464 0.00045992545 0.0011320366 0.00011079053
0.00060633454 1.1579305e-06 0.0006446892 0.00020771529 0.00055108813 -0.00016085486 0.00034809607 -7.333503e-05
0.00015086026 -6.9606112e-06 -0.00012715114 -0.0024464803 -0.0011325085 -2.0084362e-06 -0.001705623 -0.0021931936
0.00024620295 4.174838e-05 -3.1361662e-05 -0.0010731717 -2.8531547e-05 -6.2073773e-06 3.7250524e-05 0.0007541143
-5.7202806e-06 0.0022361625 0.00015521332 -9.146141e-05 -0.0008900274 -1.00336665e-05 -0.0013288829 -9.726654e-05
0.00021979788 -3.6936162e-06 -2.3934525e-05 2.7390905e-05 5.461806e-05 0.0006144201 -2.4078614e-05 0.00051052833
-0.00027043885 -9.889585e-06 0.0006148312 -0.00010547016 0.00020619808 -0.0009976944 9.5615505e-05 2.548282e-05
0.00017765122 -0.00041486963 0.0006276956 -0.0012596659 -1.8828177e-05 0.0048326836 0.00016005166 0.0011341671
0.0006977037 0.0009883273 -0.0012181348 0.0024794086 -0.0018933986 0.00021408591 1.7592154e-05 0.00080900046
-9.858559e-06 0.0029985344 -6.11934e-05 0.0001310732 0.00021774473 -0.0021358903 0.00046036718 -0.0029996843
00000000: eabe d8b9 b7f1 7f3a 7c7c 543a fe6d 1139
00000010: 6510 b2ba 84dc f93a fb39 c9b8 76e9 f5b9
00000020: 97d3 b438 392d b4b7 8851 aa39 1499 2f3b
00000030: 14bf 4fb7 e949 bd38 b598 7437 2b40 2ab8
00000040: 2686 07b9 185c 1c37 8ee8 a1b8 b055 5d39
00000050: 4689 5b3b 5d84 3c39 bde8 f938 42b2 ca39
00000060: fed5 1a38 1881 f2b9 5a12 1d38 c9d2 0739
00000070: b443 b6ba 2296 42b9 ced7 2f38 00c4 f438
00000080: de0c 8138 0847 ed39 c8a9 c039 a8fa cdb8
00000090: 4a3d 373b 3033 1abb 70f2 7938 f2d1 cbb9
000000a0: f222 3339 c1ab f7ba 4de2 3bb8 7862 aeb7
000000b0: cd6a 24ba c379 013a 0655 4a39 8f17 4db8
000000c0: 6220 45ba 2e6e 1338 c143 d6ba c860 103b
000000d0: d167 2039 2622 f139 d860 943a 3658 e838
000000e0: 6cf2 1e3a 306a 9b35 5c00 293a 26ce 5939
000000f0: e676 103a 26ab 28b9 aa80 b639 72cb 99b8
00000100: 3e30 1e39 328f e9b6 e053 05b9 2155 20bb
00000110: ae70 94ba acc8 06b6 368f dfba afbb 0fbb
00000120: cd14 8139 fb1a 2f38 548a 03b8 aba9 8cba
00000130: 0857 efb7 f748 d0b6 723d 1c38 c1af 453a
00000140: d6f0 bfb6 958c 123b c2c0 2239 f8ce bfb8
00000150: ba50 69ba 4556 28b7 e92d aeba 93fb cbb8
00000160: 8b79 6639 d8df 77b6 00c7 c8b7 85c5 e537
00000170: b215 6538 0911 213a 6efc c9b7 fad4 053a
00000180: b0c9 8db9 72eb 25b7 a02c 213a dc2f ddb8
00000190: e036 5839 12c5 82ba 2f85 c838 f0c3 d537
000001a0: e347 3a39 dc82 d9b9 f08b 243a 601b a5ba
000001b0: 34f1 9db7 7d5b 9e3b 8ad3 2739 55a8 943a
000001c0: 1ae6 363a c38a 813a d2a9 9fba 937d 223b
000001d0: ea2b f8ba 407c 6039 dd92 9337 1a13 543a
000001e0: 3066 25b7 0f83 443b f554 80b8 b270 0939
000001f0: 6852 6439 4bfa 0bbb 705d f139 5a96 44bb

exp_avg_sq f4 [128]
3.3025546e-05 1.6915159e-05 8.145145e-06 3.1960742e-06 4.5333734e-05 1.4436248e-05 1.2616105e-06 7.5456364e-06
2.9264731e-07 4.3236673e-06 2.2613816e-05 1.929665e-05 6.0807935e-08 3.1509612e-07 5.188835e-06 9.655104e-08
4.7481085e-06 9.804782e-06 1.2654932e-06 9.964284e-06 6.276696e-05 5.5819845e-07 2.1639037e-06 2.1119235e-06
1.6165983e-05 3.930553e-05 3.67757e-07 8.590197e-06 4.4470976e-06 4.319112e-06 4.7585672e-08 7.7352006e-08
3.076267e-07 5.0527444e-07 6.184608e-06 5.887952e-06 3.056178e-05 4.3605043e-05 6.740351e-06 2.2023194e-05
1.2732695e-06 1.2459793e-05 1.0431124e-08 1.6667848e-06 1.0267864e-05 2.040462e-05 2.4825433e-06 7.3028707e-07
1.6146314e-05 1.8342622e-05 5.6769495e-06 2.819087e-05 8.615297e-06 1.5039833e-05 5.83936e-06 6.681823e-06
1.6051434e-05 6.4152086e-06 2.864966e-06 1.2877402e-05 6.9544067e-06 7.807816e-07 5.8127125e-06 8.3275205e-07
4.764522e-06 6.2082828e-09 1.0540461e-05 3.0377201e-05 6.6481452e-06 6.072285e-08 4.2248453e-06 9.455298e-06
5.293549e-06 1.0267256e-06 1.8224478e-06 2.3952714e-05 4.7745807e-06 5.4266793e-06 1.630572e-07 1.42184845e-05
1.7735825e-08 1.7463348e-05 6.124396e-06 4.557623e-05 3.1816973e-05 1.2448516e-09 8.132763e-06 7.53045e-08
6.5065324e-06 2.1466162e-06 2.055327e-05 1.579739e-07 1.0007797e-06 1.8981762e-05 2.8056843e-06 1.4164713e-05
3.6463912e-06 1.283018e-09 9.736836e-06 2.3573741e-06 5.733301e-07 3.687116e-05 2.7064762e-06 6.909295e-06
6.3178336e-06 4.784484e-06 7.2136763e-06 5.617115e-06 3.07368e-07 7.494657e-05 7.2088583e-06 2.1452073e-05
1.2706564e-05 1.5027628e-05 5.623258e-06 2.5319236e-05 8.7219305e-06 1.9761635e-05 2.519495e-06 8.369194e-06
2.1291362e-06 4.6220033e-05 6.479084e-06 2.3526738e-06 3.8220046e-06 5.6515648e-05 2.8379996e-05 2.6974392e-05
00000000: e984 0a38 07e5 8d37 22a7 0837 237c 5636
00000010: ba24 3e38 3733 7237 9b54 a935 8630 fd36
00000020: 241d 9d34 0514 9136 cdb2 bd37 3edf a137
00000030: 8495 8233 7b2a a934 c11b ae36 7f57 cf33
00000040: f151 9f36 387f 2437 04da a935 462c 2737
00000050: c1a1 8338 1bd7 1535 9537 1136 92ba 0d36
00000060: 2f9c 8737 fedb 2438 2370 c534 9d1e 1037
00000070: 4738 9536 e4ec 9036 0061 4c33 b71c a633
00000080: e427 a534 32a2 0735 6185 cf36 1f91 c536
00000090: 762f 0038 8fe4 3638 2d2b e236 73be b837
000000a0: 35e5 aa35 670a 5137 9234 3332 4ab6 df35
000000b0: 2444 2c37 962a ab37 c599 2636 f208 4435
000000c0: f271 8737 7bde 9937 a07c be36 6f7b ec37
000000d0: 6b8a 1037 9753 7c37 b8ef c336 6c34 e036
000000e0: 31a6 8637 3942 d736 be43 4036 050c 5837
000000f0: e659 e936 e796 5135 d20a c336 498a 5f35
00000100: efde 9f36 a250 d531 efd6 3037 8bd2 fe37
00000110: 2213 df36 bd66 8233 25c3 8d36 32a2 1e37
00000120: 3d9f b136 06ce 8935 d49a f435 10ee c837
00000130: 5635 a036 d216 b636 d214 2f34 ed8b 6e37
00000140: 7e59 9832 417e 9237 2980 cd36 1b29 3f38
00000150: 3773 0538 5217 ab30 f371 0837 16b7 a133
00000160: b052 da36 960e 1036 d069 ac37 899f 2934
00000170: 8752 8635 063b 9f37 4a49 3c36 fba4 6d37
00000180: 86b4 7436 2f56 b030 645b 2337 6133 1e36
00000190: f2e6 1935 1ba6 1a38 e8a0 3536 64d6 e736
000001a0: c7fd d336 688a a036 020d f236 a77a bc36
000001b0: 5604 a534 a22c 9d38 9fe3 f136 faf3 b337
000001c0: 472e 5537 2c1f 7c37 6baf bc36 a564 d437
000001d0: 6854 1237 cac5 a537 9814 2936 6a69 0c37
000001e0: 48e2 0e36 62dc 4138 e866 d936 a1e2 1d36
000001f0: c53e 8036 370b 6d38 9411 ee37 1147 e237
