MachineLearning/results/testSumo10/MoveTOGoal/MoveTOGoal-499974.onnx (onnx, 75062 bytes, 7 tensors)

network_body._body_endoder.seq_layers.0.weight f4 [128, 6]
000000 40 3f b4 3d 4b 4a a8 bd 07 21 f2 3e da 40 94 3e
       0.088011265 -0.08217295 0.47290823 0.28955728
000010 29 2a 20 3d 65 54 c5 3e f4 2f 38 3d 97 1a cd 3b
       0.039102707 0.3854095 0.044967607 0.0062592733
000020 6a e7 23 3f d7 4f ca 3e 9a 32 83 3d 89 d0 5c bd
       0.64024985 0.39514038 0.06406136 -0.053909812
000030 c8 1e 12 bf 04 1d c9 be 1d 6b 44 bf e7 24 81 3e
       -0.5707822 -0.3927995 -0.7672594 0.25223467
000040 d3 0f d0 3c c9 7b 42 3f f7 7c 74 bd c0 7f a2 3e
       0.02539817 0.7597013 -0.05968949 0.3173809
000050 1e d5 5d 3d 01 74 33 bf 5c 47 d7 bd e5 93 d3 be
       0.054158323 -0.7009888 -0.105116576 -0.41323772
000060 52 19 9e 3d 34 29 4c 3d e8 08 0c bf 57 34 10 3f
       0.07719673 0.04984398 -0.5470109 0.56329864
000070 22 11 63 be 86 09 4d 3c 47 08 12 be d3 20 c7 3e
       -0.22174504 0.012514478 -0.1426097 0.3889223
000080 e0 35 37 be 2b 5a 8b bd 97 3c b0 3e 8c a9 45 be
       -0.17891645 -0.068043076 0.34421226 -0.19302958
000090 15 22 00 bf 73 14 4b 3e 6e d0 ae 3e 85 f8 92 be
       -0.50052005 0.1983202 0.34143394 -0.2870523
0000a0 e2 25 8b be 26 9a ad be e0 bd 24 3e 45 52 1a 3d
       -0.2717734 -0.33906668 0.16088057 0.037676115
0000b0 65 6f 29 bf 8b 50 1e 3e 0f 3b 81 3e 2f 9a 0f bf
       -0.661856 0.15460412 0.2524037 -0.5609464
0000c0 2a c8 a2 3e 0a 36 57 bd 3d 31 0a bf 0c 80 92 be
       0.31793338 -0.05254177 -0.5398138 -0.28613317
0000d0 10 62 de be a2 85 d3 be bc 28 9b be ea d3 51 3e
       -0.4343419 -0.4131289 -0.30304515 0.20490995
0000e0 53 72 4a 3f 98 e9 e1 3d 49 ce b9 3e 3e 03 22 bf
       0.79080695 0.110308826 0.36290196 -0.632862
0000f0 33 67 25 be 93 d4 9c 3d 8a 95 94 3b 6c cf d8 3e
       -0.16152649 0.07657733 0.004534428 0.4234575
000100 e3 d8 9c bd c7 49 b9 be 4f 86 73 3f 79 c6 2c 3e
       -0.07658555 -0.361891 0.95126814 0.16872586
000110 4a a4 b4 be 97 d6 f0 3c 3f c8 21 bf d7 e8 9b 3e
       -0.35281593 0.0293992 -0.63196176 0.3045108
000120 47 da 23 be a8 ec da be 24 f0 1c bf e2 7e 8c be
       -0.16001235 -0.4275868 -0.61303926 -0.27440554
000130 84 e2 a7 be 06 86 43 bc be 95 1d bf b5 da e1 be
       -0.32790005 -0.011933809 -0.61556613 -0.44112173
000140 7b ec f2 be a7 a7 b2 be 6c b5 99 3e 93 39 36 3e
       -0.47446045 -0.34893534 0.30021226 0.177954
000150 89 5b 24 bf 8c c1 9b bc 0a bb d5 bd dc 1f 16 bf
       -0.6420217 -0.019013189 -0.104360655 -0.58642364
000160 f5 93 a5 bd 7b 2b d0 be 55 bd d9 be 85 a2 0e bf
       -0.08084861 -0.40658173 -0.4252726 -0.55716735
000170 03 3d ba be 48 bc 2f bf 3b 7e 0f 3e 3a f2 14 be
       -0.36374673 -0.6864667 0.14012997 -0.14545527
000180 6b dc 08 be d5 6f 45 be c3 93 eb 3d e1 a3 73 3d
       -0.13365333 -0.19280942 0.11502793 0.05948246
000190 c6 26 90 bd 72 d3 85 3e 55 03 9d bf f7 aa 0d bf
       -0.070386454 0.26137882 -1.2266642 -0.55338997
0001a0 52 ef 9a bd dd 94 9c bf 98 83 f6 3e 4d 0e 25 3e
       -0.07565178 -1.223293 0.48147273 0.16118737
0001b0 24 71 d6 3d a2 0f b7 bd bb 49 a9 3e 02 6b a6 be
       0.104707986 -0.089385286 0.33064064 -0.32503515
0001c0 2d 6a 9b be 58 9e 03 be 61 93 0e bf e8 65 2a be
       -0.30354443 -0.12853372 -0.5569363 -0.16640437
0001d0 4b ba cc 3e 35 5d 8c bd 2b ff b6 3c 31 ff 83 be
       0.3998588 -0.06853715 0.02233847 -0.25780633
0001e0 b6 51 5b 3f 3c f2 f3 3c 18 15 cf be 0d 10 99 3e
       0.85671556 0.029778592 -0.4044578 0.29895058
0001f0 e6 2a b6 bc 57 2e 93 be cd 63 31 3c ff b8 02 bf
       -0.022237252 -0.28746292 0.010827017 -0.5106353
000200 55 91 58 bf 18 a0 be 3e e1 63 ca be 2b b3 f4 be
       -0.8459676 0.37231517 -0.39529327 -0.47792944
000210 de aa 79 be fb bd 9c 3e 68 fb 8d be 0d 7e e6 3e
       -0.24381587 0.30613694 -0.2773087 0.45018044
000220 31 f5 43 bf 26 59 b1 3e 76 d7 ec be 09 a7 85 be
       -0.7654601 0.34638327 -0.46258134 -0.26104
000230 b8 ab a9 3d 92 17 95 3e 8b 11 c6 3e e0 4b a3 be
       0.08284706 0.29119545 0.3868526 -0.31893826
000240 57 3d 12 3f 5d 24 0d be d1 05 be 3e 34 86 38 3e
       0.5712485 -0.13783403 0.37113813 0.18019944
000250 d3 bc a9 be 96 04 d2 bd 7f 21 bc 3e b2 4a 8b be
       -0.33151874 -0.10254781 0.36744305 -0.27205426
000260 2d 7a 0a 3d cb da 3e bf 70 a0 1b 3f 08 5b e6 3e
       0.033807922 -0.745526 0.60791683 0.44991326
000270 e9 54 b0 3e b6 a9 f6 be 4d 9f 54 bd e7 ee 58 bf
       0.3443978 -0.48176354 -0.051909734 -0.84739536
000280 5c 4e dd bd 0e 23 ab be c1 38 80 3c 46 4c a3 3e
       -0.108059615 -0.33425182 0.015652062 0.3189413
000290 ed c9 3a bf 98 ed f8 3e b4 e7 96 3d aa 8e a8 bd
       -0.72964364 0.4861877 0.073684126 -0.08230336
0002a0 a3 e3 b4 be c3 a4 ee 3e 82 55 13 bf 60 5f 06 bd
       -0.35329923 0.46610078 -0.5755235 -0.0328058
0002b0 57 99 c6 be 75 15 fb 3e 08 d0 74 3e 7d 8c 16 bf
       -0.38788864 0.49039808 0.23907483 -0.5880812
0002c0 b5 e1 6b be 7b 44 5b 3f 44 10 4b 3e fa 8c 28 3f
       -0.23035319 0.8565137 0.19830424 0.65840113
0002d0 e8 a6 44 be 74 93 19 bf ba 3e 64 3e 39 87 0d bf
       -0.19204295 -0.5999062 0.22289553 -0.5528446
0002e0 75 77 7d bc bf 1d 4f 3e 4b 78 4c 3d 9d ad 41 bf
       -0.015470375 0.20226191 0.049919408 -0.7565554
0002f0 ba 2e 64 be 71 cb 14 3e 54 4c 9d 3e 9e ac 93 be
       -0.2228345 0.14530732 0.30722296 -0.28842634
000300 48 01 84 ba 1d 97 9d 3d 26 cd 16 bf 71 a3 02 3e
       -0.0010071183 0.07694838 -0.5890678 0.1275766
000310 d0 78 d5 be a8 48 56 be 81 56 f0 bd 3d 9e 2b be
       -0.41693735 -0.20926154 -0.11735249 -0.16759582
000320 d4 21 b7 bd c5 14 12 3f 67 4d f1 be 3a 98 b2 be
       -0.08941999 0.5706294 -0.47129366 -0.34881765
000330 46 c0 19 bd 7d dc 19 3e 54 d9 20 3e 1c c1 91 3e
       -0.037536882 0.15025516 0.15707904 0.28467643
000340 ed ca 02 be 2b 77 61 be e6 a8 e3 3e 95 ea 50 3e
       -0.12772723 -0.22018115 0.44464797 0.20401986
000350 8f c9 ef be 97 61 e7 3d cb 6f 19 bf 55 35 40 bf
       -0.46833465 0.11297911 -0.5993621 -0.7508138
000360 5b 28 e6 3e a1 37 0b 3f 79 a0 e7 be ce 6d 87 be
       0.44952664 0.5438176 -0.45239618 -0.26450962
000370 00 29 21 3d 92 31 9d be f5 f4 1a bf a1 43 d6 3e
       0.03934574 -0.30701882 -0.60530025 0.41848472
000380 43 3e 98 3c 38 13 eb 3e b6 a1 9d 3e 1c ef 94 be
       0.018584376 0.459131 0.30787438 -0.29088676
000390 88 b7 f1 3e 1b 09 8c bd 36 73 89 bd 69 58 86 be
       0.47210336 -0.06837674 -0.06711428 -0.26239327
0003a0 11 14 91 bd 06 52 c9 be 77 59 ed be 21 dc 09 3f
       -0.070839055 -0.3932039 -0.4635732 0.53851515
0003b0 ee a9 84 3d b4 2a f2 bc 57 25 01 3e 6d ce 9d be
       0.06477724 -0.029561378 0.126119 -0.30821553
0003c0 a9 63 9e be f6 00 41 3f 27 5f cd 3d 3b cb 92 be
       -0.3093541 0.7539209 0.100279145 -0.28670678
0003d0 14 49 eb be 45 6b e2 be 27 bb 52 3e 99 2f f7 3e
       -0.45954192 -0.44222465 0.20579205 0.48278502
0003e0 c6 91 76 be 32 a5 4d be 38 11 ee 3c 14 26 a6 bd
       -0.24079046 -0.20082548 0.029060945 -0.081127316
0003f0 2b 9e 38 bf 0d 6e dc be 2e 8f 82 be c7 38 f0 3d
       -0.72116345 -0.43052712 -0.25499862 0.117295794

network_body._body_endoder.seq_layers.0.bias f4 [128]
000000 d6 6c 4a 3d cf 5a 66 3d 15 1d b2 bc 40 ea 54 bd
       0.0494202 0.056238946 -0.021742383 -0.05198121
000010 97 99 0e bd 4b f6 d8 bd a1 58 c6 bd 24 6b 0c ba
       -0.034814443 -0.10593852 -0.09684873 -0.00053565414
000020 db 81 d7 bb 60 09 41 bd 04 81 99 3b 6c 0d 62 bd
       -0.0065767593 -0.04712808 0.0046845693 -0.05518858
000030 d0 06 84 bd 65 ed 84 3d 63 be d6 bc 7c 35 ba bd
       -0.06446612 0.06490592 -0.02621383 -0.090922326
000040 ba a7 b0 bd 57 08 0d 3e 03 b6 2f bd 49 37 41 bd
       -0.08625741 0.13772713 -0.04289819 -0.047171865
000050 ac 3b 89 bd 83 f2 0b 3b 58 6f 83 bd 3d 5e 33 bd
       -0.06700835 0.0021354265 -0.064177215 -0.043791045
000060 ef 5e 86 3d 1f fe 2e 3d 75 53 f9 bd a2 ef 36 3b
       0.06561076 0.042722818 -0.12174121 0.0027913828
000070 04 57 15 be 1e 50 5d bd 53 74 20 bd af 0d de bd
       -0.14583975 -0.054031484 -0.039173435 -0.10842454
000080 99 c6 38 bd 8f af b4 bd df 15 a5 bc fa 74 b2 bd
       -0.045111272 -0.08822548 -0.02015203 -0.08713718
000090 2a 71 71 bd 36 42 a5 bd 10 28 a2 bb 3c 48 8f bc
       -0.058945812 -0.08069269 -0.0049486235 -0.017490499
0000a0 3a 05 10 bd 3b 13 b1 bd 25 9a e1 bd bb 8a 01 be
       -0.035161234 -0.08646246 -0.11015729 -0.12650578
0000b0 3a 3b 43 bd ef 38 27 be 21 71 06 3d 9c ac 61 bd
       -0.047663905 -0.16330312 0.032822732 -0.055096254
0000c0 c7 95 87 bc a6 64 48 bc 85 d1 26 3b 16 b8 a4 3a
       -0.016550912 -0.012231028 0.0025454473 0.0012567069
0000d0 57 14 52 3b f2 5d 95 3c 72 04 2f bd f8 2c f5 bd
       0.003205558 0.018233273 -0.04272885 -0.11971468
0000e0 7f b1 40 3d 23 68 8e bd d0 41 94 bd 74 68 d0 bd
       0.047044273 -0.06953456 -0.07239115 -0.10176173
0000f0 f6 43 c8 bc 1e 0c 6b bd 07 5a a2 3c db 07 b8 b9
       -0.024446469 -0.057384603 0.019818319 -0.00035101068
000100 c6 f5 84 bd 61 c4 89 3a 84 26 02 be c0 f5 da 3c
       -0.0649219 0.0010510796 -0.12710005 0.02672851
000110 93 d8 5a bd bf 19 ec bd 35 85 25 bd 5a 8a 40 3c
       -0.053429198 -0.11528348 -0.04041024 0.011751736
000120 78 68 cb bd 10 ab bc bd b4 74 b3 bc 64 11 4f bd
       -0.09932035 -0.09212315 -0.021906234 -0.050553694
000130 a8 1d 09 bd 57 2a fc bd 72 3a e1 bc fc fe ed bb
       -0.033475548 -0.12312763 -0.02749369 -0.0072630625
000140 e6 f7 e8 bc bc bc ad bd 45 cf 00 bd 7f cd 02 3a
       -0.02843852 -0.08483264 -0.031447668 0.0004989728
000150 75 ba 4a bc d9 86 dd bd bd a1 a5 bd 52 99 32 bd
       -0.012373556 -0.10816736 -0.0808749 -0.04360325
000160 81 f3 fb bc 0d d3 1d bd 91 c1 95 bd 81 11 d7 bd
       -0.03075576 -0.03853135 -0.073123105 -0.105013855
000170 96 d1 44 bd d5 9e 4b bd a9 53 96 3d 1a 2a 49 bd
       -0.04805144 -0.04971202 0.07340176 -0.049112417
000180 b1 3c d0 3a 4c 9b c6 bd 27 43 1b bd 0b 10 8c bd
       0.0015887228 -0.09697589 -0.03790584 -0.068389975
000190 49 5c 48 bd 68 10 78 bd c9 67 11 bd fc 8e 96 3d
       -0.048916135 -0.06056252 -0.035499368 0.07351491
0001a0 52 79 5c bd 47 e0 b6 bc 7d 13 c5 bc 2f 11 25 bd
       -0.053826638 -0.02232374 -0.024057144 -0.04029959
0001b0 1d 08 c6 3c dd 50 f0 bc 00 6d c1 bd 33 31 36 3d
       0.02417379 -0.029335434 -0.09444618 0.044480514
0001c0 da f3 57 bd e3 06 fb bb f9 de 0b be 05 7b 24 be
       -0.05272279 -0.007660733 -0.13659276 -0.16062553
0001d0 28 6c 28 be 75 70 6e 3c 13 af 3a bd 47 2b 94 3c
       -0.16447508 0.014553179 -0.04557712 0.018087042
0001e0 7a 4d b3 bc 9a fd 29 3a 83 88 3b bd bc 14 b4 bd
       -0.02188753 0.0006484628 -0.045784485 -0.08793017
0001f0 3d 4c 67 bc f5 06 81 bd 7b 80 bb 39 2e bf de bb
       -0.014117298 -0.06300155 0.00035763145 -0.0067976927

network_body._body_endoder.seq_layers.2.weight f4 [128, 128]
000000 ec c4 a2 bd 07 21 0e be fd 36 8d be de 05 03 bd
       -0.07947716 -0.13879786 -0.27581015 -0.031988017
000010 ba b6 26 bc e3 8d 01 3e 06 77 54 3d b9 52 bc 3c
       -0.010175401 0.12651782 0.051871322 0.022988664
000020 c4 40 97 3d 60 f7 06 be aa 69 ca 3d 1c 59 0f bd
       0.073854 -0.13180304 0.09883435 -0.03499709
000030 bd ee c0 bd 57 fd 1b be e5 fa 0b be 39 aa 2b 3d
       -0.09420536 -0.1523336 -0.13669927 0.041910384
000040 9f 0b 17 bd 74 df 08 be f7 f6 3f bd 6b 87 58 bd
       -0.036876317 -0.1336649 -0.046866383 -0.05286352
000050 3a b8 94 bc 5d 8c 94 3d 0c 57 6b be c7 b7 8c bb
       -0.018154252 0.07253335 -0.22982424 -0.004294369
000060 4e 5c 45 be b0 56 cd bd bc 17 9f bd c8 8d 89 bd
       -0.19273493 -0.100263 -0.07768199 -0.06716496
000070 4c 45 f1 bd 1b 04 01 be 64 08 8c bd 2d b4 b6 3c
       -0.117807955 -0.12599222 -0.06837538 0.022302711
000080 a8 f9 04 3e 1f bf 89 3e da df 0d 3e c1 0e 29 3e
       0.12985861 0.26903626 0.13854924 0.16509534
000090 b2 57 ff bd 1a d3 21 bc e4 89 93 bc 9a b6 d7 bd
       -0.124678984 -0.009876991 -0.018010087 -0.10532875
0000a0 55 3a ff 3c 34 c6 d2 3d 74 0f eb bd 97 4f 86 be
       0.031155745 0.102917105 -0.11477557 -0.26232597
0000b0 45 75 b2 3c 6a 39 37 bc 39 0b 14 bd 5e 74 a7 bd
       0.021784434 -0.011183122 -0.036143515 -0.08176492
0000c0 dc 1f 3e be 4c 37 56 bd 9f 9c e8 3d cc fe 03 bc
       -0.18566841 -0.05229883 0.11357998 -0.008056354
0000d0 ed e8 f6 bb 3a 23 74 3d db a6 98 bd a7 24 d0 bc
       -0.007535091 0.059603907 -0.074537 -0.025408102
0000e0 7d a6 3e 3d cf 4d 41 bc a3 b4 85 3d 9c a9 01 3d
       0.046545494 -0.011798336 0.06528594 0.031655893
0000f0 a6 22 b8 bc e3 67 a7 bb 8a 96 0e be 5e a7 25 3d
       -0.02247746 -0.00510882 -0.13924614 0.040442817
000100 4b c0 25 bc c0 32 64 3d 56 4d f5 3d 30 98 a9 bd
       -0.010116647 0.05571246 0.11977641 -0.082809806
000110 03 d8 3b 3a bd 85 6d 3d 7b 78 82 bc 44 bc 6e be
       0.0007165672 0.05798887 -0.01592659 -0.23314005
000120 66 16 33 bb e7 8d b3 3d d8 96 9a bd eb 7b e6 3d
       -0.0027326583 0.087673 -0.075483024 0.11254104
000130 77 48 e0 3d 9f f2 91 bc 60 87 5a 3e b7 ee 3e 3c
       0.109513216 -0.017815886 0.21340704 0.011653594
000140 e7 c6 c1 3d d1 3f 21 be f3 13 cf ba 2c a8 4c be
       0.09461766 -0.15747 -0.0015798792 -0.19986027
000150 a2 04 2f 3e 43 92 ea bd c3 ec fe bd c1 9c f6 3d
       0.17091611 -0.114536785 -0.124475025 0.12041617
000160 07 96 82 bc ad 22 ea bb a5 f6 53 be 0d 8a f4 3d
       -0.01594068 -0.007145247 -0.20699556 0.119403936
000170 e1 3a aa bd bc 06 6d bd af f2 80 3c e5 6f 2e bd
       -0.083120115 -0.05786775 0.01574072 -0.04258718
000180 2a 6f 91 be 08 20 9a bd 09 89 09 3d ed 83 37 bd
       -0.28405124 -0.07525641 0.033577953 -0.04480355
000190 44 68 01 3e 5a 39 00 3d 28 7c 80 3d b5 43 b9 bd
       0.1263743 0.031304695 0.06273681 -0.09046117
0001a0 5a 03 ad bc 35 1f 11 3e c6 d1 af 3d fd 23 da 3d
       -0.021119762 0.14172061 0.08584933 0.106513955
0001b0 23 19 4d be 41 29 33 be 96 f5 f0 3d bf 7a dc bc
       -0.2002912 -0.17496206 0.11765592 -0.026913999
0001c0 a0 99 45 bd 46 c2 95 bd 1e fd a0 3d 8e 14 99 3d
       -0.04824221 -0.07312445 0.07860778 0.074746236
0001d0 b1 15 fa bc 58 4f 84 bd 46 d0 1b 3e a4 5b ea 3c
       -0.030527921 -0.06460446 0.15216169 0.02860815
0001e0 6c 8b af 3c a7 4f d9 bd 14 8f cf bc 58 b0 85 bb
       0.021428786 -0.106108956 -0.02533678 -0.0040798597
0001f0 bd 4f e4 bc fe 2f 76 bd ee e2 25 3d c3 3a 2e bd
       -0.027870053 -0.060104363 0.04049962 -0.04253651
000200 24 34 6a be d8 d2 50 bd 3e 7d 82 bd c3 7c 57 3e
       -0.22871453 -0.050982326 -0.06371544 0.21043687
000210 22 7a 5b bd b1 53 69 be 9a 97 52 3d af 03 a0 bd
       -0.05358327 -0.22785832 0.05141411 -0.078132026
000220 a2 f4 69 3e 2a 31 9c bc df 58 b3 bd 29 9c 2c bd
       0.22847226 -0.019066412 -0.08757185 -0.042141113
000230 b9 9e 82 3c 21 8d 1f 3e e4 ef f0 3d 12 44 35 3e
       0.015944825 0.1558118 0.117645055 0.17701748
000240 d2 de d0 bd ff 73 0e be a8 ce ee 3b dc 7e 04 3e
       -0.101987496 -0.13911436 0.007287819 0.12939018
000250 79 f9 a0 bd 90 c0 ea bd 2a 51 aa 3c bd 4a 2e be
       -0.07860083 -0.1146251 0.020790655 -0.17020698
000260 ca 31 41 3d fe f1 3c be 54 1d 27 3e 69 47 4d be
       0.047166623 -0.18451688 0.16319782 -0.20046772
000270 3c 34 4c 3d ac a4 c3 bd 05 a7 46 3e f6 e2 00 3e
       0.049854502 -0.09552893 0.1939965 0.12586579
000280 12 36 22 3d 1b 7a 38 3c 67 4c 63 be 21 87 ed bc
       0.039602347 0.011259581 -0.22197114 -0.028995099
000290 63 f8 4c be be e1 09 bb 61 59 00 3e be 3d 4e be
       -0.20016627 -0.0021039094 0.12534095 -0.2014074
0002a0 86 1f e6 3d b8 15 34 be a5 22 b6 3d b8 02 09 3c
       0.11236481 -0.1758641 0.08893327 0.008362465
0002b0 ef 99 24 be 06 6a 7a be b2 09 60 be 5e a8 9d bb
       -0.16074346 -0.24454507 -0.21878698 -0.0048113307
0002c0 70 1a 0f be f0 7f 32 3d f5 3d 4e be 0e 63 35 be
       -0.13974929 0.043579042 -0.20140822 -0.17713568
0002d0 40 81 04 3e a8 73 63 be b7 e5 09 bd 9a 69 27 be
       0.1293993 -0.22212088 -0.03366634 -0.16348878
0002e0 fd 34 6c be fa fb d6 3d e2 a9 0b be 19 35 85 be
       -0.23067088 0.104972795 -0.13639024 -0.26017073
0002f0 f2 06 ac bd 22 77 fa 3c e2 81 6b be 61 59 28 3d
       -0.08399762 0.030574385 -0.22998765 0.041100863
000300 16 52 58 be 0e 9a b2 3c 42 b7 79 be 62 8d 45 bd
       -0.21125063 0.021801975 -0.24386314 -0.048230536
000310 47 2d 11 be 1c 19 09 3e fc ea 27 3d 63 64 02 bd
       -0.14177428 0.13388485 0.040995583 -0.031834017
000320 9d 4b 67 3c 53 94 73 3d 30 3a 14 bd 4d b3 0e be
       0.014117149 0.059467625 -0.036188304 -0.13935585
000330 7e c4 6e 3d 93 18 d0 3d 96 5b 28 3e 08 98 92 be
       0.05829286 0.10160937 0.16441187 -0.28631616
000340 bb 2e 89 bc 6d 03 57 be 73 8e a1 bd d8 76 0d bd
       -0.016745916 -0.209974 -0.07888498 -0.034537166
000350 41 d8 b8 bc 44 54 a9 3c 7f e1 c8 bd 63 4a 25 3e
       -0.022564055 0.020670064 -0.09808635 0.16141658
000360 f4 2f 27 be 8c 98 3c bd 00 75 59 bd 36 d6 01 3e
       -0.16326886 -0.046043918 -0.053090096 0.12679371
000370 2f 10 f3 bb ac df ac bd 43 ac 82 bd a2 92 59 be
       -0.0074177007 -0.084410995 -0.063805126 -0.21247342
000380 7c 29 b9 bd 04 bf 9b bd ad ff 6e bd 6f 34 e5 3b
       -0.09041116 -0.07604793 -0.0583493 0.006994776
000390 9f d7 51 3e 1e 75 bf 3c 07 cb 42 3b 11 4a 82 bd
       0.20492409 0.023371276 0.0029723065 -0.06361783
0003a0 99 f5 80 3e ba dc 56 bc ba d7 0d be a5 11 5c bd
       0.25187376 -0.013114149 -0.13851824 -0.053727765
0003b0 14 0b b8 bc 01 7c 81 be 07 4f 25 be 7b ab 3f bd
       -0.02246622 -0.2528992 -0.16143428 -0.046794396
0003c0 f2 5d bc ba 5b 5e 8c be 0a 8f 83 be 64 06 51 be
       -0.001437126 -0.27415738 -0.25695068 -0.20412594
0003d0 98 73 e7 bd 33 be 58 bd c4 d4 a0 3d cd cc fa 3d
       -0.11301345 -0.052915763 0.07853082 0.12246094
0003e0 07 65 5c bb 02 a5 8a be 26 dc 21 3e b3 94 2c be
       -0.0033629553 -0.27079016 0.15806636 -0.16853599
0003f0 78 af ea bd 65 eb 5d be c7 69 81 bb 06 6a 8c bd
       -0.11459249 -0.21671827 -0.003949377 -0.0685616

network_body._body_endoder.seq_layers.2.bias f4 [128]
000000 2a f9 9c bc 52 45 35 be 91 5d c9 bd 98 cc 9c bc
       -0.01916178 -0.17702225 -0.098322995 -0.019140527
000010 93 fb 9b 3c c1 27 65 bd b7 1b cb bd 08 78 b5 bd
       0.019040858 -0.055946115 -0.099173956 -0.08860785
000020 71 96 3a bd 38 ae 8d bd 9c d6 6b bd a9 a4 b1 bd
       -0.04555363 -0.06917995 -0.057577714 -0.086739846
000030 3d 0b 0a be 19 54 0d be 9b 0b 29 be 99 74 f8 bd
       -0.1348085 -0.13801612 -0.16508333 -0.12131614
000040 d6 c2 e5 bc ca fb 61 3c 81 92 57 bd 91 bf 1f be
       -0.028047007 0.013792941 -0.05262995 -0.1560042
000050 04 33 c2 3c cf d2 c2 bd c4 e3 5f 3c 4c 2a 09 be
       0.023705967 -0.09512865 0.013665143 -0.13395041
000060 50 b3 f0 bd 94 0c 97 bd ca c0 fe bd 39 da 18 3d
       -0.11752951 -0.07375446 -0.12439115 0.03731749
000070 a5 0b 8c bd 7c 90 b5 3c d9 45 bd bd 0b 90 e6 bd
       -0.068381585 0.022163622 -0.09241838 -0.11257943
000080 3f 63 42 bd d3 b2 1a be bd 96 33 3d c3 68 cf 3c
       -0.04745793 -0.15107279 0.043844927 0.025318509
000090 19 4d c2 bd 08 13 ea bd b5 d8 d8 bd 2f 96 c4 bd
       -0.094873615 -0.11429411 -0.105882086 -0.09598958
0000a0 0a 97 ba bd 68 5e 13 be 28 53 0f be 4d 04 80 bd
       -0.0911084 -0.14391482 -0.13996565 -0.0625082
0000b0 56 27 26 be 1c 50 29 be 28 79 4b be 0e 67 35 be
       -0.16225943 -0.16534466 -0.19870436 -0.17715093
0000c0 06 29 bf bd 2e 5d ba bd b0 e6 e1 bd 32 0c 1b bd
       -0.093339965 -0.09099804 -0.11030328 -0.037853427
0000d0 51 63 e5 bd 58 5b 86 bc 1a 43 36 3c a5 0e 16 be
       -0.11200584 -0.016400978 0.011124397 -0.14654024
0000e0 aa 9d be bd dd 14 89 bd 19 3b 09 be d4 db 78 bd
       -0.09307416 -0.066934325 -0.1340145 -0.06075652
0000f0 c0 68 d8 bd 7f 3b ac bd f8 d9 66 bd b3 16 33 bd
       -0.105668545 -0.084097855 -0.056360215 -0.04372282
000100 a0 ed 03 be 2c 55 ee bd 35 94 30 bd e0 a0 76 bd
       -0.12883615 -0.11637339 -0.04311009 -0.060212016
000110 79 25 0a bd 13 ca ee bd 5c c2 4f bd 5c 62 e3 bd
       -0.033727143 -0.11659636 -0.050722465 -0.11102745
000120 93 39 e1 3a ec a6 a1 bd ce 39 da bd 99 8e 41 bd
       0.0017183296 -0.07893166 -0.106555566 -0.047255132
000130 35 72 f0 bc 93 d7 ba bd 37 42 43 be 82 43 e9 bd
       -0.029351333 -0.09123149 -0.19068228 -0.11389829
000140 9a 51 a8 3c 29 15 0b be f6 c4 26 be bc bd 29 bd
       0.020546723 -0.1358229 -0.16286072 -0.04144071
000150 f9 41 ae bd 02 b5 dc bd 33 ef 7a bd ad bf af bd
       -0.08508677 -0.10776712 -0.061263274 -0.08581481
000160 21 41 c2 bd 06 a7 fe bb b3 6a ce bc 6d 42 dd bc
       -0.094850786 -0.0077713756 -0.025197363 -0.027009213
000170 d7 b5 a8 bc 73 1e 0c be 18 b3 47 bd a7 3b 24 be
       -0.02059452 -0.1368349 -0.04875478 -0.1603838
000180 69 f4 70 bd 62 ff b7 bd ee 79 c4 bc f8 c0 dd bd
       -0.058826838 -0.08984257 -0.023983922 -0.108278215
000190 69 c5 42 be b9 4f 29 be fc 79 25 bd 5c 3a 69 bc
       -0.19020618 -0.16534318 -0.040399536 -0.014235105
0001a0 e5 09 c4 bd 92 e1 0e bd 74 76 e9 bd ed 1b 2c 3c
       -0.095722 -0.03488309 -0.11399546 0.010504705
0001b0 68 dd 07 be 0b 41 7c bd 84 7c 8c bd d5 f3 01 be
       -0.13268054 -0.061585467 -0.06859687 -0.12690671
0001c0 ae 03 b5 bd be d8 8e bd 3f be 0e bd cc 48 9d bd
       -0.088385925 -0.06974934 -0.0348494 -0.076799005
0001d0 3b 3a 8d bd 6c 79 a9 bc 3b 2d b9 bc 7a 1d f6 bd
       -0.06895872 -0.020687781 -0.022604575 -0.12017341
0001e0 5f 1a ca 3c 5e 2b 89 bd 11 2a e4 bd ba 8a 28 be
       0.024670778 -0.06697725 -0.11140836 -0.1645917
0001f0 33 c8 e2 bb 38 41 a5 bc 1a 06 55 bd 8f 87 87 bd
       -0.0069208383 -0.0201727 -0.052007772 -0.066176526

action_model._continuous_distribution.log_sigma f4 [1, 2]
000000 6e cf 8a be 10 d2 84 be
       -0.2711138 -0.25941515

action_model._continuous_distribution.mu.weight f4 [2, 128]
000000 f1 95 ee 3c 64 ce 05 bc 12 6f 6b bd f8 ed 9f 3b
       0.029124232 -0.008166883 -0.05747897 0.004880663
000010 12 44 70 3c 79 0e 76 bd 00 cd 32 bc 72 d9 2a 3c
       0.014664667 -0.060072396 -0.010913134 0.01042782
000020 d3 ce 8c bd d6 d5 2d bd ef bf 2f bd 66 6e 43 bd
       -0.06875386 -0.042440258 -0.04290765 -0.047712706
000030 f7 3d 51 bb d9 38 6e 3c f5 6b fc bc 01 75 87 bc
       -0.0031927803 0.014539921 -0.030813197 -0.016535284
000040 09 92 a6 bd 75 97 cf bd 1e e4 13 3d 65 50 38 bc
       -0.08133323 -0.1013631 0.03610622 -0.011249636
000050 28 16 06 3c 6d 7d 23 bc 8a 68 a2 bd 23 01 e0 3b
       0.008183993 -0.009978634 -0.079300955 0.006836073
000060 1f 59 30 bd ff 53 59 bd 90 57 99 bc d9 b6 8d bc
       -0.043053742 -0.05305862 -0.01871851 -0.017299103
000070 f2 16 77 bd 56 85 64 3b 30 44 5b 3b a1 69 a2 bc
       -0.060324617 0.0034869513 0.003345739 -0.019825758
000080 cb 9b c1 bd db c3 53 bb 7a ca 39 3c fb d1 7f bd
       -0.09453543 -0.0032312784 0.011339778 -0.062456112
000090 66 ca cf 3b 02 80 d2 bc 27 d5 0a bd 70 42 12 bd
       0.0063412664 -0.025695805 -0.033894684 -0.03570789
0000a0 8b 06 6b bc 99 ba ad bc c6 d2 8f bc 6e 0c d1 bc
       -0.014344822 -0.02120714 -0.01755656 -0.025518622
0000b0 d3 71 70 bd 29 4d 55 bc 67 f9 7b bc 47 9d dc 3b
       -0.0587023 -0.013018885 -0.015379286 0.006732616
0000c0 f7 50 45 bc fc ec a8 3b 5a 3d a8 bc ec 49 6b bd
       -0.012043229 0.005155204 -0.020537067 -0.057443544
0000d0 55 2d 35 3d 51 39 47 bd 70 f1 87 3c 0e 15 00 bc
       0.044232685 -0.048638646 0.016594619 -0.00781752
0000e0 f0 f2 c1 bb 8d bf 89 bd c2 6c b9 3c f9 a4 86 bd
       -0.005918853 -0.067259885 0.022634868 -0.06574435
0000f0 ec 91 3c bd 7e 63 7d bd 99 6e 82 bd 4e 4e c5 3c
       -0.0460376 -0.06186246 -0.06368751 0.02408519
000100 65 cc 24 bd 4e 0f 84 bd 15 81 f3 bb bc bc fe bc
       -0.04023399 -0.06448232 -0.0074311593 -0.031095855
000110 c4 ac 10 bc 42 80 33 bd 49 7a 59 bd 3d c5 c2 3c
       -0.008830253 -0.043823488 -0.053095136 0.023775691
000120 70 49 c1 bd 20 68 28 bd 20 7d 48 bc 82 78 4a bc
       -0.09437835 -0.041114926 -0.012236863 -0.012357833
000130 29 d3 f1 bc f2 de 93 bc d8 d8 26 3c af 9d 22 bd
       -0.029519634 -0.018050645 0.0101835355 -0.03970116
000140 2d 8e 6d 3d 2c 30 ca bc c4 f7 0e 3d c5 de f1 ba
       0.057996918 -0.024681173 0.034904256 -0.0018453231
000150 87 d7 4d bd 40 07 2a bc ce 62 a3 bd 3a ba 2a bb
       -0.05025437 -0.010377705 -0.0797783 -0.002605094
000160 25 58 4e bd 1a 8f 49 3d 9d 7d 9b bc dc 9c 60 3c
       -0.05037703 0.049208738 -0.018980796 0.013709273
000170 2a 3e b9 bb 10 77 85 bc db 2e 91 ba 13 e9 38 bc
       -0.0056531625 -0.016292125 -0.0011076586 -0.011286038
000180 b5 d5 06 bd 99 b0 ef bb 6f b2 e3 bb 53 a7 7c bc
       -0.03291865 -0.0073147533 -0.006948761 -0.015420753
000190 84 89 08 bc f0 31 70 bc 6c 20 12 bd 8d ed f0 ba
       -0.0083335675 -0.0146603435 -0.03567545 -0.0018381343
0001a0 16 11 5d bc 6e bc 00 bd 62 bc f8 bc c4 44 74 bd
       -0.013492843 -0.0314297 -0.030363265 -0.059635893
0001b0 57 72 01 3b 36 fb 90 3b 7b fb 63 3b 65 92 82 bc
       0.001975199 0.004424478 0.0034787345 -0.015938947
0001c0 bb 4b 52 bc 5a 55 9a bb 62 47 20 3d d5 12 11 bc
       -0.012835438 -0.0047098817 0.039130576 -0.008854588
0001d0 46 0d 20 bb 1e 23 ac bb 18 66 02 bd f3 eb 29 bb
       -0.0024421974 -0.0052532097 -0.031835645 -0.002592799
0001e0 b2 d2 dc 3c a5 b2 4d bd 7d 71 48 bc bf 32 a4 bc
       0.026955936 -0.050219197 -0.012234089 -0.020043729
0001f0 2c 6b cc bc 95 8c a8 3b 3b 5b 2d 3b da 2e cc 3c
       -0.024953447 0.005143712 0.0026452083 0.024924684
000200 92 6a 38 bd cf 9f b0 3c c9 53 de bc 37 13 6d 3d
       -0.04502351 0.021560578 -0.027139561 0.057879653
000210 55 e9 00 3d 39 c9 b4 3c ba f0 70 3d b5 94 ff bb
       0.031472523 0.022068607 0.058823325 -0.0077997097
000220 47 6d 2e bd 6b 13 7b 3c 4f 3e c4 bb fb ce 52 3b
       -0.042584684 0.015324454 -0.005988873 0.0032166827
000230 50 f4 ba 3c 52 54 fb 3c 62 c8 e8 3c 8a 98 16 3d
       0.022821575 0.030679855 0.028415862 0.036766566
000240 aa 00 ba 3a c1 4f 5e bd 7a 10 2a 3c 89 4d 03 3d
       0.0014190872 -0.054275278 0.010379905 0.032056365
000250 ac a3 3d bd a9 86 2c 3c 3e 4a 0b bd aa da a5 3c
       -0.046298668 0.010530152 -0.03400635 0.020245869
000260 4d fc 1c 3b 4e fb f2 bb 5f c4 e9 3b b8 ad e5 bd
       0.0023954094 -0.0074152118 0.007134005 -0.11214775
000270 e9 7e 90 3a 18 ed 3c 3d 26 de 53 3d 84 e6 95 3c
       0.001102415 0.046124548 0.05172553 0.018298395
000280 75 25 a7 3b f9 bc f1 3c 45 32 e0 bd ed 90 e7 bc
       0.005100901 0.029509054 -0.10947088 -0.028267348
000290 be 4d 5a 3b a9 21 03 3d 16 20 0c 3d a8 63 fd 3a
       0.0033310498 0.032014523 0.034210287 0.0019332068
0002a0 8e e3 0d 3d 0c 50 78 3c c2 58 80 3c 19 57 51 3d
       0.03464084 0.015155803 0.015667323 0.051108453
0002b0 73 a7 55 bb c0 64 01 3d 2b bb f2 3c 03 53 8a 3c
       -0.0032601028 0.031590223 0.029630264 0.016885286
0002c0 97 59 56 3d 6f 6d c5 3c 76 c8 4b bc be 00 46 3c
       0.052331533 0.024100034 -0.01243793 0.012085138
0002d0 ab 63 96 3c 62 4e de 3b 24 6b 15 bd ea cd 9d bc
       0.018358072 0.0067842463 -0.03647913 -0.019263227
0002e0 c1 b3 7c 3c 15 8b 07 bc c8 83 bd 3c 71 73 00 3c
       0.015423716 -0.008272906 0.023134127 0.007840023
0002f0 b0 b4 e2 3c 8e 65 29 bb 5d d8 92 bb 88 ac 95 3d
       0.02767405 -0.0025847885 -0.004481359 0.07308298
000300 8e 07 b0 3c af 81 86 3c 4c 8a 02 3d 92 df 49 3c
       0.021487977 0.01641926 0.03187017 0.01232137
000310 62 fa 54 3d 20 6d 0a 3d 95 63 1a 3d 8d 99 82 bb
       0.051996596 0.033795476 0.037692625 -0.00398559
000320 ba ba 45 bd 2c 1e 15 3d a7 11 4f 3d 7e a8 79 3d
       -0.04827378 0.036405727 0.050553944 0.060951702
000330 8c 97 45 3d 81 62 36 3c 41 4a 08 3d c8 65 32 3c
       0.04824023 0.011131884 0.03327394 0.010888524
000340 94 08 46 bd 11 ad a2 3c 81 b7 d1 3c b4 d7 0f bd
       -0.048348024 0.019857915 0.025600197 -0.03511782
000350 ba d9 9c 3c 17 10 2d bb 57 17 f0 3b c7 4c f7 bc
       0.019146789 -0.0026407295 0.007327001 -0.030187977
000360 3e 39 0d 3d be 38 88 bb 11 f1 ab bc ba 5c 79 bc
       0.03447842 -0.004157155 -0.020988973 -0.015219862
000370 87 07 06 3d cf ef b8 3c fc 3c 56 3d e8 c5 63 3c
       0.032722022 0.022575287 0.052304253 0.013902165
000380 8c 6d f1 3c b4 70 22 3d 77 a9 2a bd 93 06 bd bc
       0.029471181 0.039658263 -0.04166552 -0.023074424
000390 57 93 d9 3c 83 8d 14 ba 8d bf 0e 3d 3f 10 14 bd
       0.026559515 -0.0005666839 0.034850646 -0.036148306
0003a0 2f 3b ee 3c 8a 4c 48 3d 21 ca 4c bc 7c f3 37 3b
       0.029080955 0.04890112 -0.012499363 0.0028068712
0003b0 8e 3b c3 3c 55 6d 21 3d ba 73 f7 3c 64 1b dc 3c
       0.023832109 0.039410908 0.03020655 0.02686853
0003c0 bf 35 b7 3c a3 b5 86 bc a8 09 e6 bc 78 b7 2e 3d
       0.022364495 -0.016444033 -0.028080776 0.04265544
0003d0 78 60 86 3d f0 ce 50 3d d0 bb d4 bc aa 0f 2a 3d
       0.06561369 0.0509786 -0.025968462 0.041518845
0003e0 6b 2f 85 3c f1 19 97 3c 03 1d 06 3d 5f 39 50 3c
       0.016257962 0.018444987 0.03274251 0.012708991
0003f0 0f e3 5d bd 1f 2d 0f bd e8 c9 19 3d 16 51 6c bd
       -0.054171618 -0.03495514 0.03754607 -0.057694517

action_model._continuous_distribution.mu.bias f4 [2]
000000 a9 19 26 3d d8 4b 9e 3c
       0.040551815 0.019323274
