MachineLearning/results/TestParameters/MoveTOGoal/MoveTOGoal-64980.pt (torch, 441756 bytes, 36 tensors)

network_body._body_endoder.seq_layers.0.weight f4 [128, 6]
0	0x3dd2f1fc	0.10300061
1	0x3ddb312d	0.10702739
2	0xbe8ea612	-0.27861077
3	0xbdaf0f16	-0.08547799
4	0x3d7ccadc	0.0617169
5	0xbf7a3e67	-0.9775147
6	0xbe4bf433	-0.19917373
7	0xbeadd1e8	-0.33949208
8	0xbe1ad9f5	-0.15122207
9	0x3dcc4532	0.099741355
10	0x3e86e610	0.263474
11	0xbd3c2022	-0.04592908
12	0x3ed991f7	0.42494175
13	0xbe8a216f	-0.26978633
14	0xbea08322	-0.31350046
15	0xbe589770	-0.21151519
16	0xbefe817c	-0.49708164
17	0xbf041316	-0.5159162
18	0x3c6bbb41	0.0143879065
19	0x3edc5041	0.4302998
20	0x3d25d6eb	0.040488165
21	0x3f25a161	0.6469937
22	0x3dc92985	0.09822372
23	0xbdb25fd9	-0.08709688
24	0xbdcd0612	-0.100109234
25	0x3f2df239	0.6794773
26	0x3e481100	0.19537735
27	0xbd522f09	-0.051314387
28	0x3d7217b2	0.05910463
29	0xbe7a0d49	-0.2441913
30	0x398a181d	0.00026339377
31	0xbf4d29e2	-0.80142033
32	0xbf18065a	-0.5938469
33	0xbe040d92	-0.12895802
34	0x3e78f55b	0.24312346
35	0x3e1ba730	0.15200496
36	0x3f035bbd	0.51311857
37	0x3e722022	0.2364507
38	0xbc265154	-0.010151226
39	0x3f14f35b	0.5818383
40	0xbf04a553	-0.51814765
41	0x3cd8c679	0.026461827
42	0x3e645808	0.22299206
43	0x3d968c0e	0.07350932
44	0x3d4a31bc	0.049363837
45	0xbf14466d	-0.5791996
46	0x3aa61637	0.0012671415
47	0xbe0439ef	-0.12912725
48	0x3ecbafec	0.39782655
49	0xbc836884	-0.016041048
50	0x3ec2fc60	0.38083172
51	0xbec6410a	-0.38721496
52	0xbeacc8a2	-0.3374682
53	0xbea277b4	-0.3173195
54	0x3e64ba4d	0.22336693
55	0x3cb320ea	0.02186628
56	0x3e04a109	0.12952055
57	0x3f0affa6	0.5429634
58	0xbd4df5e0	-0.050283313
59	0xbe9320e0	-0.2873602
60	0xbe0875a0	-0.1332612
61	0xbe30ee7c	-0.17278475
62	0xbe1a9271	-0.15094925
63	0xbd797c5e	-0.06090962
64	0xbd8d8743	-0.06910565
65	0xbf12871a	-0.572374
66	0xbf6786ef	-0.9044027
67	0xbeb022d5	-0.34401575
68	0x3eaf98c6	0.34296244
69	0xbebce476	-0.36893052
70	0xbe8c6b5d	-0.27425662
71	0xbee76626	-0.4519512
72	0x3e255310	0.16144967
73	0x3e1c07f1	0.15237404
74	0xbed32d5d	-0.41245547
75	0x3e037f69	0.12841572
76	0xbe8baee2	-0.27281862
77	0x3ef5ff0f	0.48046157
78	0x3e327f97	0.17431484
79	0xbd10ec82	-0.0353818
80	0x3d388795	0.045051176
81	0x3c80ab95	0.015706817
82	0x3eefe915	0.46857515
83	0xbf0e0b45	-0.55485946
84	0xbe81942c	-0.2530836
85	0x3f035022	0.5129415
86	0x3f0b50f2	0.5442039
87	0x3ec764e8	0.38944173
88	0xbd7f1724	-0.062277928
89	0x3e561d93	0.20909719
90	0xbfa72bc2	-1.3060229
91	0x3d61631e	0.055026166
92	0x3ee02b4b	0.4378303
93	0xbdc06865	-0.09394912
94	0xbf022ecb	-0.5085265
95	0x3f81eebf	1.0150985
96	0x3e8241bc	0.25440776
97	0xbe9c8d94	-0.30576766
98	0xbef41dd9	-0.47679022
99	0xbe3aa7aa	-0.18228021
100	0x3e959900	0.29218292
101	0x3d3bf63b	0.04588912
102	0x3e202414	0.15638763
103	0xbe9680a5	-0.29395023
104	0x3ef4f8c7	0.47846052
105	0xbe936db4	-0.28794634
106	0x3e6ffdc9	0.23436655
107	0x3df4be46	0.11950354
108	0xbd01b5fe	-0.031667702
109	0xbe477e0a	-0.19481674
110	0xbdfdc240	-0.12390566
111	0x3ddba88d	0.10725508
112	0x3e995b66	0.29952544
113	0xbf4c9a6a	-0.7992312
114	0xbefa91b0	-0.48939276
115	0xbf4d4c28	-0.8019433
116	0x3de2cbf6	0.11074059
117	0xbf50a6cd	-0.8150452
118	0xbe6e4013	-0.2326663
119	0x3b41b466	0.0029556989
120	0x3b3309f1	0.0027319158
121	0x3d84d012	0.06484999
122	0x3e34042d	0.17579718
123	0xbcd4bd5a	-0.025969196
124	0x3eef766b	0.46770033
125	0xbf06f7ba	-0.5272175
126	0xbe0c1954	-0.13681537
127	0xbf51de76	-0.81980073
128	0xbf4535a4	-0.77034974
129	0x3f230b43	0.6368906
130	0x3d8816fc	0.06645009
131	0x3e4969eb	0.19669311
132	0xbf0ad877	-0.5423655
133	0xbe0192a2	-0.12653592
134	0x3d0e56d5	0.03475078
135	0xb9e3b1ea	-0.0004342937
136	0x3f5e79b1	0.86904436
137	0xbe9935a1	-0.29923728
138	0x3edc92b3	0.43080673
139	0x3ea418c4	0.32050145
140	0xbe526a7b	-0.20548432
141	0xbe126c7f	-0.142992
142	0x3b30c447	0.002697246
143	0xbcad56e3	-0.021159595
144	0x3f5303ac	0.8242748
145	0xbe16af62	-0.1471534
146	0xbd1fcec4	-0.039015546
147	0xbf197b03	-0.59953326
148	0xbe0f69af	-0.14005159
149	0x3e2dafae	0.16961548
150	0x3f0be716	0.54649484
151	0xbe113d58	-0.14183557
152	0xbe8f1daf	-0.27952334
153	0xbe83dbb4	-0.25753558
154	0xbf455f53	-0.7709858
155	0xbee452da	-0.4459446
156	0x3f21cea6	0.63205945
157	0xbc8f0e95	-0.017463008
158	0x3f1a4a99	0.60270077
159	0xbde4725e	-0.11154626
160	0x3e832306	0.25612658
161	0xbe5e09a8	-0.21683371
162	0x3d22ff70	0.039794385
163	0x3f898b7a	1.074569
164	0x3f4d1f3d	0.8012579
165	0x3df6ddac	0.12053999
166	0xbe41c193	-0.18921499
167	0x3e92948d	0.2862896
168	0x3e57b6d1	0.21065833
169	0x3db2ade4	0.08724573
170	0x3f188bc4	0.59588265
171	0xbe8acb7e	-0.27108377
172	0x3f20b710	0.6277933
173	0x3f2c2f8f	0.6726007
174	0xbde1fb95	-0.110343136
175	0x3f095cd7	0.5365729
176	0x3ed311c1	0.41224483
177	0x3e884b89	0.2662013
178	0x3ee6b47c	0.45059574
179	0xbd05b400	-0.032642365
180	0x3f01c42a	0.5068995
181	0xbe83d69c	-0.2574967
182	0x3f6ae8a0	0.9176121
183	0xbeca1358	-0.39467883
184	0xbddb8357	-0.107184105
185	0x3efa8688	0.48930764
186	0x3e50b5ad	0.20381804
187	0xbe994d71	-0.29941896
188	0xbe94f2ea	-0.2909158
189	0xbec0aa97	-0.3763015
190	0xbf14012d	-0.57814294
191	0xbe1460bc	-0.14490026
192	0xbe4978cd	-0.19674988
193	0xbed4b5b2	-0.41544873
194	0x3f55dffd	0.83544904
195	0x3df49571	0.11942566
196	0x3ed204e0	0.41019344
197	0xbf12d074	-0.57349324
198	0xbea9401d	-0.33056727
199	0x3e986a85	0.29768768
200	0x3e818623	0.2529765
201	0x3e86da37	0.2633836
202	0x3e8cd2e1	0.27504638
203	0x3e067f31	0.13134457
204	0xbeb3a998	-0.35090327
205	0x3e8839b6	0.2660653
206	0x3ee68b55	0.45028177
207	0x3d47b5dc	0.04875742
208	0xbe4ec88d	-0.20193692
209	0xbe7b296d	-0.24527521
210	0x3db46eab	0.08810171
211	0xbd35c393	-0.044375967
212	0xbf6e5320	-0.9309559
213	0xbf0f3f7a	-0.5595623
214	0xbe2eae1b	-0.17058603
215	0x3e98fecd	0.29881898
216	0xbeae867e	-0.34086984
217	0xbea5c66d	-0.3237795
218	0xbe84ee8b	-0.25963244
219	0x3f14fbb1	0.5819655
220	0x3d2f4257	0.042787876
221	0x3d0182a3	0.031618726
222	0xbf939c33	-1.1532043
223	0x3df56211	0.11981595
224	0x3eb3c53c	0.35111415
225	0xbe61a181	-0.22034265
226	0xbda48985	-0.08034042
227	0x3ed11104	0.40833294
228	0xbe5862cb	-0.21131437
229	0x3eee7457	0.46573135
230	0xbe92e70d	-0.28691903
231	0x3ed3a7a9	0.41338852
232	0x3de86b07	0.11348539
233	0x3f240bc6	0.64080465
234	0xbebdc6b0	-0.3706565
235	0x3f23440c	0.63775706
236	0xbdd64fdd	-0.104644515
237	0x3e1ba60f	0.15200065
238	0xbec0f105	-0.37683883
239	0x3dac4115	0.08410851
240	0x3ee209e4	0.4414817
241	0xbe636cad	-0.22209425
242	0x3df2d2a9	0.118565865
243	0xbf593297	-0.8484282
244	0x3d3feb4b	0.046855252
245	0x3f12a521	0.57283217
246	0xbe1e1b16	-0.1544002
247	0xbf893714	-1.0719934
248	0xbe90a5db	-0.28251538
249	0x3edcdbee	0.43136543
250	0xbf0537e1	-0.5203839
251	0x3d89fd69	0.06737787
252	0x3f389374	0.72099996
253	0x3e9fadb3	0.3118721
254	0x3efb5433	0.49087676
255	0xbf0cf7a1	-0.5506535

network_body._body_endoder.seq_layers.0.bias f4 [128]
0	0x3cd66f1e	0.026176032
1	0xbda3ed0e	-0.08004199
2	0x3d19a667	0.03751221
3	0xbd0e8d1a	-0.034802534
4	0xbc5e0f2b	-0.013553421
5	0x3bc00bb3	0.0058607697
6	0xbcfdaf5e	-0.03096741
7	0xbc3b0b37	-0.011416248
8	0xbd28f9e1	-0.041253928
9	0xbcf468d1	-0.029835137
10	0xbd5a98f3	-0.05336852
11	0xbbe20b9d	-0.006898357
12	0xbd2083db	-0.039188247
13	0x3cc8dfef	0.024520842
14	0x3cc83603	0.024439817
15	0x3e30328f	0.17206787
16	0x3c80a88d	0.015705371
17	0x3ba73046	0.00510219
18	0x3b16a52d	0.0022986636
19	0xbd096367	-0.033542063
20	0xbcea2ed4	-0.028586783
21	0xbd2fb8f3	-0.04290099
22	0xbc278dd0	-0.010226682
23	0xbc0d1540	-0.008611023
24	0x3c9f7570	0.019465178
25	0x3c4b1bc0	0.012396753
26	0x3c28af93	0.010295766
27	0x3d75c7f8	0.06000516
28	0xbdae3f7e	-0.08508204
29	0xbd07fd89	-0.033200774
30	0xbd3f7428	-0.046741635
31	0x3cba0054	0.022705235
32	0x3cc3cdb3	0.023901796
33	0xbc369754	-0.011144478
34	0xbd73762c	-0.05943887
35	0x3d7b57b9	0.061362956
36	0xbd1ea21d	-0.038728822
37	0x3d7ca6a8	0.061682373
38	0xbdb5f4bf	-0.08884572
39	0xbd0048e0	-0.0313195
40	0x3c5d25b9	0.013497763
41	0xbd037112	-0.032090254
42	0x3d08b16c	0.033372328
43	0xbc58a1a0	-0.013222128
44	0x3bcaddee	0.006191007
45	0x3c992f2c	0.018699251
46	0xbd72fa4c	-0.059320733
47	0xbd7acc4d	-0.061229993
48	0xbd835813	-0.06413283
49	0x3c003aef	0.007826551
50	0x3c8cb2aa	0.017175037
51	0xbda7ea90	-0.08199036
52	0x3bf76655	0.0075500407
53	0xbdae50c9	-0.08511502
54	0xbbdce00c	-0.0067405757
55	0x3ca555e8	0.020182565
56	0xbda47443	-0.08029988
57	0xbd714e7e	-0.058912747
58	0xbc76ceae	-0.015063925
59	0xbdadeb33	-0.08492126
60	0xbc1a603c	-0.009422358
61	0xbd2e2819	-0.04251871
62	0xbd901cbe	-0.07036732
63	0xbbb079f0	-0.00538563
64	0xbd823199	-0.06357116
65	0x3c5cb020	0.013469726
66	0x3c64bcfe	0.013961075
67	0xbbd47f5d	-0.0064849094
68	0xbdacf2be	-0.08444737
69	0xbd81eaa8	-0.06343585
70	0x3c1ad1f4	0.009449471
71	0xbc47179f	-0.012151628
72	0x3b8b783b	0.004256276
73	0x3be22a1b	0.006901992
74	0xb9b95eb5	-0.00035356512
75	0x3d493e41	0.049131636
76	0x3d099d11	0.033597056
77	0x3ca83bc0	0.020536304
78	0xbd58cbff	-0.05292892
79	0xbd349235	-0.044084746
80	0x3db8082f	0.08985936
81	0xbcd251cc	-0.02567377
82	0x3d45f3ab	0.048328083
83	0x3c7e54df	0.0155231645
84	0xbd1dc926	-0.03852191
85	0x3b3a93e7	0.0028469504
86	0x3d15a848	0.03653744
87	0xbd3c9668	-0.046041876
88	0xbd3b1f9f	-0.045684453
89	0x3be716ce	0.007052279
90	0xbd4caf1f	-0.049971696
91	0x3c15bf42	0.009139838
92	0xbc9c74af	-0.019098608
93	0xbcd034c9	-0.025415795
94	0x3c31c801	0.010850907
95	0x3db46ab8	0.088094175
96	0xbcb0feb1	-0.021605821
97	0x3ca4915b	0.020088842
98	0xbd351be8	-0.044216067
99	0xbcd57769	-0.026057916
100	0x3d0d443d	0.034488905
101	0x3b12f597	0.0022424215
102	0xbc9bcaf0	-0.019017667
103	0x3ca4b23c	0.02010452
104	0x3d7c87b0	0.06165284
105	0xba8c0767	-0.0010683358
106	0xbce4871c	-0.027896456
107	0xbcf3ca7a	-0.029759634
108	0xbd726f3f	-0.059188124
109	0xbb24acba	-0.0025127367
110	0x3d6a1ab6	0.05715438
111	0xbcc94e4c	-0.024573468
112	0x3d54757c	0.051869854
113	0xbdab3836	-0.08360331
114	0xbceffd3c	-0.029295556
115	0xbd91e603	-0.071239494
116	0xbd9c6c84	-0.07637885
117	0x3cd961d4	0.026535906
118	0xbce7c6d9	-0.02829306
119	0xba35a9de	-0.0006929914
120	0x3cc94e88	0.02457358
121	0xbcc39859	-0.023876356
122	0xbdc8270a	-0.09773071
123	0xbbd3a6fc	-0.006459115
124	0x3bc6db88	0.0060686506
125	0xbcfc6cce	-0.0308136
126	0xbbb2d17f	-0.005457103
127	0xbcb554a8	-0.022135094

network_body._body_endoder.seq_layers.2.weight f4 [128, 128]
0	0xbdc6da85	-0.09709648
1	0x3e2ad3f1	0.16682412
2	0x3cbc6fc9	0.023002522
3	0x3cb7d573	0.022440648
4	0x3d1312c6	0.035906576
5	0xbd9151f0	-0.070957065
6	0xbe08a8d8	-0.13345659
7	0xbe522c3c	-0.20524687
8	0xbceb7e3d	-0.028746719
9	0x3cd2bcab	0.02572473
10	0x3d4f8db8	0.050672263
11	0xb9335b18	-0.00017104705
12	0xbe0e6fd3	-0.13909845
13	0xbd4c407c	-0.049866185
14	0xbc4553f9	-0.012043946
15	0x3e0961e2	0.13416246
16	0xbe15a012	-0.14611843
17	0xbd442cb4	-0.047894195
18	0x3ba81d99	0.0051304814
19	0x3e2224fa	0.15834418
20	0x3d2d8619	0.042364214
21	0xbd5ab3be	-0.05339407
22	0xbe06cd25	-0.13164194
23	0x3e0e68d1	0.13907172
24	0x3c9ebaa9	0.019376116
25	0x3c043aab	0.008070628
26	0xbdcad6cc	-0.099042505
27	0xbde0e446	-0.1098104
28	0x3ca6e658	0.020373508
29	0x3df186f1	0.11793316
30	0x3cbb6ddb	0.022879532
31	0xbd1f8712	-0.038947172
32	0xbe16dc45	-0.14732464
33	0xbc90a363	-0.017656034
34	0x3d8e40ae	0.069459304
35	0xbce66aac	-0.028127037
36	0xbdd6011b	-0.104494296
37	0xbda28ed1	-0.07937396
38	0x3d913f93	0.07092204
39	0x3b862669	0.0040939343
40	0x3c635121	0.013874323
41	0xbd9a3a6c	-0.07530674
42	0xbd8f29c2	-0.069903865
43	0xbbdb3d07	-0.0066906246
44	0xbd63eda1	-0.055646542
45	0x3dc21979	0.09477515
46	0xbd932297	-0.07184332
47	0xbdcd517a	-0.10025306
48	0x3cdb3d1a	0.026762534
49	0xbe2762f4	-0.16346341
50	0x3dbcdaf5	0.0922145
51	0x3dac21c2	0.08404876
52	0x3d11052b	0.03540532
53	0xbd37eacd	-0.044901658
54	0xbcf04bc4	-0.029333003
55	0x3cb68c5e	0.02228373
56	0xbe0362c1	-0.1283064
57	0xbd89dca3	-0.06731536
58	0xbe38b793	-0.18038778
59	0x3d02cb78	0.031932324
60	0xbd5a7135	-0.05333062
61	0x3dffe384	0.12494567
62	0x3cf05385	0.0293367
63	0x3ba6c23b	0.005089072
64	0xbe0b3adb	-0.1359667
65	0xbcfe1421	-0.031015458
66	0xbdf3a50c	-0.118967146
67	0xbe00e210	-0.12586236
68	0x3ca08da9	0.019598799
69	0xbd2290bc	-0.03968881
70	0xbdce764b	-0.10081156
71	0x3d365a0f	0.04451948
72	0x3e1ba1ec	0.15198487
73	0x3cd2c48d	0.025728488
74	0x3c482eeb	0.012218217
75	0xbd395336	-0.04524537
76	0xbdbf912a	-0.0935386
77	0xbc9a2f46	-0.01882137
78	0x3da649ae	0.08119522
79	0xbe3ad287	-0.18244372
80	0xbdd50aaf	-0.10402428
81	0x3dc7afa3	0.09750297
82	0x3d69e2c2	0.05710102
83	0xbd9cf8fe	-0.07664679
84	0x3e04bbb9	0.12962236
85	0x3de75bb3	0.11296787
86	0xbc58311a	-0.0131953005
87	0xbdf5567d	-0.11979387
88	0xbdb10ba1	-0.08644796
89	0x3dde2066	0.10846023
90	0xbdc465d2	-0.09589733
91	0xbd21d97e	-0.039514057
92	0xbcd2dfe3	-0.025741523
93	0x3e1d5508	0.15364468
94	0x3dd6f24d	0.10495434
95	0x3daebf05	0.08532528
96	0xbdab0b26	-0.08351736
97	0xbdd8596b	-0.1056393
98	0xbe0948d9	-0.13406695
99	0x3d95f3bf	0.073218815
100	0x3e31fef4	0.17382413
101	0x3d7b9075	0.06141706
102	0x3da9ccb8	0.08291
103	0x3d7ac378	0.06122157
104	0xbd1e23b3	-0.038608264
105	0xbdb89286	-0.09012322
106	0x3bf26e88	0.0073984303
107	0xbe1ccef5	-0.15313323
108	0xbce762f9	-0.028245436
109	0xbddf3421	-0.10898615
110	0xbdf775c1	-0.12083007
111	0xbcf756ce	-0.030192759
112	0x3dd89baa	0.105765656
113	0x3ea8cefe	0.32970423
114	0x3d986944	0.07441953
115	0x3d2d3a89	0.04229215
116	0xbccace18	-0.024756476
117	0x3ce9e9d9	0.02855389
118	0xbd4451b1	-0.04792947
119	0xba945866	-0.0011317849
120	0x3cc295af	0.023753015
121	0xbdec5048	-0.1153875
122	0x3df50a48	0.119648516
123	0x3da44214	0.08020416
124	0x3e5eaaa2	0.21744779
125	0xbe251c07	-0.16123973
126	0xbd033868	-0.032036215
127	0x3ce43fc9	0.027862446
128	0xbe1d7bee	-0.15379307
129	0x3d1293ec	0.0357856
130	0xbd3293da	-0.043598033
131	0x3d09d875	0.033653695
132	0xbde2f1ba	-0.11081262
133	0xbd5104e2	-0.051030047
134	0xbe128e4b	-0.14312093
135	0xba75014c	-0.00093462016
136	0xbd9bb3f9	-0.076026864
137	0xbbd20bba	-0.0064100893
138	0x3a3b3ffb	0.0007143018
139	0xbdd6d407	-0.1048966
140	0xbd542383	-0.05179168
141	0x3dc530ea	0.0962847
142	0x3db51884	0.088425666
143	0xbe5c3675	-0.21505149
144	0xbe4cec82	-0.20012096
145	0x3d2b48f2	0.041817613
146	0xbc438449	-0.011933395
147	0xbdfe5622	-0.12418772
148	0xbddeccc6	-0.10878901
149	0xbda2689d	-0.0793011
150	0x3e5da832	0.21646193
151	0x3d00c2f7	0.031435933
152	0xbd899f9e	-0.06719898
153	0x3e75f23f	0.24018191
154	0x3d44a8bb	0.048012476
155	0x3e096b86	0.13419923
156	0x3dbb10be	0.09134053
157	0x3dab8ca3	0.08376434
158	0xbd08c65b	-0.03339229
159	0x3d0cf596	0.034413897
160	0xbe26ce9e	-0.16289756
161	0x3d5464c9	0.05185393
162	0x3d8ff6a2	0.07029463
163	0xbd13a400	-0.036045074
164	0xbd77107e	-0.060318463
165	0xbde0d489	-0.10978038
166	0xbc7dcafa	-0.015490288
167	0x3d8cd903	0.06877329
168	0xbd8c68fe	-0.06855963
169	0x3c316ad8	0.010828696
170	0x3a2285bc	0.00061997375
171	0xbda7530b	-0.08170136
172	0xbc29dc2e	-0.010367436
173	0xbe20865f	-0.15676259
174	0x3b92d217	0.004480611
175	0x3cbec7ee	0.023288693
176	0x3dd939dd	0.1060674
177	0xbd39b74f	-0.045340832
178	0x3cd3ab68	0.025838569
179	0x3d28d6ac	0.041220352
180	0xbd647d04	-0.055783287
181	0xbda7a906	-0.081865355
182	0x3d473bab	0.04864089
183	0xbd30cb10	-0.043162405
184	0xbe19c8e6	-0.15018043
185	0xbd6756ac	-0.05647914
186	0x3d33bb95	0.043880064
187	0xbe32ca4b	-0.17459981
188	0xbdbfc381	-0.09363461
189	0x3e0b3c4c	0.1359722
190	0x3d2bcc8f	0.04194313
191	0x3de63b91	0.1124183
192	0xbdafbd67	-0.085810475
193	0xbdd67385	-0.10471252
194	0xbdfc63f9	-0.12323756
195	0x3db7d4b6	0.08976118
196	0x3ce78fab	0.028266748
197	0x3c99356f	0.018702237
198	0xbe1012a8	-0.14069617
199	0xbd03ccba	-0.032177664
200	0xb77aeee9	-1.4956787e-05
201	0xbd7a46c8	-0.06110266
202	0x3e2c1d70	0.16808105
203	0xbcb844f5	-0.022493819
204	0x3d2ffdde	0.042966716
205	0xbdfcb860	-0.12339854
206	0x3d73efe5	0.059554953
207	0x3dcf7429	0.10129578
208	0x3e2349ed	0.15946169
209	0xbd266296	-0.040621363
210	0xbdc4cc28	-0.09609252
211	0xbdc82d28	-0.09774238
212	0xbdcecd0f	-0.100977056
213	0xbd1bc42b	-0.038028877
214	0xbd9d8848	-0.07692009
215	0x3deb15b0	0.11478746
216	0x3d753c65	0.05987205
217	0xbdc7657b	-0.09736153
218	0x3d96baec	0.07359871
219	0xbd394235	-0.045229156
220	0x3ca9c6c4	0.020724662
221	0xbdc5b0e2	-0.09652878
222	0xbc6471ba	-0.01394313
223	0xbd3c565a	-0.04598079
224	0x3d692014	0.056915358
225	0xbd9f3021	-0.07772852
226	0x3d9c1d76	0.07622807
227	0xbc91a0fd	-0.01777696
228	0x3db9fbfe	0.09081267
229	0xbdd8d00e	-0.10586558
230	0x3e24df76	0.16100869
231	0xbc80675c	-0.015674286
232	0x3df6ecce	0.12056886
233	0x3d19d865	0.037559886
234	0x3dfe2246	0.12408881
235	0xbce95d56	-0.028486889
236	0xbcb5e920	-0.02220589
237	0xbdfc396c	-0.1231564
238	0x3d9ba497	0.075997524
239	0xbdf359ee	-0.11882387
240	0x3bb94293	0.005653688
241	0xbe0e6ea7	-0.13909398
242	0x3dc2c7c0	0.095107555
243	0xb9488732	-0.0001912385
244	0xbe43448b	-0.19069116
245	0xbceb6058	-0.028732464
246	0xbdabfc68	-0.08397752
247	0xbdba1ca1	-0.09087492
248	0x3c886fa1	0.016654791
249	0x3d8637b7	0.065535955
250	0xbb0a21c6	-0.002107726
251	0x3cdd5fa7	0.02702315
252	0xbc74e739	-0.014947706
253	0xbcba6010	-0.022750884
254	0x3e72ce51	0.23711516
255	0x3d7d64c1	0.061863665

network_body._body_endoder.seq_layers.2.bias f4 [128]
0	0x3ab950a0	0.0014138408
1	0x3c9a07ef	0.018802611
2	0xbd09df7d	-0.0336604
3	0xbcb4140b	-0.021982213
4	0xbd42200d	-0.047393847
5	0xbbc9ca9c	-0.006158186
6	0xbd392ca8	-0.045208603
7	0x3c56298e	0.013071431
8	0x3afcbe02	0.0019282701
9	0xbbe7daa3	-0.007075624
10	0xbc94ede3	-0.01817984
11	0xbccfcff4	-0.025367714
12	0xbcd92245	-0.026505599
13	0xbd23d892	-0.04000146
14	0xbd84e569	-0.06489069
15	0xbcaf3329	-0.0213867
16	0xbd89beff	-0.06725883
17	0xbd814c5b	-0.06313392
18	0x3a37260a	0.0006986564
19	0xbd1501fb	-0.03637884
20	0xbd361251	-0.04445106
21	0xbd621bfd	-0.055202473
22	0xbc665332	-0.014057921
23	0xbc7bd40c	-0.01537038
24	0xbd9b5448	-0.07584435
25	0x3c0d2651	0.008615092
26	0xbd80bee6	-0.06286411
27	0xbd7dec07	-0.06199267
28	0xbd339a81	-0.04384852
29	0xbd0ffa52	-0.035150833
30	0xbd662ca0	-0.0561949
31	0xbd48814f	-0.048951443
32	0xbc206e56	-0.009791931
33	0xbcd4c939	-0.025974857
34	0xbd5b2c62	-0.053509124
35	0xbcdbcc5d	-0.026830846
36	0xbd1e18d2	-0.03859789
37	0xbd867c1c	-0.06566641
38	0xbd8a7069	-0.06759722
39	0x3b0de8f1	0.0021653736
40	0xbd918561	-0.07105518
41	0xbd99034c	-0.07471332
42	0xbd1d5c06	-0.03841784
43	0xbd380264	-0.044924155
44	0xbc2a298b	-0.010385881
45	0xbd52d69e	-0.051474206
46	0xbd934af2	-0.07192029
47	0xbc45626a	-0.0120473895
48	0xbd7ffdb5	-0.062497813
49	0xbd250fa9	-0.040298138
50	0xbc6b43e2	-0.014359446
51	0xbc5855ca	-0.013204047
52	0xbc23a443	-0.0099878935
53	0xbd8996a1	-0.06718183
54	0xbd196566	-0.037450217
55	0xbc98ac40	-0.018636823
56	0xb992d222	-0.0002800385
57	0xbda8ed95	-0.0824844
58	0xbc6bef49	-0.014400312
59	0xbd079772	-0.033103414
60	0xbd290e25	-0.041273255
61	0xbd6e0ce4	-0.058117762
62	0xbd6df16d	-0.05809157
63	0xbd9cf37c	-0.076636285
64	0x3af2bd3b	0.001851953
65	0xbca3bb8c	-0.01998689
66	0xb9ef6aa6	-0.00045665092
67	0xbd837ff4	-0.064208895
68	0xbd37b4de	-0.044850223
69	0xbc666d62	-0.014064165
70	0xbd332198	-0.04373321
71	0xbd04dc5c	-0.032436714
72	0xbd41232f	-0.047152694
73	0xbbc84d21	-0.00611271
74	0xbc2cac28	-0.010539092
75	0x3b71d11c	0.003689832
76	0xbd7c73a5	-0.061633725
77	0xbd3df036	-0.04637166
78	0xbd71534c	-0.05891733
79	0xbd458b2d	-0.04822843
80	0xbd8682d7	-0.065679245
81	0xbd14b2d3	-0.036303353
82	0xbbf0c2fc	-0.0073474627
83	0xbd167c20	-0.03673947
84	0xbce4ef5f	-0.027946172
85	0xbd832d1e	-0.0640509
86	0x3c4972f1	0.012295471
87	0xbd569c56	-0.052395187
88	0xbd8b0dfe	-0.06789778
89	0x3badb661	0.0053012823
90	0xbd71c2ae	-0.05902355
91	0x3b583dac	0.0032995744
92	0xbd4d4a2d	-0.050119568
93	0xbd33ade1	-0.043866996
94	0xbd940dee	-0.072292194
95	0xbd572879	-0.052528832
96	0xbd62a0b7	-0.05532905
97	0xbd3e03fe	-0.046390526
98	0xbd41a9d5	-0.047281105
99	0xbd8b9f3d	-0.06817482
100	0x3b7b4828	0.003834257
101	0xbce9ed65	-0.028555581
102	0xbd5d363e	-0.054006808
103	0xbaac2854	-0.0013134577
104	0xbd8920fb	-0.06695744
105	0xbd49e8da	-0.04929433
106	0xbca62f9e	-0.020286378
107	0xbd25ee10	-0.040510237
108	0xbd244a60	-0.040109992
109	0xbd61caee	-0.05512517
110	0xbc83f63b	-0.016108623
111	0xbd542f36	-0.051802836
112	0xbd019e38	-0.03164503
113	0xbca09c52	-0.01960579
114	0xbc81591a	-0.015789557
115	0xbd87c921	-0.06630159
116	0xbcdb0dd0	-0.026739985
117	0xbd62ed06	-0.055401824
118	0xbd9e0714	-0.07716194
119	0x3c0452d5	0.008076389
120	0xbd2b9811	-0.04189307
121	0xbd1fda10	-0.03902632
122	0xbd26ec60	-0.04075277
123	0xbcc6dbdc	-0.024274759
124	0xbd5dd504	-0.054158226
125	0xbb829b93	-0.003985831
126	0xbda4bf46	-0.08044295
127	0xbc0bc4d7	-0.008530817

action_model._continuous_distribution.log_sigma f4 [1, 2]
0	0xbea80f16	-0.3282401
1	0xbdbbc05a	-0.091675475

action_model._continuous_distribution.mu.weight f4 [2, 128]
0	0x3b9bdcc5	0.0047565424
1	0x3c645927	0.013937271
2	0x3cedcde4	0.02902884
3	0xbbae69f6	-0.00532269
4	0xbbb31734	-0.0054654125
5	0x3bbbaeab	0.005727609
6	0xbb592496	-0.003313338
7	0xbc3169e4	-0.010828469
8	0xbc421e3f	-0.011848032
9	0x3cc7b164	0.024376579
10	0xb94c1f59	-0.00019466634
11	0x3b41ad10	0.0029552616
12	0x3c18eb80	0.009333491
13	0x3bf42829	0.0074510765
14	0xbaa6f901	-0.0012739004
15	0x3b5ecf71	0.0033998156
16	0x3b277149	0.00255497
17	0xba25efc0	-0.0006329976
18	0x38f084fc	0.00011468862
19	0xbc0aff88	-0.008483775
20	0x3c23bdcb	0.009993981
21	0x3bc8ec01	0.0061316495
22	0x3b31b749	0.0027117303
23	0xba4b20ba	-0.0007748712
24	0xbb1a0dac	-0.0023506684
25	0x3c2db958	0.010603271
26	0x37abb368	2.0468331e-05
27	0x3ad0cc4c	0.0015930026
28	0xbac0cb6d	-0.0014709063
29	0x3bfca9d7	0.007710676
30	0xb8e85c01	-0.00011079759
31	0x3aad298a	0.0013211232
32	0x3c882894	0.016620912
33	0x3d23220f	0.039827403
34	0x39d119db	0.0003988285
35	0xbb4d276b	-0.0031304013
36	0x3c6ea2de	0.014565198
37	0xbb15dbf8	-0.0022866707
38	0xbaa2da27	-0.0012424634
39	0xbace7ff1	-0.0015754682
40	0xbb4d5a4f	-0.0031334346
41	0xb9fed69d	-0.00048606555
42	0x39b7ea2e	0.00035078957
43	0x3b5f23bd	0.0034048401
44	0xbb683e90	-0.003543768
45	0x3b8b16fb	0.004244683
46	0xbb813d89	-0.003944103
47	0xb73ede48	-1.1376636e-05
48	0x3b5e73d5	0.0033943553
49	0x3bda2c35	0.006658102
50	0x3ba45eba	0.005016175
51	0x3caaf629	0.020869331
52	0xbc9c1998	-0.019055173
53	0xbb52b36d	-0.0032150403
54	0x3bd913ed	0.00662469
55	0x3bb1655c	0.0054136943
56	0xbb1b2d11	-0.0023677985
57	0xbbbb497c	-0.005715547
58	0xbb5c2dae	-0.0033596563
59	0x3be9c4b9	0.007134047
60	0x3c824e51	0.015906485
61	0x3b09fb56	0.002105435
62	0x3ba0c758	0.004906576
63	0xbadffb84	-0.0017088507
64	0x3c5deba2	0.013544949
65	0x3b98a1fb	0.0046579815
66	0x3c3877a4	0.011258993
67	0x3ac06adb	0.0014680283
68	0x3c418aba	0.01181286
69	0x3b8f4915	0.0043727257
70	0xbae4a5e0	-0.0017444454
71	0x3a8be425	0.0010672851
72	0x3c23dba4	0.010001097
73	0x3c97a01d	0.018508965
74	0x3d80df1e	0.06292556
75	0x3aa26ea4	0.0012392593
76	0x3a456bb4	0.00075310026
77	0x3c0cdb94	0.008597273
78	0x3b95a08d	0.0045662583
79	0x3b93bee0	0.004508838
80	0x3b9b92a5	0.004747706
81	0x3b867d17	0.0041042673
82	0xbca56eab	-0.020194372
83	0x3bb6e6ed	0.0055817277
84	0x3b224834	0.0024762275
85	0xb9de17aa	-0.0004236077
86	0x3d9cf80c	0.07664499
87	0x3b03850b	0.0020068313
88	0xbac44f0d	-0.0014977172
89	0xbc804519	-0.015657948
90	0x3c09fdd6	0.008422336
91	0x3c0f18b2	0.008733915
92	0x3c2f8094	0.010711808
93	0x3be13948	0.0068732835
94	0xba078b81	-0.0005170629
95	0x3c23d96f	0.010000571
96	0x3c101e99	0.008796358
97	0xbb1ac54c	-0.0023616133
98	0xbbb71c11	-0.0055880626
99	0x3b548a1d	0.0032430955
100	0xb9f08d54	-0.00045881665
101	0x3b109059	0.0022058694
102	0x3b8b6346	0.0042537777
103	0x3b01c3ca	0.0019800537
104	0xb9f3ac03	-0.0004647673
105	0xb9dc7186	-0.00042046251
106	0x3b1caa4b	0.0023905213
107	0x3c08ad81	0.008342148
108	0xbc4808b1	-0.012209103
109	0xbbbcd9bf	-0.005763262
110	0x3b9841d4	0.004646519
111	0x3c548d7b	0.012973185
112	0x3ba1f849	0.004942928
113	0xbb923a72	-0.0044625336
114	0xbb361cb5	-0.0027788107
115	0xbab21c8c	-0.001358883
116	0xbbe700a2	-0.007049636
117	0x3b20c843	0.0024533428
118	0xba07b972	-0.0005177475
119	0x3cfb51ea	0.030678708
120	0x3a44d380	0.00075083226
121	0x3b7302ea	0.0037080594
122	0x3c8ba4f3	0.017046427
123	0x3c6114ae	0.013737841
124	0x3b2ca0a4	0.0026340866
125	0x3c4616df	0.012090414
126	0xba85728e	-0.0010181235
127	0xbcf11833	-0.029430484
128	0x3c030f52	0.007999258
129	0xbd92c993	-0.071673535
130	0x3b9dab31	0.0048116674
131	0x3c6ccb5e	0.014452783
132	0x3d0bfac9	0.034174714
133	0xbb634399	-0.0034677743
134	0xbc64c272	-0.013962375
135	0x3db41db0	0.08794725
136	0x3d8d6915	0.069048084
137	0xbd2d653f	-0.042332884
138	0x3d166898	0.036720842
139	0x3b0ae44d	0.0021193207
140	0xbbaa608b	-0.005199497
141	0x3d22f32b	0.039782684
142	0x3ac67419	0.0015140801
143	0xbb182120	-0.0023213103
144	0x3c274cb7	0.010211161
145	0xbb0736dc	-0.0020632064
146	0x3c928160	0.017883956
147	0x3d408866	0.04700508
148	0x3ccba865	0.02486057
149	0x3cdfdb0e	0.027326133
150	0xba70ccb7	-0.00091857783
151	0x3d5b85e8	0.0535945
152	0x3b3d8264	0.002891683
153	0x3d82f6cd	0.0639473
154	0x3b6b83af	0.0035936644
155	0x3bb9ab1d	0.0056661502
156	0x3cd2602c	0.025680624
157	0x3cfe8c71	0.031072827
158	0x3cd094e7	0.025461627
159	0x3ccf467e	0.025302168
160	0x3cdb290a	0.026752967
161	0xb9e20c1a	-0.00043115095
162	0x3cc71a1e	0.024304446
163	0x3d2ddf02	0.042449005
164	0x3d0e43f8	0.03473279
165	0x3c83317d	0.016014809
166	0x3c218c56	0.009860119
167	0x3c84a4ef	0.016191928
168	0x3a652ddd	0.0008742491
169	0xbbf6c6ae	-0.0075310087
170	0x3d022598	0.031774133
171	0x3d0c9713	0.034323763
172	0x3b3cb764	0.0028795833
173	0x3ccd9e66	0.025099944
174	0xbb87c7b8	-0.0041436814
175	0x3ce1a46d	0.027544225
176	0x3ae58c51	0.0017513131
177	0x3d326edb	0.04356275
178	0x3d944238	0.07239193
179	0x3d0f770b	0.035025638
180	0x3ca8f990	0.020626813
181	0xbc21a476	-0.009865871
182	0x3d1d4357	0.0383943
183	0x3ce8a865	0.02840061
184	0xb995375d	-0.00028460743
185	0x3b35b007	0.0027723329
186	0x3d794d1f	0.060864564
187	0x3aec1eb0	0.0018014517
188	0x3d0dfe40	0.0346663
189	0x3898e25c	7.2900875e-05
190	0xbbe4b11a	-0.00697912
191	0x3bf3130a	0.007418041
192	0xbda6a229	-0.08136398
193	0x3d8281e0	0.06372428
194	0x3c2bd991	0.010488884
195	0xbadc6bb4	-0.0016816766
196	0x3a4b7b5e	0.00077622186
197	0x3d68f8e9	0.056878004
198	0x3c119832	0.008886384
199	0x3d557d94	0.052121714
200	0x3bd5c441	0.0065236394
201	0x3c899357	0.01679389
202	0x3bc1b836	0.0059118522
203	0x3d23a1e4	0.039949313
204	0x3b88a3d3	0.00416992
205	0x3be3c487	0.006950918
206	0x3a2efc08	0.0006675129
207	0x3cc319f1	0.02381608
208	0x3b91825f	0.0044405903
209	0x3d4d84e8	0.050175577
210	0xbb19734f	-0.0023414677
211	0x3c8a58b0	0.016887993
212	0x3b6470f6	0.003485737
213	0x3c2bf00b	0.010494242
214	0x3ca9a428	0.020708159
215	0x3c7ec9b3	0.0155510185
216	0x3c3ea1de	0.011635272
217	0x3d8440df	0.06457686
218	0x3c810e23	0.015753811
219	0x3bb79234	0.0056021456
220	0x3c9f6097	0.019455237
221	0x3d072cec	0.033001825
222	0xba8a2ed3	-0.0010542519
223	0x3c8dc6ca	0.017306704
224	0x3c2138ad	0.009840173
225	0x3a96cbe2	0.0011504854
226	0x3d013a29	0.031549606
227	0x3c48a096	0.012245318
228	0x3b6f3fae	0.0036506462
229	0x3cd5720b	0.026055356
230	0x3ccdc2f9	0.025117384
231	0x3ad8ca7e	0.001653984
232	0x3b4dd649	0.0031408241
233	0xbcc88d62	-0.02448148
234	0x3d2f5026	0.042801045
235	0x3c843891	0.016140254
236	0x3d013e83	0.031553756
237	0x3c85cf52	0.01633421
238	0x3d50fdd9	0.051023338
239	0x3bea7f5b	0.0071562952
240	0x3d106ed6	0.03526195
241	0x3c9708d8	0.018436834
242	0x39691c3f	0.00022231134
243	0x3b71282e	0.003679763
244	0x3d482b9e	0.04886972
245	0x3c528c3b	0.012850816
246	0x39dff3a9	0.00042715415
247	0x3ce1486c	0.027500354
248	0x3cca6d1c	0.02471023
249	0x3c253b51	0.010084943
250	0x3c291c59	0.0103217
251	0x3bf8c298	0.0075915568
252	0x3cbbd8e1	0.022930564
253	0x3c8e997e	0.017407175
254	0x3c2361f1	0.0099720815
255	0x3b1e7c75	0.002418307

action_model._continuous_distribution.mu.bias f4 [2]
0	0xbcb35eed	-0.02189585
1	0xbca9420b	-0.020661375

exp_avg f4 [128, 6]
0	0x3aa4daa1	0.0012577364
1	0x3aa4287b	0.0012524271
2	0xbad3eecd	-0.0016169191
3	0x3adc17a0	0.0016791709
4	0x3aa601ea	0.0012665365
5	0x3a0ebf31	0.000544536
6	0x390acfda	0.00013238136
7	0x38fe708a	0.00012132626
8	0xb8c1d5ce	-9.2427814e-05
9	0x392a915a	0.00016266611
10	0x3900a726	0.00012269299
11	0x385d40b1	5.2750755e-05
12	0x37e9b786	2.7861224e-05
13	0x3820d70d	3.8347254e-05
14	0xb8565ced	-5.110812e-05
15	0x3857a4c8	5.141346e-05
16	0x3822a6fb	3.8779322e-05
17	0x378bdc96	1.667281e-05
18	0xba2752a4	-0.0006382859
19	0xba32fca1	-0.0006827806
20	0x3a3d5a33	0.00072232186
21	0xba6ff944	-0.000915427
22	0xba3500d3	-0.0006904725
23	0xb99ba43c	-0.00029686268
24	0xb9f001fc	-0.00045777846
25	0xba02cb6d	-0.0004989419
26	0x3a15aadf	0.00057093607
27	0xba2f5c5f	-0.00066894846
28	0xba0444ac	-0.00050456333
29	0xb9637859	-0.0002169324
30	0x380847c8	3.249178e-05
31	0x38cb409c	9.691829e-05
32	0xb93d5e4e	-0.00018059576
33	0x390840e6	0.00012994147
34	0x38cd8ad8	9.8010234e-05
35	0x3830bdf4	4.2138578e-05
36	0x39e558c8	0.0004374443
37	0x39f4c781	0.0004668795
38	0xba15ba20	-0.0005711634
39	0x3a24178a	0.0006259611
40	0x39f7897d	0.00047213948
41	0x3954da46	0.00020299209
42	0x3877fd5c	5.912535e-05
43	0x385e1778	5.295078e-05
44	0xb8889ea1	-6.514532e-05
45	0x3894e207	7.099291e-05
46	0x38609800	5.3547323e-05
47	0x37c11fcb	2.3022198e-05
48	0xb7916881	-1.733401e-05
49	0xb765b413	-1.369139e-05
50	0x3792430a	1.7435774e-05
51	0xb799fc55	-1.8356523e-05
52	0xb7684a9b	-1.3845648e-05
53	0xb6c7be41	-5.9528106e-06
54	0xba0c00b4	-0.0005340681
55	0xba09fb66	-0.00052635965
56	0x3a27f018	0.0006406321
57	0xba38ff41	-0.0007057079
58	0xba0b895a	-0.0005322896
59	0xb96ff847	-0.00022885307
60	0x38a825dc	8.017916e-05
61	0x389d5724	7.5025746e-05
62	0xb8bd7a42	-9.0349946e-05
63	0x38d2f398	0.00010058953
64	0x389f1cec	7.587098e-05
65	0x3808d184	3.2620053e-05
66	0x34228a92	1.5137837e-07
67	0xb3a679d0	-7.752135e-08
68	0x3432bc42	1.664603e-07
69	0xb3df3374	-1.0393606e-07
70	0xb3a85a0c	-7.839489e-08
71	0xb310c340	-3.370519e-08
72	0xba895f2c	-0.0010480634
73	0xba658a70	-0.00087562855
74	0x3a64582f	0.000871065
75	0xba99e061	-0.0011739844
76	0xba68206e	-0.000885493
77	0xb9c79a02	-0.00038070983
78	0xb8bc6abc	-8.9844194e-05
79	0x388a5e3e	6.597907e-05
80	0xb849b99c	-4.8094997e-05
81	0x38b983c6	8.846032e-05
82	0x388bed4e	6.672238e-05
83	0x37f0a434	2.8686693e-05
84	0xbb01fc1d	-0.001983411
85	0xbb03c7b3	-0.0020108044
86	0x3b324dcd	0.0027207017
87	0xbb30ae9c	-0.0026959544
88	0xbb0543c7	-0.0020334588
89	0xba652f15	-0.00087426725
90	0xb71ef622	-9.474841e-06
91	0xb78d8cdc	-1.6874103e-05
92	0x37acce00	2.0599924e-05
93	0xb7bdc7f6	-2.262367e-05
94	0xb78f2519	-1.7064203e-05
95	0xb6f62ce6	-7.336598e-06
96	0x3a3ed209	0.00072792225
97	0x3a510b69	0.00079744175
98	0xba93198f	-0.0011222827
99	0x3a8c22f2	0.0010691567
100	0x3a536652	0.0008064258
101	0x39b5c768	0.0003467158
102	0xb8fcaa1f	-0.00012047984
103	0xb8f080ad	-0.000114680595
104	0x391f0002	0.00015163425
105	0xb921399a	-0.00015375615
106	0xb8f33655	-0.00011597263
107	0xb851223c	-4.9861366e-05
108	0x393c2d8b	0.00017946043
109	0x3958a3a5	0.00020660328
110	0xb986b62a	-0.00025694194
111	0x39913a57	0.00027700022
112	0x395b1477	0.00020893091
113	0x38bc6202	8.982794e-05
114	0x33fcb308	1.176723e-07
115	0x33a5576e	7.6993146e-08
116	0xb38f86e2	-6.6834914e-08
117	0x33ddadc8	1.0322725e-07
118	0x33a73442	7.786049e-08
119	0x330fc69a	3.347541e-08
120	0xb9a5d41a	-0.0003162928
121	0xb98a0d48	-0.00026331306
122	0x399cde97	0.0002992048
123	0xb9b9173c	-0.0003530326
124	0xb98b9b6e	-0.0002662795
125	0xb8f01764	-0.00011448449
126	0x39afbafd	0.00033517918
127	0x39bc2540	0.00035885908
128	0xba120640	-0.00055703893
129	0x39fc40c8	0.0004811345
130	0x39be43e4	0.00036290206
131	0x39239b07	0.00015602644
132	0xb8d307ac	-0.00010062693
133	0xb99c76dd	-0.000298432
134	0x39c89807	0.00038260242
135	0xb9d1c6dc	-0.00040011748
136	0xb99e3a1b	-0.000301794
137	0xb9080e79	-0.00012975362
138	0x3a69a9c0	0.00089135394
139	0x3a5e8f88	0.0008490016
140	0xba875eec	-0.0010327972
141	0x3a953280	0.0011382848
142	0x3a611169	0.0008585663
143	0x39c18835	0.0003691331
144	0x3a3f688f	0.0007301652
145	0x3a20f127	0.000613945
146	0xba20ace7	-0.000612928
147	0x3a57c7c0	0.0008231364
148	0x3a22c14f	0.0006208615
149	0x398bf341	0.00026693384
150	0x38c06114	9.173356e-05
151	0x38ac4ee4	8.216294e-05
152	0xb8eaa244	-0.00011188214
153	0x38e704ea	0.00011015854
154	0x38ae3fd4	8.3088555e-05
155	0x3815d574	3.5723162e-05
156	0xba264290	-0.0006342316
157	0xba1b22e0	-0.00059179775
158	0x3a1d13de	0.0005992035
159	0xba4fff0e	-0.00079344294
160	0xba1ce24e	-0.000598465
161	0xb986e6d8	-0.00025730464
162	0xbac44c8a	-0.0014976424
163	0xbacf72ff	-0.0015827118
164	0x3b0e52c7	0.002171682
165	0xbb0b1133	-0.0021219968
166	0xbad1c94e	-0.0016005428
167	0xba34643b	-0.00068813906
168	0xba91b55e	-0.0011116674
169	0xba818190	-0.0009880532
170	0x3aa6a65c	0.0012714374
171	0xbaada21b	-0.0013247164
172	0xba82f714	-0.0009991848
173	0xb9e13aa3	-0.00042959032
174	0x39d5312c	0.00040663162
175	0x39c1d5c4	0.00036971096
176	0xb9a734e4	-0.0003189213
177	0x3a01f0c6	0.00049568375
178	0x39c404ca	0.000373876
179	0x39288d92	0.00016074468
180	0x387cd003	6.0275208e-05
181	0x38527e60	5.0185598e-05
182	0xb863162c	-5.4141667e-05
183	0x388d1ba2	6.728551e-05
184	0x3854dd76	5.075099e-05
185	0x37b709f3	2.1819933e-05
186	0x38d7277a	0.00010259352
187	0x38c549b2	9.407419e-05
188	0xb8f0ea35	-0.00011487716
189	0x39044154	0.00012612838
190	0x38c782ac	9.513399e-05
191	0x382b8e30	4.0902e-05
192	0xb83c4a57	-4.4891927e-05
193	0xb814a8cd	-3.5443158e-05
194	0x385a36bc	5.2026226e-05
195	0xb8475005	-4.751982e-05
196	0xb816558f	-3.584247e-05
197	0xb7814508	-1.5410144e-05
198	0xba39675a	-0.00070725905
199	0xba34e6d1	-0.00069008494
200	0x3a6bd29b	0.0008995921
201	0xba728a80	-0.00092522055
202	0xba36f08c	-0.00069785933
203	0xb99d4e7c	-0.0003000385
204	0xb7a2ad4f	-1.9392608e-05
205	0xb7f4d98e	-2.9188373e-05
206	0x380328bc	3.127077e-05
207	0xb82423a4	-3.913384e-05
208	0xb7f79bb2	-2.9517196e-05
209	0xb754e9f1	-1.2690653e-05
210	0x3b0d5920	0.0021568015
211	0x3b138333	0.002250862
212	0xbb329432	-0.0027248976
213	0x3b45c66b	0.003017808
214	0x3b152ca6	0.0022762208
215	0x3a8045ba	0.0009786405
216	0x39cba984	0.00038845476
217	0x39e497b4	0.00043600576
218	0xba13fb90	-0.0005645091
219	0x3a193db2	0.000584568
220	0x39e72b1a	0.00044091867
221	0x3946c701	0.00018956886
222	0xb641d5bc	-2.888365e-06
223	0xb7146f2b	-8.847371e-06
224	0x37525641	1.2537058e-05
225	0xb74702be	-1.1861963e-05
226	0xb7161b47	-8.947048e-06
227	0xb68112ed	-3.846703e-06
228	0x398ef2bd	0.00027265205
229	0x38edd7e4	0.000113412534
230	0xb87e6940	-6.065634e-05
231	0x391f711e	0.00015205561
232	0x38f085b8	0.00011468999
233	0x384ed230	4.930998e-05
234	0x39c8782e	0.00038236514
235	0x399fc99f	0.00030477063
236	0xb9897f75	-0.0002622564
237	0x39d63b7e	0.00040861586
238	0x39a19671	0.000308204
239	0x390af23f	0.00013250949
240	0x37bd5474	2.2569882e-05
241	0x37fa46eb	2.9835346e-05
242	0xb7f60c59	-2.9331235e-05
243	0x3827c708	4.0001265e-05
244	0x37fd18c6	3.0171486e-05
245	0x3759a224	1.2971959e-05
246	0x37ae36b5	2.0767891e-05
247	0x3784238e	1.5752183e-05
248	0xb7c0857f	-2.2950348e-05
249	0x37b129c8	2.11195e-05
250	0x3785a0a8	1.5929647e-05
251	0x36e5ced5	6.8488102e-06
252	0x39b1e5c8	0.0003393127
253	0x3979f68a	0.00023838333
254	0xb96d2f20	-0.00022619637
255	0x39a79112	0.00031960808

exp_avg_sq f4 [128, 6]
0	0x3a2d8592	0.000661933
1	0x3a4f2e07	0.0007903282
2	0x3a8ac367	0.0010586799
3	0x3ab9948c	0.001415865
4	0x3a532876	0.00080550404
5	0x391c212e	0.0001488968
6	0x36b499d0	5.382324e-06
7	0x36e9445b	6.9518987e-06
8	0x3713cf05	8.810083e-06
9	0x37512f3e	1.246837e-05
10	0x36ee03d5	7.093399e-06
11	0x35affcdf	1.3112111e-06
12	0x357bc75c	9.379489e-07
13	0x35f9f99b	1.862459e-06
14	0x363a753f	2.7784406e-06
15	0x3660811e	3.3453757e-06
16	0x35ff726d	1.9032283e-06
17	0x34bce065	3.5180997e-07
18	0x38d3c5aa	0.00010098082
19	0x38d35e60	0.00010078843
20	0x390b561b	0.0001328815
21	0x393d1603	0.00018032645
22	0x38d7259b	0.000102590035
23	0x379f143d	1.8963701e-05
24	0x388a73b7	6.601906e-05
25	0x38a3cc7b	7.810533e-05
26	0x38e382a5	0.00010848538
27	0x3912a9a4	0.00013986841
28	0x38a6e065	7.9572936e-05
29	0x3776c6b0	1.4709003e-05
30	0x37a59eba	1.9743446e-05
31	0x388da506	6.754142e-05
32	0x38ea814a	0.000111820715
33	0x38fe91d8	0.00012138829
34	0x3890d3df	6.905919e-05
35	0x37562b8b	1.2765532e-05
36	0x38b4a352	8.6134896e-05
37	0x39291c38	0.00016127608
38	0x39807298	0.00024499441
39	0x3997b8be	0.00028938608
40	0x392ca20e	0.00016463568
41	0x37ff49c9	3.0432728e-05
42	0x35076f5b	5.045346e-07
43	0x353e082f	7.0792424e-07
44	0x357cba7c	9.4148686e-07
45	0x35aa79ee	1.2701473e-06
46	0x3541f8e9	7.2260315e-07
47	0x340f6c27	1.3357258e-07
48	0x33f3ab3a	1.1346715e-07
49	0x33ab0304	7.9633566e-08
50	0x33aecff8	8.140336e-08
51	0x34190a50	1.4252987e-07
52	0x33ae222c	8.108722e-08
53	0x3280c0ee	1.4988895e-08
54	0x385d28bc	5.2728443e-05
55	0x3889cacd	6.570444e-05
56	0x38ba9558	8.8969886e-05
57	0x38f6fd7a	0.00011777408
58	0x388c840a	6.7003144e-05
59	0x374fcb41	1.2385485e-05
60	0x359039b7	1.0745633e-06
61	0x359a29f5	1.1486105e-06
62	0x35be5727	1.4181468e-06
63	0x360a1790	2.0577318e-06
64	0x359d1fed	1.1706703e-06
65	0x34685af1	2.1639768e-07
66	0x2ef970ee	1.13432694e-10
67	0x304f55cf	7.54281e-10
68	0x30b0cdf7	1.2864224e-09
69	0x30ba58ea	1.3558552e-09
70	0x305407ee	7.713642e-10
71	0x2f1cc665	1.4258601e-10
72	0x37875537	1.6132935e-05
73	0x37e762b2	2.7583304e-05
74	0x381cf350	3.74199e-05
75	0x384f8531	4.947669e-05
76	0x37ec1f2a	2.8147904e-05
77	0x36ae9679	5.2031214e-06
78	0x38043415	3.1519758e-05
79	0x3881b904	6.185661e-05
80	0x38cc4c68	9.74171e-05
81	0x38e8c30f	0.000110989546
82	0x38846bd2	6.3143336e-05
83	0x3743d2d5	1.1671994e-05
84	0x3afc57f8	0.0019252291
85	0x3b386f5a	0.0028142543
86	0x3b7e1cd6	0.0038774512
87	0x3ba56c7e	0.0050483337
88	0x3b3c3932	0.0028720615
89	0x3a0b2c0e	0.0005308994
90	0x3494abdc	2.7692192e-07
91	0x3620dfd8	2.3972152e-06
92	0x368ea861	4.2515317e-06
93	0x36909763	4.309158e-06
94	0x36248517	2.4515373e-06
95	0x34f34a6a	4.531642e-07
96	0x39fba103	0.00047994414
97	0x3a40d2d5	0.0007355635
98	0x3a8890a2	0.001041908
99	0x3aacec0b	0.0013192905
100	0x3a44c159	0.00075056177
101	0x39117aea	0.00013874067
102	0x36c1e62b	5.7786433e-06
103	0x36bee164	5.68868e-06
104	0x36e463e2	6.8065574e-06
105	0x372aea86	1.0187394e-05
106	0x36c2790e	5.795743e-06
107	0x358fcadb	1.0713369e-06
108	0x37a1cd2f	1.9288242e-05
109	0x3805f074	3.193361e-05
110	0x384844bd	4.7747733e-05
111	0x38704c63	5.72916e-05
112	0x3808b57c	3.2593947e-05
113	0x36ca2a03	6.02496e-06
114	0x2c254be8	2.3490047e-12
115	0x2d301053	1.0008066e-11
116	0x2d971498	1.7175858e-11
117	0x2d9e369f	1.7986777e-11
118	0x2d3404fa	1.023292e-11
119	0x2c051b12	1.8915464e-12
120	0x36b3d816	5.3597714e-06
121	0x371fcb8f	9.524533e-06
122	0x376cd83a	1.411704e-05
123	0x378f6b92	1.709702e-05
124	0x37232ff8	9.726726e-06
125	0x35f15201	1.7979766e-06
126	0x3903a938	0.00012556172
127	0x393b3834	0.00017854647
128	0x397f357b	0.00024338618
129	0x39a7df98	0.00032019312
130	0x393f02d0	0.00018216227
131	0x380d3ba5	3.3672568e-05
132	0x38dc0271	0.00010490872
133	0x39f7a001	0.00047230723
134	0x3a50eb1d	0.0007969605
135	0x3a5e8be7	0.0008489475
136	0x39fd3813	0.000482977
137	0x38bb3aa9	8.927781e-05
138	0x39370088	0.00017452438
139	0x397f7293	0.00024361377
140	0x39b1d75a	0.0003392052
141	0x39e4fec3	0.0004367736
142	0x39824748	0.0002484864
143	0x3840a7b2	4.5932546e-05
144	0x37bb418c	2.232266e-05
145	0x375b2e78	1.3064237e-05
146	0x375994d1	1.2968857e-05
147	0x37c3bb58	2.333305e-05
148	0x375eb564	1.3274464e-05
149	0x3624ab8f	2.4537765e-06
150	0x3619426c	2.283744e-06
151	0x368a2f40	4.118221e-06
152	0x36c9a1f3	6.00912e-06
153	0x36f81d96	7.39442e-06
154	0x368d27f1	4.2067772e-06
155	0x3550bdae	7.776206e-07
156	0x37679d34	1.3805275e-05
157	0x370e5482	8.483536e-06
158	0x37131299	8.766213e-06
159	0x377da3c7	1.51181075e-05
160	0x37104c80	8.60088e-06
161	0x35d56369	1.5898669e-06
162	0x3ad57a64	0.0016287086
163	0x3ae371a6	0.0017352595
164	0x3b0c95bd	0.0021451556
165	0x3b4bb57f	0.0031083522
166	0x3ae7c900	0.0017683804
167	0x39ab6197	0.00032688372
168	0x399e2313	0.0003016224
169	0x3982fe86	0.00024985167
170	0x3991839f	0.0002775462
171	0x39ea3e5b	0.00044678416
172	0x39854398	0.00025418098
173	0x384511f7	4.698519e-05
174	0x37789b71	1.4818143e-05
175	0x3828c431	4.023704e-05
176	0x388a975c	6.608546e-05
177	0x3897904c	7.2271185e-05
178	0x382c73f8	4.1116e-05
179	0x36ff05de	7.6002752e-06
180	0x3467023b	2.1514363e-07
181	0x341521e1	1.3889031e-07
182	0x34177854	1.4106746e-07
183	0x3484e0a7	2.4750372e-07
184	0x341730ff	1.4080796e-07
185	0x32df94be	2.6028257e-08
186	0x35fbe5e7	1.8767868e-06
187	0x36160445	2.2354227e-06
188	0x36480ac4	2.9808589e-06
189	0x36866333	4.0050595e-06
190	0x3618e8dd	2.278531e-06
191	0x34e21f3f	4.2118515e-07
192	0x353c757f	7.0206437e-07
193	0x3556e3fc	8.0052973e-07
194	0x3580a533	9.584822e-07
195	0x35c0c043	1.436107e-06
196	0x355b5116	8.1701853e-07
197	0x34222992	1.5102549e-07
198	0x392dd426	0.00016577597
199	0x39a9330a	0.0003227222
200	0x39fc7ab3	0.00048156604
201	0x3a17dd39	0.00057931576
202	0x39accb84	0.00032958027
203	0x387f8714	6.092254e-05
204	0x34b0d2ae	3.2935844e-07
205	0x352dba98	6.471905e-07
206	0x358696bc	1.0027647e-06
207	0x359beb64	1.1616908e-06
208	0x353168bc	6.6090047e-07
209	0x34032cfe	1.2216694e-07
210	0x3abc057b	0.0014344895
211	0x3b05d336	0.002042008
212	0x3b3dfc0f	0.002898935
213	0x3b6fe8d4	0.0036607282
214	0x3b087cd9	0.0020826368
215	0x39c9d64a	0.00038497365
216	0x38f9f0e3	0.00011918114
217	0x38f59921	0.00011711033
218	0x39159343	0.00014264607
219	0x395bf367	0.00020976142
220	0x38fa43f2	0.00011933585
221	0x37b90bac	2.2059154e-05
222	0x344b1e09	1.8916775e-07
223	0x35bdebeb	1.4150258e-06
224	0x36269af5	2.4826124e-06
225	0x362ab2c6	2.5436034e-06
226	0x35c2398c	1.4470875e-06
227	0x348f9bf3	2.6749294e-07
228	0x38703891	5.727314e-05
229	0x39092896	0.00013080458
230	0x395c03de	0.00020982276
231	0x397636a1	0.00023480739
232	0x390c12fa	0.0001335851
233	0x37cf23f5	2.4693067e-05
234	0x37aa8bac	2.0330619e-05
235	0x3893dc36	7.050524e-05
236	0x38eeb9bc	0.0001138332
237	0x3904de16	0.00012671234
238	0x38972e27	7.2088376e-05
239	0x375f9089	1.3325488e-05
240	0x3456b6b3	1.9996769e-07
241	0x34a295f0	3.0283945e-07
242	0x34f17b91	4.4979654e-07
243	0x35119b2f	5.424253e-07
244	0x34a5acb3	3.08593e-07
245	0x3374ffac	5.704321e-08
246	0x33d30f71	9.828262e-08
247	0x34b4aef4	3.3654908e-07
248	0x3513de15	5.508494e-07
249	0x35225621	6.0475037e-07
250	0x34b8b5e4	3.4405014e-07
251	0x33889310	6.359744e-08
252	0x382474c5	3.9209397e-05
253	0x37c1d23d	2.3105293e-05
254	0x37c16f7b	2.3059305e-05
255	0x382cf130	4.123262e-05

exp_avg f4 [128]
0	0x39a53ea6	0.0003151793
1	0x38000fd0	3.0532305e-05
2	0x3721e7a1	9.650278e-06
3	0xb9342bed	-0.00017182501
4	0xb903a912	-0.00012556117
5	0x37cc98fc	2.4389934e-05
6	0x38f6664d	0.00011749249
7	0x375f8fd2	1.3325322e-05
8	0xb667395e	-3.4455074e-06
9	0xb90ae534	-0.0001324609
10	0x379e61c2	1.888059e-05
11	0xb2a793e4	-1.9508612e-08
12	0xb9670f62	-0.00022035607
13	0x378b48aa	1.6603928e-05
14	0xba04a703	-0.0005060287
15	0xb68e7cba	-4.24645e-06
16	0x39526da2	0.00020068002
17	0xb7f21839	-2.8859928e-05
18	0x385a12c4	5.1992727e-05
19	0x32a66f8f	1.9375674e-08
20	0xb88af734	-6.626398e-05
21	0x38bd641c	9.030869e-05
22	0xb89d7ffa	-7.510181e-05
23	0x396008b0	0.00021365541
24	0x392201dd	0.00015450218
25	0x37ad72da	2.0676689e-05
26	0xb91c29c1	-0.00014892874
27	0xb9d0d282	-0.00039829692
28	0xb9825d06	-0.0002486484
29	0x38c31e38	9.303953e-05
30	0x3753e310	1.2629447e-05
31	0x37c697fc	2.3674213e-05
32	0xb715a4af	-8.9194355e-06
33	0xb936195d	-0.00017366321
34	0xb6f6786e	-7.345391e-06
35	0x3a147d2c	0.0005664404
36	0x38e61b2c	0.00010972316
37	0xb6156ab6	-2.2264844e-06
38	0x37ef6ae0	2.8540788e-05
39	0x38a0d855	7.6696895e-05
40	0x36fbef0e	7.5082125e-06
41	0x3685037c	3.9641145e-06
42	0x387b9e0a	5.999025e-05
43	0xb66af859	-3.5013275e-06
44	0x366f54dc	3.566317e-06
45	0xb79ce603	-1.8703757e-05
46	0x390013ab	0.00012214358
47	0x3856ddfd	5.122832e-05
48	0x38ca62c2	9.650506e-05
49	0x38872fc2	6.446197e-05
50	0xb9ed1a31	-0.00045223677
51	0x38f61055	0.00011733236
52	0xb9bb750f	-0.00035754635
53	0x3942aa74	0.0001856478
54	0xb599ab5e	-1.1449263e-06
55	0x39181acc	0.00014505832
56	0x36ac6c77	5.1386264e-06
57	0x37acf206	2.0616699e-05
58	0xb948ca68	-0.00019148889
59	0xb584e770	-9.902124e-07
60	0x36ff9460	7.6168653e-06
61	0x349e7280	2.9513103e-07
62	0x371a1684	9.184358e-06
63	0xb94e24cc	-0.00019659399
64	0xb7d385c8	-2.5215457e-05
65	0x37d64ce6	2.5546597e-05
66	0xb78813e2	-1.6221722e-05
67	0x37890f63	1.6338838e-05
68	0xb898a2b6	-7.278232e-05
69	0x37e65f84	2.7462615e-05
70	0x393471b7	0.000172085
71	0x3918ab27	0.00014559609
72	0x3777db30	1.4773381e-05
73	0xb71e50fb	-9.436389e-06
74	0xb76c44d4	-1.40827215e-05
75	0xb5729212	-9.0364586e-07
76	0xb9aa9fef	-0.00032544087
77	0xb9513537	-0.00019951617
78	0xb9128edf	-0.00013976869
79	0xb8d42beb	-0.00010117128
80	0xb688c1a0	-4.0756568e-06
81	0x35234bd0	6.0832554e-07
82	0x37ad5454	2.0662475e-05
83	0xb79b7dcd	-1.853602e-05
84	0x398e8ee2	0.00027190807
85	0x392b6cf4	0.00016348419
86	0x383fa148	4.5688153e-05
87	0xb7588550	-1.29056425e-05
88	0xb8db2438	-0.0001044948
89	0xb5a20b44	-1.2073219e-06
90	0x3946355a	0.00018902626
91	0x3587c669	1.0116029e-06
92	0xb4145310	-1.3813792e-07
93	0x365edb69	3.3208291e-06
94	0xb7766691	-1.4686623e-05
95	0xb5fa0c8f	-1.8630107e-06
96	0x391947c4	0.00014617952
97	0xb8300c65	-4.1973213e-05
98	0xb92a2c5e	-0.00016228991
99	0x39120845	0.00013926726
100	0xb6189132	-2.273428e-06
101	0x39aaf430	0.0003260686
102	0xb9068be3	-0.00012831348
103	0xb5b90960	-1.3786303e-06
104	0xb8cb8ee4	-9.70641e-05
105	0x38068a84	3.2077092e-05
106	0xba27bd64	-0.0006398766
107	0xb8a0fa4c	-7.676016e-05
108	0x38042257	3.1503234e-05
109	0xb6df3248	-6.6517714e-06
110	0xb7b591c0	-2.1644752e-05
111	0x3378da38	5.794047e-08
112	0xb6005c1a	-1.9127096e-06
113	0x3904ae1c	0.00012653362
114	0x39bda050	0.0003616833
115	0x398307c1	0.00024992044
116	0xb72abdbf	-1.0176968e-05
117	0xb99e5fc6	-0.00030207465
118	0xb5edcf86	-1.7718273e-06
119	0x371471a4	8.847946e-06
120	0xb61816c4	-2.2663016e-06
121	0x37a87919	2.0083551e-05
122	0x35ffa964	1.904828e-06
123	0x39234d3a	0.0001557366
124	0xb939c72a	-0.00017717169
125	0x39839003	0.00025093564
126	0xb991fd5b	-0.0002784532
127	0x358149bc	9.632708e-07

exp_avg_sq f4 [128]
0	0x385138d3	4.9882405e-05
1	0x34ebd55f	4.392741e-07
2	0x33fd1abc	1.17860935e-07
3	0x36d52ca4	6.3530915e-06
4	0x36a558b7	4.927711e-06
5	0x368f7ff8	4.2766296e-06
6	0x372b0cd0	1.0195377e-05
7	0x3340319b	4.47486e-08
8	0x31ac897f	5.0214903e-09
9	0x368b3a36	4.1492995e-06
10	0x339baf21	7.249606e-08
11	0x2e521639	4.776821e-11
12	0x35e9f4fe	1.7431155e-06
13	0x36833513	3.910283e-06
14	0x393a7f72	0.0001778582
15	0x342302ee	1.5181624e-07
16	0x3842f38d	4.648003e-05
17	0x34c0b092	3.589126e-07
18	0x36077493	2.0184423e-06
19	0x2b325e64	6.3369297e-13
20	0x3521b0f5	6.023468e-07
21	0x373d426b	1.1280742e-05
22	0x37fae5cc	2.990933e-05
23	0x3781157e	1.5388006e-05
24	0x355caab3	8.2204787e-07
25	0x348bdc98	2.605127e-07
26	0x350ef9d3	5.3262664e-07
27	0x38e5a8f7	0.00010951043
28	0x37840ad2	1.5740665e-05
29	0x362adf45	2.5461934e-06
30	0x3215ce18	8.719802e-09
31	0x341781ff	1.4110263e-07
32	0x33594e72	5.0595595e-08
33	0x37ab35db	2.0409867e-05
34	0x332fc847	4.0927514e-08
35	0x39073c76	0.00012897127
36	0x36f7f889	7.390107e-06
37	0x33c071ac	8.9613735e-08
38	0x370aca39	8.272525e-06
39	0x3695cb4d	4.4642134e-06
40	0x32a427d8	1.9110232e-08
41	0x32b70462	2.1305997e-08
42	0x35c2f94e	1.4526684e-06
43	0x32ed5a9b	2.7631634e-08
44	0x32b83e7b	2.1448832e-08
45	0x347be8f3	2.3460943e-07
46	0x37c3f12c	2.3358116e-05
47	0x34833357	2.4438006e-07
48	0x3680e707	3.8415924e-06
49	0x3600f77b	1.921754e-06
50	0x391302c5	0.00014020044
51	0x36a24b65	4.8367533e-06
52	0x36c67cee	5.9154036e-06
53	0x371cedcc	9.353691e-06
54	0x2f43a57e	1.7793941e-10
55	0x3743afc4	1.1663829e-05
56	0x31ab23e5	4.9808357e-09
57	0x3332af39	4.160322e-08
58	0x380487fa	3.159789e-05
59	0x33348c22	4.2036966e-08
60	0x37231692	9.720812e-06
61	0x35b984b0	1.3822191e-06
62	0x3216ddfd	8.781623e-09
63	0x36a2e842	4.8550146e-06
64	0x34858462	2.4869502e-07
65	0x338ba41a	6.502542e-08
66	0x3469a59a	2.1760061e-07
67	0x35ba8a3a	1.3898309e-06
68	0x37199e7b	9.15641e-06
69	0x36eb0d7b	7.005115e-06
70	0x3672e0a0	3.619156e-06
71	0x37bfe161	2.2873925e-05
72	0x3547a1eb	7.43689e-07
73	0x35820e63	9.689942e-07
74	0x33cf4127	9.65104e-08
75	0x3035b3d1	6.610295e-10
76	0x383240d6	4.249889e-05
77	0x36c7e1f8	5.9569684e-06
78	0x367388c9	3.6289441e-06
79	0x3728096a	1.0015772e-05
80	0x3547eb8d	7.447605e-07
81	0x31e257af	6.587434e-09
82	0x35ad6f06	1.2921817e-06
83	0x34fe165b	4.7327453e-07
84	0x38928241	6.986084e-05
85	0x38247b01	3.9215203e-05
86	0x37d599b2	2.5463149e-05
87	0x37055497	7.947113e-06
88	0x35ed6896	1.7688315e-06
89	0x320b605d	8.112775e-09
90	0x3588ac60	1.0182957e-06
91	0x32374b32	1.0669099e-08
92	0x33d07209	9.706498e-08
93	0x31dc47b1	6.410993e-09
94	0x337ac4df	5.8386714e-08
95	0x32975bd8	1.762048e-08
96	0x37bc04a0	2.24135e-05
97	0x360efb8d	2.130607e-06
98	0x36d8f197	6.4654264e-06
99	0x37509104	1.243153e-05
100	0x35ce8678	1.5387332e-06
101	0x3880b943	6.138023e-05
102	0x3745d611	1.1791956e-05
103	0x32e90f66	2.7131772e-08
104	0x38020f74	3.1008807e-05
105	0x35bdbdd2	1.4136842e-06
106	0x39027282	0.00012440424
107	0x36837f7d	3.918946e-06
108	0x358f945e	1.0697511e-06
109	0x3348495c	4.663285e-08
110	0x360804aa	2.0268294e-06
111	0x2f35511a	1.6490667e-10
112	0x318dd04c	4.1273207e-09
113	0x36d17e15	6.2433633e-06
114	0x37844f88	1.577266e-05
115	0x35f3a01d	1.815151e-06
116	0x345e7a63	2.0719885e-07
117	0x3715f292	8.93757e-06
118	0x31dd0d50	6.43346e-09
119	0x33f5a48e	1.1438634e-07
120	0x3198bc94	4.445221e-09
121	0x36439726	2.9145244e-06
122	0x3289363b	1.597356e-08
123	0x377eaa49	1.5179227e-05
124	0x368d0af6	4.2034035e-06
125	0x37099a89	8.201817e-06
126	0x3934eee5	0.00017255133
127	0x3332d57c	4.1638017e-08
