MachineLearning/results/testSumo8/MoveTOGoal/MoveTOGoal-500028.pt (torch, 441819 bytes, 36 tensors)

network_body._body_endoder.seq_layers.0.weight f4 [128, 6]
00000000: efd6 813d 2b76 a5bd 81d6 cb3e b1c1 9d3e
00000010: 3aaf f13c 0518 ae3e 9d73 b93d 157b 983c
00000020: a1cd 173f 9c72 e23e c3d5 923d 0704 c5bd
00000030: 25bc 25bf 0636 e1be b3a3 4bbf 5d84 1e3e
00000040: 7a2b 903d a2cd 363f da2c 233d 607a c13e
00000050: 778a 103d 2303 4fbf 5e16 28bd 7f71 c9be
00000060: 0f28 88bc 14d6 15bd 8b2b 11bf fffa e93e
00000070: d312 5abe 9c9d f0bc 64ef 88bd a2ee e83e
00000080: 1fa4 20be 26cd 33bd 5b41 d23e 5cbf 18bd
00000090: f660 b3be 5703 943e 9112 dd3e c328 5ebe
000000a0: 880b e5bd bc18 b9be 4e56 433e b681 4d3d
000000b0: 90b7 32bf ea04 423e c832 803e 00d8 0ebf
000000c0: 558f 993e 237b e23c 317f 0cbf 8f05 4ebe
000000d0: 80e4 e0be ef7e b4be 3d93 babe a161 193e
000000e0: 562b 2a3f 5869 8cbd 71db 843e 5d7b 3fbf
000000f0: 7951 fcbd e898 993d d9d5 1f3c 51fc 943e
00000100: 3b69 efbd e4d8 c3be 7d90 673f ba06 403e
00000110: 1d3e b8be 21df 8d3d d53b 14bf 1804 aa3e
00000120: c2cb 7ebc 83ce ddbe cfd4 10bf 6c9b 13be
00000130: 19af a1be 8404 2d3d ecb4 33bf b6f4 0abf
00000140: 5832 bcbe 9b19 ccbe cdd4 1e3e 01cd 263e
00000150: 249f 0dbf 01e7 2a3c 2c0f 0fbd 2e73 1abf
00000160: 5a06 a4bc e334 cabe 101d e6be a6ec 12bf
00000170: 5c1c c3be d165 2abf d12c cb3d ed35 2bbd
00000180: c3fd 13be be06 3bbe 603f 103e ea6a fd3c
00000190: b1f3 6fbc 0cc8 373e 9fe6 9bbf 9a50 37bf
000001a0: 7ad9 0dbe 0577 8ebf d007 ad3e 80b4 a13d
000001b0: 88d8 273e 7a88 febc 6807 c53e e1b2 9ebe
000001c0: 0dc3 97be 8a67 81bd 28e7 1fbf 961f 53be
000001d0: 9ddd bb3e f818 34be 99ec f3bb f3b1 88be
000001e0: b2a5 4f3f 2847 a43b 8a42 c4be 183d 9a3e
000001f0: 64f8 0bbd 2c33 96be 67c1 bd3d 9625 febe
00000200: 12ea 5abf a6bf c03e 6ab1 aebe de2c eebe
00000210: 7bc4 50be 5c6f 9d3e f7fe 34be 5182 d83e
00000220: 7985 37bf beed c63e 85f6 e0be 1d1e 1fbe
00000230: 859e 523d 7544 9c3e a8b8 da3e f527 68be
00000240: ff6d 1a3f ca67 38be 5eeb ab3e 2ef1 683e
00000250: 5d20 a7be 4cec 8fbd 4c19 e13e 3c3a 35be
00000260: 9f74 76bd 0dad 19bf e2a3 323f 4b7f 063f
00000270: 61b1 db3e dd84 d2be e6c3 91bd c339 62bf
00000280: 1885 b03b 1a0a 6dbe e25a 6fbd ba7c 7f3e
00000290: e972 2abf ca01 d43e 90f8 3e3d 2bda ffbd
000002a0: cb1c b8be 4c1c 063f 605d eebe 29be b23c
000002b0: 4340 7abe 319a 073f 01fd 9d3e 0f6a 15bf
000002c0: f39f 27be 9738 563f c63e 6b3e 69c3 273f
000002d0: e0b5 35be 17ea 1ebf b28c 593e 7087 0abf
000002e0: f491 c03d 3306 893e 4a7f 5a3e 3f5e 26bf
000002f0: cf67 b4bd 4bb5 583e 5bbf dc3e 924c 65bd
00000300: 7c13 0d3c 6405 fe3d c173 0bbf 63a9 293e
00000310: d2cb 9abe 719d 9bbe 7371 ad3c 25a9 20be
00000320: 140b 4a3d d80d 1d3f 71d3 cbbe 7343 9ebe
00000330: 1e5e 00bb d9ad 123e a466 c03d 565e 953e
00000340: 7cd3 d1bd 2b82 68be 32ca f23e e7e4 8b3e
00000350: 7fd9 c8be 7647 523e 1217 0bbf 751f 3bbf
00000360: f8f1 ee3e c5fe 113f a4c1 cabe 90a6 56be
00000370: 5461 603d e5b6 71be 0136 1abf 1bb7 d23e
00000380: 7c71 a53d badc c83e adfd 973e 236b c1be
00000390: 5fa2 dd3e 31bb 0abe 0588 a9bd 44b2 7abe
000003a0: a2ed 09be 79c3 8dbe 1e48 e1be 5f1e 003f
000003b0: 3e44 5a3d a6de 06be 9533 b53d 7ced 93be
000003c0: 337b 9bbe d935 4a3f e63a a53d ba90 a1be
000003d0: 48bc e1be b0f5 02bf ff51 3d3e 68fb 033f
000003e0: 420a 8dbe 3308 40be 5d94 5a3d 94b8 d5bb
000003f0: 60cd 16bf 5e47 b8be 58ac 44be 6f17 243e
0.063398235 -0.080791794 0.3981209 0.30811837 0.0295025 0.340027 0.090552546 0.018613378
0.5929814 0.44228065 0.07169678 -0.09619909 -0.6474021 -0.4398653 -0.7954666 0.1548018
0.070395425 0.7140752 0.039837696 0.37788677 0.0352883 -0.8086416 -0.041036956 -0.39344403
-0.016620664 -0.036581114 -0.56707066 0.45699307 -0.21296243 -0.029372029 -0.06686285 0.45494562
-0.15687607 -0.043896817 0.41065487 -0.03729187 -0.35034913 0.28908798 0.43178228 -0.21695237
-0.1118384 -0.36151683 0.19075891 0.05017253 -0.69811344 0.18947187 0.25038743 -0.5579834
0.29992166 0.027646607 -0.5488158 -0.20119308 -0.43924332 -0.35253093 -0.3644046 0.14978649
0.66472375 -0.0685603 0.2594867 -0.7479761 -0.12320227 0.07499868 0.009755575 0.29098752
-0.11689993 -0.38251412 0.90454847 0.18752566 -0.3598489 0.06927324 -0.57903796 0.33206248
-0.015551509 -0.43321618 -0.5657472 -0.14414757 -0.315789 0.042240635 -0.7019794 -0.5427965
-0.3675716 -0.39863285 0.15510865 0.1628914 -0.55320954 0.010431052 -0.03492658 -0.60332
-0.02002256 -0.39493474 -0.44944048 -0.57392347 -0.38107574 -0.6656161 0.099206574 -0.041799475
-0.14452271 -0.1826429 0.14086676 0.03093477 -0.014645503 0.17947406 -1.2179755 -0.71607363
-0.13852492 -1.1130072 0.33795023 0.07895756 0.16391194 -0.031070936 0.38482213 -0.3099585
-0.29641 -0.06318577 -0.6246209 -0.20617518 0.36692515 -0.1758765 -0.007443976 -0.26698264
0.81112206 0.0050133653 -0.38332015 0.30124736 -0.03417243 -0.29335916 0.09265404 -0.4963805
-0.8551341 0.37646216 -0.3411973 -0.46518606 -0.20387451 0.30749023 -0.17675386 0.42286924
-0.7168804 0.38853258 -0.4393808 -0.15538831 0.051420707 0.3052098 0.42719007 -0.22671492
0.6032409 -0.18008342 0.33578008 0.22748253 -0.3264188 -0.07027492 0.43964612 -0.17697996
-0.060169812 -0.6002968 0.69781315 0.52537984 0.42908767 -0.41116992 -0.07117443 -0.8836939
0.0053869598 -0.23148385 -0.058436282 0.24949923 -0.6658159 0.41407615 0.046623766 -0.12492784
-0.35959467 0.5238693 -0.46555614 0.021819191 -0.24438576 0.5296965 0.3085709 -0.5836496
-0.1636961 0.836801 0.22973165 0.6553255 -0.17745161 -0.6207594 0.21245077 -0.5411291
0.09402838 0.26762542 0.2133762 -0.6498756 -0.088088624 0.21162908 0.43114743 -0.055981226
0.0086106025 0.12403372 -0.544735 0.16568522 -0.30233628 -0.30393556 0.02117226 -0.15689524
0.04932697 0.6134925 -0.39809754 -0.30910835 -0.0019587348 0.1432413 0.09394577 0.29173535
-0.102454156 -0.22705905 0.47419888 0.27323076 -0.39228436 0.20535073 -0.5433208 -0.73094875
0.46668983 0.5702937 -0.3960086 -0.20961976 0.05478032 -0.23604925 -0.60238653 0.41155323
0.08078286 0.392309 0.29685727 -0.3777705 0.43287942 -0.1354797 -0.08277897 -0.24482065
-0.13469556 -0.27688196 -0.44000334 0.5004634 0.053287737 -0.13170871 0.08847729 -0.28892124
-0.3036743 0.78988415 0.080678746 -0.3155573 -0.4408896 -0.5115614 0.1848831 0.5155549
-0.2754689 -0.18753128 0.053364147 -0.0065222476 -0.5890713 -0.3599195 -0.19206369 0.16024564

network_body._body_endoder.seq_layers.0.bias f4 [128]
00000000: b4f0 533d d02c 9e3d d16b bbbc 22b6 253b
00000010: 9c0a f1bd b81c 2dbd 3332 f0bc a860 0bbb
00000020: dfc2 733d 79c7 19be a24b d7bb 6da3 1bbd
00000030: adc7 2f3d 03c5 a6bd bba1 5f3d 53b3 07be
00000040: 20c1 0ebe d4d3 c0bb e832 47bd 24d5 cfbd
00000050: ceca ddbd 7363 203d b560 83bd 0739 45bb
00000060: 2761 803d 1698 143e 8d15 0bbd 9f2b 89bd
00000070: abd1 b5bd 0754 4bbd 5e11 b43c 5018 633c
00000080: 8c28 933a 0a78 22bc bd37 f5bc 82ef 94bc
00000090: 4a58 0abd 1285 bfbd ca6c 50bd 94ad 62bd
000000a0: c5e6 e43a 72fb 5dbd 8057 a7bc 0873 f7bd
000000b0: 3a67 2bbb 6345 c4bd 287a 173c d485 96bd
000000c0: b372 7fbd 0637 9b3c c471 a3bd 55dc bcbc
000000d0: a028 9b3c 14b2 713d 75f8 9dbd 008a 4bbe
000000e0: 45e6 973d 26a7 aebd 15aa b0bd 8eef 65bd
000000f0: d0e4 e8bc c375 1fbd 2362 3e3c a20f b03d
00000100: 5cd9 94bc 7734 8a3d cd50 6ebe a32e f6bc
00000110: 6d1a a7bd 5f90 89bd abf5 93bd 9984 19bc
00000120: 5360 13bd ac47 87bd e8b8 1a3d 567f 13be
00000130: 2fca 3d3d e4cc debc 32f7 64bc 3841 273b
00000140: bad4 42bd 6d45 88bc acb2 44bc 77b9 0bbc
00000150: 698c 2fbb 5837 b3bd a518 80bd 3720 adbd
00000160: d38a a7bd fff8 033d 6262 eabc 3443 93bd
00000170: 69f8 d9b9 c2c6 70bd cf5d 2c3d 5367 85bd
00000180: 51fd 75bb 4c56 c93c 24b8 1abd 85f0 3b3c
00000190: 29e5 a23c 57f0 9f3c eb7d 05be 6c9a b83d
000001a0: 57a7 6abd 1990 843b 1552 8ebd 5664 92bd
000001b0: 34d4 973c b489 32be f8c7 b5bd 1e36 00bd
000001c0: a57c f13c 7fa8 853c 1468 703c 799a 42be
000001d0: 8650 31be b755 1e3b 3ee3 abbc 05da c1bd
000001e0: a71c 403d c1bb b33b 6c1a 45bb 29cc 39bd
000001f0: 57a1 08ba bcd5 403d 0a15 893b 53dc a6bc
0.051743224 0.07723391 -0.02287856 0.0025285562 -0.11769602 -0.042263716 -0.029320812 -0.0021267328
0.059512015 -0.15017499 -0.0065702954 -0.03799765 0.042915035 -0.08143046 0.054597598 -0.13252
-0.13940859 -0.005884627 -0.048632532 -0.10148075 -0.108296975 0.039157342 -0.0641493 -0.0030093805
0.0626853 0.14511141 -0.0339561 -0.06697773 -0.088778816 -0.04964068 0.021980938 0.013860777
0.0011227294 -0.009916315 -0.029933805 -0.018180612 -0.033775605 -0.09351553 -0.050885 -0.05534132
0.0017463794 -0.054194875 -0.020427465 -0.12082487 -0.0026154057 -0.09583547 0.009245433 -0.073497444
-0.062365245 0.018947136 -0.079806834 -0.023054281 0.01894027 0.05900772 -0.07713405 -0.19876862
0.07416967 -0.08527975 -0.086261906 -0.05613666 -0.028429419 -0.038930666 0.011620077 0.08596732
-0.018170051 0.06748288 -0.2327301 -0.030051535 -0.08159337 -0.0671699 -0.07224592 -0.009369993
-0.035980534 -0.06605467 0.037773997 -0.14404044 0.046335395 -0.027197309 -0.013974952 0.002552105
-0.047566153 -0.016634667 -0.012005489 -0.008528105 -0.0026786572 -0.0875079 -0.062547006 -0.0845341
-0.081807755 0.032219883 -0.028611366 -0.07190552 -0.00041574545 -0.0587833 0.04208165 -0.06513848
-0.0037535022 0.024577282 -0.037773266 0.011470919 0.019884663 0.019523783 -0.13036315 0.09013829
-0.057288494 0.004045498 -0.0694925 -0.07148044 0.018533804 -0.17435342 -0.08876032 -0.03130161
0.02947838 0.016315697 0.014673252 -0.19004239 -0.17315874 0.0024159977 -0.020982381 -0.09465412
0.046902325 0.0054850285 -0.0030075563 -0.045360718 -0.000521203 0.047078833 0.0041834163 -0.02036873

network_body._body_endoder.seq_layers.2.weight f4 [128, 128]
00000000: 91a8 edbc c649 32be f7bc 86be 4542 c4bd
00000010: 8017 a0bd 412b fd3d 4fd8 72bd d2b4 e0bd
00000020: 6167 a83c eb46 a8be a944 6dbd d24c 903d
00000030: d35d 2bbc 066e e8bd 3652 c0bd 6a44 8a3d
00000040: 908f 3c3b 9891 bbbd 9a09 13bd 25f9 06be
00000050: 4acb 26bd a2b9 96bd 049f b5bd 4984 e2bd
00000060: 51e2 75be 2c1f bdbc 9059 b5bd 9694 91bd
00000070: 10df 7d3d 3bee 8abd 3459 efbd 3a3e 3bbe
00000080: 5bc3 51bc 2890 a93d e7b4 3c3c 6e22 173d
00000090: c5fa f6bd e35c 85bd 4a4b 8bbd 0a09 48be
000000a0: f5b3 413a aadb 103e 8fc3 cfbd ea6a 5abe
000000b0: f64f 763d b12d 5bbc c653 c3bc 7c59 cabc
000000c0: ceb3 edbd 7006 6cbd 491c 043e da62 a43d
000000d0: b027 76bd 500b 9c3d ea19 8b3d 4679 4dbc
000000e0: 9bad 82bd 59f8 f13d 2055 d33d 30b2 923d
000000f0: 9720 a9bc bfd7 9cbc eb2c 88bd 5cf8 bd3d
00000100: 21af f9bd f084 1d3e 0d68 053e 093b 6e3c
00000110: 5bba 8d3d e21b 283d 6fcb 51bd 83ee 1ebe
00000120: 7040 54be 5652 dcbc 0962 0cbe 739f ea3d
00000130: 0303 a3bd b29c db3b 9bc1 6a3e 15ea 043e
00000140: 446d 283e 0e6e f3bd 107a 2abd 9567 1dbe
00000150: 3a13 1f3e 89b6 52bd 504c ab3c 754d 323e
00000160: 02ba f2bc 45f9 dd3d a4af 1cbe f889 d73c
00000170: a459 99bc 33a9 d13c 4b94 303d 289d e4bc
00000180: 7faf fdbd 23de 2d3d b0a7 c43d 5fcb 6dbd
00000190: d50a bcbc 4667 f83d 98be 71bd def6 7fbe
000001a0: 7da6 9cbd 08d1 483e b5c6 a9bc 0179 1b3e
000001b0: 91d8 33be df9e 65be a391 663c e84c 1fbe
000001c0: d6d9 93bc aed0 c1bd 119a 443d 1cd9 743d
000001d0: 098e 313d 826f 62be 8a0f 0c3d c1bb f03d
000001e0: 645b 733c 766f a8bd 2567 cd3b a291 42be
000001f0: 2ca3 06be 2384 78bd cfd6 ec3d 0380 d63b
00000200: b18c 28bd 1994 f83d 62ac 523d a4b7 cd3d
00000210: 28b5 1abc 799b b2bd 23e3 cdbc 3442 95bd
00000220: 050e 353e 264e 153e 97c9 b9bd b4df 543c
00000230: 0a13 0f3c 39ff 1a3e 1169 0abe 2179 003e
00000240: 3b9f d23c bf10 08be cba6 1c3c bec3 c93d
00000250: b785 2a3d 6571 94bd da0e 81bd ba7e 0ebe
00000260: e813 503e b741 57bd f51b 233e adf4 0cbe
00000270: 2975 603d 0edf c43c 85ae 493e f85a 9d3d
00000280: 061f 9a3c 4ffc b5bd 5fe4 f8bd 7b56 28be
00000290: 45b8 0abe 7917 153e d796 c73d 3103 41bd
000002a0: 0fbc c33c c974 9abd 9ea3 cf3d 48a9 d9bd
000002b0: be0f 103c ced6 4cbd 13d4 45be d0fe 973c
000002c0: 9b80 4dbe e2cc 12ba c34c 90be 8059 d5bd
000002d0: a5db cb3d 7691 5cbc 11e6 3abd 093c 7cbd
000002e0: 22e0 9abd 7afc 2c38 09d6 41bd ca74 26be
000002f0: 475a 873d 38f2 263d 6c31 51bd b0fa 9c3d
00000300: ad09 d3bd 4008 03bd b988 7fbd 26d7 84bd
00000310: f7dd 913c 119d d63d b77c 1c3e c0b6 ad3b
00000320: 038c 9a3c 9180 f43d 6c79 d2bc 27a2 173d
00000330: f11a d2bd 4d23 bdbd 5acc 003e 393a 31be
00000340: ae1c 943b 073a cdbd 0add 71be 754b 1c3e
00000350: 904c fa3d da0c 2c3c 7bfe dcbd 7675 f93d
00000360: 5500 bf3b cb6f 66bd 64c1 723c 73f0 c43c
00000370: a4aa 3abd c9e0 763d c181 d5bd 3afd 10bd
00000380: 3fe2 abbd 0546 07be 8da3 043e b353 993c
00000390: eb9a 1e3e 1c75 633d 6673 6a3c da17 e7bd
000003a0: fc17 d63c 8054 c1bd b6f3 02bd d32b 37bc
000003b0: 0d57 b7bd 8f56 97be 31ca c7bd 495f 2f3d
000003c0: b24a b13b d87a c5bd 0730 3dbe 0cda bebb
000003d0: d741 01bd 6607 00bd c245 67bc 5643 dc3c
000003e0: 0f57 6fbd c65d 07be 8d71 543d 9816 6fbe
000003f0: 51e0 cabd 26d1 05bd 70aa e83c 73d5 263d
-0.029011043 -0.17410955 -0.26316044 -0.095829524 -0.07816982 0.12361766 -0.05928832 -0.10971989
0.020557107 -0.32866606 -0.057926808 0.07045902 -0.010459381 -0.1134911 -0.093906805 0.0675133
0.0028772093 -0.09158629 -0.03589783 -0.13180979 -0.040721215 -0.073596254 -0.088682204 -0.11060388
-0.24012114 -0.023086153 -0.08854973 -0.07108419 0.061980307 -0.0678372 -0.11686936 -0.18285456
-0.012802924 0.08279449 0.01151774 0.03689807 -0.12059549 -0.06511857 -0.068014696 -0.19534698
0.00073891814 0.14146295 -0.10144722 -0.21329847 0.06013485 -0.013377593 -0.023843657 -0.024700873
-0.11606561 -0.057623327 0.12901415 0.08026667 -0.060096443 0.07619345 0.06792052 -0.012541121
-0.06380769 0.11814947 0.10318971 0.07162893 -0.020645423 -0.019145845 -0.066491924 0.092758864
-0.12191606 0.15382743 0.13027973 0.014540442 0.0692031 0.041042216 -0.0512194 -0.15520673
-0.20727706 -0.02689473 -0.13709272 0.11456194 -0.07959559 0.006702029 0.22925417 0.1297992
0.16447932 -0.11886226 -0.041620314 -0.15371545 0.15534678 -0.05144361 0.020910412 0.1741236
-0.029629711 0.1083856 -0.15301377 0.026310906 -0.018719502 0.025593376 0.043110173 -0.02790697
-0.12386989 0.042448174 0.09602296 -0.058055278 -0.022954384 0.12129073 -0.059019655 -0.24996516
-0.076489426 0.19610989 -0.020724634 0.15182878 -0.17563082 -0.22423886 0.014072808 -0.15556681
-0.018048208 -0.094636306 0.04799849 0.059777364 0.043348346 -0.2211285 0.034194507 0.11754561
0.014853332 -0.082243845 0.0062683993 -0.19000867 -0.13148183 -0.06067289 0.11564409 0.006546022
-0.0411498 0.121376224 0.05143393 0.10044792 -0.009442605 -0.0872106 -0.025132721 -0.07288018
0.1768113 0.14580593 -0.09071653 0.012992788 0.008732567 0.15136422 -0.13516642 0.12546207
0.025710693 -0.13287638 0.009561251 0.09851788 0.041631427 -0.07248191 -0.06301661 -0.1391553
0.20320094 -0.052552905 0.15928634 -0.13765211 0.054799233 0.024032142 0.1969548 0.076833665
0.018813621 -0.08886015 -0.12152933 -0.1643924 -0.13546856 0.14559735 0.09745567 -0.047122184
0.023893384 -0.07541806 0.101386294 -0.10627991 0.008792816 -0.05000954 -0.19319181 0.018554121
-0.2006859 -0.0005599988 -0.28183565 -0.104174614 0.09954003 -0.013462415 -0.045629565 -0.06158069
-0.07562281 4.1243133e-05 -0.04732326 -0.16255489 0.06609016 0.04075834 -0.051072523 0.07665002
-0.1030458 -0.03199029 -0.06238625 -0.06486349 0.017806036 0.10479177 0.1528195 0.0053013265
0.01886559 0.119385846 -0.025692664 0.037019875 -0.10259045 -0.09235249 0.12577954 -0.17307366
0.0045200204 -0.100208335 -0.23619476 0.1526316 0.122216344 0.010501111 -0.10790726 0.12180607
0.005828897 -0.056258958 0.014816616 0.024040436 -0.04557289 0.060272966 -0.10425139 -0.035397746
-0.083927624 -0.13210304 0.12953015 0.018716669 0.15488784 0.055531606 0.01430974 -0.11283846
0.026134484 -0.09439945 -0.031970702 -0.011179882 -0.089521505 -0.29558226 -0.09755362 0.04281548
0.0054105157 -0.09642571 -0.18475352 -0.005824333 -0.03155693 -0.031257056 -0.014115753 0.026887577
-0.058432635 -0.13219365 0.051866103 -0.23348463 -0.09906066 -0.032670163 0.028401583 0.040730905

network_body._body_endoder.seq_layers.2.bias f4 [128]
00000000: 259e d9ba 2a06 8fbc b03f dbbd 7e42 3ebc
00000010: 51cf a0bb 8c46 03bd d700 b5bd a4f9 0bbe
00000020: 12e5 bfbd 8ee0 0dbd 5db6 e2bd 6474 75bd
00000030: 69e9 cfbd 2320 26bd 99f3 15be 2d2f d7bd
00000040: 55cb cabc 663b 20bd 256d c7bd 4cb8 c7bd
00000050: 58a4 b7bd 3fdb dbbd d240 6abd 6bd2 bebb
00000060: e6ac ebbd ab74 4fbd 3894 90bd 4586 03be
00000070: 2d06 ccbc 50a9 74bc d2bf b6bd 8dec acbd
00000080: aca5 b2bd cc4b 9dbd 83d4 babd 8ca7 803a
00000090: 1917 eebd 0253 b6bd 9bd3 d3bd 8ec8 9ebd
000000a0: 6f5b a7bc fd8c 69bd 05b5 d7ba b598 313c
000000b0: 284a b4bd dea3 06be 7d2d 0dbd 179f febd
000000c0: c509 c4bd 912b 99bd 655d 8fbc 735a 98bd
000000d0: 56c7 f9bd d421 e2bd cd6a d1bd 4e89 9fbd
000000e0: b5ad 24be d6bf 9ebd 278e c8bd 4f90 bcbd
000000f0: 46d6 3abd 5702 fdbd e275 a4bd e18c ebbc
00000100: fee3 0ebe d5c8 c7bd 3a50 33be d758 77bd
00000110: 8942 10be 003b b8bd abaf f5bd 574b d33a
00000120: 6ddf 28be 406a 7bbd ff27 55bd e015 2abd
00000130: 015e cabd a06c aabd f2d4 8bbd 478d 15be
00000140: f230 c0bd 14b4 d4bd 87dd 57bd 8f88 0cbd
00000150: ba86 bbbd 5b46 07be 7c49 14be 05a9 afbd
00000160: fdad 14bd 8e64 d2bd ce01 d1bd 2ad7 59bd
00000170: 5004 2e3c 93d2 6dbd 1fdd adbd 65e7 f4bd
00000180: 22f0 3dbd 1fb8 283a 4d10 86bd 4a4c 79bd
00000190: c1cc d8bd 2000 83bc 3751 41bd 919a d1bd
000001a0: 9c51 dbbd 5327 d8bd 5116 8cbd 5f8b 99bc
000001b0: f3eb 70bd a5f6 903a 445d dcbc 5a77 d5bd
000001c0: 3935 8fbd 64b1 e4bd feca 8dbd 492b 5dbd
000001d0: d1e9 08be ed15 b4bd 6b5b 0339 9194 1ebd
000001e0: a480 7fbd 8301 0ebe 3ed1 113c 1279 96bd
000001f0: e5ae b7bd 54b5 dabb f950 38bd c8fe 34bc
-0.0016602917 -0.017458994 -0.10705507 -0.011612533 -0.0049075265 -0.0320497 -0.08838051 -0.13669449
-0.093698636 -0.03463798 -0.11069939 -0.059925452 -0.10151941 -0.04055799 -0.14643706 -0.10507045
-0.02475516 -0.039119147 -0.097376145 -0.09751949 -0.08966893 -0.10735177 -0.057190724 -0.0058234236
-0.11507587 -0.050648373 -0.070595205 -0.12844189 -0.024905289 -0.014932945 -0.089233056 -0.08443556
-0.08723006 -0.07680473 -0.09122565 0.0009815558 -0.11625499 -0.08902551 -0.10343095 -0.077530965
-0.020429341 -0.057019223 -0.0016457146 0.010839631 -0.08803207 -0.13148448 -0.03446721 -0.12432688
-0.09572176 -0.07479013 -0.017500589 -0.07439127 -0.121962234 -0.110416085 -0.10225449 -0.07789861
-0.16081889 -0.077514336 -0.097927384 -0.09207212 -0.045614503 -0.12353962 -0.08030297 -0.0287537
-0.1395416 -0.097551025 -0.17511073 -0.06038746 -0.14087881 -0.08995628 -0.11996397 0.0016120475
-0.1649148 -0.061380625 -0.052040096 -0.041524768 -0.09881211 -0.083215 -0.068277255 -0.14604674
-0.093843356 -0.1038591 -0.0527015 -0.03430992 -0.091565564 -0.13210432 -0.14481157 -0.0857716
-0.03629874 -0.102730855 -0.10205422 -0.053183712 0.010621145 -0.058062147 -0.08489441 -0.119581975
-0.046371587 0.00064361276 -0.06546078 -0.06086377 -0.10585929 -0.01599127 -0.047196593 -0.10234559
-0.10708925 -0.105543755 -0.06840194 -0.018743215 -0.05881877 0.0011059834 -0.026899941 -0.10423155
-0.06992573 -0.11166647 -0.06923483 -0.053996358 -0.13370444 -0.087932445 0.0001252719 -0.038715903
-0.06237854 -0.13867764 0.008899985 -0.07347311 -0.08968905 -0.006674448 -0.044999097 -0.011047073

action_model._continuous_distribution.log_sigma f4 [1, 2]
00000000: 5649 90be 784c 86be
-0.2818095 -0.26230216

action_model._continuous_distribution.mu.weight f4 [2, 128]
00000000: 38e9 1a3d 3c3f 593d f3e4 ba3c 02e8 203d
00000010: 6f0c 82bb 00d0 a8bd 9148 34bd 7bc8 a23c
00000020: 6004 8c3c c505 2f39 5ac8 e3bc 6a87 333d
00000030: 7f4f 273d f501 08bd 7d10 a4bc 1cd5 bf3c
00000040: a3ae cb3c 69bd 52bd a7ac 323c c4fc c7bb
00000050: 9354 04bd 4928 803c 5fc1 94bc 8ccb 02be
00000060: 96bb d3bc 6ff7 88bd 9480 c6bb f621 96bb
00000070: 1725 2d3d 416f e13c 0ad6 6abd 3161 f53c
00000080: 64ab 07bd d826 693b 8434 e23c 5b7a 8bbd
00000090: 3c58 2bbd f168 583c 1ee8 153c 5531 f5bc
000000a0: 459d 4e3d 99a3 653d df90 89bb fa18 403d
000000b0: a5d9 0c3d 0cc3 aa3a 9b59 10bd f700 033d
000000c0: 3a84 18bd 4945 9cbc 4b09 3a3d 9b94 91bd
000000d0: f069 31bd adc8 80bc 5f7c 46bd 542b 073d
000000e0: a324 e13a 0006 0cbd 3071 d73c 2f82 18bd
000000f0: fa79 a6bd b7a5 393d 01c7 dabb 6843 c1bb
00000100: 22b0 10bd 3fb5 eabc 392e 7d3c 970f db3c
00000110: 23e0 b63b 9357 903c 76b0 1a3c 8292 803d
00000120: 2201 a2bb 2e4c 13bd 5cf6 8abd 97d4 e1ba
00000130: 3ddc 813c 16a2 e73b c138 cd3c 2e5b 9e3c
00000140: e795 63bd 984f 383b 59f0 0ebc 5b91 d4bb
00000150: ca3d a33c 3c3a be3b b532 28bc 2171 8d3b
00000160: 0c4a 63bd 3c92 f83b 8b26 ecbc 0a27 cd3c
00000170: 7d72 663d 0f32 f1bc 1e54 d0bb 25ad 72bc
00000180: 0e21 5f3b 1fc1 3ebc 07e6 ec3c c88f 83bd
00000190: 3c9d 013d 9ebc fdbd d76a 673c 24e0 3fba
000001a0: ff00 3f3a 4f96 b03c b0b9 bb3c 82bd 0cbd
000001b0: eee9 84bd 10ab 71bd bd18 dfbb d426 313a
000001c0: 4463 04ba 5647 28bc 3602 063d c92a 2c3c
000001d0: 8c1b ccba d9dc c5bb 1852 913d dc2b 92bd
000001e0: b5e0 6e3d 96f6 ecbc 8e60 2f3d 7050 d2bb
000001f0: 0771 f73c db0c d53c a9dd 023d 9676 56bc
00000200: a01c 153d c6e5 fdbb c94b 513c 8605 2dbd
00000210: f816 74bd 0371 243d 813d 65bc b1c1 3dbc
00000220: 01db c03d 4154 813d 6b88 e23c 248f ce3c
00000230: c132 923c 5a86 043d 633c b4bc b05c afbc
00000240: 191a a43c 3983 d7bb 10b0 923b a448 ad3c
00000250: 316f dcbc d734 8a3d 779c de3b 0e7c 523d
00000260: f881 f03c 2299 30bc 7ca3 463d 1f54 7c3d
00000270: e44c 093b f72f 81bc 8ae5 493c 6c97 063c
00000280: f60d 82bc 28dd a03c 8902 0f3d 9ebf fdbc
00000290: c7a7 973c 3418 133d fcca 2ebc 4d21 153c
000002a0: 2045 a0bc 18fb be3b d73d 4d3d 71ec 16bd
000002b0: 0f5d 2c3d 059c 1a3d f60c dc3b b30b 543d
000002c0: 4ae4 363d d74c c43c 9110 1e3d 800c 303b
000002d0: df41 833c 5d89 5c3d de50 c13c 0578 b43d
000002e0: d624 52bc 70cc 943c bf88 053c 1d23 583d
000002f0: 2b80 bebb d3c4 cd3c ebc4 8c3d 30f6 d43c
00000300: 5ea5 793b 92d8 963d 0852 853c 0e42 083d
00000310: bdee eebb 3a38 823c f37d 6c3d 8cfa 743d
00000320: ce90 e4bc 64b8 04bd 4a04 4d3c aea5 d83c
00000330: 0a91 083d d7e3 613c 89ea 503d de3b a93c
00000340: 89f8 403c 5985 903d b6e4 333d ce24 4f3d
00000350: c902 553d 76b7 d13c 33b4 fe3a 9d9b 833d
00000360: c90e 67bc 6214 fb3c 1b77 6d3d 91fb f0bc
00000370: 2841 803d 9709 163d 759a 1b3d d399 563d
00000380: 2018 89bc ecd8 413d ff3b 463d 7b68 bc3d
00000390: 4930 5a3d 1f55 81bc 12ba 953d 9176 373d
000003a0: ef35 8d3c 04df eb3c 2d30 253d 92ee 8cbc
000003b0: 23e8 30bc 0349 e83c a01d d73c 37cf e03c
000003c0: f380 913d 0869 b83b 5114 41bd d290 ad3d
000003d0: 4879 573c da47 c33c e9db 4c3c b23e 1c3c
000003e0: a67e 453d e429 fc3b 144f c53d 0a04 513d
000003f0: 087b 473d d446 db3b b27e 60bb 625b 243d
0.03782007 0.05303882 0.02281425 0.03928376 -0.0039687674 -0.08242798 -0.044014517 0.019870987
0.01709193 0.0001669145 -0.027805496 0.043830313 0.040847298 -0.03320499 -0.020027393 0.023417048
0.024863547 -0.051450167 0.010905421 -0.00610313 -0.03230722 0.01564421 -0.018158613 -0.1277296
-0.025846284 -0.06687819 -0.006057808 -0.004581685 0.0422717 0.02751887 -0.05733303 0.029953571
-0.033122435 0.0035576131 0.027612932 -0.06810447 -0.041832194 0.013208614 0.009149579 -0.02993075
0.050442953 0.056064222 -0.004198178 0.04689882 0.03438725 0.0013028099 -0.035241704 0.031983342
-0.037235476 -0.019076006 0.04541902 -0.07108422 -0.04331392 -0.01572069 -0.048458453 0.033000305
0.0017177056 -0.03418541 0.02629909 -0.037233528 -0.08128734 0.045324054 -0.006676555 -0.005897928
-0.035324223 -0.028650878 0.015452915 0.026740832 0.0055809184 0.017619884 0.009441486 0.06277944
-0.0049439827 -0.035961322 -0.067852706 -0.0017229494 0.015852088 0.0070688827 0.025051476 0.019330587
-0.05556288 0.0028123613 -0.0087242955 -0.0064870543 0.019926924 0.005805282 -0.010265996 0.0043164645
-0.05549054 0.007585792 -0.028826972 0.02504303 0.05626153 -0.029442815 -0.006357684 -0.014811789
0.0034046802 -0.011642723 0.02891828 -0.064239085 0.03164409 -0.123894915 0.014124594 -0.00073194713
0.000728622 0.021556048 0.022915691 -0.034360416 -0.06489931 -0.05900103 -0.006808369 0.00067578
-0.0005050192 -0.010270914 0.032716952 0.010508248 -0.0015572174 -0.00603829 0.07095736 -0.07137272
0.058319766 -0.028926175 0.04281669 -0.0064182803 0.030205263 0.026007107 0.031949673 -0.0130897965
0.036404252 -0.0077483384 0.012774416 -0.042241596 -0.059592217 0.04014684 -0.013991714 -0.011581824
0.09416772 0.06314898 0.02765294 0.02521474 0.017846467 0.03235469 -0.02200145 -0.021406502
0.020031976 -0.0065769223 0.0044765547 0.021152802 -0.026908489 0.0674836 0.0067935544 0.05138784
0.029358849 -0.010778697 0.048495755 0.06160366 0.0020950371 -0.015769942 0.012322793 0.008214813
-0.015875798 0.019636706 0.034914527 -0.03097516 0.01851262 0.035911754 -0.010668512 0.009102178
-0.019564211 0.0058282726 0.050107803 -0.03684658 0.042080935 0.037746448 0.0067154123 0.05176897
0.044651307 0.023962421 0.038590018 0.002686292 0.01602262 0.053841937 0.02359813 0.088119544
-0.012826165 0.01816389 0.008150279 0.05276786 -0.0058136187 0.025118267 0.068734966 0.025996298
0.0038092951 0.07365526 0.016274467 0.03326612 -0.0072916434 0.015895952 0.057737302 0.059809253
-0.02790108 -0.03240241 0.01251323 0.02644619 0.033341445 0.013787231 0.05100492 0.02065843
0.011778005 0.07056684 0.043919288 0.05057221 0.05200461 0.025600176 0.0019432366 0.06426165
-0.014102646 0.030649368 0.057974916 -0.029416831 0.062624276 0.03663024 0.0379891 0.052392792
-0.016735137 0.047326013 0.04839706 0.091996156 0.053268705 -0.01578766 0.07310881 0.044790808
0.017237632 0.028792866 0.040329147 -0.017203603 -0.010797533 0.028355127 0.026259243 0.027442558
0.07104673 0.005627755 -0.047138516 0.08474888 0.013151474 0.023837972 0.012503603 0.009536432
0.048216484 0.0076954234 0.096342236 0.051029243 0.048701316 0.006691793 -0.0034255204 0.040126212

action_model._continuous_distribution.mu.bias f4 [2]
00000000: dc22 bc3c f65c 05bd
0.022965841 -0.032559358

exp_avg f4 [128, 6]
00000000: 4cc7 1ebb af4e 57bb d856 e5ba c6fb b8bb
00000010: 434e 57bb c451 a1ba 5f4c fcba eb56 21bb
00000020: 666b a4ba f2e3 82bb aa56 21bb 418d 77ba
00000030: 0814 ea39 d0f6 3a3a 260f c939 08d0 b23a
00000040: 66f6 3a3a e0a0 7439 39d6 a938 66e5 5338
00000050: 8200 2937 89fa 9237 69e5 5338 ee0e 8937
00000060: 3e4a f43b 9656 533c 2761 e53b 0230 d03c
00000070: 1b56 533c 00a6 893b 6438 603b 6973 c03b
00000080: 6c33 503b 2c95 3d3c f672 c03b 23e5 f63a
00000090: 94bd 8b37 3375 82b7 3154 76b7 85d5 8cb8
000000a0: 7a74 82b7 75d3 a4b6 389f a53b 133e 053c
000000b0: b241 903b 706b 803c c43d 053c 1472 2d3b
000000c0: 106f af39 fdd4 9739 18aa 4c37 1f60 c639
000000d0: d7d4 9739 7844 57b7 6230 17bb d6c0 7dbb
000000e0: dc14 05bb b611 fbbb 3ac0 7dbb 284a 95ba
000000f0: a063 dc3a a671 363b 3005 ba3a 784b ae3b
00000100: 4771 363b d4a4 683a 30eb 3a3a ecd0 a43a
00000110: 574f 1c3a 7960 353b 6ad0 a43a 59da 2a39
00000120: b61a 0439 3ef6 4539 91f1 d238 4ad3 b839
00000130: cef5 4539 d7f9 8038 3221 2038 7afb 6c38
00000140: e44e 0538 f101 dd38 f3fa 6c38 7a02 a437
00000150: 8e25 d1b5 d206 b836 d547 1137 b01a 7137
00000160: 4006 b836 8490 f736 d856 3835 84f2 92b5
00000170: c8fa 30b5 500a 94b6 caf1 92b5 e404 f333
00000180: 6faa c539 1c22 213a a185 9d39 f6ef 943a
00000190: d621 213a 16ea 5339 f1d0 0433 9ae8 a6b2
000001a0: 54a5 6931 b812 beb3 8fe7 a6b2 d5e1 f231
000001b0: 1c1e 90b9 5644 03ba 1db7 88b9 16f8 84ba
000001c0: 0744 03ba 1849 1cb9 3b03 27b9 52d8 82b9
000001d0: 0a16 08b9 faad f5b9 0ad8 82b9 e78b aab8
000001e0: 7b3b 003b 7656 273b 1a29 993a 075b 9b3b
000001f0: 0c56 273b fd38 113a 6ad1 4939 0276 5739
00000200: 2c30 b838 6a7d b039 9775 5739 36f9 5a38
00000210: dfe4 b63b 1a67 1c3c 7e8c a53b 7a95 993c
00000220: c066 1c3c e419 443b beda 6e3a 8814 df3a
00000230: 3afe 823a 9a89 633b f813 df3a 5a22 1a3a
00000240: baec c4bb 767b 0ebc a0cd 94bb 4081 7cbc
00000250: 307b 0ebc 4975 4cbb 2572 07b9 37f1 d6b9
00000260: 8f1a 19b9 b8ad 8cba 99f0 d6b9 049f fa37
00000270: 3a4f 86b7 5228 8eb7 9a04 6fb7 60d2 99b7
00000280: 2528 8eb7 218d 62b7 7b58 753b 5482 c43b
00000290: c358 593b e636 383c ea81 c43b 5737 0f3b
000002a0: 46d5 ff3a 2062 573b 6123 e43a 882e d23b
000002b0: a561 573b 52a9 873a 2401 8738 7c7d 1bba
000002c0: 63fd 05ba 30f7 d1ba 0c7d 1bba fece adb9
000002d0: d471 1d38 bd07 0538 fb85 8037 4c5b d837
000002e0: be07 0538 8e9a 9837 a281 d8bb d5fe 27bc
000002f0: 2809 b1bb 7137 9cbc 7cfe 27bc f796 63bb
00000300: 41be 8b39 57f5 6839 418f a338 7cd5 9a39
00000310: 0ff5 6839 c884 4f38 1841 94ba 3c2b 00bb
00000320: a8f0 89ba ba9e 80bb ec2a 00bb 0e0a 18ba
00000330: 399c 89bb 641d d5bb 855f 63bb abe6 47bc
00000340: ec1c d5bb 93d6 0dbb d0e5 fa38 126f 773a
00000350: 3eef 193a c8c3 253b 406e 773a ca88 6439
00000360: f0b7 ee3a 103d 233b 61bd ac3a 8626 943b
00000370: ae3c 233b 6583 4f3a bad4 303b 44bd 9f3b
00000380: 17ed 383b bcbb 1c3c ecbc 9f3b 2487 ef3a
00000390: 8e93 acb9 4c46 c6b9 2c82 75b9 ab46 10ba
000003a0: fa45 c6b9 e086 4ab9 3d5b e5b9 1f4c 22ba
000003b0: ccc5 82b9 5d3a 9aba b44b 22ba 05d9 d1b8
000003c0: e1c7 97b9 fee9 dcb9 6297 3cb9 4e34 43ba
000003d0: 98e9 dcb9 b4c4 fdb8 bc52 833b 33f1 b73b
000003e0: 41d8 3c3b ab69 233c d2f0 b73b 0392 f63a
000003f0: 48fa 9238 0a5c f238 1e28 8538 eeb3 6439
-0.0024227677 -0.0032853296 -0.0017497195 -0.005645248 -0.0032853044 -0.0012307693 -0.0019248835 -0.0024618458
-0.0012544214 -0.0039944584 -0.0024618306 -0.0009443351 0.00044646882 0.0007132115 0.00038348994 0.001364232
0.0007132053 0.00023329584 8.09845e-05 5.0519964e-05 1.0073303e-05 1.752122e-05 5.0519975e-05 1.6338625e-05
0.0074551394 0.012899062 0.007000107 0.025413517 0.012898947 0.004200697 0.00342133 0.005873133
0.003176893 0.01157121 0.0058730794 0.0018836599 1.665837e-05 -1.5551783e-05 -1.4682345e-05 -6.715491e-05
-1.5551446e-05 -4.9121977e-06 0.0050543807 0.008132475 0.0044023627 0.01567623 0.008132402 0.00264657
0.0003346135 0.00028959653 1.2198951e-05 0.0003783712 0.00028959542 -1.283094e-05 -0.002306961 -0.0038719676
-0.0020306623 -0.0076620234 -0.0038719312 -0.0011389898 0.0016814359 0.0027838736 0.001419222 0.005319055
0.0027838515 0.0008874659 0.00071303826 0.0012574471 0.00059627503 0.002767591 0.0012574319 0.00016293804
0.00012598452 0.00018879116 0.000100585756 0.00035252637 0.00018878953 6.150052e-05 3.817789e-05 5.650099e-05
3.1783144e-05 0.00010538463 5.65005e-05 1.9551477e-05 -1.5582643e-06 5.4844213e-06 8.659398e-06 1.4370933e-05
5.484355e-06 7.3779975e-06 6.8671716e-07 -1.0948429e-06 -6.5930044e-07 -4.4119442e-06 -1.0948218e-06 1.1316459e-07
0.0003770175 0.0006146745 0.00030044935 0.0011363018 0.00061467045 0.00020209732 3.0923676e-08 -1.9430718e-08
3.399994e-09 -8.8509694e-08 -1.9430244e-08 7.068801e-09 -0.00027488254 -0.0005007436 -0.0002607637 -0.0010144736
-0.000500739 -0.00014904549 -0.00015927565 -0.00024956703 -0.00012978181 -0.00046859664 -0.00024956494 -8.1322905e-05
0.0019566703 0.0025533712 0.0011685223 0.004741076 0.0025533466 0.0005539803 0.00019246867 0.00020547959
8.7827764e-05 0.00033662777 0.00020547803 5.2207346e-05 0.005581483 0.009546066 0.0050521484 0.018748034
0.009545982 0.0029922659 0.00091115746 0.0017019669 0.0009993978 0.0034719468 0.0017019501 0.00058797526
-0.0060096653 -0.008696428 -0.004541114 -0.015411675 -0.008696362 -0.0031197837 -0.00012917125 -0.0004099698
-0.00014601111 -0.0010732925 -0.0004099652 2.987637e-05 -1.6010938e-05 -1.6946495e-05 -1.42465815e-05 -1.8336985e-05
-1.6946413e-05 -1.3503509e-05 0.0037436772 0.0059969816 0.0033164478 0.011243558 0.0059969323 0.0021853053
0.0019518516 0.0032864884 0.0017405563 0.0064142384 0.0032864597 0.0010350144 6.437514e-05 -0.00059314794
-0.0005111305 -0.0016019102 -0.0005931414 -0.00033151353 3.7537728e-05 3.1716878e-05 1.5321179e-05 2.579172e-05
3.171688e-05 1.8191782e-05 -0.0066072503 -0.010253628 -0.005402703 -0.019069405 -0.010253545 -0.0034727433
0.00026653896 0.0002221664 7.799129e-05 0.00029532227 0.00022216536 4.9476308e-05 -0.0011310903 -0.001955702
-0.0010523992 -0.0039251717 -0.0019556833 -0.0005799838 -0.0041995314 -0.006503748 -0.0034694385 -0.012200992
-0.006503692 -0.0021642789 0.00011963735 0.0009438853 0.00058721367 0.0025293697 0.0009438731 0.00021794732
0.0018212777 0.0024908222 0.0013178998 0.004521194 0.0024907994 0.00079160027 0.0026982264 0.004874857
0.0028217488 0.009566244 0.004874816 0.0018274528 -0.00032916333 -0.00037817878 -0.00023413514 -0.00055036944
-0.0003781764 -0.00019314466 -0.00043746262 -0.00061911525 -0.00024942902 -0.0011766661 -0.000619109 -0.0001000632
-0.00028949886 -0.00042136008 -0.00017985472 -0.00074464537 -0.0004213571 -0.00012100619 0.0040076654 0.00561347
0.002881542 0.009973924 0.005613425 0.0018811825 7.008441e-05 0.00011556603 6.3494066e-05 0.00021810803

exp_avg_sq f4 [128, 6]
00000000: 9082 4139 beb0 e838 bdce 7338 2fb6 c938
00000010: 28f3 e738 8bcf 9538 3026 1139 ffb8 1f39
00000020: 31e5 9d38 a499 d738 6a95 2539 8777 c438
00000030: 81e3 6337 315c 7338 9b78 1d38 dd77 ea37
00000040: 1b43 1738 4167 3738 e922 4538 7452 4e38
00000050: 2c8a 4438 3add 3837 8f5e 4e38 fce7 9638
00000060: 0ca8 2539 796e 5839 07dc 8e38 d37e 1f3a
00000070: 07c7 5e39 e0c6 6d38 be85 6738 a7f1 cc38
00000080: c12a 6938 5830 3839 d401 cd38 86d8 7f38
00000090: 422c 2636 404f 2537 be07 e836 b5fb b236
000000a0: d3ab 3437 21e4 2837 7ec2 7a39 44fb 3839
000000b0: 2c2f 8638 cef4 b939 80fb 3839 edd8 8d38
000000c0: afaa 3538 0c5f a637 444e a337 f200 d237
000000d0: 035f 3a38 2017 cb37 f434 1039 0414 3139
000000e0: 7b9e 6b38 d54f 9339 0699 2a39 6992 da38
000000f0: f267 a637 10e8 0838 a01e 8437 ea36 af38
00000100: af50 0a38 142d 5b37 3776 4839 9084 eb38
00000110: d24e 8638 72a1 5939 c097 f838 f3aa 9138
00000120: b966 f536 ab99 6d39 d766 b838 b44d 1537
00000130: 2e76 c938 df16 fc37 c88c f435 dd53 8d38
00000140: 4bf8 9f37 0984 1336 2fad 7736 d807 9836
00000150: 21a5 cd35 8706 bc36 d0a4 5536 fbdd 8534
00000160: 5599 bb36 3f83 8037 eec8 9935 b5ad 6a38
00000170: 1af7 7137 4871 9835 fa62 ec35 49a9 1a36
00000180: 0d79 9336 d2e4 6338 704e 9c37 caf9 1f37
00000190: e5e5 0938 7354 7037 dece 3535 5e5c 0238
000001a0: 4971 2137 e603 3435 3c07 8e35 9f60 df35
000001b0: 834a 6638 2997 3a38 a33a 8c38 37a0 cb36
000001c0: 3d54 ed37 807e 4b38 a78d 1236 9b74 2738
000001d0: e8ac 9037 587b f035 0a79 8d36 a7a6 d836
000001e0: 5413 253a ce63 b939 cd73 3d39 617a c139
000001f0: 9fe7 b939 2c42 5f39 275c 9d38 4ee9 8338
00000200: 4970 4e38 039f 8f38 9c02 3238 4a6b 0238
00000210: 6923 7338 6b6c f038 2d4e 9438 2da8 aa39
00000220: f279 f238 6648 8538 2234 4338 4f3e a238
00000230: cf72 8e38 cfb7 a438 cc09 8838 732f 9a38
00000240: fab9 013a 582b c639 1a07 d938 8026 023a
00000250: a142 be39 db5a 1d39 eaea 1e39 077b 5639
00000260: 45fc ae38 fca9 cb38 3d85 d638 b77c c438
00000270: 81a2 cb37 2fb4 9638 8680 c337 5407 3136
00000280: 6ddf 4b37 5c94 9e37 bd79 7c39 f798 1339
00000290: c015 9838 38e2 5f39 0ba0 1339 bab6 9238
000002a0: e429 1a38 e905 b338 9176 7138 9980 7738
000002b0: dd8d b438 0afa 9338 559e 5239 7faf 3c39
000002c0: 1c3b ee38 a6cd 1839 6c18 2c39 9721 da38
000002d0: 758c 4935 159d dd37 6d81 0137 78a5 3635
000002e0: 90d6 8535 d0cd d235 94a6 5139 5e7c 5239
000002f0: 1aa2 b238 39d0 c439 3867 4039 8b2b ab38
00000300: 497e 0739 0ca9 c038 cf52 8c38 acca c738
00000310: 509a ce38 b932 9938 a5bc 3a38 7753 1038
00000320: bcb7 8437 f4e4 9138 a53e 1838 2a69 bf37
00000330: af83 fc38 a385 ba38 977c 5238 4a39 4039
00000340: 3571 c438 4651 2538 415f 2d39 8db4 d838
00000350: b99f 4b38 9ae8 8d38 b386 0039 52fa 8838
00000360: 36a9 3439 25a3 d638 aa79 9038 1011 1239
00000370: bb04 d738 295a 9d38 f813 c239 0012 b339
00000380: ad1d 4f39 4be4 113a 8614 b339 3d54 7939
00000390: f7d3 8b38 ca3a f837 986d 1938 7e6c ba37
000003a0: b5f0 f737 902f b737 fe01 3d38 f0ac 7a38
000003b0: 9a98 d037 6fca b638 a1b1 7a38 e96d 1438
000003c0: f9f8 8338 88c0 9c38 e52b 0638 a8fd 6738
000003d0: c191 b538 09a6 df38 e1a5 b939 e247 7539
000003e0: 1fea fd38 a2a5 a239 7380 7639 d066 0e39
000003f0: 57e5 d335 d93f 7838 e188 4737 8c43 3b36
0.00018454553 0.00011095543 5.8128255e-05 9.618361e-05 0.0001106023 7.1435315e-05 0.00013842504 0.00015232338
7.5290336e-05 0.00010280617 0.00015791287 9.368272e-05 1.3583224e-05 5.8021575e-05 3.754404e-05 2.795079e-05
3.6063702e-05 4.3726763e-05 4.7000973e-05 4.9191018e-05 4.6858724e-05 1.1018763e-05 4.9202292e-05 7.195768e-05
0.00015798229 0.0002064052 6.812071e-05 0.0006084267 0.00021245713 5.669042e-05 5.519925e-05 9.772489e-05
5.5591347e-05 0.00017565617 9.775502e-05 6.099839e-05 2.476169e-06 9.853218e-06 6.91504e-06 5.334116e-06
1.0768842e-05 1.0066696e-05 0.00023914312 0.00017641211 6.3984044e-05 0.00035468343 0.00017641298 6.7638095e-05
4.3312724e-05 1.9833002e-05 1.946756e-05 2.5034391e-05 4.4434342e-05 2.4210254e-05 0.00013752637 0.00016887492
5.6175963e-05 0.00028097504 0.00016269469 0.00010422321 1.9837145e-05 3.264105e-05 1.5749887e-05 8.354879e-05
3.2976906e-05 1.3063913e-05 0.00019117525 0.00011230365 6.404299e-05 0.00020754876 0.00011853827 6.9459806e-05
7.3135275e-06 0.00022659327 8.792959e-05 8.899184e-06 9.6064396e-05 3.0051391e-05 1.8220389e-06 6.739025e-05
1.9069897e-05 2.1981562e-06 3.6906674e-06 4.530866e-06 1.5321749e-06 5.6035965e-06 3.1835407e-06 2.4934693e-07
5.5908845e-06 1.5319905e-05 1.1457867e-06 5.5951725e-05 1.4422252e-05 1.1357852e-06 1.7612176e-06 2.3046325e-06
4.3950336e-06 5.4334123e-05 1.8633174e-05 9.535297e-06 3.287745e-05 1.4324777e-05 6.7728786e-07 3.108044e-05
9.622724e-06 6.70609e-07 1.058193e-06 1.6642915e-06 5.4905668e-05 4.4486635e-05 6.686642e-05 6.068523e-06
2.8291828e-05 4.8516784e-05 2.1838148e-06 3.99245e-05 1.7246653e-05 1.7917291e-06 4.2162183e-06 6.4567025e-06
0.00062971306 0.0003536031 0.00018067584 0.00036903008 0.0003545852 0.00021291588 7.503508e-05 6.290023e-05
4.92188e-05 6.8483896e-05 4.2440937e-05 3.1094336e-05 5.7968693e-05 0.00011464286 7.071751e-05 0.00032550227
0.00011562173 6.3554195e-05 4.6540175e-05 7.736368e-05 6.7924724e-05 7.8543664e-05 6.48681e-05 7.35213e-05
0.0004948672 0.00037797797 0.00010348689 0.00049648434 0.00036289266 0.00015006533 0.00015155567 0.00020454462
8.3439554e-05 9.7114564e-05 0.00010229133 9.369238e-05 2.4275158e-05 7.186119e-05 2.330566e-05 2.637932e-06
1.2151763e-05 1.8904153e-05 0.00024077944 0.00014075996 7.251976e-05 0.0002135121 0.00014078633 6.995858e-05
3.6755475e-05 8.536486e-05 5.75693e-05 5.9009155e-05 8.609493e-05 7.0560796e-05 0.00020086144 0.00017994455
0.00011359734 0.0001457246 0.00016412296 0.00010401307 7.5082727e-07 2.64184e-05 7.7191335e-06 6.804107e-07
9.971718e-07 1.5706119e-06 0.00019993848 0.00020073491 8.517895e-05 0.0003753917 0.00018348999 8.162026e-05
0.00012921648 9.186761e-05 6.6911445e-05 9.52681e-05 9.8515884e-05 7.305056e-05 4.4521545e-05 3.4410008e-05
1.5821184e-05 6.956785e-05 3.6297966e-05 2.2817945e-05 0.000120408244 8.894063e-05 5.0183935e-05 0.00018331889
9.367095e-05 3.9414757e-05 0.0001653405 0.00010333313 4.8547725e-05 6.766729e-05 0.0001225721 6.531611e-05
0.00017229174 0.00010234703 6.889117e-05 0.00013930001 0.0001025288 7.503137e-05 0.0003701744 0.00034154952
0.00019752113 0.00055653293 0.00034156832 0.00023777872 6.667518e-05 2.959128e-05 3.658011e-05 2.2223448e-05
2.9556782e-05 2.1837448e-05 4.5062967e-05 5.9765705e-05 2.4866593e-05 8.7161425e-05 5.9770075e-05 3.538831e-05
6.2929415e-05 7.4745214e-05 3.198897e-05 5.5310928e-05 8.657901e-05 0.00010664395 0.0003540954 0.00023391799
0.000121075886 0.00031022454 0.00023508239 0.00013580476 1.5787472e-06 5.918727e-05 1.1893194e-05 2.790449e-06

exp_avg f4 [128]
00000000: 74bf 58ba 6471 22ba ff3d 3c39 57f8 5437
00000010: 3ebe 543b 76b4 c13a 1a5d 83b6 1c1f 063b
00000020: 4ee1 9838 8065 7fba e4aa 373a ddd7 a539
00000030: 774f 4738 f4c1 6e37 48bf b935 a1a4 94b4
00000040: 9034 2239 3f40 a3b1 ec1f 04b9 6daf 83b8
00000050: 3971 283a 396d 5938 bb6e 1d3b d697 e039
00000060: ae6c 0fbb f566 d8b8 d80b 8fb6 c6d0 c53a
00000070: f0cf 583a 66b5 1cb9 d7e4 0537 3c1c 29bb
00000080: 00a9 6b38 9404 01ba c683 d6ba a22d 7939
00000090: 604b 243a 16d6 a03a c896 c7b8 4f2b 23b9
000000a0: 0e1d deb8 5422 b93a ec2e f437 6102 2536
000000b0: 6663 b5b9 2c80 0fba fe67 59b9 1888 3db7
000000c0: ac73 133b 7174 9cb6 a8c2 9eb7 7e60 fc3a
000000d0: 165f fab7 5cc6 caba 9795 e839 d4f1 b339
000000e0: 3038 98ba 0d17 1637 f98b 313a 6ef8 673b
000000f0: ba40 beb9 06ad d738 661c 48b8 163d 0a37
00000100: 9d73 26b9 147c e837 6c76 893a 581a 173b
00000110: 3a57 3e3a e75e b738 acc0 0737 d0be 2b39
00000120: bfe1 2639 7c63 c335 999e 78b8 0fa0 3db9
00000130: bb6d 983a 8563 d736 da47 e4b7 88ed 9eb9
00000140: 50e6 d5b3 df76 6c3a a0bb 2ab9 2ee0 6b38
00000150: 966d 42b9 0cbd 9f36 aa34 2f3a 1124 4bb6
00000160: 8065 9539 301c 29b6 6fb6 b83a 4b4a 9db7
00000170: f65e cdb5 7adb beba 6401 e035 cd0a 99ba
00000180: 9f93 633a 7946 7438 2542 a1ba 92f0 a837
00000190: 528c 4b3a 4471 453a 5119 96b8 3778 f538
000001a0: db87 0bb9 31f5 59b7 70f9 4eb6 b16e 0e39
000001b0: d46b 0439 8236 26b7 726e 57ba d5df 15b9
000001c0: 2826 5eb7 d639 26bb 3196 3038 9036 a639
000001d0: 3057 e839 047b a03a 8cc5 8b37 a86f 1d36
000001e0: f1f9 8938 e23d 013b 7c9c 6d37 2601 f738
000001f0: 2f9c a33a fa4e d13a b85d 7738 fc1e e23a
-0.0008268275 -0.0006196706 0.00017952172 1.2694006e-05 0.0032462026 0.0014778513 -3.9149427e-06 0.002046532
7.289891e-05 -0.00097426027 0.00070063607 0.00031632083 4.7519305e-05 1.4231064e-05 1.3839244e-06 -2.7686932e-07
0.00015469105 -4.7512283e-09 -0.00012600393 -6.2792424e-05 0.0006425563 5.1838553e-05 0.00240223 0.00042837736
-0.0021884847 -0.0001031886 -4.263111e-06 0.0015092127 0.0008270731 -0.00014944896 7.980699e-06 -0.0025804183
5.618576e-05 -0.00049216417 -0.0016366176 0.0002376349 0.0006267335 0.0012270834 -9.517145e-05 -0.00015561025
-0.00010591197 0.001412461 2.9108916e-05 2.45883e-06 -0.00034597068 -0.0005474116 -0.00020733473 -1.1296965e-05
0.0022499366 -4.662718e-06 -1.8925712e-05 0.0019254831 -2.98466e-05 -0.0015470493 0.0004436194 0.00034321717
-0.0011613425 8.946064e-06 0.0006772872 0.0035395878 -0.0003628785 0.00010284227 -4.7710164e-05 8.239664e-06
-0.00015874063 2.7714334e-05 0.0010487563 0.0023056474 0.00072609226 8.743797e-05 8.091487e-06 0.00016378914
0.0001591509 1.4557586e-06 -5.9275513e-05 -0.00018084071 0.0011629382 6.419085e-06 -2.7213177e-05 -0.00030313083
-9.960479e-08 0.0009020399 -0.00016282359 5.623715e-05 -0.00018542106 4.760577e-06 0.0006683568 -3.027035e-06
0.00028495118 -2.519937e-06 0.0014092455 -1.8750454e-05 -1.5301327e-06 -0.0014561259 1.6689705e-06 -0.0011676193
0.000868136 5.8239766e-05 -0.0012303038 2.0139185e-05 0.0007764745 0.00075318315 -7.157273e-05 0.00011704902
-0.00013306683 -1.2991296e-05 -3.0841584e-06 0.00013583411 0.0001262867 -9.907062e-06 -0.0008218057 -0.00014293131
-1.3241115e-05 -0.0025364063 4.2101547e-05 0.0003170264 0.00044315448 0.0012243693 1.6662081e-05 2.3459816e-06
6.579224e-05 0.0019720723 1.4162735e-05 0.00011778092 0.001248246 0.0015968971 5.897667e-05 0.0017251666

exp_avg_sq f4 [128]
00000000: e07e e936 266b 0b37 273c 1836 4ffb 4f36
00000010: 11d8 5a37 9f49 cf36 8696 2635 2b32 3b37
00000020: b62b a735 3db2 2c37 c571 0a36 5601 ee36
00000030: 7e31 8b35 2b4e 7a34 1397 bc34 76ba ee33
00000040: cc0a 2935 a7cb 8f33 2030 c635 7e03 8f34
00000050: 758e ba37 0db5 2336 dd12 f336 bb9c 8936
00000060: a8ea b837 20f2 d736 6c4e 4e35 f739 1537
00000070: 9fa5 b436 1799 2837 e897 8433 f44f 4237
00000080: 170c c236 f255 0d36 61b0 bc36 bed9 d836
00000090: 3623 d836 4f46 b537 a474 e435 23c6 7d36
000000a0: 5576 9e36 eff0 7737 72da 0a34 f941 b034
000000b0: a261 8436 c33b b836 f944 6736 3ef0 2e35
000000c0: ec31 d936 e43b 8534 8029 4035 5cd0 d936
000000d0: 205b 4e35 4562 6337 e8e7 e936 4e04 0935
000000e0: cfdc fc36 17ce 0c34 7fa1 4c37 c0ea ea37
000000f0: 4831 3c37 a8d8 3f35 f9b7 d836 2c5e de36
00000100: cb85 7536 18bf 9633 6df2 c236 0275 d636
00000110: 90ef f336 efd8 6234 0f62 d335 20b5 cf36
00000120: a888 a236 13fa ad34 b7d9 1d35 ec69 5236
00000130: 30c7 4b37 5541 d835 8dec 0234 b680 8636
00000140: efd1 9133 7337 3537 d6f5 4e36 dc85 a437
00000150: 6e80 2037 4e07 6a33 d66f 2437 5987 1934
00000160: 1253 4d36 8530 7034 753e 1137 8a56 f435
00000170: 4cb0 2835 c31d 1a37 179c 1b33 d869 8237
00000180: 2d44 6937 d803 ee34 092e 5837 af1e a633
00000190: 7bbc 9836 8c43 a736 a782 2e36 5cd3 e436
000001a0: bef9 9235 cd8e d736 87cc 0937 c17a d736
000001b0: f95c 9e34 7073 a436 6149 1c36 78d5 e836
000001c0: 5071 4337 92cd 8b37 71c7 d036 38f9 cf36
000001d0: 2106 9136 11a3 7b37 0a7b bd35 2040 ab34
000001e0: 529e 4736 3ab1 8c37 828a ae36 820c 6537
000001f0: 4362 e936 f42f 4837 0b7c 1937 b683 0d37
6.9587113e-06 8.309993e-06 2.2684778e-06 3.0991685e-06 1.3044119e-05 6.1776514e-06 6.205886e-07 1.1157749e-05
1.2455191e-06 1.0293498e-05 2.0629825e-06 7.0931083e-06 1.0370711e-06 2.3311502e-07 3.512765e-07 1.1116656e-07
6.297312e-07 6.6960006e-08 1.4766156e-06 2.6638367e-07 2.2239265e-05 2.4394278e-06 7.2441603e-06 4.101164e-06
2.204378e-05 6.4356864e-06 7.68551e-07 8.894588e-06 5.383699e-06 1.0049224e-05 6.1743606e-08 1.1581917e-05
5.783058e-06 2.1060664e-06 5.62337e-06 6.46265e-06 6.4414007e-06 2.1609621e-05 1.7021271e-06 3.7815269e-06
4.7225426e-06 1.4778444e-05 1.2931721e-07 3.2830556e-07 3.9452725e-06 5.4905845e-06 3.446183e-06 6.516965e-07
6.4729156e-06 2.4816757e-07 7.1585964e-07 6.49136e-06 7.6873584e-07 1.35531345e-05 6.9709386e-06 5.104274e-07
7.5358907e-06 1.3113491e-07 1.2196949e-05 2.8004288e-05 1.1217147e-05 7.146832e-07 6.458719e-06 6.6270786e-06
3.6585723e-06 7.019679e-08 5.8098726e-06 6.3913185e-06 7.269853e-06 2.112681e-07 1.5749264e-06 6.1901665e-06
4.843885e-06 3.2405714e-07 5.8803874e-07 3.1354093e-06 1.214612e-05 1.6112268e-06 1.219325e-07 4.008495e-06
6.7902754e-08 1.0801351e-05 3.0839487e-06 1.9612657e-05 9.5666455e-06 5.4489014e-08 9.801201e-06 1.4298475e-07
3.0595734e-06 2.2369393e-07 8.657215e-06 1.8204603e-06 6.284142e-07 9.186045e-06 3.6230713e-08 1.5546495e-05
1.3903756e-05 4.433375e-07 1.2885322e-05 7.735559e-08 4.551895e-06 4.9848513e-06 2.600407e-06 6.819535e-06
1.0950532e-06 6.4241235e-06 8.213457e-06 6.4217897e-06 2.949744e-07 4.9010196e-06 2.3288524e-06 6.93899e-06
1.1649288e-05 1.6665817e-05 6.222101e-06 6.1980936e-06 4.3220502e-06 1.4998733e-05 1.4117406e-06 3.189789e-07
2.9745465e-06 1.6771828e-05 5.2017285e-06 1.3652376e-05 6.9553803e-06 1.1932094e-05 9.148392e-06 8.434921e-06
