MachineLearning/results/MoveToGoal/MoveTOGoal/MoveTOGoal-51867.onnx (onnx, 75062 bytes, 7 tensors)

network_body._body_endoder.seq_layers.0.weight f4 [128, 6]
000000 3d eb 5e 3d 2b 3e fc bd 2e e5 c3 3e 64 65 8d 3e
       0.05442356 -0.12316545 0.38260788 0.27616417
000010 e9 0c b2 bb 0b 1c b2 3e e6 71 05 b9 bb 80 e3 bc
       -0.005433668 0.3478702 -0.00012726299 -0.027771344
000020 ec 5c 10 3f ff 82 a7 3e c2 a2 71 3c ec 2e e4 bd
       0.5639179 0.3271713 0.014748277 -0.11141762
000030 d4 49 1c bf df 24 cc be e1 d9 50 bf fb bf 0e 3e
       -0.6105015 -0.3987188 -0.81582457 0.13940422
000040 ff 07 85 3d b5 17 3a 3f 8f 9f 99 3c ce 6b be 3e
       0.06495666 0.72692424 0.018752841 0.37191623
000050 94 b6 a1 3d bb d7 26 bf 6e ea 60 bd d3 b0 e0 be
       0.07896152 -0.6517293 -0.05491107 -0.43884906
000060 2b 92 7f 3d 3f 3b b3 3d 63 34 10 bf dd ae 17 3f
       0.062395256 0.08751535 -0.56329936 0.59251195
000070 cb 5e 3c be 1a c5 0f 3d 54 d8 1b bd ff fb fb 3e
       -0.18395536 0.03510008 -0.038048103 0.49215695
000080 48 10 2c be 5f d0 4a bb 81 0d e5 3e 40 dd 09 be
       -0.16803086 -0.0030946953 0.44736865 -0.13463306
000090 ba 8e b5 be 8c 71 9a 3e e5 23 d2 3e b0 9f 88 be
       -0.35460454 0.30164754 0.4104301 -0.26684332
0000a0 3b 1c 30 be d7 35 b4 be 32 27 1d 3e 71 fe 30 3d
       -0.17198269 -0.35197327 0.15346983 0.043211404
0000b0 fe 2b 34 bf d1 3f 3f 3e 0a 0a 84 3e 0a 1a 2c bf
       -0.70379627 0.18676688 0.2578891 -0.6722723
0000c0 88 eb 9d 3e 19 0e e9 bc f5 cf 12 bf 42 a0 84 be
       0.3084376 -0.028449105 -0.5734857 -0.25903517
0000d0 ad d1 d9 be 08 64 79 be ac 6c 91 be c9 f6 90 3e
       -0.42542782 -0.24354565 -0.28403223 0.28313282
0000e0 b6 6c 46 3f 1c 99 c0 3d b6 2f d4 3e 8d a0 2f bf
       0.7750963 0.09404203 0.4144265 -0.68604356
0000f0 5a 63 f5 bd 20 8d 9c 3d 43 71 58 3d e7 2f d9 3e
       -0.119818404 0.07644105 0.05284239 0.4241936
000100 11 e3 b4 bd f3 d5 ca be bb 7d 78 3f 7f 8d 64 3e
       -0.08832372 -0.39616355 0.9706685 0.22319601
000110 14 6c b2 be 81 d7 a2 3d 1a 2d 14 bf 78 66 c0 3e
       -0.34848082 0.0795126 -0.5788132 0.37578177
000120 58 0c 2f bd 9f 8c e4 be c3 53 06 bf 75 84 71 be
       -0.04273638 -0.44638535 -0.5247156 -0.23585685
000130 b3 6c ad be d2 96 98 3d da ac 1c bf 2e e0 fb be
       -0.33871993 0.07450642 -0.6120125 -0.49194473
000140 31 59 de be e3 5c cf be c7 11 74 3e 86 44 39 3e
       -0.43427423 -0.40500554 0.23834907 0.18092546
000150 11 89 1d bf 3d fc 58 3c f7 5a 54 bd 36 08 1f bf
       -0.6153727 0.013243732 -0.051844563 -0.62121904
000160 67 e2 52 bd 86 6a d8 be 57 2c b9 be 62 50 13 bf
       -0.051485445 -0.4226877 -0.3616664 -0.5754453
000170 6d 4d b1 be 41 d7 19 bf fe dd 68 3e 27 d0 6f bd
       -0.34629384 -0.60094076 0.22740933 -0.05854812
000180 86 ab 74 bd a9 33 d2 bd d8 1e 62 3e 92 11 12 3e
       -0.05973389 -0.1026376 0.22082078 0.14264515
000190 2f 95 c9 3c 42 80 9f 3e 32 73 94 bf b7 89 3d bf
       0.02460727 0.3115254 -1.1597655 -0.7403826
0001a0 83 aa cd bd 68 50 97 bf 55 d2 af 3e 3f b4 db 3d
       -0.10042288 -1.1821413 0.34340158 0.107277386
0001b0 13 78 2e 3e 9b e3 b4 bd ec 4b ca 3e 09 20 bb be
       0.17037992 -0.08832475 0.3951105 -0.36547878
0001c0 59 5c 9b be eb 76 c5 bd c6 a2 05 bf b0 09 1a be
       -0.30343893 -0.096418224 -0.522015 -0.15042758
0001d0 a0 84 df 3e 3a 43 f5 bd ee 86 96 3d de 9d 76 be
       0.43655872 -0.11975713 0.073499545 -0.24083659
0001e0 ad b2 60 3f 47 7a dd 3d 23 c9 ac be 00 74 b6 3e
       0.8777264 0.10814338 -0.33747205 0.35635376
0001f0 8a b0 39 3d 77 9d 84 be 81 38 ac 3d 34 7a 04 bf
       0.045334376 -0.25901386 0.08409215 -0.5174897
000200 3b 12 5c bf cf a2 b2 3e e9 b9 ba be 9c 1e cb be
       -0.8596532 0.34889838 -0.36469963 -0.3967179
000210 43 40 03 be e7 d7 bc 3e 27 0c 81 be f1 cd f2 3e
       -0.12817483 0.3688347 -0.25204584 0.47422746
000220 61 dd 39 bf 53 bd d2 3e 1e 23 b1 be 5c ec 42 be
       -0.7260342 0.41160068 -0.34597105 -0.19035476
000230 35 8a d9 3d bc 9d bf 3e 53 e7 dd 3e e7 4c 91 be
       0.10622064 0.3742503 0.4334055 -0.28378984
000240 2f c6 0f 3f ed 40 43 be bf 5a a2 3e 04 67 20 3e
       0.5616178 -0.19067736 0.3170986 0.15664297
000250 88 b7 cb be 7f 58 c8 bd c6 af 98 3e 52 d2 a0 be
       -0.3978846 -0.09782504 0.29821604 -0.31410462
000260 8d dd 06 be da 57 3b bf 14 d8 10 3f 66 ff e3 3e
       -0.13170452 -0.73180926 0.5657971 0.4453079
000270 8f 5b dd 3e a7 6b f5 be 7c 17 b6 3c a0 66 57 bf
       0.43233916 -0.47933695 0.022227995 -0.8414097
000280 8e f7 06 3c ef 16 4a be 09 9f 09 bd 1e 2b a2 3e
       0.008237733 -0.19735311 -0.033598933 0.3167352
000290 ad 9f 3f bf 30 2d f9 3e 56 c7 d0 3d 06 67 db bd
       -0.7485302 0.48667288 0.1019427 -0.107130095
0002a0 1d 11 7e be d0 f7 1a 3f 5b 42 1b bf 20 e8 ca 3d
       -0.24811216 0.6053438 -0.60648125 0.099075556
0002b0 13 bd 79 be 3c 11 16 3f 8a ea 8b 3e ad 09 05 bf
       -0.24388532 0.5862005 0.27327377 -0.5196789
0002c0 01 4a 29 be 1e d4 71 3f 13 41 83 3e fb 1c 40 3f
       -0.16532136 0.9446429 0.25635585 0.7504422
0002d0 bc ba 3a be 09 c8 27 bf 6d 76 6e 3e ea f7 0e bf
       -0.18235296 -0.65539604 0.23287363 -0.55847037
0002e0 82 a6 75 3c e7 3e 8c 3e 3a bb 50 3e b0 a2 2e bf
       0.014993312 0.2739174 0.20383921 -0.6821699
0002f0 36 3f 24 be c9 1f 30 3e 36 51 d4 3e f0 c4 2b be
       -0.16039738 0.17199625 0.4146821 -0.16774344
000300 98 6c 8b 3d 82 35 f0 3d 8f de 10 bf 22 28 15 3e
       0.06807822 0.11728956 -0.565896 0.1456609
000310 c5 3b b2 be b9 56 4b be 90 b3 00 bc 1d f6 32 be
       -0.34811226 -0.19857301 -0.007855311 -0.17476697
000320 35 7f f3 3d 37 22 1d 3f c7 0c eb be 09 f7 87 be
       0.11889497 0.6138033 -0.45908186 -0.2655566
000330 f1 04 de 3b 33 a9 33 3e 10 01 2d 3e a0 aa 9e 3e
       0.0067754914 0.17545013 0.16894937 0.30989552
000340 dd 0f e1 bd 72 ce 6c be 39 54 fe 3e 3c c6 94 3e
       -0.10989354 -0.23125628 0.49673632 0.2905749
000350 8d 83 f1 be 12 98 58 3e cd bf 0b bf 5e 0f 46 bf
       -0.47170678 0.2115176 -0.5458954 -0.773672
000360 bd 2b f6 3e 33 95 1a 3f e4 b1 cf be 46 7b 67 be
       0.48080245 0.6038391 -0.40565407 -0.22605619
000370 f5 bc c9 3d 33 b1 95 be 6e e7 f5 be c5 36 00 3f
       0.09850494 -0.29236755 -0.4802813 0.5008357
000380 e4 b8 da 3d 0c 72 01 3f cc 2b c6 3e 2d bb a9 be
       0.10679796 0.50564647 0.3870529 -0.33150616
000390 d8 e7 04 3f 3a 29 3e bd a6 25 65 bd 8f cb 80 be
       0.51916265 -0.046426035 -0.055944107 -0.25155303
0003a0 79 b5 9f bd 89 66 aa be ea 10 bc be d6 a2 10 3f
       -0.07798285 -0.33281353 -0.36731654 0.5649847
0003b0 f8 01 0a 3e eb 22 97 bd c7 e0 18 3e bb 91 97 be
       0.13477314 -0.07379707 0.14929496 -0.2960337
0003c0 d9 ea 8d be fe 49 4d 3f 46 d6 a5 3d 3f ae 94 be
       -0.27718237 0.8019103 0.0809751 -0.2903919
0003d0 de f0 d8 be 70 24 fa be c1 8a 7b 3e 95 12 11 3f
       -0.42371267 -0.48855925 0.24564649 0.5666898
0003e0 c8 96 69 be 35 62 28 be 09 90 cf 3d a7 d9 b3 bb
       -0.22811425 -0.16443713 0.101348944 -0.0054885927
0003f0 bf be 09 bf 14 7a b7 be 95 d5 1d be 04 44 2f 3e
       -0.5380668 -0.35835326 -0.15413506 0.1711579

network_body._body_endoder.seq_layers.0.bias f4 [128]
000000 2c c2 aa ba 4d 67 d5 bb 24 f9 e5 bb d9 04 33 3b
       -0.0013027838 -0.0065125586 -0.0070182253 0.0027316122
000010 e8 db 36 3b 1b 22 27 bb 57 26 4d 3b 49 2b b9 3b
       0.002790207 -0.0025502506 0.003130337 0.005650912
000020 6a 9b 64 3c 1c fc 82 3b 72 53 40 3a 68 a4 91 b8
       0.013953069 0.003997339 0.0007336653 -6.944762e-05
000030 dc bc 03 3b 7a 5a 03 3b 44 5a 12 3c 7f ab 88 bb
       0.0020101583 0.0020042942 0.008932654 -0.0041708346
000040 7d f3 7e 3a f0 2a 58 b8 69 3f d0 bb fe de b2 3b
       0.00097256136 -5.15384e-05 -0.0063552153 0.0054587116
000050 24 40 19 37 f9 4f 63 3c cc 60 95 ba 9e 66 34 3b
       9.134445e-06 0.013874047 -0.0011396646 0.0027526985
000060 f7 7c 92 3b 9f 30 b8 b9 bb 5b 67 3b 07 cb d6 39
       0.0044704634 -0.0003513144 0.0035302478 0.00040968528
000070 14 69 cd bb 0b c9 57 ba 82 19 9d 3b 34 b2 91 ba
       -0.00626863 -0.0008231557 0.0047943005 -0.0011115731
000080 07 af 92 bb 2a 95 06 3b 1b 18 cd 3a fa e8 42 39
       -0.0044764313 0.0020535686 0.0015647443 0.00018588072
000090 38 3c 73 3a 50 58 66 39 e3 d7 06 bb 37 64 ff 3b
       0.00092786876 0.00021967408 -0.0020575456 0.007793929
0000a0 8d 23 52 3c 68 b7 4c bb 40 02 fc 3a d0 bd 9c bc
       0.012825859 -0.0031237248 0.0019226745 -0.019133478
0000b0 60 67 2d ba 0b e0 a5 b7 69 1e 10 ba 31 2f 23 3b
       -0.00066148303 -1.9773861e-05 -0.00054976955 0.0024899954
0000c0 c9 22 9d bb bb b3 6a bb 3e f4 19 3a 56 d9 f3 3a
       -0.0047954065 -0.0035812694 0.0005872882 0.00186042
0000d0 64 6a 2e ba 16 f6 12 bb b0 7d 1c bb 3a 7b cc 39
       -0.00066534267 -0.002242451 -0.0023878627 0.00039001723
0000e0 61 6b 3a 3c 32 da 0d ba c7 41 04 ba 5b 0d 79 3b
       0.01137814 -0.0005411237 -0.0005045202 0.0038002345
0000f0 c7 e1 c6 3a 13 1e 43 3c db 19 82 3c 49 56 a4 bb
       0.0015173488 0.011909026 0.01588147 -0.005015169
000100 5d 2b 88 3b 26 f5 38 3c ce 54 89 bb 25 2a c6 ba
       0.00415556 0.011288917 -0.0041910177 -0.0015118761
000110 7d 32 06 bb 5d 75 98 3b ba c2 89 b9 83 d1 8a 3c
       -0.002047687 0.0046526627 -0.0002627576 0.016945606
000120 fe cc df ba de 66 a1 bb 28 25 52 3b 76 c2 c0 3a
       -0.0017074642 -0.004925593 0.0032065604 0.0014706391
000130 37 0d 0a bb d4 22 15 ba 16 2e 3c bc ec 2f b6 39
       -0.0021065006 -0.0005689089 -0.011485597 0.0003474945
000140 96 8e 00 bb 49 30 3a bb aa 84 22 bb d5 9a 97 3c
       -0.0019616238 -0.0028410128 -0.0024798312 0.018506447
000150 c6 fa c3 3a 8c ce 09 3b 35 9a da bb 12 63 ba bb
       0.0014952056 0.0021027653 -0.006671215 -0.0056880796
000160 31 0c e2 3b 6b 10 8e bb 5e ff 8c b9 00 7e fa bb
       0.006898426 -0.0043354533 -0.00026893144 -0.007644415
000170 80 69 47 bb f2 d9 0d 3b be dc d3 bb 5c 6c 13 3a
       -0.0030427873 0.0021644798 -0.0064655235 0.0005623752
000180 a8 1c 8a bb a9 ec 5f 3b 4f f4 8c bb a5 ff 24 bb
       -0.004214842 0.003416816 -0.004301585 -0.002517679
000190 a6 77 2e 3c ad 37 1c bb 9c ba dc 3a ef 3a 9d 3c
       0.010648644 -0.0023836896 0.0016840282 0.01919314
0001a0 be ac e7 39 98 e7 61 bb 55 93 8d ba 50 fc b2 b9
       0.00044188456 -0.0034470316 -0.0010801355 -0.00034138793
0001b0 a0 b6 23 3b 13 8c 14 39 a4 97 4b 3a f7 64 2e ba
       0.002498068 0.00014166562 0.00077664317 -0.0006652618
0001c0 15 ab c4 bb 78 c0 2f 3a 84 b8 06 bb 31 b6 0f 3a
       -0.00600184 0.00067044003 -0.0020556757 0.0005482166
0001d0 ac 5f a7 ba a4 9b b2 b9 24 bd 38 3b db ef e7 3b
       -0.0012769601 -0.00034066767 0.0028188908 0.0070781535
0001e0 95 6b 73 3b 65 d4 46 ba 94 80 12 bc d3 9d d3 b7
       0.0037142981 -0.000758475 -0.008941788 -2.5226653e-05
0001f0 89 52 95 3a fd 5b 00 3c 0d c1 dc 3a 1c e5 10 3b
       0.0011392395 0.007834432 0.0016842202 0.0022109216

network_body._body_endoder.seq_layers.2.weight f4 [128, 128]
000000 49 ce b1 bc e7 11 e2 bd e2 af 46 be de bc 2b bd
       -0.02170481 -0.11038571 -0.19403031 -0.041928165
000010 d1 b1 27 3d d5 dd f3 3d 45 2a 25 3d c8 e5 a2 3b
       0.040941063 0.119075455 0.040323514 0.0049712397
000020 f1 64 81 bc 26 57 35 be 4e c2 92 3d 05 c0 bb 3d
       -0.015795203 -0.17709026 0.07165967 0.09167484
000030 d1 68 af bd c1 14 fb bd 66 28 d4 bd e9 54 69 3d
       -0.08564914 -0.12259818 -0.10359268 0.056965742
000040 ca 05 c5 bc c5 aa 03 be ef 56 42 bd 46 62 7c bd
       -0.024050612 -0.12858112 -0.047446188 -0.06161716
000050 12 23 4d 3d 57 50 86 bc 67 5f dc bd 34 2c 51 bd
       0.050082274 -0.01639573 -0.10760384 -0.051067546
000060 aa 83 f3 bd bf 99 7a bd e8 03 d8 bd 6f 63 c5 bc
       -0.11890347 -0.06118178 -0.1054762 -0.024095265
000070 bb 1d 90 3a a4 2c 5c bd a7 4b 78 bd f7 36 19 bd
       0.0010995188 -0.05375351 -0.060619023 -0.037405934
000080 0a ce 1d 3d b8 33 53 3e 5d e0 0e 3e 84 cd ed 3d
       0.038526572 0.20625198 0.13952775 0.116114646
000090 8b 1d ba bd 5b be ef bc f8 2b 14 3d 06 19 1e be
       -0.09087666 -0.029265573 0.036174744 -0.15439233
0000a0 34 09 db 3c 58 07 11 3e 5c 7a 26 be 82 12 60 be
       0.026737787 0.14162958 -0.16257614 -0.2188206
0000b0 4b d4 8c 3d a1 02 9e 3c c2 a5 fd bc 49 79 21 bd
       0.06876429 0.019288363 -0.030962829 -0.039422307
0000c0 7c 44 24 bd e0 c9 eb bc 0f 20 16 3e 5b d7 9f 3d
       -0.040104374 -0.028782785 0.14660667 0.07804748
0000d0 13 a9 23 bd 7a e5 d0 3d 94 de dd 3c 99 dd 80 bd
       -0.039956164 0.10200019 0.027083673 -0.062922664
0000e0 74 91 f2 3c a0 0a 42 3c e9 f1 16 3e e4 05 91 3d
       0.029610373 0.0118433535 0.14740719 0.07081202
0000f0 73 81 1e 3d 5b 0b 2e bd 88 73 98 bd 51 6a e6 3b
       0.03869767 -0.0424913 -0.07443911 0.007031717
000100 8a 1c 6b bd 4e b4 9e 3d af e5 f1 3d 02 11 0f 3c
       -0.057400264 0.07749234 0.11811387 0.008732082
000110 bd 3d 8a 3d 63 9d 29 3d 51 a9 aa bb fc f9 ee bd
       0.06750057 0.04140986 -0.0052081724 -0.116687745
000120 bb c7 d4 ba 5f 72 13 3c 99 88 b4 bd cc 80 c6 3d
       -0.0016233841 0.008999436 -0.088151164 0.09692535
000130 23 6d cd 3d ba 96 3e 3d 9a 40 2c 3e f5 bc e8 3d
       0.10030582 0.046530463 0.16821519 0.11364166
000140 97 dc bb 3d 88 ed 09 be 11 9c 05 3d 3b 32 15 be
       0.091729335 -0.13469517 0.03261954 -0.14569943
000150 63 5a d1 3d 06 19 01 be d7 a1 0f bd b2 28 8f 3d
       0.10222318 -0.12607202 -0.035066452 0.06990184
000160 46 75 8d bc 8b 9c 04 3d 8b d2 d0 bd b1 ab a8 3d
       -0.017267834 0.032375854 -0.10196408 0.082358725
000170 82 2a d3 bd c9 6e a5 3c 2a f1 61 bc 97 00 8b 3b
       -0.10310842 0.020194428 -0.013790408 0.0042420137
000180 8a 1b 0b be b7 ac 4b bd b6 f0 de 3d 93 d8 13 bd
       -0.13584724 -0.04972526 0.10885756 -0.036095213
000190 05 f8 91 3d 18 0e a2 3d 4e cd 25 3d 5f e0 f9 bc
       0.07127384 0.079128444 0.040478997 -0.030502496
0001a0 bf 88 0b bd 17 34 09 3e 92 df 8b 3d 38 d4 3b 3e
       -0.034065958 0.13398777 0.06829752 0.18342674
0001b0 7e 98 46 be f5 ac f0 bd b9 84 fc 3d 77 83 e2 3c
       -0.19394109 -0.11751739 0.12330002 0.027650578
0001c0 64 27 e1 bc 02 e0 26 bd 79 ab af 3d 3b ae d8 3d
       -0.027484603 -0.040740974 0.08577628 0.10580107
0001d0 f5 5b 3b bb fa 66 ad bd fd 96 f0 3d 97 3e 71 3d
       -0.0028588746 -0.08466907 0.11747549 0.05889758
0001e0 d4 3e b2 bb 34 07 19 bd f3 39 39 3c d4 71 00 bd
       -0.0054396186 -0.037360385 0.01130532 -0.031358555
0001f0 f6 25 91 bc 50 a0 a7 bd 8d 9a 99 3d b1 b6 39 bc
       -0.017718296 -0.08184874 0.07500181 -0.011335061
000200 66 aa 5d bd de 4d e6 3d a4 f8 03 3d 1c cf c5 3d
       -0.054117583 0.11245321 0.032219544 0.096586436
000210 60 b0 0b bd 3b 2c 37 bd 19 09 91 bc f2 3c 2a bd
       -0.03410375 -0.044719916 -0.017704533 -0.04156203
000220 33 2c bf 3d 5a a8 15 3e 7a 7f c2 3c 94 82 46 3b
       0.09334602 0.14615002 0.023742426 0.0030290233
000230 25 8f 4b bd 49 72 f8 3d 1b 06 7b bd f8 dc 15 3e
       -0.04969706 0.12131173 -0.06128512 0.14635074
000240 e0 71 24 bc 0a d6 07 be 58 bb 9e bc 94 f3 b7 3d
       -0.010036916 -0.13265243 -0.019376442 0.08982006
000250 1c 92 5b 3d 9f 06 11 be ae 41 fe 3c 51 95 48 bd
       0.053606138 -0.14162682 0.031037178 -0.048970524
000260 a2 41 3f 3e 30 59 a9 bd 97 3f 15 3e aa af 93 bd
       0.1867738 -0.08268964 0.14575039 -0.0721124
000270 e2 17 0b 3e 8a 3a 5a 3d 0e dd 25 3e f7 59 ae 3d
       0.1358333 0.053278483 0.16197607 0.08513253
000280 0e 2b 30 bd 40 bc b3 bc 31 79 8b bd 0d 72 63 bd
       -0.04300981 -0.02194035 -0.06810225 -0.05552869
000290 e0 fc 82 bd 21 c8 4c 3e 5e 16 18 3e 5a 25 ce bc
       -0.06395888 0.19998218 0.14852282 -0.025164295
0002a0 63 f4 ac 3d c8 1a 00 bd 06 e6 c0 3c 4b 1f 2f bd
       0.084450506 -0.03127554 0.023547184 -0.042754453
0002b0 e9 b6 c9 3b 52 00 50 bd 09 a9 00 be f1 c6 0c 3d
       0.006155838 -0.050781555 -0.12564482 0.034369413
0002c0 ec 84 01 be f1 46 69 bc 61 9b 92 be 5a dc 81 bd
       -0.12648362 -0.014238105 -0.2863417 -0.06340857
0002d0 18 2f 51 3d 06 9a d2 bc 2e bc 40 3c c3 a9 2c bd
       0.051070303 -0.02570821 0.0117636155 -0.042154085
0002e0 5b 6d cb bd 02 00 7a bb d7 38 01 bd 4f fe d0 bd
       -0.09932967 -0.0038146977 -0.031548347 -0.102047555
0002f0 96 aa 5b 3d 4d 88 37 bd 8a 2e b4 bd 9d dc cc 3c
       0.05362948 -0.04480772 -0.08797939 0.02500754
000300 0c e8 7b bd 1b d8 15 bd 57 55 c3 bd f8 3e 26 3d
       -0.061500594 -0.036583047 -0.09537762 0.040587395
000310 ae 99 ca 3c c8 4e b1 3d e5 a3 62 3d f2 8b 3e 3d
       0.024731483 0.086576045 0.055332083 0.04652018
000320 97 0f 93 3d aa fa c9 3d cc 3a 8d bd 09 b1 e4 bb
       0.07180708 0.098622635 -0.0689598 -0.006979112
000330 8c 9b 43 3d 92 3c 59 bd 88 21 e8 3d 29 59 1c be
       0.047755763 -0.05303628 0.113345206 -0.15268387
000340 db fc 0b bd ca 45 89 bd 03 0e aa bd 8f 72 e9 3d
       -0.03417669 -0.06702764 -0.08303454 0.113988034
000350 57 89 cc 3d 38 35 35 3c 5d 52 75 bd 28 1b 17 3e
       0.09987133 0.011060052 -0.059893 0.14756453
000360 ea 03 63 bb ec 81 d4 bd c6 d8 93 3c 1e 13 3d 3d
       -0.0034639784 -0.10376343 0.018047702 0.04616081
000370 81 ec 77 bd c7 a4 77 3d b9 3e b5 bd a6 0a b3 bc
       -0.060528282 0.06045988 -0.08849854 -0.021855664
000380 9c d2 8b 3b 73 22 10 be 91 59 fc 3d 3f 50 99 bc
       0.00426705 -0.14075641 0.12321771 -0.018715022
000390 28 a7 44 3e a4 7c 9e 3d 9b 6e e7 bc b5 01 fc bc
       0.1920439 0.07738617 -0.028250983 -0.030762533
0003a0 52 5c 3e 3d fd 8d ee bd 35 f3 8c 3d 96 b5 9d 3d
       0.046474762 -0.11648176 0.068823256 0.077006504
0003b0 c5 3b 57 bd 36 1d 32 be 1d 27 13 bd 95 e0 a2 3d
       -0.052547235 -0.17393956 -0.035925973 0.07952992
0003c0 f9 30 d4 bc e7 7c bd bd 8e e9 ac bd 6d 59 1b bc
       -0.025902258 -0.09252339 -0.084429845 -0.00948177
0003d0 1d 84 7a bb 55 fe c3 3d b0 92 a7 3d fa 52 93 3d
       -0.0038225718 0.09569994 0.08182275 0.07193561
0003e0 78 45 b3 bd 61 26 0c be be 13 5f 3d d2 3e 5d bd
       -0.087534845 -0.13686515 0.054462187 -0.05401499
0003f0 9a 4e ec bc 97 09 1e bd c5 cc 3e 3d c0 2f eb 3c
       -0.028846074 -0.038583364 0.046582002 0.028709292

network_body._body_endoder.seq_layers.2.bias f4 [128]
000000 30 61 9f 3a 5f 08 26 bc 21 5b 38 ba 86 80 40 3c
       0.0012159701 -0.010133832 -0.0007032622 0.011749392
000010 7c 91 c4 ba 37 84 86 b9 90 cb e4 3b 1c 0b 59 3a
       -0.0014996971 -0.0002565698 0.0069822744 0.00082795485
000020 42 3e 1b bb 1f 0f c8 ba 20 6f 90 3b 29 90 26 b9
       -0.0023688232 -0.0015263295 0.0044077784 -0.00015884697
000030 e6 38 d6 ba c4 ae 46 bb de 95 92 bb eb a9 bb bb
       -0.0016343861 -0.003031657 -0.004473432 -0.005727043
000040 05 3c de b9 c6 9f 75 bb ba 1b 16 bb 99 fd 1b bb
       -0.00042387858 -0.0037479266 -0.002290471 -0.002380228
000050 1e bf 37 3a fa 39 91 3a d9 77 c6 3b 6e 49 96 bb
       0.00070093747 0.00110799 0.0060567674 -0.00458639
000060 08 3d 34 ba cc 3e 1a bc 94 80 2f 3b ca bc 44 3b
       -0.00068755494 -0.009414386 0.002677952 0.0030019754
000070 5c e0 86 3a 0c 2c 5d 3b d7 fa b4 3b ef e5 08 bb
       0.0010290253 0.0033748178 0.0055230665 -0.0020889004
000080 af 6e 82 39 a2 6d b7 3b 23 08 6d 3a e4 f2 36 3c
       0.00024877998 0.005597786 0.0009042045 0.011166308
000090 49 c5 b0 39 10 66 15 3b 91 28 9b ba 9a 3d cb 38
       0.00033716325 0.002279643 -0.0011837651 9.6912685e-05
0000a0 35 c2 93 ba ba f8 ab 3a 42 6a 52 3a db 86 ac 3a
       -0.0011273088 0.0013120391 0.0008026698 0.0013162749
0000b0 55 ff 8d bb 79 67 0d 3c fd 3e 84 ba 04 03 db 3a
       -0.0043334165 0.008630627 -0.0010089573 0.0016709273
0000c0 af 2c 9e ba b5 67 05 3b de 05 01 3a 63 49 c2 3b
       -0.001206776 0.0020356004 0.0004921834 0.0059291585
0000d0 8a 4c 40 3b f8 26 93 3a 57 1b 4d ba 52 21 96 3a
       0.0029342496 0.0011226824 -0.00078242033 0.0011454022
0000e0 91 ea b0 bb 2e 09 1c bb 22 92 db ba f1 2d cd ba
       -0.0053990562 -0.0023809182 -0.0016751925 -0.001565395
0000f0 a7 ed ec ba 0a fa 08 bb 41 00 59 3b 71 64 12 3b
       -0.0018076197 -0.0020900988 0.0033111724 0.00223377
000100 19 fc c7 b9 c8 a6 8b ba 27 65 ac bb ea 51 61 3a
       -0.00038144065 -0.0010654563 -0.0052610817 0.0008595275
000110 2d 78 55 3b 82 d0 77 ba b0 c6 78 3b 42 3d 67 3b
       0.003257285 -0.00094533723 0.0037960224 0.0035284315
000120 63 79 63 3a b4 08 2e bb f7 9b 95 3b 4f 56 32 3a
       0.0008677451 -0.002655548 0.0045657116 0.0006803022
000130 32 6a bf 3b db ab d4 3a 14 01 88 b7 f8 34 fc bb
       0.005841517 0.0016225533 -1.6212965e-05 -0.007696744
000140 bd f2 f6 bb e8 a0 6c bb 26 4a 8e ba 7d b0 2c ba
       -0.007536261 -0.003610665 -0.0010855838 -0.0006587578
000150 62 d5 bb bb 22 f0 0e bb 5c 20 88 3b 7f f0 73 bb
       -0.0057322243 -0.002181061 0.004154248 -0.0037222204
000160 6b 83 d4 bb ce 70 99 ba ae cc 56 39 92 81 82 3a
       -0.006485393 -0.0011706592 0.0002048488 0.0009956828
000170 0e 8f d9 3a 62 a7 55 39 c4 06 92 3a 8c 7f 50 3a
       0.001659842 0.00020375618 0.0011140932 0.0007953576
000180 07 19 03 bb 91 ee 23 3c ab 0f 87 3a 17 81 00 bc
       -0.002000393 0.010005609 0.0010304352 -0.007843277
000190 87 3a 3f 3b 98 3e 47 bb e7 5a 3d 3b 96 e4 f8 38
       0.0029179172 -0.00304023 0.0028893293 0.00011868139
0001a0 07 be f2 ba b7 94 4a bb ce cc e4 bb b1 6d eb ba
       -0.0018519767 -0.0030911395 -0.0069824224 -0.0017961768
0001b0 aa 51 c3 bb 69 a3 75 bb 5d b0 07 bb 19 bd 08 3b
       -0.005960663 -0.0037481433 -0.0020704486 0.0020864664
0001c0 b6 02 ca 39 ab 29 6b 3a 01 bf be 3a 2b 69 0c bb
       0.00038530462 0.00089707476 0.0014552773 -0.002142499
0001d0 8a 2d d1 3a 66 74 65 3a c1 9c c9 3a b4 b1 00 3a
       0.0015959006 0.00087530015 0.0015381799 0.00049092923
0001e0 3e 2d 69 3a af a2 0d bb 60 fb 36 3b e7 47 46 ba
       0.0008894986 -0.002161186 0.0027920827 -0.0007563815
0001f0 44 88 9a 3b 87 53 50 3a a2 cd c9 ba 2c ad db bb
       0.004715951 0.0007947017 -0.0015396366 -0.0067039933

action_model._continuous_distribution.log_sigma f4 [1, 2]
000000 c3 49 85 3b 55 ef e8 bc
       0.004067631 -0.028434435

action_model._continuous_distribution.mu.weight f4 [2, 128]
000000 18 da a7 3c 0b 63 1e 3c 6e 1f 4f 3c eb 70 12 3d
       0.020489737 0.009667168 0.012641771 0.03575222
000010 e3 f4 51 3c f1 19 13 bd a4 c7 fc 3c fd 2b 19 3a
       0.012814733 -0.03591341 0.030856915 0.00058430416
000020 27 a5 34 bc 36 bc bb bc f7 d5 a1 bc 59 5b a3 bc
       -0.0110257035 -0.022916894 -0.019755347 -0.019941019
000030 9f 3c 58 3c 1a c3 de bc cc ca 07 bd 7e ae cf 3b
       0.013198047 -0.027192641 -0.033152387 0.0063379398
000040 82 16 aa 3c 33 66 0f bd 73 34 17 3c 1b 7a b3 3b
       0.020762686 -0.035009574 0.009228813 0.0054772026
000050 83 2d 4e 3c 60 b5 d1 3c a4 d7 05 bd 52 53 1a bb
       0.012584093 0.025599182 -0.032676354 -0.0023548198
000060 8e a4 69 bb c0 b4 b0 bc 87 bf 14 3a 32 50 be 3c
       -0.003565106 -0.021570563 0.0005674292 0.0232316
000070 81 0c a7 bc fa 8e 2e bc a9 54 79 3c 9d ee 69 bc
       -0.020391705 -0.010654205 0.015217938 -0.014278081
000080 0a 42 d6 bc 48 fb 88 bc cd 45 9e 39 8e 01 9c bc
       -0.026154537 -0.016721383 0.00030188114 -0.01904371
000090 8a f6 77 3b bd ca 96 3c 93 8e dd ba d4 bb 34 bc
       0.0037836158 0.01840722 -0.0016903452 -0.01103111
0000a0 d8 7a d0 3c 82 8a e6 3c c8 47 e9 bb a8 a4 34 3c
       0.025449201 0.028142218 -0.0071191527 0.011025585
0000b0 41 cd a2 3b b2 f9 d2 bb 2b 94 99 bc fe 03 55 bc
       0.004968316 -0.0064384574 -0.01874741 -0.01300144
0000c0 3a 0b d4 3c 3a a7 93 3c f3 06 d9 3b 5e f0 9c 3c
       0.02588426 0.018024076 0.006623143 0.019157585
0000d0 e2 ba 89 3c f5 3f f0 bb 6b f3 f4 3c 4c 1f ba bc
       0.016812745 -0.007331843 0.029901227 -0.022720002
0000e0 50 c9 98 bb 90 7f 71 ba bc ed f8 bb fa be a5 3c
       -0.00466267 -0.00092124287 -0.0075966995 0.020232666
0000f0 3c 58 cc bc 44 d9 94 bc 8a c0 05 3d 87 2b 74 bb
       -0.024944417 -0.018170007 0.032654323 -0.003725739
000100 e4 1a f6 3b b2 3e 21 3c 3c d0 e2 3b c6 88 95 3c
       0.00751053 0.009841608 0.006921796 0.018253695
000110 f7 7c 08 bd a7 e8 cd bc 2a 21 90 bc 83 7a f3 3c
       -0.0333223 -0.025135351 -0.017593939 0.029721504
000120 c4 61 03 3c d3 67 20 3c 90 85 96 bb a5 8e ce bc
       0.008018915 0.009790379 -0.0045935586 -0.025214503
000130 83 40 3a bd 25 3d 44 3d 1b 5a cb bc 9a c7 8f bc
       -0.04547168 0.047909874 -0.02482324 -0.017551232
000140 b6 77 25 3b 9b 49 8b 3b e2 d4 6a 3c 4d 03 3d 3d
       0.0025248355 0.004250718 0.014332982 0.046145726
000150 76 15 a3 bc ae 36 42 bc 17 62 46 bb 1a 22 b7 3c
       -0.019907694 -0.011853857 -0.0030270868 0.022355128
000160 ed e0 01 bd f7 5e ca 3c 47 8c d0 3b 82 9a 29 3c
       -0.031708647 0.024703486 0.0063643786 0.010351779
000170 de a2 d6 3a 30 7e d2 3c 01 89 f4 bb 1e f2 4b bc
       0.0016375443 0.025694937 -0.007462621 -0.012447862
000180 8c 13 de bc b9 8f f3 3c a7 ad 85 bc c4 22 a7 bb
       -0.02710893 0.029731618 -0.016318155 -0.00510058
000190 b8 4a a8 bc 2b e0 9c bc 84 0c ef bc ae 27 0a bd
       -0.020543441 -0.01914986 -0.029180773 -0.033729248
0001a0 e7 28 dd 3c 81 1f c3 ba e4 dc c6 3c 05 42 8f bc
       0.026997043 -0.0014886708 0.02427525 -0.017487535
0001b0 a2 6d 3f bc 45 a1 66 bc 3a 56 6c bc 43 d3 74 3c
       -0.011683853 -0.014076536 -0.014424855 0.014942947
0001c0 d5 e9 87 3c 3d b7 e8 bc 0d 01 17 bb b1 22 cd 3b
       0.016590992 -0.028407687 -0.0023041398 0.006260239
0001d0 7e f0 8d 3c 1a 86 82 3b 0d b3 9b 3c ed bd 74 bc
       0.01732659 0.0039832713 0.019006277 -0.01493786
0001e0 94 b6 18 bc 22 16 a3 bc fc 62 33 3d 65 b4 83 3c
       -0.009320874 -0.019908015 0.04379557 0.01607723
0001f0 d5 66 1a 3d e6 ac f3 3b 32 f1 88 3c a3 fb 96 3c
       0.037695725 0.0074363826 0.016716573 0.018430537
000200 49 7e 22 3c 35 d8 71 3c 99 c4 18 3a 56 01 8b 3b
       0.009917804 0.01476102 0.0005827635 0.0042421026
000210 c7 36 aa bc 2b ea aa 3c a8 a7 f2 3b 48 c3 7b 3c
       -0.020778073 0.020863613 0.00740524 0.015366383
000220 fd 48 0d bc f1 32 6e 3c c7 df af bc 7c ca 4b bc
       -0.008623359 0.014538513 -0.02146901 -0.012438413
000230 1c 26 27 bc bc 8c a2 ba 85 4c 43 bc f3 de b1 bc
       -0.010201957 -0.0012401561 -0.011920099 -0.021712756
000240 3b ba a5 bc 28 cc 2d ba 45 6f bd 3c 10 ae 95 bc
       -0.020230403 -0.0006629848 0.023124347 -0.018271476
000250 c3 a4 8c bc 13 c3 20 3c 2a 33 4f 3c 8e 8a ca ba
       -0.017168408 0.009812134 0.012646476 -0.001545267
000260 25 9d 3c 3b 74 61 a9 3a d1 dc 3f 3c 28 cf 03 3b
       0.002878019 0.001292272 0.011710362 0.0020112488
000270 d9 a2 ea 3c f4 e0 69 bc ce b8 f9 ba 31 d0 fd bb
       0.028642105 -0.014274824 -0.0019052268 -0.0077457656
000280 a3 f2 b4 ba 50 e3 dc ba aa c3 ab bc ce 83 f5 bc
       -0.0013805222 -0.0016852412 -0.020967323 -0.029970076
000290 e7 ff 8b bc 68 59 10 bd 79 2e de 3a 32 01 a5 3b
       -0.017089797 -0.035241514 0.0016951106 0.005035543
0002a0 9c f7 11 bd 05 09 61 3c a8 ba 41 3c 41 be a2 bc
       -0.03563653 0.013735061 0.0118242875 -0.01986611
0002b0 26 5e dd ba 06 b1 ce bc 26 40 94 bc 08 e8 6a ba
       -0.001688902 -0.025230896 -0.018096995 -0.0008960967
0002c0 c1 07 7a bc 16 e1 11 bd 65 a5 39 3c db 23 1b 3c
       -0.015260638 -0.03561505 0.011330937 0.009468998
0002d0 e1 38 88 3c 26 82 1e 3c 6b 0e 32 bc 26 09 66 3c
       0.016628684 0.0096745845 -0.010867695 0.014040267
0002e0 f9 82 4b ba 54 27 57 3c 38 30 8c bc d4 c5 12 3d
       -0.0007763352 0.013131935 -0.017112836 0.035833195
0002f0 32 10 5b bc c4 7a 20 bc 81 ae 8e 3c 36 b0 1e 3d
       -0.0133705605 -0.009794895 0.017417194 0.038742267
000300 78 9b 86 3c a2 a8 30 3b 1d 94 c8 bb 16 ae 20 3c
       0.016431555 0.0026955982 -0.006121172 0.00980713
000310 10 bb d1 3c 66 17 a1 b9 20 12 16 3c 55 93 16 bb
       0.025601894 -0.00030725746 0.009159595 -0.0022976
000320 11 71 a5 3b 47 bf 16 bc 26 3f 3e bc a2 f2 a7 3c
       0.005048879 -0.0092008775 -0.011611735 0.020501439
000330 e5 82 80 bb 22 d7 69 3c ab fa b5 3b 4d 65 80 3c
       -0.003921854 0.014272483 0.0055535636 0.015673304
000340 8c c5 6f 3a dc 45 a0 bb 07 99 96 bc 2e d5 3b bc
       0.0009146563 -0.0048911404 -0.018383516 -0.0114644
000350 5c d8 31 3a 85 97 38 bc 4d 8d b8 bc cc 3b 02 bd
       0.0006784254 -0.011266594 -0.022528315 -0.031795308
000360 21 da 83 bb 22 ba 86 ba ea a4 08 bd da 1a ca 3c
       -0.0040238057 -0.001027886 -0.0333604 0.024671007
000370 98 21 a9 3c 65 5e bc 3b 4d a4 0c 3d 5f 95 68 3c
       0.020645902 0.0057485574 0.034336377 0.014195769
000380 e5 57 c5 bb 02 17 b8 3b dc 03 82 3c 74 f9 69 3a
       -0.0060224407 0.005617977 0.01587098 0.0008925416
000390 87 c9 15 3b 45 39 bf 3c 83 2b c8 bb 0b d3 1a 3c
       0.0022855715 0.023342738 -0.0061087026 0.009449731
0003a0 fa 34 e9 3c 48 00 03 bc 9b 7c b3 ba fd eb 0d bd
       0.028467644 -0.0079956725 -0.0013693752 -0.034648884
0003b0 8f 7a 83 bc 66 b2 12 ba e6 c3 10 3c 46 c9 3a 3c
       -0.016049651 -0.00055960414 0.008835768 0.011400526
0003c0 c0 22 c5 3c 02 6e ee 3c 69 5a e1 3c bf ea b1 3b
       0.024064422 0.02910519 0.027508931 0.0054295952
0003d0 e6 7a 7c 3c ea f4 0d 3d 86 cf e2 3b c7 bb c6 bc
       0.015410161 0.034657396 0.0069217114 -0.024259461
0003e0 65 12 95 3c 94 8c 28 3c 6f 10 ba 3b c2 d3 ae 3b
       0.018197248 0.010287423 0.0056782286 0.005335302
0003f0 ad 38 69 bb df 11 2e 3c f5 65 03 bc 0e e3 ac bc
       -0.003558676 0.010624378 -0.008019914 -0.021104362

action_model._continuous_distribution.mu.bias f4 [2]
000000 9f 26 8d 39 25 0f b6 3a
       0.0002692239 0.0013890011
