MachineLearning/results/testSumo11/MoveTOGoal/MoveTOGoal-499971.pt (torch, 441819 bytes, 36 tensors)

network_body._body_endoder.seq_layers.0.weight f4 [128, 6]
00000000: 1583 813d 3678 d1bd 067b f33e 1484 983e
00000010: 1788 e33a f6ec 8d3e 7764 ba3d 25e0 ec3c
00000020: 0b88 183f d9fb e03e c234 ae3d 21e5 d7bd
00000030: 4a32 4fbf b88d f8be 9419 42bf f884 8aba
00000040: c2bb 19bd b5a6 0d3f 9812 edbc 478d 943e
00000050: 2217 183d acdd 3fbf 48e8 28be 8db3 a1be
00000060: 105a 233d 3886 d13d c86e 12bf f296 153f
00000070: 566e 67be 5829 c03d 0bd7 efbd bc3e b43e
00000080: f4bf 1abe dc11 a6bd a82b 9c3e dae1 37be
00000090: 9c69 b1be 1c3b 933e b179 b83e a12d 8fbe
000000a0: 32f5 50be 149d 9dbe b008 4d3e e195 a73d
000000b0: 2bfa 3ebf c31c 523e 347e 983e 9dac 1bbf
000000c0: b4fd 9f3e b642 abbd f80d 12bf 6989 9fbe
000000d0: 393c d1be 1dbb a9be dceb a0be 7791 483e
000000e0: c28e 2e3f 27aa 7d3d 47c0 b83e 2377 20bf
000000f0: a1d6 63bd 8608 bd3d 9c1f 293e e5b6 c53e
00000100: 0e19 cebd 5053 99be 72a7 603f fc66 0a3e
00000110: 1ff2 babe 29d0 77bc ce80 31bf aa47 b63e
00000120: e7e8 1bbe 4019 e6be c337 0cbf 521c 9abe
00000130: e3d7 a2be 1636 ed3c 1aa3 1cbf 39a6 05bf
00000140: 5c14 00bf 24ef e7be c0f4 4b3e 8968 3a3e
00000150: 905f 31bf 6f89 d63d 8aac 083c 18e8 19bf
00000160: cf82 243d a606 f8be 2249 eabe c3e0 16bf
00000170: 64a6 b6be d449 23bf c7d3 f53d 9e84 debd
00000180: 6fc0 debd 8bdf 44be c7f9 353e 5916 dd3d
00000190: 7b8d 033c dcf1 8d3e 37a0 a1bf 0ea1 29bf
000001a0: 4eda 55be a43e a5bf f609 a93e 083d 3e3d
000001b0: 0956 e63d be1d cbbd 5311 923e 5e21 cbbe
000001c0: e5b2 aebe 57cd c2bd 2f5a 18bf 6a26 96bd
000001d0: 856a de3e 794a dbbd 51f8 943d baec 5fbe
000001e0: c1d9 543f 0e4d 1a3d 3368 b9be 945a 983e
000001f0: e562 36bd 01e8 49be ab6c d83d 747e 0bbf
00000200: 9095 59bf 2f88 813e b0db cfbe 448a e8be
00000210: 9e2b 2bbe 840a b03e 6dd8 8fbe 494e d33e
00000220: c497 3dbf d199 d23e 4d63 cdbe 55b0 68be
00000230: d367 723d 3101 933e 3d91 d83e 3c7a 1fbe
00000240: dce8 2a3f b318 0bbe f15c bb3e b75c 7d3e
00000250: a9bd a4be 7885 a3bd a6a4 ad3e 0c0f a2be
00000260: e600 ecbd 0a34 2bbf 30a8 133f 3eb1 dc3e
00000270: 6ea5 ec3e 038c dfbe a6c1 f43d f409 61bf
00000280: 4f12 573d c448 7ebe b816 2ebd 453c a53e
00000290: 3c60 42bf 334e 073f 8130 c43d 054c b6bd
000002a0: d3d9 a9be d4fb 1a3f 2064 10bf adbe 4f3d
000002b0: 7518 8cbe 6cf2 073f ff9f 883e 9342 14bf
000002c0: fe07 2fbe fce6 643f 1074 403e dc2e 463f
000002d0: d694 6fbe 5041 19bf 433f 113e f1e7 07bf
000002e0: 50bb 66bd e109 723e 236d 643e 2c36 22bf
000002f0: a529 22be c3a0 5b3e 244f e03e 73f9 aebd
00000300: cd6a 323c 87f9 ddbc 692f 0ebf 9815 813d
00000310: 6339 dabe 1bc5 7cbe fbd8 88bd 546d 3bbe
00000320: 9c67 ae3d a5be 163f 24c2 ebbe 9d21 62be
00000330: 2e0a 803d fe25 323e 0918 3e3e 3f79 9a3e
00000340: 7a28 f0bd e167 51be e81f c53e d03d 5d3e
00000350: 7def fabe 6d31 183e 498b 1dbf e651 42bf
00000360: 5e5c da3e 0224 013f 64f7 cbbe 40c0 90be
00000370: f74e 6f3b c39c 9fbe 3107 d5be 8c34 e23e
00000380: 3b99 b83d 122d d63e 1444 a63e 96ea 9abe
00000390: b070 0f3f faf7 56bc 2aa0 133d d712 11be
000003a0: 84f1 de3a eca5 83be b1eb cbbe 1746 093f
000003b0: 502a b63d 4b2e ecbd 537c f43d 1c5b 7dbe
000003c0: b1a5 e3be b015 313f 5120 a1bc e3b2 aebe
000003d0: 6d75 f8be 8c1a 07bf 7adb ef3d ac2c fb3e
000003e0: 368c 4ebe 7dcd 68be 1655 18bd b83d e3bc
000003f0: acfd 31bf 7d11 b6be bf85 48be 67ae 523d
0.0632383 -0.102280065 0.47554797 0.29788268 0.0017359284 0.2771985 0.091011934 0.028915474
0.59582585 0.43942145 0.085061565 -0.1054175 -0.8093611 -0.48545623 -0.7582028 -0.0010568192
-0.037532575 0.553325 -0.02893953 0.29014036 0.037131436 -0.7494762 -0.16494858 -0.315823
0.039880812 0.10230678 -0.5720029 0.5843345 -0.22600684 0.09382886 -0.11710938 0.35204113
-0.15112287 -0.08108875 0.30502057 -0.1795725 -0.34650886 0.28756034 0.36030343 -0.279645
-0.20406035 -0.30783904 0.20022845 0.08182884 -0.74600476 0.20518784 0.29783785 -0.6081026
0.31248248 -0.083623335 -0.57052565 -0.31159523 -0.4086626 -0.3315057 -0.31429946 0.1958674
0.6818658 0.061929848 0.36084196 -0.6268179 -0.055624608 0.09230141 0.16515964 0.386161
-0.100633726 -0.29946375 0.877555 0.13515848 -0.3651285 -0.015125313 -0.69337165 0.3560155
-0.15225564 -0.4494114 -0.54772586 -0.30099732 -0.31805333 0.028956454 -0.61186373 -0.5220676
-0.50031066 -0.45299637 0.19917583 0.1820394 -0.6928644 0.10475432 0.008341918 -0.6011977
0.04016381 -0.48442572 -0.4575892 -0.5893671 -0.3567382 -0.6378453 0.12003284 -0.108651385
-0.108765475 -0.192259 0.17771064 0.10795278 0.008029337 0.27723587 -1.2627019 -0.66261375
-0.20884058 -1.2909741 0.33015412 0.046444923 0.11246879 -0.09917782 0.28528842 -0.39673895
-0.3412086 -0.09511822 -0.5951261 -0.07331546 0.43440643 -0.10707564 0.07273925 -0.21867648
0.83144766 0.03767114 -0.3621231 0.29756606 -0.044527907 -0.19717409 0.10567602 -0.5448983
-0.8499384 0.25299212 -0.40597296 -0.45417988 -0.16715857 0.34383023 -0.28094807 0.41270664
-0.740597 0.41132978 -0.40114823 -0.22723515 0.059181046 0.28711846 0.42298308 -0.15573972
0.66761565 -0.13583641 0.36594346 0.24742399 -0.3217595 -0.079844415 0.3391468 -0.31652105
-0.11523609 -0.6687628 0.5767851 0.43103975 0.46219963 -0.43661508 0.11950998 -0.8790581
0.052507695 -0.24832445 -0.042502135 0.32272545 -0.7592809 0.528537 0.09579564 -0.08901218
-0.33174 0.6054051 -0.5640278 0.050718952 -0.2736241 0.5310428 0.26684567 -0.57914084
-0.17092893 0.89414954 0.18794274 0.7741525 -0.2339662 -0.59865284 0.14184289 -0.5308829
-0.05633098 0.23636581 0.22307257 -0.6336391 -0.15836199 0.21448044 0.4381038 -0.085436724
0.010889721 -0.027096523 -0.5554109 0.06302947 -0.42621908 -0.24684565 -0.06682011 -0.18303424
0.08515856 0.5888465 -0.46046555 -0.22083135 0.062519416 0.17397305 0.18563856 0.30170628
-0.1172647 -0.20449783 0.38500905 0.21605611 -0.4901084 0.14862604 -0.6154066 -0.7590622
0.42648596 0.5044557 -0.39837182 -0.28271675 0.0036515573 -0.31174287 -0.4160705 0.44180715
0.090136014 0.4183126 0.32473814 -0.302571 0.5603132 -0.013120646 0.036041416 -0.14167343
0.0017009233 -0.25712526 -0.39828256 0.53622574 0.08894789 -0.11532267 0.119377755 -0.24741787
-0.4446235 0.6917372 -0.01966873 -0.34120855 -0.4852709 -0.5277488 0.11711784 0.4905752
-0.20170674 -0.22734638 -0.03719052 -0.02773939 -0.695277 -0.35560217 -0.1958227 0.051435854

network_body._body_endoder.seq_layers.0.bias f4 [128]
00000000: 58d4 143d 5ed6 9e3d 83c0 30be e25a 99bd
00000010: d769 793c 8392 11be 0b8a 6c3b 5598 363d
00000020: fe90 0ebd 821d 49bd 84ab 0b3d 55aa d0bd
00000030: 2ed1 83bd 0b82 1abd a761 ce3d 7bfe e4bd
00000040: d19c 2cbd b7b9 49bc da3a cebd 485e 993c
00000050: 0283 8abd c41a 24bd 1f0f dcbc ab14 27bc
00000060: 8426 e53d 6018 213c 5b32 393d 884b a93b
00000070: 2412 e1bb 428c 64bd d854 c4bd f206 c23c
00000080: f5f2 22be f8a8 99bc ee3a 853b 7ad3 97bd
00000090: e05c cbbd 48ec 81bd 08ed 893d 67da a5bc
000000a0: f454 c8bd f9eb a0bd 8f44 cdbd 3554 bdbd
000000b0: 73fe 56bd 4daf 25be 63da 053c 9d04 3c3d
000000c0: 78a8 be3d 0408 d7bc 4613 ab3c a6b2 fd3c
000000d0: c07f 393c 0ae1 9c3d 1e73 65bd 94d5 d8bd
000000e0: 46ef 6abd 10f0 e0bb c1e5 2bbd e2e0 9cbd
000000f0: 5e6a e5bb 3b25 bcbd 7182 15bd 62a6 a2bd
00000100: d8ec 50bd 14a3 42bd b68a b5bd 5c22 03bd
00000110: ef24 93bd b6d8 fcbd d4b8 b8bd 1381 2f3d
00000120: 3dd5 cabd 23e8 e3bc 0d21 ca3b af68 b1bd
00000130: c373 59bd 2a78 283c 6ef1 b1bd 5ea2 76bd
00000140: 39cc a0bc 56fe e8bd bcf5 993c f5c7 edbd
00000150: b95d ef3c 8288 22be c54e 74bb 8059 5d3c
00000160: 3b00 d73b 86f4 d9bc 4581 213c 4354 20be
00000170: 00bd 04be 7a36 aebd 0619 b63a a9d8 3cbd
00000180: 32f7 ec3b d709 f7bd e221 75bd 9e40 97bd
00000190: 04f9 133c 9252 bbbc b893 1fbd 24b5 4b3d
000001a0: a199 27bd d898 cc3c 19ea dcbc b65f 5dbd
000001b0: 9517 e9bb 6e1f 09be cfff 623d 1e7e 8ebd
000001c0: 775d 913d 1b0d 0dbc 2d07 22bd d1d1 41be
000001d0: ae2a 8cbd a17f e5bc 6e8a f5bc 3e95 75bd
000001e0: d94d e3bc f2a7 e3bc 4b9a dfbc 08dd 09be
000001f0: 6518 b6bd 39b5 debc 9ce3 093d 5f37 653d
0.03633532 0.07755731 -0.17260937 -0.07488038 0.015222988 -0.14216046 0.0036093022 0.04457887
-0.034806244 -0.049100406 0.034099117 -0.10188738 -0.06436382 -0.037721675 0.100772195 -0.11181351
-0.04214174 -0.012312344 -0.10069819 0.018721715 -0.06763269 -0.04006459 -0.026862679 -0.010197799
0.11188987 0.009832472 0.04521404 0.0051664747 -0.0068686176 -0.055797823 -0.09586495 0.023684952
-0.15912993 -0.018757328 0.004065863 -0.07413383 -0.09929824 -0.06343895 0.06734663 -0.020245744
-0.097818285 -0.07857508 -0.10022842 -0.09244577 -0.052488755 -0.16180153 0.008169743 0.045902837
0.093094766 -0.02624894 0.020883214 0.030968975 0.011321962 0.0766011 -0.056017987 -0.10587612
-0.057357095 -0.006864555 -0.041967157 -0.076600805 -0.0070012053 -0.09186789 -0.03650135 -0.07941891
-0.05100712 -0.047518805 -0.08864348 -0.03201519 -0.07184779 -0.12346022 -0.09019628 0.042847704
-0.09903953 -0.027820652 0.0061684907 -0.08662545 -0.053088915 0.010282556 -0.08688627 -0.06021344
-0.019628631 -0.11376636 0.018793933 -0.116104044 0.029219495 -0.15872386 -0.0037278396 0.013510108
0.006561307 -0.026605856 0.00985748 -0.15657143 -0.12962723 -0.08506484 0.0013892956 -0.04610506
0.0072316164 -0.12062424 -0.059846766 -0.073853716 0.009031538 -0.022866521 -0.038959235 0.049733296
-0.040917996 0.024975225 -0.026967095 -0.054046355 -0.007113407 -0.13390896 0.05541974 -0.06957649
0.07097905 -0.008609082 -0.039557625 -0.18927695 -0.06844078 -0.02801496 -0.029973235 -0.05995678
-0.027747082 -0.027790044 -0.027295252 -0.13463223 -0.08891372 -0.027186023 0.03366433 0.05596101

network_body._body_endoder.seq_layers.2.weight f4 [128, 128]
00000000: 190b 35be b929 b5be c9f2 01be 6569 d53d
00000010: 843d 22bd d3a0 a4bc 8c05 163e 5dcb f6bc
00000020: 8ab0 273d 7906 b9be 39e5 89bb 2cc9 4c3c
00000030: 24dd a6bb a413 93bd 9dde 093d 3d29 da3d
00000040: 203e bf3b ecd3 d6bd b32d 773d 5f75 543d
00000050: e5f5 69bd e671 8e3d f4bf 14be 9d9a 00be
00000060: a297 73be a097 f7bd a2a5 5e3c 9818 dcbd
00000070: ef41 b9bd 310e 4fbe 05d5 263d 620a a23d
00000080: 88b7 ca3d 9d2e 643e fbf4 e83c 0a4d 1b3e
00000090: cb99 71be f4b4 3abe 4061 d4bd 5291 91be
000000a0: d93d f43d 9525 3f3c 8800 d1bd 1d58 2fbe
000000b0: 8e41 0fbe 8698 43be 87eb 513c 2f09 d7bb
000000c0: dbf4 b7bd d64e 023e bf2e 9b3e 9325 39ba
000000d0: e73d 353d e07a acbc 37fd 233d 3cde 4fbd
000000e0: a229 973d 1c9a bd3d 93ed be3d d3e1 98bd
000000f0: c843 34be 71da ed3b 7b57 dabd 930f d93c
00000100: bf9e 39be 47e5 0e3e 79ad 7dbd e261 e2bd
00000110: 28ef b1bd f068 723e b59d 233d 967f 4fbe
00000120: 726d b4bd efa9 da3d ab3a bf3d cc64 49bd
00000130: 3c5d 283e 9edb 333e 6999 8b3e 7e08 6b3c
00000140: 881f 093e 85f0 86be 44df c23d 0f5a 57be
00000150: d2a5 30bd c12d 25bd f2e6 f8bd e8a3 373e
00000160: 0e25 24bd 41eb a03d 7fc6 63be 18f1 f03d
00000170: 073a 9fbd 5b62 f1bd 70ff 123d 2818 31be
00000180: 529e 14be 21bd 15bc 2314 e1bc 42d3 b93d
00000190: 70db c23d 7bce 82bc b7cd 613d 5dc3 90bc
000001a0: cee5 6d3d b17b 4d3e 1092 8abd 8ea6 983d
000001b0: 26cb e0bd c66e 28be 5182 f2bc 34de 8cbd
000001c0: ef64 b3bc 9959 7fbe f473 42bd 17bf 93bd
000001d0: 2439 10be 7fe7 37be aaca 5b3e fa55 ea3d
000001e0: f09c 1e3e 3298 03be bf69 a63d c882 a2bd
000001f0: 6df9 6ebd 96fa 84be 4512 98bc ee6b 46be
00000200: 1dbe cfbd aecf cc3d 3ed9 913d ebfb a33d
00000210: 81ba f5bd f229 64bd d04c e9bc 039e 80bd
00000220: bee2 253e 74b8 183e 1fa6 263d 62b6 ffbc
00000230: 21da 473d 7001 4a3e ae0e 8abd c451 573e
00000240: 9d96 a6bd 87f1 b5bd cf97 67bd 7495 8d3d
00000250: 5396 b73c 7e8c 25be 8a45 9ebb d930 90bd
00000260: f205 433e 5df0 d7bd 6de3 2f3e a134 edbd
00000270: a192 8b3c 9206 f1b9 7164 533e a517 d93d
00000280: e1f1 a4bd 52c0 5dbc 55d8 51bd 869a 8fbd
00000290: ce4c a3bd 0311 533e c18c 283e 6101 01bd
000002a0: 6111 723d fbbc 88bd fe72 923d 6dd9 d1bc
000002b0: a8f0 37bd 1a41 73bd 96d8 29be ebac 513c
000002c0: d900 f1bd 940b 913c e66d 6bbe 48f1 edbd
000002d0: dc1b 883c 1256 69bd 4d76 69bb 0ba0 1cbe
000002e0: bd85 23be 602d a6bc f248 9cbd 3b83 1cbe
000002f0: 6fc2 ed3b 44d5 c23d 60d4 26be 3e29 743d
00000300: 9d32 58bd 37f2 f4bb 867b 3bbe e0e4 36bc
00000310: 4fb0 78bd ec54 963d f014 843d 5b97 1f3c
00000320: a04c 803d ea72 3a3d 2411 88bd 8f2c d8bd
00000330: 3c74 343d 4220 05be 64b1 1d3e d3ca 3cbe
00000340: 25a6 183d 7c93 9abd cb5f 9fbd 85b7 6a3d
00000350: 670e f43c 6df0 393d ab11 1cbe 17a8 213e
00000360: 2696 3dbd acd7 16bd 679d 8ebc 2982 573d
00000370: 9b76 5cbc 911b 5f3d d772 aa39 8e23 c3bc
00000380: 7c90 56bd b7df ddbd a302 c43d 9bf3 11bc
00000390: a45f 3a3e ad31 10bc f2a6 f7bd 71b8 f8bc
000003a0: 7ed5 463c 7bfb aebd 5121 913d 74b1 31bc
000003b0: 9e9d 0d3a 2eab 8ebe 6ccb 62bd dfbf ce3d
000003c0: 35fa fdbd 6dfa efbd 7407 b2bd 7d71 39bc
000003d0: c9e9 0cbe 8cb6 cb3d cab5 a83d d0c6 3a3d
000003e0: d8f6 94bd a349 20be a8d2 0dbd 2170 11bd
000003f0: 5338 2cbd f095 58bd 03ea bfbb 4afd b8bd
-0.17680015 -0.35383394 -0.12690271 0.10420493 -0.039609447 -0.020096218 0.14650553 -0.030126268
0.040939845 -0.3613775 -0.0042082337 0.012499135 -0.00509228 -0.071814805 0.033659566 0.10652397
0.0058362633 -0.1048964 0.060346317 0.051869746 -0.05711927 0.06955318 -0.1452635 -0.1255898
-0.23788312 -0.12089467 0.013589295 -0.107468784 -0.09045779 -0.20220257 0.040730495 0.079121366
0.09898287 0.22283407 0.028437128 0.15166107 -0.23593824 -0.1823309 -0.103701115 -0.28431183
0.11925859 0.011666675 -0.102051795 -0.17123456 -0.13989851 -0.19101152 0.012812502 -0.006562374
-0.08982249 0.12725386 0.30309102 -0.0007062789 0.044248488 -0.021054685 0.040036406 -0.05074905
0.07380988 0.0925791 0.093226574 -0.074649476 -0.17603981 0.0072587063 -0.10661217 0.026496684
-0.18126963 0.1395465 -0.061933015 -0.11053826 -0.086881936 0.23672843 0.039945323 -0.20263514
-0.088099375 0.106769435 0.09337362 -0.049168393 0.16441816 0.17564246 0.2726548 0.014345286
0.13390934 -0.26355377 0.09515241 -0.21030448 -0.04312689 -0.040326837 -0.12153424 0.17933619
-0.0400744 0.07857371 -0.22243689 0.11764735 -0.0777474 -0.11786338 0.035888135 -0.17294371
-0.1451352 -0.00913933 -0.027475422 0.09073497 0.09514511 -0.015967598 0.055127826 -0.017671281
0.058080487 0.20066716 -0.067661405 0.07453643 -0.109762475 -0.16448507 -0.029603155 -0.068783194
-0.021898715 -0.24936523 -0.047473863 -0.07214182 -0.14084297 -0.17959403 0.21464029 0.1144218
0.15489554 -0.12851027 0.08125638 -0.07935101 -0.05834334 -0.25972432 -0.0185634 -0.1937711
-0.10143683 0.10000549 0.07121514 0.08007034 -0.119984634 -0.055704065 -0.02847901 -0.06280138
0.16199777 0.14914113 0.04068577 -0.031214897 0.04879201 0.19727111 -0.06741081 0.21027285
-0.08134196 -0.08883958 -0.05654126 0.069132715 0.022410547 -0.16166875 -0.004830067 -0.07040567
0.19045237 -0.105438925 0.171766 -0.11582304 0.017037692 -0.00045971997 0.20643784 0.10600213
-0.08053947 -0.013534622 -0.0512317 -0.07011895 -0.07973634 0.20611958 0.16459943 -0.031495456
0.059098605 -0.0667667 0.07150839 -0.025616372 -0.044907242 -0.059388258 -0.16586527 0.0127975745
-0.1176774 0.017705716 -0.22991142 -0.11618286 0.016614847 -0.05696685 -0.0035623491 -0.15295427
-0.15968986 -0.020285308 -0.07631101 -0.15284435 0.0072558443 0.095133334 -0.16291952 0.059609644
-0.052782644 -0.0074751633 -0.18308839 -0.0111629665 -0.060715016 0.07340416 0.06449306 0.009740676
0.06264615 0.045519747 -0.06643894 -0.10555374 0.044056162 -0.13000587 0.153997 -0.18436746
0.037267823 -0.07547662 -0.07781943 0.057303924 0.029792024 0.045395304 -0.15241115 0.15786777
-0.04628577 -0.036826774 -0.01740904 0.052614365 -0.013456012 0.05446965 0.0003251049 -0.023820665
-0.052383885 -0.10833686 0.095708154 -0.008908178 0.18200547 -0.008800906 -0.12092389 -0.030361386
0.012135861 -0.0854406 0.07086433 -0.010845531 0.000540221 -0.27864975 -0.05536978 0.1009519
-0.12401239 -0.11717687 -0.08692828 -0.011318562 -0.13761057 0.099469274 0.082377985 0.04559976
-0.07273644 -0.1565309 -0.034624726 -0.035507325 -0.042045902 -0.052877367 -0.005856754 -0.09032686

network_body._body_endoder.seq_layers.2.bias f4 [128]
00000000: 0d05 29be e70e 62bd 7c22 59bd b258 a4bb
00000010: a0c7 78bd 72df 16bc 7aaa 5dbd 539a 1ebd
00000020: 25d9 0dbe a600 27bd 428b d9bd 5216 65bd
00000030: 5fec 03be 3c0e debd ea2f f1bd bdc2 22be
00000040: 3f16 5b3d e7d9 37bd ec8f 1dbd ab7f a9bd
00000050: 6109 12bd eb7b bcbc 3657 9cbd f351 86bd
00000060: ecc3 eebb 1732 e1bd a87c 1dbe a361 a6bd
00000070: cd45 02be 5cb9 98bd e4dc f23c 7554 bfbd
00000080: 8184 3a3c 4aac 99bd a4bf 0dbe fff0 b5bc
00000090: 179c 8cbd f1e6 aabd 23dc b9bd 7a54 1bbe
000000a0: 1416 75bd be6c 42be e983 abbd cf7c 05be
000000b0: f7c9 e6bd 660b 83bd 986f 10bc 314a d9bd
000000c0: 8efa 4abe bb5c dabb e039 fabc ad99 b13c
000000d0: c9df 82bb 0c85 5fbd db8f bdbd 0be5 b1bc
000000e0: 6389 2bbe d697 3dbc 7c2d efbd fb8f 91bd
000000f0: ebd7 7fbd 118a 26be ef52 01be e6e0 19be
00000100: e4f5 02bd ff48 c3bd 7d91 0abe 8ef1 84bd
00000110: 46c5 46bd 492c 01be bb36 2abe b278 c6bd
00000120: 0e71 d9bd 2c75 0f3d 61b6 2ebe 388f b6bd
00000130: bb3c 9cbc bc65 76bc 8e2a 5cbd 9238 8dbd
00000140: 22f9 73ba 2c30 6cbe 0b74 b3bd 992e a4bd
00000150: 977a acbd dd32 c5bd 6b3b 04bd b3d5 0abe
00000160: 7986 d8bd d66f bfbc 69d5 0dbe 13c0 25be
00000170: 1ad7 b1bd c4cb 30bc df38 46bd 9dee bfbd
00000180: ded2 4ebc fe0b dc3c 978d c9bd d368 fdbd
00000190: e4d9 0abe e7ae 14be db58 60bd c3f4 69bd
000001a0: b729 02bd e23c a0bd f0aa 12be a207 44bd
000001b0: 6cac 30be 1052 d9bc 8f13 3fbd 9536 e3bd
000001c0: 4a4c 64bc 560a 39bd c37d 8fbd facb 89bd
000001d0: c9e4 3fbd bf38 54bd 8bae 7e3c 99b8 90bd
000001e0: 3de8 4bbc c94b 11bd 159d d2bd 28b0 0abe
000001f0: ce58 12bd 0f9c d4bb 80c3 04be 3f24 08be
-0.16505833 -0.055189993 -0.053011402 -0.005015456 -0.060737252 -0.009208547 -0.054117657 -0.038721394
-0.13852365 -0.040772103 -0.106222644 -0.05592949 -0.12883137 -0.10842559 -0.11776717 -0.158946
0.053488012 -0.044885542 -0.038467333 -0.08276304 -0.035653476 -0.023008307 -0.07633822 -0.06558599
-0.0072865393 -0.10995882 -0.15379584 -0.081240915 -0.1272194 -0.074572295 0.029646344 -0.09342281
0.01138413 -0.07503565 -0.13842636 -0.022209642 -0.06865709 -0.0834483 -0.09075191 -0.15168944
-0.05983551 -0.18986794 -0.08374769 -0.13035892 -0.112689905 -0.063986585 -0.0088156685 -0.10609854
-0.19822142 -0.0066638864 -0.030545175 0.021679724 -0.0039939624 -0.054570243 -0.09255954 -0.021715662
-0.16751628 -0.011571845 -0.11678597 -0.0710754 -0.062461775 -0.16263606 -0.12629293 -0.15027198
-0.03197278 -0.09535407 -0.13532062 -0.064913854 -0.04852798 -0.1261455 -0.1662244 -0.096909896
-0.106172666 0.035023853 -0.1706176 -0.089140356 -0.019071927 -0.015038904 -0.05375152 -0.068955556
-0.0009306838 -0.23065251 -0.08762368 -0.080167 -0.0842182 -0.09628842 -0.032283228 -0.13558082
-0.105725236 -0.023368757 -0.13850941 -0.16186552 -0.086836055 -0.010790769 -0.04839408 -0.09371684
-0.012623517 0.026861187 -0.09841459 -0.12373509 -0.13559681 -0.14519845 -0.05477224 -0.05711819
-0.031778064 -0.078241125 -0.1432302 -0.04785884 -0.17253274 -0.026528388 -0.046649512 -0.11094395
-0.013934204 -0.045175873 -0.07006409 -0.067283586 -0.046849046 -0.05181193 0.015544544 -0.07066459
-0.012445507 -0.035472665 -0.10283867 -0.13543761 -0.035729222 -0.00648833 -0.12965202 -0.13295077

action_model._continuous_distribution.log_sigma f4 [1, 2]
00000000: 17e5 85be fb65 5abe
-0.26151344 -0.21327965

action_model._continuous_distribution.mu.weight f4 [2, 128]
00000000: 9185 5ebb 57ac 0fbd b8f9 d4bb 0802 e2bc
00000010: 78f3 6fbb 3384 66bd 917a f9bb d031 a5bc
00000020: 3c9a 2abd 5128 23bb 1de6 803c 85e6 e639
00000030: 45e9 b43b 0062 ac3c 3a5d acba 1585 61bc
00000040: b761 a63c d29f 42bd f65e b9bc a4fe 2a3d
00000050: bb32 ba3d 8d31 0ebd 4530 353d a018 dbbc
00000060: 0061 223d 4640 19bd 2a07 7cbb d9d9 e63d
00000070: f285 86bc aa3e 5a3d f14c 473d 57ba 5cbc
00000080: 8412 ac3c 2190 aa3c 5143 3dbc ff2b 00bd
00000090: 103f 4bbd 0995 7c3c c351 43bd 8823 2e3d
000000a0: c0a1 a1bc 779c ba39 2274 9cbc 3073 16bd
000000b0: f01c 133d e969 b03b 028e 11bd b0f3 173c
000000c0: 50df 88bc 6685 7b3d d716 1fbd d182 0f3c
000000d0: 8737 203c 1369 f2bb 6431 f03a 531c 273c
000000e0: a72c 99bb 98f4 0d3c 683a a8bc 91b1 52bc
000000f0: e847 80bd 3255 efbc 88bb e23c 1862 013b
00000100: 0a3c 4a3c 1c70 ce3d ef02 52bd 8160 16bd
00000110: 21e3 6d3c ca2b 2bbc d159 8abc 416c 2abc
00000120: 7873 643d 4e65 953d dc4a 7fbc 499e e1bc
00000130: ed32 53bd fb01 a1bc 6d3a 2f3d 75b6 b6bc
00000140: 9571 e43c 4ba6 2c3c 1b4a 7a3d 3af9 683d
00000150: f31e 98bd 4931 213a 6a1c 20bd e71b 0a3b
00000160: 4ec2 07bd b1ed 84bc 37be a6bc 1ecc 813c
00000170: 936a 403d 58c7 733d 340c 74bc c7e1 c1bc
00000180: 248e 1e3d 3d0e 2d3d bf88 7fbd c674 b33d
00000190: f139 d5bc 4bd5 babb 00e2 2d3b b291 95bb
000001a0: dd9b 393d 8377 523c 1ac1 b03c 6d1a 50b9
000001b0: 4c31 aabc ebda c13c 3d8a 1c3d b7c5 2fbb
000001c0: e240 e03b 9b80 3dbc 6bec c6bc 6a56 04bd
000001d0: 09fa f73c dea1 e2bc df17 d33d 6873 e3bc
000001e0: c4be f73c f4d4 29bd e98d b2bc 4f41 cb3a
000001f0: c62a 07bc e4bc 7d3c 3012 013d f3db db3b
00000200: b156 f1bc 7940 ef3b 8813 793d 3c3a 823b
00000210: 8f86 603d d255 713d 15b0 603d 5bac 923d
00000220: 6c52 253c a48a 803d 7065 b33c 213f 5d3d
00000230: 8b04 bc3c d776 4dbd 8e37 3b3d b075 18bd
00000240: 0ce1 59bd 0723 543d 462e 3c3c 0241 243d
00000250: a290 893c 8049 febc 92d1 d0bc 60f7 343d
00000260: 4950 bc3b eb5d ea3c bf10 ccbb 79cf 6dbc
00000270: 6543 293d f2c0 0b3d c8dd 363d 7671 203d
00000280: 9b92 e4bb b957 7abc 52b2 473d 2721 1c3c
00000290: d0d1 abbc 0d38 143d fc70 b03d 7916 ba3b
000002a0: d56e 633b 0433 9abb c586 283a a2f8 c73c
000002b0: c74c 8fbd 01fb 953d d40b 6bbd ef53 5d3d
000002c0: 676f 2a3c ef86 1dbb 86d4 6b3d ec1e 613c
000002d0: c3c7 313d aaf1 2c3d fe78 553d ab81 3c3d
000002e0: 42ce 2d3d b168 ebbc 5abb 813c 91b9 3c3d
000002f0: 3f09 8bbc 406d 72ba 2b33 2dbd 7955 263d
00000300: 2416 383c b4f9 5fbc 04c6 d63c e492 373d
00000310: b4da afbc 0b40 613d c3de 2ebb f729 cbbc
00000320: e536 4f3d dcb8 9a3b 6911 ad3b 7c90 0c3c
00000330: 3cca b4bc 410f 2b3a e303 fd3b 213e 8f3d
00000340: 7d40 aebc 305a 9abb 51cd b83c 906b 37bb
00000350: 5cb2 f53b fdb7 293d f5b2 1bbd 6b43 143d
00000360: 115d 793c 990a 5cbd 4bfa f3bc 1914 55bc
00000370: 762c 88bc ef08 c9bc ab81 2c3d bf8b 0fbd
00000380: ec03 833d 4a48 9ebc d767 613b ed39 063b
00000390: a9f1 563c 10aa 113b e8e0 643d ae89 bb3c
000003a0: 29ef 403d 8a91 423d db7f 13bb 6318 a8bc
000003b0: d69f ae3b 281c 333d 5d25 843c 3a6e 70bc
000003c0: 1c56 bfba f7f4 a93b 1c0f 3cbd d2fe 6e3d
000003d0: 10fb 8a3d c7ae b1bc 5d27 85bc 4565 6a3d
000003e0: 74df 14bd aa26 f33d 560c dc3b b406 833c
000003f0: 317c 703d 52c2 1fbd d8d4 38bc 1945 0aba
-0.0033954124 -0.035076465 -0.0064994954 -0.02758886 -0.0036613625 -0.05627842 -0.007613488 -0.020165354
-0.041650996 -0.0024895857 0.015734727 0.0004404077 0.005520972 0.021042824 -0.0013150342 -0.013764639
0.020310266 -0.047515698 -0.022628289 0.04174675 0.09091707 -0.034715224 0.044235487 -0.02674514
0.039643288 -0.03741481 -0.0038456419 0.1127202 -0.016421292 0.053282417 0.04865736 -0.013472161
0.021004923 0.02082068 -0.011551694 -0.031291958 -0.049620688 0.015416392 -0.047685396 0.042514354
-0.019730449 0.0003559326 -0.019098345 -0.036730945 0.03591627 0.005383719 -0.03553582 0.009274408
-0.016708046 0.061406516 -0.03884014 0.008759216 0.009778864 -0.0073977797 0.0018325266 0.010199624
-0.0046745124 0.008664273 -0.020535663 -0.012859718 -0.06263715 -0.029215429 0.027677312 0.0019742306
0.012343416 0.10079977 -0.05127233 -0.036713127 0.014519484 -0.010447452 -0.01688853 -0.010401786
0.055774182 0.07294713 -0.015581813 -0.027541297 -0.05156224 -0.019654265 0.04278033 -0.0223038
0.027886191 0.010537694 0.06110583 0.056878306 -0.07427778 0.00061490067 -0.039089598 0.002107376
-0.033144288 -0.016226621 -0.020354373 0.015844401 0.046976637 0.05951628 -0.014895488 -0.02366723
0.038709775 0.042249907 -0.06238627 0.08762507 -0.026028605 -0.005701696 0.0026532412 -0.0045644874
0.04531466 0.012845877 0.021576453 -0.0001984627 -0.02077546 0.023663959 0.03821777 -0.0026820728
0.006843672 -0.011566306 -0.024282655 -0.032308973 0.030270593 -0.027665075 0.103072874 -0.02776499
0.030242331 -0.041462854 -0.021796184 0.0015507134 -0.008249944 0.01548693 0.031511486 0.0067095696
-0.029460283 0.007301387 0.060809642 0.0039742272 0.054815825 0.058919735 0.054855425 0.071617804
0.010090452 0.062764436 0.021898955 0.054015283 0.022951385 -0.050162163 0.045707278 -0.03722161
-0.053193137 0.051791217 0.011485642 0.04010106 0.0167926 -0.031040907 -0.025490556 0.044181228
0.0057468754 0.028609237 -0.006227582 -0.014514797 0.041324038 0.034119554 0.0446451 0.039170705
-0.0069754845 -0.015279704 0.048754044 0.0095293885 -0.02097407 0.036186267 0.086153 0.0056789485
0.0034703512 -0.0047057886 0.00064287736 0.02441055 -0.06997066 0.07323266 -0.057384327 0.054035123
0.010402537 -0.0024036726 0.057575725 0.0137402825 0.0434034 0.042222656 0.05211734 0.0460221
0.04243303 -0.028736444 0.015836406 0.046075407 -0.016972182 -0.0009247847 -0.042285126 0.040608857
0.0112357475 -0.013670374 0.026217468 0.04481782 -0.02146659 0.054992717 -0.002668307 -0.024800284
0.05058946 0.004721744 0.0052816165 0.00857937 -0.02206909 0.00065254053 0.0077214106 0.06994272
-0.021270985 -0.004710458 0.02255884 -0.0027987696 0.0074980687 0.04143523 -0.038012464 0.036197107
0.015219943 -0.053721044 -0.029782435 -0.01300528 -0.016622763 -0.024540393 0.04211585 -0.03504538
0.063972324 -0.01932158 0.0034394169 0.0020481304 0.01311914 0.002222661 0.05587855 0.0228928
0.04710308 0.047502078 -0.0022506628 -0.020519441 0.0053291125 0.043728024 0.016131097 -0.014674718
-0.0014597806 0.005186673 -0.045912847 0.058348484 0.067861676 -0.021689786 -0.016254121 0.057225484
-0.036345914 0.11872609 0.0067153377 0.015994407 0.05871219 -0.039003678 -0.011281215 -0.00052745786

action_model._continuous_distribution.mu.bias f4 [2]
00000000: 4ac9 8cbc 7281 ceba
-0.017185826 -0.001575513

exp_avg f4 [128, 6]
00000000: e304 673b 3d66 0f3b ca02 473a cd19 b13a
00000010: c765 0f3b 40ee 0c3b c994 27bb 768d f3ba
00000020: 9831 77ba 56fa ceba 1c8d f3ba 0603 d4ba
00000030: f88d 54b7 e09e 54b7 79ef 23b7 5ab6 83b7
00000040: c89e 54b7 ce1a 0db7 bef5 8cb7 f3af 2438
00000050: f25c 9138 4478 dc38 48b0 2438 41a7 26b7
00000060: 9e18 8ebb 0dfa 67bb 12c4 0dbb 7e19 63bb
00000070: e0f9 67bb 5dce 35bb 5c57 9a3a c028 883a
00000080: 7df2 283a 273c 8e3a 7428 883a 9154 263a
00000090: 6883 9e36 1f17 9936 2184 3c36 ad92 ee36
000000a0: 6714 9936 5c7a 1835 68b9 d0ba d10f 95ba
000000b0: 265b 13ba 2c98 68ba f60e 95ba 7e46 5aba
000000c0: a723 d5b9 5bd2 a2b9 1384 31b9 4831 91b9
000000d0: ded1 a2b9 5a1f 72b9 1918 3e39 3896 8839
000000e0: dfca 8239 bc1a b839 0296 8839 2c84 c538
000000f0: 24c5 9fb9 da2c 6cba 02f1 87ba 3792 e8ba
00000100: 322e 6cba 6649 94b9 3c31 8eb8 502b f9b7
00000110: 706a fd37 98a2 bb38 a024 f9b7 b428 0a38
00000120: 4067 0935 7e5e b6b6 5182 06b7 9c91 59b7
00000130: 9f5f b6b6 a0d2 0fb4 d259 3437 f92a d536
00000140: b847 3635 203d f235 862a d536 c111 c036
00000150: 78aa ce36 e2dc 4d37 4e67 5537 c0c3 9937
00000160: 78db 4d37 7841 3a36 bf88 06b7 2839 e0b6
00000170: 836d 90b6 7670 e6b6 6638 e0b6 f781 9ab6
00000180: 945f deb9 e0b7 a738 5884 c239 5a1a 1d3a
00000190: 80bb a738 99b0 a1b9 abac b7b3 4f27 00b3
000001a0: fc9a 9cb3 cbcf a2b3 e724 00b3 8e82 adb3
000001b0: 7e63 7fb8 5f55 8fb8 106d 62b8 6c34 c0b8
000001c0: 6b55 8fb8 000e 1ab8 7a6a 2f39 39f9 3039
000001d0: 612d 0539 3ad4 5e39 44f9 3039 5ad9 ed38
000001e0: 3c74 93ba b5bb 35ba f0fa 86b9 b462 b9b9
000001f0: 51ba 35ba 5a46 16ba 4e46 36b7 f8c5 a335
00000200: 50a6 0e37 450f 8237 d8db a335 280d 63b6
00000210: b6e4 e039 8360 173a a7da 013a 89e7 5d3a
00000220: a260 173a cc9e 7639 cacf 05b9 5cfc 9cb8
00000230: c084 f5b7 6815 4eb8 b0fc 9cb8 b81d 90b8
00000240: 9fd6 c43b 4b09 9f3b e08e 3b3b 4b85 9b3b
00000250: 2609 9f3b 2b36 763b bdb5 053b b296 a13a
00000260: b95f e139 1443 303a 2296 a13a 5298 953a
00000270: a032 7cb9 b11e 4bb9 4c3b dfb8 53d3 46b9
00000280: 3c1f 4bb9 02fb 2db9 aef1 69bb 6a30 34bb
00000290: e480 daba f6c4 23bb 1230 34bb 0639 12bb
000002a0: e811 123a 7142 a239 688c 9838 64ec 2239
000002b0: 2f42 a239 62eb b339 f70f e63a c487 c13a
000002c0: 6881 6b3a ec78 cd3a d087 c13a c31d 993a
000002d0: 8a49 95b8 d32c 74b8 c048 12b8 5f52 71b8
000002e0: 9c2c 74b8 8f32 3eb8 703f 3cbb dfb7 0abb
000002f0: c6f5 95ba ccbb ebba 9bb7 0abb d288 eaba
00000300: 7ee8 a0b9 858e 42b9 6d4e 7fb8 20b4 d8b8
00000310: c78d 42b9 3d18 41b9 0450 24b9 d24d 86b9
00000320: 424a a4b9 2af7 bfb9 e24d 86b9 98b8 a3b8
00000330: aaba c8b9 2abe 0bba 4444 fab9 c942 5eba
00000340: 9ebe 0bba c56b 95b9 008f b4b5 14b4 9fb8
00000350: 54e9 e5b8 9273 34b9 7ab2 9fb8 5229 1e38
00000360: 5e01 81b9 6c25 1cb8 0ec0 ac38 767d 3439
00000370: 5420 1cb8 7ad1 35b9 a2e1 ca3a 6e3c 033b
00000380: 940b f03a fb7d 3b3b 963c 033b 041e 813a
00000390: 0416 5239 c09e 4cb7 c4a0 2eb9 f895 6eb9
000003a0: 00bc 4cb7 30cc e038 f7bc b4ba 8f6a dcba
000003b0: 5590 beba 61e1 1bbb ef6a dcba 1151 6fba
000003c0: 103c 9437 88ce 7837 5877 0637 f8b0 0e37
000003d0: b0ce 7837 6ace 6337 3b83 77bb 1512 3ebb
000003e0: 821c d4ba e424 2cbb c211 3ebb 9944 18bb
000003f0: 540b 05b7 de44 7bb7 e37c 88b7 6211 d6b7
0.0035250715 0.0021881007 0.0007591663 0.0013511718 0.0021880732 0.0021504313 -0.002557086 -0.0018581587
-0.0009429692 -0.0015791159 -0.0018581483 -0.0016175217 -1.2669239e-05 -1.2673176e-05 -9.771314e-06 -1.5701331e-05
-1.2673154e-05 -8.410496e-06 -1.6803733e-05 3.9264512e-05 6.931451e-05 0.00010512819 3.926482e-05 -9.933313e-06
-0.0043364307 -0.0035396845 -0.002163176 -0.0034652646 -0.003539674 -0.002774141 0.0011775303 0.0010388121
0.0006444825 0.0010851667 0.0010388033 0.0006344999 4.7240646e-06 4.562447e-06 2.8091092e-06 7.110028e-06
4.5621305e-06 5.680247e-07 -0.0015924396 -0.0011372512 -0.0005621187 -0.0008872773 -0.0011372257 -0.0008326544
-0.0004065309 -0.00031055775 -0.00016929237 -0.00027693273 -0.0003105541 -0.00023090598 0.00018128789 0.00026051863
0.00024946683 0.00035115134 0.00026051706 9.418311e-05 -0.00030473724 -0.0009009369 -0.0010371509 -0.0017743771
-0.0009009569 -0.00028283446 -6.780258e-05 -2.9703282e-05 3.0209514e-05 8.94714e-05 -2.9700168e-05 3.293967e-05
5.1186726e-07 -5.435023e-06 -8.017364e-06 -1.296811e-05 -5.4351544e-06 -1.3394538e-07 1.0749749e-05 6.3528973e-06
6.790465e-07 1.8048195e-06 6.352845e-06 5.7241127e-06 6.1591236e-06 1.22703805e-05 1.2719842e-05 1.8330174e-05
1.2270051e-05 2.7754268e-06 -8.018861e-06 -6.682374e-06 -4.3042833e-06 -6.8676263e-06 -6.682286e-06 -4.6046875e-06
-0.0004241435 7.99743e-05 0.00037101167 0.00059930014 7.998105e-05 -0.00030839888 -8.55301e-08 -2.9838073e-08
-7.2925076e-08 -7.58151e-08 -2.9835885e-08 -8.079688e-08 -6.0889397e-05 -6.834673e-05 -5.398417e-05 -9.165038e-05
-6.834682e-05 -3.67295e-05 0.00016728966 0.0001687751 0.00012700773 0.0002125063 0.00016877527 0.000113415255
-0.001124985 -0.00069325726 -0.00025745435 -0.0003535949 -0.00069323654 -0.0005732529 -1.0864414e-05 1.2202063e-06
8.502582e-06 1.5504318e-05 1.2208429e-06 -3.3833294e-06 0.00042895012 0.0005774574 0.0004953541 0.00084649824
0.0005774592 0.00023519545 -0.00012761276 -7.485665e-05 -2.9268092e-05 -4.9134163e-05 -7.4857264e-05 -6.8719906e-05
0.00600703 0.0048534027 0.0028619096 0.0047461144 0.0048533855 0.0037568908 0.0020402514 0.0012328236
0.00042986663 0.00067238626 0.0012328068 0.0011413193 -0.00024051452 -0.00019371022 -0.000106445135 -0.00018961476
-0.00019371224 -0.00016592073 -0.003569703 -0.0027494677 -0.0016670492 -0.0024989224 -0.0027494472 -0.002231182
0.0005572126 0.0003094855 7.2740775e-05 0.00015537586 0.00030948358 0.00034316914 0.0017552365 0.0014765193
0.00089838216 0.0015676296 0.0014765207 0.0011681843 -7.1185714e-05 -5.821588e-05 -3.4876866e-05 -5.753559e-05
-5.821568e-05 -4.5346616e-05 -0.0028724335 -0.0021166725 -0.0011441044 -0.0017985045 -0.0021166566 -0.0017893559
-0.00030690798 -0.00018554374 -6.0869777e-05 -0.000103332335 -0.00018554098 -0.00018414944 -0.00015670067 -0.00025616452
-0.00031335844 -0.0003661451 -0.000256165 -7.806829e-05 -0.00038286048 -0.0005330766 -0.00047734578 -0.00084785797
-0.00053308334 -0.0002849979 -1.3452664e-06 -7.615253e-05 -0.00010963032 -0.00017209191 -7.614955e-05 3.7708618e-05
-0.00024605816 -3.722815e-05 8.237372e-05 0.00017212876 -3.7223406e-05 -0.00017339541 0.0015478621 0.0020025033
0.0018313997 0.0028609026 0.0020025126 0.0009850864 0.00020035362 -1.2196309e-05 -0.00016653823 -0.00022753316
-1.220312e-05 0.00010719185 -0.0013789226 -0.0016816425 -0.0014538864 -0.002378546 -0.0016816537 -0.00091292063
1.7670944e-05 1.4830039e-05 8.014809e-06 8.505063e-06 1.4830075e-05 1.3578314e-05 -0.0037767428 -0.0029002477
-0.0016182812 -0.0026267106 -0.0029002284 -0.0023234247 -7.930055e-06 -1.49768e-05 -1.6270618e-05 -2.5518882e-05

exp_avg_sq f4 [128, 6]
00000000: 196b f439 1198 8a39 7c60 a638 5931 c639
00000010: 3996 8a39 dd59 9139 4201 9b39 e0ab 6d39
00000020: b066 0738 2e8d f939 7ba1 6d39 75e6 e739
00000030: 87d5 1f34 621c 5835 5c89 1735 7002 c134
00000040: 0b1b 5835 275a 8035 cd8e cf35 90bd e136
00000050: 8cd2 5237 ee15 7b35 78bd e136 887d 7336
00000060: a864 eb38 1564 fa38 4963 6438 0068 4239
00000070: 785b fa38 78cc 1238 144c bb38 de22 9438
00000080: 020d e337 1fd1 0e39 aa18 9438 d5ac 5838
00000090: 77e1 7b35 88fd 0437 7202 5437 75e5 4237
000000a0: 66fd 0437 79e8 e236 41b7 5039 d529 2239
000000b0: 1e14 7238 c2e9 1e39 6427 2239 e2fc 3438
000000c0: 8094 0037 2d25 5f36 42aa 1236 dd75 0c36
000000d0: b81e 5f36 de1b 2635 0b6a 8937 196f b037
000000e0: e643 0d37 57cd 3c38 ad6c b037 b648 5937
000000f0: f3e0 b639 e7f1 4a39 8e03 0739 0c0e 6939
00000100: 98ee 4a39 bd6a df37 d638 1338 58f2 3c38
00000110: 2671 b837 2270 0438 a6ee 3c38 cf67 f237
00000120: 330b ec33 27e2 0a35 0915 d034 a137 2e34
00000130: 8be1 0a35 c21a dc34 c37e bf33 2ee8 b035
00000140: f59e 4b35 3f17 4434 07e8 b035 7274 fa35
00000150: f028 4935 dc50 1637 3cc3 4c37 5302 ac35
00000160: dd50 1637 3c3c 1437 026f c832 61ca fa33
00000170: 0144 fa33 bb66 d332 70c9 fa33 49a2 ed33
00000180: 1d82 1438 50d2 3338 157e 1138 f46d a438
00000190: 99d2 3338 646d 0838 6dd7 2132 8044 1634
000001a0: 8265 8233 f845 cf31 8244 1634 9ee6 db34
000001b0: c1f1 ec34 45d2 f634 d17b 0a35 8617 1d34
000001c0: 35cd f634 2734 a534 551b c435 6651 2e37
000001d0: 77d2 6037 b9bf 9a37 2451 2e37 f0b2 cf36
000001e0: 584e 2339 2808 8539 868b b438 702b be39
000001f0: 3207 8539 c65b 1239 7b9c e637 50d4 4537
00000200: 227f 5337 b80c bf37 3bca 4537 cb13 e636
00000210: 6b43 6738 c961 9538 d6f1 8b37 b1f9 0f39
00000220: 365e 9538 b7b5 ba38 5afe d537 9ddf e038
00000230: ce5f 6738 ab60 7339 f3dd e038 66c8 8038
00000240: c6fa fc39 d159 fe39 7ce0 9339 0a3c 743a
00000250: 9456 fe39 95a8 ed39 ac4e 1839 5ebb 9b38
00000260: eec9 e337 aaef 2a38 a7b8 9b38 dffc e637
00000270: b479 4a37 6087 8136 6a4a 5c36 8287 7e35
00000280: ef85 8136 3d9d 9735 8a3f 5039 068b 3939
00000290: e453 af38 f3b8 7939 e588 3939 a2b0 a638
000002a0: 6c1a 4038 c9bf a938 31ca c037 b48f 1139
000002b0: eebd a938 fb99 5938 180f 0338 ce92 3638
000002c0: 96aa c737 1eb5 c038 c18a 3638 bb29 ed37
000002d0: 75a0 a333 f3a9 1734 9ed1 d933 c747 6933
000002e0: 61a9 1734 b907 3f34 630d a838 d8e9 1f39
000002f0: c360 7d38 dc12 c139 dfe9 1f39 47a8 ec38
00000300: 1e1a 2b36 677f 5536 cb4a 7735 018b 4137
00000310: 4178 5536 e981 9236 4376 8037 1361 1538
00000320: 638b ad37 f4d3 c938 0a61 1538 4391 ae37
00000330: d590 0a39 ff98 e238 1f03 3638 4d00 7039
00000340: 4386 e238 f677 fb38 69e0 4b38 7a87 1e38
00000350: 2555 a437 7881 8e38 887e 1e38 c4de a037
00000360: e42d 3738 241c 9038 87c2 0c38 e736 7738
00000370: e819 9038 382d 7738 e761 d838 29e7 ad38
00000380: da55 1238 2ee2 0039 0fdf ad38 59fe 8738
00000390: 904d 0839 844c 0339 dd12 e638 2282 4039
000003a0: 9846 0339 cb0a 8838 f059 4638 64a5 f338
000003b0: bf98 b238 b1a8 3d39 bba4 f338 d2c1 9638
000003c0: d8e2 a735 3c25 3837 203f 3a37 23c6 4137
000003d0: 2725 3837 af4a 4e37 c57f 0d39 186b a138
000003e0: 5db8 1938 a64e 9138 2366 a138 eb11 e837
000003f0: ced9 2b33 bd98 e934 30c7 6334 354b 3e35
0.000466191 0.0002643471 7.9334684e-05 0.0003780227 0.00026433336 0.00027723509 0.0002956484 0.0002266611
3.2282143e-05 0.00047598168 0.00022662237 0.00044231457 1.488571e-07 8.0507573e-07 5.645177e-07 3.5950825e-07
8.0505623e-07 9.562981e-07 1.5464262e-06 6.7275905e-06 1.2565997e-05 9.35367e-07 6.7275796e-06 3.628289e-06
0.00011224422 0.00011939571 5.4451903e-05 0.00018540025 0.00011937966 3.499954e-05 8.9310255e-05 7.0636845e-05
2.7066566e-05 0.00013620079 7.061784e-05 5.1659375e-05 9.383288e-07 7.926843e-06 1.2636754e-05 1.1616726e-05
7.926812e-06 6.7623882e-06 0.00019904693 0.00015465108 5.771603e-05 0.00015155136 0.00015464198 4.315086e-05
7.66397e-06 3.3251229e-06 2.1854798e-06 2.093023e-06 3.324747e-06 6.188037e-07 1.6381053e-05 2.1032569e-05
8.420064e-06 4.501393e-05 2.1031441e-05 1.2951137e-05 0.00034881345 0.00019354337 0.00012875927 0.00022225844
0.00019353104 2.6633375e-05 3.5100464e-05 4.5048393e-05 2.1987198e-05 3.1575684e-05 4.504495e-05 2.8896988e-05
1.09916435e-07 5.17381e-07 3.8758324e-07 1.622525e-07 5.1737214e-07 4.0997662e-07 8.9171884e-08 1.3180595e-06
7.5854706e-07 1.826238e-07 1.3180551e-06 1.8660342e-06 7.4937907e-07 8.959523e-06 1.2204804e-05 1.2815675e-06
8.959524e-06 8.835512e-06 2.3333545e-08 1.1678345e-07 1.1653902e-07 2.461035e-08 1.16781735e-07 1.1065692e-07
3.5407127e-05 4.2872794e-05 3.4688117e-05 7.84061e-05 4.287306e-05 3.2526805e-05 9.420416e-09 1.3994759e-07
6.072061e-08 6.0324474e-09 1.3994762e-07 4.0959725e-07 4.4134325e-07 4.5974062e-07 5.158918e-07 1.4630322e-07
4.5970378e-07 3.077159e-07 1.4611093e-06 1.039016e-05 1.3400443e-05 1.8447508e-05 1.03901e-05 6.189912e-06
0.00015574077 0.00025373814 8.609057e-05 0.00036271987 0.00025373098 0.00013957833 2.7491003e-05 1.1791548e-05
1.26061805e-05 2.2774897e-05 1.17892005e-05 6.8568384e-06 5.513748e-05 7.1230876e-05 1.6682705e-05 0.0001373056
7.122422e-05 8.903018e-05 2.551002e-05 0.000107228036 5.5163917e-05 0.00023210298 0.000107224936 6.140843e-05
0.00048252026 0.00048513574 0.0002820528 0.0009316808 0.0004851116 0.00045329766 0.00014525157 7.425876e-05
2.715454e-05 4.0754363e-05 7.42537e-05 2.7535889e-05 1.20684745e-05 3.8602593e-06 3.282587e-06 9.4819563e-07
3.8600915e-06 1.1296139e-06 0.00019860096 0.00017694765 8.360276e-05 0.0002381539 0.00017693972 7.948397e-05
4.5800974e-05 8.094271e-05 2.2982336e-05 0.00013881811 8.093925e-05 5.1880237e-05 3.124689e-05 4.3528904e-05
2.3802084e-05 9.189009e-05 4.3521406e-05 2.8272034e-05 7.619466e-08 1.4124798e-07 1.0142979e-07 5.431482e-08
1.412459e-07 1.779107e-07 8.013358e-05 0.00015250535 6.0410017e-05 0.0003682588 0.00015250545 0.00011284701
2.5496188e-06 3.1813631e-06 9.212351e-07 1.1536061e-05 3.180947e-06 4.3662626e-06 1.5313859e-05 3.5614776e-05
2.0688114e-05 9.623906e-05 3.5614743e-05 2.081006e-05 0.0001321466 0.000108050175 4.3395088e-05 0.00022888296
0.00010801528 0.00011990957 4.860797e-05 3.7796308e-05 1.9589972e-05 6.795203e-05 3.7787977e-05 1.917722e-05
4.367334e-05 6.871697e-05 3.355977e-05 5.894052e-05 6.8712805e-05 5.8931502e-05 0.00010317918 8.29234e-05
3.4889068e-05 0.0001229129 8.290831e-05 6.4846776e-05 0.00012998865 0.00012521638 0.00010970768 0.00018359025
0.00012519432 6.486996e-05 4.729064e-05 0.00011617949 8.5161526e-05 0.00018087287 0.000116178264 7.188659e-05
1.250849e-06 1.0975924e-05 1.1101161e-05 1.1549829e-05 1.0975905e-05 1.2295945e-05 0.00013494406 7.697026e-05
3.6649744e-05 6.928788e-05 7.696103e-05 2.7664899e-05 4.0012132e-08 4.3510764e-07 2.1213486e-07 7.0889956e-07

exp_avg f4 [128]
00000000: 8b58 103a 8429 f5b9 9108 56b6 66ce 2537
00000010: d882 69ba f00f 8939 6465 9a35 810c 96b9
00000020: 16e5 a3b8 1c7e 8938 06be 6db9 b0c7 fab6
00000030: fa8d b7b5 33a3 d635 1af8 4e36 20a5 e1b5
00000040: 90d3 a837 4cb2 ffb1 bd47 90b7 5228 3238
00000050: 1bf1 36b9 88c4 a434 fb60 1839 70f5 9db7
00000060: a216 a03a 22a8 a239 5477 4cb8 b861 35ba
00000070: fd56 a338 54cf c239 c3ca 75b7 fca2 0bba
00000080: bbd6 43b8 0833 87b8 dbac 0cb9 bac1 a0b7
00000090: 083e 1db7 3b1b 043a 801d 4eb6 4dde ddb9
000000a0: 5c67 7a36 b653 3fba f4db 7cb6 535d 9738
000000b0: a525 253a 704b 0aba 32d2 dab9 ea3a 1ab9
000000c0: e861 3cba a46c f3b7 bae5 a0b6 8321 e939
000000d0: 30cf 1738 eaf9 14b9 05cd ba38 6f97 feb8
000000e0: 80c6 2238 04f6 4935 6715 5cba f8c5 1fba
000000f0: 2658 6ab9 d989 2fb7 290e 49ba 081b 47b4
00000100: d051 deb7 99dd cbb4 76ea ceb9 c8b3 b0b8
00000110: 4517 fb39 5ba9 e636 dcb6 ab37 dc59 bc38
00000120: be76 4b3a 2a21 23b8 1148 ea37 53d7 ee39
00000130: bac5 49b7 8bb7 2537 b532 6db7 de07 553a
00000140: dd64 d3b5 28f0 09ba 7848 0e38 fa2b 5c3a
00000150: f284 d3b9 5dba 76b6 f2f3 90b9 bc89 11b8
00000160: d013 70ba bf78 43b5 3267 10ba b6d5 1cb8
00000170: 454c 0435 cc04 a1b9 e46e 92b4 a3ee 1ab9
00000180: 5a9c 47b9 4c6a b8b5 a666 063a 194e a636
00000190: 76b8 21b8 71af 0bba bc9e 8ab7 c6c0 4eb8
000001a0: 0ea2 7db8 d4cd d9b8 b0ef 36b9 2982 9fb9
000001b0: d0cf acb5 3b5b 33ba e82f 40ba 78b7 2038
000001c0: bc06 a238 41ff 21b9 061e 20ba 1591 1db9
000001d0: 18a0 d6b8 a4bd d6b9 f68c 9d37 7bae 00b9
000001e0: ea04 23b8 13c4 8039 e587 ab36 001e bab4
000001f0: 443a 4538 e461 b238 e31c 5bba 9d6d d6b9
0.0005506358 -0.00046760973 -3.1893471e-06 9.882822e-06 -0.0008907742 0.0002614255 1.1503403e-06 -0.00028619546
-7.815116e-05 6.556159e-05 -0.0002267287 -7.4738273e-06 -1.3675883e-06 1.599174e-06 3.0840806e-06 -1.6811864e-06
2.0125677e-05 -7.4417468e-09 -1.7199543e-05 4.247606e-05 -0.00017446691 3.0690376e-07 0.00014531978 -1.883015e-05
0.0012213776 0.00031024317 -4.8748523e-05 -0.0006919163 7.7886485e-05 0.00037157035 -1.4650347e-05 -0.0005326716
-4.6691606e-05 -6.446807e-05 -0.00013415834 -1.9163697e-05 -9.372372e-06 0.0005039458 -3.0713563e-06 -0.00042318032
3.7313066e-06 -0.00072985457 -3.7678956e-06 7.217624e-05 0.000629986 -0.0005275523 -0.00041736808 -0.00014708532
-0.000718622 -2.9018447e-05 -4.7951153e-06 0.0004446619 3.6194164e-05 -0.0001420748 8.907359e-05 -0.000121398705
3.8808677e-05 7.5236335e-07 -0.0008395523 -0.00060948683 -0.00022348817 -1.0462908e-05 -0.00076696515 -1.8543153e-07
-2.650256e-05 -3.797293e-07 -0.0003946607 -8.425821e-05 0.00047891788 6.8742497e-06 2.0469939e-05 8.981276e-05
0.00077615294 -3.8893115e-05 2.7928532e-05 0.00045555327 -1.202657e-05 9.877501e-06 -1.4138107e-05 0.00081264775
-1.575008e-06 -0.00052619213 3.392293e-05 0.0008398887 -0.00040344108 -3.6765334e-06 -0.00027647574 -3.469897e-05
-0.0009158226 -7.281887e-07 -0.00055085414 -3.7392332e-05 4.928482e-07 -0.00030711887 -2.7275303e-07 -0.00014775484
-0.00019036364 -1.3740005e-06 0.000512699 4.9562773e-06 -3.8557184e-05 -0.0005328572 -1.6524798e-05 -4.929376e-05
-6.0470826e-05 -0.00010385705 -0.00017446163 -0.0003042382 -1.287548e-06 -0.00068419025 -0.00073313573 3.831784e-05
7.726016e-05 -0.00015449246 -0.00061079895 -0.00015026734 -0.00010234135 -0.00040958554 1.8781499e-05 -0.0001227203
-3.8866805e-05 0.0002456015 5.1120173e-06 -3.4667028e-07 4.7022724e-05 8.505935e-05 -0.00083584915 -0.0004089893

exp_avg_sq f4 [128]
00000000: 0bf4 8b37 3563 6f37 c284 5a33 a191 e334
00000010: 718e fd36 d5a3 9536 a31b 0635 9539 2437
00000020: c9be 6134 dd9b b235 ab8b 4d37 3059 3f36
00000030: 40a2 0c33 d959 b233 60cb 1735 a92b fd31
00000040: 93e3 3536 1ec3 1432 46ce f932 61f9 2c35
00000050: e6a7 8637 fb3b 4835 8cdc 9636 3a75 e336
00000060: 6475 0038 b1a6 9d36 8edf 8234 5dcd 3b37
00000070: 7cc2 ab36 d360 3836 7fb2 1832 1ed4 2137
00000080: b60d 5834 dcdc 1636 6d38 e436 713f 2036
00000090: e1d0 9136 13c2 af36 c1d0 0437 c8c6 f436
000000a0: 222c 3a35 7b5f a336 34b1 ea32 af94 1735
000000b0: 3969 8336 0b5b 0936 f452 a836 734b 5e36
000000c0: fa01 5437 77f3 c832 95ba 3836 2be1 d436
000000d0: a730 1a34 33ce 1d37 0dae b636 3bff 5e35
000000e0: 950a 1435 d395 5e35 f93e 3a37 c54a 5b37
000000f0: 6bea 4237 f86c eb34 e009 4336 bcf2 d734
00000100: 2497 5036 2b36 2f32 5419 2e37 b23f e235
00000110: aafa 1a37 cd4d f732 a897 a835 51c1 5f36
00000120: b8ea 1837 bd17 ab35 2cf7 0735 06f6 af36
00000130: 46ef d735 8f71 2534 c920 2b32 5ee6 6636
00000140: 0b3b a030 e53b 9236 2f65 3e36 d591 1f36
00000150: d0d3 5437 bce6 7630 5d2c 0a37 a337 6633
00000160: f9ba 0d37 7264 7432 779c e937 f5b0 3b34
00000170: ec78 b531 3672 7636 e358 8131 ce33 2337
00000180: 6eca 2c37 b49d 9b31 758e 2736 d570 9533
00000190: a328 db35 1432 af36 73b5 1036 c4f2 6636
000001a0: 16a4 2e35 b94c 8634 0879 3337 4723 bc37
000001b0: 3442 9833 a8e4 9d37 9c24 8936 73da 3336
000001c0: 4813 8236 1d68 7337 e498 4337 8601 ac36
000001d0: c044 2937 053b e736 5c3b 3d35 9e8a 2835
000001e0: 3652 e835 712b c636 76f9 bd34 a13d 4d36
000001f0: d8bd 0e36 3baa d337 072d 1537 7a19 0837
1.6683733e-05 1.42686085e-05 5.0877823e-08 4.2388004e-07 7.55657e-06 4.4596186e-06 4.9959107e-07 9.788569e-06
2.1024165e-07 1.3307396e-06 1.2251471e-05 2.8513132e-06 3.2743856e-08 8.305114e-08 5.6547833e-07 7.3682327e-09
2.7103567e-06 8.659098e-09 2.9081217e-08 6.443789e-07 1.6052229e-05 7.459309e-07 4.4960234e-06 6.778774e-06
3.0626907e-05 4.69837e-06 2.4377044e-07 1.1193883e-05 5.118838e-06 2.7474496e-06 8.88815e-09 9.645735e-06
2.0121556e-07 2.24803e-06 6.8014983e-06 2.3878786e-06 4.3456535e-06 5.2379996e-06 7.916417e-06 7.294908e-06
6.935462e-07 4.868894e-06 2.7321768e-08 5.6468247e-07 3.9163538e-06 2.0467585e-06 5.016447e-06 3.3124495e-06
1.2636645e-05 2.339378e-08 2.7526742e-06 6.3443053e-06 1.4360067e-07 9.405939e-06 5.444285e-06 8.3072854e-07
5.5149695e-07 8.291947e-07 1.1101126e-05 1.3070826e-05 1.1617881e-05 4.3851446e-07 2.9063012e-06 4.0223483e-07
3.108239e-06 1.0198657e-08 1.0377105e-05 1.685685e-06 9.237478e-06 2.8789964e-08 1.2561113e-06 3.3342114e-06
9.114556e-06 1.2747402e-06 5.06511e-07 5.2440473e-06 1.6088386e-06 1.5408135e-07 9.9609645e-09 3.4406762e-06
1.1658313e-09 4.3581117e-06 2.8371103e-06 2.3777732e-06 1.2685501e-05 8.982217e-10 8.23577e-06 5.360165e-08
8.447788e-06 1.4225508e-08 2.7848624e-05 1.7480109e-07 5.2815405e-09 3.6723336e-06 3.7644994e-09 9.727619e-06
1.0299131e-05 4.5290225e-09 2.496786e-06 6.958877e-08 1.6328598e-06 5.2212363e-06 2.156329e-06 3.441398e-06
6.505883e-07 2.5015268e-07 1.0697411e-05 2.2427774e-05 7.090094e-08 1.8822335e-05 4.08718e-06 2.6800233e-06
3.8765465e-06 1.4508169e-05 1.1658503e-05 5.126177e-06 1.0089192e-05 6.8912072e-06 7.0494366e-07 6.278659e-07
1.7309274e-06 5.905917e-06 3.53855e-07 3.0583253e-06 2.1270153e-06 2.523243e-05 8.891576e-06 8.112163e-06
