MachineLearning/results/testSumo12/MoveTOGoal/MoveTOGoal-500082.pt (torch, 441819 bytes, 36 tensors)

network_body._body_endoder.seq_layers.0.weight f4 [128, 6]
000000 50 8b 2b 3e a6 b5 03 be 76 75 cb 3e c9 8b 91 3e
       0.16752362 -0.12862262 0.39738053 0.2842696
000010 33 00 cf bc 38 06 a9 3e 23 e0 22 3e 2c ce 56 3c
       -0.02526865 0.33012557 0.15905814 0.013110679
000020 89 46 13 3f b5 6f bf 3e 1f b4 30 3d 22 d8 91 bd
       0.57529503 0.37389913 0.043140527 -0.07121302
000030 72 6e 11 bf 7a 4f cf be 5d 1d 52 bf 39 62 42 3e
       -0.5680915 -0.40490323 -0.82076055 0.18982781
000040 99 76 c0 3d 3c f7 43 3f 11 12 37 bd 91 d6 92 3e
       0.09397621 0.76549125 -0.044694964 0.28679326
000050 6f 2a a2 3a 81 ae 2e bf 0d 77 03 be 85 d0 c0 be
       0.0012372265 -0.6823502 -0.12838383 -0.37659088
000060 48 e7 93 3c 6b a4 c3 3c b3 47 23 bf 38 fd 0d 3f
       0.01805462 0.023882112 -0.6378128 0.55464506
000070 8e ab 80 be cc 40 c9 bc ef 66 b3 bd 7b 86 d4 3e
       -0.25130886 -0.02456703 -0.087598674 0.4150885
000080 5d d6 1d be 68 77 92 bd fe f5 bc 3e 82 20 28 be
       -0.15413804 -0.07151681 0.36906427 -0.16418651
000090 d8 e4 d5 be f3 4e b7 3e db ac de 3e 3b 44 70 be
       -0.41776156 0.3580242 0.43491253 -0.23463528
0000a0 e4 61 f9 bd 23 84 b5 be 8b b2 02 3e d4 c3 20 3d
       -0.12176874 -0.35452375 0.12763421 0.039249256
0000b0 d4 05 33 bf f5 dc 59 3e 9a d8 81 3e 67 82 31 bf
       -0.6993077 0.21275695 0.25360566 -0.69339603
0000c0 4f 33 c4 3e 4a 54 35 bc 81 8d 1b bf 8e 3f 8b be
       0.38320395 -0.011067459 -0.6076279 -0.27196926
0000d0 bf 76 c9 be c6 b3 91 be f5 80 cf be 1c 6b 60 3e
       -0.3934841 -0.2845747 -0.40528074 0.21915859
0000e0 9f 89 44 3f bc 7a f8 3c 7e c0 bc 3e 3d 83 1c bf
       0.76772493 0.030331962 0.3686561 -0.61137754
0000f0 28 cf 89 be 0e b1 ab bc 4d 1a 39 bd 41 86 99 3e
       -0.2691586 -0.02095845 -0.045191098 0.2998524
000100 7c da 36 be 32 87 b1 be f6 59 55 3f 01 a3 07 3e
       -0.17856783 -0.34673458 0.83340394 0.13245775
000110 ef 5c a2 be 4b b1 96 3d 32 2c 32 bf 78 5f 84 3e
       -0.31711528 0.07358035 -0.69598687 0.25854087
000120 e6 ff 9e bd 7f ae dc be bf 5f 0e bf 01 95 92 be
       -0.077636525 -0.4310188 -0.55614847 -0.28629306
000130 63 01 b1 be 5a 5b 8e 3d 4d 2a 12 bf 74 fb e1 be
       -0.3457137 0.06951018 -0.57095796 -0.44137156
000140 69 f1 ec be 17 2e dd be 23 17 90 3e 5a 94 60 3e
       -0.4627793 -0.43199226 0.28142652 0.21931592
000150 c4 fe 15 bf 6f 91 31 3d 28 2a 31 bd f6 c3 13 bf
       -0.58591866 0.043351587 -0.043253094 -0.5772089
000160 f6 f9 10 bd c4 19 b9 be 44 60 e3 be 94 d8 0b bf
       -0.03539463 -0.3615247 -0.44409382 -0.54627347
000170 6b 91 bf be ee 2b 1d bf 9a bd 35 3e 5f da 25 bd
       -0.37415633 -0.61395156 0.17748109 -0.040491458
000180 f4 04 36 bd a9 b8 f4 bd 78 75 63 3e 16 ce 2c 3e
       -0.044438317 -0.11949284 0.2221278 0.1687549
000190 d5 e3 b9 bc 22 3b 84 3e dd 0b 99 bf 7b ec 35 bf
       -0.022691647 0.25826365 -1.1956745 -0.71063966
0001a0 a3 a1 13 be 8d 90 9f bf f5 ae a9 3e 25 f7 9f 3d
       -0.14417128 -1.2465988 0.33141294 0.07810811
0001b0 24 49 0d 3e 8d 18 05 be 70 ce 9a 3e c7 21 c3 be
       0.13797432 -0.12997647 0.30235624 -0.38111708
0001c0 3f f8 bf be b4 b2 f2 bd 25 d3 2e bf 9e 34 ee bd
       -0.37494084 -0.11850491 -0.6829093 -0.1163113
0001d0 e7 42 e8 3e a9 57 b8 bd a1 0c 0a 3e 6e e2 2c be
       0.45363542 -0.09001095 0.1348138 -0.16883251
0001e0 a2 2a 44 3f b9 e9 dc bc 2c 5c a9 be 46 ab 8f 3e
       0.7662755 -0.026966916 -0.33078134 0.2806036
0001f0 8f 76 e4 bd 62 5c 8c be ed 2a 2a 3e 95 45 e5 be
       -0.11155426 -0.27414232 0.16617937 -0.4477965
000200 39 35 5a bf c3 5c e7 3e 21 04 a6 be 34 74 dc be
       -0.8523746 0.4518796 -0.32425025 -0.43057406
000210 63 e1 63 be 95 ed a6 3e 3d ce 94 be 3a e6 dd 3e
       -0.22253947 0.32603136 -0.29063597 0.4333971
000220 d2 16 3b bf 63 bc c6 3e b3 c7 09 bf af 65 7d be
       -0.73081696 0.38815603 -0.5382034 -0.2474582
000230 b2 d0 91 3d 3d 06 97 3e 0b 16 d2 3e 2d 3b 8b be
       0.071198836 0.29496947 0.41032442 -0.27193585
000240 02 fa 32 3f c4 7b ba bd 25 7b d5 3e c8 c3 7a 3e
       0.6991273 -0.09105638 0.41695514 0.24488747
000250 bc bc 99 be b1 83 8f bd c1 ca b4 3e 43 c9 92 be
       -0.30026805 -0.0700754 0.3531094 -0.28669176
000260 e9 21 18 be 13 6c 3a bf 3d 0b 21 3f c1 c4 09 3f
       -0.14856686 -0.7282116 0.62907773 0.5381585
000270 99 93 e8 3e 46 5b 00 bf e2 ba e0 bb 67 06 5e bf
       0.45425108 -0.5013927 -0.0068582157 -0.8672852
000280 65 fd 64 bd d1 e0 80 be 74 69 e3 bd 41 07 80 3e
       -0.05590572 -0.2517152 -0.11104098 0.25005534
000290 57 6b 45 bf 8f bf dd 3e 8c 99 21 3d 96 89 f4 bd
       -0.7711691 0.4331021 0.039453074 -0.11940305
0002a0 84 78 a4 be 06 05 0a 3f e0 33 0a bf 4a 57 94 bc
       -0.32123196 0.53913915 -0.53985405 -0.018108029
0002b0 71 48 9e be 2d 89 f2 3e 63 db 99 3e f2 9d 0c bf
       -0.30914643 0.47370282 0.3005019 -0.54928505
0002c0 4e cc 44 be dd 09 72 3f 39 00 6b 3e 22 c5 2a 3f
       -0.19218561 0.945463 0.22949304 0.6670705
0002d0 19 8f e7 bd 13 28 14 bf a6 c1 7e 3e a3 5b 27 bf
       -0.113065906 -0.5787365 0.24878559 -0.653742
0002e0 3e df 3e 3d 22 23 98 3e c3 5a 80 3d cf 63 3f bf
       0.04659962 0.29714304 0.062673114 -0.7476167
0002f0 b1 3c 36 be e8 84 f2 3c a4 5b 7d 3e 24 e6 27 be
       -0.1779659 0.02960439 0.2474199 -0.16396385
000300 0d 46 de 3d f4 93 d2 3d f5 bd 08 bf b9 50 70 3d
       0.10853205 0.10282126 -0.5341485 0.058670733
000310 2e 72 b8 be 29 b6 8b be 09 5b e2 bc 29 f5 40 be
       -0.36024612 -0.27287415 -0.0276313 -0.18843521
000320 ca 17 43 3d 12 e3 0f 3f e4 43 05 bf 82 cc 8e be
       0.04763011 0.56205857 -0.5205672 -0.27890402
000330 56 ac dc 3d bc c3 eb 3d 32 ac 26 3e 81 13 84 3e
       0.10775058 0.11511943 0.16276625 0.2579613
000340 a4 37 1d be dc c0 2f be a8 e6 e6 3e 17 c0 53 3e
       -0.15353256 -0.17163414 0.45097852 0.20678745
000350 36 2a f2 be f8 f8 52 3e c2 5d 1f bf 56 70 3f bf
       -0.4729783 0.20602787 -0.6225244 -0.74780786
000360 2b f5 d7 3e 32 83 f8 3e 58 26 c1 be bf ae 94 be
       0.42179236 0.48537594 -0.37724566 -0.2903957
000370 f4 d1 98 bc 7e 98 ae be e2 ed 2e bf c8 3f eb 3e
       -0.018654801 -0.34100717 -0.6833173 0.459471
000380 85 ba 95 3d b7 cd ce 3e e5 12 b0 3e e2 0b a0 be
       0.073109664 0.40391323 0.34389415 -0.31259066
000390 dd 2d 09 3f af cc 30 bd f4 7a b5 bc 8f da 42 be
       0.53585607 -0.04316395 -0.022153355 -0.19028686
0003a0 13 09 70 bd 80 89 bf be 8c 8a ed be 90 3a 0c 3f
       -0.058602404 -0.37409592 -0.46394765 0.5477686
0003b0 f5 6c 06 3e 54 68 07 be c4 9d 03 3e f5 72 6b be
       0.13127501 -0.13223392 0.12853152 -0.22993071
0003c0 be e2 bd be 6b 13 5b 3f 01 45 34 3e 13 ae 78 be
       -0.37087053 0.85576504 0.17604448 -0.24285154
0003d0 1e e3 b9 be 36 9e e2 be dd 99 00 3e 05 15 f1 3e
       -0.3630609 -0.4426133 0.12558694 0.4708635
0003e0 46 f2 66 be 9a 33 99 be 09 d2 73 3b f2 19 4d bd
       -0.22553357 -0.2992218 0.0037204048 -0.05007357
0003f0 ed 36 27 bf fc a6 a5 be 1a 86 40 be 05 94 f7 3d
       -0.65318185 -0.3235396 -0.18801156 0.12088779

network_body._body_endoder.seq_layers.0.bias f4 [128]
000000 77 96 98 bc 4b 77 54 3d fd 64 f4 3b 2b c1 a9 bd
       -0.018626435 0.05187158 0.007458328 -0.08288797
000010 c0 47 77 bd 46 87 a2 bd 89 32 77 3d cb 37 fe 3a
       -0.06037116 -0.079359576 0.06035093 0.001939529
000020 a2 15 00 3d 0b 60 2d bd d1 c2 c1 bd 9f 30 c7 bd
       0.03127063 -0.04232792 -0.094609864 -0.097260706
000030 6f c8 a7 bc a7 14 1b 3d 3f 30 4d 3d b0 36 51 bd
       -0.020481316 0.037861492 0.05009484 -0.051077545
000040 f2 0f dd bc e0 a3 05 bc 25 55 e2 bd 64 8b 87 3d
       -0.026985142 -0.008156747 -0.11051396 0.066183835
000050 49 57 fb bd bc bf 53 3d 6e 7a 34 bd 50 e8 a8 bc
       -0.12272508 0.051696524 -0.04406207 -0.020618588
000060 fd 90 d4 3d 45 32 68 3d 4c 7b f4 bc c6 7e 87 bd
       0.10379217 0.056688566 -0.029843949 -0.06615977
000070 e2 30 94 bd 64 a7 e3 bc 42 83 ca 3c e5 b5 2a be
       -0.07235886 -0.027789779 0.024720792 -0.1667095
000080 5d 8e 9d bc 86 c8 6e bd 8a d5 3f bd 18 dd ac bd
       -0.019232923 -0.058296703 -0.046834506 -0.08440608
000090 7e 2b ee bd 82 a4 2f bd 72 eb 24 3c 87 65 35 bc
       -0.11629389 -0.042881496 0.0100659 -0.011071569
0000a0 61 8e 89 3d 41 0b c9 bd b4 99 27 bc 97 7f e6 bd
       0.0671661 -0.098166 -0.010229517 -0.112548046
0000b0 77 db ea bc bb 09 d4 bd f9 5a 3c 3d 1b 00 61 bd
       -0.028669102 -0.103534184 0.045985196 -0.05493174
0000c0 12 cf 01 3d 84 8d 82 bd 6b 89 30 bc 44 dc df 3c
       0.03169162 -0.06374648 -0.0107749505 0.02732671
0000d0 27 21 82 bd 00 99 02 3c 23 b2 80 bd b9 ba 09 be
       -0.063539796 0.007971048 -0.06283977 -0.13450135
0000e0 80 0b 81 bb 43 b0 a6 bd 04 1c 26 bd 58 16 42 bd
       -0.0039381385 -0.08139088 -0.04055406 -0.04738459
0000f0 9c 32 f7 3b cd c8 eb 3d 74 ff 55 3b cf a7 16 3d
       0.007543875 0.11512909 0.0032653483 0.03678113
000100 59 95 b9 bd a6 39 03 3d 3f d6 27 be 82 17 d7 bc
       -0.09061689 0.0320374 -0.16390322 -0.026256327
000110 67 58 09 bd 36 0c 0d bd 13 b1 39 bd be f0 9f 3d
       -0.033531573 -0.034435473 -0.045334887 0.0780959
000120 24 44 f4 bd f1 cf a2 bd c8 8a 6d 3d 7b de fd bd
       -0.11927059 -0.07949818 0.05799368 -0.123959504
000130 87 d1 8a bb 50 43 fa bd d0 2a 8f bd da 61 4a bd
       -0.0042364034 -0.1221987 -0.06990588 -0.049409725
000140 07 11 f9 bc 45 b0 c2 bd be 3e 59 3d 92 53 87 bd
       -0.030403627 -0.09506277 0.05303835 -0.06607737
000150 66 76 5e 3c 9e f7 14 bd 18 a3 53 bc 21 d4 a1 bc
       0.013578033 -0.03636896 -0.012917303 -0.019754471
000160 40 f1 e9 bd ca 54 b8 bd e3 c1 64 bd 26 45 8c bc
       -0.11422968 -0.09000547 -0.055848967 -0.017122816
000170 9b 0e ad 3d 97 3d da bb c3 f9 cb 3c 9f d3 6e bd
       0.084500514 -0.006660174 0.02489937 -0.058307286
000180 38 d7 68 bd db fb c6 bd 8f 96 41 bd 93 60 44 bd
       -0.056845874 -0.09716006 -0.047262724 -0.047943663
000190 cd 77 0e bd 7f f2 a9 bc e6 8d 8e bd 4b 21 50 bc
       -0.03478222 -0.020745514 -0.06960659 -0.01270325
0001a0 37 9d ee bc 08 98 8f bd b6 08 bd bd 0f e7 71 bd
       -0.0291277 -0.070114195 -0.09230177 -0.059058245
0001b0 89 e6 2e 3d f5 79 18 be d1 b0 e1 bd 85 0c 89 3c
       0.042700324 -0.14890273 -0.11020053 0.016729603
0001c0 6c 85 02 3c b8 81 2f bc 2c 34 39 bc eb 56 47 be
       0.007966381 -0.01071208 -0.011303943 -0.1946675
0001d0 37 01 cb bd e9 54 b7 bd b1 0d da bc 4e fe 60 bc
       -0.09912341 -0.08951742 -0.026617857 -0.013732506
0001e0 69 59 1c 3d 0e 6c af 3c 57 5b 81 bd ad 87 5c be
       0.038171206 0.02141383 -0.0631625 -0.21536131
0001f0 95 21 77 bd 37 6a 50 bb 23 16 04 bc 0c 38 4d 3d
       -0.06033476 -0.003180159 -0.008061918 0.05010228

network_body._body_endoder.seq_layers.2.weight f4 [128, 128]
000000 c4 09 0a be 1c 42 60 be 41 7f 83 be ad 4b 8c bd
       -0.13480288 -0.21900219 -0.25683025 -0.068503715
000010 60 bb 3a 3b 5d 68 d0 3d 30 e1 2b 3c 5d 15 af bc
       0.0028493032 0.10176156 0.010490701 -0.021372491
000020 5e 81 cb bc 2d 35 ad be 1a 51 25 3c c8 c6 bc 3d
       -0.02484196 -0.33829632 0.010090137 0.09217602
000030 f5 6d 38 be 26 9f 88 be 94 0f 01 bd 40 65 8b 3c
       -0.18010695 -0.2668392 -0.031508997 0.017016053
000040 a8 84 f1 bd 23 55 12 bc 4e 0c 6f bd 66 1d 58 3c
       -0.1179288 -0.008931431 -0.058361344 0.013190603
000050 cd 36 f1 3c 4c e3 bf bd 07 e3 21 be af cf 26 be
       0.029445076 -0.09369525 -0.1580926 -0.16290163
000060 16 6a 60 be 5f 74 17 bd e1 9a 0d be b2 ff 20 bd
       -0.21915469 -0.036976214 -0.13828613 -0.03930635
000070 06 08 9d 3c fa 53 ba bd c6 0d 0b be 82 52 f7 3b
       0.019168865 -0.090980485 -0.13579473 0.0075476775
000080 de 04 94 3b 76 be 28 3e e0 be 5a 3d 4d c2 99 3d
       0.004517182 0.16478905 0.05340469 0.07507763
000090 ec 71 a8 bd e5 5b e7 bd 0d f4 f1 3c 6f 1e 95 be
       -0.08224854 -0.11296824 0.029535318 -0.2912478
0000a0 6a 95 d5 bd fd 9e 1f 3e 66 96 03 be 4e 77 94 be
       -0.10428889 0.15587993 -0.12850341 -0.28997272
0000b0 13 e5 00 3b 0d eb be bc 7c e8 48 bd 64 0a a9 bd
       0.001966779 -0.02330544 -0.04904984 -0.08253935
0000c0 b9 bb cd bd 4e b9 94 bd 79 ed 00 3e 86 b6 1b 3d
       -0.10045571 -0.072619066 0.12590589 0.038015865
0000d0 91 d8 d1 bd 01 04 c2 bc ea 75 13 3d 46 7d f9 bd
       -0.10246385 -0.02368355 0.036001123 -0.12182097
0000e0 57 86 13 3d bf ff 8d bc d5 d8 2b 3e 8b df 4b 3d
       0.03601679 -0.017333863 0.16781934 0.049773734
0000f0 32 35 30 bc 96 fe 57 be ca eb 73 be 35 13 c3 bd
       -0.01075487 -0.2109321 -0.23820415 -0.09525148
000100 32 15 29 be f9 da c4 3d d2 f2 f0 bc 2f 2d 08 bc
       -0.16511992 0.09612078 -0.02941266 -0.008311554
000110 ca 44 a1 3b b4 a7 39 3c c6 56 5b bd 43 6e 2b be
       0.0049215304 0.011331487 -0.05354955 -0.1674128
000120 55 41 93 bd 70 95 14 bc ae ed e9 bd e7 4d d2 bc
       -0.071901955 -0.009068832 -0.11422287 -0.025671912
000130 95 39 53 3d e4 38 ba bd 1d ca 17 3e 8b 5b 01 3e
       0.051568586 -0.09092882 0.14823194 0.12632577
000140 b7 d7 ca 3d 16 47 fd bd 63 4c de bc cc 64 34 be
       0.099044256 -0.12367074 -0.027136033 -0.17616576
000150 55 31 61 bd 6d b2 f4 bd 26 4c 0f bd b3 b4 63 3d
       -0.054978687 -0.119480945 -0.03498473 0.05559225
000160 ba 29 d4 bd b4 2f 88 3d 1e 84 c9 bd 00 43 5f 3d
       -0.10359521 0.06649724 -0.098396525 0.054507256
000170 ad b7 51 be cf 43 98 3c 24 c1 a8 3d 1c 6c c0 bc
       -0.20480223 0.018587021 0.08239964 -0.02348905
000180 54 0a ea bd e6 5d ad bb cf 24 09 3d 4b 8c 65 bc
       -0.11427751 -0.0052907346 0.03348237 -0.014010499
000190 a2 df a1 3c 57 68 cc 3d 38 4f f2 3b 07 c1 b2 bd
       0.019759957 0.09980839 0.0073946975 -0.08728223
0001a0 85 d9 07 3b ef 16 6d 3d 83 53 37 bc bc 22 3a 3e
       0.0020729017 0.0578832 -0.011189344 0.18177313
0001b0 9d 45 20 be 35 ef 9c bd 98 03 32 3d 49 93 d1 bc
       -0.15651555 -0.076628126 0.04346046 -0.025582926
0001c0 c4 df 12 bd f0 45 a7 bd 11 5c 9d 3d 7a 6b 35 3d
       -0.03585793 -0.081676364 0.07683576 0.04429195
0001d0 6a 01 d9 bd 5c a3 49 be 24 de 87 3d 0a b5 33 bd
       -0.10595973 -0.19691223 0.06634167 -0.043873824
0001e0 af 6d 2d 3d 74 c0 d8 bd 9b a0 e9 bd a0 8a da bd
       0.04234093 -0.105835825 -0.11407586 -0.10670972
0001f0 96 dd d5 bd 51 2a 06 be 37 0f de 3d 12 67 04 be
       -0.10442655 -0.1310208 0.10842746 -0.12929943
000200 ba bd 16 be dd 61 d3 3b ba 92 d8 3d eb a4 64 3c
       -0.14720812 0.006450875 0.10574861 0.013955335
000210 27 b7 bd bd ab b4 34 be b6 dc d5 bd aa e7 13 be
       -0.09263449 -0.17647044 -0.10442488 -0.14443842
000220 22 38 3f 3e 7b 70 b6 3c 70 43 14 3c 18 09 db 3c
       0.18673757 0.022270432 0.0090492815 0.026737735
000230 bb c5 b3 3c b6 c6 3a 3e 1b e9 ca 3b b7 6f 58 3e
       0.021944871 0.18239865 0.006192339 0.21136366
000240 cc 08 ac bd a0 0e 8e bd 9c 7c b6 bc 88 c9 98 3d
       -0.08400115 -0.06936383 -0.022276215 0.07460314
000250 3b 35 8a bd 8e 2e 25 be cc 9d fd 3c 2f 65 00 be
       -0.06748434 -0.1613104 0.030959032 -0.12538598
000260 60 3d 8a 3d 9e 1f 8b bd 15 eb 29 3e 46 f7 30 be
       0.067499876 -0.0679314 0.16593583 -0.17281827
000270 ad 56 32 3e 8d 77 90 bc 32 71 17 3e 52 f7 c7 3d
       0.17415877 -0.017635131 0.14789274 0.097639695
000280 ba e3 a5 bc 87 5e 99 bd 78 35 5a be e5 50 d1 bd
       -0.02025019 -0.07488733 -0.21309459 -0.102205075
000290 bf c5 3a be 2f 5b a0 3d 82 a3 a8 3d 35 9c fa bd
       -0.18239497 0.07829892 0.08234312 -0.122368254
0002a0 c3 70 30 bd 94 60 2f be a7 c4 5b 3d d3 d8 63 bc
       -0.043076288 -0.17126685 0.05365434 -0.013906675
0002b0 71 c0 8f bd fd eb 3d be af 87 ea bd 14 f7 aa 3d
       -0.07019127 -0.18547054 -0.11451661 0.08347908
0002c0 d4 44 5b be 3e 50 2a 3d dd ff 3d be 95 14 01 be
       -0.21412975 0.04158043 -0.18554635 -0.12605508
0002d0 33 5b 8d 3d a3 80 0b be ba d8 64 3d 00 b6 c3 bd
       0.069021605 -0.1362329 0.05587075 -0.09556198
0002e0 d9 c7 36 be 9a 5b 76 bc 7e 80 c9 bd 93 ca 54 be
       -0.17849673 -0.015036488 -0.09838961 -0.20780401
0002f0 76 ca e7 bc 2a e7 ab bc 1a 74 20 be 60 c9 31 3d
       -0.028294783 -0.020984251 -0.15669289 0.043404937
000300 71 21 04 be 4f 78 f2 3a 75 ef 3d be 4c 9e 9b bc
       -0.12903382 0.001849899 -0.18548377 -0.01899638
000310 05 a4 80 bd 68 4e ac 3d 39 ce 56 3d 62 9c 42 3d
       -0.06281284 0.08413392 0.052442763 0.04751242
000320 19 72 9e bc 59 53 a7 3d 89 c3 d9 bd e0 4b b0 bd
       -0.019341515 0.08170194 -0.106329985 -0.08608222
000330 90 ff 9c bc b6 bc 45 bd 2e 81 17 3e 91 b4 3c be
       -0.01916483 -0.048275672 0.14795372 -0.18428256
000340 59 39 0d bc 3b 65 56 be 12 02 5e be cf 03 53 3d
       -0.00861963 -0.20937054 -0.21680477 0.051517304
000350 2a 2e 2f 3d d0 45 d0 3c 0c 06 82 bd 4a 95 2a 3e
       0.042768635 0.025423914 -0.063488096 0.16658512
000360 91 31 84 bd 0a 79 cc bd b0 52 30 bd 3b 4e e1 3d
       -0.064547665 -0.09984024 -0.043047607 0.110012494
000370 61 f2 05 be 62 3c 48 bd c3 bd 55 bd f9 5c 34 be
       -0.13080741 -0.04888571 -0.052182924 -0.17613591
000380 e2 1e 29 39 3b cd d1 bd 80 f4 c2 3b 0d ab c1 bc
       0.000161286 -0.10244223 0.005949557 -0.023641134
000390 9a 19 36 3e 3b 6a 7a 3d 18 01 94 bd 47 f9 d9 bd
       0.17783204 0.061136466 -0.07226771 -0.10643249
0003a0 58 e4 98 3d d6 11 e8 bb 4a 7f 45 bd d3 48 1c bd
       0.07465428 -0.0070822043 -0.048217095 -0.038155388
0003b0 a2 bd 87 bb e1 1f 7a be 14 82 47 be 0a 16 23 bd
       -0.004142479 -0.24426223 -0.19483215 -0.03981594
0003c0 ef b8 ec 3c 7e 0a 77 be bc e6 6e be 76 09 19 be
       0.028896777 -0.24125096 -0.23330206 -0.14945015
0003d0 1a ff 71 bd 3c 77 98 bc 85 e4 53 3d d4 8e bc 3d
       -0.059081174 -0.018611543 0.051731605 0.0920693
0003e0 8a c2 fa bc 5b 18 70 be 43 bf 2e 3d 29 38 2d be
       -0.030610342 -0.23446791 0.04266287 -0.16915955
0003f0 22 9e e5 bd e9 e7 18 be ac ef 44 3d 23 59 7b bc
       -0.11211802 -0.14932217 0.04808013 -0.015341076

network_body._body_endoder.seq_layers.2.bias f4 [128]
000000 20 16 fe bc a1 e2 06 be c1 38 ec bc 41 78 8f bd
       -0.03101641 -0.1317239 -0.028835656 -0.070053585
000010 70 aa b8 bd d3 9f 93 bc 63 36 3b bd a9 c8 0f be
       -0.090168834 -0.018020546 -0.045706164 -0.1404139
000020 9e a3 0d be 45 5d 26 be bf 22 96 3c bd fc 08 be
       -0.13831946 -0.16246517 0.018327115 -0.13377662
000030 1c 25 02 3c 41 69 42 bd 59 16 30 be ee 0a aa bd
       0.007943418 -0.04746366 -0.17196025 -0.08302866
000040 41 51 d4 bd e1 01 c0 bc 96 21 c6 bd 39 d1 99 bd
       -0.103670605 -0.023438396 -0.09674375 -0.07510609
000050 94 f5 c5 3c 5c 75 80 bd 48 6e 2b bd c7 f0 7e bd
       0.024164952 -0.062723845 -0.04185322 -0.062241342
000060 8e a2 0c be 27 13 8c bd 42 67 bc bd bc d5 b5 bd
       -0.13733885 -0.068395905 -0.09199382 -0.08878657
000070 07 25 2a be be 39 19 be b6 f7 39 bb 05 36 d1 bc
       -0.16615687 -0.14963433 -0.0028376407 -0.025538454
000080 0a de fb bd 8c 93 ab bd 34 90 3a bd 87 67 9d 3c
       -0.1229821 -0.08377752 -0.04554768 0.019214405
000090 73 39 e7 bd 70 1b c9 bc 2f 0c cd bd 32 41 df bd
       -0.112902544 -0.024549216 -0.100120895 -0.10901107
0000a0 33 81 47 bc 55 c2 c6 bc d3 54 9d bc b2 24 01 be
       -0.0121768 -0.024262587 -0.019205486 -0.12611654
0000b0 61 0a ca bd 88 e2 84 bd cb d2 d4 bc 55 58 d5 bd
       -0.09865261 -0.0648852 -0.02597942 -0.104172386
0000c0 3c 07 b8 bd e1 fb c2 ba 49 0b c9 bc ac b5 70 bd
       -0.08985755 -0.0014876091 -0.024541514 -0.058767006
0000d0 89 ce 04 be fb c9 ef bd 25 37 92 bd 01 4f d1 bd
       -0.12969412 -0.117084466 -0.07139424 -0.10220147
0000e0 2c a5 1e be 66 38 cc bd 0b f6 86 bd eb 17 fc bc
       -0.15492696 -0.09971695 -0.06589898 -0.030773124
0000f0 dd 76 2f bb d1 c0 24 be 63 46 10 be 5a c4 0a be
       -0.002677373 -0.16089179 -0.1408935 -0.13551465
000100 33 17 66 bd 86 53 03 be d1 17 08 be d2 db d6 bb
       -0.05617447 -0.1282483 -0.13290335 -0.0065569663
000110 75 15 99 bd 01 95 16 be 3b e2 7b bd 8d 3a 00 be
       -0.07474796 -0.14705278 -0.061495047 -0.12522335
000120 11 94 d6 bd a2 09 6d 3d 43 db 04 bd 3b 7d b0 bd
       -0.1047746 0.057870515 -0.032435667 -0.08617636
000130 6d 99 f8 bd 21 5a 9f 3b 39 82 16 be 2a 4f ca bd
       -0.12138639 0.004863039 -0.14698114 -0.098783806
000140 be 7a b3 bd 78 6a c6 bd 41 51 3d 3a e4 e3 2b bd
       -0.087636456 -0.09688276 0.00072218856 -0.04196538
000150 c4 d9 08 be b5 5e 29 bd 05 30 03 bd 09 ce 9d bd
       -0.13364321 -0.041350085 -0.032028217 -0.07705314
000160 71 03 95 bd 48 46 70 bd f2 e7 6b bd b6 4d 5a bd
       -0.07276047 -0.058660775 -0.057594247 -0.053296767
000170 82 3e 6c bd 5c 91 c7 bc 6a ef ad bd fb 5d 13 be
       -0.0576768 -0.024361305 -0.0849293 -0.1439132
000180 b6 e6 59 bd 2d 39 bb bd 28 84 55 bc 5a 31 0a be
       -0.05319854 -0.09141765 -0.013031997 -0.13495389
000190 01 bb 9e bd 2b c4 f8 bd 2b 41 94 bd 21 7b 1f be
       -0.07750512 -0.12146791 -0.07238992 -0.15574314
0001a0 49 b4 91 bd 20 64 b0 bd b1 71 00 be 0c 60 8f bd
       -0.07114465 -0.08612847 -0.1254337 -0.07000741
0001b0 72 97 10 bd 18 bf 03 be fa 49 cd bd 98 27 c3 bd
       -0.03530068 -0.12865865 -0.100238755 -0.09529036
0001c0 28 d2 a0 bd 69 34 b9 bd 4e 13 60 bd c0 81 d2 bd
       -0.07852584 -0.090431996 -0.05470591 -0.10278654
0001d0 bb 50 b9 bd 11 ac cb bd 62 88 09 bd c0 4c 88 bc
       -0.09048601 -0.099449284 -0.03357733 -0.01663816
0001e0 b7 25 14 bc 80 72 75 bc 11 fe a1 bc f1 78 9f bd
       -0.009042195 -0.014980912 -0.019774469 -0.077867396
0001f0 e7 68 96 bd e0 4e e8 bd eb 04 bd bd a4 7e 0d be
       -0.07344227 -0.11343169 -0.09229454 -0.13817841

action_model._continuous_distribution.log_sigma f4 [1, 2]
000000 88 bf 78 be 36 1a 7d be
       -0.24291813 -0.2471703

action_model._continuous_distribution.mu.weight f4 [2, 128]
000000 52 19 5a 3d 49 f7 d7 3b 73 b8 90 3c 73 06 09 3c
       0.053246804 0.006590758 0.017666077 0.008363354
000010 fe 65 7a bb 7e c2 a7 bd 68 7f b4 bb 5a f6 45 ba
       -0.0038207765 -0.08191393 -0.005508352 -0.0007551663
000020 a4 6f 2e bb b2 23 af 3b 5e 3f 1b bd f8 ea a3 3c
       -0.0026616836 0.0053448314 -0.03790223 0.020009503
000030 7a e5 bb 3c 76 cc ed bc 16 4a 6b 3a 05 ce 53 3c
       0.022936571 -0.029028159 0.0008975578 0.012927537
000040 e8 0e f9 3b 04 64 34 3c 80 b0 4f 3a d8 00 70 bc
       0.007600654 0.011010174 0.0007922724 -0.014648639
000050 e4 18 93 3d ac f7 c7 3c 1f 6b 30 bd 06 52 20 bd
       0.07182482 0.024410091 -0.04307091 -0.039140724
000060 da ef 24 bd 26 92 1f bd 32 17 7a bc 1d b4 dd bc
       -0.040267803 -0.038957737 -0.015264319 -0.027063424
000070 8d df 81 3c 58 1c be 3c d0 94 7f 3d a1 19 8c bc
       0.015853668 0.023206875 0.062397778 -0.017102065
000080 64 b4 6a 3c cd d3 7a 3c 8c 9a 83 bc 86 ce 46 bd
       0.014325235 0.015309286 -0.016064905 -0.0485368
000090 53 91 36 bc 97 c1 26 bb 68 91 17 3b b4 29 8c bb
       -0.011143046 -0.0025444978 0.002312744 -0.0042774323
0000a0 f8 6d 33 3d 3d 30 b7 3c 04 10 1c bd d1 97 f9 3a
       0.043806046 0.022361869 -0.03810121 0.0019042437
0000b0 aa a6 03 3d cb 44 c8 bc 64 28 84 bd 94 28 0d 3d
       0.032141365 -0.024446866 -0.064530164 0.034462526
0000c0 bc bf 8b bc 9f 7d 14 bd db 31 8d 3d a6 76 ae 3c
       -0.0170592 -0.036252614 0.06894275 0.02129681
0000d0 d0 14 84 bc b9 89 1a 3c 79 44 81 3c ca 1e 32 3d
       -0.016123205 0.00943225 0.01577972 0.043486394
0000e0 99 91 97 bc ac 61 44 bd 6d db f6 bb e5 3a a7 3c
       -0.018502044 -0.04794471 -0.007533482 0.020413825
0000f0 98 0e a7 bd e8 67 57 ba d9 0b 6d 3c 8d ce 9f bb
       -0.081570804 -0.00082170824 0.014468157 -0.0048769177
000100 06 bc 18 3d 22 90 1e bd 2b 1a 60 ba d8 fc 46 3d
       0.037288688 -0.038711675 -0.0008548821 0.048580974
000110 2a 46 18 bc 8a ba 5d 3c 3e 21 79 bd c6 16 70 3c
       -0.009294072 0.013533244 -0.060822718 0.014653867
000120 9a a0 f4 bc 32 8b 80 3d d0 bd 9a bd 55 d7 b4 bc
       -0.029861737 0.062765494 -0.07555735 -0.022075335
000130 60 03 88 3c 31 6e 9d 3c 72 de f0 3c 9f 56 32 3c
       0.016603172 0.019217582 0.029402945 0.01088491
000140 e3 8b 56 bd 87 95 09 bd 75 13 d4 3b 6f 10 4f bd
       -0.0523795 -0.033589866 0.006472046 -0.05055278
000150 21 1c b9 3a 2f 34 e2 bc a0 6b 48 bd 40 83 53 bc
       0.0014122763 -0.027612774 -0.048930764 -0.01290971
000160 51 b1 49 bd b7 8f a7 ba e9 bc 22 3b fa a8 66 ba
       -0.049241368 -0.0012783919 0.0024831838 -0.0008798983
000170 7d fc 19 3a 65 f0 2e 3d be 77 85 bb 91 5d a6 3a
       0.00058741105 0.042709727 -0.0040731123 0.001269268
000180 40 fe 17 bd a6 b4 84 bc 8b 65 2c bd a9 bb 2d 3c
       -0.037107706 -0.016199421 -0.042089026 0.010603824
000190 c7 94 43 bc ea 90 2a bc 99 de 88 3c d5 ba 84 3b
       -0.011937327 -0.010410527 0.016707705 0.0040505924
0001a0 bd 02 06 3d 57 3f 8f 3c f6 a8 b1 bc 9c 78 d6 bc
       0.032717455 0.017486257 -0.021687012 -0.026180558
0001b0 34 49 bd bd 6c 79 b5 bc 91 4d 63 bc 18 b6 26 3c
       -0.09242478 -0.022152625 -0.013873474 0.0101752505
0001c0 68 c3 1b bb ea 49 ba 3c b9 69 4c 3c be 5a 05 bd
       -0.0023767594 0.022740323 0.012476378 -0.03255724
0001d0 c8 ff 1f 3a da 5b ff 3c b6 1f 73 3d b5 3a 89 3c
       0.0006103483 0.031171728 0.059356414 0.016751627
0001e0 5e a9 63 3c ed 68 fb bb 16 b3 ff ba 68 15 35 3d
       0.013895361 -0.0076724202 -0.0019508328 0.044209868
0001f0 b7 4d 2f 3d 33 30 cb bb d8 90 61 3b 02 c9 70 3b
       0.042798724 -0.006200814 0.003441861 0.0036740904
000200 6a de 91 3a ad 3d 17 bd 7c ae 63 bb 29 b1 4e bd
       0.0011128907 -0.036924053 -0.0034741452 -0.05046192
000210 f9 18 35 3d 72 e3 e7 bb 2a 31 df 3c 90 93 43 bd
       0.04421327 -0.007076674 0.027245123 -0.04774815
000220 a4 67 0c 3d ec b5 68 bc f5 84 55 3d a1 54 d6 bc
       0.034278527 -0.01420353 0.05212875 -0.026163401
000230 39 dc c3 3d f1 be 2b bd 1c 12 64 bc 31 cd 56 3a
       0.095634885 -0.041930143 -0.013920333 0.0008194028
000240 8e a2 de bc 7b 4c 39 3d 09 e1 24 3d b8 55 85 bd
       -0.027177121 0.045238953 0.040253673 -0.0651049
000250 b4 b6 00 3d 4a d9 05 bb 4f 16 26 bd 80 d8 cf bc
       0.03142424 -0.0020423704 -0.04054862 -0.02537179
000260 84 8c 9b bc 84 b3 82 3c c9 7d 0d 3d 76 d6 29 3d
       -0.018987902 0.01595474 0.034543786 0.04146429
000270 8c f3 40 bd ef d9 03 bd 6d 31 ac bd 68 f2 7c bc
       -0.047107264 -0.03219026 -0.08407865 -0.0154386535
000280 00 77 99 bc d4 5b be bd e0 86 72 bd 8b cd 4f bd
       -0.018733501 -0.092948586 -0.059210658 -0.05073313
000290 6c 65 10 bc e9 92 32 bd a7 95 fc 3c 79 ff da 3c
       -0.008813243 -0.043597136 0.030833079 0.026733147
0002a0 c4 ed 11 3c 4c c0 ec bc 5b 98 7c bd 4c 03 8b bc
       0.008906785 -0.028900288 -0.061668735 -0.016969346
0002b0 e4 cf 15 3c fe 93 91 bd 29 a6 84 3c ef 96 59 3d
       0.009143803 -0.071083054 0.016192513 0.053122457
0002c0 39 6a aa bb 3e 68 33 bd 17 8a 4b 39 cd f3 c9 bb
       -0.005200651 -0.043800585 0.00019411031 -0.0061630965
0002d0 65 ca cc bc 7d 86 dc bc ac 73 d4 bc b6 cd d9 bc
       -0.024998853 -0.026919598 -0.025934063 -0.026587348
0002e0 1e 3f 8e bb 05 98 82 3c 7d 53 74 3c d0 85 b2 3c
       -0.0043410202 0.01594163 0.014912483 0.021792322
0002f0 9c 8e 3b 3d 80 28 73 3c 18 af 0b bc 92 a8 bf 3b
       0.0457903 0.014841199 -0.008525632 0.0058489526
000300 69 7e 42 3b 20 30 17 3d ee 7e 16 bd e3 55 8c bc
       0.0029677397 0.03691113 -0.036742143 -0.017130798
000310 3f e9 77 bd de 63 68 bd 14 c3 9c bc a2 62 4d bc
       -0.060525175 -0.056735866 -0.01913599 -0.012535723
000320 dc 2d 10 bc 0e da 2c 3d 2c d8 05 bd a5 13 2d 3d
       -0.008799996 0.04220014 -0.03267686 0.042255063
000330 04 b4 c1 bb b3 94 0e 3d eb 75 42 3a a2 b4 8a bd
       -0.005911352 0.03480978 0.0007418084 -0.06772734
000340 71 68 7a bd 38 e2 6d bd 83 7f 84 3c 55 4c 61 bd
       -0.06113476 -0.058077067 0.016174084 -0.055004437
000350 2e 43 f5 bb 11 be 39 3c 1e 86 29 3c 06 2f 8f bd
       -0.007484815 0.011336819 0.010346917 -0.06991391
000360 e4 61 97 3b 7f 27 8f 3c ae d6 df bc ee af 3f 3b
       0.004619824 0.017474888 -0.027324047 0.002924915
000370 e2 22 a5 bd e5 97 af bc cb b8 18 bd 4d 26 22 bd
       -0.08063294 -0.021434734 -0.037285607 -0.039587308
000380 1d 55 3d 3c 7f d9 a6 bc 35 67 37 bd 3e 9e 53 bc
       0.011555937 -0.020367382 -0.04477616 -0.012916146
000390 fd 20 13 3d f9 5d 03 3b 1f 31 27 3d e6 0d d7 bc
       0.035920132 0.0020045026 0.04081833 -0.026251744
0003a0 e9 21 b6 bc d8 05 8e 3d 58 c0 f0 bb 89 93 f2 3c
       -0.022232966 0.06934708 -0.007347148 0.029611366
0003b0 be fc e6 bc d7 a3 17 3b a6 57 5e bd f3 67 18 3d
       -0.028196689 0.0023138428 -0.054282807 0.03720851
0003c0 e1 47 f3 3c 93 08 ee 3c d8 5d 0d 3d 52 a6 c8 3b
       0.02969736 0.029056823 0.034513324 0.0061233426
0003d0 d8 0f 5a bc d2 aa 88 bb 67 7a 9c bc f7 c0 62 3d
       -0.0133094415 -0.004170754 -0.019101335 0.055359807
0003e0 df 56 62 3c 27 33 50 3d 6d 52 60 bd 5d cb 4d 3c
       0.013814657 0.050830033 -0.054766107 0.012560693
0003f0 c1 f7 77 bc bd 02 19 bd 18 57 4d bd 27 bb e3 3c
       -0.015134753 -0.037356127 -0.050131887 0.027799202

action_model._continuous_distribution.mu.bias f4 [2]
000000 e1 07 35 3b 95 9f 23 bc
       0.0027623104 -0.009986778

exp_avg f4 [128, 6]
000000 80 9b 8f ba 54 f8 21 ba 75 99 d8 b9 28 09 a7 b8
       -0.0010956377 -0.00061786664 -0.00041313065 -7.964886e-05
000010 57 f8 21 ba 82 89 d7 b9 24 a1 05 ba e0 f5 9d 39
       -0.0006178668 -0.00041110447 -0.0005097559 0.00030128565
000020 de c2 31 ba ee 18 73 3a f8 f5 9d 39 bc 76 f1 ba
       -0.00067810516 0.0009273429 0.00030128635 -0.0018422226
000030 04 eb 26 38 9a 12 4f b8 a6 ef fc b7 c9 05 0d b9
       3.979636e-05 -4.936997e-05 -3.0152336e-05 -0.00013448963
000040 a2 12 4f b8 48 98 00 38 5c 6b 84 b8 78 53 ef b8
       -4.937e-05 3.06594e-05 -6.314248e-05 -0.00011411955
000050 60 a4 44 b8 ec 31 fa b8 78 53 ef b8 00 28 81 b4
       -4.6883128e-05 -0.000119302276 -0.00011411955 -2.4057226e-07
000060 09 7f 31 ba ce bc e1 b9 ae 50 c7 b8 04 30 ac b9
       -0.0006770944 -0.00043056015 -9.504087e-05 -0.0003284217
000070 d6 bc e1 b9 18 4b d2 38 6a 5e 18 3b 60 8c b9 3a
       -0.00043056038 0.000100275676 0.0023249635 0.0014156215
000080 b4 67 af 3a 67 47 ab 39 60 8c b9 3a ec d1 1c 3b
       0.0013382346 0.0003266886 0.0014156215 0.0023928834
000090 9b bb e1 b9 da a0 0e ba 3c 83 f1 b8 83 61 40 ba
       -0.0004305512 -0.0005440839 -0.0001151622 -0.0007338749
0000a0 e8 a0 0e ba ad 7b 52 39 73 96 5f b9 ba 9b b7 b9
       -0.0005440847 0.00020073233 -0.00021322984 -0.00035020505
0000b0 39 c0 d7 b9 24 ce c0 b9 ae 9b b7 b9 5c be 76 b9
       -0.00041151213 -0.0003677468 -0.0003502047 -0.00023531303
0000c0 98 f3 2d 38 84 92 3b 39 60 7a c0 b6 ba ca 98 39
       4.147328e-05 0.00017888291 -5.736292e-06 0.00029142742
0000d0 82 92 3b 39 c2 38 9d b9 f0 f2 00 b8 36 25 76 39
       0.00017888288 -0.0002998766 -3.074383e-05 0.0002347425
0000e0 34 ec ae b9 da a6 86 39 26 25 76 39 d6 52 90 ba
       -0.0003336385 0.00025682786 0.00023474227 -0.0011011015
0000f0 70 e1 1b ba 64 c0 74 ba ac e8 04 38 92 07 9d ba
       -0.00059463736 -0.000933653 3.1687945e-05 -0.0011980406
000100 64 c0 74 ba 3a 48 8a 3a 9e 4d fb ba a7 cd 94 ba
       -0.000933653 0.001055009 -0.0019172912 -0.0011352793
000110 d7 76 82 ba ef 38 b3 b9 a7 cd 94 ba ce bf bd ba
       -0.000995363 -0.0003418396 -0.0011352793 -0.0014476718
000120 7e a4 49 b8 93 27 06 b8 cc 8b 69 b7 a4 c0 5c b7
       -4.807533e-05 -3.1984946e-05 -1.3920431e-05 -1.31578745e-05
000130 97 27 06 b8 f5 38 d6 b7 60 b8 4c 38 f0 62 4e 37
       -3.198496e-05 -2.553731e-05 4.8809103e-05 1.23015925e-05
000140 19 45 e4 37 66 a7 c6 b7 cc 62 4e 37 3b 82 62 38
       2.7211894e-05 -2.368139e-05 1.230156e-05 5.4003885e-05
000150 e8 8e bd 38 e8 aa 3c b7 b8 f5 67 b7 00 c5 a7 b8
       9.038841e-05 -1.1245465e-05 -1.3825884e-05 -7.999875e-05
000160 72 aa 3c b7 6f 76 8e 38 97 50 27 37 5f 7a 93 b6
       -1.1245358e-05 6.7931476e-05 9.9727395e-06 -4.3951873e-06
000170 34 ed 0f 36 8b d9 6d b7 5b 7a 93 b6 ba 9a 80 37
       2.144673e-06 -1.41769515e-05 -4.3951854e-06 1.533084e-05
000180 78 b9 60 ba e4 b4 84 ba bc 65 bb ba 24 f6 b7 ba
       -0.0008572559 -0.001012471 -0.0014297287 -0.0014035148
000190 e4 b4 84 ba a8 19 97 ba e2 0d 4c 35 06 ad 87 35
       -0.001012471 -0.0011528032 7.6016124e-07 1.010864e-06
0001a0 6f dd 19 35 d4 01 61 35 04 ad 87 35 7c a5 b5 34
       5.731917e-07 8.382169e-07 1.0108638e-06 3.3834283e-07
0001b0 a2 5a 9e b7 e6 74 a8 b7 68 93 29 b8 70 19 f8 b6
       -1.8877272e-05 -2.0081596e-05 -4.0430023e-05 -7.3939373e-06
0001c0 d0 74 a8 b7 cd 7f 6d b8 74 50 d6 b9 f0 37 34 39
       -2.0081556e-05 -5.6624227e-05 -0.00040877203 0.00017186976
0001d0 76 c8 2a ba 28 a3 0f 3a e4 37 34 39 8b 46 f6 ba
       -0.00065148564 0.0005479329 0.00017186959 -0.0018789334
0001e0 3f c1 4f bb b0 53 3d bb b0 e0 d3 ba 98 13 10 bb
       -0.0031700877 -0.0028888993 -0.0016164985 -0.0021984335
0001f0 b1 53 3d bb e4 56 4f ba 85 3c 8e b9 88 12 ee 38
       -0.0028888995 -0.0007909371 -0.0002712944 0.00011352176
000200 fa f7 9f 38 aa 44 bd 39 8c 12 ee 38 a4 d3 6e b9
       7.6279e-05 0.00036100048 0.00011352179 -0.00022776291
000210 da 15 0e b9 ea 85 d5 b9 ba 5b 00 ba b2 8c 42 ba
       -0.00013550316 -0.000407263 -0.0004896481 -0.0007421478
000220 e8 85 d5 b9 51 64 7a b9 6d 2d 70 ba 00 90 82 b4
       -0.00040726294 -0.00023879229 -0.00091620424 -2.431916e-07
000230 5b 02 5d ba 59 7a a5 39 00 18 83 b4 a8 ad 22 bb
       -0.0008430832 0.0003156241 -2.4418114e-07 -0.0024822745
000240 9c ef 13 ba 90 88 a2 b9 78 f2 4a 39 b8 64 ce 39
       -0.00056433096 -0.00031000795 0.00019354548 0.00039366423
000250 58 88 a2 b9 31 4c 8d 3a 00 4b 2d 3b 49 26 f0 3a
       -0.00031000632 0.0010780153 0.0026442409 0.0018321957
000260 7e aa d1 3a 37 a6 73 3a 48 26 f0 3a c6 36 f6 3a
       0.0015996245 0.00092944823 0.0018321956 0.0018784634
000270 c2 99 39 b9 4c 11 06 b9 76 a6 ce b8 48 df 87 b8
       -0.00017700254 -0.0001278568 -9.853851e-05 -6.478891e-05
000280 4a 11 06 b9 2b df f8 b8 6f e5 85 b9 ae 9b 63 39
       -0.00012785677 -0.0001186713 -0.00025538678 0.00021706402
000290 4a ec 04 b8 75 83 ea 39 8a 9b 63 39 f0 9e 2a ba
       -3.1691314e-05 0.000447299 0.0002170635 -0.0006508669
0002a0 0b ba 0a 3a 9b 4e 8a 39 cf fc 1c 39 24 d5 26 b8
       0.0005292005 0.00026379977 0.00014971498 -3.9775987e-05
0002b0 9a 4e 8a 39 50 87 92 39 34 f8 64 ba e0 52 ac 39
       0.00026379974 0.00027948106 -0.0008734495 0.00032868143
0002c0 78 60 fa b9 0a 56 a7 3a f8 52 ac 39 e3 4c e1 ba
       -0.0004775559 0.001276673 0.00032868213 -0.0017189052
0002d0 2f 4e ff 38 ce cd 9f 38 b1 58 0b 38 94 62 26 37
       0.0001217391 7.620045e-05 3.3222783e-05 9.917323e-06
0002e0 ce cd 9f 38 24 09 6b 38 dc c3 44 b8 ba ca 74 b8
       7.620045e-05 5.603688e-05 -4.691245e-05 -5.8362937e-05
0002f0 2e 74 54 b8 dd 71 4c b8 be ca 74 b8 42 55 81 b8
       -5.065294e-05 -4.8743434e-05 -5.836295e-05 -6.16708e-05
000300 84 d7 e3 b8 2c 80 c2 b8 5c 76 7e b8 a0 5d 5d b8
       -0.000108643464 -9.274515e-05 -6.066855e-05 -5.27777e-05
000310 1c 80 c2 b8 ac 95 5d b7 a6 72 ae b9 67 dc d1 b9
       -9.274503e-05 -1.3207475e-05 -0.00033273286 -0.000400278
000320 5f ed 93 b9 b0 63 e3 b9 61 dc d1 b9 d0 24 e7 b7
       -0.0002821488 -0.00043371087 -0.00040027782 -2.7554488e-05
000330 e0 d8 7a ba c3 b2 93 ba 50 32 a3 38 9c ff 7b ba
       -0.000956906 -0.0011268485 7.781817e-05 -0.0009612979
000340 c0 b2 93 ba 5e d9 b3 3a 0b 69 06 ba c0 52 a5 ba
       -0.0011268482 0.0013721397 -0.0005127347 -0.0012613162
000350 a6 1e 24 b9 be ce e3 ba c2 52 a5 ba 23 ed a0 3a
       -0.00015651676 -0.001738034 -0.0012613165 0.0012277703
000360 89 e7 5b 3a 6c fe 7f ba 00 3d ae b7 6e 95 16 bb
       0.00083886884 -0.000976539 -2.0770822e-05 -0.002297725
000370 62 fe 7f ba 18 ee 13 3b e0 9e 85 38 b0 ce 92 b9
       -0.0009765384 0.0022572335 6.371527e-05 -0.00028001284
000380 58 1f 0f 38 c5 13 33 ba c8 ce 92 b9 c6 33 70 39
       3.4123048e-05 -0.0006831254 -0.00028001354 0.0002290747
000390 80 09 0e 3a 30 f4 c7 b9 90 e7 05 ba f0 26 71 ba
       0.0005418286 -0.00038138172 -0.0005108053 -0.00091992225
0003a0 20 f4 c7 b9 59 86 01 3a 3a 2d a7 39 78 6c 8a 3a
       -0.00038138125 0.0004940979 0.0003188642 0.0010560891
0003b0 72 fd 06 3a 24 c2 c7 3a 78 6c 8a 3a 5d 11 28 ba
       0.00051494606 0.0015240354 0.0010560891 -0.0006411279
0003c0 32 d3 4f ba b4 62 d5 b9 55 4f 91 38 94 a3 a6 b9
       -0.0007927894 -0.00040700065 6.9289155e-05 -0.00031783863
0003d0 d8 62 d5 b9 88 a3 c8 b8 60 f9 bf 3a c8 b6 6d 3a
       -0.0004070017 -9.567203e-05 0.0014646463 0.0009068069
0003e0 74 00 13 3a 6e e8 ef 39 d0 b6 6d 3a 80 66 22 3a
       0.00056076725 0.00045758806 0.00090680737 0.0006195083
0003f0 c0 f0 4c 36 f4 52 f6 37 80 0a 7e b6 82 3e 48 38
       3.0538504e-06 2.9364113e-05 -3.7855061e-06 4.774193e-05

exp_avg_sq f4 [128, 6]
000000 b1 30 b6 38 5b 46 29 39 d9 27 d5 38 e9 a8 54 39
       8.687506e-05 0.00016143305 0.00010164054 0.0002028082
000010 7b 47 29 39 c2 5b 2c 39 8c bc b2 38 05 7d be 38
       0.00016143724 0.0001643738 8.522821e-05 9.083193e-05
000020 45 6a 19 38 21 61 0d 39 09 7f be 38 dc bd 46 39
       3.6577014e-05 0.00013482991 9.083568e-05 0.0001895348
000030 42 89 1d 37 c9 9d 6e 38 4f cf 83 37 0f d7 2d 39
       9.389887e-06 5.689057e-05 1.5712953e-05 0.00016578681
000040 7d 63 6f 38 ee 97 46 39 46 94 14 37 9a 5d ad 37
       5.7074696e-05 0.0001893935 8.85601e-06 2.0666794e-05
000050 b6 aa 26 37 52 00 d7 36 86 7a ad 37 7b 9a 8c 38
       9.934118e-06 6.4075366e-06 2.0680262e-05 6.7044944e-05
000060 ca 02 3c 39 0b c5 00 39 f0 66 25 38 ac bd a8 39
       0.00017930116 0.00012280435 3.9434934e-05 0.00032184774
000070 9e e1 00 39 2a 88 5d 39 f3 c2 b3 38 8d 93 6c 38
       0.0001229108 0.00021126927 8.571697e-05 5.6404202e-05
000080 9d da 6c 38 5e 3a 86 38 09 ae 6c 38 1b 95 55 38
       5.6470384e-05 6.40049e-05 5.6428868e-05 5.0922023e-05
000090 06 6c b1 37 76 9c 0e 38 12 4e 12 38 08 05 2f 38
       2.1150347e-05 3.4001154e-05 3.488182e-05 4.1727937e-05
0000a0 7d 9d 0e 38 e5 4d 50 38 2e 65 cf 38 93 73 7a 38
       3.400211e-05 4.966361e-05 9.889375e-05 5.971228e-05
0000b0 d0 9d b4 37 ce 42 a6 38 dd c8 7a 38 6b b7 40 38
       2.153116e-05 7.92794e-05 5.9791713e-05 4.594719e-05
0000c0 f3 2c ff 37 12 80 b2 37 17 00 a3 37 6c a9 63 37
       3.04193e-05 2.1278891e-05 1.9431156e-05 1.3569701e-05
0000d0 fc 8e b2 37 2d 7d 73 37 f9 5f 54 38 15 d5 64 38
       2.1285836e-05 1.4513073e-05 5.063412e-05 5.4557884e-05
0000e0 d9 a4 12 38 87 e7 d6 38 fc f9 64 38 3c ad be 38
       3.496264e-05 0.000102474405 5.4592252e-05 9.0921734e-05
0000f0 65 23 77 38 3f dd 6c 38 2e 89 a5 37 24 3c 17 39
       5.8922353e-05 5.6472836e-05 1.9733412e-05 0.00014422886
000100 60 de 6c 38 e7 a4 f5 38 ce 8b 06 39 ee be c9 38
       5.6473888e-05 0.00011713226 0.00012831317 9.61999e-05
000110 43 07 ab 38 23 84 bf 38 32 be c9 38 d5 94 b9 38
       8.155268e-05 9.132202e-05 9.6198535e-05 8.8492096e-05
000120 c6 48 69 35 ce df 31 35 f3 06 fc 35 b7 74 af 34
       8.6905163e-07 6.6263317e-07 1.8777486e-06 3.268121e-07
000130 22 f2 31 35 10 a0 04 35 de f5 5c 35 18 0e bd 35
       6.628999e-07 4.9406754e-07 8.231417e-07 1.4085699e-06
000140 51 cb 65 35 87 5c 55 35 50 06 bf 35 f0 ae a9 35
       8.560501e-07 7.948333e-07 1.4232446e-06 1.2642395e-06
000150 47 90 d4 36 b0 9e c2 37 b2 4a 2b 37 01 b1 21 37
       6.3348884e-06 2.3200497e-05 1.0209786e-05 9.63756e-06
000160 84 9f c2 37 b1 e0 8a 38 02 f0 ae 33 53 2a 9a 34
       2.3200882e-05 6.622205e-05 8.1461636e-08 2.871553e-07
000170 cc 33 0c 34 e3 48 23 34 8c 32 9a 34 86 2f 11 35
       1.305736e-07 1.5207074e-07 2.8721513e-07 5.4085865e-07
000180 33 d9 a4 38 02 a6 27 39 ac 38 e0 38 c6 2b db 38
       7.860586e-05 0.00015988204 0.00010691708 0.00010450887
000190 e1 a5 27 39 77 17 03 39 7d 48 1c 32 87 f9 48 33
       0.00015988156 0.00012501875 9.096877e-09 4.6793073e-08
0001a0 43 67 a4 32 36 e6 a1 32 02 f6 4c 33 3b 3d d8 33
       1.913907e-08 1.8847555e-08 4.7721194e-08 1.00694216e-07
0001b0 cb c5 ae 36 00 df 14 36 a6 47 dc 36 28 56 9e 35
       5.2086302e-06 2.2183522e-06 6.564852e-06 1.1796992e-06
0001c0 32 e3 14 36 a6 36 34 36 e7 0b 5d 37 65 c5 3f 38
       2.2185964e-06 2.68539e-06 1.3175398e-05 4.5721787e-05
0001d0 c6 3e 18 38 d9 a9 33 38 3a c7 3f 38 5d b1 d1 38
       3.6298086e-05 4.283511e-05 4.5723493e-05 9.998933e-05
0001e0 f7 bf 1e 39 a2 85 52 39 ae fa ef 38 4c 0e 48 39
       0.00015139567 0.00020076943 0.00011443101 0.00019078812
0001f0 20 85 52 39 de 55 49 39 c9 d7 2c 38 2a 63 e1 37
       0.00020076754 0.00019200842 4.120896e-05 2.6868267e-05
000200 56 33 39 37 92 d6 68 38 6f 63 e1 37 4e 8d 2c 38
       1.1038812e-05 5.5512945e-05 2.6868393e-05 4.1139596e-05
000210 0a 58 d8 37 29 f3 31 38 57 42 d3 37 f6 e9 b6 38
       2.5790203e-05 4.242655e-05 2.5184052e-05 8.722015e-05
000220 c4 f2 31 38 0b aa f5 38 23 ec 22 38 f7 54 3a 39
       4.242618e-05 0.00011714183 3.884373e-05 0.00017769994
000230 38 00 85 38 f3 72 b8 39 e4 5d 3a 39 67 dc 90 39
       6.341975e-05 0.0003518086 0.00017773319 0.00027630033
000240 61 b0 fb 39 a1 e4 8b 3a c4 8c 1d 3a 36 2d 88 3a
       0.00048005863 0.0010672995 0.00060100504 0.001038945
000250 7d e4 8b 3a fb 38 6a 3a 37 9e 3c 39 db 28 81 39
       0.0010672953 0.00089348824 0.00017988017 0.00024635237
000260 61 18 17 39 27 ab 68 39 f9 29 81 39 ed f5 b1 39
       0.00014409564 0.00022189003 0.0002463607 0.000339433
000270 48 f4 67 37 a5 e5 68 36 a9 2e 23 37 c3 42 ac 34
       1.3825549e-05 3.4704365e-06 9.726421e-06 3.2086072e-07
000280 53 f0 68 36 dc 16 9b 35 eb 56 3e 38 bd 53 8a 38
       3.471058e-06 1.1555053e-06 4.538048e-05 6.59595e-05
000290 16 9e b7 37 86 c4 07 39 f5 5a 8a 38 80 5f 11 39
       2.1888914e-05 0.00012947814 6.597295e-05 0.00013863854
0002a0 48 c0 4d 38 46 8e b7 38 84 17 38 38 f8 9c a6 38
       4.9054885e-05 8.7526205e-05 4.389092e-05 7.9447345e-05
0002b0 92 eb b7 38 da ea ad 38 7f 53 c7 38 fb 3d c4 38
       8.7699984e-05 8.293027e-05 9.504612e-05 9.357553e-05
0002c0 e5 ef 43 38 82 55 af 38 36 43 c4 38 40 01 b8 38
       4.6715042e-05 8.360577e-05 9.358527e-05 8.7740365e-05
0002d0 ab 62 8b 34 0f 9d 0c 35 fd c4 2f 35 43 65 82 34
       2.5962558e-07 5.2382615e-07 6.5479236e-07 2.4288065e-07
0002e0 92 a3 0c 35 41 2b 5c 35 1f fa 16 35 c8 8d 38 35
       5.239209e-07 8.201933e-07 5.624333e-07 6.875166e-07
0002f0 e6 29 aa 34 0c 3b 8f 35 26 8f 38 35 67 b5 8e 35
       3.1695453e-07 1.0671515e-06 6.875365e-07 1.063262e-06
000300 06 b9 78 38 3f bc fa 37 18 5f c1 37 90 a4 4f 38
       5.9300124e-05 2.9889981e-05 2.3051674e-05 4.9505907e-05
000310 44 05 fb 37 c8 d2 09 38 a9 87 35 38 7d 6a d8 37
       2.9923984e-05 3.285965e-05 4.3280106e-05 2.5798794e-05
000320 22 01 d5 37 3a f3 9b 38 48 6b d8 37 4e 8f 59 38
       2.5392106e-05 7.4362804e-05 2.5799163e-05 5.1870295e-05
000330 35 ca e0 38 a1 ff 90 39 a3 2e 2b 39 44 00 89 39
       0.00010718816 0.0002765628 0.00016325204 0.00026130874
000340 74 ff 90 39 0c 23 7a 39 37 09 38 38 55 a1 12 38
       0.00027656148 0.00023854914 4.38776e-05 3.4959365e-05
000350 7a db ab 37 3c 26 1e 38 7d a6 12 38 50 0c 7e 38
       2.048699e-05 3.7705744e-05 3.4964167e-05 6.0569786e-05
000360 27 38 89 38 f6 ce fb 38 15 f5 8f 38 a9 60 f3 38
       6.543128e-05 0.00012007162 6.8644214e-05 0.00011605147
000370 04 d5 fb 38 90 90 46 39 bf 8a d7 38 83 4b a5 39
       0.0001200829 0.00018936605 0.000102778424 0.00031527513
000380 3f 54 44 39 a1 69 c0 39 49 4c a5 39 4a 6b b0 39
       0.000187234 0.00036699793 0.0003152809 0.00033649273
000390 6a 63 71 38 6e 15 c2 38 ee 6a 2e 38 af 10 d8 38
       5.7551464e-05 9.2546325e-05 4.158442e-05 0.0001030279
0003a0 61 1c c2 38 a3 c3 32 39 ac 88 16 38 6d b4 93 38
       9.255927e-05 0.00017048283 3.5890072e-05 7.043113e-05
0003b0 14 0f 71 38 f9 7f 9f 38 5b b8 93 38 9d 75 85 38
       5.747292e-05 7.6055476e-05 7.043845e-05 6.3638414e-05
0003c0 71 a6 f5 37 e7 00 d3 38 07 60 32 38 67 67 00 39
       2.9283781e-05 0.00010061432 4.252794e-05 0.00012245552
0003d0 7b 1e d3 38 b4 46 2b 39 57 fb b1 38 60 54 c9 38
       0.000100669415 0.0001633417 8.4868334e-05 9.600143e-05
0003e0 6b c8 3c 38 a0 bc 62 38 e2 58 c9 38 11 c4 9d 38
       4.5009347e-05 5.405827e-05 9.6009826e-05 7.5228636e-05
0003f0 41 a5 05 35 59 c8 bb 36 5d fb 94 35 52 96 93 37
       4.9786837e-07 5.596358e-06 1.1100016e-06 1.7593764e-05

exp_avg f4 [128]
000000 c4 2d 24 b9 d0 55 97 38 86 a7 4c b7 08 78 f0 b7
       -0.00015657308 7.216225e-05 -1.2198352e-05 -2.8666123e-05
000010 60 e2 e6 b8 e8 c3 ba 39 74 f0 0b b9 63 70 bb b8
       -0.0001100942 0.00035622646 -0.00013345649 -8.9377885e-05
000020 4e 47 3d 38 be 59 7b 38 83 26 75 b9 1e 55 95 b9
       4.512752e-05 5.9926642e-05 -0.00023379367 -0.00028482912
000030 52 e7 06 b7 bc a8 56 36 30 af 41 b6 2b 53 8e b5
       -8.040881e-06 3.1986701e-06 -2.8861214e-06 -1.060403e-06
000040 b0 32 86 b9 51 78 88 34 d4 e2 a6 b6 12 d1 36 38
       -0.00025596237 2.5419516e-07 -4.973592e-06 4.3586893e-05
000050 51 dd 3d ba 1c a3 e2 37 ae 3c d6 b8 00 8a d9 34
       -0.00072427565 2.7017253e-05 -0.00010215618 4.0519808e-07
000060 58 05 a7 b8 55 b7 f1 39 55 fe 06 b8 2a d5 65 38
       -7.964176e-05 0.00046103695 -3.2184955e-05 5.479638e-05
000070 f7 9e 8b 38 50 33 a5 38 1c 8c a0 37 1a f1 74 b7
       6.657646e-05 7.877371e-05 1.913873e-05 -1.4599669e-05
000080 74 1e ce b7 1a 52 d6 b8 85 c2 93 b9 27 26 a5 b9
       -2.4571294e-05 -0.00010219608 -0.00028182953 -0.00031499678
000090 10 e0 7e b9 08 6e 8c b8 98 98 cc b8 0c df 8a 39
       -0.00024306797 -6.696215e-05 -9.755901e-05 0.00026487594
0000a0 54 96 cf b8 34 c8 6f 39 a4 df f8 36 26 b0 16 38
       -9.89853e-05 0.00022867398 7.417011e-06 3.5926838e-05
0000b0 e3 d9 0a b9 4c 2b 5c b9 94 67 bc 39 e9 b5 41 b9
       -0.00013241875 -0.00020996964 0.00035935326 -0.00018473681
0000c0 25 df 20 b9 6c e6 7e 37 ab 6b d4 36 44 b9 7f 39
       -0.00015341917 1.5193229e-05 6.3306265e-06 0.00024387712
0000d0 48 36 19 b7 86 e5 a2 b9 e2 64 1d 3a 82 4b 02 b9
       -9.132149e-06 -0.00031070056 0.00060041074 -0.00012425895
0000e0 f5 93 13 b9 0a 57 af b6 e8 ae 9c b7 80 38 ff 36
       -0.00014074131 -5.225539e-06 -1.8678096e-05 7.6061697e-06
0000f0 54 bf e4 b9 7c bc 6b b7 60 50 2a b7 73 ef da b7
       -0.000436301 -1.40509765e-05 -1.0151503e-05 -2.6099127e-05
000100 3c 69 17 b9 4e 72 d4 b7 4f 17 1a 39 91 07 1a b7
       -0.00014439685 -2.5325597e-05 0.00014695268 -9.180877e-06
000110 28 94 9d b6 8d 6c 81 37 e4 ed 50 39 e3 56 a2 b8
       -4.6962123e-06 1.5428546e-05 0.00019925047 -7.740946e-05
000120 f3 cc 7c b9 6a 9d 75 b8 d4 b1 33 b8 26 1a b2 b9
       -0.00024108942 -5.8559155e-05 -4.284254e-05 -0.00033970288
000130 fa 91 99 b9 36 42 30 37 ac d8 12 38 94 ce 4b 38
       -0.00029291195 1.0505833e-05 3.5010904e-05 4.8591362e-05
000140 6c a0 18 b5 10 a0 78 39 28 08 88 37 30 9e af b8
       -5.6857857e-07 0.00023710751 1.6216261e-05 -8.374115e-05
000150 29 e6 eb 38 a0 77 80 34 a8 23 0e 38 fc 87 29 b7
       0.00011248544 2.3928897e-07 3.3888646e-05 -1.0104846e-05
000160 c0 cb 85 36 74 e8 55 35 aa cf db 37 0d ef d8 b7
       3.9874285e-06 7.968695e-07 2.6203536e-05 -2.5860523e-05
000170 02 c3 e3 b6 42 30 69 39 17 ed 3e 36 7c f4 cc 38
       -6.787829e-06 0.00022238589 2.845021e-06 9.773017e-05
000180 bc 97 c9 39 5c de 56 37 2c e2 76 38 a0 8f 61 b7
       0.00038450758 1.2807166e-05 5.886161e-05 -1.3444485e-05
000190 87 f3 26 39 70 c8 d0 38 f8 4c af 37 a9 88 9b 38
       0.00015921715 9.955547e-05 2.0897467e-05 7.416431e-05
0001a0 23 7e ad b8 9c 6e db b7 94 0f 26 38 0b ae bc b9
       -8.2727776e-05 -2.6158341e-05 3.9591992e-05 -0.00035987826
0001b0 a5 78 6f b8 84 32 a5 39 87 b4 73 39 de e4 9b b8
       -5.70944e-05 0.0003150889 0.00023241538 -7.433606e-05
0001c0 b6 0a 53 b7 dd f6 9a b9 c6 be 34 b9 88 1e 87 38
       -1.2579074e-05 -0.00029557096 -0.00017237206 6.4429885e-05
0001d0 c0 e4 74 b7 8c 0e a0 b8 52 69 ef b7 d2 d0 8d 36
       -1.4596793e-05 -7.632104e-05 -2.8540064e-05 4.2264373e-06
0001e0 56 19 39 b8 40 e2 4b b7 4c fe 66 b8 35 48 a1 38
       -4.4131033e-05 -1.2152421e-05 -5.5073106e-05 7.690528e-05
0001f0 0c 17 3d b8 cc 7a 9f 38 52 c1 b9 39 42 6c 90 39
       -4.5082576e-05 7.6045835e-05 0.00035429985 0.0002754648
