MachineLearning/results/testSumo4/MoveTOGoal.onnx (onnx, 75062 bytes, 7 tensors)

network_body._body_endoder.seq_layers.0.weight f4 [128, 6]
0.571462 -0.22407636 -0.13378876 -0.31399423 0.17679156 0.023558706 0.22073749 -0.14013243
0.16819678 0.051456247 0.2005806 -0.48243642 -0.101031 -0.41492426 -0.15173303 0.13340233
0.5843893 -0.051885292 0.050785128 -0.22109613 0.5278734 -0.37492165 -0.14067127 0.18014178
-0.15665044 -0.5180904 -0.3403125 0.26711458 0.061105896 -0.21152024 -0.6431461 0.22045624
0.395264 0.51250005 -0.8574196 -0.3478512 -0.32829112 -0.01236601 0.08629965 0.3018789
0.58871186 0.16198467 0.8986118 0.17057861 0.6099471 -1.1965964 0.6291978 -0.5986448
-0.7374524 -0.1942132 0.121602625 -0.31630757 -0.024752716 -0.32036924 -0.3439253 -0.086069115
-0.33905324 -0.051799763 -0.2571033 -0.7474072 0.47101614 -0.16765334 0.37376943 0.059028193
0.113687985 -0.32685682 -0.28260788 -0.043298677 0.08915431 -0.52641356 0.15750046 -0.5803736
0.30497536 -0.58559954 0.276149 -0.515196 -0.07967112 0.09096223 0.6863213 -0.12820007
-0.0979501 -0.469054 0.111046456 0.21230029 -0.1872046 -0.44812328 0.36743167 0.10894552
-0.3991205 -0.31721637 -0.65588903 0.13170093 0.52085084 0.14402758 0.22974348 -0.13715677
-0.09369622 -0.4193637 0.18971944 0.6818849 -0.16575716 0.15094082 -0.37056208 -0.18762054
-0.54574937 -0.42505077 -0.53301644 -0.19490846 0.5977216 0.20796879 0.16825473 -0.40344465
0.057479963 0.25845298 -0.36417043 -0.22069265 -0.20204657 -0.3043594 -0.14211124 -0.70320827
0.23025712 0.3585079 0.97395885 0.19931799 -0.6183203 -0.7029525 -0.08035347 0.101095326
0.34316662 -0.10149804 0.29513103 -0.21549077 -0.70998144 -0.1164938 -0.015115415 -0.88677603
-0.089596845 0.17703879 0.38830173 0.532065 -0.4879235 0.25433674 -0.5166447 -0.17816493
-0.5110796 0.22577696 0.81842905 -0.27912927 -0.298425 0.11473575 0.80719876 0.06962164
0.5282054 0.26789668 0.16782354 0.114245996 0.04754395 0.28310663 -0.01324726 0.1502234
-0.23450856 0.7511079 0.10383582 0.13520308 0.04081204 0.07571362 -0.32340345 0.6749708
0.5476558 0.99552906 0.12764466 -0.11419996 -0.107312314 0.68565744 -0.38151348 0.40879142
0.3170951 0.66695696 -0.18021393 -0.06201587 0.3246292 0.25518322 -0.14792661 -0.5034877
-0.74396074 -0.8201622 -0.34571558 -0.1495748 -0.037576143 0.64596456 0.85847735 -0.5750923
-0.4478946 -0.24227004 -0.6169964 0.71119237 -0.07178922 0.12604499 -0.09773808 -0.39068335
0.33008343 -0.08678155 -0.23284248 -0.113251746 -0.2824846 -0.28528243 -0.23578043 -0.2424217
-0.09567781 0.352851 -0.3523425 -0.19384822 0.1314002 0.5123054 0.5221896 0.2812418
-0.5089648 -0.741877 0.4283891 -0.48405743 -0.06747072 0.22324261 -0.23823154 0.78507906
-0.2685146 -0.4217227 -0.08411024 -0.1359337 0.03126251 0.13697203 0.54745567 -0.13892597
0.4982162 -0.13812816 -0.18023524 0.039717995 0.51205534 -0.2689524 -0.38177407 -0.31758037
0.39994892 0.26098582 -0.54462516 0.17648919 -0.54045564 0.365795 -0.7492321 0.007589429
0.14683627 -0.2031715 -0.06283772 -0.54231966 0.1394786 0.21820863 0.46065465 -0.3784439
00000000: 554b 123f 4674 65be ecff 08be dac3 a0be
00000010: d908 353e 30fe c03c 0209 623e e07e 0fbe
00000020: c73b 2c3e c9c3 523d 0065 4d3e e801 f7be
00000030: 57e9 cebd f470 d4be e75f 1bbe 9f9a 083e
00000040: 8a9a 153f ac85 54bd 1104 503d 0667 62be
00000050: b622 073f bbf5 bfbe 210c 10be 1677 383e
00000060: f968 20be 93a1 04bf 713d aebe 3ec3 883e
00000070: 2d4a 7a3d c398 58be 39a5 24bf 48bf 613e
00000080: 0b60 ca3e 3433 033f da7f 5bbf 8d19 b2be
00000090: c615 a8be ce9a 4abc dfbd b03d df8f 9a3e
000000a0: d2b5 163f 4fdf 253e 6c0b 663f 29ac 2e3e
000000b0: 7e25 1c3f 122a 99bf 1b13 213f c940 19bf
000000c0: aec9 3cbf d3df 46be cc0a f93d 11f3 a1be
000000d0: 35c6 cabc 7007 a4be fa16 b0be 0145 b0bd
000000e0: 6398 adbe fd2b 54bd 0ba3 83be 1456 3fbf
000000f0: 0729 f13e 51ad 2bbe b55e bf3e 8cc7 713d
00000100: 3fd5 e83d c759 a7be fbb1 90be f459 31bd
00000110: 8996 b63d 0ac3 06bf cd47 213e 5d93 14bf
00000120: bb25 9c3e dae9 15bf 6763 8d3e e3e3 03bf
00000130: 9d2a a3bd 684a ba3d c1b2 2f3f e146 03be
00000140: 109a c8bd d927 f0be 536c e33d 3f65 593e
00000150: 90b2 3fbe 6a70 e5be 0120 bc3e d41e df3d
00000160: 8659 ccbe 2f6a a2be 58e8 27bf 9cdc 063e
00000170: 7b56 053f f77b 133e e041 6b3e d372 0cbe
00000180: cee3 bfbd d7b6 d6be d045 423e 0290 2e3f
00000190: 3fbc 29be 3b90 1a3e 50ba bdbe 991f 40be
000001a0: 3bb6 0bbf 41a0 d9be c473 08bf 1596 47be
000001b0: 4804 193f c5f5 543e f84a 2c3e 4c90 cebe
000001c0: 1c70 6b3d f353 843e 8c74 babe 41fd 61be
000001d0: 4ce5 4ebe ffd4 9bbe 9c85 11be 7505 34bf
000001e0: 86c8 6b3e 598e b73e 5e55 793f 041a 4c3e
000001f0: 3d4a 1ebf b2f4 33bf 5c90 a4bd 110b cf3d
00000200: 89b3 af3e 34de cfbd 6a1b 973e 9da9 5cbe
00000210: 58c1 35bf 4d94 eebd a5a6 77bc c103 63bf
00000220: 8d7e b7bd a849 353e 7ccf c63e 6935 083f
00000230: 1cd1 f9be 6d38 823e d442 04bf de70 36be
00000240: 1dd6 02bf 1332 673e 9184 513f 08ea 8ebe
00000250: 29cb 98be 94fa ea3d 94a4 4e3f ca95 8e3d
00000260: 7838 073f c129 893e efd9 2b3e cef9 e93d
00000270: 72bd 423d 5af3 903e 090b 59bc 2ad4 193e
00000280: 0323 70be 9b48 403f e0a7 d43d ad72 0a3e
00000290: 872a 273d be0f 9b3d 2395 a5be e3ca 2c3f
000002a0: 2c33 0c3f feda 7e3f 48b5 023e abe1 e9bd
000002b0: 8fc6 dbbd 3f87 2f3f bc55 c3be 1c4d d13e
000002c0: 4a5a a23e b1bd 2a3f 008a 38be 5a04 7ebd
000002d0: cc35 a63e 60a7 823e 137a 17be 92e4 00bf
000002e0: 3674 3ebf 26f6 51bf a201 b1be 232a 19be
000002f0: 71e9 19bd ef5d 253f 2cc5 5b3f 4039 13bf
00000300: 7152 e5be a315 78be 7af3 1dbf b410 363f
00000310: 3a06 93bd f011 013e e72a c8bd a607 c8be
00000320: b200 a93e 86ba b1bd 426e 6ebe 88f0 e7bd
00000330: d2a1 90be 8a10 92be 6d70 71be 653d 78be
00000340: baf2 c3bd e3a8 b43e 3c66 b4be 2680 46be
00000350: c68d 063e 7226 033f 38ae 053f edfe 8f3e
00000360: 844b 02bf a7eb 3dbf d155 db3e 60d6 f7be
00000370: 172e 8abd b699 643e f8f2 73be f1fa 483f
00000380: bf7a 89be 0aec d7be fd41 acbd 3432 0bbe
00000390: 1e0d 003d 6542 0c3e 0e26 0c3f 9c42 0ebe
000003a0: 3216 ff3e 7871 0dbe 968f 38be 56af 223d
000003b0: 0f16 033f 21b4 89be e477 c3be e599 a2be
000003c0: 1bc6 cc3e ef9f 853e 8e6c 0bbf 95b9 343e
000003d0: 4d5b 0abf 7b49 bb3e adcd 3fbf bfb0 f83b
000003e0: 3f5c 163e 310c 50be 10b1 80bd 76d5 0abf
000003f0: 7ad3 0e3e 1572 5f3e edda eb3e 66c3 c1be

network_body._body_endoder.seq_layers.0.bias f4 [128]
0.07425546 -0.028225264 -0.09257476 -0.013302034 -0.03335021 0.0089196935 -0.10062174 -0.0190672
-0.056972444 -0.12211333 -0.03218588 -0.032169066 -0.067708306 0.08199932 -0.10177008 -0.05192158
-0.018708536 -0.06091499 -0.17610551 -0.07635849 0.06671234 -0.11779758 -0.037826642 -0.090267524
0.042995647 -0.19292797 -0.0462083 -0.09667015 -0.09989248 -0.075351626 -0.024740256 -0.103024326
0.105475076 -0.05828385 -0.11957288 -0.08896622 -0.037360877 -0.04460358 -0.14602125 -0.10395255
-0.038900267 -0.10264746 -0.15437104 0.05258888 0.024712294 -0.044278827 0.05153797 0.047877155
0.036136728 0.021805353 -0.036172334 -0.060425546 -0.11551153 0.021806339 -0.03823464 -0.024806788
-0.040698294 0.0101893945 0.037718415 -0.09638771 0.002367946 0.07173357 0.014689455 0.027478054
-0.11454064 0.002333486 0.0017900944 0.055734724 -0.123414055 -0.07075367 -0.07334081 -0.12479512
-0.060585305 0.022177046 -0.034508966 0.10064378 -0.10685612 -0.051407013 -0.08943332 0.07862254
-0.02061637 0.026489917 0.11732484 -0.088755585 0.0023237513 -0.14035322 0.013030903 -0.019190555
-0.072394125 -0.10197522 0.019830316 0.04766291 0.014072282 -0.17178965 -0.0012231185 -0.02861612
0.07134088 0.021916438 -0.13334042 -0.077663 -0.05638332 -0.09079241 0.0021081308 -0.085025646
-0.037674174 0.0651943 0.04557761 -0.087540425 -0.13779162 -0.012198194 0.10180199 -0.17432278
0.06454757 -0.05585902 0.010779837 -0.039604943 -0.017312972 -0.04501617 -0.050098184 0.02862754
-0.08338884 -0.13875377 -0.023741294 0.017489009 -0.038991038 -0.09190524 0.07925109 -0.022784367
00000000: 3f13 983d ab38 e7bc d697 bdbd c6f0 59bc
00000010: 3b9a 08bd e823 123c c512 cebd d132 9cbc
00000020: f05b 69bd 8e16 fabd 57d5 03bd b6c3 03bd
00000030: a7aa 8abd 42ef a73d d56c d0bd b9ab 54bd
00000040: a542 99bc ff81 79bd 0155 34be d761 9cbd
00000050: 7ba0 883d dc3f f1bd 1cf0 1abd 2ede b8bd
00000060: 341c 303d e98e 45be ea44 3dbd 00fb c5bd
00000070: 6e94 ccbd f451 9abd 14ac cabc 6bfe d2bd
00000080: 5103 d83d 0cbb 6ebd a0e2 f4bd ec33 b6bd
00000090: b807 19bd 3eb2 36bd 9886 15be 13e5 d4bd
000000a0: e355 1fbd d538 d2bd 7113 1ebe 7067 573d
000000b0: 7071 ca3c b75d 35bd 7a19 533d d61a 443d
000000c0: 1b04 143d 24a1 b23c 7129 14bd c780 77bd
000000d0: 4f91 ecbd 35a3 b23c ed9b 1cbd 9b37 cbbc
000000e0: 41b3 26bd 6bf1 263c a07e 1a3d eb66 c5bd
000000f0: 8b2f 1b3b 0de9 923d 0aac 703c a819 e13c
00000100: 4894 eabd 66ed 183b 9aa1 ea3a 184a 643d
00000110: 82c0 fcbd 4de7 90bd b533 96bd 9594 ffbd
00000120: 4c28 78bd a3ac b53c 4659 0dbd 531e ce3d
00000130: 62d7 dabd 2990 52bd d128 b7bd db04 a13d
00000140: a9e3 a8bc 6201 d93c 0148 f03d 7dc5 b5bd
00000150: 144a 183b c1b8 0fbe 927f 553c 8335 9dbc
00000160: 5f43 94bd 62d8 d0bd 3073 a23c 2f3a 433d
00000170: 6e8f 663c a0e9 2fbe 0c51 a0ba 5a6c eabc
00000180: 2b1b 923d 1a8a b33c 648a 08be c70d 9fbd
00000190: 32f2 66bd 5ff1 b9bd 9128 0a3b ed21 aebd
000001a0: 3c50 1abd 9784 853d 97af 3a3d 6548 b3bd
000001b0: 3f19 0dbe efda 47bc 907d d03d ac81 32be
000001c0: 8431 843d 6ecc 64bd ea9d 303c cb38 22bd
000001d0: efd3 8dbc e062 38bd c133 4dbd 4e84 ea3c
000001e0: c5c7 aabd 7815 0ebe 1a7d c2bc 1c45 8f3c
000001f0: 11b5 1fbd d138 bcbd 654e a23d 48a6 babc

network_body._body_endoder.seq_layers.2.weight f4 [128, 128]
0.1622037 -0.06828186 -0.07654336 -0.0050128694 -0.02646945 0.007393165 0.027106889 0.26510045
0.00254773 0.03991947 0.118152164 -0.1699959 0.20346147 0.07239064 0.21940626 -0.058629278
0.10193929 -0.17464523 0.16901146 -0.08467017 0.09570961 0.07864599 0.10302256 0.03055946
0.025064297 -0.12293903 0.04653298 0.013166697 0.09124771 -0.13277861 -0.06802578 0.08130392
0.10450764 0.043564517 -0.07528221 -0.056951918 0.0784603 0.2805924 -0.096596204 0.18563774
0.14869876 -0.09646807 0.050685376 0.015357061 -0.038445026 0.0988942 -0.34079343 0.0028688426
0.00952957 -0.07121602 0.024372743 -0.16125125 -0.0588615 -0.012106763 0.037375223 -0.11782582
0.039412867 -0.001369171 0.12818979 -0.07083916 0.021094862 -0.027931705 0.060531024 0.23489475
-0.0606154 0.08625838 0.06526 0.030119648 -0.03311555 -0.29462093 0.006937772 -0.022059139
0.009908332 -0.042160798 0.044188857 -0.12527792 -0.034042697 0.02592324 -0.023745699 0.06860061
0.17123504 0.023700329 0.02506294 -0.15870582 0.115685284 0.042925585 0.06419894 -0.24817598
-0.19048786 0.048196297 0.108955875 0.10929693 -0.12798506 -0.033538148 0.02793852 -0.029907158
-0.17293873 0.02332671 0.011791674 0.068651706 -0.29621777 0.0023547837 0.1201321 0.0015895524
0.16264015 -0.2576873 0.09491776 -0.0661588 0.078638524 0.002006657 -0.23383917 0.015319393
0.14144468 -0.045607593 -0.14330314 -0.061860856 0.19733012 0.021151343 0.062739216 0.11164497
-0.3200152 -0.10811782 0.13805923 0.022678876 0.0061278366 0.044915803 0.08107519 0.1114763
0.18782131 0.122185156 -0.020682834 0.12857613 -0.022410112 0.1799161 -0.1016118 0.12022429
0.10026408 -0.12647726 0.17053197 -0.022872524 -0.08682959 0.21641932 0.051148042 -0.018099347
-0.06603836 -0.03998616 -0.03603437 -0.019777833 0.10001235 0.044246353 0.00090314593 -0.009088147
-0.009890662 0.11331188 -0.12846258 -0.027777867 -0.0754306 -0.07491609 0.052388377 -0.13169655
-0.16748236 0.13905539 -0.012200665 -0.17013384 0.042947326 0.014662924 0.045241702 0.18839587
0.14366236 -0.019868195 0.13527592 -0.10026918 0.036817882 0.085965514 0.043901384 -0.011518298
-0.20731206 0.0077354256 0.08002471 0.10582094 -0.045460995 0.057354085 -0.30091158 -0.19501606
-0.108138025 -0.084581934 -0.006339949 -0.091719285 0.091540486 0.14234127 -0.27466252 0.08046218
-0.16791281 0.15843438 -0.031863578 -0.013483818 -0.005905897 -0.0782153 -0.0052422467 -0.01866624
0.17721166 -0.007659897 0.19016883 0.08655786 0.23525739 0.047224756 -0.012550775 0.14131194
0.08100803 0.09815157 -0.017818812 -0.09096826 0.045645814 0.023727633 -0.043378886 -0.30805796
0.059998844 0.039548885 0.04934582 0.17765456 -0.020493371 0.18539843 -0.03665999 -0.022980152
0.15529546 -0.043527316 -0.12785992 0.028111558 -0.24798393 -0.01582257 -0.111574605 -0.048919927
-0.048932835 -0.060674805 0.018933238 -0.04726241 0.2639839 0.17510886 -0.007417677 -0.037645236
-0.14219679 0.0035493893 -0.24078168 0.1317486 0.13288192 0.19528225 -0.023748672 -0.14488927
-0.12261562 -0.08042254 -0.08206574 0.07659808 -0.15409844 0.19334802 0.119299084 -0.057048008
00000000: ba18 263e 5cd7 8bbd c4c2 9cbd ff42 a4bb
00000010: 76d6 d8bc 5d42 f23b 440f de3c 3fbb 873e
00000020: d1f7 263b 9982 233d c3f9 f13d 6813 2ebe
00000030: 3458 503e 8b41 943d 09ac 603e 4125 70bd
00000040: 8cc5 d03d 33d6 32be 5711 2d3e 8e67 adbd
00000050: 6603 c43d 2611 a13d 7efd d23d d557 fa3c
00000060: a453 cd3c 75c7 fbbd 5e99 3e3d 21b9 573c
00000070: 14e0 ba3d 1ef7 07be 1a51 8bbd ab82 a63d
00000080: 1a08 d63d b570 323d 8f2d 9abd 6a46 69bd
00000090: cbaf a03d cfa9 8f3e 3bd4 c5bd d217 3e3e
000000a0: 7d44 183e 0d91 c5bd 789b 4f3d 2f9c 7b3c
000000b0: 8878 1dbd 0b89 ca3d 7a7c aebe 3103 3c3b
000000c0: ea21 1c3c b4d9 91bd 59a9 c73c 0c1f 25be
000000d0: c218 71bd 725b 46bc c316 193d aa4e f1bd
000000e0: 636f 213d c175 b3ba 2f44 033e 1f14 91bd
000000f0: 22cf ac3c 08d1 e4bc 61ef 773d 4088 703e
00000100: db47 78bd 3ca8 b03d 09a7 853d 7bbd f63c
00000110: 2ca4 07bd 8ed8 96be 4056 e33b 5eb5 b4bc
00000120: 8e56 223c cdb0 2cbd 60ff 343d db48 00be
00000130: 5b70 0bbd fa5c d43c 5786 c2bc 7a7e 8c3d
00000140: 3d58 2f3e 3127 c23c cb50 cd3c c783 22be
00000150: 68ec ec3d bdd2 2f3d bc7a 833d d821 7ebe
00000160: 400f 43be 7b69 453d 4224 df3d 12d7 df3d
00000170: 840e 03be 4c5f 09bd 53df e43c dbff f4bc
00000180: da16 31be a817 bf3c de31 413c 4499 8c3d
00000190: dba9 97be b752 1a3b d207 f63d 8758 d03a
000001a0: 248b 263e 97ef 83be 3e64 c23d 447e 87bd
000001b0: 3c0d a13d 1e82 033b 8973 6fbe 31fe 7a3c
000001c0: e0d6 103e 07cf 3abd 0fbe 12be cf61 7dbd
000001d0: e810 4a3e 9545 ad3c 6b7d 803d 1ea6 e43d
000001e0: 08d9 a3be e06c ddbd 665f 0d3e 0dc9 b93c
000001f0: 05cc c83b a2f9 373d c00a a63d b04d e43d
00000200: 3b54 403e 363c fa3d 0c6f a9bc 76a9 033e
00000210: 6995 b7bc ed3b 383e d919 d0bd 2738 f63d
00000220: 4157 cd3d 4183 01be ef9f 2e3e 295f bbbc
00000230: b6d3 b1bd 079d 5d3e 9c80 513d 1545 94bc
00000240: 1f3f 87bd 87c8 23bd c798 13bd 1f05 a2bc
00000250: 46d3 cc3d aa3b 353d 19c1 6c3a 74e6 14bc
00000260: 710c 22bc 0f10 e83d b28b 03be 698e e3bc
00000270: 5c7b 9abd 9b6d 99bd 3295 563d 76db 06be
00000280: 7f80 2bbe 8964 0e3e 4ce5 47bc 9137 2ebe
00000290: 89e9 2f3d c33c 703c 5d4f 393d d9ea 403e
000002a0: 3a1c 133e a0c2 a2bc c585 0a3e ee59 cdbd
000002b0: 59ce 163d b00e b03d f0d1 333d 3eb7 3cbc
000002c0: 9d49 54be 7479 fd3b ffe3 a33d a6b8 d83d
000002d0: 4f35 3abd 1eec 6a3d 1511 9abe 4ab2 47be
000002e0: 7877 ddbd 4b39 adbd 59bf cfbb 52d7 bbbd
000002f0: 9479 bb3d e9c1 113e 91a0 8cbe 5bc9 a43d
00000300: 56f1 2bbe 9f3c 223e 6283 02bd 3beb 5cbc
00000310: 4186 c1bb 582f a0bd 27c7 abbb f1e9 98bc
00000320: f976 353e e0ff fabb 9ebb 423e 3f45 b13d
00000330: 50e7 703e bf6e 413d c4a1 4dbc 14b4 103e
00000340: 8ae7 a53d b103 c93d c2f8 91bc 914d babd
00000350: 1bf7 3a3d 7460 c23c 0fae 31bd c6b9 9dbe
00000360: 59c1 753d 03fe 213d d81e 4a3d 14eb 353e
00000370: b7e1 a7bc 16d9 3d3e c928 16bd df40 bcbc
00000380: c605 1f3e b349 32bd b6ed 02be 364a e63c
00000390: 80ef 7dbe 569e 81bc 3a81 e4bd 4360 48bd
000003a0: cc6d 48bd 2586 78bd e119 9b3c 3b96 41bd
000003b0: e628 873e bd4f 333e fc0f f3bb e431 1abd
000003c0: 099c 11be df9c 683b 798f 76be 1be9 063e
000003d0: 3312 083e 12f8 473e 938c c2bc da5d 14be
000003e0: e61d fbbd 93b4 a4bd 1512 a8bd 74df 9c3d
000003f0: fbcb 1dbe 06fd 453e 1453 f43d 2cab 69bd

network_body._body_endoder.seq_layers.2.bias f4 [128]
-0.01392104 -0.022578524 -0.11327137 -0.14812048 -0.16588782 -0.116333604 -0.15483044 -0.069981545
-0.0080362065 -0.086198375 -0.007284187 -0.040754933 0.021866513 -0.044346467 -0.01161401 -0.05702336
-0.1794958 -0.13156545 -0.16686817 -0.01572961 -0.04215633 -0.19754183 -0.055146288 -0.17657034
-0.05975376 -0.043847006 -0.004099062 -0.058024418 -0.17435215 -0.122965865 -0.10699162 -0.11036297
-0.0373778 -0.037586205 -0.17031403 -0.076502435 -0.14718546 -0.16659503 -0.19657144 -0.16478194
-0.21057035 -0.14124712 -0.12711506 -0.052760843 -0.061775353 -0.038343158 -0.12042101 -0.20097163
-0.11873787 0.009304657 -0.14455336 -0.17339133 -0.07215992 -0.15102547 -0.049856342 -0.027615555
0.014293337 -0.09292792 -0.075789884 -0.17402022 -0.0103763705 -0.0056455326 -0.11954831 -0.10455883
-0.19608034 0.018679285 -0.018085951 -0.14347586 -0.09556191 -0.027115403 -0.0044551254 -0.05189648
-0.16158569 -0.18563636 -0.13504502 -0.08250101 -0.1262683 -0.020412933 -0.08096347 -0.025660018
-0.19833003 -0.12602219 0.010054282 -0.012063654 -0.16468987 -0.025546089 -0.048992705 -0.14338528
-0.1873899 -0.10697146 -0.0046376227 -0.013305287 -0.1666852 0.010849408 -0.1794415 -0.05057605
-0.08210784 -0.02430629 -0.1177921 -0.1699074 -0.023505665 -0.009683516 -0.041108675 0.035520658
-0.10905444 0.029332079 -0.1458629 -0.017270353 -0.025278395 -0.18461536 -0.17289156 -0.17239739
-0.19707337 -0.13894463 -0.089002825 0.019001516 0.03719908 -0.005931528 -0.04531246 -0.07302515
-0.016343325 -0.14367782 -0.008818654 -0.15471192 -0.05024283 -0.12376057 -0.080844134 -0.0413083
00000000: 1315 64bc 99f6 b8bc d2fa e7bd e5ac 17be
00000010: 7fde 29be 5040 eebd df8b 1ebe 7c52 8fbd
00000020: 4baa 03bc c688 b0bd 30b0 eebb a5ee 26bd
00000030: 6721 b33c a4a4 35bd b048 3ebc 5491 69bd
00000040: bfcd 37be 18b9 06be 7ddf 2abe 62db 80bc
00000050: 1eac 2cbd 6848 4abe 13e1 61bd dbce 34be
00000060: 5cc0 74bd eb98 33bd 6d51 86bb 03ab 6dbd
00000070: 5f89 32be 87d5 fbbd 6c1e dbbd fb05 e2bd
00000080: 7719 19bd fef3 19bd cd66 2ebe 4fad 9cbd
00000090: c9b7 16be e397 2abe 064a 49be 99bc 28be
000000a0: c19f 57be 16a3 10be 732a 02be c11b 58bd
000000b0: 2708 7dbd b70d 1dbd 4a9f f6bd 82cb 4dbe
000000c0: d72c f3bd 8f72 183c cc05 14be 7f8d 31be
000000d0: 95c8 93bd 6ca6 1abe 2a36 4cbd 043a e2bc
000000e0: 9a2e 6a3c fe50 bebd ba37 9bbd 5b32 32be
000000f0: a701 2abc 29fe b8bb bfd5 f4bd f122 d6bd
00000100: 49c9 48be 4d05 993c fd28 94bc 56eb 12be
00000110: f6b5 c3bd 1f21 debc 4dfc 91bb 6791 54bd
00000120: b876 25be 7517 3ebe 3e49 0abe 4af6 a8bd
00000130: 7a4c 01be 0639 a7bc 2dd0 a5bd f534 d2bc
00000140: 0717 4bbe f60b 01be b7ba 243c a2a6 45bc
00000150: 76a4 28be 0846 d1bc 93ac 48bd 97d3 12be
00000160: 23e3 3fbe da13 dbbd 33f7 97bb 6bfe 59bc
00000170: 86af 2abe b7c1 313c 83bf 37be d528 4fbd
00000180: 2828 a8bd fc1d c7bc fc3c f1bd 35fc 2dbe
00000190: f48e c0bc 9ca7 1ebc 9261 28bd 1c7e 113d
000001a0: ef57 dfbd d449 f03c 165d 15be 8e7a 8dbc
000001b0: a314 cfbc cf0b 3dbe 7c0a 31be f188 30be
000001c0: 9acd 49be 8047 0ebe 1d47 b6bd 11a9 9b3c
000001d0: 105e 183d 435d c2bb 8f99 39bd 368e 95bd
000001e0: 70e2 85bc 4720 13be 1e7c 10bc cd6c 1ebe
000001f0: 6dcb 4dbd 2f76 fdbd 9c91 a5bd e432 29bd

action_model._continuous_distribution.log_sigma f4 [1, 2]
-0.3363285 -0.14976448
00000000: 4033 acbe dc5b 19be

action_model._continuous_distribution.mu.weight f4 [2, 128]
0.033195566 0.07527033 -0.016582355 0.004465178 -0.0038178216 -0.019411918 0.0058771283 -0.029029215
-0.0011544691 0.02631487 -0.008342398 -0.041544873 -0.038143095 -0.010055334 0.09561623 -0.019872501
-0.013331569 0.033341024 0.015423474 -0.004794028 0.06478323 -0.007074159 0.04767997 -0.007917864
0.05026617 0.00037157963 -0.0572629 0.049216237 -0.0066751987 -0.018879829 -0.020193113 -0.0013181588
-0.011028672 -0.0012097659 0.0049210563 0.033060268 -0.0042264885 -0.014034631 -0.0043058293 -0.0017816259
0.0065481607 -0.011816912 0.01326658 0.065703906 -0.0033291106 -0.07517508 -0.015413547 0.007854238
-0.014599551 0.0073678857 -0.0061295866 -0.00680104 0.028784197 -0.010915196 0.04473039 -0.008665676
0.019810414 0.042411402 0.0067714383 -0.0114812935 -0.0068766098 0.005190731 0.009945025 0.03482549
0.0032986845 0.07153439 -0.041024044 0.029609224 0.017397005 -0.0026304205 0.05831203 0.05081011
0.013768003 -0.0021314872 0.006023736 -0.02437267 -0.0052231723 0.019013472 0.051282253 -0.05889946
0.010860257 -0.009716465 -0.0074413503 0.043099612 -0.01387675 -0.06270351 -0.040208973 -0.016399754
0.0046345415 -0.020963963 0.00037994405 0.05527093 0.009778301 0.06825167 -0.008074417 0.07889317
0.041256625 -0.02528883 0.02700322 0.0029420129 -0.0026228991 -0.009476969 -0.026626952 -0.058906656
0.019883664 -0.047477044 -0.021243684 0.02822494 0.033949073 0.008141805 -0.0036825286 -0.0046435962
-0.0033658724 0.008025835 0.053322043 0.035034034 0.024862343 0.010945523 0.06252198 0.025091592
0.08039027 0.013446114 0.0033928328 0.015253013 -0.0076606628 0.011475393 0.008665057 0.069169484
0.06059616 -0.007996514 0.027418897 -0.013388205 0.00093925215 0.003699994 -0.012455652 0.0111999875
-0.0052799787 -0.027247528 -0.009820338 0.010817955 0.043697506 0.015797254 0.03555584 -0.053717736
-0.0021447453 -0.013725329 -0.0055470974 -0.0037026117 -0.043373074 -0.011034885 -0.03553726 -0.004183698
-0.03370107 -0.0025078626 -0.09489655 -0.029669514 -0.0015144027 -0.007089024 0.00093188335 -0.01829812
0.028844751 -0.0030125098 -0.0067672147 -0.028965961 0.0007301668 -5.79406e-05 0.0003905374 -0.0021441847
-0.012289698 0.0039506685 -0.020832988 -0.042765908 -0.020456009 -0.043023217 0.0047841934 -0.012160489
-0.0066064955 0.0065425704 -0.007991211 -3.3641027e-05 -0.039531406 0.0055283657 -0.032260135 -0.00803109
0.04978882 -0.022201324 -0.031586457 0.006468157 -0.009488119 -0.009833374 0.03188342 -0.019543163
-0.016693542 0.049087763 -0.055207487 -0.024802644 -0.019030236 0.057545032 0.04858368 -0.03746027
-0.006919024 -0.008559065 -0.0054572737 0.007462634 0.005619085 0.016227018 -0.02610194 -0.073780365
-0.008008409 0.010734144 -0.09233851 -0.05736777 0.020503568 -0.04839557 -0.058956306 0.014533815
-0.008459989 -0.01555434 0.0040321313 -0.05741579 -0.006801649 -0.044250824 0.020109525 -0.028166587
-0.029985895 -0.058038592 -0.014313543 -0.00836151 -0.001524141 0.01192147 -0.04905737 0.09766286
-0.030669963 0.058175266 0.008786615 0.055119604 0.040437695 -0.0067827627 -0.011343374 -0.0041621802
0.011067307 -0.009902557 -0.028357184 0.072190054 0.039175168 0.025758289 -0.04892989 -0.015644472
-0.046676695 -0.011563216 -0.04499439 -0.007385446 0.0041832407 -0.026890792 -0.02526908 -0.033978276
00000000: 13f8 073d 5527 9a3d b8d7 87bc a150 923b
00000010: 6b34 7abb be05 9fbc ed94 c03b adce edbc
00000020: 8e51 97ba 4892 d73c 8eae 08bc f52a 2abd
00000030: ef3b 1cbd 21bf 24bc 71d2 c33d a8cb a2bc
00000040: a76c 5abc 9990 083d bdb2 7c3c 3917 9dbb
00000050: 12ad 843d 59ce e7bb 124c 433d eeb9 01bc
00000060: e6e3 4d3d 93d0 c239 818c 6abd f796 493d
00000070: a0bb dabb dfa9 9abc 076c a5bc 12c6 acba
00000080: 9ab1 34bc 0291 9eba d040 a13b 346a 073d
00000090: 5b7e 8abb 82f1 65bc ea17 8dbb 7285 e9ba
000000a0: f491 d63b b99b 41bc 125c 593c c58f 863d
000000b0: 352d 5abb 64f5 99bd 1a89 7cbc 10af 003c
000000c0: f532 6fbc 4e6e f13b b3da c8bb 42db debb
000000d0: d6cc eb3c a6d5 32bc 3737 373d 7bfa 0dbc
000000e0: 7349 a23c 94b7 2d3d f1e2 dd3b 091c 3cbc
000000f0: 2f55 e1bb 0217 aa3b 75f0 223c 2ca5 0e3d
00000100: be2e 583b 9f80 923d d408 28bd 0b8f f23c
00000110: 2a84 8e3c 2263 2cbb 98d8 6e3d 431e 503d
00000120: 3193 613c 6cb0 0bbb c362 c53b 32a9 c7bc
00000130: 2527 abbb 24c2 9b3c 570d 523d 8f40 71bd
00000140: 38ef 313c cf31 1fbc 92d6 f3bb 3889 303d
00000150: 4f5b 63bc b36a 80bd 2ab2 24bd c758 86bc
00000160: 5add 973b 9ebc abbc 3a33 c739 c563 623d
00000170: 2b35 203c 88c7 8b3d 8f4a 04bc be92 a13d
00000180: b5fc 283d 852a cfbc db35 dd3c c9ce 403b
00000190: f2e4 2bbb 4a45 1bbc c420 dabc 1b48 71bd
000001a0: 11e3 a23c 4a77 42bd 3c07 aebc fd37 e73c
000001b0: 2f0e 0b3d 3565 053c 9456 71bb 4f29 98bb
000001c0: f895 5cbb cb7e 033c 3768 5a3d d97f 0f3d
000001d0: 1dac cb3c da54 333c 860b 803d e28c cd3c
000001e0: a7a3 a43d 174d 5c3c 4a5a 5e3b c6e7 793c
000001f0: 4c06 fbbb 4903 3c3c e2f7 0d3c bba8 8d3d
00000200: ae33 783d d003 03bc 989d e03c 345a 5bbc
00000210: 2538 763a 997b 723b ca12 4cbc 2780 373c
00000220: ac03 adbb 3536 dfbc 7ce5 20bc cb3d 313c
00000230: 28fc 323d 3e69 813c 00a3 113d 2107 5cbd
00000240: db8e 0cbb 34e0 60bc 6dc4 b5bb 84a7 72bb
00000250: f7a7 31bd aacb 34bc 858f 11bd 6717 89bb
00000260: 220a 0abd f45a 24bb 1f59 c2bd 7b0d f3bc
00000270: ec7e c6ba 0b4b e8bb a249 743a f0e5 95bc
00000280: d44b ec3c 876d 45bb 83bf ddbb 064a edbc
00000290: aa68 3f3a 3f05 73b8 0bc1 cc39 7385 0cbb
000002a0: bb5a 49bc 9c74 813b f1a9 aabc 4e2b 2fbd
000002b0: 5c93 a7bc 1d39 30bd b9c4 9c3b ca3c 47bc
000002c0: 4d7b d8bb 0f63 d63b 91ed 02bc c719 0db8
000002d0: afeb 21bd 4b27 b53b 3423 04bd d594 03bc
000002e0: 5def 4b3d 8ddf b5bc cd60 01bd d5f2 d33b
000002f0: 0e74 1bbc 291c 21bc 3098 023d fc18 a0bc
00000300: e5c0 88bc 4010 493d 3f21 62bd ea2e cbbc
00000310: 4ce5 9bbc 57b4 6b3d aeff 463d f16f 19bd
00000320: fbb8 e2bb 523b 0cbc eed2 b2bb 1c89 f43b
00000330: 4d20 b83b 86ee 843c bcd3 d5bc 291a 97bd
00000340: b435 03bc 43de 2f3c f91b bdbd 77fa 6abd
00000350: 19f7 a73c 6f3a 46bd 2b7c 71bd 3d1f 6e3c
00000360: c49b 0abc a1d7 7ebc f81f 843b d22c 6bbd
00000370: 5ee0 debb 5a40 35bd bbbc a43c 9dbd e6bc
00000380: fba4 f5bc e0b9 6dbd 5a83 6abc b7fe 08bc
00000390: afc5 c7ba 4552 433c 61f0 48bd 7703 c83d
000003a0: 933f fbbc 3049 6e3d bcf5 0f3c 18c5 613d
000003b0: ffa1 253d f041 debb 8fd9 39bc e662 88bb
000003c0: a653 353c 563e 22bc 534d e8bc 61d8 933d
000003d0: 2476 203d 0c03 d33c b56a 48bd d628 80bc
000003e0: 1030 3fbd a573 3dbc 0a4c 38bd 9d01 f2bb
000003f0: 9113 893b 144a dcbc 1a01 cfbc ce2c 0bbd

action_model._continuous_distribution.mu.bias f4 [2]
-0.003878182 0.011919322
00000000: 1929 7ebb 4349 433c
