MachineLearning/results/TestParameters2/MoveTOGoal.onnx (onnx, 75062 bytes, 7 tensors)

network_body._body_endoder.seq_layers.0.weight f4 [128, 6]
0	0x3f2e055d	0.67976934
1	0xbf4dfb21	-0.8046132
2	0xbe5c5f90	-0.21520829
3	0x3d91adc8	0.07113224
4	0xbd1c1af1	-0.03811163
5	0x3dbb6908	0.091508925
6	0x3e8b851e	0.27249998
7	0x3cc0bd53	0.023527777
8	0xbeefaf0f	-0.46813247
9	0x3d386520	0.045018315
10	0x3ee49a06	0.4464876
11	0x3e4568b7	0.19278227
12	0x3f04617b	0.51711243
13	0x3e8b8ce2	0.27255923
14	0xbb13e8dc	-0.0022569215
15	0xbf0b0c90	-0.54316044
16	0xbe99b027	-0.30017206
17	0x3ee1aa27	0.44075128
18	0x3d645706	0.055747055
19	0xbdb0fb8d	-0.086417295
20	0x3eb9d9fb	0.36299118
21	0xbf1961e9	-0.59915024
22	0x3f9308c9	1.1487056
23	0x3e041ea9	0.12902321
24	0x3ef5cd41	0.4800816
25	0xbf45c309	-0.77250725
26	0x3f1cf6d1	0.6131411
27	0xbde786de	-0.11305021
28	0xbe0ad470	-0.13557601
29	0x3d54210f	0.05178934
30	0x3e8ccd91	0.27500585
31	0x3f3efd12	0.74604905
32	0x3e205f0e	0.1566126
33	0xbe90d0b2	-0.28284222
34	0x3eed73d2	0.46377426
35	0xbed47881	-0.41498187
36	0xbea93165	-0.33045498
37	0xbc9da294	-0.019242562
38	0xbeb6b75a	-0.3568676
39	0xbf23f974	-0.6405251
40	0x3d92f522	0.071756616
41	0xbdcfe30c	-0.10150728
42	0xbe1195f0	-0.14217353
43	0xbe9be2cb	-0.30446467
44	0xbd46b5d2	-0.04851324
45	0x3caf3925	0.021389553
46	0xbe9b6564	-0.30350792
47	0x3f18ec32	0.59735405
48	0xbef5aa3e	-0.47981447
49	0xbd63a560	-0.055577636
50	0x3ee971a9	0.45594528
51	0x3e75fbc2	0.24021819
52	0xbe385bbc	-0.18003744
53	0xbe9d2205	-0.30690017
54	0x3f153018	0.5827651
55	0xbeb6000e	-0.35546917
56	0xbe9b8a4b	-0.30378947
57	0x3f19a558	0.6001792
58	0xbe9a0474	-0.30081522
59	0xbeca517d	-0.39515296
60	0xbf1fb6a4	-0.6238806
61	0xbd9a1233	-0.075230025
62	0xbebcb47d	-0.36856452
63	0xbe369056	-0.17828497
64	0x3ec58af5	0.38582578
65	0x3ebbfb12	0.3671499
66	0xbec78942	-0.38971907
67	0xbe21b570	-0.15791869
68	0x3f186866	0.595343
69	0xbdfe8590	-0.12427819
70	0x3f364aef	0.7120809
71	0x3c40d234	0.011768866
72	0x3dd45a95	0.1036884
73	0xbec5918b	-0.38587603
74	0xbd41584a	-0.04720334
75	0x3f621589	0.8831411
76	0xbe977a02	-0.29585272
77	0x3e0cb2f7	0.13740145
78	0x3f24edb3	0.644252
79	0xbf04054b	-0.51570576
80	0xbe9ad873	-0.30243263
81	0xbe57e29e	-0.21082541
82	0x3eaf1b9d	0.34200755
83	0xbe9e1a39	-0.3087938
84	0xbf280208	-0.656281
85	0xbe4a72b6	-0.19770321
86	0x3f7e2f60	0.9929104
87	0x3dac2669	0.08405764
88	0xbe421a2b	-0.18955295
89	0x3ea2c68f	0.31792113
90	0x39dcf834	0.00042146596
91	0x3f42818f	0.7597894
92	0x3e55c30c	0.20875186
93	0x3edf6ea2	0.43639094
94	0xbe6a42bc	-0.2287702
95	0xbe6783c2	-0.22608855
96	0xbed1f099	-0.41003874
97	0x3e56a43f	0.20961092
98	0xbefcab08	-0.49349236
99	0x3f08a837	0.53381675
100	0x3e1c0f1a	0.15240136
101	0x3f4ceca2	0.80048573
102	0xbe05f6be	-0.13082406
103	0x3ebfc96f	0.3745837
104	0x3dc99c32	0.09844245
105	0x3dd931e6	0.106052205
106	0x3ccefe12	0.025267635
107	0xbeaada38	-0.33369613
108	0xbe8eadc7	-0.27866957
109	0xbe8f6a10	-0.28010607
110	0xbe633954	-0.22189838
111	0xbf1e4a2b	-0.6183192
112	0xbf5aba35	-0.8544038
113	0xbec8db8a	-0.39229995
114	0xbf0701fd	-0.5273741
115	0x3f86b760	1.0524712
116	0x3f0b59e5	0.54434043
117	0x3de9d757	0.11418026
118	0x3f096424	0.5366843
119	0xbeab65b2	-0.33476025
120	0x3ea3d393	0.31997356
121	0xbf6915ce	-0.91048896
122	0x3f5caf29	0.86204773
123	0xbe497bbc	-0.19676107
124	0xbe89d9ca	-0.26923972
125	0x3f0d9d26	0.55317914
126	0xbc0df727	-0.008664883
127	0xbe9b587e	-0.30340952
128	0xbc73591d	-0.014852789
129	0xbe01d41b	-0.12678568
130	0xbf176371	-0.5913611
131	0x3f4dd2e5	0.80399925
132	0x3dbf307c	0.093354195
133	0xbe7475ce	-0.23873064
134	0xbdfc69f4	-0.123248965
135	0xbf07f8dd	-0.5311411
136	0xbe2b6e89	-0.16741385
137	0xbec5e8f7	-0.386543
138	0x3e30c31c	0.17261928
139	0x3e0c9819	0.13729896
140	0x3f16efb2	0.58959496
141	0x3e1866ed	0.14883013
142	0xbd73c22b	-0.059511345
143	0xbe4c2ad9	-0.1993822
144	0xbe086aa8	-0.13321936
145	0xbd748933	-0.059701156
146	0x3f01c5e5	0.5069259
147	0x3eec6ab5	0.4617516
148	0xbe74972b	-0.23885791
149	0x3daa6a0e	0.083210096
150	0xbec8a81d	-0.3919076
151	0xbe9504a8	-0.29105115
152	0xbe3e0cbc	-0.18559545
153	0xbe82b024	-0.2552501
154	0xbf1fe3b1	-0.62456805
155	0x3f5c1fbb	0.85985917
156	0x3ebb3891	0.36566594
157	0xbf29f59a	-0.66390383
158	0xbe25b2cb	-0.16181485
159	0x3e58ce2e	0.21172401
160	0xbf01a5b0	-0.50643444
161	0x3f37b1d9	0.7175575
162	0x3f636a9b	0.8883454
163	0x3df1732f	0.11789548
164	0x3ed7b234	0.42128146
165	0xbed929ea	-0.4241479
166	0xbea74808	-0.32672143
167	0xbe7f60f2	-0.24939325
168	0xbd2f2d34	-0.04276772
169	0x3ed0a1ca	0.40748435
170	0x3f4c3c7b	0.79779786
171	0xbf5fd5ea	-0.8743578
172	0x3e04711e	0.12933776
173	0x3e849e97	0.25902244
174	0xbf189851	-0.59607416
175	0xbd0d4d26	-0.034497403
176	0x3ead9028	0.33899045
177	0x3e21c30b	0.15797059
178	0x3ea49352	0.32143646
179	0x3cd96604	0.026537903
180	0x3e5f041a	0.21778908
181	0x3e7dfe1d	0.24803968
182	0xbe39e558	-0.18153894
183	0xbe5a67a1	-0.21328594
184	0x3c96c9de	0.018406805
185	0x3d30ce82	0.04316569
186	0xbe777b1b	-0.24168055
187	0xbbadeea9	-0.0053079915
188	0x3e936b50	0.2879281
189	0xbe9611a4	-0.29310334
190	0xbea645aa	-0.32475024
191	0xbde8e1ce	-0.11371194
192	0xbec24970	-0.37946653
193	0xbea0dacd	-0.31416932
194	0x3c4330bf	0.011913477
195	0xbef29fbf	-0.47387502
196	0x3dfbc295	0.12292973
197	0x3ee80b07	0.45320913
198	0x3ebf0529	0.37308624
199	0x3e44d785	0.19222839
200	0x3e90d936	0.2829072
201	0xbe818a8a	-0.2530101
202	0x3f6a7b2a	0.91594183
203	0xbe878841	-0.2647114
204	0xbf53c86a	-0.8272768
205	0xbeb2b972	-0.3490711
206	0x3e2140c7	0.15747367
207	0x3e925731	0.28582147
208	0x3cfde9c7	0.030995263
209	0xbe4fa7ca	-0.2027885
210	0xbdfc5491	-0.12320817
211	0xbc319b54	-0.010840256
212	0xbecf6a7a	-0.40510923
213	0x3e086833	0.13320999
214	0x3e38694b	0.18008916
215	0x3ec7821a	0.38966447
216	0xbeb6458f	-0.35599944
217	0x3f0172dc	0.50565886
218	0xbf53bc34	-0.8270905
219	0xbe9dd3c4	-0.30825627
220	0xbece967f	-0.40349194
221	0xbeac8f62	-0.33703142
222	0xbe54d90d	-0.20785923
223	0x3e03f33b	0.12885754
224	0x3f533133	0.8249695
225	0x3ebb62f8	0.36598945
226	0xbe959706	-0.29216784
227	0x3b0a66a2	0.0021118303
228	0xbdc8ee0b	-0.09811028
229	0x3e4f8e10	0.20269036
230	0xbf09b979	-0.53798634
231	0x3f0700f7	0.5273585
232	0xbea7c58e	-0.3276791
233	0x3f28033e	0.6562995
234	0xbfa2c071	-1.2714978
235	0x3d0784d4	0.03308566
236	0xbdb55c40	-0.08855486
237	0x3ee7bb87	0.4526026
238	0xbe87c634	-0.26518404
239	0xbe8576bf	-0.2606716
240	0x3dc1021a	0.09424229
241	0x3e0c0eb2	0.13677481
242	0xbe228990	-0.15872788
243	0xbc35c4eb	-0.011094312
244	0xbe388b94	-0.18021995
245	0x3f06c164	0.5263884
246	0x3f22729e	0.6345614
247	0xbd844182	-0.06457807
248	0x3c926384	0.017869718
249	0xbe92a32b	-0.28640112
250	0xbd94cfc2	-0.07266189
251	0x3df1fbd9	0.11815614
252	0xbde47c04	-0.111564666
253	0x3e233ffe	0.1594238
254	0x3e2cb9d5	0.16867764
255	0x3e44db60	0.1922431

network_body._body_endoder.seq_layers.0.bias f4 [128]
0	0xbcd177dd	-0.02556985
1	0xbd727bb0	-0.05919999
2	0x3d79bc94	0.060970858
3	0xbdba0671	-0.0908326
4	0x3d15c5f5	0.03656574
5	0xbd97bbb6	-0.0740885
6	0xbd78e300	-0.06076336
7	0xbdbc1d24	-0.09185246
8	0xbcce78f5	-0.025204161
9	0xbd0b0a69	-0.033945475
10	0x3cb5fab8	0.022214279
11	0xbcb5434a	-0.022126812
12	0xbd913281	-0.07089711
13	0x3c233aac	0.009962719
14	0xbd349d89	-0.04409555
15	0xbdee2c38	-0.11629528
16	0x3b6111b9	0.003434284
17	0xbdfe9876	-0.12431423
18	0xbcbc4486	-0.022981893
19	0xbda1108d	-0.07864485
20	0xbda99360	-0.08280063
21	0x3bd09d5f	0.0063664163
22	0x3de97aae	0.114003524
23	0xbcc955a5	-0.024576971
24	0x3bd113f4	0.0063805524
25	0x3c51668c	0.012780797
26	0x3c6a1d5a	0.0142892245
27	0xbd42b782	-0.047538288
28	0xbe02c5c6	-0.12770757
29	0xbc99e1e2	-0.018784467
30	0xbdd5ee3e	-0.10445832
31	0xbdbe2df0	-0.09286106
32	0x3ba6fcef	0.00509607
33	0xbdf55d25	-0.119806565
34	0x3e0e6597	0.13905941
35	0x3cfb282b	0.030658802
36	0xbe1f785f	-0.15573262
37	0x3bb361ec	0.0054743197
38	0x3df2d5f4	0.118572146
39	0xbd8146fc	-0.06312367
40	0x3b8a2e98	0.00421698
41	0x3bca57e2	0.006175027
42	0x3b1012fe	0.0021983976
43	0xbd08979a	-0.033347704
44	0xbd660870	-0.05616039
45	0xbd7010ac	-0.05860965
46	0xbd53e923	-0.05173601
47	0xbcd258e1	-0.025677146
48	0xbd4992c9	-0.04921225
49	0xbd0da0ce	-0.034577183
50	0xbd178b26	-0.036997937
51	0xbd98c4b0	-0.0745939
52	0x3c276c15	0.01021864
53	0xbcfe7047	-0.031059397
54	0x3cbfeeae	0.023429241
55	0x3d80a8cf	0.06282198
56	0xbdcb0279	-0.09912581
57	0x3deb98b7	0.115037374
58	0xbe0f2c68	-0.13981783
59	0xbd529447	-0.05141094
60	0xbe14181f	-0.14462326
61	0xbcbff373	-0.023431515
62	0x3ba345ca	0.0049826847
63	0xbcf48403	-0.029848104
64	0xbc971c65	-0.018446157
65	0x3db65e31	0.08904684
66	0xbd8e3059	-0.06942815
67	0xbdd2c825	-0.10292081
68	0x3d1875fd	0.037221897
69	0xbd61e645	-0.055151243
70	0x3d0ee639	0.034887526
71	0x3d86c329	0.065801926
72	0xbbfe4eb5	-0.0077608475
73	0x3b7d7809	0.0038676283
74	0xbdaead32	-0.08529128
75	0xbccde742	-0.025134686
76	0xbcc7dbcc	-0.0243968
77	0xbcefca6d	-0.029271329
78	0x3db14e53	0.08657517
79	0x3d928f8f	0.07156288
80	0xbca586b1	-0.020205827
81	0x3b6d0ec4	0.003617213
82	0xbb0820bf	-0.0020771471
83	0xbc142b09	-0.0090434635
84	0xbcd34972	-0.025791857
85	0xbdb9e20e	-0.0907632
86	0xbd0a58eb	-0.033776205
87	0xbdcdcb3b	-0.10048529
88	0xbd2d3f08	-0.04229644
89	0xbd27030a	-0.040774383
90	0xbb9dc702	-0.0048149833
91	0xbd32e7d8	-0.043678135
92	0xbd308cf5	-0.043103177
93	0xbc9736c0	-0.018458724
94	0x3dae4ce8	0.085107625
95	0xbcfc1781	-0.030772926
96	0xbb86a7a0	-0.004109338
97	0x3d8be3b1	0.06830538
98	0x3dc0d483	0.094155334
99	0xbd7ef2f6	-0.062243424
100	0xbd4bbced	-0.04974072
101	0x3b0749ad	0.002064328
102	0xbe0ff560	-0.14058447
103	0xbde3ce72	-0.11123361
104	0x3d897660	0.06712031
105	0x3b8a9b7a	0.00422996
106	0xbb0d0343	-0.0021516837
107	0xbd879b0b	-0.06621369
108	0xbdb0aad6	-0.08626334
109	0xbd5d3a78	-0.05401084
110	0x3cb3c098	0.021942422
111	0x3dc4e953	0.096148156
112	0xbd98cade	-0.07460569
113	0xbe4fa100	-0.2027626
114	0xbde7a716	-0.11311166
115	0xbda04c06	-0.07827
116	0xbd454bcc	-0.04816799
117	0xbda8a16e	-0.08233915
118	0xbddebf8f	-0.10876381
119	0xbc716739	-0.014734083
120	0xbdcd3442	-0.10019733
121	0xbd88e20f	-0.06683742
122	0xbd416dbb	-0.047223788
123	0xbd404ada	-0.046946384
124	0xbd8181e5	-0.063236035
125	0xbd18f902	-0.037346847
126	0xbdc63aba	-0.0967917
127	0x3d4e5dd2	0.050382443

network_body._body_endoder.seq_layers.2.weight f4 [128, 128]
0	0xbe2c3d81	-0.16820337
1	0x3dff98e1	0.12480331
2	0x3b8369b0	0.0040104017
3	0x3dd9e6a8	0.10639697
4	0xbd4bc5a7	-0.049749043
5	0xbdb017cd	-0.0859829
6	0x3d82f053	0.063934945
7	0xbe7da482	-0.24769786
8	0xbea4a094	-0.3215376
9	0x3cc67323	0.024224823
10	0xbe1df931	-0.1542709
11	0x3cb827e0	0.022479951
12	0x3de8cda6	0.11367349
13	0xbd3b3ccd	-0.04571228
14	0xbaebb9c1	-0.0017984436
15	0x3e4c9314	0.19977981
16	0xbd86c103	-0.06579783
17	0xbde06070	-0.10955894
18	0xbe196b1d	-0.14982267
19	0x3d0400f3	0.032227468
20	0xbd6f164f	-0.058370885
21	0x3d5db2e7	0.054125693
22	0xbd9547ec	-0.07289109
23	0x3db052e9	0.08609564
24	0xbd741e2f	-0.059599098
25	0xbe3ceb23	-0.18449073
26	0xbaf15900	-0.0018413365
27	0x3cdd8ffe	0.0270462
28	0x3d76d09e	0.060257547
29	0xbdec6518	-0.115427196
30	0xbce817e9	-0.028331714
31	0xbe78cd76	-0.24297127
32	0xbd36c0ec	-0.04461758
33	0x3dd94461	0.10608745
34	0xbe74c744	-0.23904139
35	0xbe83a7a7	-0.25713846
36	0x3c6690e1	0.014072628
37	0x3cdc2217	0.026871724
38	0xbea96009	-0.33081082
39	0xbe29d010	-0.16583276
40	0xbddf7262	-0.10910489
41	0xbd873762	-0.0660236
42	0x3d9350c5	0.0719314
43	0x3da16d38	0.0788216
44	0xbe58b75c	-0.21163696
45	0x3d875263	0.06607511
46	0xbe8da316	-0.27663487
47	0xbe0af162	-0.13568643
48	0x3b0759dc	0.0020652926
49	0xbe56c0ee	-0.20972034
50	0xbe0aaa7b	-0.13541596
51	0x3c9f57c1	0.019451024
52	0x3d814721	0.06312395
53	0xbe173370	-0.14765716
54	0xbe3ebafb	-0.18626015
55	0xbdf3d592	-0.1190597
56	0x3d1a4553	0.03766377
57	0x3c8cdb5a	0.017194439
58	0x3c6697cf	0.01407428
59	0xbd7810b1	-0.060562793
60	0xbd041e11	-0.032255236
61	0x3c0b0b44	0.008486573
62	0x3dbd6b57	0.09248989
63	0xbe22cbbc	-0.15898031
64	0xbd89c4c4	-0.06726983
65	0xbe2fc3c6	-0.17164525
66	0x3d865261	0.06558681
67	0xbd175129	-0.036942635
68	0x3d70a4b3	0.05875082
69	0xbc1ca8b7	-0.009561709
70	0xbe2dbce9	-0.16966595
71	0xbd905cc4	-0.07048944
72	0xbe2d5044	-0.1692515
73	0xbdedac3d	-0.116051175
74	0x3d647f52	0.055785485
75	0xbdbfafef	-0.093597285
76	0xbc7b08a3	-0.015321883
77	0x3e1e6f6a	0.15472189
78	0xbe016507	-0.12636195
79	0x3df6e392	0.12055124
80	0xbda6808e	-0.081299886
81	0x3ca660fc	0.020309918
82	0xbdfc6d6a	-0.123255566
83	0xbdacb97d	-0.084338166
84	0xbe52e824	-0.20596367
85	0x3cd08710	0.025455028
86	0x3d18ba1b	0.03728686
87	0x3c7eb4cf	0.015546038
88	0xbd44dcec	-0.04806225
89	0xbcab0c77	-0.020879967
90	0x3e2b25c6	0.16713628
91	0x3d745659	0.05965266
92	0x3af8a363	0.0018969591
93	0xbcbf5fea	-0.023361165
94	0x3dd27252	0.10275711
95	0xbd9cf0ca	-0.07663114
96	0x3d45ef45	0.04832389
97	0xbe93010e	-0.28711742
98	0xbe0e405a	-0.13891736
99	0xbe54f5ba	-0.20796862
100	0xbd89c3ea	-0.06726821
101	0xbd813c23	-0.06310298
102	0x3c2ccea8	0.010547318
103	0x3e1e2386	0.15443239
104	0xbcb526ad	-0.022113169
105	0x3e1f7ab2	0.15574148
106	0xbdbad780	-0.091231346
107	0x3e005d36	0.12535557
108	0x3dd6838c	0.10474309
109	0xbe042be9	-0.12907375
110	0xbdf42836	-0.11921732
111	0xbe0df2d4	-0.13862163
112	0xbe4bdde0	-0.19908857
113	0x3d6a7cd0	0.057247937
114	0xbd92ca93	-0.07167544
115	0xbe375f6b	-0.17907493
116	0xbd92c2a1	-0.07166029
117	0xbd4d1c7a	-0.050075985
118	0xbc1ae57e	-0.009454129
119	0x3e134418	0.14381444
120	0xbd091d99	-0.033475492
121	0x3c94e262	0.018174354
122	0x39c19d6d	0.0003692912
123	0x3db434a7	0.08799105
124	0x3bc56011	0.006023415
125	0xbde5f52a	-0.11228402
126	0xbe021117	-0.12701832
127	0x3d516506	0.051121734
128	0x3dbd9738	0.09257358
129	0x3dcc3cb9	0.099725194
130	0x3df654d1	0.12027896
131	0xbda3136a	-0.07962687
132	0x3e14b41d	0.14521833
133	0xbce882f0	-0.028382748
134	0x3dc262ff	0.09491538
135	0xbdc9fbc8	-0.098624766
136	0xbd4a0320	-0.049319386
137	0xbe0cbbca	-0.13743511
138	0xbe1b25a3	-0.15151076
139	0xbd89d8c1	-0.06730796
140	0xbc91ee40	-0.017813802
141	0xbd33da54	-0.043909386
142	0xbde79862	-0.113083616
143	0xbd0b323c	-0.033983454
144	0x3df8d5ad	0.121501304
145	0x3d2874ad	0.041126896
146	0xbceafeaa	-0.028685886
147	0xbdb5022b	-0.08838304
148	0xbdaa8d83	-0.083277725
149	0xbd52a128	-0.05142322
150	0x3c59f23e	0.013302384
151	0x3e38cc4e	0.18046686
152	0xbce50cfb	-0.027960291
153	0xbbcb5952	-0.006205716
154	0xbd0c68d7	-0.03427967
155	0xbe2f7015	-0.171326
156	0x3e0f0c1b	0.13969462
157	0x3bbcdef4	0.005763883
158	0xbd1dfa46	-0.038568757
159	0xbd336c34	-0.043804362
160	0xbd3646d8	-0.044501156
161	0xbe1488dd	-0.14505334
162	0xbe07bc24	-0.13255364
163	0xbda13d0e	-0.078729734
164	0xbd5a1433	-0.05324192
165	0xba99ac00	-0.0011724234
166	0x3d8ec4e4	0.06971148
167	0xbdd1b728	-0.102400124
168	0x3c947217	0.018120809
169	0x3ca93e94	0.020659722
170	0xbe1f89cd	-0.1557991
171	0xbe0f76a3	-0.140101
172	0xbddab713	-0.1067945
173	0xbd8bc267	-0.06824189
174	0xbddafab7	-0.10692351
175	0x3dc0f6e4	0.09422091
176	0x3d01c5df	0.031682845
177	0xbdadf6dc	-0.0849435
178	0x3d579a37	0.052637305
179	0x3dcf3a96	0.10118596
180	0xbd2d749a	-0.042347528
181	0xbdc2431e	-0.09485458
182	0xbd625935	-0.055260856
183	0xb921a3d8	-0.00015415193
184	0x3e239ca4	0.15977722
185	0xbc914089	-0.017730968
186	0x3db42b8e	0.0879737
187	0xbdf3bf89	-0.11901767
188	0xb9be0fff	-0.00036251542
189	0xbd3a4f4c	-0.04548578
190	0xbddd1d92	-0.10796656
191	0xbbaa71a9	-0.0052015376
192	0xbd8d6c3b	-0.06905409
193	0xbd94ba30	-0.07262075
194	0x3e2fc47c	0.17164797
195	0xbe25aeb4	-0.16179925
196	0x3c89b30e	0.016809013
197	0x3c5e01c7	0.013550228
198	0xbdf46cc7	-0.1193481
199	0xbda85d83	-0.08220961
200	0x3d99d758	0.07511777
201	0x3d236772	0.039893575
202	0x3dc28a0e	0.09498988
203	0xbcd508eb	-0.026005229
204	0x3c7ab66b	0.015302281
205	0x3e10653e	0.14101121
206	0xbd96bec2	-0.07360603
207	0xbdb049b9	-0.086078115
208	0xbd71acf8	-0.059002846
209	0xbd802206	-0.062564895
210	0x3a7f36c3	0.0009735638
211	0xbe06b5b0	-0.13155246
212	0x3de731da	0.11288805
213	0x3c90307f	0.01760125
214	0xbd893437	-0.06699412
215	0xbe126c81	-0.14299203
216	0x3d524a54	0.051340416
217	0x3d47fa71	0.048822824
218	0xbe0c59f4	-0.1370619
219	0xbe520d9e	-0.20513007
220	0xbe0d58f2	-0.13803461
221	0xbd8b6601	-0.06806565
222	0x3d6486e8	0.05579272
223	0x3d71eb76	0.059062444
224	0xbbb21221	-0.00543429
225	0xbdb387fe	-0.08766173
226	0x3d132ebf	0.035933252
227	0x3ce2c99b	0.027684024
228	0x3e09652d	0.13417502
229	0x3d38613d	0.04501461
230	0x3e10658c	0.14101237
231	0x3cc2fdc6	0.02380265
232	0x3dfcfb02	0.123525634
233	0xbdd821a3	-0.10553291
234	0xbe22945c	-0.15876907
235	0xbbd837e0	-0.0065984577
236	0xbe1090c1	-0.14117719
237	0x3d7d08e7	0.061776068
238	0xbe46cba2	-0.19413617
239	0x3d185abe	0.037195913
240	0x3d5abcd5	0.05340274
241	0xbe059c5f	-0.13047932
242	0xbdae43aa	-0.08509
243	0x3cabb3f7	0.020959837
244	0x3d81ebbb	0.0634379
245	0x3c1f1c25	0.0097113
246	0xbce03aa0	-0.027371705
247	0x3db3c9e7	0.08778744
248	0xbda248e0	-0.07924056
249	0xbbd1b7e5	-0.0064000958
250	0xbd2ab707	-0.041678455
251	0xbdcfa942	-0.10139705
252	0xbe0488e7	-0.12942849
253	0xbe85477d	-0.26031104
254	0x3e03e421	0.12879993
255	0x3e1baa60	0.15201712

network_body._body_endoder.seq_layers.2.bias f4 [128]
0	0x3d426f2e	0.04746931
1	0xbd9c0d07	-0.07619672
2	0xbd5aa6dd	-0.05338179
3	0xbcf0b5db	-0.02938359
4	0xbe20c241	-0.15699102
5	0xbd88b5e2	-0.066753164
6	0xbe1e845f	-0.15480183
7	0xbe04ff71	-0.12988068
8	0xbc741de0	-0.014899701
9	0x3bf2c2f1	0.0074084927
10	0x3bb58c4c	0.0055404063
11	0x3a928c0c	0.0011180653
12	0xbcfcd45a	-0.030862976
13	0xbd43de13	-0.04781921
14	0x3bb37a60	0.0054772347
15	0xbd019591	-0.03163678
16	0x3d0a59de	0.03377711
17	0xbd857336	-0.06516115
18	0xbd68624d	-0.056734372
19	0xbd99d13b	-0.07510611
20	0x3bdcfaa5	0.0067437463
21	0xbda6c530	-0.08143079
22	0xbd8a59ce	-0.0675541
23	0xbd50cd08	-0.050976783
24	0xbd15048e	-0.036381297
25	0xbd63252c	-0.05545537
26	0xbd43b8b5	-0.047783572
27	0xbd1f2c58	-0.03886065
28	0xbd387ef7	-0.045042958
29	0xbc97a3d9	-0.018510746
30	0xbbc47c66	-0.0059962748
31	0xbc9b16fb	-0.018931856
32	0xbd2e4326	-0.042544506
33	0xbcdea816	-0.027179759
34	0xbdccb19d	-0.099948145
35	0xbc59aef3	-0.01328634
36	0xbd46e5ca	-0.048558988
37	0x3d3f205d	0.046661723
38	0x3d33ee8e	0.043928675
39	0xbd965bdb	-0.07341739
40	0xbcca84a8	-0.024721459
41	0xbdaabaa6	-0.083363816
42	0xbd05e379	-0.032687638
43	0x3d35c3b3	0.044376086
44	0xbd2f32e8	-0.042773157
45	0xbda2d22d	-0.07950244
46	0xbc8c2ef6	-0.017112236
47	0xbc14cc68	-0.009081937
48	0xbccb3687	-0.024806274
49	0xbdd0354d	-0.10166416
50	0xbdd71671	-0.10502327
51	0xbd0a3e22	-0.03375066
52	0xbdc7876d	-0.09742627
53	0xbcfb4c50	-0.030676037
54	0xbdc25364	-0.09488562
55	0xbe00f20d	-0.12592335
56	0xbd2b4de7	-0.04182234
57	0xbd797f06	-0.060912155
58	0xbd482823	-0.048866402
59	0xbd201188	-0.03907922
60	0xbd0bc642	-0.03412462
61	0xbd40ff04	-0.0471182
62	0xbcc9e510	-0.024645358
63	0xbd3149d8	-0.043283314
64	0xbd9f7a13	-0.07786956
65	0xbd5d8e85	-0.054090995
66	0xbd185d7c	-0.03719853
67	0xbca5cbcf	-0.020238785
68	0x3ce86999	0.028370665
69	0xbd202196	-0.03909453
70	0xbd506223	-0.05087484
71	0xbd4b01a9	-0.04956213
72	0xbd2d57e5	-0.04232015
73	0xbd22f1a9	-0.039781246
74	0xbd31bd77	-0.04339358
75	0xbd35cc38	-0.04438421
76	0xbda28979	-0.07936377
77	0xbca75a05	-0.020428667
78	0x3ca29d1f	0.019850312
79	0xbdfcb4a6	-0.123391435
80	0xbd3607b5	-0.044440944
81	0xbc9645fd	-0.01834392
82	0xbd85384d	-0.06504879
83	0xbd823d8a	-0.06359394
84	0xbc747fda	-0.01492306
85	0xbd10293d	-0.035195578
86	0xbd3d3011	-0.046188418
87	0xbd085b7b	-0.033290368
88	0x3c819c85	0.015821705
89	0xbd6fbd6e	-0.058530264
90	0xbe30871a	-0.17239037
91	0xbd1d7b39	-0.038447592
92	0xbdd22b27	-0.10262137
93	0xbcd22977	-0.025654538
94	0x3ca0502b	0.019569477
95	0xbdbdb327	-0.09262686
96	0x3c995d0b	0.018721124
97	0xbd53c096	-0.051697336
98	0xbccb7426	-0.024835657
99	0xbbec8e7e	-0.007219135
100	0xbd413e02	-0.047178276
101	0xbb505ca3	-0.0031793497
102	0xbcbd6c3e	-0.023122903
103	0xbd694c18	-0.056957334
104	0xbda2d832	-0.07951392
105	0xbcec7b4f	-0.028867392
106	0x3d1527eb	0.036415022
107	0xbdce79cf	-0.10081827
108	0xbcdd5134	-0.02701626
109	0xbd29c883	-0.04145099
110	0xbc988272	-0.018616889
111	0xbdab1bae	-0.08354889
112	0xbd909a15	-0.07060639
113	0xbc177627	-0.009244478
114	0x3d154c99	0.036450002
115	0x3bd272df	0.006422385
116	0x3cfd4ee6	0.03092141
117	0xbe10ff09	-0.14159788
118	0x3cdfcca1	0.027319254
119	0xbd22e505	-0.03976919
120	0xbcfcf8fc	-0.030880444
121	0x3d69b35f	0.057055827
122	0xbd292f42	-0.041304834
123	0x3b91b188	0.004446212
124	0xbdd962a9	-0.10614521
125	0xbd6b9abb	-0.05752061
126	0xbcf3d332	-0.029763792
127	0xbd3d17a5	-0.046165127

action_model._continuous_distribution.log_sigma f4 [1, 2]
0	0xbebf81b8	-0.37403655
1	0xbeaa8b92	-0.3330961

action_model._continuous_distribution.mu.weight f4 [2, 128]
0	0xbc45c812	-0.012071626
1	0xba2e363f	-0.00066456565
2	0xbcc1a4a6	-0.02363808
3	0xbd300a6e	-0.042978697
4	0x3bf7c93c	0.007561831
5	0xbb7b3746	-0.0038332506
6	0x3d3fe035	0.04684468
7	0x3d040412	0.032230444
8	0x3d9c4749	0.07630784
9	0xbd9aead5	-0.07564322
10	0xbbc79f71	-0.006092005
11	0x3b1789e4	0.002312296
12	0xbd2c82a3	-0.042116772
13	0xbcdd3936	-0.02700482
14	0xbd8ba1d4	-0.06817976
15	0x3da0b834	0.07847634
16	0xbd9fcf85	-0.07803253
17	0xbd2b0ab5	-0.041758258
18	0x3b9d75a2	0.0048052827
19	0x3cdb677b	0.026782742
20	0x3dae0c02	0.08498384
21	0x3d92e608	0.07172781
22	0x3d778bc1	0.060436014
23	0xbcad8acf	-0.021184353
24	0x3c7d5f6d	0.015464646
25	0xbc426260	-0.011864275
26	0xbd43be8b	-0.047789138
27	0xbd9d7280	-0.07687855
28	0xbbc94e25	-0.0061433488
29	0x3d5eef64	0.05442752
30	0xbc0a3ed7	-0.008437834
31	0xbd129d2c	-0.035794422
32	0x3cf05c63	0.029340928
33	0xbd9b6fe3	-0.075897
34	0xba39ecf6	-0.00070925
35	0x3dc84bac	0.09780058
36	0xbda131dd	-0.07870839
37	0xbdb0923e	-0.086216435
38	0x3dd648bd	0.104630925
39	0xbd9f10f7	-0.07766908
40	0xbb0822bb	-0.0020772654
41	0xbd38355e	-0.04497277
42	0xbd839084	-0.064240485
43	0x3da250b1	0.07925547
44	0xbc635ae8	-0.013876654
45	0x3d669648	0.056295663
46	0x3cf72040	0.030166745
47	0xbcab14f8	-0.020884022
48	0xbcaf7fc1	-0.021423222
49	0xbc36cf2f	-0.011157795
50	0xbd2d1a38	-0.042261332
51	0xbb2a44e7	-0.002598101
52	0xbd768900	-0.060189247
53	0x3d8971e5	0.06711177
54	0xbd00bd16	-0.031430326
55	0x3d0475d7	0.032338943
56	0x3d1bc45f	0.03802907
57	0xbd7ceda2	-0.06175006
58	0xbda7d6a5	-0.08195237
59	0x3d805aff	0.06267356
60	0x3d38d832	0.045128055
61	0xbcaa6125	-0.020798275
62	0x3c1dd9b4	0.009634424
63	0x3d3ba60e	0.04581266
64	0xbd564bcf	-0.05231839
65	0xbd4d8b80	-0.050181866
66	0x3dbf9484	0.09354499
67	0xbd451e39	-0.048124526
68	0x3d9855a9	0.074382134
69	0x3d057c70	0.032589376
70	0xbcfae09f	-0.030624686
71	0x3d5590b6	0.05213996
72	0x3d17afba	0.03703282
73	0x3dd7774f	0.10520803
74	0x3d1bf570	0.038075864
75	0x3d1996ab	0.037497204
76	0x3ca20092	0.019775663
77	0xbdf2a3d3	-0.11847653
78	0x3cbcddd5	0.023054997
79	0x3cd388fa	0.025822151
80	0xbdba4836	-0.090958044
81	0xbda4e12c	-0.080507606
82	0x3d02ea08	0.03196147
83	0x3d0b0172	0.033936925
84	0xbcafb173	-0.02144692
85	0xbbc4d177	-0.0060064155
86	0x3cc7bdcb	0.024382493
87	0xbdf00e7f	-0.11721515
88	0xbc42fc10	-0.011900917
89	0xbd8dc9eb	-0.069232784
90	0xbb8dda4d	-0.004329002
91	0x3c48d54b	0.012257884
92	0xbc837097	-0.016044898
93	0xbddfc957	-0.109270744
94	0xbbf10304	-0.007355096
95	0xbca70a20	-0.02039057
96	0xbc576da2	-0.013148697
97	0xbdd54b87	-0.10414796
98	0xbd28f0f3	-0.041245412
99	0x3d4ad26f	0.04951709
100	0x3bfe4922	0.007760183
101	0x3d8286da	0.06373377
102	0x3d96be7c	0.07360551
103	0x3d92c442	0.071663395
104	0xbd88cf52	-0.06680168
105	0xbd8cc407	-0.06873327
106	0x3d4dbf46	0.05023124
107	0xbbc072e4	-0.005873071
108	0x3dad17f6	0.08451836
109	0x3d6ee879	0.058327172
110	0xbdec58b4	-0.11540356
111	0x3c9738fc	0.01845979
112	0xbd147695	-0.0362459
113	0xbd52e5cf	-0.051488694
114	0xbc9764a8	-0.018480614
115	0x3d56a5d7	0.05240425
116	0xbd2f20ae	-0.042755775
117	0xbc24531c	-0.01002958
118	0xbd9bd882	-0.07609655
119	0xbda1b17e	-0.07895182
120	0xbc64adfd	-0.013957498
121	0x3dabce32	0.08388938
122	0x3d190396	0.037356935
123	0xbd8564b3	-0.065133475
124	0x3d525829	0.051353607
125	0x3d51003e	0.05102562
126	0x3cfd4f02	0.030921463
127	0x3cb6da37	0.02232085
128	0xbdde73c7	-0.108619265
129	0xbd8abc97	-0.06774252
130	0x3dc990c3	0.09842064
131	0x3d9cd623	0.07658031
132	0xbc248769	-0.01004205
133	0x3d9231f0	0.07138431
134	0x3c0051ae	0.007831974
135	0x3c121dc4	0.0089182295
136	0xbd2ddf69	-0.04244939
137	0x3ca9dd4c	0.020735405
138	0xbd457ac4	-0.04821278
139	0xbda190e7	-0.07888966
140	0x3d84e144	0.064882785
141	0x3d8330eb	0.06405815
142	0xbd433906	-0.047661804
143	0x3d308db9	0.043103907
144	0xbd5725e6	-0.052526377
145	0x3d6ebf4f	0.058287915
146	0x3cc986e9	0.024600463
147	0x3d5a1c9c	0.05324994
148	0xbd6292d6	-0.055315815
149	0x3d504215	0.05084427
150	0xbd8d3c25	-0.06896237
151	0xbd527be0	-0.051387668
152	0x3da393b6	0.07987158
153	0x3d47b2e2	0.04875458
154	0x3d0975e4	0.033559695
155	0x3c9cf640	0.01916039
156	0xbc230a6f	-0.009951218
157	0xbca2523b	-0.019814601
158	0xbde9fad4	-0.11424795
159	0x3cb5349c	0.022119813
160	0xbd8af4f5	-0.06785003
161	0x3dd1d8fa	0.10246463
162	0xbd516336	-0.051120006
163	0x3d633d4c	0.05547838
164	0x3d023345	0.031787176
165	0x3d838256	0.06421344
166	0x3cd08006	0.025451671
167	0x3cb8ad81	0.02254367
168	0xbd3aefc3	-0.04563881
169	0x3b080a20	0.0020757988
170	0x3beec4e7	0.007286656
171	0x3dae4592	0.08509363
172	0x3cdaee63	0.026725
173	0xbd45d4b5	-0.048298556
174	0xbcfda69b	-0.030963233
175	0xbd7b0ace	-0.0612896
176	0xbd17eb01	-0.03708935
177	0xbd3bd5bf	-0.04585814
178	0x3cb5ee9c	0.022208504
179	0xbd8e415c	-0.0694606
180	0xbd325141	-0.04353452
181	0xbce8a82c	-0.028400503
182	0xbb37f23f	-0.0028067974
183	0x3cb8e700	0.022571087
184	0xbd4bf630	-0.04979533
185	0xbd8ddcbd	-0.06926868
186	0xba02b060	-0.00049853884
187	0xbd5c4f1d	-0.053786386
188	0x3da5d337	0.08096927
189	0x3d8a9c8e	0.06768142
190	0x3da7675d	0.08174012
191	0xbd33c0fc	-0.043885216
192	0x3ca8c195	0.02060012
193	0xbd7e6b60	-0.06211412
194	0x3d500c42	0.05079294
195	0xbd170295	-0.036867697
196	0xbcdb6339	-0.026780711
197	0xbd85f70d	-0.06541262
198	0x3d8232eb	0.06357368
199	0x3d32f0c1	0.043686632
200	0x3d8895df	0.06669211
201	0xbd078cd8	-0.033093303
202	0xbcf4bff3	-0.029876685
203	0x3dae46d9	0.08509607
204	0x3dadc276	0.08484356
205	0x3d1a023a	0.03759978
206	0xbd80fe05	-0.062984504
207	0x3cf349bb	0.029698243
208	0x3dbf8f3d	0.093534924
209	0x3be206e8	0.006897796
210	0x3b448545	0.0029986661
211	0x3c35049e	0.011048464
212	0xbd515049	-0.051101957
213	0xbd7ac908	-0.061226875
214	0xbd47c627	-0.048772957
215	0x3cd221ad	0.025650823
216	0xbd8a94b9	-0.06766648
217	0x3d659d62	0.056058295
218	0xbb95fea1	-0.0045774733
219	0x3e0bb853	0.13644533
220	0xbcef8946	-0.029240262
221	0x3cffaf45	0.031211505
222	0xbe080028	-0.1328131
223	0x3ced43fd	0.028963083
224	0x3d92cc58	0.07167882
225	0x3d513a31	0.051080886
226	0xbdf20d0b	-0.11818894
227	0x3c101006	0.008792883
228	0x3d8b5e4f	0.06805097
229	0xbb1183a0	-0.0022203699
230	0xbe083a15	-0.13303407
231	0x3bb237c4	0.0054387767
232	0x3d2326c3	0.039831888
233	0xbb0baf26	-0.0021314113
234	0xbda3f3ec	-0.08005509
235	0x3d398c2c	0.045299694
236	0x3b499981	0.0030761661
237	0x3d38bd27	0.045102265
238	0x3d47e59f	0.048802968
239	0x3cb90464	0.022585101
240	0x3d3bd48f	0.04585701
241	0xbceb0696	-0.028689664
242	0x3d2dd61a	0.04244051
243	0x3d8b98b1	0.06816233
244	0xbdb49e3c	-0.08819243
245	0x3c0a631c	0.008446481
246	0xbd82cafe	-0.06386374
247	0x3c9f13ff	0.019418715
248	0xbd3a7a61	-0.045526866
249	0xbd3239c4	-0.04351212
250	0x3db5b2d5	0.08872
251	0x3d07c9f5	0.033151586
252	0xbca7ef5b	-0.020499876
253	0x3d8355a9	0.06412823
254	0xbd219799	-0.039451215
255	0xbd711fb5	-0.05886813

action_model._continuous_distribution.mu.bias f4 [2]
0	0x3cd72882	0.026264433
1	0x3cf2663e	0.029589768
