MachineLearning/results/ppo/MoveTOGoal/MoveTOGoal-5888.pt (torch, 146773 bytes, 11 tensors)

network_body._body_endoder.seq_layers.0.weight f4 [128, 2]
0.6319804 1.1541702 -0.5703872 0.5213852 -0.77047795 -0.012434494 0.57504517 -0.32939214
-0.087807015 0.8422375 -0.74702394 0.52317655 -0.92464775 -0.0904744 -0.2470853 0.04912387
0.7197139 0.49250215 -0.73836994 0.031637933 -0.2862761 -0.94217515 -0.77329105 -0.3458365
-0.20398277 0.91830564 -0.77684975 0.3539216 -0.7191274 -0.7891836 -0.12556858 -0.16172448
-0.77501374 -0.3844004 -0.4578974 0.6238877 -0.24277148 0.4142112 1.6985068 0.07211723
0.5388123 0.15622774 -0.53544176 -0.33670112 0.22672223 -0.20314167 0.1906465 -0.046695616
-1.1627505 0.81130743 -0.01824266 -0.77417684 0.28404057 0.7249541 -0.84653926 -0.3869895
-2.170094 -1.2567621 0.5488902 -0.12634431 0.33976686 0.6798562 -0.6169305 0.48537445
1.4533806 0.056980778 -1.1193801 0.96960384 -0.03414087 0.29497048 0.18302943 -0.78691065
-0.22961305 0.0594559 -0.23487397 0.11512001 1.2579682 0.1284298 0.95934016 -0.040199786
1.3801984 -0.18448225 0.024615685 0.44591182 0.8423694 0.6632651 0.70898026 -0.8134861
-1.3912549 0.19585522 -0.26242322 -1.141451 0.18330887 0.6761183 0.42566323 0.53686744
-0.23964305 0.122244276 -0.059176218 -0.41082546 -1.7398912 -0.3374107 0.5642997 1.0455334
-0.44266742 0.7056584 1.0579666 -0.43119496 -0.49025714 -0.1989859 -0.2090421 0.16783412
-0.35966304 -0.9767574 -0.10347487 -0.09861669 1.494815 -0.16490586 1.5182899 -0.6194194
-0.8780619 0.33463094 -1.2270961 -0.0974653 -1.2625347 -0.8750623 -0.45688444 -0.28210488
-0.9872217 0.19604467 -0.11621498 -0.20836142 0.80051386 -0.7596199 0.8078937 0.3574876
-0.5471118 -0.39788836 0.36540776 0.22447261 -0.21081935 -0.13866024 -1.5953391 0.7211373
0.8257588 -0.0116536785 0.40729132 -0.2020345 1.3635014 -0.87217885 1.0402924 -0.005400088
-1.1251136 -0.61940247 -0.27534655 -0.7288371 0.51478606 1.0051503 0.7271781 1.1331983
1.2599959 0.45329174 0.5831448 -0.7129078 1.1546783 0.808554 -0.5157843 -0.33399764
1.4379004 0.33189493 0.45106378 0.3623783 -0.30644846 0.79165155 1.0868641 -1.3198833
-0.7780568 1.5933747 -1.3327503 -0.9272553 -0.7787216 -1.1511146 0.9553299 0.5931623
0.002686771 1.3538201 0.7403551 -0.1896833 -0.3551317 0.00022329928 0.41917872 -0.9120532
-0.06183309 -1.2010182 0.5386577 0.85037124 -0.2231536 -0.653857 0.6060911 0.9047001
1.1592681 0.09891864 0.7101046 -0.33006907 0.66217166 -1.006618 -0.5852962 0.49551678
-0.35646877 -0.5096111 0.041472536 -0.18575418 0.35562035 -1.0355157 0.49359903 0.031767778
0.30836415 1.1477193 0.5508349 -1.1364247 -0.49806747 0.39448056 -0.025346637 -1.143016
-0.8314204 -0.12730733 2.3181224 -0.33765933 -0.34089375 1.2313408 0.64818764 1.1369238
0.044099536 -0.17408459 -0.11660679 0.45121938 0.27310738 -1.1326753 0.2417466 0.3805739
0.24951567 -0.08954121 -0.45511788 0.49586707 -0.30885825 0.48579064 -0.740709 -1.0249119
-1.5256193 1.0754656 0.9324286 -0.40730137 0.44647482 -0.8425404 -0.27375725 -0.37128308
00000000: 78c9 213f d9bb 933f e504 12bf 8079 053f
00000010: 0b3e 45bf 0cba 4bbc 2936 133f 16a6 a8be
00000020: 2ad4 b3bd e09c 573f f63c 3fbf e6ee 053f
00000030: b7b5 6cbf a44a b9bd ee03 7dbe 1c36 493d
00000040: 2c3f 383f 3e29 fc3e d005 3dbf c796 013d
00000050: c892 92be 6432 71bf 67f6 45bf 7b11 b1be
00000060: dce0 50be 1416 6b3f a0df 46bf 3635 b53e
00000070: bc18 38bf f007 4abf 0d95 00be 1a9b 25be
00000080: 4d67 46bf 21d0 c4be 8771 eabe 1bb7 1f3f
00000090: 1699 78be 7e13 d43e ac68 d93f 33b2 933d
000000a0: 9aef 093f 2afa 1f3e b612 09bf 1764 acbe
000000b0: df29 683e 5f04 50be d638 433e e743 3fbd
000000c0: 02d5 94bf d8b1 4f3f a271 95bc 7430 46bf
000000d0: c46d 913e 9896 393f ccb6 58bf 7d23 c6be
000000e0: d2e2 0ac0 95dd a0bf 1184 0c3f 6760 01be
000000f0: ecf5 ad3e 0e0b 2e3f 28ef 1dbf 0083 f83e
00000100: 6008 ba3f ad64 693d d947 8fbf f537 783f
00000110: 4cd7 0bbd 5f06 973e 116c 3b3e fa72 49bf
00000120: af1f 6bbe 0888 733d cd82 70be 0ac4 eb3d
00000130: 1a05 a13f 1a83 033e 5197 753f 88a8 24bd
00000140: 57aa b03f eae8 3cbe d5a6 c93c 8e4e e43e
00000150: 85a5 573f becb 293f bb7f 353f a040 50bf
00000160: a414 b2bf 458e 483e 565c 86be 111b 92bf
00000170: 52b5 3b3e 1716 2d3f 88f0 d93e 2570 093f
00000180: fd64 75be 355b fa3d c362 72bd b757 d2be
00000190: c1b4 debf 18c1 acbe f275 103f 0ad4 853f
000001a0: 4ea5 e2be 07a6 343f 736b 873f 96c5 dcbe
000001b0: fc02 fbbe f6c2 4bbe 220f 56be b5dc 2b3e
000001c0: c125 b8be c60c 7abf a2ea d3bd 8cf7 c9bd
000001d0: 1956 bf3f 15dd 28be 5357 c23f 4592 1ebf
000001e0: aac8 60bf bf54 ab3e 7c11 9dbf e39b c7bd
000001f0: bd9a a1bf 1504 60bf c2ec e9be 0d70 90be
00000200: 90ba 7cbf efbf 483e 1f02 eebd b25c 55be
00000210: 7aee 4c3f 7376 42bf 1fd2 4e3f 9d08 b73e
00000220: 850f 0cbf 06b8 cbbe ba16 bb3e 26dc 653e
00000230: 07e1 57be f3fc 0dbe 1234 ccbf 749c 383f
00000240: ee64 533f 12ef 3ebc 7d88 d03e 22e2 4ebe
00000250: 3787 ae3f 1d47 5fbf 4d28 853f 39f3 b0bb
00000260: b903 90bf 2991 1ebf 39fa 8cbe 1195 3abf
00000270: 05c9 033f c4a8 803f 5828 3a3f a40c 913f
00000280: 8c47 a13f db15 e83e fa48 153f 2081 36bf
00000290: 80cc 933f 65fd 4e3f 710a 04bf bd01 abbe
000002a0: 1f0d b83f 22ee a93e d5f1 e63e a689 b93e
000002b0: d0e6 9cbe ada9 4a3f 5d1e 8b3f f0f1 a8bf
000002c0: bb2e 47bf b4f3 cb3f 9097 aabf 9a60 6dbf
000002d0: 4c5a 47bf b957 93bf 8090 743f 7cd9 173f
000002e0: 8a14 303b fa49 ad3f e987 3d3f 573c 42be
000002f0: d2d3 b5be 7225 6a39 989e d63e 527c 69bf
00000300: b244 7dbd f7ba 99bf 79e5 093f eeb1 593f
00000310: 6182 64be 2c63 27bf c928 1b3f 6d9a 673f
00000320: e662 943f db95 ca3d 6ac9 353f d0fe a8be
00000330: 1584 293f dcd8 80bf f9d5 15bf 60b4 fd3e
00000340: 1383 b6be e075 02bf 1bdf 293d 5836 3ebe
00000350: df13 b63e c78b 84bf 03b9 fc3e ee1e 023d
00000360: e8e1 9d3e 77e8 923f 8403 0d3f 5d76 91bf
00000370: b302 ffbe 5bf9 c93e c0a3 cfbc 594e 92bf
00000380: f8d7 54bf da5c 02be 1e5c 1440 afe1 acbe
00000390: a089 aebe 939c 9d3f a0ef 253f b886 913f
000003a0: b7a1 343d 3b43 32be 8acf eebd 3a06 e73e
000003b0: bbd4 8b3e 81fb 90bf 6c8c 773e 95da c23e
000003c0: 0981 7f3e 6261 b7bd 3605 e9be 4ae2 fd3e
000003d0: ab22 9ebe 8db9 f83e 1b9f 3dbf 5030 83bf
000003e0: 7e47 c3bf dba8 893f a4b3 6e3f ce89 d0be
000003f0: 5998 e43e bab0 57bf e929 8cbe d118 bebe

network_body._body_endoder.seq_layers.0.bias f4 [128]
0.0 0.0 0.0 0.0 0.0 0.0 0.0 0.0
0.0 0.0 0.0 0.0 0.0 0.0 0.0 0.0
0.0 0.0 0.0 0.0 0.0 0.0 0.0 0.0
0.0 0.0 0.0 0.0 0.0 0.0 0.0 0.0
0.0 0.0 0.0 0.0 0.0 0.0 0.0 0.0
0.0 0.0 0.0 0.0 0.0 0.0 0.0 0.0
0.0 0.0 0.0 0.0 0.0 0.0 0.0 0.0
0.0 0.0 0.0 0.0 0.0 0.0 0.0 0.0
0.0 0.0 0.0 0.0 0.0 0.0 0.0 0.0
0.0 0.0 0.0 0.0 0.0 0.0 0.0 0.0
0.0 0.0 0.0 0.0 0.0 0.0 0.0 0.0
0.0 0.0 0.0 0.0 0.0 0.0 0.0 0.0
0.0 0.0 0.0 0.0 0.0 0.0 0.0 0.0
0.0 0.0 0.0 0.0 0.0 0.0 0.0 0.0
0.0 0.0 0.0 0.0 0.0 0.0 0.0 0.0
0.0 0.0 0.0 0.0 0.0 0.0 0.0 0.0
00000000: 0000 0000 0000 0000 0000 0000 0000 0000
00000010: 0000 0000 0000 0000 0000 0000 0000 0000
00000020: 0000 0000 0000 0000 0000 0000 0000 0000
00000030: 0000 0000 0000 0000 0000 0000 0000 0000
00000040: 0000 0000 0000 0000 0000 0000 0000 0000
00000050: 0000 0000 0000 0000 0000 0000 0000 0000
00000060: 0000 0000 0000 0000 0000 0000 0000 0000
00000070: 0000 0000 0000 0000 0000 0000 0000 0000
00000080: 0000 0000 0000 0000 0000 0000 0000 0000
00000090: 0000 0000 0000 0000 0000 0000 0000 0000
000000a0: 0000 0000 0000 0000 0000 0000 0000 0000
000000b0: 0000 0000 0000 0000 0000 0000 0000 0000
000000c0: 0000 0000 0000 0000 0000 0000 0000 0000
000000d0: 0000 0000 0000 0000 0000 0000 0000 0000
000000e0: 0000 0000 0000 0000 0000 0000 0000 0000
000000f0: 0000 0000 0000 0000 0000 0000 0000 0000
00000100: 0000 0000 0000 0000 0000 0000 0000 0000
00000110: 0000 0000 0000 0000 0000 0000 0000 0000
00000120: 0000 0000 0000 0000 0000 0000 0000 0000
00000130: 0000 0000 0000 0000 0000 0000 0000 0000
00000140: 0000 0000 0000 0000 0000 0000 0000 0000
00000150: 0000 0000 0000 0000 0000 0000 0000 0000
00000160: 0000 0000 0000 0000 0000 0000 0000 0000
00000170: 0000 0000 0000 0000 0000 0000 0000 0000
00000180: 0000 0000 0000 0000 0000 0000 0000 0000
00000190: 0000 0000 0000 0000 0000 0000 0000 0000
000001a0: 0000 0000 0000 0000 0000 0000 0000 0000
000001b0: 0000 0000 0000 0000 0000 0000 0000 0000
000001c0: 0000 0000 0000 0000 0000 0000 0000 0000
000001d0: 0000 0000 0000 0000 0000 0000 0000 0000
000001e0: 0000 0000 0000 0000 0000 0000 0000 0000
000001f0: 0000 0000 0000 0000 0000 0000 0000 0000

network_body._body_endoder.seq_layers.2.weight f4 [128, 128]
-0.054132946 0.13885874 0.09420593 -0.047698304 0.044840973 0.05032956 -0.119264275 0.027768912
-0.042538162 -0.024601338 -0.10985401 0.022968799 -0.0051524 0.01032793 -0.19716647 -0.062092252
0.11156367 0.058919545 -0.15041953 -0.064397916 -0.0027489897 -0.060499065 0.047189698 -0.082393676
0.00780782 -0.08041793 -0.07316757 0.0817786 -0.07617081 -0.012397784 0.12832522 -0.053156715
-0.1412312 0.047499165 -0.10371581 0.010587739 -0.038238604 0.060027942 -0.0859072 0.20111226
-0.043632414 -0.008725142 0.015396496 -0.030657483 0.0733459 0.1925991 0.12445624 -0.09330503
-0.13134871 0.041904025 -0.18745592 0.015584513 -0.09110699 0.07984463 0.02321481 0.013569407
0.11816869 0.12624343 0.055865053 -0.07048606 0.015471741 0.0025191836 0.112884514 0.11151015
-0.055016834 -0.18366508 0.08891801 0.0441349 0.049897578 0.08105567 0.24858892 -0.0037397922
-0.0015537502 0.004958078 -0.03552363 0.0011316796 -0.0370763 -0.0017670894 -0.04852827 -0.0483263
0.07016943 -0.050710008 -0.20322551 0.1376555 0.052498046 -0.086935125 0.020969111 0.16111499
0.018352088 -0.06264601 0.0440408 0.05657144 0.03766933 -0.24287573 0.12237902 -0.045988727
0.09853236 0.13588162 0.048445806 0.09646508 0.022339523 -0.20795695 0.024927163 0.052225016
-0.04301615 -0.0026639742 -0.062363826 0.10913309 0.22510055 -0.05516298 0.03480675 0.0434281
-0.12923735 -0.03377691 0.0128601305 -0.017789384 0.031262122 -0.020167368 -0.034067072 0.041184608
-0.04029362 0.110032186 -0.0098465355 0.03769105 -0.050999783 -0.07871854 -0.008354469 -0.024855822
0.04188552 0.23843233 -0.14252408 0.040902864 -0.12000009 0.08023686 0.12297212 -0.0017164707
0.06623015 -0.007419026 0.003171153 -0.19279873 0.042613894 -0.033654943 0.071326 -0.00515217
0.065839104 0.022364605 0.03065704 0.037707873 0.009702753 0.02443381 0.098582596 0.27611095
0.14904366 0.15514678 0.25194877 -0.21021132 -0.016974714 0.041316327 0.09270516 0.106454775
-0.019777035 0.03445247 0.13110963 0.046501845 -0.08347583 -0.05878501 0.06962055 0.019097677
-0.038084913 -0.06667195 0.017373802 -0.08000999 -0.007962893 -0.07681406 -0.10755665 -0.014088095
-0.007301082 -0.053725224 0.046836466 0.041032936 0.23223718 0.024301913 0.050095446 0.03886426
0.060125038 -0.067085505 -0.18039435 -0.100280955 -0.14644845 -0.07004621 -0.034121223 -0.004230316
-0.07056356 -0.07803504 0.13357276 -0.10959639 -0.14483738 0.15834661 0.059744217 -0.2328649
-0.09370362 0.0057614576 -0.036111925 -0.018946223 0.016788999 -0.03576712 0.021276046 -0.08584362
0.15195298 -0.04992604 -0.052764527 0.1804451 -0.010544109 0.0275743 0.028439384 -0.13428278
0.03424756 0.121211275 -0.04528786 -0.06966841 0.03437834 0.13984162 0.014234298 0.0795398
0.04711401 0.116503246 0.08905393 -0.07937858 0.11610544 0.12545818 -0.013644864 -0.046952754
-0.061146572 -0.051732104 0.0048660897 0.069152035 0.12864837 -0.13870457 -0.14177121 0.00938391
-0.112579815 -0.11677509 0.00083325675 -0.09695054 0.09916556 0.040417556 0.040605348 -0.044111326
-0.10308416 -0.019299295 0.14789566 0.10240175 0.040074628 0.14768271 0.10084392 0.047194287
00000000: 82ba 5dbd fc30 0e3e 0aef c03d 4c5f 43bd
00000010: 2bab 373d 5e26 4e3d d440 f4bd a17b e33c
00000020: 7f3c 2ebd bf88 c9bc 24fb e0bd 1029 bc3c
00000030: 77d5 a8bb 7a36 293c 02e6 49be 7254 7ebd
00000040: 7e7b e43d 9f55 713d 9407 1abe 0ee3 83bd
00000050: 6528 34bb decd 77bd fc49 413d 04be a8bd
00000060: bed8 ff3b 28b2 a4bd e1d8 95bd 8a7b a73d
00000070: 71ff 9bbd 1320 4bbc b067 033e dbba 59bd
00000080: e99e 10be 7c8e 423d f468 d4bd 3278 2d3c
00000090: 15a0 1cbd dcdf 753d 1df0 afbd 5ff0 4d3e
000000a0: e7b7 32bd e6f3 0ebc 9641 7c3c 6725 fbbc
000000b0: 6036 963d b338 453e eae2 fe3d b516 bfbd
000000c0: 4780 06be 8ea3 2b3d 72f4 3fbe 2f56 7f3c
000000d0: 4d96 babd 9585 a33d fc2c be3c 3852 5e3c
000000e0: 6d02 f23d f545 013e c1d2 643d ff5a 90bd
000000f0: 2f7d 7d3c e318 253b ff2f e73d 6f5f e43d
00000100: 5559 61bd b312 3cbe a51a b63d ccc6 343d
00000110: 6761 4c3d 8400 a63d 188e 7e3e 4d17 75bb
00000120: 35a7 cbba 5f77 a23b 3a81 11bd de54 943a
00000130: 51dd 17bd ae9d e7ba 94c5 46bd ccf1 45bd
00000140: fdb4 8f3d 4cb5 4fbd 591a 50be 90f5 0c3e
00000150: 3108 573d 0b0b b2bd 6ac7 ab3c 54fb 243e
00000160: 1e57 963c 8d4c 80bd 2064 343d 74b7 673d
00000170: 284b 1a3d 6ab4 78be daa1 fa3d ad5e 3cbd
00000180: 55cb c93d 8d24 0b3e 1c6f 463d 7c8f c53d
00000190: 6001 b73c abf2 54be 0d34 cc3c e6e9 553d
000001a0: b431 30bd 1296 2ebb 3671 7fbd 2b81 df3d
000001b0: c280 663e 94f2 61bd 8691 0e3d aae1 313d
000001c0: cc56 04be a859 0abd 4cb3 523c 0bbb 91bc
000001d0: b60c 003d 0936 a5bc ea89 0bbd 31b1 283d
000001e0: ec0a 25bd 8e58 e13d 5d53 21bc ee61 1a3d
000001f0: 26e5 50bd 3037 a1bd 2fe1 08bc 709e cbbc
00000200: 2790 2b3d 9b27 743e d5f1 11be c389 273d
00000210: 9bc2 f5bd 3953 a43d cfd8 fb3d 33fb e0ba
00000220: aca3 873d 4d1b f3bb 1ed3 4f3b 086d 45be
00000230: e88b 2e3d c4d9 09bd 5e13 923d 89d3 a8bb
00000240: a7d6 863d fa35 b73c 7924 fb3c 9273 1a3d
00000250: 4cf8 1e3c 6a29 c83c ace5 c93d 6a5e 8d3e
00000260: e79e 183e ccde 1e3e 6eff 803e a341 57be
00000270: 8e0e 8bbc 4f3b 293d 34dc bd3d f604 da3d
00000280: 7303 a2bc 081e 0d3d 9a41 063e b878 3e3d
00000290: 60f5 aabd 8dc8 70bd 3895 8e3d bb72 9c3c
000002a0: edfe 1bbd 4e8b 88bd 8153 8e3c 47dc a3bd
000002b0: cb76 02bc b150 9dbd a946 dcbd c1d1 66bc
000002c0: ea3d efbb fb0e 5cbd 98d7 3f3d 2712 283d
000002d0: 95cf 6d3e ce14 c73c e230 4d3d 2130 1f3d
000002e0: ac45 763d 2064 89bd 4cb9 38be 1a60 cdbd
000002f0: 95f6 15be 6374 8fbd b2c2 0bbd 769e 8abb
00000300: a183 90bd d6d0 9fbd 4cc7 083e 1274 e0bd
00000310: 4050 14be 9d25 223e 5ab6 743d 2374 6ebe
00000320: afe7 bfbd 9cca bc3b 19ea 13bd 1c35 9bbc
00000330: 1589 893c 8b80 12bd 1a4b ae3c c8ce afbd
00000340: 9099 1b3e 3f7f 4cbd 9e1f 58bd 9ac6 383e
00000350: 33c1 2cbc 80e3 e13c b6f9 e83c 6d81 09be
00000360: 2b47 0c3d 9e3d f83d c37f 39bd 50ae 8ebd
00000370: 4dd0 0c3d a432 0f3e f936 693c c3e5 a23d
00000380: 9ffa 403d 4199 ee3d e861 b63d 3d91 a2bd
00000390: b0c8 ed3d 1c78 003e b58e 5fbc 8851 40bd
000003a0: d474 7abd 0be5 53bd b873 9f3b 959f 8d3d
000003b0: 66bc 033e 9208 0ebe 792c 11be f9be 193c
000003c0: 3f90 e6bd c727 efbd ea6e 5a3a 018e c6bd
000003d0: 5017 cb3d e18c 253d cb51 263d 14ae 34bd
000003e0: ca1d d3bd 8e19 9ebc f671 173e 02b8 d13d
000003f0: 4b25 243d 233a 173e 4287 ce3d cc4e 413d

network_body._body_endoder.seq_layers.2.bias f4 [128]
0.0 0.0 0.0 0.0 0.0 0.0 0.0 0.0
0.0 0.0 0.0 0.0 0.0 0.0 0.0 0.0
0.0 0.0 0.0 0.0 0.0 0.0 0.0 0.0
0.0 0.0 0.0 0.0 0.0 0.0 0.0 0.0
0.0 0.0 0.0 0.0 0.0 0.0 0.0 0.0
0.0 0.0 0.0 0.0 0.0 0.0 0.0 0.0
0.0 0.0 0.0 0.0 0.0 0.0 0.0 0.0
0.0 0.0 0.0 0.0 0.0 0.0 0.0 0.0
0.0 0.0 0.0 0.0 0.0 0.0 0.0 0.0
0.0 0.0 0.0 0.0 0.0 0.0 0.0 0.0
0.0 0.0 0.0 0.0 0.0 0.0 0.0 0.0
0.0 0.0 0.0 0.0 0.0 0.0 0.0 0.0
0.0 0.0 0.0 0.0 0.0 0.0 0.0 0.0
0.0 0.0 0.0 0.0 0.0 0.0 0.0 0.0
0.0 0.0 0.0 0.0 0.0 0.0 0.0 0.0
0.0 0.0 0.0 0.0 0.0 0.0 0.0 0.0
00000000: 0000 0000 0000 0000 0000 0000 0000 0000
00000010: 0000 0000 0000 0000 0000 0000 0000 0000
00000020: 0000 0000 0000 0000 0000 0000 0000 0000
00000030: 0000 0000 0000 0000 0000 0000 0000 0000
00000040: 0000 0000 0000 0000 0000 0000 0000 0000
00000050: 0000 0000 0000 0000 0000 0000 0000 0000
00000060: 0000 0000 0000 0000 0000 0000 0000 0000
00000070: 0000 0000 0000 0000 0000 0000 0000 0000
00000080: 0000 0000 0000 0000 0000 0000 0000 0000
00000090: 0000 0000 0000 0000 0000 0000 0000 0000
000000a0: 0000 0000 0000 0000 0000 0000 0000 0000
000000b0: 0000 0000 0000 0000 0000 0000 0000 0000
000000c0: 0000 0000 0000 0000 0000 0000 0000 0000
000000d0: 0000 0000 0000 0000 0000 0000 0000 0000
000000e0: 0000 0000 0000 0000 0000 0000 0000 0000
000000f0: 0000 0000 0000 0000 0000 0000 0000 0000
00000100: 0000 0000 0000 0000 0000 0000 0000 0000
00000110: 0000 0000 0000 0000 0000 0000 0000 0000
00000120: 0000 0000 0000 0000 0000 0000 0000 0000
00000130: 0000 0000 0000 0000 0000 0000 0000 0000
00000140: 0000 0000 0000 0000 0000 0000 0000 0000
00000150: 0000 0000 0000 0000 0000 0000 0000 0000
00000160: 0000 0000 0000 0000 0000 0000 0000 0000
00000170: 0000 0000 0000 0000 0000 0000 0000 0000
00000180: 0000 0000 0000 0000 0000 0000 0000 0000
00000190: 0000 0000 0000 0000 0000 0000 0000 0000
000001a0: 0000 0000 0000 0000 0000 0000 0000 0000
000001b0: 0000 0000 0000 0000 0000 0000 0000 0000
000001c0: 0000 0000 0000 0000 0000 0000 0000 0000
000001d0: 0000 0000 0000 0000 0000 0000 0000 0000
000001e0: 0000 0000 0000 0000 0000 0000 0000 0000
000001f0: 0000 0000 0000 0000 0000 0000 0000 0000

action_model._discrete_distribution.branches.0.weight f4 [5, 128]
0.005734662 0.022688193 -0.013661674 -0.0016391149 0.008562381 -0.0026059123 -0.010677024 -0.008418379
-0.010192493 0.0004378905 -0.0003851364 0.0076373005 -0.005845911 0.0045134104 0.0027940478 -0.01293135
-0.001971294 -0.0064351256 -0.0039382926 0.0030857138 0.0048633353 -0.0077900826 0.005615302 0.0032610744
0.0081647625 -0.004310846 -0.011434055 0.010611424 0.012896935 -0.0066626496 0.012855473 0.00253151
0.00032478874 0.0063681747 0.00016207765 -0.0009638647 0.009309835 -0.017636776 -0.0077749267 -0.010647084
-0.0018264925 -0.017209858 0.019900223 0.010836565 -0.014097135 -0.0078488495 0.0013870485 -0.011539578
-0.009298029 -0.025274063 -0.012067719 -0.013292262 -0.0059068897 0.013344116 -0.0012585891 0.0030167038
-0.005636589 0.0072168014 0.002043855 -0.005956721 0.007803229 0.0028010758 0.008301594 0.0108257765
-0.0035833102 0.0075261244 -0.0057032746 0.00043243144 0.0038639642 -0.0066386 -0.0077676526 0.014610729
0.002447034 -0.0032374125 0.003781397 0.008183152 0.0056206496 0.00878524 -0.0018209197 0.008285834
-0.0053848163 0.0023121592 0.020363778 -0.002715623 0.003546257 0.020043125 0.018012602 -0.013065425
0.0115574775 0.005974516 0.011620286 0.01311435 0.0042769215 -0.0021466725 0.004073829 0.009511455
0.002643418 -0.0016643904 -4.0722924e-05 -0.0037241566 -0.0026358503 -0.0068741525 -0.00032783116 0.0006311048
-0.019563293 -0.011184916 -0.011831826 0.0012290449 0.00405746 -0.017454967 0.020422013 0.0056908424
0.0090154875 -0.015822222 -0.014141559 -0.0015651329 -0.004464239 -0.00972667 0.0007122909 0.000116130876
0.009943374 -0.008268692 0.0058366708 -0.013341834 -0.008121756 0.0006139495 -0.0037884794 -0.011620178
-0.0151975965 0.00020029643 0.0060042473 -0.0025949513 -0.0048529124 -0.0039272713 -0.0023367635 -0.0058730072
0.017290259 0.00094877026 0.0031219197 0.0033053048 0.0006214047 0.011802348 0.0071392036 0.0076707113
-0.0096172495 0.007500878 0.0034279046 0.014035398 0.004653061 -0.005591801 -0.0060384413 -0.0046952185
-0.009063033 -0.00013098707 0.004606562 -0.00707066 0.018259466 -0.0042683366 -0.007624596 -0.008736761
0.0017269939 0.004671217 0.0037418634 -0.018926969 0.0069113667 -0.007560295 0.0051945574 0.010947783
0.00057476945 -0.007117382 0.013216125 -0.008500967 0.0011921689 0.014833261 -0.0029955674 -0.010396647
-0.007783492 0.006221747 -0.0097713955 -0.0017516165 -0.0050721904 -0.01107486 0.003699225 0.031092426
-0.00084930763 -0.0062260698 0.0033195247 -0.01291567 -0.0012561257 -0.0078052157 -0.016336393 0.0030205688
0.0008768568 0.008107645 0.0043575973 0.008052898 0.012266743 -0.0008258095 -0.019619277 0.00024112698
0.008922919 0.0014388723 -0.00467262 -0.012951413 0.005737718 -0.0030734504 -0.0035403438 0.0054619545
-0.00563869 0.0024277202 0.007657349 -0.006289299 0.018219791 0.0059308517 -0.00035460884 0.013036472
-0.008775634 0.0013092438 -0.0055466164 -0.008787115 0.00039258596 -0.0015527812 -0.0014258666 0.004972224
0.011341662 0.0008372469 0.008797727 -0.0115762 -0.0063457475 -0.0088281855 -0.008325166 -0.0012266779
0.005735429 0.008716826 0.015941368 -0.0017186794 0.0025563638 -0.0046211896 0.024236556 -0.0027852445
-0.008759359 0.0064205662 -0.0015721119 0.01673931 -0.0048633846 -0.013368039 0.012440573 -0.0047162813
0.0023447296 -0.00727522 0.0049887975 0.0030801957 0.008261657 0.021794664 -0.0017769159 -0.006493145
00000000: d5e9 bb3b 97dc b93c 37d5 5fbc 92d7 d6ba
00000010: 3b49 0c3c f4c7 2abb afee 2ebc 3eed 09bc
00000020: 6afe 26bc ab94 e539 22ec c9b9 5242 fa3b
00000030: 0e8f bfbb 3be5 933b 581c 373b 03de 53bc
00000040: d330 01bb bfdd d2bb cb0c 81bb b039 4a3b
00000050: 9d5c 9f3b f343 ffbb 9100 b83b c0b7 553b
00000060: 7fc5 053c ff41 8dbb e755 3bbc 8adb 2d3c
00000070: ab4d 533c 5b52 dabb c39f 523c b1e7 253b
00000080: 6848 aa39 1fac d03b 63f3 2939 ddab 7cba
00000090: 4788 183c 007b 90bc d0c4 febb 1b71 2ebc
000000a0: eb66 efba b0fb 8cbc cb05 a33c d98b 313c
000000b0: abf7 66bc 7698 00bc a0cd b53a 8010 3dbc
000000c0: c356 18bc 8d0b cfbc afb7 45bc cac7 59bc
000000d0: 958e c1bb 47a1 5a3c 3ef7 a4ba e4b3 453b
000000e0: 23b3 b8bb eb7a ec3b 32f2 053b 9930 c3bb
000000f0: 3bb2 ff3b 4192 373b 6903 083c 995e 313c
00000100: f8d5 6abb b59d f63b 89e2 babb f7b7 e239
00000110: 903a 7d3b 9d88 d9bb cb87 febb d761 6f3c
00000120: 6b5e 203b c52a 54bb 50d1 773b a112 063c
00000130: 6d2d b83b f8ef 0f3c edab eeba 4fc1 073c
00000140: 1d73 b0bb 9887 173b f0d1 a63c 98f8 31bb
00000150: 5268 683b 7b31 a43c 2a8f 933c 5d10 56bc
00000160: 935b 3d3c dfc5 c33b 0363 3e3c 92dd 563c
00000170: 6b25 8c3b 30af 0cbb c17d 853b efd5 1b3c
00000180: 323d 2d3b ad27 daba e8cd 2ab8 fb10 74bb
00000190: 3bbe 2cbb 9240 e1bb c1e0 abb9 ba70 253a
000001a0: 3343 a0bc f040 37bc 46da 41bc e717 a13a
000001b0: 71f4 843b b8fd 8ebc 114c a73c 3f7a ba3b
000001c0: b2b5 133c 9b9d 81bc ffb1 67bc 2525 cdba
000001d0: c048 92bb 9c5c 1fbc 08b9 3a3a 4a8b f338
000001e0: 89e9 223c 6879 07bc 8b41 bf3b b597 5abc
000001f0: 1d11 05bc 74f1 203a 2348 78bb 8f62 3ebc
00000200: 57ff 78bc aa06 5239 47bf c43b 0f10 2abb
00000210: 2e05 9fbb 57b0 80bb 6324 19bb 5b72 c0bb
00000220: 4da4 8d3c e5b6 783a 1f99 4c3b d09d 583b
00000230: c3e5 223a a35e 413c fbef e93b 975a fb3b
00000240: ab91 1dbc edc9 f53b b2a6 603b baf4 653c
00000250: b478 983b 6d3b b7bb 1ede c5bb 59da 99bb
00000260: 1e7d 14bc 9359 09b9 a5f2 963b ffb0 e7bb
00000270: e094 953c 67dd 8bbb bfd7 f9bb a224 0fbc
00000280: 4d5c e23a 0211 993b 0d3a 753b bb0c 9bbc
00000290: bf78 e23b 5abc f7bb 1b37 aa3b 545e 333c
000002a0: 20ac 163a ed38 e9bb 7288 583c a447 0bbc
000002b0: 8d42 9c3a 3507 733c 4851 44bb b356 2abc
000002c0: aa0c ffbb ccdf cb3b 3418 20bc 7f96 e5ba
000002d0: 9e34 a6bb 5473 35bc b26e 723b 8bb5 fe3c
000002e0: 12a4 5eba 0f04 ccbb 628c 593b 3f9c 53bc
000002f0: 96a4 a4ba e5c2 ffbb e6d3 85bc bcf4 453b
00000300: dddc 653a eed5 043c 2dca 8e3b 4df0 033c
00000310: 73fa 483c 237b 58ba 9bb8 a0bc 08d7 7c39
00000320: 6f31 123c 8b98 bc3a c71c 99bb 2a32 54bc
00000330: 7803 bc3b f16b 49bb 1d05 68bb 32fa b23b
00000340: c3c4 b8bb 631a 1f3b 80ea fa3b 7716 cebb
00000350: ac41 953c 9757 c23b cbea b9b9 ed96 553c
00000360: adc7 0fbc ef9a ab3a 64c0 b5bb d5f7 0fbc
00000370: ffd3 cd39 b186 cbba 25e4 baba 0aee a23b
00000380: 61d2 393c b07a 5b3a 5724 103c 1aaa 3dbc
00000390: fdef cfbb 18a4 10bc 4766 08bc 7bc8 a0ba
000003a0: 44f0 bb3b 05d1 0e3c 7997 823c 5045 e1ba
000003b0: ab88 273b 596d 97bb be8b c63c a688 36bb
000003c0: 6a83 0fbc 9d63 d23b 520f ceba e120 893c
000003d0: 075d 9fbb 9f05 5bbc 8cd3 4b3c 098b 9abb
000003e0: 09aa 193b f864 eebb 1179 a33b 1cdd 493b
000003f0: e75b 073c b98a b23c 67e7 e8ba 73c4 d4bb

action_model._discrete_distribution.branches.0.bias f4 [5]
0.0 0.0 0.0 0.0 0.0
00000000: 0000 0000 0000 0000 0000 0000 0000 0000
00000010: 0000 0000

network_body._body_endoder.seq_layers.0.weight f4 [128, 2]
1.5062526 1.0436192 0.89667535 0.7122948 1.1454924 -0.5769754 0.107519075 0.30815768
-1.3694142 -0.36033064 0.7216784 -0.22484374 0.7234983 0.33323836 -0.19192505 -1.2200613
0.529655 -0.1411187 0.14876927 -0.22519757 0.31575432 0.081390135 1.2672372 -0.24849364
-0.4951383 -0.7111136 0.6062147 0.37149265 -0.9189084 1.0708017 0.23907827 0.7396598
0.42684862 -1.1898488 0.04515008 1.0095955 -0.06332517 -0.55255955 0.5198947 -0.36013702
0.04928111 -0.18519439 -0.031113228 0.2090336 0.5148518 0.042333763 -0.13752337 0.01473521
0.28194523 0.9335545 0.8015983 -0.61718595 1.3193113 0.6894099 0.31516716 -0.24155724
-0.75057304 0.10169455 -0.39306733 0.6105492 -0.43065947 -0.03880372 0.7361633 -0.02067156
-0.8322573 0.5280031 -0.014720441 0.747405 0.75444895 -0.36934114 0.9746959 -0.78361374
0.3306567 0.62460464 -0.14436735 0.858549 -0.429449 -0.39019042 -0.56690586 0.74747217
0.013205395 0.71026576 -1.3026423 -0.67953736 -0.027400814 0.5275882 0.59529495 0.8326372
-0.19100781 -0.3002408 0.5954611 0.7015307 -0.28846812 0.94999886 -0.15544151 -0.38205823
-0.5764931 -0.4630045 -1.138057 -1.2857589 0.57726616 0.8398551 -0.86457 -0.09594858
-0.97285235 1.0797747 -0.63338953 -0.52605224 -1.5814608 -0.26142734 -0.4920668 1.125648
0.56288666 -0.1218721 -1.0034279 0.15594676 0.8542635 -0.20120853 1.8406618 0.1774078
-0.20746285 -1.2414689 -0.16347374 -0.18502283 -0.89213294 -0.014411923 0.074775286 0.67524356
1.875647 -0.29924 -0.83265096 -0.11005035 0.6063341 0.24673124 -0.75117946 -0.48490542
0.23101738 0.69267386 0.17856558 -0.64842683 -0.93871313 0.73004955 -1.0444821 -0.8361468
1.1547425 -0.9920997 0.3060233 0.08039461 0.4218158 0.37583655 -0.73541874 -0.73462856
0.029930716 0.63550484 -0.12725505 -0.2796582 -0.66470724 0.16241314 -0.49688137 -0.9362546
0.6655572 0.029888771 1.0842191 1.1149771 1.051169 0.57038677 0.12859012 0.87897396
-0.6136289 0.18184876 0.4393073 0.23747867 0.5031942 -1.0809743 -0.60734874 -0.8824372
0.49232587 -0.7080217 -0.70630056 0.46723768 0.72556984 0.98736197 0.030290104 -0.5270741
-1.0500742 -0.10435463 -0.48317134 0.31040487 -1.0121835 -0.76434326 -1.6349788 0.33670372
0.19003396 -0.24779843 -0.18487704 1.0023344 -0.8100422 -0.8430275 0.31381044 -0.93125063
0.049530976 -0.43439868 0.3809641 0.8565006 0.17028397 1.6386185 -0.10741239 -0.64037544
-0.2433016 -0.47990817 -0.31955197 0.66843617 -1.0838757 -1.6100504 0.40103653 -0.96308213
-0.15084656 -0.5989375 0.04481379 -1.0506111 0.25644737 -0.7789846 0.4838394 0.7931771
1.262819 0.46342456 1.0353799 0.326735 0.7355377 0.11054318 0.71516263 0.37979755
0.17482203 -0.6795517 0.06145746 0.088870704 1.0509042 0.34747294 -0.5806724 0.37025353
0.15561809 0.2550035 -0.7018758 0.1536466 0.6415548 -0.58466077 1.5064292 0.07087713
-0.36105937 -1.5679686 1.5910978 -1.3203984 -0.0058292993 -0.087451935 0.2022073 0.41263163
00000000: e3cc c03f 5095 853f 848c 653f f458 363f
00000010: 7f9f 923f a9b4 13bf f632 dc3d d8c6 9d3e
00000020: f748 afbf 427d b8be eabf 383f 703d 66be
00000030: 2f37 393f 389e aa3e 0088 44be f82a 9cbf
00000040: 7897 073f 6c81 10be f956 183e 319a 66be
00000050: 8daa a13e dfaf a63d d434 a23f 1e75 7ebe
00000060: c482 fdbe 8a0b 36bf e330 1b3f 4934 be3e
00000070: 953d 6bbf 0810 893f efd0 743e 585a 3d3f
00000080: e78b da3e f74c 98bf 4aef 383d 6d3a 813f
00000090: a0b0 81bd 8b74 0dbf d217 053f e163 b8be
000000a0: fdda 493d 99a3 3dbe 2be1 febc e70c 563e
000000b0: 54cd 033f 2b66 2d3d edd2 0cbe f36b 713c
000000c0: 205b 903e 6dfd 6e3f 8c35 4d3f e6ff 1dbf
000000d0: 31df a83f 2b7d 303f 975d a13e c85a 77be
000000e0: 8e25 40bf 3b45 d03d 1f40 c9be f44c 1c3f
000000f0: 667f dcbe a6f0 1ebd 3375 3c3f 6757 a9bc
00000100: d00e 55bf 362b 073f 012e 71bc ef55 3f3f
00000110: 9123 413f 481a bdbe ac85 793f e99a 48bf
00000120: d64b a93e 17e6 1f3f 09d5 13be dec9 5b3f
00000130: bde0 dbbe 0ac7 c7be be20 11bf 565a 3f3f
00000140: 715b 583c fad3 353f fcbc a6bf 29f6 2dbf
00000150: ac77 e0bc 0510 073f 4065 183f b627 553f
00000160: 8d97 43be 2ab9 99be 2370 183f 8497 333f
00000170: 18b2 93be 2033 733f 0f2c 1fbe 239d c3be
00000180: 0d95 13bf ed0e edbe daab 91bf bf93 a4bf
00000190: b7c7 133f be00 573f 7654 5dbf b080 c4bd
000001a0: da0c 79bf 0f36 8a3f d125 22bf 5cab 06bf
000001b0: 4f6d cabf ced9 85be 2ef0 fbbe 3c15 903f
000001c0: 5719 103f 1498 f9bd 5370 80bf 82b0 1f3e
000001d0: 03b1 5a3f 9c09 4ebe ce9a eb3f 64aa 353e
000001e0: 2471 54be 74e8 9ebf a965 27be a076 3dbe
000001f0: d362 64bf fc1f 6cbc c923 993d c3dc 2c3f
00000200: 3315 f03f fc35 99be 9d28 55bf 1462 e1bd
00000210: b638 1b3f 1da7 7c3e 4c4d 40bf 8645 f8be
00000220: d28f 6c3e 1353 313f e5d9 363e 4dff 25bf
00000230: 814f 70bf 87e4 3a3f 97b1 85bf b70d 56bf
00000240: 9ace 933f 3ffa 7dbf 16af 9c3e eea5 a43d
00000250: 3ef8 d73e a66d c03e 6744 3cbf 9e10 3cbf
00000260: 4331 f53c 72b0 223f 264f 02be 5c2f 8fbe
00000270: 412a 2abf a14f 263e 3c67 febe 62ae 6fbf
00000280: f561 2a3f 4cd9 f43c b1c7 8a3f 92b7 8e3f
00000290: b58c 863f de04 123f 21ad 033e 7004 613f
000002a0: c916 1dbf 9036 3a3e e3ec e03e 9c2d 733e
000002b0: 56d1 003f 5e5d 8abf 357b 1bbf 68e7 61bf
000002c0: 2312 fc3e e940 35bf 1dd0 34bf c739 ef3e
000002d0: f2be 393f c1c3 7c3f f422 f83c 54ee 06bf
000002e0: d568 86bf e1b7 d5bd 3c62 f7be 63ed 9e3e
000002f0: 3b8f 81bf 00ac 43bf fc46 d1bf 6e64 ac3e
00000300: 4398 423e dfbe 7dbe 6850 3dbe 7e4c 803f
00000310: ed5e 4fbf a6d0 57bf c3ab a03e 7166 6ebf
00000320: fee0 4a3d 8169 debe ba0d c33e a043 5b3f
00000330: ec5e 2e3e 40be d13f 07fb dbbd a5ef 23bf
00000340: 0e24 79be 86b6 f5be 519c a3be a21e 2b3f
00000350: 70bc 8abf 2216 cebf a954 cd3e 8d8c 76bf
00000360: 8577 1abe f853 19bf aa8e 373d 6d7a 86bf
00000370: 124d 833e 896b 47bf ccb9 f73e a80d 4b3f
00000380: 0ea4 a13f fc45 ed3e 5487 843f cf49 a73e
00000390: 334c 3c3f 7664 e23d e614 373f d374 c23e
000003a0: 8c04 333e 1af7 2dbf d1ba 7b3d d801 b63d
000003b0: 0784 863f f9e7 b13e f2a6 14bf df91 bd3e
000003c0: 595a 1f3e d28f 823e 22ae 33bf 8955 1d3e
000003d0: ef3c 243f 54ac 15bf acd2 c03f 0728 913d
000003e0: c6dc b8be 32b3 c8bf 18a9 cb3f d102 a9bf
000003f0: b503 bfbb 001a b3bd 6e0f 4f3e 7444 d33e

network_body._body_endoder.seq_layers.0.bias f4 [128]
0.0 0.0 0.0 0.0 0.0 0.0 0.0 0.0
0.0 0.0 0.0 0.0 0.0 0.0 0.0 0.0
0.0 0.0 0.0 0.0 0.0 0.0 0.0 0.0
0.0 0.0 0.0 0.0 0.0 0.0 0.0 0.0
0.0 0.0 0.0 0.0 0.0 0.0 0.0 0.0
0.0 0.0 0.0 0.0 0.0 0.0 0.0 0.0
0.0 0.0 0.0 0.0 0.0 0.0 0.0 0.0
0.0 0.0 0.0 0.0 0.0 0.0 0.0 0.0
0.0 0.0 0.0 0.0 0.0 0.0 0.0 0.0
0.0 0.0 0.0 0.0 0.0 0.0 0.0 0.0
0.0 0.0 0.0 0.0 0.0 0.0 0.0 0.0
0.0 0.0 0.0 0.0 0.0 0.0 0.0 0.0
0.0 0.0 0.0 0.0 0.0 0.0 0.0 0.0
0.0 0.0 0.0 0.0 0.0 0.0 0.0 0.0
0.0 0.0 0.0 0.0 0.0 0.0 0.0 0.0
0.0 0.0 0.0 0.0 0.0 0.0 0.0 0.0
00000000: 0000 0000 0000 0000 0000 0000 0000 0000
00000010: 0000 0000 0000 0000 0000 0000 0000 0000
00000020: 0000 0000 0000 0000 0000 0000 0000 0000
00000030: 0000 0000 0000 0000 0000 0000 0000 0000
00000040: 0000 0000 0000 0000 0000 0000 0000 0000
00000050: 0000 0000 0000 0000 0000 0000 0000 0000
00000060: 0000 0000 0000 0000 0000 0000 0000 0000
00000070: 0000 0000 0000 0000 0000 0000 0000 0000
00000080: 0000 0000 0000 0000 0000 0000 0000 0000
00000090: 0000 0000 0000 0000 0000 0000 0000 0000
000000a0: 0000 0000 0000 0000 0000 0000 0000 0000
000000b0: 0000 0000 0000 0000 0000 0000 0000 0000
000000c0: 0000 0000 0000 0000 0000 0000 0000 0000
000000d0: 0000 0000 0000 0000 0000 0000 0000 0000
000000e0: 0000 0000 0000 0000 0000 0000 0000 0000
000000f0: 0000 0000 0000 0000 0000 0000 0000 0000
00000100: 0000 0000 0000 0000 0000 0000 0000 0000
00000110: 0000 0000 0000 0000 0000 0000 0000 0000
00000120: 0000 0000 0000 0000 0000 0000 0000 0000
00000130: 0000 0000 0000 0000 0000 0000 0000 0000
00000140: 0000 0000 0000 0000 0000 0000 0000 0000
00000150: 0000 0000 0000 0000 0000 0000 0000 0000
00000160: 0000 0000 0000 0000 0000 0000 0000 0000
00000170: 0000 0000 0000 0000 0000 0000 0000 0000
00000180: 0000 0000 0000 0000 0000 0000 0000 0000
00000190: 0000 0000 0000 0000 0000 0000 0000 0000
000001a0: 0000 0000 0000 0000 0000 0000 0000 0000
000001b0: 0000 0000 0000 0000 0000 0000 0000 0000
000001c0: 0000 0000 0000 0000 0000 0000 0000 0000
000001d0: 0000 0000 0000 0000 0000 0000 0000 0000
000001e0: 0000 0000 0000 0000 0000 0000 0000 0000
000001f0: 0000 0000 0000 0000 0000 0000 0000 0000

network_body._body_endoder.seq_layers.2.weight f4 [128, 128]
0.010579076 -0.062058784 -0.18685614 -0.035595626 0.17589222 0.050434537 -0.11122968 0.02895042
0.08881871 0.0016476017 -0.040444568 0.0069271657 0.09482782 -0.04338066 0.094041936 -0.02845347
0.031819943 -0.14092042 -0.032840986 -0.019892076 -0.046119854 0.11306464 0.05405652 -0.013285098
-0.022045724 0.0052735778 -0.06062633 0.053249497 0.06868871 -0.013599151 -0.06325115 0.04022548
-0.05354641 0.11976999 0.014008373 0.041641492 -0.16051312 -0.15031946 0.07266229 0.020669136
-0.044191394 -0.06612791 -0.092945255 -0.17961158 -0.03578294 0.11354116 -0.024116816 -0.25674638
0.10462279 -0.06613177 -0.063616894 -0.008877387 -0.036429908 -0.10207983 0.016769273 0.0938989
0.077368215 0.028965376 -0.18287414 -0.15876618 0.12542213 0.16983178 0.035120446 0.062314093
-0.1662258 -0.05345081 0.018969754 -0.0049817134 0.050035726 -0.091621734 0.052065365 0.066917956
0.17338306 0.008577738 0.06447299 0.02554848 -0.04054348 -0.008137211 0.07548049 -0.103052676
-0.023553284 -0.07196402 0.03636562 0.013681958 0.032266617 0.123704605 0.036433224 0.077633664
-0.025814636 0.010886863 -0.09054944 0.047327764 0.0014359672 0.16595377 -0.07023103 -0.00078273466
0.026852613 -0.08335029 -0.03814442 0.07330766 -0.07108199 -0.20254302 0.1340248 -0.014420961
0.09448376 0.0423468 -0.08306361 -0.07037894 0.12527327 0.050570015 0.012933916 -0.058034383
0.03729427 -0.10234542 0.02115196 -0.065400265 -0.03853351 -0.14277712 0.021538718 0.011214402
-0.011521916 -0.15061873 0.12744778 -0.054739114 -0.087236844 0.016546385 0.123326115 0.049457196
-0.11753262 -0.006409203 -0.033182565 0.09693469 0.05056196 0.15245059 0.046997275 -0.048528597
-0.041600592 0.11337282 0.04714231 0.14904428 0.10300918 0.03334916 0.043871485 -0.018930553
0.021736225 0.017456952 0.109839365 0.031584714 -0.07837122 -0.03599579 -0.09290107 0.053520005
0.04783438 0.05240343 0.044338062 0.1641667 -0.073524706 -0.02102377 0.07091528 0.039688513
0.027788507 -0.16385078 -0.008660987 0.035267822 -0.022924403 0.07061313 0.0096033355 -0.10761895
-0.102296725 0.052811537 0.048058417 -0.088243954 0.04660394 -0.063326254 0.092882276 0.07630032
-0.0023177583 -0.032171357 -0.02510173 0.14514919 0.08300964 -0.003908365 0.040165592 -0.11561156
0.021602176 0.05010573 -0.016119884 -0.048861243 -0.014186988 0.0950293 -0.061391745 -0.093472615
0.045714643 0.13791473 -0.004585633 0.15522401 0.138146 -0.03380412 -0.004757903 0.009434482
-0.02100009 -0.08533019 0.010703547 0.15371966 -0.05087436 -0.08539025 0.05777898 0.008970936
0.062571466 -0.10857575 0.02290684 -0.14719671 0.014403277 0.02105194 -0.032250166 0.008966752
0.09139421 -0.06418085 -0.18183242 0.11698685 0.027280143 0.0747052 -0.13784462 0.039554194
0.03741094 0.026057083 -0.11430221 -0.11032791 0.06487483 -0.2364801 0.12364221 0.16020985
-0.0071628448 0.093170226 -0.16808514 0.18498997 -0.077481635 0.060237408 0.10075362 0.04251207
0.07662665 0.05873029 -0.1434282 -0.05555577 0.046093628 0.027588591 -0.056165908 -0.008867626
-0.06015708 0.1760583 0.0128035955 0.045896333 0.05700779 -0.0033753715 0.067359194 -0.12887922
00000000: dc53 2d3c 5a31 7ebd 3757 3fbe b8cc 11bd
00000010: 171d 343e 7294 4e3d 63cc e3bd 6e29 ed3c
00000020: 95e6 b53d 57f4 d73a 34a9 25bd 47fd e23b
00000030: 1735 c23d ebaf 31bd 0f99 c03d 4017 e9bc
00000040: a155 023d 714d 10be 4584 06bd b5f4 a2bc
00000050: 2ce8 3cbd 6f8e e73d 5f6a 5d3d bda9 59bc
00000060: 3c99 b4bc facd ac3b 5153 78bd 251c 5a3d
00000070: abac 8c3d f9ce 5ebc d289 81bd 79c3 243d
00000080: 7b53 5bbd f849 f53d 6083 653c 4590 2a3d
00000090: 8d5d 24be 58ed 19be f7cf 943d 5252 a93c
000000a0: 0902 35bd 126e 87bd 155a bebd 19ec 37be
000000b0: 2291 12bd 4588 e83d a190 c5bc 4374 83be
000000c0: 7944 d63d 1870 87bd 9349 82bd 7672 11bc
000000d0: 8737 15bd 3b0f d1bd b75f 893c 114e c03d
000000e0: 3a73 9e3d cc48 ed3c 5c43 3bbe 9a93 22be
000000f0: a96e 003e 62e8 2d3e 75da 0f3d 103d 7f3d
00000100: 1937 2abe 3def 5abd 7566 9b3c a43d a3bb
00000110: 43f2 4c3d 2da4 bbbd 7e42 553d 480c 893d
00000120: 548b 313e a489 0c3c 6a0a 843d 0c4b d13c
00000130: ec10 26bd f051 05bc 8495 9a3d 480d d3bd
00000140: d1f2 c0bc df61 93bd 1ef4 143d 4b2a 603c
00000150: 002a 043d d758 fd3d 013b 153d 66fe 9e3d
00000160: 3779 d3bc d05e 323c fc71 b9bd c2da 413d
00000170: 1037 bc3a c9ef 293e 49d5 8fbd 6f30 4dba
00000180: 03fa db3c 8fb3 aabd 533d 1cbd 5422 963d
00000190: 6f93 91bd 7067 4fbe cc3d 093e e545 6cbc
000001a0: b480 c13d d773 2d3d 411d aabd d522 90bd
000001b0: a347 003e 8122 4f3d c7e8 533c 76b5 6dbd
000001c0: e0c1 183d 7a9a d1bd e046 ad3c 93f0 85bd
000001d0: 50d5 1dbd 2a34 12be f771 b03c 9cbc 373c
000001e0: 6bc6 3cbc cc3b 1abe ac81 023e 1f36 60bd
000001f0: 3ba9 b2bd 498c 873c 6792 fc3d a193 4a3d
00000200: f1b4 f0bd 4b04 d2bb 71ea 07bd b285 c63d
00000210: 0f1a 4f3d 021c 1c3e 3780 403d ecc5 46bd
00000220: 6265 2abd 0230 e83d 4b18 413d 109f 183e
00000230: 7af6 d23d 2199 083d 96b2 333d 3f14 9bbc
00000240: 2b10 b23c e201 8f3c 76f3 e03d f95e 013d
00000250: 1781 a0bd 5270 13bd eb42 bebd cb37 5b3d
00000260: fced 433d fba4 563d d49b 353d 511b 283e
00000270: 1f94 96bd 0b3a acbc 083c 913d 6c90 223d
00000280: b9a4 e33c 80c8 27be d0e6 0dbc fe74 103d
00000290: f5cb bbbc 9e9d 903d 4f57 1d3c 5367 dcbd
000002a0: f280 d1bd e950 583d e7d8 443d 3fb9 b4bd
000002b0: c6e3 3e3d 32b1 81bd 1039 be3d 5843 9c3d
000002c0: 88e5 17bb 1dc6 03bd 25a2 cdbc fda1 143e
000002d0: f500 aa3d be11 80bb ad84 243d c1c5 ecbd
000002e0: 0cf7 b03c aa3b 4d3d d90d 84bc ba22 48bd
000002f0: 8a70 68bc b99e c23d e975 7bbd 926e bfbd
00000300: 473f 3b3d 8539 0d3e 1443 96bb 0bf3 1e3e
00000310: 2576 0d3e 3076 0abd 2fe8 9bbb 1693 1a3c
00000320: 6108 acbc 98c1 aebd ee5d 2f3c b068 1d3e
00000330: a261 50bd 15e1 aebd a7a9 6c3d d5fa 123c
00000340: 7825 803d f65c debd 20a7 bb3c bcba 16be
00000350: b9fb 6b3c 1e75 ac3c c018 04bd 49e9 123c
00000360: e32c bb3d 4071 83bd 4732 3abe cd96 ef3d
00000370: 9b7a df3c 0aff 983d 2427 0dbe 9403 223d
00000380: 373c 193d aa75 d53c 4717 eabd 99f3 e1bd
00000390: 18dd 843d d727 72be 2138 fd3d 0d0e 243e
000003a0: 4cb6 eabb 08d0 be3d 831e 2cbe 036e 3d3e
000003b0: b1ae 9ebd 80bb 763d ea57 ce3d 2321 2e3d
000003c0: 6fee 9c3d 2c8f 703d d8de 12be 728e 63bd
000003d0: accc 3c3d 7801 e23c 390e 66bd 8549 11bc
000003e0: 4567 76bd a148 343e 2cc6 513c cbfd 3b3d
000003f0: 0081 693d 5635 5dbb 9ef3 893d eaf8 03be

network_body._body_endoder.seq_layers.2.bias f4 [128]
0.0 0.0 0.0 0.0 0.0 0.0 0.0 0.0
0.0 0.0 0.0 0.0 0.0 0.0 0.0 0.0
0.0 0.0 0.0 0.0 0.0 0.0 0.0 0.0
0.0 0.0 0.0 0.0 0.0 0.0 0.0 0.0
0.0 0.0 0.0 0.0 0.0 0.0 0.0 0.0
0.0 0.0 0.0 0.0 0.0 0.0 0.0 0.0
0.0 0.0 0.0 0.0 0.0 0.0 0.0 0.0
0.0 0.0 0.0 0.0 0.0 0.0 0.0 0.0
0.0 0.0 0.0 0.0 0.0 0.0 0.0 0.0
0.0 0.0 0.0 0.0 0.0 0.0 0.0 0.0
0.0 0.0 0.0 0.0 0.0 0.0 0.0 0.0
0.0 0.0 0.0 0.0 0.0 0.0 0.0 0.0
0.0 0.0 0.0 0.0 0.0 0.0 0.0 0.0
0.0 0.0 0.0 0.0 0.0 0.0 0.0 0.0
0.0 0.0 0.0 0.0 0.0 0.0 0.0 0.0
0.0 0.0 0.0 0.0 0.0 0.0 0.0 0.0
00000000: 0000 0000 0000 0000 0000 0000 0000 0000
00000010: 0000 0000 0000 0000 0000 0000 0000 0000
00000020: 0000 0000 0000 0000 0000 0000 0000 0000
00000030: 0000 0000 0000 0000 0000 0000 0000 0000
00000040: 0000 0000 0000 0000 0000 0000 0000 0000
00000050: 0000 0000 0000 0000 0000 0000 0000 0000
00000060: 0000 0000 0000 0000 0000 0000 0000 0000
00000070: 0000 0000 0000 0000 0000 0000 0000 0000
00000080: 0000 0000 0000 0000 0000 0000 0000 0000
00000090: 0000 0000 0000 0000 0000 0000 0000 0000
000000a0: 0000 0000 0000 0000 0000 0000 0000 0000
000000b0: 0000 0000 0000 0000 0000 0000 0000 0000
000000c0: 0000 0000 0000 0000 0000 0000 0000 0000
000000d0: 0000 0000 0000 0000 0000 0000 0000 0000
000000e0: 0000 0000 0000 0000 0000 0000 0000 0000
000000f0: 0000 0000 0000 0000 0000 0000 0000 0000
00000100: 0000 0000 0000 0000 0000 0000 0000 0000
00000110: 0000 0000 0000 0000 0000 0000 0000 0000
00000120: 0000 0000 0000 0000 0000 0000 0000 0000
00000130: 0000 0000 0000 0000 0000 0000 0000 0000
00000140: 0000 0000 0000 0000 0000 0000 0000 0000
00000150: 0000 0000 0000 0000 0000 0000 0000 0000
00000160: 0000 0000 0000 0000 0000 0000 0000 0000
00000170: 0000 0000 0000 0000 0000 0000 0000 0000
00000180: 0000 0000 0000 0000 0000 0000 0000 0000
00000190: 0000 0000 0000 0000 0000 0000 0000 0000
000001a0: 0000 0000 0000 0000 0000 0000 0000 0000
000001b0: 0000 0000 0000 0000 0000 0000 0000 0000
000001c0: 0000 0000 0000 0000 0000 0000 0000 0000
000001d0: 0000 0000 0000 0000 0000 0000 0000 0000
000001e0: 0000 0000 0000 0000 0000 0000 0000 0000
000001f0: 0000 0000 0000 0000 0000 0000 0000 0000

value_heads.value_heads.extrinsic.weight f4 [1, 128]
-0.21108846 0.06789857 0.13546756 0.00989753 0.16870525 0.017104626 0.07667276 -0.10038565
0.123262435 -0.01662597 0.0010679215 0.105098754 0.028644726 -0.115092985 -0.12235811 -0.014437258
0.05948651 -0.15002438 0.14379904 0.1582956 0.02925694 0.12339243 0.16175085 0.018050686
0.0066866428 -0.207372 -0.13694878 0.12269205 -0.11191624 0.20250466 -0.03208536 -0.14532396
-0.00691694 0.18254685 -0.14416578 -0.011909589 0.16553763 -0.06243968 -0.025605708 -0.10582007
0.073673785 0.13279358 -0.08703305 0.005633101 0.15114042 -0.12207477 -0.16836803 0.03791195
-0.096042834 0.20344082 -0.19394556 -0.085375845 -0.13301332 -0.005124584 -0.11159102 -0.12133002
0.034585834 -0.13462552 -0.16755246 0.14838359 0.010489255 -0.04613684 0.21092221 -0.19594929
-0.029197112 0.075419754 -0.029844403 -0.0073584765 -0.089346886 0.008745566 0.103661746 -0.18817517
-0.15367137 -0.17333838 -0.10578019 -0.092044055 -0.024461225 -0.16345035 -0.06612767 0.1759131
-0.038576707 -0.023610562 -0.124737665 0.05926743 0.004050836 -0.0949787 0.124532044 -0.17578414
0.16230893 -0.029268488 -0.15752807 -0.18712986 -0.18575072 0.07387659 0.17016521 0.068490416
0.058777243 0.08761796 0.14020157 -0.08638525 -0.15253586 -6.599724e-05 0.14211842 -0.085405365
-0.21186191 -0.13845009 0.005123481 -0.009876162 -0.07572448 -0.1792149 -0.103275664 0.20958647
0.11914566 0.08844489 0.13225186 0.17846438 0.071647435 -0.03140442 -0.10172156 -0.19408068
0.05094835 0.049417794 0.1351654 0.16422227 0.16492292 0.08827448 0.18635485 0.05495724
00000000: 9327 58be 680e 8b3d 02b8 0a3e 4029 223c
00000010: 12c1 2c3e 001f 8c3c 9c06 9d3d fe96 cdbd
00000020: 0471 fc3d 3033 88bc 80f9 8b3a 043e d73d
00000030: 58a8 ea3c dfb5 ebbd e496 fabd 408a 6cbc
00000040: 20a8 733d fe9f 19be 0e40 133e 3e18 223e
00000050: 40ac ef3c 2cb5 fc3d 04a2 253e 08df 933c
00000060: a01b db3b 5359 54be 4d3c 0cbe f845 fb3d
00000070: 5734 e5bd 625d 4f3e f06b 03bd cecf 14be
00000080: 80a7 e2bb 90ed 3a3e 32a0 13be 7020 43bc
00000090: b282 293e c0c0 7fbd 10c3 d1bc 31b8 d8bd
000000a0: 48e2 963d 0afb 073e 623e b2bd e095 b83b
000000b0: 8ec4 1a3e 5602 fabd ab68 2cbe 9049 1b3d
000000c0: 1bb2 c4bd ca52 503e aa99 46be 88d9 aebd
000000d0: a534 08be 20ec a7bb d589 e4bd e07b f8bd
000000e0: e0a9 0d3d 46db 09be df92 2bbe def1 173e
000000f0: 20db 2b3c fcf9 3cbd fefb 573e eea6 48be
00000100: c82e efbc ac75 9a3d 407c f4bc 601f f1bb
00000110: 80fb b6bd 9049 0f3c 9c4c d43d feb0 40be
00000120: 075c 1dbe 9e7f 31be 49a3 d8bd 9881 bcbd
00000130: e862 c8bc 875f 27be f26d 87bd 9022 343e
00000140: 9c02 1ebd f06a c1bc 7676 ffbd 68c2 723d
00000150: e0bc 843b 3184 c2bd a80a ff3d c200 34be
00000160: 5034 263e 78c4 efbc 0a4f 21be f89e 3fbe
00000170: 7035 3ebe 9c4c 973d ca3f 2e3e b444 8c3d
00000180: 68c0 703d 0c71 b33d 0091 0f3e c0ea b0bd
00000190: 5c32 1cbe 0068 8ab8 7e87 113e 02e9 aebd
000001a0: 54f2 58be dcc5 0dbe e0e2 a73b a0cf 21bc
000001b0: 7015 9bbd 1c84 37be 3182 d3bd d69d 563e
000001c0: a402 f43d 9822 b53d 086d 073e 5ebf 363e
000001d0: e4bb 923d eca1 00bd 6553 d0bd 16bd 46be
000001e0: 38af 503d 506a 4a3d cc68 0a3e e229 283e
000001f0: 8ee1 283e 40c9 b43d ced3 3e3e d81a 613d
