MachineLearning/results/testSumo16/MoveTOGoal/MoveTOGoal-500004.pt (torch, 441819 bytes, 36 tensors)

network_body._body_endoder.seq_layers.0.weight f4 [128, 6]
0.080639474 -0.14688341 0.3920478 0.24490607 -0.008102575 0.3346915 0.07126544 -0.026519228
0.61253774 0.34610826 0.0567021 -0.17341529 -0.71123093 -0.38803366 -0.79596967 0.11406281
0.035546873 0.74354005 0.08294092 0.40551725 0.15586832 -0.7268229 -0.082044296 -0.40249574
0.07540821 0.17763333 -0.61050457 0.58414876 -0.23066868 0.060515385 -0.09622447 0.35718387
-0.23801754 -0.16659038 0.30369595 -0.20612268 -0.31517527 0.41417742 0.39882773 -0.30440232
-0.1982127 -0.36367077 0.11232612 0.0011551672 -0.9126039 0.16674332 0.21020563 -0.67014027
0.40820986 0.07578301 -0.5286507 -0.29271528 -0.43491188 -0.25032267 -0.23448691 0.2399235
0.82510537 0.08471031 0.40054116 -0.7610184 -0.13849166 0.1616065 2.7377622e-05 0.40183514
-0.16617863 -0.3468146 0.9797997 0.279742 -0.3535963 -0.04458438 -0.5931704 0.31040373
-0.08376087 -0.42189956 -0.5289302 -0.30764887 -0.3686956 0.043327563 -0.7229373 -0.5055289
-0.5057603 -0.33385316 0.28404823 0.26667857 -0.61959875 0.009781025 -0.011496609 -0.7019358
-0.1164896 -0.3581211 -0.37443653 -0.5733747 -0.3554281 -0.66775006 0.114083044 -0.06915302
-0.12996979 -0.14296764 0.105159335 0.14455715 0.008200966 0.23687153 -1.2935672 -0.6822399
-0.13837785 -1.2104597 0.31228894 0.12899466 0.13769631 -0.07568719 0.41263562 -0.41297528
-0.35241368 -0.14928943 -0.56833506 -0.06574645 0.3338876 -0.13332537 0.10630114 -0.3162222
0.86900896 0.029533079 -0.42179486 0.27302775 0.01248337 -0.29057333 0.13412021 -0.43243766
-0.8270752 0.3067653 -0.40258133 -0.40536365 -0.058619794 0.4769264 -0.17792152 0.46520093
-0.7927586 0.45266336 -0.370314 -0.17256825 0.07784179 0.3901799 0.43203568 -0.30645764
0.63486034 -0.12290343 0.3438886 0.13963562 -0.44138345 -0.1353699 0.34411517 -0.3325447
-0.14390267 -0.78957427 0.5227712 0.38541958 0.3975491 -0.41083178 0.00381238 -0.9168695
-0.07363121 -0.20998293 -0.08994127 0.302766 -0.93140465 0.49208024 0.06436211 -0.07628204
-0.27274415 0.6370462 -0.64718735 0.09254408 -0.3583454 0.5778992 0.26749206 -0.53564715
-0.2943061 0.86831945 0.17253754 0.7066092 -0.27099684 -0.5714412 0.222777 -0.58630645
0.10146782 0.22884613 0.10236278 -0.66759723 -0.16640319 0.15562202 0.41116312 -0.17893375
0.18184279 0.27914467 -0.51917154 0.09208444 -0.3953797 -0.1937257 -0.028540771 -0.124824226
0.069400996 0.5237914 -0.46122357 -0.322255 0.056082934 0.19554625 0.19833812 0.33457536
-0.19665068 -0.2538813 0.5579457 0.35251117 -0.41505948 0.16050239 -0.5615161 -0.74415696
0.49639404 0.54631555 -0.51092196 -0.28306833 0.024732653 -0.27143452 -0.61301816 0.43226877
-0.045052703 0.45720726 0.31873876 -0.3060105 0.58378255 -0.07183862 -0.03317637 -0.24204698
-0.0064284718 -0.3252832 -0.39647752 0.54578775 0.21163942 -0.07649231 0.13914232 -0.30637735
-0.24837899 0.8556188 0.07611981 -0.34446353 -0.46115026 -0.4953291 0.12314979 0.47828498
-0.30906355 -0.26980478 -0.08366373 -0.05080804 -0.5856356 -0.30625927 -0.12839736 0.11330582
00000000: 4f26 a53d 9b68 16be 7dba c83e a8c8 7a3e
00000010: aac0 04bc af5c ab3e 9df3 913d da3e d9bc
00000020: 46cf 1c3f 1a35 b13e 7640 683d c793 31be
00000030: 3b13 36bf 59ac c6be abc4 4bbf c399 e93d
00000040: 9999 113d a458 3e3f eedc a93d f59f cf3e
00000050: f29b 1f3e 1111 3abf d706 a8bd ec13 cebe
00000060: 9f6f 9a3d 83e5 353e 074a 1cbf c68a 153f
00000070: 6934 6cbe fbde 773d 5611 c5bd cee0 b63e
00000080: dfba 73be ab96 2abe 097e 9b3e d311 53be
00000090: a75e a1be 100f d43e 2633 cc3e 9fda 9bbe
000000a0: 45f8 4abe 0e33 babe 3d0b e63d fb68 973a
000000b0: 69a0 69bf c3be 2a3e 2540 573e 508e 2bbf
000000c0: e200 d13e 1f34 9b3d a755 07bf c7de 95be
000000d0: c5ac debe 4b2a 80be 561d 70be 82ae 753e
000000e0: 1b3a 533f 997c ad3d bb13 cd3e 1ad2 42bf
000000f0: c2d0 0dbe 2d7c 253e ffa8 e537 56bd cd3e
00000100: bb2a 2abe af91 b1be 27d4 7a3f 583a 8f3e
00000110: 930a b5be 1c9e 36bd 04da 17bf 3ded 9e3e
00000120: d28a abbd 3803 d8be f867 07bf 2784 9dbe
00000130: abc5 bcbe 3e78 313d 6b12 39bf 586a 01bf
00000140: 8279 01bf cdee aabe c56e 913e 188a 883e
00000150: 069e 1ebf 9840 203c 465c 3cbc 11b2 33bf
00000160: 1992 eebd a65b b7be 25b6 bfbe afc8 12bf
00000170: acfa b5be abf1 2abf 5fa4 e93d 19a0 8dbd
00000180: cd16 05be 1c66 12be c75d d73d ca06 143e
00000190: 585d 063c 738e 723e 9c93 a5bf 46a7 2ebf
000001a0: ecb2 0dbe 58f0 9abf 56e4 9f3e 2d17 043e
000001b0: 4300 0d3e e301 9bbd fa44 d33e 7f71 d3be
000001c0: 916f b4be 54df 18be 687e 11bf 13a6 86bd
000001d0: 51f3 aa3e 7286 08be 69b4 d93d e0e7 a1be
000001e0: 5f77 5e3f 5bef f13c 7ff5 d7be 4bca 8b3e
000001f0: 0c87 4c3c 07c6 94be cf56 093e 7868 ddbe
00000200: 33bb 53bf 5710 9d3e 241f cebe d38b cfbe
00000210: 4f1b 70bd b22f f43e 0f31 36be d12e ee3e
00000220: 3af2 4abf 7ec3 e73e cc99 bdbe bbb5 30be
00000230: 846b 9f3d a9c5 c73e c833 dd3e 04e8 9cbe
00000240: 3586 223f cbb4 fbbd 2b12 b03e a4fc 0e3e
00000250: 03fd e1be 689e 0abe dd2f b03e 4d43 aabe
00000260: 395b 13be 8a21 4abf 55d4 053f b755 c53e
00000270: 8e8b cb3e 8b58 d2be 1fd9 793b f6b7 6abf
00000280: f6cb 96bd c405 57be 2133 b8bd 2504 9b3e
00000290: 8970 6ebf f1f1 fb3e 48d0 833d c239 9cbd
000002a0: 1fa5 8bbe 7615 233f 12ae 25bf c087 bd3d
000002b0: 0c79 b7be 34f1 133f b8f4 883e 2c20 09bf
000002c0: 4aaf 96be 2f4a 5e3f aead 303e 57e4 343f
000002d0: 19c0 8abe f849 12bf a71f 643e 2e18 16bf
000002e0: 5cce cf3d a456 6a3e 94a3 d13d a7e7 2abf
000002f0: 9965 2abe 615b 1f3e f983 d23e 693a 37be
00000300: ff34 3a3e 0dec 8e3e 6de8 04bf c496 bc3d
00000310: 356f cabe 0860 46be 56ce e9bc d8a3 ffbd
00000320: 1c22 8e3d 3117 063f 7f25 ecbe 9bfe a4be
00000330: 38b7 653d 473d 483e 2619 4b3e 764d ab3e
00000340: cc5e 49be bbfc 81be 88d5 0e3f 587c b43e
00000350: ad82 d4be bd5a 243e 85bf 0fbf 1281 3ebf
00000360: 5c27 fe3e 56db 0b3f c8cb 02bf 55ee 90be
00000370: 229c ca3c 77f9 8abe c2ee 1cbf 5552 dd3e
00000380: 2f89 38bd 1217 ea3e ba31 a33e 69ad 9cbe
00000390: c672 153f 2020 93bd f2e3 07bd 2adb 77be
000003a0: eea5 d2bb 858b a6be 1aff cabe bfb8 0b3f
000003b0: 01b8 583e 00a8 9cbd 537b 0e3e 7edd 9cbe
000003c0: 1057 7ebe d509 5b3f b4e4 9b3d 865d b0be
000003d0: e31b ecbe c79b fdbe f535 fc3d c5e1 f43e
000003e0: 943d 9ebe da23 8abe e457 abbd 171c 50bd
000003f0: 37ec 15bf 04ce 9cbe 997a 03be e20c e83d

network_body._body_endoder.seq_layers.0.bias f4 [128]
-0.024735425 0.01194447 -0.021315964 0.033051774 0.05560493 -0.1412179 0.08008218 -0.032566007
0.106595725 -0.023270473 0.07175171 0.00854452 0.042908203 0.045756582 0.03193417 -0.117271245
-0.07831988 -0.03685238 -0.0055248598 0.008912211 -0.057231653 0.094780274 0.09699733 0.019485444
0.08851612 -0.05283932 -0.03725957 -0.0167822 0.017427731 -0.06641515 -0.09060091 0.0053125327
0.11355857 -0.005482901 0.006248374 0.027180046 -0.05522291 -0.069584385 0.027655585 -0.009813677
0.05343062 -0.107862115 0.075795285 -0.010244226 -0.06396853 -0.12468278 0.100740924 -0.047665276
0.036228117 -0.14972527 -0.04725026 0.020808907 0.052491195 0.028086388 -0.05388517 -0.1384593
0.08611469 -0.010871563 -0.024722451 -0.046890885 -0.017414697 0.06018884 0.042926844 0.015386504
-0.051625077 0.108281344 -0.05091792 0.016742092 -0.10456608 -0.07610164 -0.03920148 0.1121965
-0.029147645 -0.11389589 -0.007744427 -0.08886134 0.060330186 -0.029505173 0.017977571 0.0060110954
0.061551806 -0.13475853 0.002977929 0.02173131 0.011515002 0.018262194 -0.017412003 0.06436744
0.061644256 0.05166423 -0.036168724 0.033983123 4.320458e-05 -0.0018855712 0.05339024 -0.093760476
-0.017748669 0.057361666 -0.082896955 -0.033726882 0.11110678 -0.0878537 -0.014163791 0.05905691
-0.01091799 0.036697015 -0.031231252 -0.064809255 0.053642392 -0.054818396 -0.079253286 0.05151554
0.04252441 -0.04983829 -0.033248965 -0.18337554 -0.022333587 0.025361592 0.060057256 0.11037246
-0.14449468 -0.073910765 -0.021452228 -0.10660753 0.036737867 0.003991643 -0.03368861 0.023619374
00000000: f2a1 cabc bdb2 433c d19e aebc 4c61 073d
00000010: ffc1 633d 6d9b 10be 2002 a43d ef63 05bd
00000020: dc4e da3d b8a1 bebc 8ff2 923d 50fe 0b3c
00000030: 83c0 2f3d 416b 3b3d 67cd 023d e82b f0bd
00000040: 2c66 a0bd 85f2 16bd e209 b5bb 8604 123c
00000050: bd6b 6abd 291c c23d 89a6 c63d f09f 9f3c
00000060: f147 b53d 0b6e 58bd 7e9d 18bd d37a 89bc
00000070: 9ac4 8e3c ab04 88bd f88c b9bd c114 ae3b
00000080: 6591 e83d e8a9 b3bb 29bf cc3b b0a8 de3c
00000090: 6b31 62bd 4282 8ebd f78d e23c 8bc9 20bc
000000a0: 11da 5a3d d0e6 dcbd 8f3a 9b3d 66d7 27bc
000000b0: ef01 83bd af59 ffbd 4251 ce3d aa3c 43bd
000000c0: ef63 143d 9551 19be 7d89 41bd 7177 aa3c
000000d0: 0201 573d 6d15 e63c b2b6 5cbd 46c8 0dbe
000000e0: e65c b03d a41e 32bc bd86 cabc a810 40bd
000000f0: 44a9 8ebc 9388 763d 0fd4 2f3d ad17 7c3c
00000100: d174 53bd 9cc2 dd3d 4f8f 50bd b626 893c
00000110: be26 d6bd 2ddb 9bbd bb91 20bd 47c7 e53d
00000120: 0bc7 eebc 4042 e9bd f6c4 fdbb effc b5bd
00000130: c91c 773d d5b4 f1bc b345 933c b9f8 c43b
00000140: bf1d 7c3d 24fe 09be 5c29 433b dc05 b23c
00000150: 6ba9 3c3c 999a 953c 9ea3 8ebc 14d3 833d
00000160: b07e 7c3d df9d 533d a825 14bd e331 0b3d
00000170: 9136 3538 4525 f7ba b9af 5a3d 7e05 c0bd
00000180: a865 91bc 11f4 6a3d e1c5 a9bd 3325 0abd
00000190: f48b e33d a4ec b3bd 3f0f 68bc a9e5 713d
000001a0: 5ee1 32bc 9c4f 163d afd8 ffbc b7ba 84bd
000001b0: 20b8 5b3d 4189 60bd 8c4f a2bd f501 533d
000001c0: 132e 2e3d 3c23 4cbd 1130 08bd ccc6 3bbe
000001d0: edf4 b6bc 1dc3 cf3c 99fe 753d f50a e23d
000001e0: 6af6 13be 875e 97bd 95bc afbc 0c55 dabd
000001f0: 727a 163d 54cc 823b 11fd 09bd 6b7d c13c

network_body._body_endoder.seq_layers.2.weight f4 [128, 128]
-0.05425983 -0.21619934 -0.4081765 -0.15489922 0.1001572 0.1297912 -0.05159209 0.071888626
-0.053804897 -0.35071436 -0.0776925 0.12045855 -0.17046188 -0.23835202 -0.16631497 -0.0013725348
-0.04219518 -0.18095697 -0.03336594 -0.051469393 0.030861214 -0.13195999 -0.08007743 -0.1550381
-0.20837006 -0.038859446 -0.06213683 0.050468765 0.11949273 -0.052754816 -0.053208865 -0.09463158
0.036657248 0.123653054 0.02439928 0.09143835 -0.077672705 -0.0643072 -0.062040854 -0.16824822
-0.053804222 0.18138936 -0.2338972 -0.31044438 0.04773051 -0.0050510718 -0.11861805 -0.10767391
-0.16371024 -0.06321597 0.12190761 0.075812936 -0.08157245 0.03245362 0.08868073 -0.11606148
0.036271416 0.031052431 0.19437104 0.08566516 -0.023283832 -0.19930094 -0.050578196 -0.04576739
-0.16871239 -0.017141514 0.09097819 0.057443105 0.062394433 0.04724303 -0.049569823 -0.1757613
-0.18928304 -0.02061236 -0.11493452 0.0155158015 0.056615338 -0.0034919716 0.15134317 0.15114026
0.069196016 -0.111652635 0.06765337 -0.1726384 0.049583934 -0.12783591 0.022076748 0.12639056
-0.09679518 0.06716262 -0.09552563 0.111766465 -0.15504715 0.033224743 -0.13141769 -0.0015916639
-0.05431336 -0.08728367 0.08183023 -0.019852532 0.027121365 0.13083418 0.113832064 -0.12992734
-0.036238078 0.15825619 -0.0005042779 0.21794069 -0.23717083 -0.10661078 0.016895149 -0.16902365
0.01865746 -0.078620166 0.10042993 0.058291614 0.020755777 -0.20904058 0.092184685 -0.0014753741
-0.04920457 -0.08402453 -0.049254015 -0.08834249 -0.1369322 -0.100775175 0.12863898 -0.010717284
-0.14804329 0.011419181 -0.026789526 0.1109445 -0.013335781 -0.10911991 -0.015861908 -0.09793303
0.2361047 0.09947117 -0.0044721738 -0.10288585 -0.02290501 0.06653165 -0.019645646 0.10593177
-0.0958082 -0.16137692 -0.011214001 0.064108364 -0.09834203 -0.092890516 0.042831775 -0.10915177
0.118786946 -0.17151755 0.119388565 -0.08199208 0.07902696 -0.055496346 0.09661954 0.060052324
0.0666267 -0.011919038 -0.15291554 -0.029694023 -0.15543203 0.15189429 0.10556258 -0.046760425
0.07802889 -0.14819464 0.03436757 0.04231105 -0.09970632 -0.12272882 -0.17783375 0.057619743
-0.113807626 -0.004305164 -0.22119793 -0.15204935 0.11391716 -0.08954634 -0.03398184 -0.13802743
-0.16091277 0.016185025 -0.14453976 -0.18508397 -0.062795736 -0.007105457 -0.16191705 0.092282444
-0.10330588 -0.058521 -0.16677254 0.037127096 -0.076445185 0.07291688 0.09830027 0.05449763
-0.055991203 0.022753378 -0.12014657 -0.0949141 0.057661105 0.02542532 0.09808676 -0.29686219
-0.03396088 -0.14128613 -0.08838096 0.0273048 0.03799655 -0.04709916 -0.09100705 0.11230628
-0.07797526 -0.11515174 -0.09687688 0.09107066 -0.1002756 -0.07178497 -0.07921723 -0.11092836
-0.11179393 -0.21309118 0.02862355 -0.021666955 0.2832142 0.011025095 -0.031594608 -0.084566295
0.10514875 -0.039531816 0.034984045 -0.038677163 -0.08473098 -0.2998874 -0.08560937 -0.023207683
-0.03957307 -0.19895683 -0.18525046 -0.08203296 -0.059844185 0.07227071 0.10528163 0.07111322
-0.052599464 -0.22472057 0.11967025 -0.11181194 -0.06934739 -0.104206495 -0.072320625 -0.055384267
00000000: 8e3f 5ebd 5c63 5dbe 83fc d0be e79d 1ebe
00000010: 381f cd3d fce7 043e 3a52 53bd 583a 933d
00000020: 8662 5cbd d590 b3be 3f1d 9fbd f9b2 f63d
00000030: 8f8d 2ebe 8d12 74be 794e 2abe a0e6 b3ba
00000040: dad4 2cbd c94c 39be b9aa 08bd 92d1 52bd
00000050: a8d0 fc3c 8520 07be a3ff a3bd 4fc2 1ebe
00000060: f65e 55be 152b 1fbd 3083 7ebd 56b8 4e3d
00000070: 9bb8 f43d 6f15 58bd 8af1 59bd 34ce c1bd
00000080: e925 163d d03d fd3d 00e1 c73c 0844 bb3d
00000090: de12 9fbd 7eb3 83bd 8d1e 7ebd 4349 2cbe
000000a0: d161 5cbd 22be 393e bf82 6fbe 91f2 9ebe
000000b0: 1181 433d 7683 a5bb 05ee f2bd 2484 dcbd
000000c0: a8a3 27be 6077 81bd b2aa f93d d043 9b3d
000000d0: 750f a7bd 16ee 043d 3e9e b53d a4b1 edbd
000000e0: 5691 143d ab61 fe3c 3409 473e 3771 af3d
000000f0: bcbd bebc 8c15 4cbe 152b 4fbd 9676 3bbd
00000100: f1c2 2cbe 5c6c 8cbc c652 ba3d 7649 6b3d
00000110: 4e91 7f3d e881 413d ba09 4bbd c5fa 33be
00000120: 6ad3 41be 41db a8bc ca62 ebbd fd35 7e3c
00000130: 7ce5 673d 90d9 64bb b4f9 1a3e 83c4 1a3e
00000140: a4b6 8d3d 23aa e4bd da8d 8a3d 1fc8 30be
00000150: 8618 4b3d 6be7 02be 4cda b43c 876c 013e
00000160: 8d3c c6bd 8e8c 893d f1a2 c3bd d1e5 e43d
00000170: aec4 1ebe ab16 083d 5c92 06be 619f d0ba
00000180: b077 5ebd c8c1 b2bd 9c96 a73d c7a1 a2bc
00000190: a02d de3c 65f9 053e c920 e93d ac0b 05be
000001a0: 616e 14bd e90d 223e 8431 04ba d82b 5f3e
000001b0: e9dc 72be c156 dabd b267 8a3c 8914 2dbe
000001c0: 88d7 983c 9c03 a1bd 35ae cd3d 30c3 6e3d
000001d0: 0508 aa3c bc0e 56be 53cb bc3d 5761 c1ba
000001e0: bb8a 49bd 0e15 acbd 94be 49bd e8ec b4bd
000001f0: f437 0cbe 3763 cebd f0b9 033e 8c97 2fbc
00000200: a998 17be 8417 3b3c b575 dbbc df36 e33d
00000210: 527e 5abc 427a dfbd d5f0 81bc 1d91 c8bd
00000220: 6ec5 713e 8ab7 cb3d 508b 92bb d1b5 d2bd
00000230: 4aa3 bbbc bf41 883d e8ef a0bc c1f2 d83d
00000240: 1737 c4bd fe3f 25be eeba 37bc 3f4b 833d
00000250: 8c67 c9bd 623d bebd 5f70 2f3d f78a dfbd
00000260: 9246 f33d 4ca2 2fbe fe81 f43d 77eb a7bd
00000270: e3d8 a13d 2350 63bd 77e0 c53d 6df9 753d
00000280: 9473 883d 1248 43bc e495 1cbe e140 f3bc
00000290: 9329 1fbe 2d8a 1b3e 3231 d83d dc87 3fbd
000002a0: 9ccd 9f3d 56c0 17be 02c5 0c3d 5a4e 2d3d
000002b0: d432 ccbd 3f59 fbbd 0d1a 36be ae02 6c3d
000002c0: f913 e9bd 5512 8dbb b681 62be d3b2 1bbe
000002d0: 664d e93d 1264 b7bd 8b30 0bbd 1057 0dbe
000002e0: 51c6 24be 7596 843c 3b02 14be a786 3dbe
000002f0: 0d9b 80bd e5d4 e8bb 95cd 25be 94fe bc3d
00000300: 0992 d3bd b7b3 6fbd 6cc6 2abe 9512 183d
00000310: 4b8f 9cbd 7255 953d a751 c93d e838 5f3d
00000320: 0857 65bd 4b65 ba3c 680f f6bd 5362 c2bd
00000330: 0d2e 6c3d c348 d03c b6e1 c83d 52fe 97be
00000340: 901a 0bbd 50ad 10be 1401 b5bd 51ae df3c
00000350: 45a2 1b3d 0ceb 40bd e761 babd d600 e63d
00000360: 7eb1 9fbd add4 ebbd 6367 c6bd 4183 ba3d
00000370: 4b5d cdbd 0004 93bd a53c a2bd 682e e3bd
00000380: 37f4 e4bd 9334 5abe ef7b ea3c e67e b1bc
00000390: 7401 913e 9aa2 343c 5969 01bd 1831 adbd
000003a0: 3a58 d73d 1dec 21bd 6e4b 0f3d f26b 1ebd
000003b0: 7087 adbd d78a 99be f753 afbd 0a1e bebc
000003c0: 5f17 22bd 57bb 4bbe 4cb2 3dbe e600 a8bd
000003d0: 2d1f 75bd aa02 943d e59d d73d cfa3 913d
000003e0: 8972 57bd 261d 66be ad15 f53d a9fd e4bd
000003f0: 0106 8ebd 376a d5bd d61c 94bd 9dda 62bd

network_body._body_endoder.seq_layers.2.bias f4 [128]
0.000843267 -0.11542525 -0.1308133 0.062422246 -0.10145896 -0.038301818 -0.043838937 -0.053198867
-0.13146126 -0.023832398 0.006609551 0.014921546 -0.053935237 -0.13629851 -0.2393938 -0.06349615
-0.0037995414 -0.040511496 -0.07022868 -0.06332993 -0.07957813 0.0033619138 -0.067274876 0.04951692
-0.095607944 -0.06253179 -0.01008842 -0.052342325 -0.11228296 0.010355888 -0.09072123 -0.016959272
0.019713338 0.0027310255 0.04001792 0.019824518 0.036005102 -0.14798136 -0.19546038 -0.06332807
-0.10517878 -0.11827472 0.01769658 -0.09999427 0.027105121 -0.077237934 -0.16227843 -0.15752901
-0.19588864 0.043494716 -0.06051762 -0.004393403 -0.109266125 -0.14766662 -0.12295358 -0.1293531
-0.0867089 -0.05351419 -0.06013 -0.077836975 0.033120655 -0.03738414 -0.1418397 -0.121679
-0.13332398 -0.025552865 0.050418187 -0.02657011 -0.005941203 -0.13741976 -0.011928868 -0.0070698224
-0.052940667 0.057955693 -0.13347666 -0.03368081 -0.009845925 0.02022939 0.0041374164 -0.054903734
-0.07198355 -0.034675766 -0.13925612 -0.003029435 0.054269046 0.043205004 0.06665394 -0.10339231
-0.081643976 0.020799242 -0.046644047 -0.05215554 0.0011050345 -0.08716628 -0.03163508 -0.10361262
-0.09173765 0.012319911 -0.0069990335 -0.09531862 -0.10387357 -0.073138535 -0.0023748165 -0.014579742
0.026220055 -0.031244092 -0.015174241 -0.11018478 -0.0531241 -0.07984412 -0.023389233 -0.04146955
-0.048347734 -0.17234264 -0.12748913 0.005644582 -0.09557829 -0.027882406 0.029029323 -0.06050331
-0.12706524 -0.048234995 0.036067557 -0.0670516 -0.03961885 -0.004206479 -0.05794392 -0.1141616
00000000: b10e 5d3a 1364 ecbd ecf3 05be 78ae 7f3d
00000010: b7c9 cfbd 5ee2 1cbd 7590 33bd 0ee7 59bd
00000020: c89d 06be 293c c3bc ef94 d83b 8079 743c
00000030: 32eb 5cbd d691 0bbe a623 75be 450a 82bd
00000040: ba01 79bb 62ef 25bd 0ed4 8fbd 1fb3 81bd
00000050: dcf9 a2bd 8e53 5c3b 69c7 89bd 41d2 4a3d
00000060: 19ce c3bd ab10 80bd e649 25bc e864 56bd
00000070: 9cf4 e5bd beab 293c 0dcc b9bd 2cee 8abc
00000080: de7d a13c 01fb 323b d5e9 233d 0767 a23c
00000090: 167a 133d 6d88 17be c426 48be 26b2 81bd
000000a0: f967 d7bd 043a f2bd 6bf8 903c ccc9 ccbd
000000b0: 8f0b de3c ec2e 9ebd 512c 26be 494f 21be
000000c0: 0897 48be 8427 323d 53e1 77bd 89f6 8fbb
000000d0: ebc6 dfbd eb35 17be 16cf fbbd 2475 04be
000000e0: 7094 b1bd b231 5bbd e04a 76bd fe68 9fbd
000000f0: 86a9 073d 1d20 19bd 6d3e 11be d732 f9bd
00000100: 1586 08be 3e54 d1bc 4d83 4e3d 8fa9 d9bc
00000110: 6cae c2bb c4b7 0cbe 4c71 43bc f8a9 e7bb
00000120: 50d8 58bd f362 6d3d 1bae 08be e4f4 09bd
00000130: cd50 21bc 1bb8 a53c 2a93 873b bde2 60bd
00000140: 1d6c 93bd 2d08 0ebd 2899 0ebe 7c89 46bb
00000150: 3849 5e3d bbf7 303d dc81 883d 59bf d3bd
00000160: f534 a7bd 2c63 aa3c d40d 3fbd 0ca1 55bd
00000170: ced6 903a 3c84 b2bd c993 01bd da32 d4bd
00000180: f3e0 bbbd 74d9 493c 2658 e5bb 6936 c3bd
00000190: abbb d4bd a8c9 95bd cfa2 1bbb dfdf 6ebc
000001a0: 71cb d63c 9cf3 ffbc 619d 78bc 8fa8 e1bd
000001b0: a898 59bd 5085 a3bd c79a bfbc fadb 29bd
000001c0: 4608 46bd 977a 30be 838c 02be 30f6 b83b
000001d0: 8dbe c3bd a569 e4bc e7ce ed3c 52d2 77bd
000001e0: 641d 02be 0f92 45bd 93bb 133d 5952 89bd
000001f0: 6047 22bd 81d6 89bb 9b56 6dbd 8fcd e9bd

action_model._continuous_distribution.log_sigma f4 [1, 2]
-0.28859162 -0.24903345
00000000: 48c2 93be a002 7fbe

action_model._continuous_distribution.mu.weight f4 [2, 128]
0.025387913 -0.042505693 0.011661792 0.07035292 0.006310475 -0.0038063177 0.0606822 -0.0019355724
0.008502621 -0.053210016 -0.029021649 -0.111839026 0.044906367 0.001321982 0.002820337 -0.023740688
-0.07680845 -0.10043003 0.037364926 0.006976997 0.009405461 0.009921741 0.050693426 -0.1128491
0.010173299 -0.006951424 0.0020146673 0.035115134 0.027892502 0.0010524427 0.0007574143 -0.1044415
-0.13973838 -0.038976096 -0.092624344 -0.070388496 -0.097624764 0.00016505424 0.044964544 0.005824011
-0.00365637 0.045064818 -0.10146791 -0.028440485 -0.10423987 0.019512866 0.0037282065 -0.021622673
0.009348153 0.050970905 -0.0056723626 0.008319538 0.031387072 0.009603327 -0.016899819 -0.03446172
0.040251862 0.0023378446 0.06860618 0.0006149066 -0.104753375 -0.094672196 0.012994014 -0.000902593
0.011621374 -0.009947537 -0.09511266 0.062351733 -0.020414488 0.03776356 0.01730258 -0.098199755
0.08739326 0.095351905 0.01981107 -0.009820649 -0.021195022 0.035693053 -0.115792654 -0.025437083
0.008479336 0.051170968 0.008364992 0.026625434 -0.1320865 -0.09612687 -0.11851815 -0.015713662
0.00010377833 0.024393106 0.03375999 0.01473927 0.025402563 0.0147540495 0.00968813 0.036749426
0.017746938 0.012473025 -0.011507501 0.0004962288 -0.015316375 -0.032069642 -0.11878393 -0.09577093
-0.026924647 0.088407695 0.08060394 0.053529475 0.056560505 -0.031483904 -0.010949184 0.019015813
0.006719912 -0.0014228335 -0.009528173 -0.060270254 -0.009704277 -0.010831494 0.08367041 0.00983992
-0.006862993 -0.047645893 0.08602412 -0.06808818 0.07236995 0.028002813 -0.003549553 0.010921063
0.08408196 0.006392282 0.06283213 0.0353977 0.03904301 0.021198662 0.011687621 -0.01656495
0.01586596 0.028398022 -0.06772475 -0.015774706 0.03911324 0.036356054 0.013996666 -0.08133325
0.002706571 -0.0076396144 0.052685067 0.0092464825 -0.020898845 0.010939981 -0.030800583 -0.0092414515
0.030577013 0.027301066 -0.017819272 0.022149378 -0.026485687 0.012558826 -0.009974578 -0.01378184
-0.030011496 -0.033201452 -0.021836517 -0.14868143 -0.025524136 0.027088923 -0.0030336978 0.042317424
0.018767895 0.0071213404 -0.0081992 0.018906642 -0.04073401 0.023565883 -0.016100887 -0.0028232364
0.02478887 -0.10811858 -0.004162399 0.023453126 -0.02118385 -0.009953522 0.0023375833 -0.020784244
-0.010854196 -0.010930618 0.010579342 0.09465728 -0.025213527 -0.01181391 0.012361615 0.003033037
0.01945704 0.03909342 -0.03015904 0.01864815 0.023800455 0.024437241 0.017565163 -0.028067563
-0.030989178 -0.01346037 -0.02919953 0.043147948 0.03392336 0.055580527 -0.011685927 0.02835261
-0.030467758 -0.0068392185 0.03023763 0.033554267 -0.018208737 -0.008701381 -0.049098 -0.026859963
-0.021259556 -0.07751057 -0.014242646 -0.030712726 0.040953904 -0.053598445 0.05697528 -0.03974994
0.017027657 0.03664769 -0.010592507 -0.03681854 0.04371616 0.019787159 0.005683757 0.00586578
0.06953954 -0.017512633 0.018155862 -0.033488225 -0.027379151 0.021322023 -0.053714696 0.055788867
-0.006143679 0.002274653 0.02159631 -0.01972728 0.02429681 0.04213468 0.012528924 0.029620454
-0.0021842136 -0.0048108934 0.05124198 -0.007594717 -0.054500457 0.04860914 -0.004131767 -0.016401667
00000000: 50fa cf3c 731a 2ebd 1a11 3f3c 3115 903d
00000010: 1ac8 ce3b 6a73 79bb e68d 783d 08b3 fdba
00000020: 944e 0b3c bff2 59bd cfbe edbc dc0b e5bd
00000030: bdef 373d 5b46 ad3a 67d5 383b d57b c2bc
00000040: c04d 9dbd 42ae cdbd f70b 193d 4b9f e43b
00000050: 5d19 1a3c cc8e 223c e9a3 4f3d 6e1d e7bd
00000060: e9ad 263c c5c8 e3bb 8208 043b e3d4 0f3d
00000070: d17e e43c 1ef2 893a 378d 463a 6de5 d5bd
00000080: 9417 0fbe 66a5 1fbd d5b1 bdbd d827 90bd
00000090: 7eef c7bd 6912 2d39 be2c 383d 58d7 be3b
000000a0: b69f 6fbb e395 383d 68ce cfbd 05fc e8bc
000000b0: b77b d5bd 72d9 9f3c ed54 743b 0822 b1bc
000000c0: ff28 193c dec6 503d 3adf b9bb ac4e 083c
000000d0: bb8f 003d 4657 1d3c 7d71 8abc bc27 0dbd
000000e0: 23df 243d 8636 193b 6681 8c3d af31 213a
000000f0: f088 d6bd 7fe3 c1bd d8e4 543c fe9b 6cba
00000100: 9367 3e3c fffa 22bc 6dca c2bd 8864 7f3d
00000110: 493c a7bc f6ad 1a3d 24be 8d3c f41c c9bd
00000120: 3dfb b23d dc47 c33d d34a a23c cae6 20bc
00000130: 2fa1 adbc e132 123d b324 edbd 6e61 d0bc
00000140: eaec 0a3c a698 513d 520d 093c 951d da3c
00000150: af41 07be 2ade c4bd a5b9 f2bd f0b9 80bc
00000160: 91a3 d938 0dd4 c73c ea47 0a3d fb7c 713c
00000170: 0919 d03c f8ba 713c f6ba 1e3c 9186 163d
00000180: 0762 913c a95b 4c3c f589 3cbc 5a15 023a
00000190: 88f1 7abc 755b 03bd fd44 f3bd 8d23 c4bd
000001a0: 1491 dcbc 180f b53d ae13 a53d b941 5b3d
000001b0: fdab 673d 44f5 00bd 3564 33bc 0dc7 9b3c
000001c0: b532 dc3b 5f7e baba 0e1c 1cbc f1dd 76bd
000001d0: b0fe 1ebc 9476 31bc 645b ab3d 9e37 213c
000001e0: f5e2 e0bb 5728 43bd 6a2d b03d d171 8bbd
000001f0: b236 943d 2866 e53c 9e9f 68bb 42ee 323c
00000200: 2a33 ac3d 5976 d13b 22ae 803d 2efd 103d
00000210: 90eb 1f3d d1a8 ad3c 6f7d 3f3c 38b3 87bc
00000220: 54f9 813c f8a2 e83c 46b3 8abd f539 81bc
00000230: 3435 203d 16ea 143d 4652 653c 0c92 a6bd
00000240: ba60 313b bb55 fabb 4ccc 573d 8f7e 173c
00000250: 0e34 abbc 9b3d 333c 8151 fcbc 7569 17bc
00000260: a57c fa3c 7ca6 df3c b9f9 91bc 9d72 b53c
00000270: 83f8 d8bc 89c3 4d3c 6a6c 23bc 3acd 61bc
00000280: abda f5bc 3ffe 07bd 7fe2 b2bc f23f 18be
00000290: fe17 d1bc 97e9 dd3c 01d1 46bb 0955 2d3d
000002a0: 21bf 993c 225a e93b f055 06bc 1ae2 9a3c
000002b0: b5d8 26bd 3d0d c13c 02e6 83bc 0c06 39bb
000002c0: 0712 cb3c 466d ddbd bc64 88bb c520 c03c
000002d0: c189 adbc 1914 23bc 2432 193b b843 aabc
000002e0: ccd5 31bc 5616 33bc fa54 2d3c addb c13d
000002f0: 998c cebc 218f 41bc 5f88 4a3c ebc5 463b
00000300: 5f64 9f3c 6c20 203d 1710 f7bc 01c4 983c
00000310: 2cf9 c23c 9c30 c83c d1e4 8f3c f2ed e5bc
00000320: 04dd fdbc e288 5cbc da33 efbc e7bb 303d
00000330: 39f3 0a3d 68a8 633d 5576 3fbc bc43 e83c
00000340: 8597 f9bc 861b e0bb e8b4 f73c 3370 093d
00000350: 7d2a 95bc 3d90 0ebc fc1a 49bd 6d09 dcbc
00000360: 8528 aebc ddbd 9ebd fd59 69bc 4199 fbbc
00000370: 48bf 273d 0b8a 5bbd e95e 693d d5d0 22bd
00000380: 967d 8b3c e31b 163d 328c 2dbc 0acf 16bd
00000390: b70f 333d ae18 a23c cf3e ba3b bb35 c03b
000003a0: bf6a 8e3d a776 8fbc 9abb 943c f32a 09bd
000003b0: 3e4a e0bc 86ab ae3c f103 5cbd de82 643d
000003c0: ea50 c9bb 5812 153b bfea b03c 1b9b a1bc
000003d0: 1b0a c73c 6a95 2c3d 1e46 4d3c 98a6 f23c
000003e0: 0625 0fbb b3a4 9dbb 1ce3 513d 1bdd f8bb
000003f0: df3b 5fbd 611a 473d c663 87bb ca5c 86bc

action_model._continuous_distribution.mu.bias f4 [2]
-0.019045621 0.004470049
00000000: 9005 9cbc 7d79 923b

exp_avg f4 [128, 6]
0.000893584 0.009368699 -0.00097543263 -0.017804533 -12.721377 0.00021199061 0.0073466236 0.0066142995
-0.00024188668 0.0053861076 0.0073384843 0.0005613885 -0.00069849344 -0.0016116292 1.1456236e-05 -0.0005720041
-0.002436386 -7.570762e-05 0.0034619654 -0.0033563878 0.0012511197 0.024146881 15.011272 4.3482512e-05
-0.007283789 -0.017855203 0.0023476675 0.027365405 23.077538 -0.00097562 -0.0010312551 -0.00091632875
-3.861184e-05 -0.0007012078 -0.0011237962 -0.00013401159 0.004667452 -0.006331193 0.0022081018 0.03792624
24.04382 3.9768747e-06 -0.008371367 -0.007668228 0.00024495326 -0.006428938 -0.008821074 -0.00045815684
0.0045544505 -0.010444046 0.0022595923 0.034616973 21.758726 -0.00012154049 0.008906919 0.008100116
-0.0004213252 0.0064714323 0.009064759 0.0007101237 0.0040536965 -0.004767868 0.0021444005 0.036264542
23.32887 -3.7194688e-05 0.0038307332 -0.0070802565 0.0003963525 0.02085918 12.209453 0.00018566377
0.0027881672 -0.005722045 0.0014704417 0.02024444 12.802578 -2.3755525e-05 -0.00018841222 0.0018195147
-9.759235e-06 -0.00013236463 -5.0002414e-05 -4.2281063e-06 0.0048522344 -0.016339144 0.0016937752 0.04527462
28.655378 0.00016796836 3.3061802e-05 0.00042643963 -7.1134405e-06 2.5008334e-05 -0.00027085582 5.726063e-06
-0.0008150461 0.0023295372 8.075904e-06 -0.00067522866 0.00039862306 -6.2505715e-05 8.2441966e-07 0.0009884635
-6.475786e-06 -1.2832269e-06 0.00064891763 -3.4356475e-07 0.0047779167 -0.011068848 0.0019995996 0.037417606
23.565548 0.00012541018 0.0004941138 0.0021704242 -2.5401961e-05 0.00038250897 0.0015141297 2.8976248e-05
0.002396857 0.001979835 -0.00023633876 0.0020064716 0.002315666 0.00014056136 0.0029974198 -0.009237013
0.0014417021 0.02923574 18.687845 5.4906228e-05 -0.00053721596 -0.009034126 0.002265848 0.031687684
22.434834 -0.00073572295 -0.0019625353 -0.0014667436 9.07986e-05 -0.0016174901 -0.0021667634 -0.00026746135
0.013431611 0.00044476124 0.00092449924 0.034666438 16.97492 0.0011597311 0.0010000623 0.0021106373
4.8177106e-05 0.0009161475 0.0018313653 0.00014265426 0.0015215976 -0.0035107557 0.0005168572 0.010967078
6.8253665 8.3081395e-05 -0.012324989 -0.010876916 0.00045850634 -0.00920603 -0.012333179 -0.0009487449
-0.004441885 -0.013554747 0.0018444719 0.03001796 22.93338 -0.00093233923 -0.0051544234 -0.0050878935
0.00017683687 -0.0038300704 -0.0071262503 -0.00022721321 -1.1942586e-05 -0.00042911238 -4.003744e-06 -9.485237e-06
-0.0012383532 8.102974e-06 0.0014984778 0.0007080358 -5.3429256e-05 0.0011361964 -1.9497937e-05 0.00021310357
0.0021286933 -0.013208814 0.0027897942 0.046781786 31.436043 -0.00020038823 0.004300924 -0.0075112577
0.0019370947 0.030644592 19.268843 3.8779483e-05 0.0056517106 0.0041759266 0.0011421433 0.021125248
11.8482685 0.00015641445 -0.0002588444 -0.0070389803 0.0016456104 0.02431145 17.176079 -0.00028164178
0.0011549552 0.00082357274 -0.00012757776 0.0009225737 0.0011302172 0.0001306863 -0.009310429 -0.008137338
0.00035747164 -0.007087792 -0.009314398 -0.0006023665 0.0054721693 0.014178444 -0.0012834859 -0.013894067
-12.854793 0.00026647374 0.0020640842 0.0020831793 -6.01473e-05 0.0014893431 0.0022248642 -1.9125473e-06
0.005611712 -0.0070565604 0.0017300461 0.045725 28.777977 0.00023552298 0.004335198 -0.0036531007
0.0015606675 0.027073503 16.621523 -0.00016076006 0.0033276353 -0.009057981 0.0015935213 0.027073383
00000000: 683f 6a3a 2c7f 193c 2db4 7fba d0da 91bc
00000010: c38a 4bc1 cc49 5e39 f2bb f03b c4bc d83b
00000020: f6a2 7db9 f27d b03b ab77 f03b 252a 133a
00000030: 1a1b 37ba 4d3d d3ba 2934 4037 8cf2 15ba
00000040: c6ab 1fbb 38c5 9eb8 24e2 623b d8f6 5bbb
00000050: 9cfc a33a aecf c53c 2c2e 7041 fe60 3638
00000060: daac eebb 1345 92bc 53db 193b 6a2d e03c
00000070: cc9e b841 c0c0 7fba 2e2b 87ba c835 70ba
00000080: 26f3 21b8 42d1 37ba 584c 93ba 7685 0cb9
00000090: 6df1 983b e575 cfbb cdb5 103b 8c58 1b3d
000000a0: be59 c041 1871 8536 0f28 09bc c245 fbbb
000000b0: 126d 8039 d7a9 d2bb 4486 10bc c534 f0b9
000000c0: 803d 953b 811d 2bbc ab15 143b 87ca 0d3d
000000d0: df11 ae41 8ee3 feb8 53ee 113c 59b6 043c
000000e0: 50e5 dcb9 4f0e d43b 5b84 143c 9827 3a3a
000000f0: dfd4 843b c73b 9cbb 1289 0c3b 218a 143d
00000100: 87a1 ba41 7e01 1cb8 0a0d 7b3b 7f01 e8bb
00000110: 88cd cf39 dfe0 aa3c eb59 4341 bdae 4239
00000120: afb9 363b fe7f bbbb d6bb c03a abd7 a53c
00000130: 5cd7 4c41 9a46 c7b7 8590 45b9 c87c ee3a
00000140: 98bb 23b7 5ccb 0ab9 afb9 51b8 28df 8db6
00000150: 7eff 9e3b abd9 85bc aa01 de3a e171 393d
00000160: 373e e541 aa20 3039 d7ab 0a38 c293 df39
00000170: fdaf eeb6 fdc8 d137 a701 8eb9 8222 c036
00000180: d1a8 55ba 26ab 183b be7d 0737 d401 31ba
00000190: 48fe d039 8015 83b8 b04d 5d35 558f 813a
000001a0: 944a d9b6 573b acb5 201c 2a3a 2e73 b8b4
000001b0: 1290 9c3b 1d5a 35bc b70b 033b 3443 193d
000001c0: 3e86 bc41 8a80 0339 6a87 013a ad3d 0e3b
000001d0: 4c16 d5b7 7c8b c839 c375 c63a 0512 f337
000001e0: 9614 1d3b 1fc0 013b b4d1 77b9 027f 033b
000001f0: 6ec2 173b a763 1339 5c70 443b d756 17bc
00000200: 7ff7 bc3a ca7f ef3c b580 9541 1d4b 6638
00000210: f4d3 0cba df03 14bc 9f7e 143b f2ca 013d
00000220: 8a7a b341 88dd 40ba e19d 00bb c03f c0ba
00000230: 216b be38 f601 d4ba 4200 0ebb 0e3a 8cb9
00000240: 4210 5c3c d82e e939 185a 723a 65fe 0d3d
00000250: a3cc 8741 1e02 983a 8614 833a 9e52 0a3b
00000260: c611 4a38 9e29 703a 6c0a f03a 7695 1539
00000270: 5870 c73a b514 66bb b37d 073a 42af 333c
00000280: 6769 da40 fc3b ae38 c0ee 49bc 1835 32bc
00000290: ae63 f039 e3d4 16bc 1a11 4abc 31b5 78ba
000002a0: 3b8d 91bb bb14 5ebc 35c2 f13a 3ae8 f53c
000002b0: 9077 b741 3a68 74ba 70e6 a8bb 58b8 a6bb
000002c0: 496d 3939 eb01 7bbb 5283 e9bb 1540 6eb9
000002d0: 045d 48b7 7dfa e0b9 e657 86b6 c822 1fb7
000002e0: 3d50 a2ba 02f2 0737 9268 c43a 7a9b 393a
000002f0: 3a19 60b8 6dec 943a 808f a3b7 8e74 5f39
00000300: 8c81 0b3b c869 58bc fbd4 363b 429e 3f3d
00000310: 047d fb41 4e1f 52b9 c4ee 8c3b ff20 f6bb
00000320: 1de6 fd3a 5e0a fb3c 9726 9a41 27a7 2238
00000330: fc31 b93b 36d6 883b f8b3 953a db0e ad3c
00000340: 8292 3d41 2f03 2439 82b5 87b9 3fa7 e6bb
00000350: 86b1 d73a ce28 c73c 9c68 8941 52a9 93b9
00000360: de61 973a 08e5 573a 65c6 05b9 dfd8 713a
00000370: cc23 943a d608 0939 c58a 18bc 7852 05bc
00000380: 086b bb39 b540 e8bb 6b9b 18bc 22e8 1dba
00000390: e24f b33b b44c 683c a43a a8ba f1a3 63bc
000003a0: 3bad 4dc1 80b5 8b39 9645 073b f385 083b
000003b0: ac46 7cb8 1036 c33a 07cf 113b 5059 00b6
000003c0: 74e2 b73b b83a e7bb b7c2 e23a 234a 3b3d
000003d0: 4c39 e641 b8f6 7639 470e 8e3b dc68 6fbb
000003e0: 508f cc3a 40c9 dd3c e1f8 8441 b391 28b9
000003f0: 7514 5a3b ed67 14bc b4dd d03a 00c9 dd3c

exp_avg_sq f4 [128, 6]
0.005458562 496.14523 0.0059034703 0.027098302 2216.6484 0.053501908 0.0027795169 79.22934
0.001695079 0.0010137146 3.1072898 0.00019687245 0.0008784454 64.86482 0.0008125098 0.0007641725
46.883053 0.0005506659 9.13397e-05 0.038215976 0.00033825552 0.022525676 2546.0945 0.06532931
0.017009022 2177.3435 0.015318506 0.10787634 8736.726 0.1696314 0.000107698455 0.00010033361
1.0336227e-05 0.000107482185 0.000100779514 1.2807492e-05 0.003952174 43.004597 0.0039893105 0.097629786
7744.885 0.19387041 0.0011051216 1.1377685 3.193377e-05 0.0010829073 0.0009768216 4.8583828e-05
0.017057823 1921.9813 0.0143977925 0.092960455 7938.081 0.17828886 0.0013607357 0.0018093395
0.00020664051 0.001071355 0.0011523216 9.7122094e-05 0.016355626 1608.4116 0.012133893 0.120203435
8961.769 0.18128921 0.009676205 1016.4043 0.008197968 0.024126215 2155.062 0.0379762
0.018623276 1179.7035 0.027777424 0.036683924 3226.3452 0.06647918 0.014749883 1186.1249
0.020127704 0.007693665 778.8089 0.005013814 0.05119647 3065.6714 0.07955999 0.1265044
10687.276 0.23222476 0.0022269224 179.76491 0.0020719408 0.002521759 146.68501 0.0010382353
0.02584402 1586.1464 0.04060134 0.026236618 1328.1274 0.012818046 0.0032119313 238.67006
0.005073263 0.0026393232 215.17511 0.0013785148 0.03553223 2587.3257 0.04962092 0.1020739
8604.665 0.17599657 0.0035108863 112.04851 0.006173324 0.00015693092 21.388487 0.00022750314
0.0004945732 0.0016941859 5.9453192e-05 0.00051918917 0.0007383109 4.6643065e-05 0.017541196 1145.5234
0.026964337 0.05542404 4773.145 0.10470832 0.016906718 1926.8539 0.015097054 0.10738698
8520.877 0.19208921 0.0019079499 24.094425 0.0021052205 0.0016511125 2.4746137 8.798671e-05
0.025031183 1312.6105 0.03653378 0.051771823 4074.1682 0.082794614 0.0015327747 51.159912
0.0029300041 6.162234e-05 9.591058 0.0001374909 0.002305015 96.17713 0.004349822 0.005859182
575.4085 0.012756799 0.0022867038 0.0020133206 0.00010830534 0.0021714233 0.0020449655 0.00015456147
0.0048702387 70.18071 0.0038082781 0.08267869 6064.286 0.14927037 0.0048339027 468.05627
0.00381449 0.0048828246 356.62064 0.0025336556 0.0011272761 77.74161 0.00145866 0.00048262085
47.098938 0.00034733076 0.0023988665 240.64113 0.0023129468 0.002163697 181.37265 0.0010291947
0.020355845 2707.5303 0.020165766 0.17641579 14530.078 0.3248931 0.029350316 1764.9662
0.04555981 0.07671274 6386.286 0.14003308 0.006795112 564.25024 0.004748279 0.04261891
2752.8967 0.05370752 0.011046912 1155.2853 0.00910678 0.06501493 4998.249 0.10677876
0.0002830038 0.00034826878 4.10837e-05 0.00045554744 0.0006363823 0.00018949917 0.0014615809 0.0013436817
0.00016769425 0.0015990812 0.0013618382 8.778373e-05 0.011321782 834.965 0.013641999 0.021741182
2563.4575 0.017830355 0.000610814 0.0006795037 0.00010339537 0.0007922221 0.00070330873 5.4967084e-05
0.005784609 63.17649 0.0055121523 0.12123997 9125.538 0.22013146 0.0007546309 0.0046807034
0.0004898233 0.031244785 3494.0398 0.08866202 0.020190682 1372.9933 0.030209387 0.054822084
00000000: bddd b23b 9712 f843 e671 c13b 42fd dd3c
00000010: 608a 0a45 d124 5b3d 8e28 363b 6c75 9e42
00000020: 6a2d de3a 9ede 843a d6dd 4640 8c6f 4e39
00000030: 7947 663a caba 8142 9cfe 543a c052 483a
00000040: 3f88 3b42 905a 103a a18d bf38 5b88 1c3d
00000050: e357 b139 c487 b83c 8321 1f45 60cb 853d
00000060: 8156 8b3c 7f15 0845 79fa 7a3c 45ee dc3d
00000070: e782 0846 dbb3 2d3e 2bdc e138 326a d238
00000080: c269 2d37 0f68 e138 9759 d338 c2df 5637
00000090: 3d81 813b b504 2c42 c3b8 823b 20f2 c73d
000000a0: 1407 f245 f785 463e bad9 903a 66a2 913f
000000b0: a0f0 0538 57f0 8d3a b208 803a 7dc6 4b38
000000c0: d9bc 8b3c 673f f044 b8e4 6b3c 0d62 be3d
000000d0: a610 f845 5b91 363e b75a b23a 5c27 ed3a
000000e0: a4ad 5839 b56c 8c3a 7f09 973a 07ae cb38
000000f0: 3cfc 853c 2c0d c944 3ccd 463c 382d f63d
00000100: 1307 0c46 e1a3 393e f288 1e3c e019 7e44
00000110: c550 063c 57a4 c53c feb0 0645 ef8c 1b3d
00000120: d78f 983c 8376 9344 7b8d e33c e241 163d
00000130: 86a5 4945 3c26 883d 7ea9 713c ff43 9444
00000140: dbe2 a43c 241b fc3b c5b3 4244 ec4a a43b
00000150: 64b3 513d be9a 3f45 59f0 a23d 5f8a 013e
00000160: 1bfd 2646 54cc 6d3e 8ff1 113b d1c3 3343
00000170: 66c9 073b 1844 253b 5daf 1243 6515 883a
00000180: d7b6 d33c af44 c644 974d 263d 2dee d63c
00000190: 1404 a644 c802 523c 447f 523b 89ab 6e43
000001a0: 9d3d a63b 7ff8 2c3b d42c 5743 48af b43a
000001b0: 3e8a 113d 36b5 2145 4e3f 4b3d 1f0c d13d
000001c0: a972 0646 7238 343e e616 663b d618 e042
000001d0: 9849 ca3b d38d 2439 9f1b ab41 e98d 6e39
000001e0: 3fa6 013a 720f de3a 615d 7938 321a 083a
000001f0: 358b 413a 9ca2 4338 8eb2 8f3c c030 8f44
00000200: 50e4 dc3c 5104 633d 2929 9545 5171 d63d
00000210: f57f 8a3c 53db f044 a259 773c b4ed db3d
00000220: 8223 0546 09b3 443e 2d14 fa3a 62c1 c041
00000230: bdf7 093b 246a d83a 1260 1e40 8185 b838
00000240: 320e cd3c 8913 a444 72a4 153d b10e 543d
00000250: b1a2 7e45 3990 a93d 62e7 c83a c0a3 4c42
00000260: 5005 403b 3e3b 8138 f974 1941 6f2b 1039
00000270: bc0f 173b b15a c042 f488 8e3b 62fe bf3b
00000280: 25da 0f44 e501 513c 86dc 153b eaf1 033b
00000290: fd21 e338 704e 0e3b d404 063b c711 2239
000002a0: 8696 9f3b 865c 8c42 4e94 793b 7253 a93d
000002b0: 4a82 bd45 55da 183e b765 9e3b 3407 ea43
000002c0: 86fc 793b 1a00 a03b 714f b243 b00b 263b
000002d0: 1cc1 933a b47b 9b42 8230 bf3a 4608 fd39
000002e0: 5065 3c42 f219 b639 4d36 1d3b 21a4 7043
000002f0: cf94 173b d0cc 0d3b 665f 3543 0be6 863a
00000300: 4dc1 a63c 7c38 2945 ad32 a53c 57a6 343e
00000310: 5008 6346 6358 a63e 1370 f03c eb9e dc44
00000320: ec9c 3a3d 921b 9d3d 4a92 c745 d564 0f3e
00000330: 88a9 de3b 0410 0d44 7497 9b3b 2b91 2e3d
00000340: 590e 2c45 6bfc 5b3d 1bfe 343c 2169 9044
00000350: 9b34 153c 8c26 853d fe31 9c45 d3ae da3d
00000360: 2160 9439 d897 b639 4951 2c38 8bd6 ee39
00000370: e5d2 263a 4cb4 4639 8492 bf3a 7a1e b03a
00000380: 15d7 2f39 4398 d13a b57f b23a 8818 b838
00000390: ff7e 393c c3bd 5044 b182 5f3c 901a b23c
000003a0: 5237 2045 f710 923c 091f 203a b920 323a
000003b0: f7d5 d838 20ad 4f3a 405e 383a 758c 6638
000003c0: d18c bd3b bab4 7c42 499f b43b a94c f83d
000003d0: 2796 0e46 246a 613e 6cd2 453a 9660 993b
000003e0: 7c67 003a 10f5 ff3c a360 5a45 6f94 b53d
000003f0: ee66 a53c c99f ab44 ad79 f73c 1f8d 603d

exp_avg f4 [128]
0.001553287 0.0016590413 -0.00015916019 -0.00087872526 -0.0042529437 -0.00022920007 -0.0016496668 -0.0019215189
-0.0014366258 0.0020293987 -0.0016968818 -0.00041801092 -0.00085961877 -4.3534576e-05 -0.0019397723 7.106938e-06
-0.00018356349 -6.5591513e-07 -0.0015331887 0.00010937697 0.00050029997 -0.0013484454 -0.0026288317 -0.00037387313
0.001130648 0.00023853868 -0.0004007264 -0.0027286005 -0.0034523301 -0.0011358289 -2.869102e-06 0.00033141646
-0.0030181485 -0.0012446246 -4.635245e-05 -0.0020603994 0.00020980564 -0.0020425462 0.0026186942 0.0005184097
-0.001834264 -0.0009584883 -0.001172595 -0.0011273515 -0.00042710378 0.00077685644 -0.0007422292 -0.0005612001
-0.0011734789 2.6142774e-05 -7.82139e-06 -0.002302884 -0.0017700646 0.00069595483 -0.001824082 8.068178e-06
-0.0013199642 -0.0010736329 -0.0014147909 -0.0012559062 0.0013520154 -0.0017498913 -0.0015652557 -0.0017236575
0.0004449003 -0.0010332831 -0.0005587542 -0.0027457234 -0.0006194377 -4.7999424e-06 -0.0016589036 -0.00033457763
0.0023146723 1.8954863e-05 7.996195e-05 0.00016246489 -0.00095540937 1.2906803e-05 -0.0013821654 -0.00074122834
-0.0009954263 0.00041227342 -0.0011231957 -0.00067469175 -0.00064864807 -0.0012922572 -0.0020922187 -0.0011945767
-0.0010428816 -0.0013826205 -0.00045064487 -0.0014093386 -0.00080140727 0.0007620089 -0.0012185037 -0.00047902443
-0.0019410674 -0.000851672 0.0005980251 -0.00060155365 -0.0019576722 -0.0007748987 -0.0021155304 0.0018573115
-8.983565e-05 -0.0017989238 0.0010582983 -0.0010860591 -0.0010622693 0.0026785634 0.00032684157 0.0032225046
-7.5324846e-05 0.0012552452 -0.00067096355 0.000100273035 -0.0007904777 -0.0006507715 -0.0016765611 -0.0012769044
4.0105715e-05 -0.00022286826 0.0001478824 0.00090907415 -0.00084934686 0.00051976286 -0.0013752854 3.849956e-05
00000000: aa97 cb3a 3074 d93a 3de4 26b9 415a 66ba
00000010: 475c 8bbb 6d55 70b9 a239 d8ba 7adb fbba
00000020: 2a4d bcba a9ff 043b e869 deba 7a28 dbb9
00000030: 0a58 61ba e598 36b8 f53f feba 2278 ee36
00000040: f37a 40b9 2512 30b5 47f5 c8ba 5061 e538
00000050: 9026 033a 52be b0ba 7a48 2cbb 6704 c4b9
00000060: 4032 943a 3d20 7a39 9618 d2b9 52d2 32bb
00000070: 7d40 62bb 18e0 94ba cc8a 40b6 f7c1 ad39
00000080: 21cc 45bb ac22 a3ba 906a 42b8 c407 07bb
00000090: 46ff 5b39 3ddc 05bb 669e 2b3b e3e5 073a
000000a0: b06b f0ba 1043 7bba c2b1 99ba a4c3 93ba
000000b0: e6ec dfb9 f4a5 4b3a 2992 42ba 801d 13ba
000000c0: 6bcf 99ba 2e4d db37 9d38 03b7 fbeb 16bb
000000d0: 8301 e8ba bd70 363a 0916 efba 905c 0737
000000e0: a602 adba 24b9 8cba 8170 b9ba 389d a4ba
000000f0: 1c36 b13a 9c5c e5ba 4429 cdba 59ec e1ba
00000100: 8241 e939 3a6f 87ba 5c79 12ba 98f1 33bb
00000110: c361 22ba 310f a1b6 916f d9ba 406a afb9
00000120: c2b1 173b 4201 9f37 3fb1 a738 565b 2a39
00000130: 7074 7aba 4c8a 5837 c629 b5ba fe4e 42ba
00000140: f778 82ba 6726 d839 3238 93ba ccdd 30ba
00000150: 090a 2aba f560 a9ba 9b1d 09bb 5893 9cba
00000160: 4db1 88ba 0c39 b5ba 8844 ecb9 8eb9 b8ba
00000170: 8815 52ba 8dc1 473a 33b6 9fba 9225 fbb9
00000180: 6a6b feba be42 5fba c9c4 1c3a 95b1 1dba
00000190: 4a4c 00bb 9222 4bba b6a4 0abb 0871 f33a
000001a0: 2666 bcb8 dec9 ebba 99b6 8a3a 195a 8eba
000001b0: d83b 8bba d68a 2f3b ef5b ab39 a830 533b
000001c0: b8f7 9db8 0a87 a43a 9ae3 2fba ad49 d238
000001d0: 0f38 4fba 8998 2aba 0ec0 dbba cd5d a7ba
000001e0: 2f37 2838 beb1 69b9 e110 1b39 ef4e 6e3a
000001f0: b4a6 5eba b240 083a ec42 b4ba 967a 2138

exp_avg_sq f4 [128]
5.371965e-05 6.222454e-05 4.7184785e-06 4.2278243e-05 0.00024431435 6.29793e-06 0.00011621442 6.0366292e-05
0.00013469036 7.0612565e-05 0.00012643765 6.742478e-05 5.9946808e-05 1.9622985e-05 0.0001972239 3.297501e-06
3.7687278e-05 4.316145e-06 0.00014890214 3.4638683e-06 3.2255077e-05 8.800271e-05 0.00017465912 7.2746996e-05
0.00020303666 3.650699e-06 1.1280896e-05 0.00012650507 0.00014183219 3.3551496e-05 2.153428e-06 5.987106e-06
0.00026409468 0.00012306802 5.771297e-05 0.000116447045 2.1797558e-05 8.425862e-05 8.205583e-05 4.246928e-05
0.00013710857 7.918368e-05 8.910326e-05 0.0001102861 1.2282959e-05 1.3825878e-05 3.1721607e-05 2.4056782e-05
9.3770395e-05 3.0519236e-06 2.2118445e-06 7.119581e-05 0.00015156076 3.5814846e-05 5.3543925e-05 7.796405e-06
0.00010364344 5.4012646e-05 4.2529322e-05 4.4991746e-05 3.490479e-05 0.00018023109 0.00013571537 0.00010215721
4.7218014e-06 9.147732e-05 4.1177762e-05 0.0001363699 1.8034505e-05 5.069771e-06 0.00010624112 1.6529779e-05
0.00010177882 3.867249e-06 3.5140145e-06 6.279058e-06 0.0001415037 2.3653772e-08 0.00013945099 5.227263e-05
8.38833e-05 9.238013e-06 9.2191105e-05 6.517439e-05 3.1185704e-05 0.00011410304 9.645636e-05 0.00011094654
6.0867063e-05 0.00013646447 3.232371e-05 0.00015019288 4.3991284e-05 9.133216e-05 0.000107239815 7.521891e-06
6.7103916e-05 4.8808626e-05 7.077879e-05 3.1939617e-05 0.00014484506 2.3643766e-05 6.2313324e-05 4.17788e-05
5.8502985e-07 0.00017712828 4.157096e-05 5.156525e-05 7.1033246e-05 0.00011539486 1.2418828e-05 0.00036485022
1.0977939e-05 2.804164e-05 9.8534394e-05 1.43846155e-05 5.9030554e-05 5.057891e-05 0.0004081033 9.5064155e-05
2.4708022e-06 4.243029e-05 1.319213e-06 1.15575485e-05 8.564767e-05 3.8409435e-05 3.3245917e-05 2.1513113e-05
00000000: 0951 6138 8c7e 8238 6c53 9e36 eb53 3138
00000010: 5117 8039 cf52 d336 24b8 f338 d031 7d38
00000020: ab3b 0d39 d515 9438 5994 0439 6766 8d38
00000030: 656f 7b38 0a9c a437 e3cd 4e39 a34a 5d36
00000040: 6812 1e38 67d3 9036 9d22 1c39 ce74 6836
00000050: a049 0738 188e b838 b324 3739 bf8f 9838
00000060: 3de6 5439 88fe 7436 1443 3d37 72a6 0439
00000070: cab8 1439 a5b9 0c38 9d83 1036 d9e4 c836
00000080: 3076 8a39 d20b 0139 d410 7238 0835 f438
00000090: e6d9 b637 01b4 b038 6315 ac38 0b21 3238
000000a0: cdc4 0f39 6a0f a638 f3dc ba38 6649 e738
000000b0: e812 4e37 b2f5 6737 d10c 0538 8ccd c937
000000c0: 99a6 c438 a6cf 4c36 336f 1436 f64e 9538
000000d0: 48ec 1e39 e637 1638 5a94 6038 4ecd 0237
000000e0: 265b d938 a38b 6238 8361 3238 85b5 3c38
000000f0: bc66 1238 6afc 3c39 d14e 0e39 3c3d d638
00000100: f76f 9e36 83d7 bf38 49b6 2c38 84fe 0e39
00000110: ce48 9737 001d aa36 c4cd de38 6ea9 8a37
00000120: 1772 d538 6ac3 8136 4fd2 6b36 b3b0 d236
00000130: 9c60 1439 322f cb32 9739 1239 4f3f 5b38
00000140: 81ea af38 f7fc 1a37 b956 c138 3cae 8838
00000150: 65cd 0238 9a4a ef38 9d48 ca38 f8ab e838
00000160: 834b 7f38 e717 0f39 5293 0738 187d 1d39
00000170: 4883 3838 9489 bf38 f0e5 e038 8d64 fc36
00000180: 24ba 8c38 ddb7 4c38 136f 9438 e7f6 0538
00000190: 8de1 1739 9a56 c637 36ae 8238 a53b 2f38
000001a0: f20a 1d35 83bb 3939 7a5c 2e38 c447 5838
000001b0: aff7 9438 2500 f238 765a 5037 5e49 bf39
000001c0: e42d 3837 f73a eb37 40a4 ce38 7455 7137
000001d0: 9397 7738 b124 5438 b3f6 d539 2e5d c738
000001e0: 0fd0 2536 2df7 3138 d00f b135 4be7 4137
000001f0: be9d b338 d119 2138 8871 0b38 0f77 b437
