MachineLearning/results/Test7/MoveTOGoal/checkpoint.pt (torch, 441378 bytes, 36 tensors)

network_body._body_endoder.seq_layers.0.weight f4 [128, 6]
0	0x3c63d058	0.0139046535
1	0x3f38bfb0	0.7216749
2	0x3f017c7c	0.50580573
3	0xbd13722c	-0.035997555
4	0x3f0e92c1	0.5569268
5	0xbf63e4e1	-0.89021116
6	0xbf206196	-0.62648904
7	0xbea0487b	-0.31305298
8	0x3eb76aa2	0.35823542
9	0xbeb5bfe6	-0.3549797
10	0x3f3e1c5b	0.74262017
11	0x3dc8b970	0.098009944
12	0x3e59c69c	0.2126717
13	0xbd67edc8	-0.05662325
14	0xbe66aa0d	-0.22525807
15	0x3d49f20c	0.0493031
16	0x3f0b01f9	0.54299885
17	0xbec861ed	-0.3913721
18	0x3e77d5ff	0.24202727
19	0x3e48b211	0.19599177
20	0x3e503723	0.20333533
21	0x3e4bb637	0.19893728
22	0xbcfdce29	-0.030982094
23	0xbf3f7f2b	-0.7480342
24	0x3db6383b	0.08897444
25	0x3e2e5ba8	0.17027152
26	0x3e49f655	0.19722874
27	0xbd337c01	-0.04381943
28	0xbf03ba42	-0.5145608
29	0xbcd81aed	-0.026380027
30	0xbee0a7dd	-0.4387807
31	0x3e6717da	0.22567692
32	0xbe785a0b	-0.24253099
33	0xbea92c07	-0.33041403
34	0x3cb3bc49	0.021940367
35	0x3e0cc62d	0.13747473
36	0x3dccef7a	0.10006614
37	0x3ed18e09	0.40928677
38	0x3ed5207b	0.41626343
39	0xbdd291eb	-0.10281738
40	0xbdd764ae	-0.1051725
41	0x3f083b0a	0.53215086
42	0x3f60afb9	0.8776813
43	0xbfa1d90b	-1.2644361
44	0xbef193a3	-0.4718295
45	0x3ec9fe9c	0.39452064
46	0xbd67b4de	-0.056568973
47	0x3d0f91c9	0.03505114
48	0xbf10ddd3	-0.56588477
49	0xbfa80b87	-1.3128518
50	0xbf15855c	-0.58406615
51	0x3e898b16	0.26863927
52	0xbf9b1638	-1.2116156
53	0xbf325465	-0.69660026
54	0x3dedcb59	0.11611051
55	0xbf8022d3	-1.0010628
56	0x3deb0eae	0.11477409
57	0xbf0f0935	-0.55873424
58	0xbe449d94	-0.19200736
59	0x3db46ce1	0.088098295
60	0xbc1e47c4	-0.009660665
61	0x3e65b7b1	0.22433354
62	0xbf07d196	-0.5305418
63	0xbea0a04d	-0.313723
64	0x3e479f92	0.19494465
65	0xbe9e06f3	-0.30864677
66	0xbee1ee79	-0.44127253
67	0xbdd338f4	-0.10313597
68	0x3d68720c	0.05674939
69	0xbe962c3b	-0.2933062
70	0x3e9a9aa2	0.301961
71	0xbdad5578	-0.084635675
72	0x3e3ac288	0.1823827
73	0xbe88da41	-0.26729015
74	0xbe3d9196	-0.18512568
75	0xbf59370f	-0.8484964
76	0x3da07210	0.07834256
77	0xbe251e37	-0.16124807
78	0xbd758606	-0.059942268
79	0x3f293cf2	0.6610862
80	0xbf4f4761	-0.8096829
81	0xbf2e1be8	-0.6801133
82	0xbec75e68	-0.38939214
83	0xbe7f57f8	-0.24935901
84	0xbef38e5c	-0.4756955
85	0x3eb557b3	0.35418472
86	0x3e4babb3	0.19889717
87	0xbe23a740	-0.1598177
88	0x3f11e5fd	0.5699156
89	0xbdc328f2	-0.09529294
90	0x3f2145af	0.62996954
91	0xbf09f788	-0.5389333
92	0xbe488758	-0.1958288
93	0xbdf779ef	-0.12083804
94	0xbe9f32b4	-0.3109337
95	0x3ecaa73b	0.39580712
96	0x3e83c998	0.2573974
97	0xbe012ed1	-0.12615515
98	0xbf548f36	-0.8303102
99	0x3f39994d	0.72499543
100	0x3eed8480	0.46390152
101	0x3eaf308f	0.34216735
102	0xbee6b4dd	-0.45059863
103	0xbe46117d	-0.19342609
104	0x3ca237dc	0.019802026
105	0xbe5b5d65	-0.21422346
106	0x3e94575f	0.2897291
107	0xbf27294c	-0.6529739
108	0x3e2c5c2d	0.16832037
109	0x3f03104a	0.5119673
110	0xbf22641f	-0.6343402
111	0xbf16562e	-0.5872525
112	0x3e08d9eb	0.13364379
113	0x3f011357	0.50420135
114	0x3e1f0698	0.15529859
115	0x3eaa4238	0.33253646
116	0x3f6ebbc8	0.9325528
117	0x3f0dfb69	0.55461746
118	0x3f1d33c1	0.61407095
119	0x3a21e601	0.0006175936
120	0xbe25fe2a	-0.16210237
121	0xbd97effe	-0.07418822
122	0xbd097157	-0.033555355
123	0x3e132f21	0.14373447
124	0x3e56d53d	0.20979781
125	0x3e9e2591	0.30888036
126	0xbed1c6cb	-0.4097198
127	0x3f28fcbe	0.66010654
128	0xbefc389f	-0.49261948
129	0x3e035516	0.12825426
130	0x3eac9021	0.33703712
131	0x3e4284fb	0.1899604
132	0xbf3a76d6	-0.7283758
133	0x3caf1c35	0.021375755
134	0x3d42cdac	0.047559425
135	0x3e16dac3	0.14731888
136	0x3cc67bc8	0.024228945
137	0x3f15601f	0.58349794
138	0xbeb1e3a1	-0.3474398
139	0x3de4ccfe	0.11171912
140	0xbf191f85	-0.5981372
141	0xbeadb2e2	-0.3392554
142	0x3e1bb0e0	0.15204191
143	0x3e458524	0.1928907
144	0x3c2bff34	0.010497857
145	0xbee07ba2	-0.43844324
146	0x3f2bcf5e	0.6711329
147	0x3f82ce07	1.0219125
148	0xbec6e5cc	-0.38847196
149	0x3e7f21b4	0.249152
150	0x3f18037d	0.5938032
151	0xbde55f07	-0.11199766
152	0x3e3353cf	0.17512439
153	0x3e44aa3c	0.19205564
154	0xbee6046c	-0.4492525
155	0xbc33aa8a	-0.010965953
156	0x3e7dd804	0.24789435
157	0x3efa2489	0.48856
158	0xbf40ef2d	-0.75364953
159	0x3dcfa8d1	0.10139621
160	0xbf4ac46c	-0.79205966
161	0x3e423cc2	0.1896849
162	0xbf03eb05	-0.51530486
163	0x3c89bb76	0.016813021
164	0xbe22c31c	-0.15894741
165	0xbf15eb2a	-0.58561957
166	0x3d720ab0	0.059092224
167	0xbc07f9c3	-0.008299294
168	0xbec87206	-0.39149493
169	0xbd874d32	-0.06606521
170	0xbe0f6baa	-0.14005914
171	0x3f4b26b0	0.7935591
172	0xbe6279c7	-0.22116767
173	0x3f10ce26	0.5656456
174	0xbf078245	-0.5293315
175	0x3f787cbe	0.9706534
176	0x3e9b6ace	0.30354923
177	0x3f1add57	0.6049399
178	0x3d3b5ace	0.045740895
179	0xbf0e52a3	-0.55594844
180	0xbf8a16f4	-1.0788255
181	0xbef648ec	-0.4810251
182	0x3e963cc4	0.29343235
183	0x3d2ad9e9	0.04171172
184	0xbea33058	-0.3187282
185	0xbe7888ac	-0.24270886
186	0xbb8d1339	-0.00430527
187	0x3e29dd9a	0.1658844
188	0xbe7405bd	-0.23830314
189	0x3f596729	0.84923035
190	0x3f8464ab	1.0343221
191	0x3da8b58f	0.082377546
192	0xbf595bb3	-0.84905547
193	0x3ebdd86c	0.3707918
194	0xbf08f043	-0.5349161
195	0x3ea513e7	0.32241747
196	0x3e8fbd71	0.2807422
197	0x3e678c97	0.22612225
198	0xbf28974a	-0.6585585
199	0x3edfa7d5	0.43682733
200	0x3ed71fe1	0.4201651
201	0xbe69a228	-0.22815764
202	0xbe6a361a	-0.228722
203	0x3ddc0540	0.10743189
204	0x3d6dd32c	0.058062717
205	0x3ca0c9b8	0.019627437
206	0xbe2c5d95	-0.16832574
207	0x3d809ad8	0.06279534
208	0x3d3c6ea7	0.046003964
209	0x3f452424	0.7700827
210	0xbecfd556	-0.4059245
211	0xbedbf1b3	-0.4295784
212	0xbeae7cc3	-0.3407956
213	0x3e04b711	0.1296046
214	0x3e1cf950	0.1532948
215	0xbf043a13	-0.51651114
216	0x3c2422f9	0.010018104
217	0x3da7a05f	0.08184885
218	0x3f124169	0.5713106
219	0x3f018014	0.50586057
220	0xbdcd4be9	-0.10024244
221	0xbdec1f71	-0.115294345
222	0x3e05c416	0.13063082
223	0xbe0908a9	-0.1338221
224	0xbe93a140	-0.2883396
225	0xbf23577d	-0.6380537
226	0xbf060ef6	-0.5236658
227	0xbea4e1ee	-0.3220362
228	0x3de211da	0.11038561
229	0xbe80e253	-0.25172672
230	0x3eea7ba8	0.45797467
231	0xbd181dd0	-0.037137806
232	0xbe51630c	-0.2044794
233	0x3f45c520	0.77253914
234	0xbdd0deab	-0.101987205
235	0xbdb396d9	-0.08769006
236	0xbf4aabc7	-0.7916836
237	0x3da7590d	0.08171282
238	0x3e95b3a3	0.29238614
239	0x3dcb89d8	0.09938401
240	0x3e4602ad	0.19336958
241	0x3edb1505	0.42789474
242	0xbd818ae4	-0.063253194
243	0x3dd1db27	0.10246878
244	0xbeb42d33	-0.35190734
245	0x3e451951	0.19247939
246	0x3ca27e97	0.019835753
247	0xba9e0ce5	-0.0012058286
248	0x3ddc6f63	0.10763433
249	0x3d68305a	0.056686737
250	0x3dbc9295	0.09207646
251	0x3e1f00e1	0.15527679
252	0x3db68946	0.089129016
253	0x3f106b3f	0.56413645
254	0x3e34f8b9	0.17673005
255	0xbdfa9a04	-0.122364074

network_body._body_endoder.seq_layers.0.bias f4 [128]
0	0x3c2df0f7	0.0106165325
1	0xbbfd6d2a	-0.0077339606
2	0x3c063afd	0.008192775
3	0xb9df5d17	-0.00042603232
4	0xbb8f18d6	-0.0043669743
5	0xbc029632	-0.00797038
6	0x3a91975b	0.001110773
7	0xbc8fdde9	-0.01756187
8	0x3baa74f9	0.0052019325
9	0x3bdc8f24	0.006730931
10	0x3c550587	0.013001806
11	0xbc0a57a8	-0.00844375
12	0x3bf727ce	0.007542587
13	0xbc940bd1	-0.01807204
14	0xbc3011e3	-0.010746452
15	0xbb00292c	-0.001955579
16	0xbc30f9b3	-0.01080172
17	0x3b24d182	0.002514929
18	0xba25cf2d	-0.0006325122
19	0x3c403822	0.011732133
20	0x3c8e822f	0.01739606
21	0x3c143775	0.009046425
22	0x3d762f06	0.06010344
23	0xbbbb4853	-0.005715409
24	0x3bdac137	0.006675865
25	0xbaa7c879	-0.0012800834
26	0x3d7a0d17	0.06104764
27	0xbc26cbde	-0.010180442
28	0x3d6b4e3d	0.05744766
29	0xba5bf1ff	-0.0008390247
30	0x3b2ee798	0.0026688334
31	0x3d7fd030	0.062454402
32	0x3c69bb12	0.014265792
33	0xba4a8bbe	-0.00077265117
34	0x3d7bb5a3	0.06145252
35	0x3ba78854	0.005112687
36	0xbb464f78	-0.003025977
37	0xbc55a908	-0.0130407885
38	0x3c0a0fa6	0.008426582
39	0x3d91e8aa	0.07124455
40	0xbca4ccc4	-0.020117171
41	0x3b0aaa7a	0.002115874
42	0x3c5c7343	0.013455215
43	0x3c278edb	0.0102269305
44	0x3c878487	0.016542686
45	0xbd1d9d1e	-0.038479917
46	0x3a8ad855	0.0010593036
47	0xba8e5a0f	-0.001086058
48	0xbc83778f	-0.01604822
49	0x3b5363c6	0.0032255515
50	0x3d16baf9	0.036799405
51	0x39e8a181	0.00044370818
52	0xbb2250f4	-0.002476749
53	0x3adc1f95	0.001679408
54	0x3c9942d6	0.018708628
55	0xbbf0b877	-0.0073462087
56	0xbc24d0b2	-0.010059522
57	0x3bf355b5	0.0074259886
58	0xbc97055d	-0.018435175
59	0xbaff3954	-0.0019472041
60	0x3d3ac1c1	0.045594934
61	0xbc084e1c	-0.008319404
62	0x3c301384	0.01074684
63	0x3ad732aa	0.0016418297
64	0xbbac99bc	-0.00526735
65	0x3c35e4ae	0.011101885
66	0xbbf57ea8	-0.0074919052
67	0x3b0ede5e	0.0021800022
68	0x3c9c92d5	0.019112984
69	0x3d507ca9	0.050900135
70	0xb994bcf5	-0.00028369544
71	0xbc11d2a5	-0.008900319
72	0x3a87e980	0.0010369271
73	0x3acf42df	0.0015812776
74	0xbb9e9aa8	-0.004840214
75	0x3b48927e	0.0030604894
76	0xbba85f8f	-0.0051383446
77	0x3c9fbd84	0.019499548
78	0xba75d030	-0.00093770307
79	0x3c34bfab	0.011032025
80	0x3b6a1736	0.0035719401
81	0xbc22da79	-0.009939783
82	0x3d4a8ef5	0.04945274
83	0xbba59980	-0.005053699
84	0xbc454d9e	-0.012042431
85	0xbc305536	-0.010762503
86	0xbab24af0	-0.0013602655
87	0xbb979482	-0.004625858
88	0x3c03dd50	0.0080483705
89	0x3bdc7187	0.0067274007
90	0x3babb387	0.005239907
91	0xbc0f20d9	-0.008735859
92	0xbb369300	-0.0027858615
93	0xbc04f010	-0.008113876
94	0x3cd3efb6	0.025871139
95	0xbc6deb9c	-0.014521506
96	0xbb5a6dc2	-0.003332958
97	0x3c0998f5	0.008398284
98	0x3b40576a	0.0029348978
99	0x3bed7497	0.0072465646
100	0x3c170aea	0.009218911
101	0x3d1a957b	0.037740212
102	0x3baaca4f	0.0052121053
103	0x3d2ca8fa	0.042153336
104	0xbacb0267	-0.0015488387
105	0xbb2b6abd	-0.002615615
106	0x3a393903	0.00070656853
107	0xbb8caa5f	-0.0042927708
108	0x3cbf8417	0.023378415
109	0xbbb5450c	-0.0055319127
110	0xbbf7e6b5	-0.007565344
111	0x3b30b219	0.0026961623
112	0x3b70acf6	0.0036724187
113	0x3b5febea	0.0034167715
114	0x3d3e7187	0.046494987
115	0xbbcd973e	-0.006274133
116	0xbb3b4466	-0.0028574704
117	0x3b3ceefe	0.0028828974
118	0x3ca8da97	0.020612044
119	0xbb9465c6	-0.004528734
120	0x3c52556b	0.012837748
121	0x39e1e6e7	0.0004308738
122	0x3aa1123d	0.0012288761
123	0x3bb12d99	0.005407047
124	0x3b54c633	0.0032466769
125	0x3bb63f61	0.0055617546
126	0x3ac58f2a	0.0015072573
127	0xbbdad64f	-0.0066783796

network_body._body_endoder.seq_layers.2.weight f4 [128, 128]
0	0xbc6e1d99	-0.014533424
1	0x3cfdbc6a	0.030973632
2	0xbd69fe78	-0.057127446
3	0xbd27095d	-0.040780414
4	0x3dcf1ae7	0.10112553
5	0xbd352156	-0.044221245
6	0xbda2ab7f	-0.079428665
7	0x3da3655f	0.079783194
8	0xbc991a51	-0.018689306
9	0x3e0e6023	0.13903861
10	0xbcc04bb7	-0.023473604
11	0x3cbda351	0.023149164
12	0x3ca1c3f8	0.019746765
13	0x3cfca56a	0.030840594
14	0x3d810591	0.0629989
15	0x3cc6f70c	0.024287723
16	0xbbb2e3d9	-0.0054592905
17	0x3cef767d	0.029231304
18	0x3d09e911	0.033669535
19	0x3dc34126	0.095339105
20	0x3e34b2a5	0.17646272
21	0x3d5274a6	0.051380776
22	0x39adc036	0.0003314034
23	0x3d207b62	0.039180167
24	0xb9cbe3e4	-0.0003888897
25	0x3e24325c	0.16034836
26	0xbe2245d1	-0.15846945
27	0x3cc4488e	0.023960378
28	0x3b03809e	0.0020065675
29	0xbdf776ec	-0.120832294
30	0x3e166319	0.1468624
31	0x3c8a2421	0.01686293
32	0x3dfd7048	0.123749316
33	0xbd446ebd	-0.04795717
34	0x3e0d4336	0.1379517
35	0xbc2bac03	-0.0104780225
36	0x3dc0df25	0.094175614
37	0xbdbc3fb4	-0.09191838
38	0x3e589ebf	0.21154307
39	0xbdcd7278	-0.10031599
40	0x3d8c0919	0.06837673
41	0x3c67e728	0.014154233
42	0xbde55987	-0.111987166
43	0x3d970577	0.07374089
44	0x3c2e13f0	0.010624871
45	0xbca3357f	-0.01992297
46	0xbd8505a6	-0.06495218
47	0x3c83bd86	0.016081583
48	0x3d47f7ad	0.048820186
49	0xbde83b13	-0.113393925
50	0x3e10748a	0.14106956
51	0x3dbd185c	0.09233162
52	0xbd208e99	-0.03919849
53	0xbdc6ba7e	-0.09703539
54	0xbd918414	-0.0710527
55	0x3ddc5f3e	0.107603535
56	0x3dfa076d	0.122084476
57	0xbd3d407e	-0.046204083
58	0x3d98cddd	0.0746114
59	0x3dafa2df	0.08575987
60	0xbd2674ad	-0.040638614
61	0x3be4993e	0.0069762757
62	0x3cb113cb	0.021615883
63	0x3df63af3	0.120229624
64	0x3de75202	0.112949386
65	0xbd48f2f0	-0.04905981
66	0xbd35eda5	-0.04441609
67	0x3c6ba056	0.014381489
68	0x3cb3258e	0.021868493
69	0x3c4e7c5b	0.012602891
70	0xbd008ad1	-0.031382386
71	0xbc2675b4	-0.010159899
72	0xbd5cb6cd	-0.05388527
73	0x3ccc825e	0.024964508
74	0x3e0d6537	0.13808142
75	0x3d17983e	0.037010424
76	0x3d00cc9e	0.03144514
77	0x3d145396	0.036212526
78	0xbcdc262b	-0.026873669
79	0xbd9ba0e7	-0.07599049
80	0xbd17a8ff	-0.0370264
81	0x3c3b077c	0.011415359
82	0x3dfd22b7	0.12360137
83	0xbbbf7bc1	-0.00584361
84	0xbc1e18e1	-0.009649486
85	0x3da398e4	0.07988146
86	0xbcd37ebb	-0.025817266
87	0xbad731c2	-0.0016418027
88	0x3d43489a	0.04767666
89	0x3d93a1e8	0.072086155
90	0x3d83b207	0.064304404
91	0x3ea32041	0.31860545
92	0x3de41908	0.11137587
93	0x3c9ab41c	0.018884711
94	0x3d31c6ee	0.043402605
95	0xbd2b7acb	-0.04186515
96	0x3db74dcd	0.08950386
97	0x3d256fe4	0.04038991
98	0xbd2f7025	-0.04283156
99	0xbda2d6b8	-0.079511106
100	0x3d909697	0.07059973
101	0xbdc70df9	-0.09719462
102	0xbc2c4018	-0.010513328
103	0xbdb92a5c	-0.090412825
104	0x3db139ee	0.08653627
105	0x3e0fa9e6	0.14029655
106	0x3d8e24d6	0.0694062
107	0xbd5a6383	-0.053317558
108	0xbd2d894e	-0.042367272
109	0xbda6736f	-0.08127486
110	0xbe56c3f8	-0.20973194
111	0xbcafabb0	-0.021444172
112	0xbc770793	-0.015077489
113	0xbd27d347	-0.040972974
114	0xbd63ef35	-0.055648047
115	0xbd89d228	-0.06729537
116	0x3e4cf9aa	0.20017114
117	0x3e216403	0.15760808
118	0xbdae37c3	-0.085067295
119	0x3c6f255e	0.014596311
120	0x3be49dcf	0.00697682
121	0xbd83bbbe	-0.06432293
122	0x3c971329	0.018441753
123	0x3c5e4c0b	0.013567935
124	0x3cc197a3	0.023631876
125	0x3ce12c32	0.027486894
126	0x3c03e86b	0.008051018
127	0xbdb0522e	-0.086094245
128	0xbe486c82	-0.19572642
129	0xbb87ecd1	-0.0041481038
130	0xbdf0ff4f	-0.11767446
131	0x3db7fdca	0.08983953
132	0xbd8adc79	-0.06780333
133	0xbdd583a1	-0.10425497
134	0xbe017537	-0.1264237
135	0x3c3461eb	0.011009674
136	0xbca5850c	-0.020205043
137	0x3dd4a6a3	0.10383346
138	0xbd38355c	-0.044972762
139	0x3d8c335a	0.06845732
140	0x3de1ee82	0.1103182
141	0x3d040917	0.03223523
142	0x3bea3c45	0.007148298
143	0x3e2dfe8f	0.16991638
144	0x3ddd3d1c	0.10802671
145	0x3ddb87c7	0.10719257
146	0x3d15a0de	0.036530368
147	0x3dd5a6ec	0.104322284
148	0xbd504ac4	-0.050852552
149	0xbd0d0bcf	-0.03443509
150	0xbd58c1a5	-0.05291905
151	0xbdef7e94	-0.11694065
152	0xbd2369cf	-0.03989583
153	0xbd4f15fa	-0.050558068
154	0x3d3b19cd	0.045678902
155	0x3d76b148	0.060227662
156	0xbda342b6	-0.079717085
157	0xbd163dad	-0.036679912
158	0x3ca23a1b	0.019803097
159	0xbd5bfd0b	-0.053708117
160	0x3b8dcabb	0.004327146
161	0xbddaffc0	-0.10693312
162	0xbdf2addd	-0.11849568
163	0xbe052a16	-0.13004336
164	0x3cfd3915	0.030911008
165	0x3cae51a4	0.021279164
166	0xbba6b69d	-0.005087687
167	0xbc23e400	-0.01000309
168	0xbe093b93	-0.13401632
169	0x3db8c21f	0.09021401
170	0xbc1fd0a3	-0.009754333
171	0x3e238e9a	0.15972367
172	0xbbfffe0f	-0.0078122686
173	0xbcad36f3	-0.021144366
174	0x3d9c26fc	0.07624623
175	0xbd9aceb1	-0.075589545
176	0xbca8045a	-0.020509887
177	0xbde3625d	-0.11102746
178	0x3b994ea0	0.0046785623
179	0x3df8f076	0.12155239
180	0xbd1aeca1	-0.037823323
181	0x3b97d809	0.0046339077
182	0x3d4d2baa	0.05009047
183	0x3ca25ddb	0.019820144
184	0x3db2fa3d	0.087391354
185	0x3d8a0846	0.06739859
186	0xbdb2709b	-0.08712884
187	0xbca61953	-0.020275747
188	0xbdc8b7cc	-0.098006815
189	0xbd058fad	-0.032607723
190	0x3ce7eb0c	0.028310321
191	0xbd6c5904	-0.05770208
192	0xbe51e67f	-0.20498084
193	0x3d192708	0.03739074
194	0xbde6e42c	-0.11273989
195	0xbd881305	-0.06644253
196	0xbda41142	-0.08011104
197	0x3ab29eaa	0.0013627608
198	0xbc180781	-0.009279133
199	0xbc75ca30	-0.015001819
200	0x3dc2e280	0.09515858
201	0xbb615501	-0.0034382942
202	0x3dbc57d9	0.09196443
203	0x3d5778ad	0.05260532
204	0xbd56d730	-0.052451313
205	0xbdb993e5	-0.09061412
206	0x3dbb114d	0.09134159
207	0x3cf947ef	0.030429808
208	0x3d21c848	0.039497644
209	0xbdbf55e9	-0.09342558
210	0x3c2b125c	0.010441389
211	0xbc7c0b5d	-0.015383569
212	0x3d5d3318	0.054003805
213	0xbdd2c630	-0.102917075
214	0xbc9d4546	-0.019198071
215	0xbe36906e	-0.17828533
216	0xbd12dc7a	-0.035854794
217	0x3d0b93bb	0.034076434
218	0xbd6a87fd	-0.057258595
219	0x3d46ea17	0.04856309
220	0x3cd4d2d0	0.02597943
221	0xbdea4f8f	-0.11440956
222	0x3dc256ac	0.094891876
223	0xbd5786bc	-0.052618727
224	0x3d4e0b8f	0.050303992
225	0x3e0a015e	0.13477084
226	0xbc49fb78	-0.012328021
227	0x3b70345c	0.0036652302
228	0xbcdc9ac4	-0.026929267
229	0xbcd5da9c	-0.026105218
230	0x3d1bc869	0.038032923
231	0x3e0400d4	0.12890941
232	0x3b2118e4	0.0024581486
233	0x3e68fe34	0.22753221
234	0xbdedea9d	-0.116170146
235	0xbc395ff9	-0.011314386
236	0x3d2ca260	0.04214704
237	0xbdb0bc31	-0.08629645
238	0xbd94f753	-0.07273736
239	0x3de84ef6	0.113431856
240	0x3e1c6912	0.15274456
241	0x3c952b04	0.018208988
242	0xbd559469	-0.052143488
243	0xbdc3086d	-0.095230915
244	0x3e0c6b04	0.13712698
245	0xbdbe508c	-0.09292707
246	0xbccba54a	-0.02485909
247	0x3de20dd1	0.110377915
248	0x3d28f584	0.041249767
249	0x3ce99b74	0.028516509
250	0x3ddb8795	0.107192196
251	0x3cb7cd2e	0.022436704
252	0x3dbc1d35	0.09185258
253	0x3d477902	0.048699386
254	0xbda3e85c	-0.080033034
255	0x3d896df2	0.067104235

network_body._body_endoder.seq_layers.2.bias f4 [128]
0	0xbc5d56a5	-0.013509427
1	0x3bcebbd6	0.006309013
2	0x3c83c8a5	0.016086886
3	0x3c03cd0f	0.008044495
4	0xbc0f07f9	-0.008729928
5	0x3bfc8613	0.0077064126
6	0xbb53365a	-0.003222844
7	0xbc096b95	-0.008387466
8	0x398b5dfc	0.0002658217
9	0xbc2ba3ae	-0.010476036
10	0xbc12b2e8	-0.008953787
11	0x3b9f326c	0.0048583057
12	0xbba8f90b	-0.0051566414
13	0x3b7f26d2	0.003893305
14	0xbba33a8f	-0.004981346
15	0x3c4e5202	0.012592794
16	0xbb5a4f3e	-0.0033311392
17	0xbba32cf4	-0.004979724
18	0xbaa2df85	-0.0012426233
19	0x3c1b2671	0.009469614
20	0xbc2c7865	-0.010526751
21	0xbbc521f5	-0.006016011
22	0x3c0420cf	0.008064463
23	0x3c3b54ed	0.011433822
24	0x3c9acdb7	0.01889692
25	0x3ce8e009	0.02842714
26	0x3c40ab92	0.011759656
27	0x3c42af39	0.011882597
28	0xbc841aef	-0.016126124
29	0xbc55135d	-0.013005105
30	0xbc0e1384	-0.008671645
31	0x3c386090	0.011253491
32	0x3cde374d	0.027125979
33	0xbb485598	-0.0030568596
34	0x3c46719f	0.01211205
35	0x3c3096b6	0.01077812
36	0xbc23dc03	-0.010001185
37	0x3b9215cc	0.004458165
38	0x3c028f8c	0.007968795
39	0xbbccd7cb	-0.0062513105
40	0xbb7c79d8	-0.0038524773
41	0xbb2172af	-0.0024635007
42	0x3c31af75	0.010845055
43	0xbbbc09b9	-0.0057384637
44	0xbc3c8818	-0.011507057
45	0x3ad535f9	0.0016266695
46	0xbba67e03	-0.0050809397
47	0xb7a28b2d	-1.9376714e-05
48	0x3c2e0120	0.010620385
49	0x3c6349fe	0.013872622
50	0x3b882092	0.0041542733
51	0x3b6e3126	0.0036345213
52	0xbc20cb19	-0.009814047
53	0xbbc5339e	-0.006018116
54	0x3c183d76	0.009291997
55	0xbbcf412d	-0.006324908
56	0x3b1e47b5	0.0024151627
57	0x3cd9e6e3	0.026599353
58	0x3b587796	0.0033030263
59	0x3c0d59ca	0.008627364
60	0x3c41988f	0.011816158
61	0xbc3183f8	-0.010834686
62	0xbc15380e	-0.009107603
63	0x3c724b41	0.01478845
64	0xb9aa40d6	-0.00032473233
65	0x3c3ab24a	0.0113950465
66	0x3b0de4ed	0.0021651343
67	0xbbc2c9b6	-0.005944456
68	0xbc3df4cd	-0.01159401
69	0x3a0d7668	0.0005396367
70	0xb9a25e80	-0.00030969456
71	0x3cc90930	0.024540514
72	0x3c192dab	0.009349267
73	0x3c3bce6c	0.011462789
74	0xbc481e2f	-0.012214228
75	0xba1d308c	-0.0005996309
76	0xbb805456	-0.0039163036
77	0x3c178708	0.009248503
78	0x3b9b7823	0.004744546
79	0x3cc47df9	0.02398585
80	0xbc1f2b53	-0.009714919
81	0xbbc04833	-0.005867982
82	0xbbbbeab1	-0.0057347645
83	0xbacfe7c2	-0.0015861916
84	0xbc6279e3	-0.013823005
85	0x3cb7d28f	0.02243927
86	0xbbb1f66a	-0.005430986
87	0x3ca6f4af	0.020380346
88	0xbbe0d3bf	-0.0068611796
89	0xbc07c137	-0.008285812
90	0xba176bac	-0.0005776237
91	0x3c16fa38	0.00921493
92	0xbab24f6e	-0.0013603994
93	0x3c0c13cf	0.008549645
94	0xbc42db37	-0.011893085
95	0x3c1a65c0	0.009423673
96	0x3c5423bc	0.012947973
97	0xba8115c1	-0.0009848402
98	0x3c981f13	0.018569505
99	0xba3be537	-0.00071676396
100	0x3c312b62	0.010813566
101	0xbb57508c	-0.0032854406
102	0xbc5d8c61	-0.0135222385
103	0x3c92f802	0.017940525
104	0x39b0612f	0.00033641743
105	0x3cedf663	0.02904815
106	0x3c673214	0.014111061
107	0x3c46497d	0.012102482
108	0xbbdf58b1	-0.0068159928
109	0xbc005848	-0.007833548
110	0xbc89121f	-0.016732274
111	0xbc403309	-0.011730918
112	0xbc8c12d9	-0.017098831
113	0xbbe06f0a	-0.0068491744
114	0xbb4e96d7	-0.0031523013
115	0xbb8403a0	-0.0040287524
116	0x3b992d41	0.004674584
117	0xbb0faabe	-0.0021921839
118	0x3c68c814	0.014207859
119	0xbb613ad5	-0.0034367342
120	0xbb8d191b	-0.0043059713
121	0x3cd0ef5b	0.025504759
122	0xbc02ecd6	-0.007991036
123	0xbc0d1e0c	-0.008613121
124	0xbb7dd206	-0.003872992
125	0xbc224e69	-0.00990639
126	0xbc4a1505	-0.012334113
127	0x3c33c85d	0.010973063

action_model._continuous_distribution.log_sigma f4 [1, 2]
0	0x3b001e67	0.0019549371
1	0xbcbf9c7b	-0.023390045

action_model._continuous_distribution.mu.weight f4 [2, 128]
0	0x3b6d1500	0.0036175847
1	0xb9fe69b7	-0.0004852542
2	0x3d32649b	0.043552976
3	0x3ce357d1	0.027751835
4	0x3c0150b6	0.007892778
5	0xbbe6d889	-0.007044856
6	0x3cc63bd7	0.024198456
7	0xb98a4e72	-0.00026379857
8	0x3d188fec	0.03724663
9	0xb93dc0ce	-0.0001809627
10	0x3cdce511	0.026964696
11	0xbc47fefc	-0.012206789
12	0x3c813597	0.015772624
13	0x3aa8d5f7	0.0012881149
14	0x3c37ed63	0.011226031
15	0xbcd13205	-0.025536546
16	0x3c9933ee	0.01870152
17	0x3b051c31	0.0020310993
18	0x3c11e8b3	0.0089055775
19	0x3c9dda95	0.019269267
20	0xbac87de3	-0.0015296306
21	0x3c28e4c1	0.010308445
22	0xbc4821f9	-0.012215131
23	0xbc2d33a2	-0.010571392
24	0xbcfcc99b	-0.030857852
25	0x3d3e653e	0.04648327
26	0xbc833746	-0.016017567
27	0x3d69675b	0.056983333
28	0xbaa98213	-0.0012932442
29	0x3d20a53b	0.039220076
30	0x3ca9ae2a	0.02071293
31	0xbc19a278	-0.0093771145
32	0xbd6f686b	-0.05844919
33	0x3b849c17	0.0040469277
34	0xbc8a3745	-0.016872058
35	0xbb5249f1	-0.003208753
36	0x3bf9d681	0.007624448
37	0xbb59a661	-0.0033210742
38	0xbb79dd94	-0.0038126456
39	0x3c90d3d0	0.017679125
40	0x3be8116c	0.007082155
41	0x3d8b5465	0.06803206
42	0xbbf44499	-0.0074544665
43	0x3c857939	0.016293155
44	0xbbd64272	-0.0065386826
45	0xbce67fc7	-0.0281371
46	0x3c9977e4	0.018733926
47	0xbc84adc3	-0.016196137
48	0xbc882772	-0.016620371
49	0x3d2b993d	0.041894186
50	0xbc56512b	-0.013080875
51	0xbc991ace	-0.01868954
52	0x3c6a4c4c	0.014300417
53	0x3da67eb9	0.08129639
54	0xbc5045c1	-0.012711943
55	0x3cc9b10c	0.024620555
56	0x3a332b2e	0.00068347424
57	0xbcf85081	-0.030311825
58	0x3c04589b	0.008077766
59	0xbc98c8a7	-0.018650366
60	0x3d01a59d	0.03165208
61	0x3cbe7781	0.023250343
62	0x3d23d3f4	0.039997056
63	0xbd6f370b	-0.058402102
64	0xbbb1b0ef	-0.0054227035
65	0xbd12b965	-0.035821337
66	0xbc5bd9b4	-0.013418604
67	0x3a60c24c	0.00085738744
68	0x3cbb0719	0.022830533
69	0x3b98335d	0.004644795
70	0xbb019e17	-0.0019778067
71	0xbc82b5e3	-0.015955871
72	0xbc84f426	-0.0162297
73	0xbc564a37	-0.013079218
74	0x3c6a83c9	0.014313647
75	0xbbfdff06	-0.0077513484
76	0xbc85c62d	-0.01632985
77	0x3dc9ed1a	0.09859677
78	0xbbf72afc	-0.007542966
79	0x3d0d6156	0.034516655
80	0x3ca7be36	0.020476442
81	0xbc5768f2	-0.0131475795
82	0x3bab9b4b	0.005237018
83	0x3cb05a0a	0.021527309
84	0x3c7c0e0f	0.015384211
85	0x3da19ea4	0.078915864
86	0x3bf01ad1	0.0073274155
87	0x3d9c86b7	0.07642882
88	0x3c5530af	0.013012095
89	0x3c28c276	0.010300269
90	0xbc62feda	-0.013854707
91	0xbc0ebe87	-0.008712417
92	0xbcf10e9e	-0.029425915
93	0xbc2d8711	-0.010591284
94	0x3cc289e3	0.02374739
95	0xbc6106af	-0.013734504
96	0x3d9abf2d	0.07555995
97	0x3bb6ac80	0.005574763
98	0x3d5cd9e1	0.053918723
99	0x3b3d96bc	0.0028928956
100	0xbc2aaea8	-0.010417618
101	0xbbf1e3c7	-0.0073818895
102	0x3c68f963	0.014219615
103	0xbcae58f3	-0.021282649
104	0x3d725f9e	0.05917322
105	0xbd75a874	-0.059975103
106	0x3c942cdc	0.018087797
107	0xbce7d2b7	-0.028298719
108	0x3be48f5a	0.0069750967
109	0xbc12e4f5	-0.00896572
110	0x3c7a77f2	0.015287386
111	0x3d00f96a	0.03148786
112	0x3c9ace9d	0.018897349
113	0x3c805786	0.015666734
114	0xbc18e273	-0.009331333
115	0xb91a4840	-0.000147135
116	0x3d32a9c3	0.04361893
117	0x3c4ad53d	0.0123799415
118	0xbcb14a2c	-0.021641813
119	0x3d18b1a8	0.0372788
120	0x3d273956	0.040826164
121	0x3d611b4d	0.054957677
122	0xbb954357	-0.0045551467
123	0x3c187b21	0.0093067
124	0x3c893c85	0.01675249
125	0x3c04ebdc	0.008112874
126	0xba63cb41	-0.000868965
127	0xbc43cd60	-0.011950821
128	0xba722fff	-0.00092387194
129	0xbcd1ef3a	-0.025626767
130	0x3d0f0b98	0.034923166
131	0x3d45a834	0.048256114
132	0x3c57b868	0.0131665245
133	0xbc30a40f	-0.010781302
134	0xbd29732a	-0.041369595
135	0x3bd338de	0.006445988
136	0xbc446714	-0.011987466
137	0x3b542911	0.003237311
138	0xbc809bad	-0.015699232
139	0x3c657564	0.014005039
140	0x3c9e70ab	0.019340834
141	0xbcc2c0c9	-0.023773568
142	0x3c745897	0.0149137
143	0x3aaae7b8	0.0013039028
144	0x3bddd420	0.006769672
145	0x3cf57952	0.029965077
146	0xbb2f1be6	-0.002671951
147	0xbcc3b726	-0.023891043
148	0x3c06cfc6	0.008228248
149	0xbcfc9f44	-0.030837663
150	0x3c80cbf7	0.015722258
151	0xb941bb30	-0.00018475647
152	0x3be9e059	0.00713734
153	0x3d29d05e	0.04145848
154	0xbb535367	-0.0032245757
155	0xbd570c8f	-0.05250221
156	0x3b7c99ba	0.0038543777
157	0xbcb717a9	-0.02235015
158	0xbc3974cc	-0.01131935
159	0xbb6808a1	-0.0035405534
160	0xbccd926a	-0.02509423
161	0xbcaab59d	-0.020838553
162	0xbc0cb224	-0.008587394
163	0xbbec821e	-0.0072176596
164	0x3d2708d4	0.040779904
165	0xbb73649a	-0.003713882
166	0x3ac47b33	0.001499033
167	0x3bbb318a	0.0057126926
168	0xbc90ffff	-0.017700193
169	0x3d2672b3	0.04063673
170	0xbac3977a	-0.0014922463
171	0x3cf29bbe	0.02961528
172	0x3c879bfa	0.016553868
173	0x3d1078f2	0.035271592
174	0x3a43a8c1	0.0007463806
175	0xbc15ebcc	-0.009150457
176	0xbb21a178	-0.0024662893
177	0x3d3160eb	0.04330532
178	0x3bda3ed6	0.0066603227
179	0x3cad7530	0.021174043
180	0xbbdcb7b0	-0.0067357644
181	0xbc3c1eb6	-0.011481931
182	0x3c35755b	0.011075343
183	0xbcc956e6	-0.02457757
184	0x3bf8899a	0.0075847628
185	0xbb914565	-0.0044333213
186	0x3d0025c0	0.031286
187	0x3c4351ff	0.011921405
188	0x3d2bd63d	0.04195236
189	0xb8db19cc	-0.00010447539
190	0xbcca7bd0	-0.024717242
191	0x3cf32909	0.029682653
192	0x3c80e7e5	0.015735576
193	0xbacda89c	-0.0015690508
194	0x3caaa9c2	0.0208329
195	0xb9d06584	-0.00039748487
196	0x3c8802cc	0.016602896
197	0xbcadaddc	-0.021201067
198	0xb7f3788c	-2.9023991e-05
199	0xbc046944	-0.008081738
200	0xbc765f2b	-0.015037338
201	0xbc9f258d	-0.019427085
202	0x3c8ac311	0.016938718
203	0xbc1f229a	-0.0097128395
204	0x3cde2a83	0.02711988
205	0x3d00545c	0.03133045
206	0x3d274f7a	0.04084728
207	0x3d1943d5	0.037418205
208	0xbc6d1184	-0.014469508
209	0x3d0f2585	0.03494789
210	0x392cf6c7	0.0001649513
211	0xbd076df5	-0.033063848
212	0x3c6af097	0.014339588
213	0x3c33c4a0	0.010972172
214	0x3b25784a	0.00252487
215	0xbd08954a	-0.0333455
216	0xbbae0f7e	-0.0053119054
217	0xbc0ab06f	-0.008464917
218	0x3cb81dce	0.02247515
219	0xbbaf3c8a	-0.005347793
220	0x3cfb98ac	0.030712448
221	0xbc432d23	-0.011912617
222	0x3bfe645f	0.00776343
223	0xbc1819b3	-0.009283471
224	0xbc9e69d0	-0.019337565
225	0xbc53f03f	-0.012935697
226	0x3d32c611	0.043645922
227	0x3c990e65	0.018683622
228	0xbb6d347b	-0.003619461
229	0xbd349e3e	-0.044096224
230	0x3ad0e6eb	0.001593796
231	0x3bd18d72	0.0063950354
232	0xbcca119a	-0.024666596
233	0x3d3e467e	0.046453945
234	0x3cfde265	0.030991742
235	0x3bb81219	0.005617392
236	0x3c96d1c9	0.01841058
237	0x3cd174c3	0.025568372
238	0x3c0227b7	0.007944039
239	0x3c5cbc1b	0.013472582
240	0xb787daf2	-1.6195208e-05
241	0xbce2c5bb	-0.027682176
242	0x3ae7d6bf	0.0017687901
243	0x3bf43877	0.00745302
244	0x3c9f455a	0.01944225
245	0xbd02b6bb	-0.031912547
246	0x3b357148	0.002768593
247	0xbd854ccb	-0.06508788
248	0xbd3a805b	-0.045532566
249	0x3c551f91	0.013008014
250	0x39010624	0.00012304686
251	0x3c6e9d20	0.014563829
252	0xbc7a0e60	-0.015262216
253	0x3d00358d	0.03130107
254	0xba51ebb2	-0.00080078386
255	0xbcb13957	-0.021633787

action_model._continuous_distribution.mu.bias f4 [2]
0	0xbc469c93	-0.012122291
1	0xbb41e17c	-0.0029583862

exp_avg f4 [128, 6]
0	0xb90c0e06	-0.00013356665
1	0xb9ae536d	-0.00033250023
2	0x3a33f43e	0.0006864703
3	0x3ae62b16	0.0017560448
4	0xb9c83f4c	-0.00038194133
5	0x3b002228	0.0019551609
6	0x3901f55a	0.00012393799
7	0x38c05767	9.1715534e-05
8	0xb93f8cef	-0.00018267681
9	0xba885726	-0.0010401949
10	0x38ca9490	9.6597825e-05
11	0x34c97000	3.7520658e-07
12	0xb8acd3dc	-8.241061e-05
13	0xb9298355	-0.00016166021
14	0x39d76624	0.00041084096
15	0x3b10d239	0.0022097959
16	0xb999390d	-0.0002922494
17	0x38503b40	4.9646245e-05
18	0x393df4a4	0.0001811558
19	0x38b4d1b0	8.622126e-05
20	0xb8146e92	-3.5388926e-05
21	0x39618da0	0.00021510432
22	0x37897802	1.6387556e-05
23	0xbb21dc3c	-0.002469792
24	0x3988a6d4	0.00026064238
25	0x3967860c	0.00022079813
26	0xb9c4ea8f	-0.00037558793
27	0xbb1df7ff	-0.0024104116
28	0x396c7775	0.00022551215
29	0xbb71b6c1	-0.0036882611
30	0x38e791ae	0.00011042073
31	0xb757426a	-1.2830462e-05
32	0x398027d2	0.0002444373
33	0xb8bb58f0	-8.933421e-05
34	0xb8adde34	-8.2906714e-05
35	0x38838f80	6.273296e-05
36	0xb7cd380f	-2.4464009e-05
37	0xb79a81f1	-1.841874e-05
38	0x37ce1462	2.4566605e-05
39	0x39ae96f5	0.00033300338
40	0xb7c89fe9	-2.3916322e-05
41	0x37bfc781	2.2861876e-05
42	0xb86c3ea4	-5.6325123e-05
43	0xb7f40c41	-2.9092773e-05
44	0x37e19935	2.6893433e-05
45	0xb6835142	-3.913564e-06
46	0xb7ad32b4	-2.0646818e-05
47	0x3a4a1544	0.00077088573
48	0xb8b74fa5	-8.740955e-05
49	0xb899d926	-7.3360556e-05
50	0xb8e38464	-0.00010848863
51	0x3a05b1e4	0.0005100055
52	0xb743b5b1	-1.1665209e-05
53	0x3aa2475c	0.0012380886
54	0xb9a70a90	-0.00031860592
55	0xb925dcec	-0.00015817926
56	0x38168039	3.5882204e-05
57	0x3b3bd7f6	0.0028662658
58	0xb8153b7c	-3.5579767e-05
59	0x3af0c47c	0.0018369104
60	0xb937e41f	-0.00017537222
61	0xb93414e8	-0.00017173926
62	0x391a594a	0.00014719847
63	0x39a89b40	0.00032159127
64	0xb91308d2	-0.00014022298
65	0x3ad485d7	0.0016214204
66	0x3a039466	0.00050193665
67	0x3a092624	0.00052318186
68	0xba2cf3be	-0.00065976
69	0xba9d9a0c	-0.0012024059
70	0x39f666d1	0.0004699738
71	0xbc02f536	-0.007993033
72	0xb9ca35ae	-0.00038568437
73	0xb902ef93	-0.00012487014
74	0xb9899a9f	-0.00026245878
75	0x3ad77528	0.0016438114
76	0xb8255062	-3.9413928e-05
77	0x3b2ebb49	0.0026661924
78	0x39a2847c	0.00030997756
79	0x39747298	0.00023312343
80	0xb839cb27	-4.4296637e-05
81	0xbb0fe308	-0.002195539
82	0x392e1d40	0.0001660483
83	0xbad489bd	-0.0016215366
84	0x3a124463	0.00055796484
85	0x3a178285	0.0005779642
86	0xba41631c	-0.0007377134
87	0xbb24e946	-0.0025163456
88	0x3a09e5e7	0.00052603934
89	0xbc0d080c	-0.008607876
90	0xb8ed43f2	-0.000113136965
91	0x38fd0688	0.00012065197
92	0xb9ca890c	-0.0003863055
93	0x3a57536a	0.0008214029
94	0x3950af37	0.00019901698
95	0xb982efce	-0.000249742
96	0x36e52221	6.828705e-06
97	0x3814026a	3.5288198e-05
98	0xb7b52422	-2.1593707e-05
99	0xb58ae042	-1.0347069e-06
100	0x37409e80	1.1480995e-05
101	0xb86cd7e8	-5.6467863e-05
102	0x38e5fada	0.00010966296
103	0x38d42e98	0.000101176265
104	0xb8c42b7a	-9.3541064e-05
105	0x3a05322f	0.00050810253
106	0x38af2ba4	8.352779e-05
107	0xbb034e9a	-0.0020035864
108	0xb930e7ea	-0.00016871063
109	0xb957ccd1	-0.00020580298
110	0x3a0b7b67	0.00053208176
111	0x3b28b29d	0.0025741227
112	0xb974e466	-0.00023354738
113	0x3b55f479	0.0032646938
114	0xb9620043	-0.00021553137
115	0xb85eb3c4	-5.3096344e-05
116	0x3860d6d4	5.3605836e-05
117	0xb827c01c	-3.999482e-05
118	0xb87c9950	-6.0224265e-05
119	0x3ab51cc7	0.001381778
120	0xb7404e94	-1.1462387e-05
121	0xb74810fe	-1.1924885e-05
122	0x37ac7c6e	2.056194e-05
123	0x3877aa62	5.904807e-05
124	0xb73a1ace	-1.1092705e-05
125	0x376e8384	1.4216526e-05
126	0xb961460d	-0.00021483768
127	0xb9a4afa7	-0.0003141139
128	0x3a13d279	0.0005638968
129	0x3aa6d71d	0.0012728904
130	0xb9864886	-0.00025612506
131	0x39d59eb7	0.00040744778
132	0xb58bedd3	-1.0425523e-06
133	0xb72ff7ea	-1.0488535e-05
134	0x36a835bc	5.0130457e-06
135	0xb609512d	-2.0461841e-06
136	0xb6286dfb	-2.5097968e-06
137	0x373e50e5	1.1343717e-05
138	0x393b009f	0.00017833941
139	0x39243f87	0.00015663925
140	0xb9815459	-0.0002466764
141	0xbb173b80	-0.0023076236
142	0x38f39f2c	0.00011616791
143	0xba09193d	-0.0005229896
144	0xb42de83e	-1.619637e-07
145	0xb610e5c4	-2.1591413e-06
146	0x3589c334	1.0264107e-06
147	0xb39887b6	-7.102737e-08
148	0xb521a0de	-6.0211266e-07
149	0x3634d0b6	2.6943576e-06
150	0xb9769db0	-0.00023519131
151	0xb932cc55	-0.00017051522
152	0x392a01f0	0.00016213185
153	0xb8d87ae6	-0.00010322574
154	0xb8ec622f	-0.00011271645
155	0x3b6767a1	0.003530957
156	0xb86aad94	-5.5951605e-05
157	0xb94f21bb	-0.00019753624
158	0x39863aa8	0.00025602174
159	0x39e6dc37	0.0004403309
160	0xb938d3e8	-0.00017626549
161	0x396ac2f6	0.00022388608
162	0x38754736	5.8478872e-05
163	0x387eb927	6.0730756e-05
164	0x391aa746	0.00014748899
165	0xba248174	-0.00062753935
166	0xb81dc32a	-3.7613478e-05
167	0xba7198d6	-0.0009216195
168	0xb5e536d6	-1.7077789e-06
169	0xb748e5e5	-1.1974455e-05
170	0x36dd5a62	6.596835e-06
171	0xb4796a0d	-2.3228513e-07
172	0xb6534673	-3.1482457e-06
173	0x3759fb05	1.2992653e-05
174	0xb8976722	-7.219451e-05
175	0xb88c9c4c	-6.704833e-05
176	0x39569151	0.00020462765
177	0x3aa9a087	0.0012941518
178	0xb8fb4179	-0.00011980808
179	0x3a983911	0.0011613687
180	0xb8937420	-7.031136e-05
181	0x3808cafc	3.261397e-05
182	0xb989e3e1	-0.0002630046
183	0xba09eac1	-0.00052611163
184	0x38a605d3	7.916582e-05
185	0xb8f66200	-0.00011748448
186	0x390a62c0	0.00013197493
187	0xb7897cc6	-1.6389775e-05
188	0xb8c59ac7	-9.4225215e-05
189	0x37a3a98a	1.9510062e-05
190	0x37a1fc15	1.931008e-05
191	0xbad6ca15	-0.001638713
192	0xb7fa6339	-2.9848527e-05
193	0xb898790a	-7.27047e-05
194	0x388b32b9	6.637484e-05
195	0x38813bdb	6.162348e-05
196	0xb7ec184f	-2.8144712e-05
197	0x38b30bb1	8.537563e-05
198	0x37d7fb5a	2.5747042e-05
199	0x38286811	4.015124e-05
200	0xb9392ab3	-0.00017658882
201	0xba129458	-0.0005591563
202	0x38781fbd	5.9157366e-05
203	0xba55d726	-0.0008157365
204	0xb71106f8	-8.644296e-06
205	0xb6e47089	-6.8080303e-06
206	0xb74ec142	-1.2323553e-05
207	0x37c2826e	2.3187338e-05
208	0x35b20b0a	1.3265246e-06
209	0x36e80454	6.9146427e-06
210	0xb8fb175e	-0.00011972965
211	0xb8f81104	-0.00011828731
212	0x397abbac	0.00023911771
213	0x3a32c48a	0.0006819448
214	0xb8d06bb7	-9.938276e-05
215	0x395c79b6	0.00021026176
216	0xb81c6447	-3.728669e-05
217	0xb828adb2	-4.0216088e-05
218	0x3851acd6	4.999045e-05
219	0x383c76c4	4.4933302e-05
220	0xb78dd238	-1.69064e-05
221	0x3a3a9f20	0.00071190484
222	0x39272122	0.00015938704
223	0x39474a7b	0.00019005865
224	0xb9cd21a8	-0.00039125723
225	0xbb084f43	-0.0020799197
226	0x39886290	0.00026013376
227	0xbabbf68c	-0.0014340444
228	0xb72e235a	-1.0379439e-05
229	0xb6b9dabd	-5.538894e-06
230	0x37082462	8.114703e-06
231	0x38a02c15	7.6376054e-05
232	0xb6381662	-2.7431165e-06
233	0x36cffc06	6.19842e-06
234	0xb98186de	-0.0002470528
235	0xb9c69dd2	-0.00037883088
236	0x3a3330d4	0.0006835584
237	0x3b0552cb	0.0020343538
238	0xb9d7104e	-0.00041020144
239	0x3a2334fb	0.0006225851
240	0x3678d759	3.7080229e-06
241	0x368985d5	4.0984983e-06
242	0xb7143d38	-8.835741e-06
243	0xb76a12b9	-1.3951846e-05
244	0x359acf93	1.1534306e-06
245	0xb6bc3240	-5.6086865e-06
246	0xb65b6e47	-3.2697733e-06
247	0x37329100	1.0643387e-05
248	0xb726ff24	-9.953776e-06
249	0x37ca84c7	2.4142106e-05
250	0x35885f6d	1.0160562e-06
251	0xb7538c00	-1.2609176e-05
252	0xb98c828e	-0.00026800152
253	0xb96f28fa	-0.00022808081
254	0xb777b238	-1.4763842e-05
255	0x3a74ab02	0.00093333435

exp_avg_sq f4 [128, 6]
0	0x36606171	3.343532e-06
1	0x359584b8	1.1139991e-06
2	0x3661ed00	3.3665565e-06
3	0x39800df6	0.00024424464
4	0x358815a3	1.0139087e-06
5	0x39b83451	0.00035134194
6	0x3506e085	5.024561e-07
7	0x343f5e69	1.7822607e-07
8	0x351ebd5a	5.913513e-07
9	0x3841b4d5	4.61832e-05
10	0x342b6e4a	1.5965739e-07
11	0x388f2e20	6.827363e-05
12	0x374603f4	1.180264e-05
13	0x3684bc8e	3.955857e-06
14	0x36bfd88e	5.717454e-06
15	0x39bda9d0	0.0003617541
16	0x366ea092	3.5558228e-06
17	0x3b0aeb9e	0.0021197568
18	0x36277186	2.4951019e-06
19	0x3569a5bc	8.704044e-07
20	0x35c33bea	1.454607e-06
21	0x38be7d97	9.083299e-05
22	0x355a19b0	8.124871e-07
23	0x39effe11	0.00045774927
24	0x3620d66f	2.3966675e-06
25	0x3552ed27	7.85762e-07
26	0x35e2b0c0	1.6889753e-06
27	0x39099e28	0.00013124256
28	0x3539900e	6.91275e-07
29	0x39c74762	0.00038009422
30	0x34d6597b	3.9925712e-07
31	0x34078616	1.2621635e-07
32	0x34e7e76f	4.3195493e-07
33	0x37e34870	2.709424e-05
34	0x33f7d73f	1.1540987e-07
35	0x380139bb	3.0809762e-05
36	0x34a83af9	3.1335347e-07
37	0x337e3a28	5.9191876e-08
38	0x340d257b	1.3145284e-07
39	0x379bc8e6	1.857099e-05
40	0x333bee63	4.3756142e-08
41	0x33acad16	8.040858e-08
42	0x33e9859f	1.08742135e-07
43	0x32af597c	2.0413374e-08
44	0x329d85a6	1.8337982e-08
45	0x328a26e5	1.6083002e-08
46	0x32658fd7	1.336226e-08
47	0x370aef45	8.28115e-06
48	0x35bf6788	1.426074e-06
49	0x352b10fc	6.372718e-07
50	0x360870f9	2.0331338e-06
51	0x393c6d32	0.00017969756
52	0x3521a912	6.0223203e-07
53	0x39a588c3	0.00031573148
54	0x36852f0d	3.9691863e-06
55	0x35963076	1.1189975e-06
56	0x3655260d	3.1761622e-06
57	0x39997551	0.00029269842
58	0x357dde6b	9.4573505e-07
59	0x39838168	0.00025082682
60	0x35b0883a	1.3152669e-06
61	0x34e78cbe	4.3129506e-07
62	0x3554f294	7.932915e-07
63	0x385703c3	5.1263498e-05
64	0x34cb3a15	3.7853957e-07
65	0x392c5f72	0.00016438754
66	0x36ed8cc3	7.079537e-06
67	0x360435d9	1.9700876e-06
68	0x3683b9d5	3.925738e-06
69	0x394d3e91	0.00019573631
70	0x35e21a31	1.6845935e-06
71	0x3a586d74	0.0008256056
72	0x36d1e057	6.254802e-06
73	0x35eace2e	1.7494365e-06
74	0x368e0a35	4.233118e-06
75	0x39a126d6	0.00030737248
76	0x35cf1a62	1.543038e-06
77	0x3a1083c2	0.00055127975
78	0x36ecca89	7.0569263e-06
79	0x3600b441	1.9178408e-06
80	0x368708ac	4.024323e-06
81	0x39908eb4	0.00027572142
82	0x35de9047	1.6582279e-06
83	0x3a202fe2	0.0006110651
84	0x36fee03c	7.595894e-06
85	0x3616be78	2.246261e-06
86	0x369ab2a6	4.610355e-06
87	0x39ac6124	0.00032878772
88	0x3601c28f	1.9335746e-06
89	0x3a64a3a4	0.0008721894
90	0x35caa365	1.5097727e-06
91	0x34b46a74	3.3605068e-07
92	0x35a11ff4	1.2004734e-06
93	0x387fe765	6.101224e-05
94	0x34936b71	2.7459058e-07
95	0x35b52229	1.3495493e-06
96	0x328553d1	1.5521353e-08
97	0x32010840	7.510664e-09
98	0x3137b07b	2.6730322e-09
99	0x2f56c68c	1.9533725e-10
100	0x3019b911	5.592407e-10
101	0x3241d24a	1.1281893e-08
102	0x358eeeec	1.064936e-06
103	0x34a520bf	3.075747e-07
104	0x34eef242	4.450722e-07
105	0x3796598b	1.792309e-05
106	0x34907f46	2.6914694e-07
107	0x3927a097	0.00015986185
108	0x34babd12	3.4782767e-07
109	0x33c2d206	9.072032e-08
110	0x34ad0aef	3.2231716e-07
111	0x37c86c9d	2.3892435e-05
112	0x33a4b9b0	7.6706215e-08
113	0x373bdcd3	1.1197483e-05
114	0x35fcd9cc	1.883885e-06
115	0x34d2cef6	3.9266132e-07
116	0x34a08106	2.98962e-07
117	0x3421717d	1.503558e-07
118	0x34c5e9c2	3.686419e-07
119	0x395c6c58	0.00021021196
120	0x30356771	6.5994415e-10
121	0x2fe5a0e8	4.1769188e-10
122	0x3092cc09	1.0680888e-09
123	0x31cb6573	5.919611e-09
124	0x2f6abf41	2.1350123e-10
125	0x30154077	5.4297494e-10
126	0x33a3b0a0	7.622407e-08
127	0x33721609	5.6365057e-08
128	0x3494f43f	2.774486e-07
129	0x35d47e5f	1.583201e-06
130	0x336583ca	5.343808e-08
131	0x33c00509	8.9416126e-08
132	0x2b1b2f87	5.513302e-13
133	0x2d2de53d	9.884813e-12
134	0x2c354c4c	2.5764e-12
135	0x2b906daa	1.0262253e-12
136	0x2b326c8d	6.338895e-13
137	0x2d4c046c	1.1597039e-11
138	0x35482036	7.455268e-07
139	0x34844e90	2.4644078e-07
140	0x3571c1c6	9.0061474e-07
141	0x3892290b	6.969467e-05
142	0x3472699b	2.2576425e-07
143	0x38ab6c54	8.174093e-05
144	0x2e0ae81f	3.1583732e-11
145	0x2de6b5b9	2.6228674e-11
146	0x2c91ccf4	4.1439022e-12
147	0x29259555	3.6766885e-14
148	0x2c05d853	1.902052e-12
149	0x2e21374b	3.6656272e-11
150	0x3594ce95	1.1086983e-06
151	0x348ff130	2.6811313e-07
152	0x348df137	2.6438804e-07
153	0x34198458	1.4297382e-07
154	0x34568435	1.99784e-07
155	0x3918a40e	0.00014556965
156	0x349c78f6	2.9145275e-07
157	0x33da5900	1.0167605e-07
158	0x34e934f5	4.3438163e-07
159	0x36bc5b55	5.613469e-06
160	0x33a4ff6d	7.683307e-08
161	0x3418407e	1.4179565e-07
162	0x360c4fcb	2.0908071e-06
163	0x35410c94	7.1916406e-07
164	0x35e9f005	1.7429708e-06
165	0x391c8c77	0.00014929647
166	0x352ef7ef	6.518084e-07
167	0x39892f00	0.00026165694
168	0x2c1b977f	2.2110922e-12
169	0x2d7fa597	1.453184e-11
170	0x2c99f5f7	4.375829e-12
171	0x27c505e9	5.468489e-15
172	0x2b8d6084	1.0045441e-12
173	0x2d967e50	1.710912e-11
174	0x35c10d4f	1.4383494e-06
175	0x35156f41	5.566872e-07
176	0x355c6da1	8.211592e-07
177	0x3867ebbb	5.5294233e-05
178	0x350aa00f	5.164192e-07
179	0x39b6be5d	0.00034855577
180	0x362fce8e	2.6197263e-06
181	0x3562634e	8.433607e-07
182	0x35c7099d	1.4829453e-06
183	0x38c44951	9.3596645e-05
184	0x354e71a4	7.690635e-07
185	0x3a0982a1	0.00052456005
186	0x34ee10e2	4.4343238e-07
187	0x34811556	2.4043646e-07
188	0x338f59eb	6.6753124e-08
189	0x33cfad17	9.6706735e-08
190	0x347a32c5	2.3301534e-07
191	0x38224820	3.869098e-05
192	0x2f8d85af	2.5742738e-10
193	0x306d8a50	8.641665e-10
194	0x300df849	5.1648336e-10
195	0x30bbf3db	1.3675349e-09
196	0x2ee5724b	1.0434017e-10
197	0x309f73e9	1.1601716e-09
198	0x342405b6	1.5275768e-07
199	0x33505ccc	4.8513172e-08
200	0x344c5f2c	1.9033604e-07
201	0x378436ec	1.5761201e-05
202	0x3335707f	4.224466e-08
203	0x372eaf46	1.0412017e-05
204	0x30d53d31	1.5515181e-09
205	0x3085b72d	9.729085e-10
206	0x319f98ee	4.644895e-09
207	0x33151011	3.4706378e-08
208	0x3075f9d5	8.9485513e-10
209	0x30bc1680	1.3685195e-09
210	0x359efffb	1.1846417e-06
211	0x34b88522	3.4369538e-07
212	0x35861b51	9.991728e-07
213	0x389ad09e	7.38215e-05
214	0x34b55952	3.3778866e-07
215	0x38fe0725	0.000121129946
216	0x34ddd233	4.1317398e-07
217	0x33cd65df	9.5645866e-08
218	0x33a9e926	7.912085e-08
219	0x33fb0b3a	1.16901404e-07
220	0x33991330	7.128108e-08
221	0x384854da	4.776274e-05
222	0x369d35ca	4.6852265e-06
223	0x35ca88ff	1.5090044e-06
224	0x36361f9f	2.713852e-06
225	0x393fcdf7	0.00018291907
226	0x35b816b1	1.3715672e-06
227	0x3a3e69c0	0.0007263683
228	0x2fd8e9ac	3.9456205e-10
229	0x2ea94f0a	7.6992704e-11
230	0x2f3a3b32	1.6937632e-10
231	0x32aacbb8	1.9883245e-08
232	0x2e209054	3.6507977e-11
233	0x2edb00be	9.959099e-11
234	0x357523cc	9.1321704e-07
235	0x34d46855	3.956399e-07
236	0x35ffa358	1.904652e-06
237	0x378d3766	1.6834307e-05
238	0x34cb6655	3.7886153e-07
239	0x35bcf718	1.4079005e-06
240	0x3345de90	4.6070056e-08
241	0x31ebc2f0	6.861562e-09
242	0x32beaca4	2.2197419e-08
243	0x34914c05	2.7063666e-07
244	0x31d66879	6.240097e-09
245	0x322c16e3	1.00169215e-08
246	0x310e06ff	2.0667696e-09
247	0x305a8778	7.950045e-10
248	0x3148f664	2.9243887e-09
249	0x3330cdd5	4.1165396e-08
250	0x30282859	6.117538e-10
251	0x310126af	1.879396e-09
252	0x36698173	3.4795055e-06
253	0x358a59b1	1.0307905e-06
254	0x3627ce92	2.500518e-06
255	0x393b8598	0.00017883477

exp_avg f4 [128]
0	0xb8af9c7a	-8.373796e-05
1	0x37c18f88	2.307423e-05
2	0xb82aa2d2	-4.0682797e-05
3	0x37b5fdd4	2.169508e-05
4	0x38691a46	5.5575998e-05
5	0xb65df594	-3.3074512e-06
6	0xb69bc6f2	-4.6425203e-06
7	0xb6f5d359	-7.326173e-06
8	0xb79abb79	-1.844553e-05
9	0xb827094d	-3.9824565e-05
10	0xb835607c	-4.324362e-05
11	0x390a2673	0.00013175029
12	0xb803f416	-3.1460157e-05
13	0x38763bd0	5.8706675e-05
14	0x3918a324	0.00014556624
15	0x37fed344	3.0377538e-05
16	0x3714e2ae	8.874265e-06
17	0x37d565db	2.5439009e-05
18	0xb859332f	-5.17845e-05
19	0xb75fd2be	-1.3340903e-05
20	0xb649611a	-3.0007855e-06
21	0xb8a5c1f1	-7.9039375e-05
22	0xb63121a7	-2.6394644e-06
23	0x38256391	3.9431794e-05
24	0xb511da26	-5.4334157e-07
25	0xb8340f54	-4.292962e-05
26	0xb850702a	-4.9695525e-05
27	0x377fe624	1.5252768e-05
28	0xb64a38f0	-3.0133488e-06
29	0xb78db7c2	-1.6894079e-05
30	0x3709d6cb	8.215847e-06
31	0xb68924a4	-4.0871837e-06
32	0xb7997ac2	-1.8296185e-05
33	0x3729b599	1.01154665e-05
34	0xb5e5a9b2	-1.7111217e-06
35	0xb7fa07be	-2.9805928e-05
36	0xb7295a40	-1.0094198e-05
37	0x3848cb7b	4.787322e-05
38	0xb5bafcc6	-1.3931647e-06
39	0xb8c807a6	-9.538168e-05
40	0x358a8760	1.03212e-06
41	0x3633bd8a	2.6783405e-06
42	0xb870b25e	-5.7386576e-05
43	0x37933366	1.75477e-05
44	0xb7fec30c	-3.0369985e-05
45	0x36718407	3.5988649e-06
46	0xb85597c8	-5.0924515e-05
47	0xb2cfb3a0	-2.4179656e-08
48	0x37006c72	7.654644e-06
49	0x36673030	3.4449731e-06
50	0xb76cb6a4	-1.41092205e-05
51	0x369c41ef	4.656838e-06
52	0xb79f814e	-1.901449e-05
53	0xb8943f94	-7.069032e-05
54	0xb8993d6e	-7.307051e-05
55	0xb758f8ac	-1.2932502e-05
56	0x37dae12d	2.609248e-05
57	0xb83b77e4	-4.469593e-05
58	0x3814a338	3.543796e-05
59	0x36c4e290	5.8676305e-06
60	0xb73c52c9	-1.1224948e-05
61	0xb7947ef8	-1.77021e-05
62	0xb7239e96	-9.752481e-06
63	0xb7794c7d	-1.4859365e-05
64	0xb6d17f5e	-6.243513e-06
65	0xb85eade3	-5.309087e-05
66	0xb7ea860e	-2.7957398e-05
67	0xb7f4244a	-2.9103965e-05
68	0xb59a3e3a	-1.1492004e-06
69	0xb549111b	-7.4903227e-07
70	0xb496eda8	-2.8112595e-07
71	0x380f1e11	3.412186e-05
72	0xb763cabf	-1.357746e-05
73	0xb8a0bf5e	-7.6650394e-05
74	0xb642c411	-2.9022378e-06
75	0xb4aa0e10	-3.16752e-07
76	0xb85f79ac	-5.328066e-05
77	0xb5d7c55a	-1.6076185e-06
78	0xb8c59b61	-9.4226336e-05
79	0xb60c3a6a	-2.0895627e-06
80	0xb80d17b9	-3.3639113e-05
81	0x38fdfa67	0.00012110621
82	0x37888b74	1.6277401e-05
83	0x384be844	4.8615286e-05
84	0x390c95e3	0.00013407278
85	0x3803471c	3.129906e-05
86	0x384791c3	4.758105e-05
87	0x378ecbee	1.7022681e-05
88	0x37188a40	9.092095e-06
89	0xb6807138	-3.8278777e-06
90	0xb8712602	-5.7494275e-05
91	0xb6edab9f	-7.0831297e-06
92	0x35274b90	6.2322306e-07
93	0x383e6676	4.5394954e-05
94	0xb5ba58b6	-1.3883898e-06
95	0x3839c5a5	4.4291508e-05
96	0x3789900a	1.6398746e-05
97	0xb8908fc2	-6.893232e-05
98	0xb6079c98	-2.0207717e-06
99	0x376286c0	1.3502024e-05
100	0xb866d482	-5.5034187e-05
101	0xb6bcdd56	-5.6286035e-06
102	0xb81d3561	-3.748143e-05
103	0xb5b01c90	-1.3121335e-06
104	0xb81f17ac	-3.79306e-05
105	0x3802f434	3.1221847e-05
106	0xb5822613	-9.696836e-07
107	0xb8651c3a	-5.4624143e-05
108	0x365e2234	3.3100487e-06
109	0x381535f8	3.557463e-05
110	0x379a8c90	1.8423685e-05
111	0xb5548ce8	-7.91812e-07
112	0xb723ea0d	-9.770051e-06
113	0x38757869	5.8524693e-05
114	0x384155c2	4.6094654e-05
115	0xb5d14980	-1.5593105e-06
116	0xb773c7ee	-1.4530478e-05
117	0xb617e7a1	-2.263558e-06
118	0xb84781bb	-4.7566118e-05
119	0x3766363c	1.3721696e-05
120	0xb79372cc	-1.7577222e-05
121	0xb2ac0750	-2.002676e-08
122	0x38867baa	6.412652e-05
123	0x37e576dc	2.7354276e-05
124	0x36dd1c80	6.589631e-06
125	0xb54188ca	-7.2097157e-07
126	0x38892314	6.539203e-05
127	0xb6876116	-4.034616e-06

exp_avg_sq f4 [128]
0	0x339770a8	7.0519775e-08
1	0x3241d5f0	1.1282722e-08
2	0x34867370	2.5043437e-07
3	0x336ca46a	5.5097566e-08
4	0x3355a6ae	4.974452e-08
5	0x32094bce	7.9916855e-09
6	0x3180a234	3.7437307e-09
7	0x30b1abdc	1.292729e-09
8	0x332d47c9	4.034499e-08
9	0x33982069	7.083947e-08
10	0x32ea8a02	2.7303944e-08
11	0x3405e74c	1.2470736e-07
12	0x33edd3e3	1.10747145e-07
13	0x34025e03	1.2141395e-07
14	0x3418aaaa	1.421819e-07
15	0x32b6bcf5	2.1273516e-08
16	0x3002bde7	4.756359e-10
17	0x32a740a3	1.9470752e-08
18	0x31c55292	5.7428418e-09
19	0x32d58e39	2.4861139e-08
20	0x2de8abc7	2.645163e-11
21	0x31754921	3.5693761e-09
22	0x2b303453	6.2600375e-13
23	0x328605ba	1.5602257e-08
24	0x2be9c4cc	1.6610268e-12
25	0x3291cd47	1.6973571e-08
26	0x31dd410e	6.4393424e-09
27	0x3343898c	4.5527074e-08
28	0x2b81855f	9.203019e-13
29	0x33175d52	3.52423e-08
30	0x33654f04	5.339008e-08
31	0x3282c301	1.522267e-08
32	0x2e70b0bc	5.4726654e-11
33	0x31531379	3.071561e-09
34	0x2e877f9d	6.161758e-11
35	0x32bae59e	2.1757668e-08
36	0x31d013b1	6.0558354e-09
37	0x33cd2503	9.552789e-08
38	0x2cab67bf	4.8716304e-12
39	0x32d73df3	2.5057465e-08
40	0x2feee0c6	4.345166e-10
41	0x2e5d6ed2	5.034801e-11
42	0x338c2164	6.525332e-08
43	0x33279024	3.9013813e-08
44	0x30780573	9.022962e-10
45	0x2d539c92	1.2028727e-11
46	0x33fe6e01	1.1847806e-07
47	0x2e4a8e1e	4.6055708e-11
48	0x32987330	1.774751e-08
49	0x322e2db6	1.01385265e-08
50	0x3006bc23	4.9016274e-10
51	0x31b5fb7c	5.2963838e-09
52	0x34952189	2.7777813e-07
53	0x33ae7396	8.1235314e-08
54	0x329ca0fe	1.8234001e-08
55	0x33ba51a8	8.676153e-08
56	0x31eca209	6.8869253e-09
57	0x331adf5e	3.605907e-08
58	0x32805d55	1.4943604e-08
59	0x342dd3d1	1.6188939e-07
60	0x31ceffa2	6.024451e-09
61	0x33fff1f0	1.1918371e-07
62	0x32a16596	1.8789063e-08
63	0x3284063c	1.5369658e-08
64	0x3085f943	9.747868e-10
65	0x33c03143	8.9496574e-08
66	0x334e89c2	4.8088403e-08
67	0x340bccaa	1.301984e-07
68	0x2d69f63b	1.3299191e-11
69	0x29881a56	6.044182e-14
70	0x2e04ee3e	3.0224927e-11
71	0x332fcf23	4.0933752e-08
72	0x315aa8ea	3.1819192e-09
73	0x34726d6e	2.2577817e-07
74	0x2f3252c0	1.6218404e-10
75	0x2d095fbd	7.8088066e-12
76	0x33068b60	3.1326067e-08
77	0x2b6f1be4	8.4948563e-13
78	0x3401762b	1.205705e-07
79	0x327e51b2	1.4803321e-08
80	0x320169e5	7.532866e-09
81	0x34162f4b	1.3987044e-07
82	0x334adaf2	4.723092e-08
83	0x338eaa97	6.6434204e-08
84	0x34abe82c	3.202016e-07
85	0x340a0c5c	1.2856748e-07
86	0x339900ac	7.12474e-08
87	0x332e9a9a	4.065314e-08
88	0x331be464	3.629647e-08
89	0x2f154145	1.357466e-10
90	0x33cd8128	9.56955e-08
91	0x3297f612	1.7690613e-08
92	0x3203d177	7.67283e-09
93	0x338a2052	6.432005e-08
94	0x2c1ddc20	2.2433236e-12
95	0x32d76841	2.5076703e-08
96	0x3322a71d	3.7870553e-08
97	0x33ff185c	1.1878794e-07
98	0x2f34fdd6	1.6461085e-10
99	0x320fb197	8.364075e-09
100	0x33579f76	5.0203617e-08
101	0x2e240b54	3.7299344e-11
102	0x3235431f	1.0550848e-08
103	0x32dc0311	2.5612765e-08
104	0x336b7c63	5.482833e-08
105	0x33402ebf	4.4746e-08
106	0x2db6ef30	2.0797225e-11
107	0x33deaba5	1.03689025e-07
108	0x2dcdc7dc	2.3394557e-11
109	0x339e2668	7.3644344e-08
110	0x33813293	6.01623e-08
111	0x2eaea9b4	7.942749e-11
112	0x33e0146f	1.043453e-07
113	0x33477e16	4.6447973e-08
114	0x33279638	3.901934e-08
115	0x2cb9bc95	5.278953e-12
116	0x32e211cd	2.6317958e-08
117	0x3105e557	1.9484412e-09
118	0x336e3cbd	5.5468934e-08
119	0x339c77ec	7.28613e-08
120	0x333946e3	4.313814e-08
121	0x2c17f9e5	2.159711e-12
122	0x33a11dfc	7.502601e-08
123	0x33b5a24b	8.45799e-08
124	0x31e4a061	6.6539063e-09
125	0x2ca07519	4.560474e-12
126	0x34036604	1.2237439e-07
127	0x32c10682	2.2471117e-08
