MachineLearning/results/testSumo7/MoveTOGoal/MoveTOGoal-499947.pt (torch, 441819 bytes, 36 tensors)

network_body._body_endoder.seq_layers.0.weight f4 [128, 6]
0	0x3ee4ff17	0.44725868
1	0xbec0197f	-0.37519452
2	0xbe4d0cd9	-0.20024432
3	0xbebda674	-0.37041056
4	0x3d1f895e	0.038949363
5	0xbe48b351	-0.19599654
6	0x3e57683c	0.21035856
7	0xbe630ea4	-0.22173554
8	0xbce7513b	-0.028236976
9	0x3d6f5980	0.058434963
10	0x3e054052	0.13012818
11	0xbeacfb2e	-0.33785385
12	0xbd6063bb	-0.05478261
13	0xbec481fe	-0.38380426
14	0xbdcac84e	-0.09901486
15	0x3e499213	0.19684629
16	0x3f23c1a6	0.6396736
17	0xbd82b758	-0.06382626
18	0x3d1eb3dc	0.038745746
19	0xbe62ff03	-0.22167592
20	0x3edbbe8c	0.42918813
21	0xbea998da	-0.3312443
22	0xbe67044e	-0.22560236
23	0x3e2d4295	0.1691993
24	0xbea6b551	-0.32560208
25	0xbf0591d1	-0.52175623
26	0xbea05dac	-0.31321466
27	0x3e3ff1df	0.1874461
28	0xbcd89947	-0.026440276
29	0xbdee558b	-0.1163741
30	0xbf0f3a56	-0.5594839
31	0x3e73d3fe	0.23811337
32	0x3eb1a57e	0.34696573
33	0x3f074953	0.5284626
34	0xbf67f8a6	-0.9061378
35	0xbe7ca882	-0.24673656
36	0xbea956b6	-0.33073968
37	0xbce16c40	-0.027517438
38	0x3e3170e9	0.17328228
39	0x3e4d33b2	0.20039251
40	0x3f118b39	0.5685306
41	0x3e65e80d	0.22451802
42	0x3f4d88c8	0.80286837
43	0x3e0258b0	0.12729144
44	0x3f1b1b8b	0.605889
45	0xbf9f51e2	-1.2446864
46	0x3f18beeb	0.5966632
47	0xbee3b3ba	-0.44473058
48	0xbf1ec57d	-0.62020093
49	0xbdf0d776	-0.11759846
50	0x3e201ac7	0.15635215
51	0xbebcb00a	-0.36853057
52	0x397d40bb	0.00024152074
53	0xbe45abff	-0.19303893
54	0xbea2d6ca	-0.31804496
55	0xbb19685b	-0.0023408148
56	0xbea2ee3d	-0.31822386
57	0x3dc8d0ba	0.098054364
58	0xbe2a6514	-0.1664012
59	0xbf1e9489	-0.61945397
60	0x3f13096e	0.57436264
61	0xbdf6b569	-0.1204632
62	0x3eb18cf6	0.34677857
63	0x3dfb7aaa	0.12279256
64	0x3e3eb8c6	0.18625173
65	0xbe6dd0ef	-0.23224233
66	0xbed44c5b	-0.41464505
67	0xbe0b2b18	-0.13590658
68	0x3d801631	0.06254233
69	0xbf0febdd	-0.56219274
70	0x3d5da9f2	0.05411715
71	0xbed31e09	-0.41233853
72	0x3ec04339	0.37551287
73	0xbefc8ec8	-0.49327683
74	0x3e4341ad	0.19068022
75	0xbecfb1fe	-0.40565485
76	0xbd86ad58	-0.065760314
77	0x3e7c5c0f	0.24644493
78	0x3f0b3581	0.54378515
79	0xbe7f0a64	-0.24906307
80	0xbda6120e	-0.081089124
81	0xbf0c5651	-0.5481921
82	0xbd84f35c	-0.064917296
83	0x3e718851	0.23587157
84	0xbe071d82	-0.1319485
85	0xbeb81717	-0.35955116
86	0x3e9c7102	0.30554968
87	0x3e2e2f24	0.1701017
88	0xbebd247d	-0.369419
89	0x3b7c4333	0.0038492202
90	0xbf295349	-0.6614271
91	0x3e4f826e	0.20264599
92	0x3f00ceb8	0.5031543
93	0x3e58e610	0.21181512
94	0x3e9a6394	0.30154097
95	0xbd8664e9	-0.06562216
96	0xbd33fb40	-0.043940783
97	0xbee17207	-0.44032308
98	0x3e45c515	0.19313462
99	0x3f2e67eb	0.68127316
100	0xbe478bab	-0.19486873
101	0x3de38cde	0.11110853
102	0xbe922fdd	-0.28552142
103	0xbe11bc30	-0.14231944
104	0xbef5caab	-0.48006186
105	0xbebb6c4b	-0.36606058
106	0xbf00f800	-0.5037842
107	0xbe42e661	-0.19033195
108	0x3f384d44	0.719929
109	0x3eacc84c	0.33746564
110	0x3e5a2a35	0.21305163
111	0xbe943b33	-0.28951415
112	0x3e38bcc5	0.1804076
113	0x3ed69c52	0.41916138
114	0xbe9d8df2	-0.30772358
115	0xbe1c14d1	-0.15242316
116	0xbe8c959c	-0.27457893
117	0xbe719faa	-0.23596063
118	0xbe21bdfa	-0.15795127
119	0xbf1408e7	-0.57826084
120	0x3e023d10	0.12718606
121	0x3e87da25	0.2653362
122	0x3f5ce57c	0.86287665
123	0x3debcfc2	0.11514236
124	0xbf47c929	-0.7804132
125	0xbf03afd8	-0.5144019
126	0xbd3d6ab7	-0.04624435
127	0x3e017456	0.12642035
128	0x3ec5c415	0.3862616
129	0xbdab9125	-0.083772935
130	0x3ead3243	0.3382741
131	0xbd1a8dea	-0.037732996
132	0xbf29bb32	-0.6630126
133	0xbd33da71	-0.043909494
134	0x3bab9051	0.0052357097
135	0xbf46947c	-0.7757032
136	0xbd47f927	-0.048821595
137	0x3e1bce87	0.15215503
138	0x3edafba2	0.42770106
139	0x3f16e4dd	0.5894297
140	0xbea9d686	-0.3317148
141	0x3e89c200	0.26905823
142	0xbee09b46	-0.43868464
143	0xbe127427	-0.14302121
144	0xbf0f89d3	-0.5606968
145	0x3e14dcaf	0.14537309
146	0x3f2ccae5	0.6749709
147	0xbe8a035e	-0.26955694
148	0xbeb977d3	-0.3622423
149	0x3d838763	0.06422307
150	0x3f617445	0.8806804
151	0x3e1d9cf7	0.15391909
152	0x3f21e124	0.6323416
153	0x3ebc61db	0.36793408
154	0x3e97bfc8	0.29638505
155	0x3e4086ab	0.18801372
156	0x3c9db7fe	0.019252773
157	0x3e642e3d	0.22283264
158	0x3e29ae61	0.16570427
159	0x3e0c7351	0.13715865
160	0xbe8aac90	-0.2708478
161	0x3f1a3940	0.60243607
162	0x3e147c18	0.14500463
163	0x3e00c5ef	0.12575506
164	0x3dc6794b	0.096911035
165	0x3d76a9e9	0.060220633
166	0xbea6729e	-0.3250932
167	0x3f0ced1d	0.55049306
168	0x3ef0c38b	0.47024187
169	0x3f75de89	0.96042687
170	0x3e6f1eba	0.23351565
171	0xbe195084	-0.1497212
172	0xbdec8d73	-0.11550417
173	0x3f0ea86b	0.55725735
174	0xbe9e717a	-0.3094595
175	0x3ef3bc07	0.4760439
176	0x3e9c6e64	0.3055297
177	0x3f252ec9	0.64524513
178	0xbdb22fb4	-0.08700505
179	0x3c802627	0.015643192
180	0x3ec25302	0.37953955
181	0x3e7f99bf	0.24960993
182	0x3c0f76d1	0.008756355
183	0xbed2d87c	-0.4118079
184	0xbf49594e	-0.78651893
185	0xbf4a55bb	-0.79037064
186	0xbe930b18	-0.287194
187	0xbdff911d	-0.1247885
188	0x3d964870	0.07338035
189	0x3f1cbf74	0.61229634
190	0x3f63b8d5	0.88953906
191	0xbedbc298	-0.429219
192	0xbf0f8fe0	-0.5607891
193	0xbe9101f7	-0.28321812
194	0xbf1cf837	-0.61316246
195	0x3f2333fb	0.6375119
196	0xbe4a3d8a	-0.19750038
197	0x3dd23984	0.102648765
198	0xbcda8a52	-0.026677284
199	0xbea25899	-0.3170822
200	0x3e486eb3	0.19573478
201	0xbd5eeac9	-0.054423127
202	0xbe84a572	-0.25907475
203	0x3d812362	0.06305577
204	0xbe8f0047	-0.279299
205	0xbe68958a	-0.22713295
206	0xbda5ac56	-0.08089511
207	0xbe228cc9	-0.15874018
208	0xbdbe659d	-0.09296725
209	0x3ebb1f1d	0.36547175
210	0xbe7eff6a	-0.2490212
211	0xbe03f8d0	-0.12887883
212	0x3dede291	0.1161548
213	0x3f0c4b5a	0.5480248
214	0x3f1e81a6	0.6191658
215	0x3eab0bd3	0.3340746
216	0xbf05b8c8	-0.5223508
217	0xbf407129	-0.7517267
218	0x3ea0cd89	0.3140681
219	0xbf009e8e	-0.50241935
220	0xbe1924a9	-0.14955391
221	0x3e2989c6	0.16556463
222	0xbe836399	-0.25661924
223	0x3f4e82f7	0.80668586
224	0xbe39c799	-0.18142547
225	0xbeb041cd	-0.34425202
226	0xbd6c16a3	-0.057638776
227	0xbe43b2fd	-0.19111247
228	0x3dff2c5e	0.12459634
229	0x3e53af13	0.20672254
230	0x3f102ea5	0.56321174
231	0xbd4d6bcc	-0.05015163
232	0x3f159b9f	0.58440584
233	0x3d463db9	0.048398707
234	0xbe0f6705	-0.14004143
235	0x3df450d5	0.1192948
236	0x3efad2a5	0.48988834
237	0xbe2bd8c7	-0.16781913
238	0xbea97492	-0.3309675
239	0xbe7dd164	-0.24786907
240	0x3ec8303f	0.3909931
241	0x3e8ed785	0.27898803
242	0xbf008ae5	-0.50211936
243	0x3e41775c	0.18893188
244	0xbf0a3ae1	-0.5399609
245	0x3e9832f8	0.29726386
246	0xbf3e53a6	-0.7434639
247	0x3ddbcb5f	0.10732149
248	0x3e801174	0.25013316
249	0xbdf11f42	-0.1177354
250	0x3ca929d9	0.020649837
251	0xbeb44b55	-0.35213724
252	0x3d61828c	0.05505614
253	0x3e692e14	0.22771484
254	0x3eefe282	0.468525
255	0xbeb52600	-0.35380554

network_body._body_endoder.seq_layers.0.bias f4 [128]
0	0xbd83305b	-0.064057074
1	0xbdc953ea	-0.098304585
2	0xbd17c302	-0.03705121
3	0xbd969c1a	-0.07353993
4	0xbdf7ebed	-0.12105546
5	0x3d0fb70e	0.035086684
6	0xbdf920a4	-0.12164429
7	0xbd4e9b0e	-0.05044084
8	0xbd057777	-0.032584634
9	0xbd10926e	-0.035295896
10	0x3d32063d	0.04346298
11	0xbe099fd8	-0.13439882
12	0xbc82fa85	-0.015988598
13	0xbd301714	-0.04299076
14	0xbd5065a7	-0.050878193
15	0x3c8f9d99	0.017531203
16	0xbd132e3e	-0.03593277
17	0xbc942998	-0.01808624
18	0xbd3dd348	-0.04634407
19	0xbd6fc801	-0.058540348
20	0xbd119609	-0.035543475
21	0xbd926afe	-0.071493134
22	0xbc91b4d9	-0.01778643
23	0xbd0ab96f	-0.03386825
24	0xbd1c9365	-0.038226504
25	0xbdb5d069	-0.08877642
26	0xbdd5f154	-0.1044642
27	0xbdd3af84	-0.10336211
28	0xbe0c71eb	-0.13715331
29	0xbc26ce1d	-0.010180977
30	0xbcece0c5	-0.028915772
31	0xbd9408b4	-0.072282225
32	0x3cb88c10	0.022527725
33	0xbc6ea78a	-0.014566312
34	0xbde0ac59	-0.10970373
35	0x3b2e647f	0.0026610193
36	0xbe1ba30f	-0.1519892
37	0xbcb65068	-0.022255138
38	0xbd72b272	-0.05925221
39	0xbd1c4ff2	-0.03816218
40	0xbcb3df80	-0.021957159
41	0xbc9b5fcd	-0.01896658
42	0xbe0e672c	-0.13906544
43	0xbc36cc39	-0.011157089
44	0xbdb076bf	-0.08616399
45	0x3d288984	0.04114677
46	0x3d172c60	0.036907554
47	0xbd1e402d	-0.03863542
48	0x3df3f652	0.11912216
49	0x3baede3b	0.0053365505
50	0xbc457147	-0.012050933
51	0x3d6cb1dc	0.057786807
52	0x3cd9b264	0.026574321
53	0x3ccaf3af	0.0247744
54	0xbc7c96d2	-0.015416818
55	0xbce9efd4	-0.028556742
56	0x3ca74020	0.02041632
57	0x3cf86d74	0.030325629
58	0xbc433f17	-0.011916897
59	0x3cd60e46	0.026129853
60	0xbd5bd5ac	-0.05367057
61	0xbdfe05ae	-0.12403427
62	0xbdb256e1	-0.08707977
63	0xbd009c3f	-0.031399008
64	0xbdcec443	-0.10096028
65	0xbd92a51d	-0.07160399
66	0xbcb54775	-0.0221288
67	0x3d8c26f1	0.06843365
68	0x3c3e29fa	0.011606688
69	0xbd131402	-0.035907753
70	0x3d8b5674	0.06803599
71	0xbdbc9564	-0.092081815
72	0x3c26b3d5	0.010174711
73	0xbc0cdc65	-0.008597468
74	0x3c75fd00	0.015013933
75	0xbd0ce65b	-0.03439937
76	0x3db1b33a	0.08676763
77	0x3ca47bcf	0.020078568
78	0x3da876f1	0.08225811
79	0xbc461c91	-0.012091772
80	0x3d2257f4	0.03963466
81	0xbd9f3d17	-0.07775324
82	0x3c8bc8ad	0.017063463
83	0xbdb8b674	-0.09019175
84	0xbc8cd5af	-0.017191736
85	0xbd9ec51d	-0.0775244
86	0xbdd31f29	-0.10308678
87	0x3c0ff730	0.008786961
88	0xbd25aea5	-0.040449757
89	0xbc3ae6cc	-0.011407565
90	0xbd9fd36a	-0.07803996
91	0xbd9b6edc	-0.07589504
92	0xbd3a41b3	-0.045472812
93	0x3cae050f	0.021242647
94	0x3cd19cba	0.025587428
95	0xbc38d010	-0.011280075
96	0xbc05b2d9	-0.008160316
97	0xbc90996f	-0.017651288
98	0xbd5e87eb	-0.05432884
99	0xbe148570	-0.14504027
100	0xbde20f52	-0.11038078
101	0xbd75ccbd	-0.060009707
102	0xbd63aa06	-0.05558207
103	0xbb4d4c01	-0.003132582
104	0xbde7073d	-0.112806775
105	0x3d009829	0.03139511
106	0xbbeff13f	-0.00732246
107	0xbddde475	-0.1083459
108	0xbdd73d18	-0.105096996
109	0xbd595330	-0.05305785
110	0x3cb7c6bc	0.022433631
111	0xbd2ddff9	-0.042449925
112	0xbcecb40e	-0.02889445
113	0x3d15514d	0.036454488
114	0xbd2d0702	-0.04224301
115	0xbd44aa48	-0.048013955
116	0x3d75be90	0.059996188
117	0xbd76be91	-0.060240332
118	0xbb07d7fe	-0.0020728107
119	0xbd4f84e9	-0.050663862
120	0xbe06f1f0	-0.1317823
121	0xbdb729d8	-0.08943528
122	0xbba4296a	-0.0050098198
123	0xbd77c840	-0.060493708
124	0x3bbc91ee	0.005754701
125	0x3c31852e	0.010834975
126	0xbcfcd801	-0.030864717
127	0x3b5180c5	0.0031967622

network_body._body_endoder.seq_layers.2.weight f4 [128, 128]
0	0x3d9ba1c7	0.07599216
1	0xbe45bb07	-0.19309627
2	0xbe2b69f7	-0.16739641
3	0xbd357f8c	-0.04431109
4	0xba9ae9e8	-0.0011818977
5	0xbcc8e45c	-0.024522953
6	0xbd97c7bb	-0.074111424
7	0x3d156bb8	0.03647968
8	0x3dd649f3	0.104633234
9	0x3d1952d2	0.0374325
10	0xbd5b34b8	-0.053517073
11	0xbdb7c43e	-0.08972977
12	0x3e132696	0.14370188
13	0xbda5998a	-0.08085926
14	0x3e540bdf	0.20707653
15	0xbdeb592c	-0.114916176
16	0x3e564114	0.20923263
17	0xbde93ca8	-0.113885224
18	0x3d8256b6	0.06364195
19	0x3c8db898	0.017299935
20	0xbdfcb333	-0.12338867
21	0xbd89a6e6	-0.067212865
22	0x3df0c9ea	0.11757262
23	0xbe4516ac	-0.1924693
24	0x3d141ca9	0.036160145
25	0xbe9c8c11	-0.30575612
26	0x3d8df658	0.06931752
27	0x3d1cbc0b	0.03826527
28	0xbd0622ec	-0.032748148
29	0xbe498c6d	-0.19682474
30	0xbd4af3b5	-0.049548823
31	0xbc6e9fc4	-0.014564458
32	0x3e160924	0.14651924
33	0x3d4e7ca3	0.05041183
34	0xbd3463cf	-0.044040497
35	0xbdd25972	-0.102709666
36	0x3d39518f	0.045243796
37	0x3e271672	0.16317156
38	0xbe816157	-0.25269577
39	0x3def7ae9	0.11693365
40	0x3da2e5a5	0.079539575
41	0xbdaa4af3	-0.08315077
42	0xbdd0b95f	-0.10191607
43	0xbc675551	-0.014119462
44	0xbdd7f5c0	-0.1054492
45	0x3db12c1a	0.0865099
46	0xbea48e55	-0.3213984
47	0x3c14a4e3	0.009072515
48	0x3cdaf8e8	0.026730016
49	0xbe42e5ed	-0.19033022
50	0xbd953f6c	-0.072874874
51	0xbddfc239	-0.10925717
52	0xbe2af443	-0.16694741
53	0x3d95eb9a	0.07320328
54	0x3d5fe8c7	0.054665353
55	0xbd217e8d	-0.03942733
56	0xbd17e6cc	-0.03708534
57	0x3e300ee5	0.17193182
58	0xbd991717	-0.07475107
59	0xbe462a40	-0.19352055
60	0x3ccda924	0.025105067
61	0xb9ff15d3	-0.0004865365
62	0x3db032f7	0.08603471
63	0x3daed008	0.085357726
64	0xbe48678e	-0.19570753
65	0xbd1e00b3	-0.038574886
66	0xbd0a0e2f	-0.033704933
67	0xbe0b5d2b	-0.1360976
68	0xbe0bb2d9	-0.13642444
69	0xbecbf088	-0.39831948
70	0x3d2250e0	0.03962791
71	0xbd8608bd	-0.065446354
72	0x3d9b41a5	0.0758088
73	0xbe2f69e1	-0.17130233
74	0xbd4a70f7	-0.049424138
75	0xbe01a2a7	-0.12659703
76	0xbad66ae0	-0.0016358756
77	0xbdaa95cf	-0.08329355
78	0x3d9d2eb8	0.076749265
79	0x3cf6ccc4	0.030126937
80	0x3da0bd3a	0.07848592
81	0xbdab0ac4	-0.08351663
82	0xbe1b61d7	-0.15174042
83	0xbe3f9c26	-0.1871191
84	0x3cb02392	0.021501336
85	0xbd70bc2a	-0.058773197
86	0x3d738543	0.05945326
87	0xbdc74a87	-0.09731012
88	0xbe075c68	-0.13218844
89	0xbcfa85fb	-0.030581465
90	0xbc57de82	-0.013175609
91	0x3c3f6e80	0.01168406
92	0xbd805d97	-0.06267851
93	0xbd34f95c	-0.04418312
94	0xbc7eb2f0	-0.015545592
95	0xbe155d35	-0.14586337
96	0xbebba7b0	-0.36651373
97	0xbdf83a16	-0.12120454
98	0x3d0843c4	0.03326775
99	0x3c9f3302	0.019433502
100	0xbe15ffe8	-0.14648402
101	0xbe050f49	-0.12994112
102	0x3dc6fa11	0.09715665
103	0xbdcfd229	-0.10147507
104	0x3e84c758	0.25933337
105	0xbd9d84a9	-0.076913185
106	0xbda91f00	-0.08257866
107	0xbdd44cb8	-0.103661954
108	0xbda8bf15	-0.08239571
109	0xbe4753f8	-0.19465625
110	0xbe21fbd7	-0.15818726
111	0xbdd64db1	-0.10464037
112	0x3d8103e0	0.06299567
113	0x3ba3687b	0.0049868203
114	0x3db70693	0.08936801
115	0xbe7034bf	-0.23457621
116	0x3d1b016e	0.03784316
117	0xbd4a3169	-0.049363527
118	0xbd91e365	-0.0712345
119	0xbd8bf603	-0.068340324
120	0xbea788ae	-0.32721466
121	0xbe493d68	-0.19652331
122	0x3ca01d2f	0.019545166
123	0xbd930c99	-0.07180137
124	0xbd19918b	-0.037492316
125	0x3c54ab04	0.012980226
126	0x3d89d16b	0.067293964
127	0x3e2bb94e	0.16769907
128	0x3e2c8b08	0.16849911
129	0x3c8dafb7	0.017295701
130	0xbc71c309	-0.014755973
131	0x3e0a539a	0.13508454
132	0xbd8e7107	-0.06955152
133	0x3dc504b4	0.09620038
134	0xbe364aee	-0.17802021
135	0xbba093c1	-0.004900426
136	0x3df80e82	0.12112142
137	0xbe33e96a	-0.17569509
138	0x3d9c54a8	0.076333344
139	0x3d76d279	0.060259316
140	0xbe0629a5	-0.13101824
141	0x3e07ec82	0.13273814
142	0x3d538ed7	0.051649895
143	0x3ccf8eac	0.025336586
144	0x3dad2ee8	0.08456212
145	0xbe2cc5d4	-0.1687234
146	0xbd93dd58	-0.07219952
147	0x3d455971	0.048181
148	0x3e00ff09	0.12597288
149	0xbdcfb2dc	-0.101415366
150	0xbd962994	-0.07332149
151	0xbca62e7c	-0.020285837
152	0x3cb04a53	0.021519816
153	0x3d8edc73	0.06975641
154	0xbdf3cc9f	-0.11904263
155	0x3d009f5e	0.031401984
156	0xbdbeb85f	-0.0931251
157	0xbde14f84	-0.110014945
158	0x3c5f9db9	0.013648444
159	0xbe32cda1	-0.17461254
160	0xbe0f4cad	-0.13994093
161	0x3dee7208	0.116428435
162	0x3c0add98	0.008475684
163	0xbe486ed7	-0.19573532
164	0xbc66b36e	-0.014080865
165	0x3c108866	0.008821582
166	0xbdab0b41	-0.08351756
167	0x3dfbe127	0.12298804
168	0x3de505a0	0.111827135
169	0xbcaa3f97	-0.020782275
170	0x3cab8419	0.020937013
171	0xbe14bf54	-0.14526111
172	0x3c77ff37	0.015136532
173	0x3ca44449	0.020052092
174	0x3d8280b5	0.06372205
175	0xbd16eab2	-0.036844917
176	0xbe4f9997	-0.20273434
177	0xbb02a9af	-0.0019937565
178	0xbc42907e	-0.01187527
179	0xbccd6431	-0.025072189
180	0xbe0061b6	-0.12537274
181	0x3df6cf84	0.12051299
182	0xbe870c25	-0.26376453
183	0xbd82394c	-0.06358585
184	0xbc925d9c	-0.017866902
185	0x3c08419d	0.008316425
186	0xbd4d610d	-0.050141383
187	0xbe253a99	-0.16135634
188	0x3d74963e	0.059713595
189	0x3e00ea68	0.12589419
190	0xbe584c5c	-0.21122879
191	0x3cfabc32	0.030607317
192	0xbe2efd55	-0.17088826
193	0x3ddaa105	0.10675243
194	0xbdb18e4d	-0.0866972
195	0xbd9004e7	-0.07032185
196	0xbd3e33fb	-0.04643629
197	0xbe28a503	-0.16469197
198	0xbcfa8444	-0.030580647
199	0xbd6eb7d5	-0.058280785
200	0x3dd6fb64	0.10497168
201	0xbcac5dd6	-0.021040838
202	0x3e03fc30	0.1288917
203	0x3d950636	0.07276575
204	0x3e748e2b	0.23882358
205	0xbc29c7c8	-0.010362573
206	0xbe4ca427	-0.19984494
207	0x3e09996b	0.1343743
208	0x3db7fd14	0.08983818
209	0x3d954b70	0.07289779
210	0xbd9e417d	-0.07727335
211	0xbd78c9e1	-0.0607394
212	0x3d1a2999	0.037637327
213	0x3bcf7778	0.0063313805
214	0xbaa68bfd	-0.0012706515
215	0xbe031fc1	-0.12805082
216	0x3de85321	0.113439806
217	0x3d3ec6e4	0.046576396
218	0x3d4bdee7	0.049773123
219	0x3e39aa1e	0.18131301
220	0x3d09c3d0	0.033634007
221	0x3dae8889	0.08522136
222	0xbc84eac2	-0.016225222
223	0xbd620adb	-0.055186134
224	0x3ddf9ceb	0.109186016
225	0xbe42da5f	-0.19028614
226	0xbe089535	-0.13338168
227	0x3cc6d92e	0.024273481
228	0xbdfa2c61	-0.12215496
229	0xbd792d6e	-0.06083434
230	0xbe0ebb23	-0.13938574
231	0xbdfc4dc5	-0.12319521
232	0x3ca5f4bd	0.020258302
233	0x3cd4c2c2	0.025971774
234	0xbdac3d41	-0.08410121
235	0xbd803be8	-0.06261426
236	0x3e1f0bcd	0.15531845
237	0x3daae8f2	0.08345212
238	0x3d3dc097	0.046326246
239	0xbe689198	-0.2271179
240	0xbd9e594a	-0.07731874
241	0xbd57223e	-0.05252289
242	0xbe231e39	-0.15929498
243	0x3dcd7085	0.10031227
244	0x3b8e7d6b	0.004348447
245	0x3e359815	0.17733796
246	0xbd496f0e	-0.049178176
247	0xbe4388ca	-0.1909515
248	0xbda46cc8	-0.08028561
249	0xbe5511ce	-0.20807573
250	0xbdff2c6c	-0.12459645
251	0x3d9d2585	0.07673172
252	0xbe42626f	-0.18982862
253	0x3e12c613	0.14333372
254	0x3e167cdb	0.14696066
255	0x3cb84551	0.02249399

network_body._body_endoder.seq_layers.2.bias f4 [128]
0	0xbe35d690	-0.1775763
1	0xbcfd7cc4	-0.030943282
2	0xbd3d0e13	-0.046156
3	0xbd779e49	-0.060453687
4	0xbd47b9e0	-0.04876125
5	0xbd4549f0	-0.048166215
6	0xbdcfe1cb	-0.101504885
7	0xbdbd1c89	-0.09233958
8	0xbda1a36c	-0.078924984
9	0xbd507d49	-0.05090073
10	0xbd8b1934	-0.067919165
11	0xbdb2e387	-0.08734804
12	0xbce8ec5f	-0.028433023
13	0xbda45e3b	-0.080257855
14	0xbd9f547c	-0.07779786
15	0xbd5999a3	-0.053125035
16	0xbdbae5e7	-0.09125882
17	0xbcec649c	-0.028856568
18	0xbd77a71a	-0.060462095
19	0x3b4d71cb	0.0031348343
20	0xbb544210	-0.003238801
21	0xbded2871	-0.11579979
22	0x3c9b57de	0.018962797
23	0xbde571b7	-0.1120333
24	0xbdc6d358	-0.09708279
25	0xbddd059a	-0.10792084
26	0xbc9890e9	-0.018623786
27	0xbdd00c55	-0.10158602
28	0xba0c2462	-0.00053459976
29	0xbd223311	-0.039599482
30	0xbc2b03a8	-0.010437883
31	0xbc98c54c	-0.018648766
32	0xbdbe8bd9	-0.093040176
33	0xbb8439f6	-0.00403523
34	0xbdda28f7	-0.10652345
35	0xbd5df104	-0.05418493
36	0xbe18e3c1	-0.14930631
37	0xbdac8b22	-0.08424975
38	0xbe2e433c	-0.17017835
39	0xbd86e121	-0.06585909
40	0xbe2bab35	-0.16764529
41	0xbd4c82bb	-0.04992936
42	0xbce3c21e	-0.027802523
43	0xbd1ddbdb	-0.03853975
44	0xbdc1c5ab	-0.0946153
45	0xbdbc7085	-0.09201149
46	0xbb3cc682	-0.0028804843
47	0xbd6f1a7b	-0.058374863
48	0xbd55702c	-0.05210893
49	0xbd9c5525	-0.076334275
50	0xbdd9f24d	-0.10641918
51	0xbcdc13bc	-0.026864879
52	0xbe10aee6	-0.14129218
53	0xbe008b34	-0.12553102
54	0xbdb024b7	-0.08600753
55	0x3a89b394	0.0010505789
56	0xbdd2e571	-0.10297669
57	0xbd7eca8f	-0.062204894
58	0xbd9c37ef	-0.07627856
59	0xbd8e028c	-0.069340795
60	0xbd5ed47e	-0.054401867
61	0xbcb538b5	-0.022121767
62	0xbdbf8582	-0.093516365
63	0xbd8f71a3	-0.07004096
64	0xbd7c1f7b	-0.06155346
65	0x3cdba551	0.026812227
66	0xbd90e717	-0.07075327
67	0xbd587cb6	-0.05285331
68	0xbde557a2	-0.11198355
69	0xbdf260a6	-0.118348405
70	0xbda429ae	-0.08015762
71	0xbd6b91cc	-0.05751209
72	0xbd592610	-0.053014815
73	0xbdf467e6	-0.119338796
74	0xbd17f456	-0.03709825
75	0xbdf966b1	-0.1217779
76	0xbd1c9a1d	-0.03823291
77	0xbd3799f2	-0.044824548
78	0xbcdce0ae	-0.026962604
79	0x3cd98092	0.026550565
80	0xbd5c40ab	-0.05377261
81	0xbc0aa8bb	-0.00846308
82	0xbda0dc97	-0.07854574
83	0xbdbcafb7	-0.092132024
84	0xbd2ace54	-0.041700676
85	0xbe0028b2	-0.12515524
86	0xbcf5f730	-0.030025095
87	0xbd714999	-0.05890808
88	0xbd540288	-0.051760226
89	0xbd8090d7	-0.06277626
90	0xbdb81daf	-0.08990037
91	0xbdf31ce6	-0.11870746
92	0xbd9625ae	-0.073314056
93	0xbdb4daf6	-0.08830826
94	0xbdb5ea6b	-0.08882602
95	0xbd1abab9	-0.03777573
96	0xbd875346	-0.0660768
97	0xbda9c93f	-0.08290338
98	0xbd9622ee	-0.07330881
99	0xbd50f558	-0.051015228
100	0xbdb03cb2	-0.08605327
101	0xbdadd1e9	-0.08487303
102	0xbdbea8b1	-0.09309519
103	0xbce97cfc	-0.02850198
104	0xbcfcd074	-0.030861117
105	0xbdc7a635	-0.09748498
106	0x3c71f912	0.014768856
107	0xbd437930	-0.047722995
108	0xbc98cb7d	-0.018651718
109	0xbd0127dd	-0.031532157
110	0xbddd919d	-0.10818789
111	0xbd8166e9	-0.06318457
112	0xbde66597	-0.112498455
113	0xbd8d511c	-0.06900236
114	0xbcd16291	-0.025559695
115	0xbd74c02f	-0.059753593
116	0xbc0d54f8	-0.008626215
117	0xbd8d59e8	-0.06901914
118	0xbcac61b2	-0.021042679
119	0xbd980dce	-0.07424508
120	0xbdbf980b	-0.09355172
121	0xbd900131	-0.07031477
122	0xbcbcf85b	-0.023067644
123	0xbde1d771	-0.1102742
124	0xbd28e2c9	-0.041231904
125	0xbdcddfbc	-0.100524396
126	0xbdf43ef8	-0.11926073
127	0xbd53e4f2	-0.05173201

action_model._continuous_distribution.log_sigma f4 [1, 2]
0	0xbee98fb4	-0.4561745
1	0xbee827c8	-0.4534285

action_model._continuous_distribution.mu.weight f4 [2, 128]
0	0x3cc15100	0.023598194
1	0xbad8fbc1	-0.0016554521
2	0xbc7b54c2	-0.015340032
3	0xbd2bac3e	-0.04191231
4	0xbb9f597e	-0.004862963
5	0xbd1232a8	-0.03569284
6	0x3caa828e	0.020814206
7	0xbc861a5a	-0.016369987
8	0xbcb638bf	-0.022243856
9	0x3c53067b	0.012879963
10	0xbd121a91	-0.035669867
11	0xbb254943	-0.002522067
12	0xbd872c5e	-0.06600259
13	0xbd211dd0	-0.039335072
14	0x3cee3f8b	0.029083034
15	0xbd92489b	-0.07142755
16	0xbcfb3094	-0.030662812
17	0xbd907559	-0.07053632
18	0xbb1bfc40	-0.0023801476
19	0x3c939c71	0.018018933
20	0xbd49b550	-0.04924518
21	0x3c2d6b11	0.010584609
22	0xbd3ff0d7	-0.046860542
23	0xbd00d5f0	-0.031454027
24	0xbc4427ad	-0.01197235
25	0xbd97126d	-0.07376561
26	0xbbbeda08	-0.005824331
27	0xbd00f7bf	-0.03148627
28	0xbd5d3af4	-0.0540113
29	0x3c78c6d1	0.01518412
30	0xbdac3b59	-0.08409757
31	0xbd8541d6	-0.06506698
32	0xbb295b33	-0.0025841712
33	0x3d0feb15	0.0351363
34	0xbc64f9fa	-0.013975615
35	0x3c17cc78	0.009265058
36	0xbc35c5ae	-0.011094494
37	0xbcb88efa	-0.022529114
38	0xbc8d1fb8	-0.017227039
39	0xbcea2614	-0.02858261
40	0x3c0ca17e	0.008583425
41	0xbc9a6356	-0.018846195
42	0xbd8d2867	-0.06892472
43	0xbd40cf2e	-0.047072582
44	0xbcb7e685	-0.022448787
45	0xbce2f673	-0.027705407
46	0xbc0e2142	-0.0086749215
47	0xbd142086	-0.03616383
48	0xbb78b499	-0.0037949441
49	0xbd198d9b	-0.03748856
50	0xbc4bc4c0	-0.012437046
51	0xbd425959	-0.04744849
52	0x3bd499fb	0.0064880825
53	0xbd1ae7d6	-0.037818752
54	0xbc7abc7b	-0.015303726
55	0x3ca6e159	0.020371126
56	0xbd3aecd7	-0.045636024
57	0xbcc01080	-0.023445368
58	0xbc338e1c	-0.0109591745
59	0xbcabb2ad	-0.020959223
60	0xbd5e3db7	-0.054258075
61	0xbc1700c5	-0.009216492
62	0xbc838ab5	-0.016057352
63	0xbd4df930	-0.05028647
64	0x3b3bb772	0.0028643277
65	0x3d4df6c8	0.050284177
66	0xbc047274	-0.008083928
67	0x3d02c768	0.03192845
68	0xbcba18e1	-0.022716941
69	0xbca6f48f	-0.020380286
70	0xbd2801e5	-0.04101743
71	0xbd273de2	-0.0408305
72	0xbd878bbb	-0.06618448
73	0xbccc889c	-0.024967484
74	0xbba804bc	-0.0051275175
75	0xbb8d07b3	-0.0043038963
76	0xbc47bc8d	-0.01219095
77	0xbd8fb833	-0.07017555
78	0xbcd79b53	-0.026319182
79	0x3c8c3510	0.017115146
80	0xbcf31c84	-0.029676683
81	0xbcbc70e9	-0.023003059
82	0xbcb22404	-0.02174569
83	0xbc8a6600	-0.01689434
84	0xbd70278f	-0.058631476
85	0xbb7a099d	-0.0038152703
86	0x3d047454	0.0323375
87	0x3c67d8f7	0.01415085
88	0xbd3e55a6	-0.0464684
89	0xbd880301	-0.06641198
90	0xbc13a81a	-0.0090122465
91	0xbc38b501	-0.011273623
92	0xbd1cc3fa	-0.038272835
93	0xbce73779	-0.028224694
94	0xbcccd5f0	-0.025004357
95	0xbd839e74	-0.06426707
96	0xbcf8e694	-0.030383386
97	0xbc850184	-0.016236074
98	0xbbc11538	-0.005892422
99	0x3a4245f7	0.0007410938
100	0xbd18ee9d	-0.037336934
101	0xbc7014ae	-0.014653368
102	0xbd80cccb	-0.06289061
103	0xbd0e6086	-0.03476002
104	0xbcefa844	-0.02925504
105	0x3c8b40c0	0.016998649
106	0x3d88dbe5	0.066825666
107	0xbd532350	-0.05154735
108	0x3ca06f24	0.019584246
109	0xbd951186	-0.07278733
110	0xbd15d258	-0.036577553
111	0xbcd7fa2c	-0.026364408
112	0xbbb4b334	-0.0055145267
113	0xbc869614	-0.016428985
114	0xbd99d52d	-0.07511363
115	0xbd6f8e21	-0.058485154
116	0xbd7f4d0c	-0.062329337
117	0xbcfc1743	-0.03077281
118	0xbca8adf0	-0.020590752
119	0xbcb3fe4f	-0.02197185
120	0x3a27cfeb	0.00064015266
121	0xbd36f2ce	-0.04466515
122	0xbd0e4de4	-0.03474225
123	0xbc65f5d4	-0.014035661
124	0xbd6fd2da	-0.058550693
125	0xbd45ba94	-0.048273638
126	0xbc309a89	-0.010779032
127	0xbd4fdb39	-0.050746176
128	0xbc4a1764	-0.012334678
129	0xbd396901	-0.045266155
130	0xbce75edc	-0.028243475
131	0xbc3f797a	-0.011686677
132	0xbce4a691	-0.027911456
133	0xbc8fd0d8	-0.01755564
134	0xbca19324	-0.019723482
135	0xbca9ce36	-0.020728212
136	0x3c8c7e5a	0.017150093
137	0xbd8a8944	-0.067644626
138	0xbd091a08	-0.03347209
139	0x3d31a0ce	0.043366246
140	0xbd227a20	-0.03966725
141	0xbb8e0f93	-0.0043353527
142	0xbcbb1f5a	-0.022842098
143	0xbc1aba0c	-0.009443771
144	0xb9e081d0	-0.00042821327
145	0xbbf2b107	-0.007406357
146	0xbd8dd69a	-0.069256976
147	0x3a3a6b78	0.0007111351
148	0x3c11a498	0.00888934
149	0xbcd4b730	-0.025966257
150	0x3ce6e805	0.028186807
151	0x3c933381	0.017968895
152	0xbcbb20b1	-0.022842737
153	0xbcff63ee	-0.03117558
154	0x3bf0907e	0.0073414436
155	0x3b977d74	0.0046231095
156	0xbd849e8a	-0.064755514
157	0xbd47285c	-0.048622474
158	0x3ca375e2	0.019953672
159	0xbd887a8d	-0.06664
160	0x3ce82fe0	0.028343141
161	0xbb4f0213	-0.003158693
162	0xbcfc4fc5	-0.030799756
163	0xbd819d1c	-0.06328794
164	0x3bbaa7f5	0.0056962916
165	0xbc5686ce	-0.013093663
166	0xbb83aaa6	-0.0040181456
167	0x3cbdb047	0.023155345
168	0xbc86f971	-0.016476365
169	0xbc334dc2	-0.010943832
170	0xbd148803	-0.036262523
171	0xba9bf730	-0.0011899229
172	0xbd09fed0	-0.033690274
173	0xbd32104f	-0.043472584
174	0x3d550fc5	0.052016992
175	0xbd25a291	-0.04043824
176	0x3d3fd405	0.046833057
177	0x3be62231	0.007023119
178	0x3b6cbc0e	0.0036122832
179	0xbc9f0bc5	-0.019414792
180	0xbcbc6e7c	-0.023001902
181	0x3c759de0	0.014991254
182	0xbc8c2a94	-0.017110147
183	0x3d27870e	0.040900283
184	0x3c0ad37f	0.008473276
185	0xbc981144	-0.01856292
186	0xbc84519d	-0.016152197
187	0xbc73f4ee	-0.014889939
188	0xbc16f58b	-0.009213815
189	0x3d60c6ea	0.0548772
190	0xbd01975f	-0.0316385
191	0xba1000b1	-0.0005493267
192	0xbd92c44c	-0.07166347
193	0x3b1e4927	0.002415249
194	0xbcbc0a4d	-0.02295413
195	0xbb98b2b0	-0.004659973
196	0xbd15561d	-0.036459077
197	0xbc32a6c4	-0.010904018
198	0x3bbd5a55	0.0057785907
199	0xbd0b3a30	-0.03399104
200	0xbc873d0a	-0.016508598
201	0x3b4220be	0.0029621567
202	0x3af8631e	0.0018950438
203	0xbb865c56	-0.004100363
204	0xbd583d24	-0.052792683
205	0x3a488bbd	0.0007650217
206	0xbd8babbe	-0.068198666
207	0xbac34b5c	-0.0014899778
208	0xbd471e69	-0.048612986
209	0x3cc0156a	0.023447711
210	0xbb6c7353	-0.003607948
211	0xbbfda6eb	-0.0077408454
212	0x3c0c714e	0.008571936
213	0xbc95b602	-0.018275265
214	0xbc7d1a41	-0.015448154
215	0x3cff7a46	0.031186234
216	0xbb1eb645	-0.0024217528
217	0x3c8c4205	0.017121324
218	0xbd09d33d	-0.03364872
219	0xbc8b7882	-0.017025236
220	0xbc6e4bd6	-0.014544448
221	0xbb9e90a8	-0.0048390217
222	0x3ca9552d	0.020670498
223	0xbcd38c70	-0.025823802
224	0xbc5f03a2	-0.013611706
225	0xbcbf6a57	-0.023366136
226	0x3c182b74	0.009287704
227	0xbca09191	-0.019600661
228	0x3b8e259b	0.004337979
229	0x3b0fc4f3	0.002193746
230	0xbcf9d581	-0.030497314
231	0x3da04116	0.07824914
232	0xbd8a0e57	-0.06741016
233	0xbba30564	-0.004975008
234	0x3b7c1614	0.0038465308
235	0xbd07c233	-0.033144187
236	0x3d2b4e2a	0.04182259
237	0xbd31fcb3	-0.043453883
238	0x3c1dc5ca	0.009629676
239	0xbc535968	-0.012899734
240	0xbb735b09	-0.0037133119
241	0xbc274efa	-0.010211701
242	0xbb89430d	-0.0041889013
243	0xbc7481c8	-0.01492352
244	0x3ba80bef	0.0051283757
245	0xbba4306a	-0.005010654
246	0xbd2f02e1	-0.042727355
247	0xbc96863e	-0.018374559
248	0xbd22b089	-0.03971914
249	0xbd1fdda7	-0.039029744
250	0x3ce56d5a	0.028006244
251	0x3c131b59	0.008978688
252	0x3c8ea7a4	0.017413922
253	0xbc660f62	-0.0140417535
254	0xbd00feb0	-0.03149289
255	0x3c34c713	0.011033791

action_model._continuous_distribution.mu.bias f4 [2]
0	0x3cf1a90f	0.029499559
1	0xbd326ee0	-0.04356277

exp_avg f4 [128, 6]
0	0x3b04175f	0.0020155532
1	0x3ab85b80	0.0014065355
2	0xbabb3426	-0.0014282509
3	0x3ad94284	0.0016575609
4	0x3ab84a0a	0.0014060151
5	0x3ab5aaf7	0.0013860156
6	0x3aed37d1	0.00180983
7	0x3abd8c68	0.00144614
8	0xbb26aa04	-0.0025430927
9	0x3ab51e26	0.0013818189
10	0x3abd70b5	0.0014453145
11	0x3aeb7cc7	0.0017966264
12	0xbbd0e534	-0.0063749794
13	0xbb9b989a	-0.004748416
14	0x3bd64547	0.00653902
15	0xbba3eace	-0.005002356
16	0xbb9b862c	-0.004746219
17	0xbba6e22c	-0.0050928798
18	0xb9065a86	-0.00012812958
19	0xb876d0b2	-5.8845333e-05
20	0xb8f0c71f	-0.00011481181
21	0xb90ee56e	-0.00013627645
22	0xb876ddb8	-5.8857462e-05
23	0xb78af3cd	-1.656441e-05
24	0xb8952d34	-7.1132934e-05
25	0xb8834a58	-6.2604144e-05
26	0x38d8b798	0.000103338796
27	0xb854df89	-5.0752922e-05
28	0xb8833ac2	-6.257511e-05
29	0xb8811e2b	-6.1568186e-05
30	0xb7266457	-9.917733e-06
31	0xb812db3f	-3.50133e-05
32	0x38f79952	0.00011806436
33	0x35bfa358	1.4278148e-06
34	0xb812b59d	-3.4978253e-05
35	0xb8038888	-3.135999e-05
36	0xbbb73f7c	-0.0055922847
37	0xbb8cbe60	-0.0042951554
38	0x3bd0a7b0	0.006367646
39	0xbb8eda0e	-0.0043594902
40	0xbb8cacfd	-0.0042930827
41	0xbb998d84	-0.0046860594
42	0xbac98762	-0.001537543
43	0xba6d9ed2	-0.00090644986
44	0xb8e2b290	-0.000108097796
45	0xbac2db74	-0.0014866428
46	0xba6d9595	-0.0009063122
47	0xba18c202	-0.0005827249
48	0x36c0dedf	5.7479915e-06
49	0x365200ed	3.1292977e-06
50	0xb65fb976	-3.3337542e-06
51	0x36acc270	5.148635e-06
52	0x3651e813	3.1278512e-06
53	0x36949e87	4.4291987e-06
54	0x39177d33	0.00014447123
55	0x38f12de0	0.000115003204
56	0xb96b57a9	-0.00022444002
57	0x38d0222c	9.924578e-05
58	0x38f10b72	0.000114939074
59	0x391de142	0.00015056602
60	0x3b9b206c	0.0047340896
61	0x3b69093e	0.0035558487
62	0xbbc62538	-0.0060469173
63	0x3b6ecbfc	0.0036437502
64	0x3b68e90e	0.0035539302
65	0x3b918e9b	0.0044420487
66	0xb7a590ee	-1.9737021e-05
67	0xb772da96	-1.44752175e-05
68	0x3780c396	1.5349866e-05
69	0xb787dcc3	-1.6196054e-05
70	0xb772c31e	-1.4469753e-05
71	0xb7657c90	-1.3678466e-05
72	0xba20f22c	-0.0006139602
73	0xb9c6287a	-0.0003779566
74	0x3992ad5f	0.00027976462
75	0xba061514	-0.0005114835
76	0xb9c619dc	-0.0003778477
77	0xb9da9b0b	-0.00041695716
78	0x3b41261a	0.0029472173
79	0x3b115b42	0.0022179638
80	0xbb3b696f	-0.002859678
81	0x3b1b3cea	0.002368743
82	0x3b114ab4	0.002216977
83	0x3b14631c	0.0022642082
84	0x388892a8	6.512302e-05
85	0x383d9efe	4.5209184e-05
86	0xb8236814	-3.895916e-05
87	0x3871efad	5.7682093e-05
88	0x383d8d80	4.5192894e-05
89	0x383043d0	4.2024825e-05
90	0x3b2bcfd6	0.002621641
91	0x3acc13b9	0.0015569843
92	0x3a0b1ccc	0.000530672
93	0x3b2c1502	0.0026257639
94	0x3acc0cf3	0.0015567824
95	0x3a45e809	0.00075495295
96	0x3b34f2de	0.002761058
97	0x3aede16d	0.0018148847
98	0xbabf5d01	-0.0014599861
99	0x3b167058	0.0022955146
100	0x3aedcd10	0.0018142778
101	0x3ae7dcdb	0.0017689721
102	0xb8885e7a	-6.502583e-05
103	0xb847bc51	-4.762068e-05
104	0x385f7038	5.3271855e-05
105	0xb85a99fc	-5.211866e-05
106	0xb847a8b6	-4.760242e-05
107	0xb84215e9	-4.627361e-05
108	0xba9adcbe	-0.0011815054
109	0xba73adfc	-0.000929564
110	0x3aa58eba	0.0012631037
111	0xba5d1d86	-0.00084348803
112	0xba73960d	-0.00092920737
113	0xba6f0e9e	-0.00091193046
114	0xb907d3bf	-0.00012953485
115	0xb8c769d3	-9.508771e-05
116	0x38f36248	0.00011605449
117	0xb8d69362	-0.000102317674
118	0xb8c75558	-9.504956e-05
119	0xb8cbcdd9	-9.7181364e-05
120	0xb7630480	-1.3531302e-05
121	0xb6a4d4e0	-4.912363e-06
122	0xb7f1f7b0	-2.8844777e-05
123	0xb8057390	-3.1817297e-05
124	0xb6a4fb80	-4.9168593e-06
125	0xb7ba20ec	-2.2188258e-05
126	0xb95cebda	-0.00021068697
127	0xba0817e5	-0.0005191549
128	0x3ad2f160	0.0016093664
129	0xb90f9a04	-0.00013694918
130	0xba07f5a2	-0.00051864434
131	0xb9f19dd1	-0.00046084684
132	0xb77e27fc	-1.5148889e-05
133	0xb74658ec	-1.1822423e-05
134	0x376ff79c	1.4303161e-05
135	0xb744aed6	-1.17232175e-05
136	0xb74645b8	-1.1817952e-05
137	0xb73ac915	-1.1133282e-05
138	0x3aff9f80	0.0019502491
139	0x3a849e39	0.0010117955
140	0x3a242c88	0.0006262739
141	0x3b002e9c	0.0019559031
142	0x3a849b02	0.0010116997
143	0x3a384d87	0.00070305954
144	0xb8254d20	-3.9410894e-05
145	0xb7c1af0d	-2.3088907e-05
146	0xb793d902	-1.7624818e-05
147	0xb839aba5	-4.4267294e-05
148	0xb7c1abc2	-2.3087374e-05
149	0xb741048b	-1.1504754e-05
150	0x3b8ba0ee	0.0042611277
151	0x3b57854e	0.0032885852
152	0xbb97ea66	-0.004636097
153	0x3b5bbecd	0.0033530474
154	0x3b576c1c	0.0032870835
155	0x3b643034	0.003481877
156	0x3b899a88	0.0041993298
157	0x3b54f594	0.0032495009
158	0xbba0ad37	-0.0049034613
159	0x3b4a0395	0.003082489
160	0x3b54dd38	0.003248049
161	0x3b67e19c	0.0035382276
162	0x3ba99c8e	0.0051761335
163	0x3b799df8	0.0038088541
164	0xbb8d3035	-0.0043087252
165	0x3b89630f	0.004192717
166	0x3b798470	0.0038073324
167	0x3b6b33e6	0.0035889088
168	0x3b3ffb24	0.0029293979
169	0x3b0bdff5	0.0021343206
170	0xbb0c6435	-0.0021422033
171	0x3b1e51cc	0.0024157641
172	0x3b0bd2a1	0.0021335261
173	0x3afbd3d0	0.0019212905
174	0xbbd9299c	-0.0066272747
175	0xbbac75b4	-0.0052630547
176	0x3be476b4	0.0069721583
177	0xbbaaf820	-0.005217567
178	0xbbac627a	-0.0052607628
179	0xbba50f72	-0.0050372416
180	0xb89b18bb	-7.395582e-05
181	0xb85c4728	-5.2518357e-05
182	0x3880a401	6.134064e-05
183	0xb87510d4	-5.8428224e-05
184	0xb85c312a	-5.2497875e-05
185	0xb85f908a	-5.3301956e-05
186	0xbb590038	-0.0033111703
187	0xbb3edf1a	-0.0029124678
188	0x3bb0025b	0.0053713745
189	0xbb1b0093	-0.0023651465
190	0xbb3ec404	-0.0029108534
191	0xbb496a58	-0.0030733552
192	0xbaea457f	-0.0017873495
193	0xbab4586e	-0.0013759264
194	0x3acfeb74	0.0015863017
195	0xbab56688	-0.0013839761
196	0xbab4477e	-0.0013754216
197	0xbaa25219	-0.0012384086
198	0x37e9d34e	2.787416e-05
199	0x38034c2a	3.1303767e-05
200	0xb901d403	-0.00012381379
201	0x36eabeb8	6.995946e-06
202	0x38032a0e	3.1272e-05
203	0x3880ce57	6.1419494e-05
204	0xb97affb1	-0.0002393711
205	0xb92b9b08	-0.00016365584
206	0x393e17a3	0.00018128617
207	0xb9564c68	-0.00020437094
208	0xb92b8770	-0.00016358285
209	0xb93c3fd0	-0.00017952849
210	0xba04ad49	-0.0005061222
211	0xb9ac9b90	-0.000329223
212	0xb7e33310	-2.7084287e-05
213	0xb9f7242a	-0.00047138456
214	0xb9ac98ba	-0.00032920187
215	0xb918bde2	-0.00014566586
216	0xb53133ba	-6.601291e-07
217	0xb5066433	-5.00647e-07
218	0x34b5db71	3.3873542e-07
219	0xb508f36b	-5.101817e-07
220	0xb5065d5d	-5.005475e-07
221	0xb4c45430	-3.65691e-07
222	0xbbb35cf3	-0.005473727
223	0xbb784a75	-0.0037886177
224	0x3b82d258	0.00399236
225	0xbb938e0a	-0.0045030164
226	0xbb78326d	-0.0037871853
227	0xbb807664	-0.0039203633
228	0xbb9ce32f	-0.0047878246
229	0xbb7d5474	-0.0038655074
230	0x3bc63eee	0.0060499823
231	0xbb6d9181	-0.0036250057
232	0xbb7d34e0	-0.0038636252
233	0xbb883154	-0.004156271
234	0xb8a49962	-7.848699e-05
235	0xb8812026	-6.1571875e-05
236	0x388cbe2f	6.711145e-05
237	0xb884854f	-6.319081e-05
238	0xb8811258	-6.154616e-05
239	0xb85ae2f6	-5.2186624e-05
240	0x3b16476d	0.0022930757
241	0x3a96ef0c	0.0011515333
242	0x3aab5908	0.0013072798
243	0x3b1af699	0.0023645519
244	0x3a96ef6d	0.0011515446
245	0x3a11e12a	0.0005564863
246	0xb89a7dfb	-7.366758e-05
247	0xb83c1e27	-4.4850774e-05
248	0xb7b56e81	-2.1628339e-05
249	0xb89fa4e2	-7.6124226e-05
250	0xb83c1993	-4.484651e-05
251	0xb79bec70	-1.858754e-05
252	0xb98aa537	-0.00026444506
253	0xb95f849a	-0.00021316335
254	0x3a30618d	0.00067284034
255	0xb8b30848	-8.5369276e-05

exp_avg_sq f4 [128, 6]
0	0x381a5ec9	3.6804737e-05
1	0x3783ca4e	1.5710622e-05
2	0x3810dc2d	3.453733e-05
3	0x375d472a	1.3189196e-05
4	0x3783a682	1.5693953e-05
5	0x3729a32c	1.0111176e-05
6	0x398dc2e0	0.0002703881
7	0x391afbf5	0.00014780446
8	0x397a7ae8	0.00023887644
9	0x390cea69	0.00013438765
10	0x391aef9c	0.00014775846
11	0x384a7f30	4.8279006e-05
12	0x39a5d290	0.00031628134
13	0x392c1b49	0.00016413363
14	0x392bc3e4	0.00016380806
15	0x397401eb	0.00023270368
16	0x392c14d4	0.00016410957
17	0x393fdfdb	0.00018298572
18	0x36557330	3.1806521e-06
19	0x360f3798	2.134102e-06
20	0x365f27c2	3.3252732e-06
21	0x3620ea8d	2.3978384e-06
22	0x3610107d	2.146727e-06
23	0x361c9d8a	2.3337511e-06
24	0x356cd589	8.8227586e-07
25	0x362ec0d5	2.6040263e-06
26	0x37081bab	8.112674e-06
27	0x3613705e	2.1970113e-06
28	0x362d304e	2.5807126e-06
29	0x3648f6af	2.9945911e-06
30	0x38444fec	4.6804475e-05
31	0x38865501	6.405451e-05
32	0x3895098f	7.106654e-05
33	0x38e14e64	0.000107434375
34	0x38866f3e	6.4103384e-05
35	0x39018a0d	0.00012353827
36	0x39db9b95	0.00041886853
37	0x3946a81e	0.0001894538
38	0x390d7b4b	0.00013492738
39	0x39b5bb45	0.00034662537
40	0x3946a179	0.00018942905
41	0x3973c58a	0.00023247875
42	0x388e469b	6.784239e-05
43	0x38c0e264	9.197442e-05
44	0x3844b69b	4.6900106e-05
45	0x390aa782	0.00013223107
46	0x38c0db90	9.19617e-05
47	0x39306bf1	0.0001682488
48	0x353326fd	6.673943e-07
49	0x35daecc0	1.6311169e-06
50	0x3604163a	1.968247e-06
51	0x358d186b	1.0512425e-06
52	0x35d9c6fd	1.6225673e-06
53	0x361eac51	2.3644136e-06
54	0x38a49dd8	7.84953e-05
55	0x38ae85c6	8.321884e-05
56	0x38082b5a	3.24653e-05
57	0x394834ae	0.00019093111
58	0x38ae8656	8.3219886e-05
59	0x398ab2d2	0.00026454643
60	0x3a6d0312	0.000904129
61	0x39e80938	0.00044257357
62	0x39eabbd9	0.00044771915
63	0x3a409a23	0.0007347187
64	0x39e802df	0.00044252627
65	0x39dfd343	0.00042691277
66	0x361745e6	2.254144e-06
67	0x3649f818	3.0095744e-06
68	0x35cb16eb	1.5131349e-06
69	0x3535d56f	6.773834e-07
70	0x3649661a	3.0010765e-06
71	0x373b8417	1.1176823e-05
72	0x377ad9c8	1.4951867e-05
73	0x36b5dac5	5.4196885e-06
74	0x371def59	9.413657e-06
75	0x36c55962	5.881463e-06
76	0x36b5e177	5.420468e-06
77	0x36acfe16	5.155579e-06
78	0x38964c60	7.166783e-05
79	0x3808791b	3.2537715e-05
80	0x38036caf	3.1334053e-05
81	0x382fd77d	4.192394e-05
82	0x38087043	3.252948e-05
83	0x384edb1c	4.931829e-05
84	0x3525e9c5	6.180747e-07
85	0x3517919d	5.646378e-07
86	0x35102291	5.369448e-07
87	0x3558f13c	8.081731e-07
88	0x35194ef7	5.711185e-07
89	0x358d2300	1.0515505e-06
90	0x3930035b	0.00016785918
91	0x3934ab72	0.00017230006
92	0x38ba56d9	8.885348e-05
93	0x39bf4964	0.0003648504
94	0x3934accf	0.00017230514
95	0x39d57031	0.00040710115
96	0x38d0208c	9.924275e-05
97	0x384390f6	4.662663e-05
98	0x38368c17	4.352265e-05
99	0x38f1c4c4	0.00011528426
100	0x38438711	4.6617413e-05
101	0x389973b9	7.3171635e-05
102	0x3443c8f7	1.8233901e-07
103	0x348103bf	2.4030848e-07
104	0x3483cf6b	2.4551568e-07
105	0x3491e260	2.7173064e-07
106	0x3481a03e	2.4144714e-07
107	0x34f6aa92	4.5945177e-07
108	0x38e3020f	0.00010824587
109	0x38e88dbb	0.000110890214
110	0x390d33fa	0.0001346617
111	0x39033a2b	0.00012514803
112	0x38e88c29	0.00011088729
113	0x3917491c	0.00014427718
114	0x36d73088	6.413149e-06
115	0x36fc686e	7.5223425e-06
116	0x35e367a1	1.6942978e-06
117	0x3791189b	1.7296805e-05
118	0x36fc7850	7.5241915e-06
119	0x37fbdbdd	3.0023913e-05
120	0x3728fc97	1.0072391e-05
121	0x36b56b9c	5.4067477e-06
122	0x3714bbff	8.865259e-06
123	0x370465f1	7.891548e-06
124	0x36b5be91	5.416405e-06
125	0x36e6f69a	6.8832423e-06
126	0x396c3802	0.00022527578
127	0x393788a3	0.00017503141
128	0x38d576b5	0.000101787424
129	0x39695af6	0.00022254497
130	0x3937871b	0.0001750257
131	0x39a02328	0.00030543772
132	0x340a3184	1.2870265e-07
133	0x363c6758	2.8074337e-06
134	0x355ba3ee	8.1822407e-07
135	0x348ddebb	2.6425354e-07
136	0x363c667e	2.8073841e-06
137	0x37069481	8.021599e-06
138	0x398d94f0	0.00027004583
139	0x3920aee5	0.00015323942
140	0x396b3782	0.00022432025
141	0x394ce932	0.00019541828
142	0x3920ae63	0.00015323753
143	0x39041b0f	0.00012598581
144	0x36517740	3.121284e-06
145	0x366353fe	3.3874526e-06
146	0x37005740	7.649709e-06
147	0x35bf0422	1.4231812e-06
148	0x36636bc1	3.3888357e-06
149	0x362bd49f	2.5604747e-06
150	0x399fcc87	0.00030479228
151	0x394eb85d	0.00019714372
152	0x391a0a9b	0.00014690535
153	0x39bf4cc3	0.0003648755
154	0x394eb558	0.00019713247
155	0x39ad82d8	0.00033094618
156	0x3956da94	0.00020490057
157	0x39020e5e	0.00012403118
158	0x39163369	0.00014324267
159	0x39066a0e	0.00012818744
160	0x39020852	0.00012400866
161	0x39158add	0.00014261478
162	0x39003fa1	0.00012230735
163	0x38880871	6.486558e-05
164	0x3851164a	4.985024e-05
165	0x38c3d7d6	9.338527e-05
166	0x38880318	6.4855616e-05
167	0x38da12e9	0.00010398572
168	0x38d4c14c	0.00010144952
169	0x38d55460	0.000101723475
170	0x38e6b920	0.00011001737
171	0x390b242f	0.00013269552
172	0x38d55889	0.000101731224
173	0x390b084c	0.00013259164
174	0x3a002ba5	0.0004889316
175	0x39aaf765	0.0003260925
176	0x39aebff6	0.00033330888
177	0x39b755a4	0.00034968287
178	0x39aaf2c6	0.00032605807
179	0x39bd5d10	0.00036118226
180	0x37c7c13d	2.3812632e-05
181	0x38076df7	3.228892e-05
182	0x371eb2cb	9.459162e-06
183	0x3895ce59	7.143309e-05
184	0x38076fc2	3.229059e-05
185	0x38f05d84	0.000114615104
186	0x3a2d7645	0.000661705
187	0x3974d36b	0.00023348413
188	0x391a3391	0.00014705794
189	0x39fb2c69	0.0004790754
190	0x3974c75c	0.0002334392
191	0x39892373	0.00026157088
192	0x38925bd1	6.978925e-05
193	0x384d1a59	4.8900347e-05
194	0x38a3ec07	7.816409e-05
195	0x388e234f	6.7776644e-05
196	0x384d168c	4.8896807e-05
197	0x3882e7dc	6.24207e-05
198	0x35400f2b	7.1547646e-07
199	0x354a0c43	7.526871e-07
200	0x34e85705	4.3276683e-07
201	0x359d6bc8	1.172878e-06
202	0x35550a2e	7.9363497e-07
203	0x35b02a77	1.3125381e-06
204	0x3671a945	3.6010326e-06
205	0x372c8c98	1.0284733e-05
206	0x373ec35d	1.1370369e-05
207	0x36547648	3.165931e-06
208	0x372cc07e	1.0296817e-05
209	0x37c23ca8	2.3154847e-05
210	0x39043527	0.00012608302
211	0x38d37ca8	0.00010084483
212	0x38e99b77	0.000111392634
213	0x390dc4d6	0.00013520135
214	0x38d36eaf	0.000100818805
215	0x39184523	0.00014521605
216	0x31509fb2	3.035876e-09
217	0x337517bb	5.706509e-08
218	0x329c7a7e	1.8216493e-08
219	0x31b91d18	5.387516e-09
220	0x336c0b5a	5.4958356e-08
221	0x341b2e7e	1.4452414e-07
222	0x393402c4	0.00017167168
223	0x391a14a9	0.00014694281
224	0x3932845b	0.00017024709
225	0x38c6d2db	9.4806506e-05
226	0x391a12a0	0.00014693523
227	0x3911ec90	0.00013916404
228	0x39e4a10a	0.00043607532
229	0x396ad47e	0.00022395139
230	0x3929940e	0.0001617225
231	0x39b5099c	0.0003453017
232	0x396acc58	0.00022392103
233	0x398596f6	0.00025480211
234	0x3721715b	9.62274e-06
235	0x3707430b	8.062237e-06
236	0x374e7200	1.23050995e-05
237	0x36dad5cf	6.521797e-06
238	0x37076c85	8.071894e-06
239	0x378056ab	1.5299147e-05
240	0x39d42fff	0.0004047155
241	0x394e507e	0.00019675677
242	0x392aade9	0.0001627725
243	0x39aafbad	0.0003261244
244	0x394e4e78	0.00019674923
245	0x3986950b	0.00025669517
246	0x38090185	3.266476e-05
247	0x38564328	5.108412e-05
248	0x38267aed	3.9691968e-05
249	0x38b9c5af	8.858309e-05
250	0x385642b9	5.1083716e-05
251	0x3905e896	0.00012770513
252	0x3873bf02	5.8113605e-05
253	0x382981f4	4.0413768e-05
254	0x37e78b34	2.7602167e-05
255	0x384fe5b2	4.9566566e-05

exp_avg f4 [128]
0	0x39b98244	0.00035383005
1	0x39beb1ac	0.00036372
2	0xba9c8dab	-0.0011944076
3	0xb778800c	-1.4811765e-05
4	0xb7841913	-1.5747302e-05
5	0xb713ae24	-8.802428e-06
6	0xba8d9b55	-0.0010803739
7	0xb96f2820	-0.00022807764
8	0x35534bb8	7.871381e-07
9	0x37f2a3de	2.8924955e-05
10	0x3a6a73a8	0.0008943626
11	0xb6745e6a	-3.641379e-06
12	0xb8c7697e	-9.508709e-05
13	0x3a1240de	0.0005579124
14	0x373ecea6	1.1372997e-05
15	0x39cd66ac	0.00039177143
16	0x39ef5ff9	0.00045657138
17	0xb748fafd	-1.1979367e-05
18	0xb97532c5	-0.00023383934
19	0xb7c8a70e	-2.3919649e-05
20	0xb5a612e0	-1.2373457e-06
21	0xb908dbf9	-0.00013051917
22	0xb64795a3	-2.974041e-06
23	0x39857baf	0.00025459888
24	0xb6c2f3e6	-5.810044e-06
25	0x3a58d918	0.00082720956
26	0x3a5645dc	0.0008173862
27	0x3a7b2b2e	0.00095813244
28	0x3a0cbf85	0.0005369115
29	0xbaad8688	-0.0013238946
30	0xb75da638	-1.3211327e-05
31	0xba40073a	-0.00073252956
32	0xb9b578f4	-0.00034613127
33	0x3704083c	7.86973e-06
34	0xb82caa0c	-4.1166364e-05
35	0xb8adbd27	-8.284515e-05
36	0xb4074106	-1.259651e-07
37	0xba79d6f1	-0.0009530625
38	0xba7ee1da	-0.00097229856
39	0xb781ed00	-1.548836e-05
40	0x3997ef25	0.0002897914
41	0xb73d583a	-1.128582e-05
42	0xb860d907	-5.3607884e-05
43	0xb9379a8c	-0.00017509813
44	0x3614f744	2.2197646e-06
45	0xb852d930	-5.0270173e-05
46	0x395f5b45	0.00021300938
47	0xb70490d0	-7.90153e-06
48	0xba84fb08	-0.0010145614
49	0x3727f868	1.0011812e-05
50	0xb66559bc	-3.4175891e-06
51	0xb61c7a98	-2.331717e-06
52	0xbacd0fca	-0.0015644964
53	0xb7c3c5ab	-2.3337858e-05
54	0xba644469	-0.00087077037
55	0x37bb80a6	2.2352044e-05
56	0x3a91226e	0.0011072883
57	0x36aba86d	5.1158045e-06
58	0xba39d75c	-0.0007089281
59	0xbac0a23e	-0.001469679
60	0xb607d1bc	-2.023865e-06
61	0x39ae4f18	0.00033246796
62	0x399a88e9	0.00029475175
63	0x3a1b1402	0.0005915762
64	0x3a4cc47e	0.0007811262
65	0xb8773c66	-5.894564e-05
66	0xb923cde6	-0.00015621595
67	0x3ab65090	0.0013909508
68	0x3a9ed517	0.0012117949
69	0x3958828a	0.00020647995
70	0x3ab26828	0.0013611363
71	0x39933ece	0.00028084818
72	0xb894962b	-7.085161e-05
73	0xb8884ce4	-6.499307e-05
74	0xb5c2d442	-1.4515902e-06
75	0x38914daf	6.9286085e-05
76	0x3a04e45d	0.0005069429
77	0xb77be972	-1.5015119e-05
78	0xb88042d4	-6.115963e-05
79	0xb8294dbe	-4.0365143e-05
80	0x3a746aa7	0.0009323754
81	0xba00222a	-0.00048879033
82	0x3ab2d9c2	0.0013645219
83	0xbb1c4e29	-0.0023850298
84	0xb99ace66	-0.00029526948
85	0xba0c4fda	-0.0005352475
86	0xb8a68d83	-7.9418554e-05
87	0xba8f8151	-0.0010948573
88	0x39b66eca	0.0003479629
89	0x3ace57ac	0.0015742681
90	0x3b2aa19e	0.0026036273
91	0xb744aca4	-1.1722706e-05
92	0x3543b660	7.290855e-07
93	0xb6e7c961	-6.90778e-06
94	0xbaf7bf06	-0.0018901534
95	0x38be8b56	9.085859e-05
96	0x3af1dd82	0.0018452855
97	0x38c03f48	9.1670605e-05
98	0x33239600	3.808782e-08
99	0x36e8e7be	6.941117e-06
100	0xba1843c3	-0.0005808437
101	0x384c45fe	4.8702575e-05
102	0xb69c3be8	-4.6561363e-06
103	0x3a3bc452	0.0007162738
104	0xb725ff48	-9.894204e-06
105	0xb95752c8	-0.00020534836
106	0xb95fee9e	-0.00021355829
107	0x36cc4392	6.08754e-06
108	0x393c5645	0.00017961215
109	0x3a1be1bc	0.0005946418
110	0xba91361c	-0.0011078748
111	0xb8db5c82	-0.00010459965
112	0xb8e62fc7	-0.00010976154
113	0xb24e096a	-1.1992919e-08
114	0xba36fa00	-0.0006980002
115	0x3ab992a2	0.001415808
116	0xba6788e6	-0.000883235
117	0x36ecca34	7.0568876e-06
118	0x3a91301f	0.0011076963
119	0xb94dc887	-0.00019625026
120	0x3a5cef59	0.00084279996
121	0xba5feaba	-0.0008541752
122	0xba4a0b5f	-0.0007707383
123	0x3a78631e	0.0009475219
124	0xb921565e	-0.00015386331
125	0xb66ce8fd	-3.5302357e-06
126	0xb8173ace	-3.605597e-05
127	0xb65f96f0	-3.3317447e-06

exp_avg_sq f4 [128]
0	0x3583ef5f	9.829927e-07
1	0x371beeab	9.294289e-06
2	0x372dd112	1.03602815e-05
3	0x341079ee	1.3455403e-07
4	0x342e7567	1.6247724e-07
5	0x368726cb	4.0278296e-06
6	0x374911c3	1.1984669e-05
7	0x36c1c254	5.774471e-06
8	0x33dbe3c0	1.023941e-07
9	0x36ade01e	5.1818924e-06
10	0x37e9f35d	2.788909e-05
11	0x344b4ddd	1.8934175e-07
12	0x34b717bd	3.4103678e-07
13	0x3609fc8d	2.0561595e-06
14	0x3314ae29	3.4617333e-08
15	0x37350951	1.079061e-05
16	0x3644f2bf	2.9347573e-06
17	0x3281c3f2	1.5106682e-08
18	0x36eb41fe	7.0112283e-06
19	0x34f9c8eb	4.652605e-07
20	0x34b7139b	3.410067e-07
21	0x37396ff6	1.1052927e-05
22	0x343d6db6	1.7641909e-07
23	0x3721efc8	9.652176e-06
24	0x346557a4	2.135917e-07
25	0x375042b4	1.2413297e-05
26	0x37038708	7.839648e-06
27	0x3689c3f4	4.10573e-06
28	0x36d7dbe7	6.4330993e-06
29	0x37ad1500	2.0632986e-05
30	0x36067fe6	2.0042003e-06
31	0x377798cb	1.4757922e-05
32	0x364f06da	3.0849392e-06
33	0x3343aece	4.556096e-08
34	0x352e85ab	6.5014564e-07
35	0x36d4ecbc	6.345652e-06
36	0x316d70c7	3.4552146e-09
37	0x371bcc1c	9.286243e-06
38	0x376d8cdd	1.4159098e-05
39	0x3508b352	5.0924893e-07
40	0x375071e3	1.2424282e-05
41	0x3656b31d	3.1992743e-06
42	0x362b22ae	2.5501172e-06
43	0x369ed515	4.733573e-06
44	0x339fdd5f	7.4442816e-08
45	0x331f0c0a	3.7031022e-08
46	0x372bb458	1.0234384e-05
47	0x352f6266	6.533577e-07
48	0x36e5f135	6.852812e-06
49	0x36b9be08	5.535552e-06
50	0x36324d39	2.6569016e-06
51	0x3269d8a7	1.3611646e-08
52	0x37dd8c1c	2.6410497e-05
53	0x35a0e35c	1.1987099e-06
54	0x3727679a	9.978097e-06
55	0x3466c044	2.1490365e-07
56	0x377519d2	1.460915e-05
57	0x35100e6a	5.3665156e-07
58	0x371bbdb7	9.282891e-06
59	0x3769c15c	1.3932902e-05
60	0x3209bdb1	8.01758e-09
61	0x3604e0b5	1.980033e-06
62	0x369af966	4.6185914e-06
63	0x374c1fca	1.2166749e-05
64	0x37673aaa	1.3782332e-05
65	0x3586d2b4	1.0045101e-06
66	0x35dcae52	1.6442011e-06
67	0x378a2539	1.6468215e-05
68	0x377b870d	1.499221e-05
69	0x379073cf	1.7220065e-05
70	0x36e2ea82	6.762625e-06
71	0x378b0607	1.6572898e-05
72	0x3471c1d1	2.2515384e-07
73	0x372976ff	1.0100891e-05
74	0x302245d3	5.9034483e-10
75	0x3742bcfd	1.1607303e-05
76	0x358fb9bf	1.070839e-06
77	0x361d3eb6	2.3431326e-06
78	0x35a1ae2b	1.2046124e-06
79	0x34b84346	3.432162e-07
80	0x368c2c68	4.1774947e-06
81	0x37304d1e	1.0508373e-05
82	0x37966117	1.7926604e-05
83	0x3821281e	3.8422753e-05
84	0x378e41c4	1.6958344e-05
85	0x36f1ce39	7.206367e-06
86	0x3546fbae	7.412699e-07
87	0x37dc257d	2.62435e-05
88	0x36d5f71e	6.376663e-06
89	0x377be6a4	1.5014466e-05
90	0x38179bcf	3.6146314e-05
91	0x368373f8	3.9176048e-06
92	0x361b1cbc	2.3113525e-06
93	0x362a16b5	2.5345191e-06
94	0x38047c1b	3.1586835e-05
95	0x36b54038	5.4016964e-06
96	0x37fefc23	3.039657e-05
97	0x359d643d	1.1726585e-06
98	0x369eb9ef	4.7304125e-06
99	0x35cc2169	1.5208908e-06
100	0x374e1913	1.2284395e-05
101	0x36afc233	5.238014e-06
102	0x32b26c59	2.0771198e-08
103	0x372c3f48	1.0266733e-05
104	0x327251d0	1.4104856e-08
105	0x36a11b30	4.801339e-06
106	0x37137f96	8.791589e-06
107	0x35f25085	1.8053839e-06
108	0x36a44d0f	4.8965517e-06
109	0x369177f4	4.335301e-06
110	0x371e58e1	9.438228e-06
111	0x3629b12c	2.528609e-06
112	0x35d85327	1.6117455e-06
113	0x32569eb7	1.2492527e-08
114	0x36a13475	4.8042807e-06
115	0x380860e7	3.2515174e-05
116	0x3685128f	3.9658694e-06
117	0x350396f9	4.9020997e-07
118	0x37186153	9.082566e-06
119	0x36b6eb3d	5.451408e-06
120	0x369aee86	4.6173254e-06
121	0x3704c4e7	7.913658e-06
122	0x37061f1a	7.994264e-06
123	0x375e30f9	1.32436335e-05
124	0x366f30ad	3.5642108e-06
125	0x355be6eb	8.191989e-07
126	0x32b87daf	2.1477573e-08
127	0x32faaa93	2.9181399e-08
