MachineLearning/results/Test7/MoveTOGoal.onnx (onnx, 75062 bytes, 7 tensors)

network_body._body_endoder.seq_layers.0.weight f4 [128, 6]
000000 58 d0 63 3c b0 bf 38 3f 7c 7c 01 3f 2c 72 13 bd
       0.0139046535 0.7216749 0.50580573 -0.035997555
000010 c1 92 0e 3f e1 e4 63 bf 96 61 20 bf 7b 48 a0 be
       0.5569268 -0.89021116 -0.62648904 -0.31305298
000020 a2 6a b7 3e e6 bf b5 be 5b 1c 3e 3f 70 b9 c8 3d
       0.35823542 -0.3549797 0.74262017 0.098009944
000030 9c c6 59 3e c8 ed 67 bd 0d aa 66 be 0c f2 49 3d
       0.2126717 -0.05662325 -0.22525807 0.0493031
000040 f9 01 0b 3f ed 61 c8 be ff d5 77 3e 11 b2 48 3e
       0.54299885 -0.3913721 0.24202727 0.19599177
000050 23 37 50 3e 37 b6 4b 3e 29 ce fd bc 2b 7f 3f bf
       0.20333533 0.19893728 -0.030982094 -0.7480342
000060 3b 38 b6 3d a8 5b 2e 3e 55 f6 49 3e 01 7c 33 bd
       0.08897444 0.17027152 0.19722874 -0.04381943
000070 42 ba 03 bf ed 1a d8 bc dd a7 e0 be da 17 67 3e
       -0.5145608 -0.026380027 -0.4387807 0.22567692
000080 0b 5a 78 be 07 2c a9 be 49 bc b3 3c 2d c6 0c 3e
       -0.24253099 -0.33041403 0.021940367 0.13747473
000090 7a ef cc 3d 09 8e d1 3e 7b 20 d5 3e eb 91 d2 bd
       0.10006614 0.40928677 0.41626343 -0.10281738
0000a0 ae 64 d7 bd 0a 3b 08 3f b9 af 60 3f 0b d9 a1 bf
       -0.1051725 0.53215086 0.8776813 -1.2644361
0000b0 a3 93 f1 be 9c fe c9 3e de b4 67 bd c9 91 0f 3d
       -0.4718295 0.39452064 -0.056568973 0.03505114
0000c0 d3 dd 10 bf 87 0b a8 bf 5c 85 15 bf 16 8b 89 3e
       -0.56588477 -1.3128518 -0.58406615 0.26863927
0000d0 38 16 9b bf 65 54 32 bf 59 cb ed 3d d3 22 80 bf
       -1.2116156 -0.69660026 0.11611051 -1.0010628
0000e0 ae 0e eb 3d 35 09 0f bf 94 9d 44 be e1 6c b4 3d
       0.11477409 -0.55873424 -0.19200736 0.088098295
0000f0 c4 47 1e bc b1 b7 65 3e 96 d1 07 bf 4d a0 a0 be
       -0.009660665 0.22433354 -0.5305418 -0.313723
000100 92 9f 47 3e f3 06 9e be 79 ee e1 be f4 38 d3 bd
       0.19494465 -0.30864677 -0.44127253 -0.10313597
000110 0c 72 68 3d 3b 2c 96 be a2 9a 9a 3e 78 55 ad bd
       0.05674939 -0.2933062 0.301961 -0.084635675
000120 88 c2 3a 3e 41 da 88 be 96 91 3d be 0f 37 59 bf
       0.1823827 -0.26729015 -0.18512568 -0.8484964
000130 10 72 a0 3d 37 1e 25 be 06 86 75 bd f2 3c 29 3f
       0.07834256 -0.16124807 -0.059942268 0.6610862
000140 61 47 4f bf e8 1b 2e bf 68 5e c7 be f8 57 7f be
       -0.8096829 -0.6801133 -0.38939214 -0.24935901
000150 5c 8e f3 be b3 57 b5 3e b3 ab 4b 3e 40 a7 23 be
       -0.4756955 0.35418472 0.19889717 -0.1598177
000160 fd e5 11 3f f2 28 c3 bd af 45 21 3f 88 f7 09 bf
       0.5699156 -0.09529294 0.62996954 -0.5389333
000170 58 87 48 be ef 79 f7 bd b4 32 9f be 3b a7 ca 3e
       -0.1958288 -0.12083804 -0.3109337 0.39580712
000180 98 c9 83 3e d1 2e 01 be 36 8f 54 bf 4d 99 39 3f
       0.2573974 -0.12615515 -0.8303102 0.72499543
000190 80 84 ed 3e 8f 30 af 3e dd b4 e6 be 7d 11 46 be
       0.46390152 0.34216735 -0.45059863 -0.19342609
0001a0 dc 37 a2 3c 65 5d 5b be 5f 57 94 3e 4c 29 27 bf
       0.019802026 -0.21422346 0.2897291 -0.6529739
0001b0 2d 5c 2c 3e 4a 10 03 3f 1f 64 22 bf 2e 56 16 bf
       0.16832037 0.5119673 -0.6343402 -0.5872525
0001c0 eb d9 08 3e 57 13 01 3f 98 06 1f 3e 38 42 aa 3e
       0.13364379 0.50420135 0.15529859 0.33253646
0001d0 c8 bb 6e 3f 69 fb 0d 3f c1 33 1d 3f 01 e6 21 3a
       0.9325528 0.55461746 0.61407095 0.0006175936
0001e0 2a fe 25 be fe ef 97 bd 57 71 09 bd 21 2f 13 3e
       -0.16210237 -0.07418822 -0.033555355 0.14373447
0001f0 3d d5 56 3e 91 25 9e 3e cb c6 d1 be be fc 28 3f
       0.20979781 0.30888036 -0.4097198 0.66010654
000200 9f 38 fc be 16 55 03 3e 21 90 ac 3e fb 84 42 3e
       -0.49261948 0.12825426 0.33703712 0.1899604
000210 d6 76 3a bf 35 1c af 3c ac cd 42 3d c3 da 16 3e
       -0.7283758 0.021375755 0.047559425 0.14731888
000220 c8 7b c6 3c 1f 60 15 3f a1 e3 b1 be fe cc e4 3d
       0.024228945 0.58349794 -0.3474398 0.11171912
000230 85 1f 19 bf e2 b2 ad be e0 b0 1b 3e 24 85 45 3e
       -0.5981372 -0.3392554 0.15204191 0.1928907
000240 34 ff 2b 3c a2 7b e0 be 5e cf 2b 3f 07 ce 82 3f
       0.010497857 -0.43844324 0.6711329 1.0219125
000250 cc e5 c6 be b4 21 7f 3e 7d 03 18 3f 07 5f e5 bd
       -0.38847196 0.249152 0.5938032 -0.11199766
000260 cf 53 33 3e 3c aa 44 3e 6c 04 e6 be 8a aa 33 bc
       0.17512439 0.19205564 -0.4492525 -0.010965953
000270 04 d8 7d 3e 89 24 fa 3e 2d ef 40 bf d1 a8 cf 3d
       0.24789435 0.48856 -0.75364953 0.10139621
000280 6c c4 4a bf c2 3c 42 3e 05 eb 03 bf 76 bb 89 3c
       -0.79205966 0.1896849 -0.51530486 0.016813021
000290 1c c3 22 be 2a eb 15 bf b0 0a 72 3d c3 f9 07 bc
       -0.15894741 -0.58561957 0.059092224 -0.008299294
0002a0 06 72 c8 be 32 4d 87 bd aa 6b 0f be b0 26 4b 3f
       -0.39149493 -0.06606521 -0.14005914 0.7935591
0002b0 c7 79 62 be 26 ce 10 3f 45 82 07 bf be 7c 78 3f
       -0.22116767 0.5656456 -0.5293315 0.9706534
0002c0 ce 6a 9b 3e 57 dd 1a 3f ce 5a 3b 3d a3 52 0e bf
       0.30354923 0.6049399 0.045740895 -0.55594844
0002d0 f4 16 8a bf ec 48 f6 be c4 3c 96 3e e9 d9 2a 3d
       -1.0788255 -0.4810251 0.29343235 0.04171172
0002e0 58 30 a3 be ac 88 78 be 39 13 8d bb 9a dd 29 3e
       -0.3187282 -0.24270886 -0.00430527 0.1658844
0002f0 bd 05 74 be 29 67 59 3f ab 64 84 3f 8f b5 a8 3d
       -0.23830314 0.84923035 1.0343221 0.082377546
000300 b3 5b 59 bf 6c d8 bd 3e 43 f0 08 bf e7 13 a5 3e
       -0.84905547 0.3707918 -0.5349161 0.32241747
000310 71 bd 8f 3e 97 8c 67 3e 4a 97 28 bf d5 a7 df 3e
       0.2807422 0.22612225 -0.6585585 0.43682733
000320 e1 1f d7 3e 28 a2 69 be 1a 36 6a be 40 05 dc 3d
       0.4201651 -0.22815764 -0.228722 0.10743189
000330 2c d3 6d 3d b8 c9 a0 3c 95 5d 2c be d8 9a 80 3d
       0.058062717 0.019627437 -0.16832574 0.06279534
000340 a7 6e 3c 3d 24 24 45 3f 56 d5 cf be b3 f1 db be
       0.046003964 0.7700827 -0.4059245 -0.4295784
000350 c3 7c ae be 11 b7 04 3e 50 f9 1c 3e 13 3a 04 bf
       -0.3407956 0.1296046 0.1532948 -0.51651114
000360 f9 22 24 3c 5f a0 a7 3d 69 41 12 3f 14 80 01 3f
       0.010018104 0.08184885 0.5713106 0.50586057
000370 e9 4b cd bd 71 1f ec bd 16 c4 05 3e a9 08 09 be
       -0.10024244 -0.115294345 0.13063082 -0.1338221
000380 40 a1 93 be 7d 57 23 bf f6 0e 06 bf ee e1 a4 be
       -0.2883396 -0.6380537 -0.5236658 -0.3220362
000390 da 11 e2 3d 53 e2 80 be a8 7b ea 3e d0 1d 18 bd
       0.11038561 -0.25172672 0.45797467 -0.037137806
0003a0 0c 63 51 be 20 c5 45 3f ab de d0 bd d9 96 b3 bd
       -0.2044794 0.77253914 -0.101987205 -0.08769006
0003b0 c7 ab 4a bf 0d 59 a7 3d a3 b3 95 3e d8 89 cb 3d
       -0.7916836 0.08171282 0.29238614 0.09938401
0003c0 ad 02 46 3e 05 15 db 3e e4 8a 81 bd 27 db d1 3d
       0.19336958 0.42789474 -0.063253194 0.10246878
0003d0 33 2d b4 be 51 19 45 3e 97 7e a2 3c e5 0c 9e ba
       -0.35190734 0.19247939 0.019835753 -0.0012058286
0003e0 63 6f dc 3d 5a 30 68 3d 95 92 bc 3d e1 00 1f 3e
       0.10763433 0.056686737 0.09207646 0.15527679
0003f0 46 89 b6 3d 3f 6b 10 3f b9 f8 34 3e 04 9a fa bd
       0.089129016 0.56413645 0.17673005 -0.122364074

network_body._body_endoder.seq_layers.0.bias f4 [128]
000000 f7 f0 2d 3c 2a 6d fd bb fd 3a 06 3c 17 5d df b9
       0.0106165325 -0.0077339606 0.008192775 -0.00042603232
000010 d6 18 8f bb 32 96 02 bc 5b 97 91 3a e9 dd 8f bc
       -0.0043669743 -0.00797038 0.001110773 -0.01756187
000020 f9 74 aa 3b 24 8f dc 3b 87 05 55 3c a8 57 0a bc
       0.0052019325 0.006730931 0.013001806 -0.00844375
000030 ce 27 f7 3b d1 0b 94 bc e3 11 30 bc 2c 29 00 bb
       0.007542587 -0.01807204 -0.010746452 -0.001955579
000040 b3 f9 30 bc 82 d1 24 3b 2d cf 25 ba 22 38 40 3c
       -0.01080172 0.002514929 -0.0006325122 0.011732133
000050 2f 82 8e 3c 75 37 14 3c 06 2f 76 3d 53 48 bb bb
       0.01739606 0.009046425 0.06010344 -0.005715409
000060 37 c1 da 3b 79 c8 a7 ba 17 0d 7a 3d de cb 26 bc
       0.006675865 -0.0012800834 0.06104764 -0.010180442
000070 3d 4e 6b 3d ff f1 5b ba 98 e7 2e 3b 30 d0 7f 3d
       0.05744766 -0.0008390247 0.0026688334 0.062454402
000080 12 bb 69 3c be 8b 4a ba a3 b5 7b 3d 54 88 a7 3b
       0.014265792 -0.00077265117 0.06145252 0.005112687
000090 78 4f 46 bb 08 a9 55 bc a6 0f 0a 3c aa e8 91 3d
       -0.003025977 -0.0130407885 0.008426582 0.07124455
0000a0 c4 cc a4 bc 7a aa 0a 3b 43 73 5c 3c db 8e 27 3c
       -0.020117171 0.002115874 0.013455215 0.0102269305
0000b0 87 84 87 3c 1e 9d 1d bd 55 d8 8a 3a 0f 5a 8e ba
       0.016542686 -0.038479917 0.0010593036 -0.001086058
0000c0 8f 77 83 bc c6 63 53 3b f9 ba 16 3d 81 a1 e8 39
       -0.01604822 0.0032255515 0.036799405 0.00044370818
0000d0 f4 50 22 bb 95 1f dc 3a d6 42 99 3c 77 b8 f0 bb
       -0.002476749 0.001679408 0.018708628 -0.0073462087
0000e0 b2 d0 24 bc b5 55 f3 3b 5d 05 97 bc 54 39 ff ba
       -0.010059522 0.0074259886 -0.018435175 -0.0019472041
0000f0 c1 c1 3a 3d 1c 4e 08 bc 84 13 30 3c aa 32 d7 3a
       0.045594934 -0.008319404 0.01074684 0.0016418297
000100 bc 99 ac bb ae e4 35 3c a8 7e f5 bb 5e de 0e 3b
       -0.00526735 0.011101885 -0.0074919052 0.0021800022
000110 d5 92 9c 3c a9 7c 50 3d f5 bc 94 b9 a5 d2 11 bc
       0.019112984 0.050900135 -0.00028369544 -0.008900319
000120 80 e9 87 3a df 42 cf 3a a8 9a 9e bb 7e 92 48 3b
       0.0010369271 0.0015812776 -0.004840214 0.0030604894
000130 8f 5f a8 bb 84 bd 9f 3c 30 d0 75 ba ab bf 34 3c
       -0.0051383446 0.019499548 -0.00093770307 0.011032025
000140 36 17 6a 3b 79 da 22 bc f5 8e 4a 3d 80 99 a5 bb
       0.0035719401 -0.009939783 0.04945274 -0.005053699
000150 9e 4d 45 bc 36 55 30 bc f0 4a b2 ba 82 94 97 bb
       -0.012042431 -0.010762503 -0.0013602655 -0.004625858
000160 50 dd 03 3c 87 71 dc 3b 87 b3 ab 3b d9 20 0f bc
       0.0080483705 0.0067274007 0.005239907 -0.008735859
000170 00 93 36 bb 10 f0 04 bc b6 ef d3 3c 9c eb 6d bc
       -0.0027858615 -0.008113876 0.025871139 -0.014521506
000180 c2 6d 5a bb f5 98 09 3c 6a 57 40 3b 97 74 ed 3b
       -0.003332958 0.008398284 0.0029348978 0.0072465646
000190 ea 0a 17 3c 7b 95 1a 3d 4f ca aa 3b fa a8 2c 3d
       0.009218911 0.037740212 0.0052121053 0.042153336
0001a0 67 02 cb ba bd 6a 2b bb 03 39 39 3a 5f aa 8c bb
       -0.0015488387 -0.002615615 0.00070656853 -0.0042927708
0001b0 17 84 bf 3c 0c 45 b5 bb b5 e6 f7 bb 19 b2 30 3b
       0.023378415 -0.0055319127 -0.007565344 0.0026961623
0001c0 f6 ac 70 3b ea eb 5f 3b 87 71 3e 3d 3e 97 cd bb
       0.0036724187 0.0034167715 0.046494987 -0.006274133
0001d0 66 44 3b bb fe ee 3c 3b 97 da a8 3c c6 65 94 bb
       -0.0028574704 0.0028828974 0.020612044 -0.004528734
0001e0 6b 55 52 3c e7 e6 e1 39 3d 12 a1 3a 99 2d b1 3b
       0.012837748 0.0004308738 0.0012288761 0.005407047
0001f0 33 c6 54 3b 61 3f b6 3b 2a 8f c5 3a 4f d6 da bb
       0.0032466769 0.0055617546 0.0015072573 -0.0066783796

network_body._body_endoder.seq_layers.2.weight f4 [128, 128]
000000 99 1d 6e bc 6a bc fd 3c 78 fe 69 bd 5d 09 27 bd
       -0.014533424 0.030973632 -0.057127446 -0.040780414
000010 e7 1a cf 3d 56 21 35 bd 7f ab a2 bd 5f 65 a3 3d
       0.10112553 -0.044221245 -0.079428665 0.079783194
000020 51 1a 99 bc 23 60 0e 3e b7 4b c0 bc 51 a3 bd 3c
       -0.018689306 0.13903861 -0.023473604 0.023149164
000030 f8 c3 a1 3c 6a a5 fc 3c 91 05 81 3d 0c f7 c6 3c
       0.019746765 0.030840594 0.0629989 0.024287723
000040 d9 e3 b2 bb 7d 76 ef 3c 11 e9 09 3d 26 41 c3 3d
       -0.0054592905 0.029231304 0.033669535 0.095339105
000050 a5 b2 34 3e a6 74 52 3d 36 c0 ad 39 62 7b 20 3d
       0.17646272 0.051380776 0.0003314034 0.039180167
000060 e4 e3 cb b9 5c 32 24 3e d1 45 22 be 8e 48 c4 3c
       -0.0003888897 0.16034836 -0.15846945 0.023960378
000070 9e 80 03 3b ec 76 f7 bd 19 63 16 3e 21 24 8a 3c
       0.0020065675 -0.120832294 0.1468624 0.01686293
000080 48 70 fd 3d bd 6e 44 bd 36 43 0d 3e 03 ac 2b bc
       0.123749316 -0.04795717 0.1379517 -0.0104780225
000090 25 df c0 3d b4 3f bc bd bf 9e 58 3e 78 72 cd bd
       0.094175614 -0.09191838 0.21154307 -0.10031599
0000a0 19 09 8c 3d 28 e7 67 3c 87 59 e5 bd 77 05 97 3d
       0.06837673 0.014154233 -0.111987166 0.07374089
0000b0 f0 13 2e 3c 7f 35 a3 bc a6 05 85 bd 86 bd 83 3c
       0.010624871 -0.01992297 -0.06495218 0.016081583
0000c0 ad f7 47 3d 13 3b e8 bd 8a 74 10 3e 5c 18 bd 3d
       0.048820186 -0.113393925 0.14106956 0.09233162
0000d0 99 8e 20 bd 7e ba c6 bd 14 84 91 bd 3e 5f dc 3d
       -0.03919849 -0.09703539 -0.0710527 0.107603535
0000e0 6d 07 fa 3d 7e 40 3d bd dd cd 98 3d df a2 af 3d
       0.122084476 -0.046204083 0.0746114 0.08575987
0000f0 ad 74 26 bd 3e 99 e4 3b cb 13 b1 3c f3 3a f6 3d
       -0.040638614 0.0069762757 0.021615883 0.120229624
000100 02 52 e7 3d f0 f2 48 bd a5 ed 35 bd 56 a0 6b 3c
       0.112949386 -0.04905981 -0.04441609 0.014381489
000110 8e 25 b3 3c 5b 7c 4e 3c d1 8a 00 bd b4 75 26 bc
       0.021868493 0.012602891 -0.031382386 -0.010159899
000120 cd b6 5c bd 5e 82 cc 3c 37 65 0d 3e 3e 98 17 3d
       -0.05388527 0.024964508 0.13808142 0.037010424
000130 9e cc 00 3d 96 53 14 3d 2b 26 dc bc e7 a0 9b bd
       0.03144514 0.036212526 -0.026873669 -0.07599049
000140 ff a8 17 bd 7c 07 3b 3c b7 22 fd 3d c1 7b bf bb
       -0.0370264 0.011415359 0.12360137 -0.00584361
000150 e1 18 1e bc e4 98 a3 3d bb 7e d3 bc c2 31 d7 ba
       -0.009649486 0.07988146 -0.025817266 -0.0016418027
000160 9a 48 43 3d e8 a1 93 3d 07 b2 83 3d 41 20 a3 3e
       0.04767666 0.072086155 0.064304404 0.31860545
000170 08 19 e4 3d 1c b4 9a 3c ee c6 31 3d cb 7a 2b bd
       0.11137587 0.018884711 0.043402605 -0.04186515
000180 cd 4d b7 3d e4 6f 25 3d 25 70 2f bd b8 d6 a2 bd
       0.08950386 0.04038991 -0.04283156 -0.079511106
000190 97 96 90 3d f9 0d c7 bd 18 40 2c bc 5c 2a b9 bd
       0.07059973 -0.09719462 -0.010513328 -0.090412825
0001a0 ee 39 b1 3d e6 a9 0f 3e d6 24 8e 3d 83 63 5a bd
       0.08653627 0.14029655 0.0694062 -0.053317558
0001b0 4e 89 2d bd 6f 73 a6 bd f8 c3 56 be b0 ab af bc
       -0.042367272 -0.08127486 -0.20973194 -0.021444172
0001c0 93 07 77 bc 47 d3 27 bd 35 ef 63 bd 28 d2 89 bd
       -0.015077489 -0.040972974 -0.055648047 -0.06729537
0001d0 aa f9 4c 3e 03 64 21 3e c3 37 ae bd 5e 25 6f 3c
       0.20017114 0.15760808 -0.085067295 0.014596311
0001e0 cf 9d e4 3b be bb 83 bd 29 13 97 3c 0b 4c 5e 3c
       0.00697682 -0.06432293 0.018441753 0.013567935
0001f0 a3 97 c1 3c 32 2c e1 3c 6b e8 03 3c 2e 52 b0 bd
       0.023631876 0.027486894 0.008051018 -0.086094245
000200 82 6c 48 be d1 ec 87 bb 4f ff f0 bd ca fd b7 3d
       -0.19572642 -0.0041481038 -0.11767446 0.08983953
000210 79 dc 8a bd a1 83 d5 bd 37 75 01 be eb 61 34 3c
       -0.06780333 -0.10425497 -0.1264237 0.011009674
000220 0c 85 a5 bc a3 a6 d4 3d 5c 35 38 bd 5a 33 8c 3d
       -0.020205043 0.10383346 -0.044972762 0.06845732
000230 82 ee e1 3d 17 09 04 3d 45 3c ea 3b 8f fe 2d 3e
       0.1103182 0.03223523 0.007148298 0.16991638
000240 1c 3d dd 3d c7 87 db 3d de a0 15 3d ec a6 d5 3d
       0.10802671 0.10719257 0.036530368 0.104322284
000250 c4 4a 50 bd cf 0b 0d bd a5 c1 58 bd 94 7e ef bd
       -0.050852552 -0.03443509 -0.05291905 -0.11694065
000260 cf 69 23 bd fa 15 4f bd cd 19 3b 3d 48 b1 76 3d
       -0.03989583 -0.050558068 0.045678902 0.060227662
000270 b6 42 a3 bd ad 3d 16 bd 1b 3a a2 3c 0b fd 5b bd
       -0.079717085 -0.036679912 0.019803097 -0.053708117
000280 bb ca 8d 3b c0 ff da bd dd ad f2 bd 16 2a 05 be
       0.004327146 -0.10693312 -0.11849568 -0.13004336
000290 15 39 fd 3c a4 51 ae 3c 9d b6 a6 bb 00 e4 23 bc
       0.030911008 0.021279164 -0.005087687 -0.01000309
0002a0 93 3b 09 be 1f c2 b8 3d a3 d0 1f bc 9a 8e 23 3e
       -0.13401632 0.09021401 -0.009754333 0.15972367
0002b0 0f fe ff bb f3 36 ad bc fc 26 9c 3d b1 ce 9a bd
       -0.0078122686 -0.021144366 0.07624623 -0.075589545
0002c0 5a 04 a8 bc 5d 62 e3 bd a0 4e 99 3b 76 f0 f8 3d
       -0.020509887 -0.11102746 0.0046785623 0.12155239
0002d0 a1 ec 1a bd 09 d8 97 3b aa 2b 4d 3d db 5d a2 3c
       -0.037823323 0.0046339077 0.05009047 0.019820144
0002e0 3d fa b2 3d 46 08 8a 3d 9b 70 b2 bd 53 19 a6 bc
       0.087391354 0.06739859 -0.08712884 -0.020275747
0002f0 cc b7 c8 bd ad 8f 05 bd 0c eb e7 3c 04 59 6c bd
       -0.098006815 -0.032607723 0.028310321 -0.05770208
000300 7f e6 51 be 08 27 19 3d 2c e4 e6 bd 05 13 88 bd
       -0.20498084 0.03739074 -0.11273989 -0.06644253
000310 42 11 a4 bd aa 9e b2 3a 81 07 18 bc 30 ca 75 bc
       -0.08011104 0.0013627608 -0.009279133 -0.015001819
000320 80 e2 c2 3d 01 55 61 bb d9 57 bc 3d ad 78 57 3d
       0.09515858 -0.0034382942 0.09196443 0.05260532
000330 30 d7 56 bd e5 93 b9 bd 4d 11 bb 3d ef 47 f9 3c
       -0.052451313 -0.09061412 0.09134159 0.030429808
000340 48 c8 21 3d e9 55 bf bd 5c 12 2b 3c 5d 0b 7c bc
       0.039497644 -0.09342558 0.010441389 -0.015383569
000350 18 33 5d 3d 30 c6 d2 bd 46 45 9d bc 6e 90 36 be
       0.054003805 -0.102917075 -0.019198071 -0.17828533
000360 7a dc 12 bd bb 93 0b 3d fd 87 6a bd 17 ea 46 3d
       -0.035854794 0.034076434 -0.057258595 0.04856309
000370 d0 d2 d4 3c 8f 4f ea bd ac 56 c2 3d bc 86 57 bd
       0.02597943 -0.11440956 0.094891876 -0.052618727
000380 8f 0b 4e 3d 5e 01 0a 3e 78 fb 49 bc 5c 34 70 3b
       0.050303992 0.13477084 -0.012328021 0.0036652302
000390 c4 9a dc bc 9c da d5 bc 69 c8 1b 3d d4 00 04 3e
       -0.026929267 -0.026105218 0.038032923 0.12890941
0003a0 e4 18 21 3b 34 fe 68 3e 9d ea ed bd f9 5f 39 bc
       0.0024581486 0.22753221 -0.116170146 -0.011314386
0003b0 60 a2 2c 3d 31 bc b0 bd 53 f7 94 bd f6 4e e8 3d
       0.04214704 -0.08629645 -0.07273736 0.113431856
0003c0 12 69 1c 3e 04 2b 95 3c 69 94 55 bd 6d 08 c3 bd
       0.15274456 0.018208988 -0.052143488 -0.095230915
0003d0 04 6b 0c 3e 8c 50 be bd 4a a5 cb bc d1 0d e2 3d
       0.13712698 -0.09292707 -0.02485909 0.110377915
0003e0 84 f5 28 3d 74 9b e9 3c 95 87 db 3d 2e cd b7 3c
       0.041249767 0.028516509 0.107192196 0.022436704
0003f0 35 1d bc 3d 02 79 47 3d 5c e8 a3 bd f2 6d 89 3d
       0.09185258 0.048699386 -0.080033034 0.067104235

network_body._body_endoder.seq_layers.2.bias f4 [128]
000000 a5 56 5d bc d6 bb ce 3b a5 c8 83 3c 0f cd 03 3c
       -0.013509427 0.006309013 0.016086886 0.008044495
000010 f9 07 0f bc 13 86 fc 3b 5a 36 53 bb 95 6b 09 bc
       -0.008729928 0.0077064126 -0.003222844 -0.008387466
000020 fc 5d 8b 39 ae a3 2b bc e8 b2 12 bc 6c 32 9f 3b
       0.0002658217 -0.010476036 -0.008953787 0.0048583057
000030 0b f9 a8 bb d2 26 7f 3b 8f 3a a3 bb 02 52 4e 3c
       -0.0051566414 0.003893305 -0.004981346 0.012592794
000040 3e 4f 5a bb f4 2c a3 bb 85 df a2 ba 71 26 1b 3c
       -0.0033311392 -0.004979724 -0.0012426233 0.009469614
000050 65 78 2c bc f5 21 c5 bb cf 20 04 3c ed 54 3b 3c
       -0.010526751 -0.006016011 0.008064463 0.011433822
000060 b7 cd 9a 3c 09 e0 e8 3c 92 ab 40 3c 39 af 42 3c
       0.01889692 0.02842714 0.011759656 0.011882597
000070 ef 1a 84 bc 5d 13 55 bc 84 13 0e bc 90 60 38 3c
       -0.016126124 -0.013005105 -0.008671645 0.011253491
000080 4d 37 de 3c 98 55 48 bb 9f 71 46 3c b6 96 30 3c
       0.027125979 -0.0030568596 0.01211205 0.01077812
000090 03 dc 23 bc cc 15 92 3b 8c 8f 02 3c cb d7 cc bb
       -0.010001185 0.004458165 0.007968795 -0.0062513105
0000a0 d8 79 7c bb af 72 21 bb 75 af 31 3c b9 09 bc bb
       -0.0038524773 -0.0024635007 0.010845055 -0.0057384637
0000b0 18 88 3c bc f9 35 d5 3a 03 7e a6 bb 2d 8b a2 b7
       -0.011507057 0.0016266695 -0.0050809397 -1.9376714e-05
0000c0 20 01 2e 3c fe 49 63 3c 92 20 88 3b 26 31 6e 3b
       0.010620385 0.013872622 0.0041542733 0.0036345213
0000d0 19 cb 20 bc 9e 33 c5 bb 76 3d 18 3c 2d 41 cf bb
       -0.009814047 -0.006018116 0.009291997 -0.006324908
0000e0 b5 47 1e 3b e3 e6 d9 3c 96 77 58 3b ca 59 0d 3c
       0.0024151627 0.026599353 0.0033030263 0.008627364
0000f0 8f 98 41 3c f8 83 31 bc 0e 38 15 bc 41 4b 72 3c
       0.011816158 -0.010834686 -0.009107603 0.01478845
000100 d6 40 aa b9 4a b2 3a 3c ed e4 0d 3b b6 c9 c2 bb
       -0.00032473233 0.0113950465 0.0021651343 -0.005944456
000110 cd f4 3d bc 68 76 0d 3a 80 5e a2 b9 30 09 c9 3c
       -0.01159401 0.0005396367 -0.00030969456 0.024540514
000120 ab 2d 19 3c 6c ce 3b 3c 2f 1e 48 bc 8c 30 1d ba
       0.009349267 0.011462789 -0.012214228 -0.0005996309
000130 56 54 80 bb 08 87 17 3c 23 78 9b 3b f9 7d c4 3c
       -0.0039163036 0.009248503 0.004744546 0.02398585
000140 53 2b 1f bc 33 48 c0 bb b1 ea bb bb c2 e7 cf ba
       -0.009714919 -0.005867982 -0.0057347645 -0.0015861916
000150 e3 79 62 bc 8f d2 b7 3c 6a f6 b1 bb af f4 a6 3c
       -0.013823005 0.02243927 -0.005430986 0.020380346
000160 bf d3 e0 bb 37 c1 07 bc ac 6b 17 ba 38 fa 16 3c
       -0.0068611796 -0.008285812 -0.0005776237 0.00921493
000170 6e 4f b2 ba cf 13 0c 3c 37 db 42 bc c0 65 1a 3c
       -0.0013603994 0.008549645 -0.011893085 0.009423673
000180 bc 23 54 3c c1 15 81 ba 13 1f 98 3c 37 e5 3b ba
       0.012947973 -0.0009848402 0.018569505 -0.00071676396
000190 62 2b 31 3c 8c 50 57 bb 61 8c 5d bc 02 f8 92 3c
       0.010813566 -0.0032854406 -0.0135222385 0.017940525
0001a0 2f 61 b0 39 63 f6 ed 3c 14 32 67 3c 7d 49 46 3c
       0.00033641743 0.02904815 0.014111061 0.012102482
0001b0 b1 58 df bb 48 58 00 bc 1f 12 89 bc 09 33 40 bc
       -0.0068159928 -0.007833548 -0.016732274 -0.011730918
0001c0 d9 12 8c bc 0a 6f e0 bb d7 96 4e bb a0 03 84 bb
       -0.017098831 -0.0068491744 -0.0031523013 -0.0040287524
0001d0 41 2d 99 3b be aa 0f bb 14 c8 68 3c d5 3a 61 bb
       0.004674584 -0.0021921839 0.014207859 -0.0034367342
0001e0 1b 19 8d bb 5b ef d0 3c d6 ec 02 bc 0c 1e 0d bc
       -0.0043059713 0.025504759 -0.007991036 -0.008613121
0001f0 06 d2 7d bb 69 4e 22 bc 05 15 4a bc 5d c8 33 3c
       -0.003872992 -0.00990639 -0.012334113 0.010973063

action_model._continuous_distribution.log_sigma f4 [1, 2]
000000 67 1e 00 3b 7b 9c bf bc
       0.0019549371 -0.023390045

action_model._continuous_distribution.mu.weight f4 [2, 128]
000000 00 15 6d 3b b7 69 fe b9 9b 64 32 3d d1 57 e3 3c
       0.0036175847 -0.0004852542 0.043552976 0.027751835
000010 b6 50 01 3c 89 d8 e6 bb d7 3b c6 3c 72 4e 8a b9
       0.007892778 -0.007044856 0.024198456 -0.00026379857
000020 ec 8f 18 3d ce c0 3d b9 11 e5 dc 3c fc fe 47 bc
       0.03724663 -0.0001809627 0.026964696 -0.012206789
000030 97 35 81 3c f7 d5 a8 3a 63 ed 37 3c 05 32 d1 bc
       0.015772624 0.0012881149 0.011226031 -0.025536546
000040 ee 33 99 3c 31 1c 05 3b b3 e8 11 3c 95 da 9d 3c
       0.01870152 0.0020310993 0.0089055775 0.019269267
000050 e3 7d c8 ba c1 e4 28 3c f9 21 48 bc a2 33 2d bc
       -0.0015296306 0.010308445 -0.012215131 -0.010571392
000060 9b c9 fc bc 3e 65 3e 3d 46 37 83 bc 5b 67 69 3d
       -0.030857852 0.04648327 -0.016017567 0.056983333
000070 13 82 a9 ba 3b a5 20 3d 2a ae a9 3c 78 a2 19 bc
       -0.0012932442 0.039220076 0.02071293 -0.0093771145
000080 6b 68 6f bd 17 9c 84 3b 45 37 8a bc f1 49 52 bb
       -0.05844919 0.0040469277 -0.016872058 -0.003208753
000090 81 d6 f9 3b 61 a6 59 bb 94 dd 79 bb d0 d3 90 3c
       0.007624448 -0.0033210742 -0.0038126456 0.017679125
0000a0 6c 11 e8 3b 65 54 8b 3d 99 44 f4 bb 39 79 85 3c
       0.007082155 0.06803206 -0.0074544665 0.016293155
0000b0 72 42 d6 bb c7 7f e6 bc e4 77 99 3c c3 ad 84 bc
       -0.0065386826 -0.0281371 0.018733926 -0.016196137
0000c0 72 27 88 bc 3d 99 2b 3d 2b 51 56 bc ce 1a 99 bc
       -0.016620371 0.041894186 -0.013080875 -0.01868954
0000d0 4c 4c 6a 3c b9 7e a6 3d c1 45 50 bc 0c b1 c9 3c
       0.014300417 0.08129639 -0.012711943 0.024620555
0000e0 2e 2b 33 3a 81 50 f8 bc 9b 58 04 3c a7 c8 98 bc
       0.00068347424 -0.030311825 0.008077766 -0.018650366
0000f0 9d a5 01 3d 81 77 be 3c f4 d3 23 3d 0b 37 6f bd
       0.03165208 0.023250343 0.039997056 -0.058402102
000100 ef b0 b1 bb 65 b9 12 bd b4 d9 5b bc 4c c2 60 3a
       -0.0054227035 -0.035821337 -0.013418604 0.00085738744
000110 19 07 bb 3c 5d 33 98 3b 17 9e 01 bb e3 b5 82 bc
       0.022830533 0.004644795 -0.0019778067 -0.015955871
000120 26 f4 84 bc 37 4a 56 bc c9 83 6a 3c 06 ff fd bb
       -0.0162297 -0.013079218 0.014313647 -0.0077513484
000130 2d c6 85 bc 1a ed c9 3d fc 2a f7 bb 56 61 0d 3d
       -0.01632985 0.09859677 -0.007542966 0.034516655
000140 36 be a7 3c f2 68 57 bc 4b 9b ab 3b 0a 5a b0 3c
       0.020476442 -0.0131475795 0.005237018 0.021527309
000150 0f 0e 7c 3c a4 9e a1 3d d1 1a f0 3b b7 86 9c 3d
       0.015384211 0.078915864 0.0073274155 0.07642882
000160 af 30 55 3c 76 c2 28 3c da fe 62 bc 87 be 0e bc
       0.013012095 0.010300269 -0.013854707 -0.008712417
000170 9e 0e f1 bc 11 87 2d bc e3 89 c2 3c af 06 61 bc
       -0.029425915 -0.010591284 0.02374739 -0.013734504
000180 2d bf 9a 3d 80 ac b6 3b e1 d9 5c 3d bc 96 3d 3b
       0.07555995 0.005574763 0.053918723 0.0028928956
000190 a8 ae 2a bc c7 e3 f1 bb 63 f9 68 3c f3 58 ae bc
       -0.010417618 -0.0073818895 0.014219615 -0.021282649
0001a0 9e 5f 72 3d 74 a8 75 bd dc 2c 94 3c b7 d2 e7 bc
       0.05917322 -0.059975103 0.018087797 -0.028298719
0001b0 5a 8f e4 3b f5 e4 12 bc f2 77 7a 3c 6a f9 00 3d
       0.0069750967 -0.00896572 0.015287386 0.03148786
0001c0 9d ce 9a 3c 86 57 80 3c 73 e2 18 bc 40 48 1a b9
       0.018897349 0.015666734 -0.009331333 -0.000147135
0001d0 c3 a9 32 3d 3d d5 4a 3c 2c 4a b1 bc a8 b1 18 3d
       0.04361893 0.0123799415 -0.021641813 0.0372788
0001e0 56 39 27 3d 4d 1b 61 3d 57 43 95 bb 21 7b 18 3c
       0.040826164 0.054957677 -0.0045551467 0.0093067
0001f0 85 3c 89 3c dc eb 04 3c 41 cb 63 ba 60 cd 43 bc
       0.01675249 0.008112874 -0.000868965 -0.011950821
000200 ff 2f 72 ba 3a ef d1 bc 98 0b 0f 3d 34 a8 45 3d
       -0.00092387194 -0.025626767 0.034923166 0.048256114
000210 68 b8 57 3c 0f a4 30 bc 2a 73 29 bd de 38 d3 3b
       0.0131665245 -0.010781302 -0.041369595 0.006445988
000220 14 67 44 bc 11 29 54 3b ad 9b 80 bc 64 75 65 3c
       -0.011987466 0.003237311 -0.015699232 0.014005039
000230 ab 70 9e 3c c9 c0 c2 bc 97 58 74 3c b8 e7 aa 3a
       0.019340834 -0.023773568 0.0149137 0.0013039028
000240 20 d4 dd 3b 52 79 f5 3c e6 1b 2f bb 26 b7 c3 bc
       0.006769672 0.029965077 -0.002671951 -0.023891043
000250 c6 cf 06 3c 44 9f fc bc f7 cb 80 3c 30 bb 41 b9
       0.008228248 -0.030837663 0.015722258 -0.00018475647
000260 59 e0 e9 3b 5e d0 29 3d 67 53 53 bb 8f 0c 57 bd
       0.00713734 0.04145848 -0.0032245757 -0.05250221
000270 ba 99 7c 3b a9 17 b7 bc cc 74 39 bc a1 08 68 bb
       0.0038543777 -0.02235015 -0.01131935 -0.0035405534
000280 6a 92 cd bc 9d b5 aa bc 24 b2 0c bc 1e 82 ec bb
       -0.02509423 -0.020838553 -0.008587394 -0.0072176596
000290 d4 08 27 3d 9a 64 73 bb 33 7b c4 3a 8a 31 bb 3b
       0.040779904 -0.003713882 0.001499033 0.0057126926
0002a0 ff ff 90 bc b3 72 26 3d 7a 97 c3 ba be 9b f2 3c
       -0.017700193 0.04063673 -0.0014922463 0.02961528
0002b0 fa 9b 87 3c f2 78 10 3d c1 a8 43 3a cc eb 15 bc
       0.016553868 0.035271592 0.0007463806 -0.009150457
0002c0 78 a1 21 bb eb 60 31 3d d6 3e da 3b 30 75 ad 3c
       -0.0024662893 0.04330532 0.0066603227 0.021174043
0002d0 b0 b7 dc bb b6 1e 3c bc 5b 75 35 3c e6 56 c9 bc
       -0.0067357644 -0.011481931 0.011075343 -0.02457757
0002e0 9a 89 f8 3b 65 45 91 bb c0 25 00 3d ff 51 43 3c
       0.0075847628 -0.0044333213 0.031286 0.011921405
0002f0 3d d6 2b 3d cc 19 db b8 d0 7b ca bc 09 29 f3 3c
       0.04195236 -0.00010447539 -0.024717242 0.029682653
000300 e5 e7 80 3c 9c a8 cd ba c2 a9 aa 3c 84 65 d0 b9
       0.015735576 -0.0015690508 0.0208329 -0.00039748487
000310 cc 02 88 3c dc ad ad bc 8c 78 f3 b7 44 69 04 bc
       0.016602896 -0.021201067 -2.9023991e-05 -0.008081738
000320 2b 5f 76 bc 8d 25 9f bc 11 c3 8a 3c 9a 22 1f bc
       -0.015037338 -0.019427085 0.016938718 -0.0097128395
000330 83 2a de 3c 5c 54 00 3d 7a 4f 27 3d d5 43 19 3d
       0.02711988 0.03133045 0.04084728 0.037418205
000340 84 11 6d bc 85 25 0f 3d c7 f6 2c 39 f5 6d 07 bd
       -0.014469508 0.03494789 0.0001649513 -0.033063848
000350 97 f0 6a 3c a0 c4 33 3c 4a 78 25 3b 4a 95 08 bd
       0.014339588 0.010972172 0.00252487 -0.0333455
000360 7e 0f ae bb 6f b0 0a bc ce 1d b8 3c 8a 3c af bb
       -0.0053119054 -0.008464917 0.02247515 -0.005347793
000370 ac 98 fb 3c 23 2d 43 bc 5f 64 fe 3b b3 19 18 bc
       0.030712448 -0.011912617 0.00776343 -0.009283471
000380 d0 69 9e bc 3f f0 53 bc 11 c6 32 3d 65 0e 99 3c
       -0.019337565 -0.012935697 0.043645922 0.018683622
000390 7b 34 6d bb 3e 9e 34 bd eb e6 d0 3a 72 8d d1 3b
       -0.003619461 -0.044096224 0.001593796 0.0063950354
0003a0 9a 11 ca bc 7e 46 3e 3d 65 e2 fd 3c 19 12 b8 3b
       -0.024666596 0.046453945 0.030991742 0.005617392
0003b0 c9 d1 96 3c c3 74 d1 3c b7 27 02 3c 1b bc 5c 3c
       0.01841058 0.025568372 0.007944039 0.013472582
0003c0 f2 da 87 b7 bb c5 e2 bc bf d6 e7 3a 77 38 f4 3b
       -1.6195208e-05 -0.027682176 0.0017687901 0.00745302
0003d0 5a 45 9f 3c bb b6 02 bd 48 71 35 3b cb 4c 85 bd
       0.01944225 -0.031912547 0.002768593 -0.06508788
0003e0 5b 80 3a bd 91 1f 55 3c 24 06 01 39 20 9d 6e 3c
       -0.045532566 0.013008014 0.00012304686 0.014563829
0003f0 60 0e 7a bc 8d 35 00 3d b2 eb 51 ba 57 39 b1 bc
       -0.015262216 0.03130107 -0.00080078386 -0.021633787

action_model._continuous_distribution.mu.bias f4 [2]
000000 93 9c 46 bc 7c e1 41 bb
       -0.012122291 -0.0029583862
