MachineLearning/results/testSumo20/MoveTOGoal/checkpoint.pt (torch, 441378 bytes, 36 tensors)

network_body._body_endoder.seq_layers.0.weight f4 [128, 6]
00000000: 312b 0f3d 1cdd 31be 162c cf3e b2bd 813e
00000010: 4744 6bbd 2aec a33e afb1 813c b4d6 dcbd
00000020: edf0 e73e cc1b 993e 527f 85bd 90f5 0ebe
00000030: f4e9 21bf 2f29 d4be 2f32 64bf 34f0 413e
00000040: 9364 403d fdde 3a3f a9dc 053e 1bbd be3e
00000050: 5268 8e3d fca6 2cbf f4ba 4cbd 18a8 a8be
00000060: 8d0a 2ebb a276 973d 85ae 20bf f00d 093f
00000070: 708e 4dbe 89eb 253d 11a0 d5bd 2713 d63e
00000080: 63f0 98be 2507 a8bd adf5 bd3e 5abe 2fbe
00000090: b473 eebe 9ca2 493e adc4 813e 34bb a7be
000000a0: f8ec 8ebe da8a d8be d46c 043e 5048 393d
000000b0: d9f5 52bf f6e3 553e 42d9 853e 5953 07bf
000000c0: 7bb2 bd3e dc49 d9bc 0c00 11bf f813 a1be
000000d0: a32f d4be 317f 54be 18c1 9ebe 32fa 5c3e
000000e0: ee58 443f af15 653d d5c7 ae3e f0f0 4cbf
000000f0: 9771 56be 322b 973d d256 f83c 8c29 df3e
00000100: 207a cdbd a26b debe be6b 743f e2b8 393e
00000110: debb e5be 0b89 b63c 5e9a 1dbf d55d cc3e
00000120: a49d 47be c503 04bf f8dc 0dbf b184 91be
00000130: 8921 d1be 11f5 733c d22b 1ebf 008c f1be
00000140: a28f d4be b695 c1be 8d45 843e 98aa 5d3e
00000150: 74c0 43bf f372 923c ccd2 94bd 7f90 06bf
00000160: 0435 35bd 3b3c febe 6b50 9fbe 1eae 16bf
00000170: f2db c0be 68a3 23bf cab5 5f3e 9a5e cdbd
00000180: 0d04 abbd f06e 34be 9a42 203e 65ae a43d
00000190: 7dd5 3cbd 7a15 943e d292 9ebf c9b6 32bf
000001a0: d01f f1bc b3e8 94bf 6616 c33e e08a 383e
000001b0: 66fa 5e3e 06b4 70bd 0d17 ff3e d6ca a6be
000001c0: fa93 8fbe 64c3 05be 7a84 13bf 307d e2bd
000001d0: 816c e93e b43f 8fbd 5b35 f53d 03d4 adbe
000001e0: 7a3a 5a3f 7a91 8b3d 3f2d b5be fc0e 8a3e
000001f0: 2a70 0e3c 9144 90be 1633 083e 650e 01bf
00000200: 3972 69bf bd95 a83e d4ce b1be e53a dbbe
00000210: fdaa 14be 6f7b c23e fc45 a6be cd68 f13e
00000220: f42d 37bf bba5 d83e 1163 ddbe 5435 2cbe
00000230: 3b23 ae3d c749 cd3e 039e e53e b304 9bbe
00000240: 36c0 1e3f 9f9e 12be 2300 e03e 294b 363e
00000250: 0fba b3be 4f96 8abd 5fd9 cf3e c23d 9abe
00000260: c33e cebd e64f 3ebf 82a9 153f ff87 0b3f
00000270: 78a2 093f 6d55 e9be bbf1 b13d 370c 5bbf
00000280: ac5d 033d 1043 02be a8d6 ffbd f939 803e
00000290: 7318 59bf f870 db3e 19b1 073d 5f16 12be
000002a0: 8fc0 a3be 92e8 113f bb53 43bf 3843 b23d
000002b0: 0fb9 91be 7007 0e3f 1d4f d13d 20bc 2bbf
000002c0: cfdd 7bbe 09a5 423f 2c88 d43d 64cd 293f
000002d0: 2344 45be ec24 1dbf 5ff7 613e fd42 08bf
000002e0: 5527 563d a784 bd3e 6607 4b3e f9d5 34bf
000002f0: 9583 35be d773 ed3d 2d10 c93e c24e 46be
00000300: 70fc 7c3d 82bf 0f3e e438 0abf 7457 173e
00000310: 7f53 a7be 874b 1bbe 22ad bc3b 8fee 45be
00000320: 3549 0e3e 7908 1e3f 1098 f5be 1c8d 99be
00000330: 9308 85bd 6d03 f63d 040c 3d3e 86e6 863e
00000340: f528 31be 07b6 adbe 1131 d93e 10f6 383e
00000350: 1db5 0bbf b29d b23d c652 26bf 4453 46bf
00000360: 9784 063f 7a68 1c3f 2825 a5be 7c4d 82be
00000370: 65e7 df3d 2438 95be d410 23bf b77f e53e
00000380: bbf5 b4bc d94f f13e fa7f a83e 7ece adbe
00000390: 85cf 143f ca4c a9bc 6bf7 803d 2880 83be
000003a0: 0049 47bd d424 97be d9f7 ddbe 5e9f 033f
000003b0: 68ea d13d a93f bbbd c2cc b53d f63b a1be
000003c0: 449f e5be 22f8 2f3f 71fd 55bc 0205 ccbe
000003d0: 81dc 08bf 8499 1ebf 8a81 323e fffd fa3e
000003e0: d832 a9be 9604 94be 0575 ff3c 2653 0abd
000003f0: ddcf 24bf 47d7 bfbe 6edd 3cbe 93c0 1b3e
0.0349533 -0.17369503 0.40463322 0.2534004 -0.05743816 0.32016116 0.015831796 -0.10783139
0.45301 0.2990402 -0.06518425 -0.13960862 -0.6324761 -0.4143767 -0.89139074 0.18939286
0.046970915 0.72996503 0.13072456 0.3725365 0.06953491 -0.674423 -0.04998298 -0.32940745
-0.0026556582 0.07395674 -0.62766296 0.5353689 -0.20073867 0.040507827 -0.10430921 0.41811487
-0.298709 -0.08204488 0.37101498 -0.17162457 -0.4657265 0.19690937 0.25345364 -0.32760012
-0.27915168 -0.42293435 0.1293214 0.04523498 -0.82406384 0.20887741 0.26142317 -0.52861553
0.37050232 -0.026524477 -0.56640697 -0.31460547 -0.41442594 -0.20751645 -0.31006694 0.21579817
0.76698196 0.055928882 0.34136835 -0.8005514 -0.20941769 0.07381286 0.030314837 0.43586385
-0.10033059 -0.43441492 0.954769 0.18136933 -0.44869894 0.022282144 -0.6156367 0.39915338
-0.19493729 -0.5156825 -0.55415297 -0.28421548 -0.40845898 0.014889971 -0.61785614 -0.47177124
-0.41515833 -0.37809533 0.25834313 0.21647108 -0.76465535 0.017877078 -0.07266769 -0.52564234
-0.044240013 -0.49655327 -0.31116042 -0.5885943 -0.37667805 -0.63921213 0.21846691 -0.100278094
-0.08350382 -0.17620444 0.15650406 0.080410756 -0.046102036 0.28922635 -1.2388556 -0.6981016
-0.029434115 -1.1633514 0.38103026 0.18021727 0.21775207 -0.058765434 0.49822274 -0.32576627
-0.28042585 -0.13062817 -0.5762402 -0.11059034 0.45590594 -0.06994572 0.119730674 -0.33950815
0.8524548 0.06814857 -0.35386083 0.26964557 0.008693734 -0.28177312 0.13300738 -0.5041259
-0.91189915 0.3292674 -0.3472811 -0.4281837 -0.14518352 0.37984797 -0.3247527 0.4715027
-0.71554494 0.42313942 -0.43239644 -0.16817218 0.085028134 0.4009535 0.44847116 -0.30277023
0.6201204 -0.14318322 0.43750104 0.17802109 -0.3510289 -0.0676695 0.40595528 -0.30125242
-0.100705646 -0.74340665 0.58461773 0.5450439 0.5376353 -0.45572987 0.086886846 -0.85565513
0.032071754 -0.12720895 -0.12492114 0.2504423 -0.8480293 0.42859626 0.033127878 -0.14266346
-0.31982848 0.569955 -0.7629964 0.08704227 -0.284615 0.554801 0.10220168 -0.6708393
-0.24596332 0.76033074 0.10377535 0.66329026 -0.19264273 -0.61384463 0.22067021 -0.53227216
0.052283604 0.37015268 0.19827041 -0.70638996 -0.17725976 0.1159436 0.39270154 -0.19365981
0.06176418 0.14037898 -0.5399306 0.14779454 -0.3268089 -0.1516553 0.0057579437 -0.19329284
0.13895114 0.6173168 -0.47967577 -0.2999047 -0.06495776 0.12012372 0.18461615 0.2634775
-0.1730078 -0.33927938 0.42420247 0.18062615 -0.5457323 0.08721484 -0.6497005 -0.77470803
0.52546066 0.6109692 -0.3225491 -0.2544974 0.10932807 -0.29144394 -0.6369755 0.44824
-0.02208983 0.4713123 0.32910138 -0.33946604 0.5812915 -0.020666499 0.06297191 -0.25683713
-0.048653603 -0.29520285 -0.43353155 0.5141505 0.102497876 -0.091430016 0.08876945 -0.3149106
-0.44848073 0.68737996 -0.013060913 -0.3984757 -0.5346146 -0.61952996 0.17432228 0.4902191
-0.33046603 -0.2890975 0.031183729 -0.033770703 -0.64379674 -0.3746893 -0.18443844 0.1521018

network_body._body_endoder.seq_layers.0.bias f4 [128]
00000000: 9345 62bd 0fed b5bd 768f c9bc 9187 813b
00000010: e70d 56bc 0138 a1bd 74f8 d1bd 7150 bf3b
00000020: 9c48 aa3c a92a 86bd 87c6 f8bb a56e 1abd
00000030: 1656 8cbd 1fde b73c a22a 4b3c ab25 86bc
00000040: 8bd9 96bd b0e6 353d b651 803c 65d1 543d
00000050: 3b2f 12bd 5f96 fc3c b076 323c bc7e a03c
00000060: a4e7 513d b459 533c c195 e83c 9d9c 8abd
00000070: 7711 2fbd edd8 1bbe 1607 463d f53f e7bc
00000080: f49c 963c 76ef 80bc b677 6fbd b63a d5bd
00000090: ee56 3c3c 76fc 62bd fbdf dd3c 9ed4 4ebd
000000a0: 5d10 c8bd 5dc7 99bd c57e 70bc eaa9 ad3d
000000b0: 44e8 0fbe f9fc b5bd 8353 583d 12f4 583c
000000c0: 901f 6c3c 6c84 6cbd 9f7b 52bd 6240 c23a
000000d0: 8ae5 89bd e3ac 14bd 5c16 16bd 7e8b 8dbe
000000e0: f481 8d3b 8dfc 12bc 6950 9bbd 527e 0dbd
000000f0: b1b6 e6bb 7da7 843c fe15 883c f564 963d
00000100: 2b52 1cbd 56b5 183d eccd e4bd 4db6 18bc
00000110: 60fa a9bd 9c2c 64bc 6497 b3bc 722d 843d
00000120: e6af a2bd d30b e5bc 4b13 843d e958 51bd
00000130: 8d13 97bc 7946 6abd 03c9 38bd fd88 ffbc
00000140: e2b7 00be c733 c8bd bb67 b7bc 9c98 febb
00000150: 5007 96bb ad07 b8bd ef4c a6bd 01f6 f23d
00000160: 7594 d8bb 2b52 5dbd 37ba 27bd 4c70 c6bd
00000170: 4110 b3bd 9848 15bd 8aaa 003d 8708 c8bc
00000180: 3077 54bd c074 67bd e9e8 9dbd 69b8 3ebd
00000190: b018 733d 449b 96bd 9cf5 e4bb ec66 8e3d
000001a0: 050e f9bd 3faa 00be 6c88 6cbd 92ac b2bd
000001b0: 1e17 14bd 6695 3fbc 7c21 06be 1464 e83c
000001c0: cd9f 05bd 7a83 8dbd 6155 5ebd 6ef6 37be
000001d0: 52b6 14be 9882 213d 1d59 09be 953f bf3d
000001e0: 4130 3f3d 0199 87bc 11ca 13bd b626 12be
000001f0: 3f69 87bd cfd4 86bd 440d d9bc 1ff2 0abd
-0.055242132 -0.08883106 -0.02460454 0.0039529284 -0.013064838 -0.0787201 -0.10252467 0.005838447
0.020786576 -0.065511055 -0.0075920257 -0.037703175 -0.06852357 0.022444783 0.012400301 -0.016375383
-0.07365712 0.044409454 0.015663963 0.051957507 -0.035689574 0.030833421 0.010892555 0.019591682
0.0512463 0.012899805 0.02839172 -0.06768153 -0.042741265 -0.1521947 0.0483466 -0.02822874
0.018385388 -0.015739184 -0.058463775 -0.10411589 0.011495335 -0.055416547 0.027084341 -0.050495736
-0.09768746 -0.07508729 -0.014678662 0.08479674 -0.14053446 -0.08886141 0.052814018 0.013241785
0.014411822 -0.057743475 -0.051387426 0.0014820213 -0.06733234 -0.03629769 -0.036642417 -0.27645487
0.00431847 -0.008971346 -0.075836964 -0.034544297 -0.0070408215 0.016193146 0.01661205 0.07343475
-0.0381643 0.03728231 -0.11172089 -0.009320808 -0.08299708 -0.013926651 -0.021922775 0.064539805
-0.07943706 -0.02795974 0.06448992 -0.051110182 -0.01844194 -0.057196114 -0.045113575 -0.03119325
-0.12570146 -0.09775501 -0.02238833 -0.0077696573 -0.0045785084 -0.08985839 -0.08120143 0.11863328
-0.0066094943 -0.05403344 -0.040949073 -0.09689388 -0.087433346 -0.036446184 0.03141264 -0.024418129
-0.05187148 -0.056507826 -0.0771044 -0.046562586 0.059349716 -0.07353833 -0.0069872867 0.069532245
-0.12160877 -0.12564944 -0.05774729 -0.087243214 -0.03615486 -0.011693334 -0.13098711 0.028368033
-0.0326231 -0.06909843 -0.054280642 -0.17965099 -0.14522675 0.039431185 -0.134129 0.09338299
0.046676878 -0.01655245 -0.036081377 -0.1427258 -0.06611871 -0.06583559 -0.026495583 -0.03392231

network_body._body_endoder.seq_layers.2.weight f4 [128, 128]
00000000: 0aef debc 8d10 febd aebb d3be fc0d 24be
00000010: b5b8 b93b 4204 073e 75a8 2c3d a2bc 4b3d
00000020: 3fb0 9b3c 43cd 60be 00ec 623d a5ce 7b3b
00000030: 427e f1bd 8ab9 26be d57c 1ebe 8f29 d83c
00000040: d2cb e9bc a641 5bbe c5cc a8bd 30b8 70bd
00000050: 16e1 a1bc 2870 bf38 8101 3bbe 70dd 1dbc
00000060: 408e 5ebe 8db6 b4bd 0b7f 40bd 13f0 90bb
00000070: 1483 133d 6eb4 9ebd 57de c5bd 9136 08bd
00000080: 5b2c 3f3d c51a 2b3e a89e e93d 02f9 223e
00000090: f676 f1bd 79c3 113c 0e61 28be 2675 ebbd
000000a0: ba44 7c3d d878 173e 115e 3fbe 45d9 e7be
000000b0: bc52 943d a20b 2a3c 069e 8dbd 8709 1f3b
000000c0: e161 78be 16e7 8dbd fab9 0d3e 35a3 823c
000000d0: 2e26 aebd 7507 a83d 9927 513d 994f c1bd
000000e0: a34f 083a 97a1 37bc e922 cf3d 2e46 a03d
000000f0: e491 363c 2c81 92bd ae11 e3bd f115 8c3d
00000100: 17d4 f1bc c3e6 233d 01af 0c3e 9ba9 8e3b
00000110: 6e76 603d dc85 633d 9d7f 27bc 41e5 76be
00000120: 012a b5bd b27c 263c 6fca 6abd 2c15 de3d
00000130: 044e e33d 0569 8d3d 2912 413e c388 983d
00000140: 402f 523d 1de3 0ebe 2907 893d a1ae 4abe
00000150: 6e16 0e3e cb26 08be 40e6 df3c 96c9 bb3d
00000160: f849 1cbc bcbc b23c 1cb5 2ebe 053e 3f3d
00000170: f550 ccbd 8bbb 16bc 511e b5bd 371b 8abc
00000180: 057d 2cbe cda8 26bd af90 ad3d 9746 8cbd
00000190: cc26 953d a215 083e 5fcb af3d ae68 39be
000001a0: cdb4 33bd 4b22 e33d ebec da3d 37ef 203e
000001b0: 7479 84be 2c23 38be c425 b23d 8487 52be
000001c0: 34bf 20bd 12e0 96bd 3965 9c3d c883 a13d
000001d0: c8a2 4e3d 45b9 79bd 4dee 4d3e 5f2d 42bd
000001e0: 93ce 84bb 84e6 debd 219f 4e3d 97a3 21bd
000001f0: b13e 6bbd 4abc 61bd 5cce d43d 6d20 d03c
00000200: 057b bbbd 588c 883d 1d45 a23c baf0 2f3e
00000210: a98d 7abc a076 23be 194c 3e3d c028 87bd
00000220: a7ef 873e b1f9 863d 131f 183d 3195 1abe
00000230: 67c3 363d 1aeb 213e 6596 193b 89c3 573e
00000240: e2f1 b33c 2810 76be c8eb 853d 7abb b23d
00000250: f679 72bc d064 aebd 041a b33d edb8 b1bd
00000260: d322 3b3e f22c 81be b062 af3e 81c7 9dbd
00000270: e087 163e 26bc 503d eb9a 8b3e 711a 543e
00000280: c826 31bc b212 f63d e922 c6bd f967 183d
00000290: aa7c 46be 545d 0e3e be92 fc3d e664 fdbd
000002a0: 9755 023e b3e4 4ebe 47a7 8b3d d22d d0bd
000002b0: 7582 f2bc 137e 05be 0480 60bd bdff 053e
000002c0: 3b43 04be ffec f33d d43a c9bd 9659 96bd
000002d0: 3dda 273e e543 6bbd 6a94 4a3c f9b7 aa3a
000002e0: 504a d63c bfe1 b43d 5993 acbd b0aa 2fbe
000002f0: 919e 6cbc dbc8 f43c fdf3 e2bd 5a02 80bc
00000300: 5a1d f9bd 3eee 56bc e3a0 36be 23d0 793d
00000310: bb45 16bb c1b6 523e ce54 5d3e 4ad2 923d
00000320: ab01 3b3d 0757 dd3d 37b0 4e3d 8aab d4bd
00000330: ea50 c93d d136 c7bc bfd5 623e 2586 9cbe
00000340: b4f2 a63d 6304 85be c8b1 db3c fd04 e33c
00000350: d0e0 123c 31ea 173e 235e 90bd 0519 a33e
00000360: 8fd6 25bc 6f17 543d 17a8 aebd 21dc 173e
00000370: 25fd 9b3d 29b8 4ebd 8e15 9cbd a607 e5bd
00000380: 48e4 7dbd db9c e2bd 0255 953d f3ce a83d
00000390: 820a 7e3e bf00 dc3c 621e e1bc 9e08 82bd
000003a0: ba3b 213e 3523 ba3b 9b78 bf3c 3b25 f83c
000003b0: 9678 523d 8d42 e6be 8bfd 35bd 2e8d 953c
000003c0: 4932 c73d e840 2dbe f536 41be 5e93 a1bd
000003d0: f5a6 5bbd 245e ba3d 10e3 233e b302 413e
000003e0: fd60 843c 8b68 22be df6b 603d d6cd 2bbe
000003f0: 5148 61bb cf71 0fbe 7054 efbb 060a 7539
-0.027213592 -0.124055006 -0.41354126 -0.1602096 0.0056677707 0.13185218 0.04215284 0.04974044
0.01900494 -0.21953301 0.05540085 0.003842273 -0.1179166 -0.16281715 -0.15477307 0.026387004
-0.028539572 -0.21411762 -0.08242182 -0.058769405 -0.01976065 9.1284805e-05 -0.18262292 -0.009635314
-0.21733952 -0.08823881 -0.046996158 -0.0044231503 0.036013678 -0.07749258 -0.096615486 -0.033255164
0.04667316 0.1670943 0.114072144 0.15915301 -0.11790268 0.008896702 -0.16443273 -0.11496954
0.06158898 0.14792192 -0.18688227 -0.4528295 0.07242343 0.01037875 -0.06914906 0.0024267153
-0.24256088 -0.06928842 0.13840476 0.015946964 -0.08503376 0.08204547 0.051063154 -0.0943901
0.0005199855 -0.01120796 0.101140805 0.07825886 0.0111431815 -0.07153544 -0.110873565 0.068401225
-0.029520078 0.040014993 0.13738634 0.0043537146 0.054800443 0.05554758 -0.0102232965 -0.24110891
-0.08845902 0.010161566 -0.057321962 0.10843882 0.11098865 0.069047965 0.18854584 0.0744796
0.051314592 -0.13953824 0.06690819 -0.19793178 0.13875744 -0.13296048 0.027331471 0.09169309
-0.00953912 0.021818511 -0.17061275 0.046690006 -0.09976379 -0.009199987 -0.08843673 -0.01685868
-0.16844566 -0.040688325 0.08474862 -0.068494014 0.072827905 0.13289502 0.08583712 -0.18106338
-0.043873597 0.11090525 0.1068972 0.15716253 -0.2587391 -0.17982167 0.086986095 -0.20559508
-0.039244846 -0.07366957 0.07636494 0.078864634 0.05044821 -0.060967702 0.20110436 -0.04740655
-0.004052946 -0.10883811 0.050444726 -0.039462652 -0.057432834 -0.055111207 0.103909224 0.025406087
-0.091543235 0.066673934 0.019808346 0.17181674 -0.0152925635 -0.1596322 0.04645929 -0.06599569
0.26550028 0.065905936 0.03713901 -0.15095975 0.044619944 0.1581234 0.002343559 0.21070684
0.021965925 -0.240296 0.06539112 0.087271646 -0.014799586 -0.08515322 0.087451965 -0.0867785
0.18275003 -0.25229603 0.3425498 -0.07704068 0.1470027 0.050960682 0.2726663 0.20713212
-0.010812469 0.120152846 -0.09674627 0.03720853 -0.19383493 0.1390279 0.12332676 -0.123727605
0.12727962 -0.2020443 0.06819015 -0.101649895 -0.029603222 -0.13036375 -0.054809585 0.13085838
-0.12916271 0.11910438 -0.09825674 -0.07341306 0.16391845 -0.057437796 0.012364486 0.0013024799
0.026158482 0.0883212 -0.08426542 -0.17154956 -0.014442102 0.029880932 -0.11081693 -0.015626121
-0.121638015 -0.013118325 -0.17834811 0.06098951 -0.0022929746 0.20577528 0.21614382 0.07169016
0.045655888 0.10807615 0.05046102 -0.10384281 0.09829886 -0.02431813 0.2215185 -0.30571094
0.08151761 -0.2597991 0.026818171 0.02771234 0.008964732 0.1483543 -0.07049205 0.31855026
-0.010121956 0.05178016 -0.08528154 0.14830066 0.07616643 -0.050468598 -0.07621299 -0.111830994
-0.061985284 -0.11065074 0.072916046 0.082425974 0.24808696 0.026855825 -0.027480308 -0.063493
0.1574544 0.0056804665 0.023372939 0.03029119 0.05138453 -0.4497265 -0.04443125 0.018255796
0.09726388 -0.16919291 -0.1886862 -0.07889436 -0.05362602 0.09099987 0.16004586 0.18848686
0.016159529 -0.15860192 0.054790374 -0.16777739 -0.003437538 -0.14008258 -0.007303767 0.00023368755

network_body._body_endoder.seq_layers.2.bias f4 [128]
00000000: 244d a23b b780 d8bd f180 6cbb 2d9e 683b
00000010: b480 16be bb97 fbbb fb17 80bb 451f e7bd
00000020: fad5 24be e17b 9bbd 2d84 e63b cce0 3cbe
00000030: 0113 e1bd 9bf1 7abd 1b16 b8bd 06ee e0bd
00000040: 6565 48be 5d25 08bc 73f9 eabd fae4 ecbd
00000050: 3ea3 02be 947c 57be aa6f 26bb 416d 67bd
00000060: a28f 83be 0ca0 0ebd bb44 e7bd 7512 fdbd
00000070: 3312 92bc 4808 d83a 7bab 83bd 6f9d 28be
00000080: 59e5 07bd c400 f53c c333 863c bb49 f93c
00000090: 7558 61bc 433f 80be 7745 c6bd 71f1 0cbe
000000a0: 00d7 04be 10f4 81bd ff40 5c3d dfc5 2abd
000000b0: a9d6 9dbd d392 efbd 1e4a 83be 35da d1bb
000000c0: 9b4d 27be 9cfb acbd 038e 81bd 41b6 de3c
000000d0: e114 b1bd 29cf 02be 4f61 0abe e691 23be
000000e0: 70b7 20be 0b95 9b39 bb65 27be c167 16bd
000000f0: 22c3 20bd 06ff 30be 0794 a93a bd43 fdbc
00000100: 22e4 a7bc fbba 24be d56a bfbd d2cd 03bd
00000110: 2203 3bbb 5229 2fbe 172a d3bd a064 3abd
00000120: e40a d3bd 23ca dfbc 7f6d a0bc 71f6 75bb
00000130: e39d f2bd a3e3 093d 08cb 65be f1ac 93bd
00000140: 9846 94bd 32bb 02be cba3 fcbd 587f a6bd
00000150: 6008 a0bd 2f83 75bd c736 95bd 4623 13bd
00000160: 00ae 20bd 66c4 61bc daa7 04be dc60 e1bd
00000170: 410d 1ebd a763 1bbc d41c 48bc f977 43be
00000180: 72d7 79bd 1495 e63c f8a9 953c f504 d1bc
00000190: 4f48 64be ca21 20bd 96a8 e4bd e40c c2bd
000001a0: 6b63 01be 3dcf d0bc 7ba5 debd 24ca 80be
000001b0: 9f0b bdbc f289 df3c 42ee 07bc f40c 12bd
000001c0: 330c 8bbd e1cc a6bd db57 e2bd 2bc9 8cbd
000001d0: add9 babb c58a 123c 649d 1a3d 3e55 f3bb
000001e0: f78e b1bd 99cb 52bc 0e2a 113d c4c7 dfbd
000001f0: f6f6 80bd 93e7 a9bd 0dc8 4abc 3ff6 4abc
0.0049530435 -0.105714254 -0.0036087597 0.003549467 -0.14697534 -0.007678 -0.0039091087 -0.11285261
-0.1609725 -0.075919874 0.0070347995 -0.18445128 -0.10989953 -0.06126557 -0.08988591 -0.10982899
-0.19569929 -0.008309689 -0.1147336 -0.11567111 -0.12757584 -0.21043617 -0.0025396147 -0.056500677
-0.2569552 -0.0348206 -0.11292406 -0.12357036 -0.017830944 0.001648196 -0.06429192 -0.16466306
-0.033177707 0.029907592 0.016382104 0.030430665 -0.013754 -0.25048265 -0.09681218 -0.13763978
-0.12972641 -0.06345379 0.053772923 -0.04169261 -0.07706959 -0.11697926 -0.25642484 -0.006404186
-0.16338198 -0.08446428 -0.06325915 0.027186515 -0.086465605 -0.12774338 -0.13513683 -0.15973625
-0.15694976 0.0002967495 -0.16347401 -0.03672004 -0.039248593 -0.17284784 0.0012937792 -0.03091609
-0.020494524 -0.16086952 -0.093465485 -0.032178707 -0.0028535803 -0.17105606 -0.103107624 -0.04550612
-0.103048116 -0.027318066 -0.019583462 -0.0037530924 -0.11846521 0.033664357 -0.22440732 -0.0721072
-0.07240027 -0.12766722 -0.123359285 -0.08129758 -0.078140974 -0.05993956 -0.072858386 -0.03592231
-0.03922844 -0.013779735 -0.12954655 -0.110048026 -0.03858686 -0.009484208 -0.012213904 -0.19088735
-0.06099648 0.028147258 0.018269524 -0.025515059 -0.22293209 -0.039094724 -0.11164968 -0.09475115
-0.12635581 -0.025489444 -0.10871407 -0.2515422 -0.02307683 0.027287457 -0.008296551 -0.035656884
-0.06789436 -0.08144546 -0.11051913 -0.06874307 -0.0057022185 0.008944218 0.037747756 -0.007425933
-0.086698465 -0.012865924 0.035440497 -0.10926774 -0.06297104 -0.082961224 -0.012376797 -0.012387811

action_model._continuous_distribution.log_sigma f4 [1, 2]
00000000: cb35 66be 0cf9 debe
-0.22481458 -0.43549383

action_model._continuous_distribution.mu.weight f4 [2, 128]
00000000: a9de 613d e3ae d1bc 79f3 583d 60fb 0abe
00000010: 629e 983c 5fad d1bd 0100 113c e4c2 3dbc
00000020: 5811 96bc 40ee 6fbd 03d7 89bd 8202 d33b
00000030: d8d1 363b 72cd 5cbd a0b9 5abd a6c5 c1bc
00000040: 4b92 803c bdb7 bbbd ea45 663c a2da 30bd
00000050: 6396 d0bc 805f b4bb 9b8c e9bc f456 eabc
00000060: 3622 44bc 2c1a a8bd 6eaf 47bc dd74 bbbc
00000070: 921b c83c a51a aabb 13e2 46bc 92df a6b9
00000080: 2c91 82bd 25af c8bd b9de e4bc 96a6 bebd
00000090: c95c c3bd 9cb8 fcbb 07d9 95bc 201e 2ebc
000000a0: 4c2d eebc 922f 65bd 16b6 1cbd 5ffc 99bd
000000b0: 0cba 50bd 14a0 1fbd e59a e8bb 3582 223c
000000c0: 30a9 f4bb f58f 7b3b 5ba0 7dbd d329 0a3d
000000d0: fe46 5dbd 4360 1e3b 742f 9cbc f609 8a3b
000000e0: 9b00 f9bc 9e13 0fbd dce5 97bc fa32 0dbc
000000f0: 81c0 94bd 22c3 07bd 13e6 9aba 777d 4d39
00000100: 40c6 903d 1101 b03b 2a04 95bc 86fa 2dbd
00000110: 44c8 33bd 2a75 a4bc b47a fd3c 0c69 1fbc
00000120: 6859 b23c 1337 afbd f3a4 9bbd a565 85bd
00000130: 5f84 50bc e9b5 c13d 3f1c 26bc eb81 5dbd
00000140: e5f8 a5bd 468d 56bd a7ca bbbc 879a 1abd
00000150: e602 71bd 0373 153e b5ba 4abd cb92 28bd
00000160: 014a f2bd 78f3 803c 1061 003d 58bf 0cbd
00000170: 56d7 87bd 6ece 5e3d 4330 a2bd 3a4b 0d3c
00000180: 790e 9e3c df2a 543d f94c 82bc 41d3 16bd
00000190: 82d2 7ebc 3d85 78bd 028d d5bc c359 50bd
000001a0: 1fae c1bc 3d77 a93b 14b0 293d 6d9d c0b9
000001b0: 19f3 acbd e751 8bbd bf13 7cbc 54d8 c93b
000001c0: 2e13 a0bd 8484 47bd 1c62 18bd fb67 b2bd
000001d0: 70ac c33d dbb6 9cbd 80bf 043e c479 e6bd
000001e0: ba31 c8bb 929e c1bd 21a7 ac3d f3f9 4b3d
000001f0: fbc1 68bd 180a 3ebd 2c36 8e3b b17e ac3c
00000200: 4f07 cf3c 41cb 123d 5e66 0c3d 37fa 9abd
00000210: 9073 ffbb be20 1ebd 28f5 303c 9faa 3bbd
00000220: b07c 79bc dcc1 a5bb 8023 a9bc c98e 86bc
00000230: c487 973c 7bcf 54bd 1a61 453c 2338 1dbd
00000240: 71c6 97bb 9fa9 8fbc 6dd8 163d 52d6 eb3c
00000250: a52b 4bbc 49ae 05bc b7c8 bcbd 7c83 0d3d
00000260: 0778 c5bb f25b 64bd 6d68 7cbd d4c7 5fbd
00000270: 3772 a03c 621f 8abd b474 9e3c e589 8b3c
00000280: 9102 1b3d 4445 5abb f2ad 0abe 56ef b1bd
00000290: f659 febc b28a 74bb 197b 1a3d 7096 abbc
000002a0: 3cd4 c23b ab2b 28bd 6c6e e23d 0606 59bd
000002b0: e38a a9bd d3c7 e33c eb74 0bbc 0348 9f3b
000002c0: 5dd6 25bc c69d f23c a12d 43bd b2f3 743b
000002d0: b29f 853a 8024 d6bc 6e8c 86bc 3902 d6bc
000002e0: 928c b5b8 3122 b3bd 7aed febc b6f1 a93d
000002f0: 72d3 1fbd 6a75 14bd 31df b43c dfcd fe3b
00000300: 18a9 923c d625 45bc d7b1 59bd 4a40 8c3d
00000310: 7167 28bc 60d2 1fbc 2334 04bb d2ab 763c
00000320: 9952 a3bc d6fd f73c 6108 2e3c baf5 3b3d
00000330: 99b5 d4bc 3e64 e73c 5ed9 28bc f4d0 1c3d
00000340: bdbf 243c e06f 0e3d 781c 4eba 276f fb39
00000350: c274 e9bc 2bc2 7abc 3bc9 d4bc 72fb 8abd
00000360: 9ff5 dd3c 9b8a a1bd 8e99 e3bb ce4a 11bd
00000370: 9560 9abd 304e 933c be07 853d 98a8 17bc
00000380: 6e44 5e3c 153d 753b 48b3 c3bd 9ccb cebd
00000390: 43b1 593c 974f 7ebd e0b5 133c a6b0 553a
000003a0: d27f ddbb a428 1abd 15f2 95bc d845 cbbb
000003b0: ed5d 2dbd b358 63bd d14d 08bd fb4d 76bd
000003c0: 1b47 cd3c 9322 0cbd 3a9d 7e3c 89ba da3c
000003d0: 27e2 673d c8d2 003d f527 9dbd 4214 683b
000003e0: 5a1e cbbc af6f 9a3c 1756 aa3d b684 233b
000003f0: d931 053d 44b5 4dbd afdf 89bb 3b64 80bd
0.055143986 -0.025596088 0.05296657 -0.13572454 0.01863021 -0.10238146 0.008850099 -0.01158211
-0.018318817 -0.058576822 -0.06730463 0.006439508 0.0027896073 -0.053906865 -0.053399682 -0.023653816
0.015694758 -0.09165905 0.014054755 -0.043177254 -0.025462335 -0.0055045485 -0.028509429 -0.028605916
-0.011971047 -0.08208117 -0.012187822 -0.022882873 0.024427209 -0.0051911646 -0.012138861 -0.0003182856
-0.063753456 -0.09799031 -0.027938234 -0.093091175 -0.09539182 -0.007712437 -0.018291963 -0.0106273
-0.029074334 -0.05595357 -0.03825959 -0.07518839 -0.050958678 -0.03897102 -0.007098543 0.009918739
-0.007466458 0.0038385366 -0.061920505 0.033731293 -0.05402278 0.0024166263 -0.019065596 0.004212613
-0.030395797 -0.034930818 -0.018542223 -0.008618111 -0.0726328 -0.033145078 -0.0011817835 0.00019597063
0.07069063 0.005371221 -0.018190462 -0.042475246 -0.04389216 -0.0200754 0.030942298 -0.009729635
0.021771148 -0.085554264 -0.07599821 -0.06513528 -0.012726872 0.09458525 -0.01013857 -0.054078978
-0.081041135 -0.052380823 -0.02292378 -0.037745025 -0.058840655 0.14594655 -0.049494464 -0.041155618
-0.118305214 0.015741095 0.031342566 -0.034362167 -0.06632869 0.054396085 -0.079193614 0.008623892
0.01929401 0.051798698 -0.015905844 -0.03682256 -0.015553119 -0.06067394 -0.026068214 -0.050866853
-0.023642598 0.005171685 0.041427687 -0.00036738385 -0.08444805 -0.06802731 -0.015385567 0.0061598215
-0.07816158 -0.04871036 -0.03720294 -0.08711239 0.09554374 -0.076520644 0.12963676 -0.11253694
-0.0061094435 -0.09454073 0.08430315 0.049798917 -0.05682562 -0.046396345 0.004339954 0.021056505
0.02527204 0.03583837 0.034277312 -0.07567256 -0.0077957585 -0.038605444 0.010800637 -0.045817014
-0.015227482 -0.00505851 -0.02064681 -0.016425507 0.018497355 -0.05195568 0.012047077 -0.038383614
-0.0046318104 -0.017536936 0.036827493 0.02878872 -0.012400542 -0.008159229 -0.09217971 0.03454922
-0.0060262713 -0.05575175 -0.061623026 -0.05463393 0.019585712 -0.06744267 0.019342758 0.017033527
0.037844244 -0.0033305446 -0.13542917 -0.08688228 -0.031048756 -0.0037314114 0.03771505 -0.020945758
0.0059457105 -0.04105727 0.110562176 -0.05298426 -0.08278444 0.027805245 -0.008511762 0.0048608794
-0.010121909 0.029616248 -0.047650937 0.00373767 0.0010194688 -0.026140451 -0.016424384 -0.026124107
-8.656936e-05 -0.08746756 -0.031119097 0.08298056 -0.03902001 -0.036244787 0.022079082 0.0077760066
0.017902896 -0.012032947 -0.053148117 0.068482 -0.010278569 -0.009754747 -0.0020172677 0.015055614
-0.019936847 0.030272406 0.010622115 0.04588864 -0.025965499 0.028246041 -0.010305731 0.03828521
0.01005548 0.03477466 -0.00078625185 0.00047957266 -0.028498057 -0.015305082 -0.02597486 -0.06786241
0.02709466 -0.07887765 -0.0069457954 -0.03547173 -0.07537953 0.017981619 0.06495617 -0.0092565045
0.01356612 0.003742044 -0.095556796 -0.10097429 0.013286891 -0.06208762 0.00901553 0.0008151628
-0.006759622 -0.037636414 -0.01830391 -0.0062033944 -0.042325903 -0.055504512 -0.033277337 -0.06013296
0.02505832 -0.03421266 0.015540415 0.026700275 0.05661216 0.031451017 -0.07673637 0.0035412465
-0.024794746 0.018852083 0.083172016 0.0024950928 0.03251824 -0.050221696 -0.0042075734 -0.062691174

action_model._continuous_distribution.mu.bias f4 [2]
00000000: f2e2 263d d82a 24ba
0.040743776 -0.0006262488

exp_avg f4 [128, 6]
00000000: 98ed 12bb 580c 87bb dba2 0fbb 29ec 09bb
00000010: f87b 88bb 8b56 56bb 0964 8aba 7a14 38bb
00000020: d65b d4ba 3126 9cba 68e3 39bb 70ca eaba
00000030: cab0 4cba 550b 24ba 3a85 b5b9 9b7b 2fb9
00000040: 8241 35ba 17e5 dcba 9a49 01ba 90d8 34b9
00000050: c32e 63ba b6ab 20b9 b640 a9b9 2d04 0abb
00000060: b9f8 8d3b da14 0a3c 626b e338 cdeb 893b
00000070: 5aca 093c 4db8 b33b 3426 553b 3eba c13b
00000080: 848c 213b 5fcd 4a3b 4250 c43b fc3d a13b
00000090: 7de8 a637 02aa 4939 9f25 4239 d9b2 4e38
000000a0: 332b 5739 b0d0 8a38 102f 083b 477b 173b
000000b0: 9a81 09ba 3cb0 f93a e744 173b d0ed 523b
000000c0: ca5e 0cb9 aaaa b3b9 0366 9639 d6b3 8db8
000000d0: d300 bbb9 2aaf e8b9 da93 89bb 5939 34bc
000000e0: c73c 1bbc 903e b8bb 5616 34bc 1e52 37bb
000000f0: a2a7 8eba 7282 71bb 89e3 82bb 6761 07bb
00000100: 8181 6bbb cc25 3e3b e7ea d3ba 1157 c1bb
00000110: 7a2d 8cba 83eb f2ba 831a c3bb af48 17bb
00000120: 40ed 7938 75a2 cb38 d40c 3638 0ef3 6638
00000130: 702d cd38 2ad9 b738 2046 d339 9d25 4e3a
00000140: fa53 6d39 f9db d839 c614 4f3a 983e 203a
00000150: 7377 6839 76ae d039 ae25 c4b8 4f11 1239
00000160: 48d8 dc39 fcd3 393a d5c6 3db8 f2c5 88b9
00000170: f977 cd38 06d5 75b8 cace 8ab9 c2e7 a7b8
00000180: 8ca3 33ba 75dc 8cba c8e1 6db9 e808 0aba
00000190: 66b8 8fba e83a afba 6e75 8238 c699 e938
000001a0: ad3d 7fb8 3cc5 4838 0329 fa38 cc7f d938
000001b0: ac2c 81ba f818 59bb 96af 0bbb ea21 a8ba
000001c0: 2f35 5dbb 0570 dbba 2e38 85ba 7769 3bbb
000001d0: bf50 8bba f030 acba def7 37bb 9e16 c4b8
000001e0: d4bd 9939 3831 9eb9 9422 a63b 74d8 7d3a
000001f0: 9810 95b9 41e1 11bb c8f1 2d38 ce15 9ab7
00000200: e616 2638 9033 0338 157b 84b7 db42 ef38
00000210: 14f6 823b 5b5d 0c3c 334c 563a 535d 843b
00000220: 2966 0c3c 924d 9c3b 98e3 623b fce0 c03b
00000230: 345d 81bb 6476 053b 6cfc ca3b 7d14 383c
00000240: c754 29bb 8c60 96bb f620 f6ba 0cd3 05bb
00000250: 7275 9bbb 5ecd aabb f540 80bb b2bc b5bb
00000260: 7372 6d3b 38ec 2dbb dac8 bebb d5ec 0dbc
00000270: 3f2e 06ba 614c 8dba 4058 1837 e2a8 f5b9
00000280: 2f75 8fba 383b 77ba 4f02 a73b 2420 133c
00000290: 1449 b3b9 a6b2 9b3b f0c4 133c dc1c fa3b
000002a0: 480b 373c d304 c23c 2847 5a3b b0fa 373c
000002b0: a44e c33c 5cff 653c 581d 203a 2f91 b43a
000002c0: 2873 8c39 c7db 273a f470 b33a 2253 103a
000002d0: 3baf 9638 2ca4 1139 7052 ca38 b00b d938
000002e0: 6423 0939 2395 0fb7 a047 8ab8 df56 82b9
000002f0: c699 33b9 8a4b c2b8 fb31 83b9 2289 c5b8
00000300: 3c72 c839 3c19 223a 9bf6 12b9 b6f2 bd39
00000310: 7ba8 1d3a 0add b239 dc95 7db8 3196 c7b9
00000320: c490 01b9 fc5e c4b8 df2d c9b9 cf65 8eb8
00000330: e897 84ba d06d 3ebb c223 2fbb 9e73 cbba
00000340: 9125 3dbb cd7c 5cb8 340d 37b8 d71d 0cb9
00000350: ddef d938 7811 b9b7 985d 11b9 2062 4ab9
00000360: da45 4ebb ecd8 02bc b8b2 8739 d296 4bbb
00000370: af7b 05bc 7e71 d0bb f3d8 973b db5f 013c
00000380: 54e7 02bb a7c2 5e3b 6625 063c 75c5 2f3c
00000390: 8ef0 ceba 0495 6dba cece b83a 59a7 15ba
000003a0: ce1a 8aba 0523 b1bb 1c27 2a3a f819 c0b9
000003b0: c49f e2bb d8e9 feb9 48bf adb9 9eb8 813b
000003c0: 55a8 a7b8 abc9 26b8 0375 f4b8 4072 e436
000003d0: 687a 2ab8 0c71 b3b7 ed64 223a 8158 e63a
000003e0: a254 b53b 4f4f ba3a 08ff d93a d529 e0ba
000003f0: 13f0 9c39 ecb5 443a 7063 2639 dc20 a539
-0.002241945 -0.0041213445 -0.0021917138 -0.0021045303 -0.004165169 -0.0032705392 -0.0010558377 -0.0028088377
-0.0016201686 -0.0011913237 -0.0028364304 -0.0017913114 -0.0007808326 -0.0006257792 -0.00034622272 -0.00016735347
-0.00069143635 -0.0016852942 -0.0004931927 -0.00017246814 -0.0008666331 -0.00015322756 -0.00032282405 -0.0021059618
0.0043326286 0.008427823 0.00010844205 0.004209018 0.008410061 0.005484617 0.0032523992 0.0059120944
0.0024650404 0.0030945165 0.005991013 0.004920719 1.9897003e-05 0.00019232187 0.00018515297 4.9280792e-05
0.00020520091 6.619224e-05 0.0020780005 0.002311425 -0.00052454474 0.0019049714 0.002308184 0.0032185204
-0.00013386752 -0.00034268695 0.00028686234 -6.756901e-05 -0.00035668034 -0.00044380996 -0.0041985335 -0.011000001
-0.00947494 -0.0056226924 -0.010991653 -0.002797253 -0.0010883699 -0.0036851433 -0.0039944095 -0.0020657422
-0.0035935345 0.0029014228 -0.0016168029 -0.0059002717 -0.0010694705 -0.0018533323 -0.005954088 -0.0023084094
5.9587182e-05 9.710054e-05 4.340413e-05 5.5062636e-05 9.783625e-05 8.76657e-05 0.00040297303 0.0007863881
0.00022633365 0.00041362623 0.0007899519 0.0006112843 0.00022169742 0.00039802835 -9.353027e-05 0.00013930093
0.00042122812 0.0007088778 -4.524629e-05 -0.00026087422 9.7975084e-05 -5.8610945e-05 -0.0002647548 -8.006349e-05
-0.00068526785 -0.0010746854 -0.00022686191 -0.00052656094 -0.0010964989 -0.0013368996 6.220756e-05 0.00011138948
-6.0854178e-05 4.7867405e-05 0.00011928568 0.0001037117 -0.0009855232 -0.0033126455 -0.0021314374 -0.001282749
-0.0033753624 -0.0016741758 -0.0010163838 -0.0028596797 -0.0010628923 -0.0013137143 -0.0028071324 -9.350221e-05
0.00029323867 -0.0003017278 0.00507004 0.0009683438 -0.00028431858 -0.0022259506 4.147159e-05 -1.8368384e-05
3.959881e-05 3.1280855e-05 -1.579294e-05 0.00011408861 0.00399662 0.00856718 0.0008174807 0.0040394454
0.008569279 0.0047699893 0.003462052 0.005886195 -0.0039478783 0.0020364756 0.006194642 0.011235354
-0.0025837885 -0.004589146 -0.0018778134 -0.0020419983 -0.004744225 -0.00521247 -0.0039139935 -0.005546176
0.0036231547 -0.0026538502 -0.005822283 -0.008662422 -0.00051185855 -0.0010780209 9.080453e-06 -0.0004685587
-0.0010944958 -0.00094311265 0.0050967108 0.008979831 -0.00034195988 0.004751521 0.0090191215 0.007632835
0.011172123 0.023683941 0.0033306573 0.011229202 0.02384121 0.014037933 0.0006107888 0.0013776178
0.0002678868 0.0006403294 0.0013690279 0.0005505552 7.1851966e-05 0.00013889436 9.647466e-05 0.00010349543
0.00013078522 -8.558188e-06 -6.593694e-05 -0.00024860256 -0.00017128055 -9.264711e-05 -0.00025023505 -9.419235e-05
0.00038232084 0.000618357 -0.00014015513 0.00036229723 0.000601418 0.00034115493 -6.0459468e-05 -0.0003806814
-0.00012356328 -9.3637005e-05 -0.00038371884 -6.790051e-05 -0.0010116072 -0.0029057153 -0.0026724194 -0.0015522128
-0.0028861503 -5.2568317e-05 -4.3642896e-05 -0.00013362557 0.00010392044 -2.2061853e-05 -0.00013863144 -0.00019300776
-0.003147474 -0.0079862885 0.00025882362 -0.0031065238 -0.008147164 -0.0063611856 0.0046340167 0.007896389
-0.0019974308 0.0033990534 0.008187627 0.01072823 -0.0015788244 -0.00090630376 0.0014099719 -0.00057088357
-0.0010536553 -0.005405786 0.0006490813 -0.00036640442 -0.006916018 -0.00048620882 -0.00033139647 0.0039587757
-7.994535e-05 -3.9765302e-05 -0.00011656622 6.80823e-06 -4.0645158e-05 -2.1391104e-05 0.00061948487 0.0017573984
0.0055337707 0.001421431 0.0016631791 -0.0017102311 0.00029933508 0.0007503915 0.00015868037 0.00031495735

exp_avg_sq f4 [128, 6]
00000000: 629c a839 d61f ae3a 07b5 b439 8d4f a239
00000010: 7027 b03a 5161 fc39 6590 a638 1fc9 b339
00000020: d3ea 3d39 8a4f b238 b846 aa39 010e c037
00000030: 30ed 6238 4888 a439 1ca7 a337 7cc5 9938
00000040: a6f5 ab39 3a96 5f39 8b18 3b39 f48f a03a
00000050: 58c9 ab39 ef55 1a39 6087 8e3a ddd1 0839
00000060: 9784 6c39 c930 613a 05e4 1138 15ca 5539
00000070: 7a8f 603a 927b 8d39 9839 c139 28c0 003b
00000080: 3acf 9c39 b227 c839 b8a7 f93a 41cb 023a
00000090: 4e06 0136 b73c 2b37 a66a 9936 b85a ef35
000000a0: e436 1b37 711b e535 78e1 7c39 3bf1 923a
000000b0: 7f64 a738 b939 6339 ac00 933a e764 5a39
000000c0: f34c 0437 6bae 0e38 4938 d336 bd52 ea36
000000d0: 679c 0b38 1a25 d736 617d 983a 1e4a b43b
000000e0: 0ae8 d23a 894b 9d3a d8ef a63b 1b88 023a
000000f0: 23f8 173a e9dd 343b 923b 723a e80b 293a
00000100: ce5f 2a3b 120c 0e39 5471 1e3a 9f15 e13a
00000110: 1035 9439 ef04 173a 014b dc3a 862d 163a
00000120: 0fb2 fc33 88f5 3835 d66e b033 73f4 1034
00000130: a23f 3835 f256 0d34 f513 8136 1bd2 ae37
00000140: 4537 5536 d510 9036 b1e3 aa37 5fba 7e36
00000150: 1391 d336 68a6 3838 f8f8 2c37 5004 ea36
00000160: a524 2e38 b3e4 a136 e44e b135 da07 f436
00000170: e956 4935 04db 9d35 170f fa36 3a4e 0136
00000180: 2e3d 1738 cde0 2e39 b987 0338 577f 2038
00000190: 0bf2 4239 7e33 f938 f017 4d34 cfdb 0336
000001a0: 0a38 ca34 1f2a 4d34 7836 0636 c767 1435
000001b0: a44e ad39 b8b2 033a 954d 5d3a f69f 0039
000001c0: 485f 003a c098 0e38 7e57 f237 7a5c 5939
000001d0: 3608 ca38 53c2 0438 0433 4239 859e 1237
000001e0: 491d ca3a abd4 d03b b750 a03a bb7f b63a
000001f0: ad46 ce3b 68a1 d63a e96b a235 44e0 a436
00000200: 73ef 2835 3b1a a135 73ed a436 a2ed 7e35
00000210: 41a9 6b39 6c3b 683a cd57 d038 d7f1 7739
00000220: ce96 583a 1cd3 c939 c782 013b eaf8 353c
00000230: cc88 373b e282 0a3b b8f1 2e3c df52 ac3a
00000240: 893b 313a f358 323b 4123 843a efa2 3d3a
00000250: d28c 293b 2386 8e39 77c3 5f3a 0584 933b
00000260: c4e0 ad3a f01c 463a 796a 933b 6530 9b3a
00000270: 9c64 5b37 81e3 2738 d255 6c37 d0ba eb36
00000280: ef54 2538 4a8d 3937 8198 fd39 e85b 203b
00000290: 1a4b 2739 372c eb39 b199 1c3b 4ed9 203a
000002a0: 728d cd3a 15e3 0b3c 094f 203a 54b6 c73a
000002b0: 70e7 023c e925 1e3b f49f a137 e334 7d38
000002c0: c2a1 9437 9ead f637 8dc4 8438 f48e 1138
000002d0: 6635 3a35 c037 6a36 5e56 9635 dc7e 4135
000002e0: 3bc5 6436 7508 2235 abc0 4336 a236 9436
000002f0: f3cb e435 3a3e f535 5635 8b36 f27a 1935
00000300: 79e6 3a37 3165 0c38 09f1 3236 3ffc 1637
00000310: 4760 0d38 ba09 bb36 9600 0437 5aac 6037
00000320: 9e87 9736 4a50 fc36 5047 6237 bd49 8b36
00000330: b3f7 7e39 7ebb 753a 476b b439 960b 8339
00000340: 8f21 653a 9346 6b38 6fbf 8736 5d21 3837
00000350: f0a7 be35 69ff 4436 5529 3637 e9f5 9735
00000360: 77a5 703a a7df 863b a386 403a e0f3 693a
00000370: c5a1 843b 18ee 843a 9b11 943a 3311 df3b
00000380: 84ed cd3a db06 9e3a e32b d63b f88c 973a
00000390: 61f5 343a df2b 5a3b b772 573a 9d33 323a
000003a0: 30ae 553b d4b2 8739 e5d1 513a a758 923b
000003b0: 7503 9a3a 8f81 583a da9a 893b 5799 123a
000003c0: df17 3536 1587 c637 31bb f236 2576 1836
000003d0: 341a 9437 e433 e335 43a2 263a 34d6 4e3b
000003e0: a873 423a 3458 223a c8c7 413b 104c 013a
000003f0: 1606 dc35 0d19 3137 1a42 f335 5b03 0336
0.0003215997 0.0013284634 0.0003446715 0.00030958318 0.0013439488 0.00048137692 7.9423924e-05 0.00034291387
0.00018111923 8.502517e-05 0.00032477616 2.2894705e-05 5.4103497e-05 0.00031382055 1.950893e-05 7.332393e-05
0.00032798684 0.00021322901 0.00017842853 0.0012249933 0.00032765674 0.00014718597 0.0010874085 0.00013048151
0.00022556107 0.00085903384 3.4783054e-05 0.00020388544 0.00085663015 0.00026985683 0.0003685474 0.0019645784
0.00029909034 0.00038176548 0.0019047176 0.00049893936 1.9226168e-06 1.02065305e-05 4.572171e-06 1.783329e-06
9.2515e-06 1.7069816e-06 0.00024116586 0.0011210808 7.9818994e-05 0.0002166991 0.001121541 0.00020827689
7.885729e-06 3.4017878e-05 6.2948425e-06 6.9833754e-06 3.3285844e-05 6.4118185e-06 0.0011634046 0.0055019995
0.0016090882 0.0012000661 0.0050945096 0.0004979388 0.0005797168 0.002759809 0.0009240444 0.00064486125
0.0025997045 0.00013546672 0.0006044109 0.0017172581 0.00028268294 0.0005760928 0.0016807021 0.00057288294
1.1767053e-07 6.8902636e-07 8.2157996e-08 1.3499975e-07 6.863794e-07 1.3163279e-07 3.846823e-06 2.0840254e-05
3.1771644e-06 4.293494e-06 2.0371606e-05 3.7957432e-06 6.305179e-06 4.4023996e-05 1.03099665e-05 6.9742455e-06
4.151896e-05 4.824798e-06 1.3210488e-06 7.2726807e-06 7.5004806e-07 1.1761153e-06 7.4523373e-06 1.9268032e-06
3.6058183e-05 0.00016677678 3.1359235e-05 3.8265567e-05 0.0001859145 0.000118828364 1.9100821e-07 1.9648467e-06
3.7666206e-07 1.9107436e-07 1.999926e-06 5.528531e-07 0.00033055723 0.00050238846 0.00084420416 0.00012266621
0.00048970105 3.3997698e-05 2.888939e-05 0.00020729183 9.63364e-05 3.165223e-05 0.00018520287 8.739186e-06
0.0015420105 0.0063730082 0.0012231086 0.0013923565 0.0062950463 0.0016375007 1.2101347e-06 4.913689e-06
6.293332e-07 1.2003069e-06 4.9152236e-06 9.4968175e-07 0.00022474398 0.0008858952 9.934567e-05 0.00023645848
0.0008262218 0.00038494996 0.0019761787 0.011106709 0.0028005121 0.002113514 0.010677747 0.0013147256
0.00067608856 0.0027213662 0.0010081307 0.0007234057 0.002587129 0.0002718429 0.00085359014 0.004501822
0.0013265838 0.00075574126 0.0044987765 0.0011839984 1.3076842e-05 4.0027782e-05 1.4086678e-05 7.0252936e-06
3.9418166e-05 1.1059756e-05 0.00048369545 0.0024468843 0.00015954339 0.00044855635 0.0023895318 0.00061358965
0.0015682413 0.008538027 0.0006115293 0.0015236833 0.007989749 0.0024131483 1.926718e-05 6.0369155e-05
1.77183e-05 2.9406332e-05 6.330861e-05 3.470383e-05 6.9368105e-07 3.4901168e-06 1.1201007e-06 7.208271e-07
3.408945e-06 6.036201e-07 2.9169412e-06 4.417104e-06 1.7046681e-06 1.8272033e-06 4.148732e-06 5.717585e-07
1.1140125e-05 3.3472843e-05 2.6664368e-06 8.999427e-06 3.3706685e-05 5.5741666e-06 7.8679495e-06 1.3391569e-05
4.5159386e-06 7.519532e-06 1.3487253e-05 4.151107e-06 0.00024315603 0.0009373947 0.00034412203 0.000249949
0.00087406574 5.6094093e-05 4.0455993e-06 1.0975023e-05 1.4204979e-06 2.9354944e-06 1.0857669e-05 1.1321946e-06
0.00091799296 0.004116017 0.0007344281 0.0008924585 0.0040476047 0.0010141758 0.0011296751 0.00680747
0.0015711044 0.0012056486 0.0065359934 0.0011562398 0.00069030194 0.003329031 0.0008218693 0.0006797852
0.0032605045 0.00025882444 0.0008003994 0.0044661346 0.0011750298 0.0008259052 0.004199368 0.00055923074
2.6984997e-06 2.3666342e-05 7.233954e-06 2.2718534e-06 1.7655177e-05 1.692792e-06 0.00063565763 0.003156078
0.0007417747 0.0006192953 0.0029568542 0.00049322937 1.6393049e-06 1.0555855e-05 1.8124149e-06 1.9522474e-06

exp_avg f4 [128]
00000000: 7784 8aba ba41 3bba d516 23b9 daa7 a8b8
00000010: 4416 0a3b f56a c53a 8b25 5738 77dd 183a
00000020: 0e72 b4b8 6734 36bb afc5 68ba 86fb c0ba
00000030: 545d cf37 b492 5139 2671 da38 3d9b 88b8
00000040: d975 90b9 2ec1 eb37 a0f7 5dba 3117 37ba
00000050: 208a 59b8 1634 74b6 881c 0c3b c3e9 c93a
00000060: 40ab 9dba 35f6 baba aaf1 8eb9 6378 133b
00000070: ae4d c23b 6fa6 b439 b2e2 0b38 acc4 83b8
00000080: e580 2039 ca49 c7b8 75f0 3dba d447 10b8
00000090: b5a0 04bb 8438 053b e29a 8db9 f896 e6b8
000000a0: 7183 36b7 4bab e939 78de 4639 dac1 a3bb
000000b0: f91a 413a 5e6a 1bbb fc50 17ba e5a4 5eba
000000c0: 4f39 67b9 c13f 1fb9 0aa3 7d38 d40a be3a
000000d0: 1361 c9b7 9abb e6ba a637 9038 1409 bab7
000000e0: 2e69 adba c9dc 87b8 1b5b 163a 7fdc 663b
000000f0: e678 63bb 488d a239 2c41 21bb d2a4 1f39
00000100: da5b b4ba 80e0 e537 de81 7fb9 97ea 5f3b
00000110: 23c4 6c3a b823 cfb8 492d 03ba 52a5 8a3b
00000120: dcd4 8f39 5a0c 2cba 2d47 efba b9fa b9ba
00000130: 9a6c df38 c4b6 3db8 a6c5 e0b8 7c51 6dba
00000140: 2f7d 0936 48ee 093a fc96 dd36 242e bcbb
00000150: 3025 17ba 1684 beb6 f7b4 743b 44f8 b8b8
00000160: cf76 1fbb 50c9 dfb5 22e1 80ba 29cc 8237
00000170: b475 bfb5 07b7 2fbb 2c62 0938 1592 843a
00000180: 250e 6dba 1524 8337 09d4 82ba aceb 1ab9
00000190: 0426 bc3a 30e4 a73a 72c2 453a bea2 9039
000001a0: 33ad 8738 5e0c 6fb7 966e 1eba 5ce5 a33a
000001b0: 7b60 e738 9274 a8bb 496e 8fba d844 64bb
000001c0: 3af9 d639 f6bf f5b9 560c 923a 3bb2 25bb
000001d0: a2d5 d33a e160 dcba 8eb9 11b8 50ae 66b9
000001e0: cb5d 3bb9 40dd 0d3a d48e 0539 c866 c8b9
000001f0: 1301 f6b9 7a4e 94ba 7b63 bf3a a670 f13a
-0.0010568042 -0.0007143278 -0.00015553397 -8.042129e-05 0.00210704 0.0015061783 5.129496e-05 0.00058313407
-8.604313e-05 -0.002780223 -0.0008879555 -0.0014723397 2.4719782e-05 0.00019986444 0.000104161256 -6.513901e-05
-0.00027553624 2.810414e-05 -0.000846738 -0.0006984352 -5.186547e-05 -3.6389151e-06 0.002137931 0.001540475
-0.0012029186 -0.0014264049 -0.00027264404 0.0022502176 0.0059296703 0.00034456278 3.335131e-05 -6.2832e-05
0.00015306806 -9.502804e-05 -0.0007245609 -3.439917e-05 -0.002023739 0.0020327875 -0.00027009012 -0.00010995375
-1.0878649e-05 0.00044568846 0.00018965628 -0.004997474 0.0007366385 -0.0023714523 -0.00057722605 -0.0008493199
-0.00022051226 -0.00015187172 6.0471742e-05 0.0014499077 -2.400627e-05 -0.0017603517 6.8768204e-05 -2.2177155e-05
-0.0013230199 -6.478426e-05 0.00057356217 0.003522664 -0.0034709512 0.0003100431 -0.0024605496 0.00015224822
-0.0013760284 2.7403468e-05 -0.00024367074 0.0034166926 0.0009031912 -9.877182e-05 -0.00050040014 0.0042311335
0.00027433678 -0.000656312 -0.0018255465 -0.0014189101 0.00010653697 -4.5231325e-05 -0.00010717967 -0.00090529746
2.0487457e-06 0.0005261642 6.60389e-06 -0.005742805 -0.0005765734 -5.677818e-06 0.0037339309 -8.820047e-05
-0.002433229 -1.6673384e-06 -0.000983272 1.5592277e-05 -1.4264865e-06 -0.0026811974 3.2754775e-05 0.0010114337
-0.000904294 1.5633219e-05 -0.0009981404 -0.00014774379 0.0014354591 0.0012809094 0.0007543928 0.00027587073
6.4695625e-05 -1.424839e-05 -0.00060437 0.0012504268 0.00011032909 -0.0051408494 -0.0010942902 -0.0034831073
0.0004100295 -0.00046873064 0.0011142592 -0.0025283236 0.001616169 -0.001681354 -3.4743505e-05 -0.00021999446
-0.0001786865 0.0005411692 0.00012737076 -0.0003822355 -0.00046921577 -0.0011314892 0.0014601791 0.0018420413

exp_avg_sq f4 [128]
00000000: b3ed a538 504d aa37 a980 a337 407b 8c38
00000010: 909b 5f38 ffc9 ef38 bb68 1835 6a94 9038
00000020: a757 0936 843e a439 cee0 2939 6b2c da38
00000030: ef9b 3633 b327 a835 063b 2d36 1b28 ef34
00000040: d30d 2c37 3404 fb33 7846 0138 bb33 4237
00000050: a5d7 c939 1eb7 a334 f5e0 5738 e8f4 2b3a
00000060: 4eaa 2839 e341 8e39 9501 2236 ef1e 1a39
00000070: e888 003a 34c2 7936 3bf8 5f34 3f76 8a34
00000080: 1510 0a36 87f7 5c35 a61a 6438 0ea7 3135
00000090: 741d 8239 d273 d139 9b4b 5339 3aeb 8739
000000a0: 86b8 9235 db84 3e39 7cee 2935 df9d 823a
000000b0: 54fa 8637 cd0b 2c39 1c30 2537 4ac6 cc37
000000c0: e64d c836 8cbb 1335 769d 8935 d790 d537
000000d0: a32b 1f34 76a8 3239 2071 8238 8978 3a35
000000e0: 34e4 2738 65a8 ef35 11fb 8b38 cbb4 c339
000000f0: 5eca 153a 8f11 5136 1cd2 ac38 cca9 2f36
00000100: 3217 7539 ab07 9533 84d7 a038 1c96 3e39
00000110: 0f70 9437 3e78 7435 67b3 c738 f076 3739
00000120: 3a79 8637 3499 0438 2357 f538 8f02 f038
00000130: 3cfc 9136 fbc2 7b35 29b3 3935 40e5 fb38
00000140: 752f 7b30 4c99 3539 83b9 7d35 cba2 893a
00000150: 6b26 023a 8a20 1032 c072 0839 35ff 8c36
00000160: b332 3839 15fa 2a32 267a b838 28d4 eb35
00000170: 39b5 cd31 c1da 113a f003 9b33 aadf 1839
00000180: 9c50 5a38 f18f a731 892a 5238 ed85 8135
00000190: 7193 4b39 8c23 7738 41a0 3838 3ae7 1d38
000001a0: 41ff ea33 f715 dc34 db9a 1e3a 2cc7 a138
000001b0: c11d 3235 d408 cb3a 11a4 7f38 498a 893a
000001c0: e816 ad37 2360 1038 846f 8e38 0ed3 d738
000001d0: a96c 1838 7d17 8d3a fa5a 2534 3d8a 9736
000001e0: d3e1 d535 b8cf 5e38 1195 3e35 7256 1338
000001f0: 2566 fc36 01f6 7f39 41f4 3838 1e64 2039
7.912088e-05 2.030158e-05 1.9491026e-05 6.698677e-05 5.3312222e-05 0.00011434033 5.6776815e-07 6.894099e-05
2.0465611e-06 0.00031327095 0.00016200842 0.000104033235 4.2516998e-08 1.2528529e-06 2.5813365e-06 4.45464e-07
1.0255218e-05 1.1688863e-07 3.0821626e-05 1.15753455e-05 0.00038498375 3.049435e-07 5.1469502e-05 0.0006559626
0.00016085172 0.0002713344 2.4140802e-06 0.00014698108 0.0004903213 3.7216932e-06 2.0858799e-07 2.5790538e-07
2.0572963e-06 8.2316586e-07 5.4384254e-05 6.6180735e-07 0.00024817477 0.0003994988 0.00020150693 0.00025924464
1.0931551e-06 0.00018169305 6.3304446e-07 0.0009965262 1.6090613e-05 0.00016407594 9.845968e-06 2.441103e-05
5.969533e-06 5.5034684e-07 1.0253123e-06 2.5459025e-05 1.4823904e-07 0.0001703816 6.219954e-05 6.94658e-07
4.0028433e-05 1.7855897e-06 6.674801e-05 0.00037328 0.0005714054 3.1153647e-06 8.240735e-05 2.6175867e-06
0.00023373662 6.939748e-08 7.6695374e-05 0.00018175732 1.7695156e-05 9.107206e-07 9.522476e-05 0.00017496548
1.6030495e-05 3.1613934e-05 0.00011698741 0.000114445684 4.3507007e-06 9.378852e-07 6.9178583e-07 0.00012011314
9.138071e-10 0.00017318613 9.45198e-07 0.0010500787 0.0004964831 8.389302e-09 0.00013012718 4.202035e-06
0.00017566494 9.952164e-09 8.7965556e-05 1.757061e-06 5.986888e-09 0.0005563908 7.218466e-08 0.00014579171
5.2050324e-05 4.876704e-09 5.0107516e-05 9.650227e-07 0.00019414515 5.8922495e-05 4.4018267e-05 3.7647063e-05
1.09429045e-07 4.0994175e-07 0.0006050297 7.714177e-05 6.6353465e-07 0.0015490302 6.0949536e-05 0.0010493483
2.0633874e-05 3.442181e-05 6.791859e-05 0.00010291311 3.634082e-05 0.0010764446 1.539992e-07 4.5162437e-06
1.593546e-06 5.3122378e-05 7.0997436e-07 3.512804e-05 7.5220764e-06 0.00024410339 4.4096498e-05 0.00015296086
