MachineLearning/results/Test2/MoveTOGoal.onnx (onnx, 72073 bytes, 4 tensors)

network_body._body_endoder.seq_layers.0.weight f4 [128, 2]
00000000: 605e c4bf aff7 41bc 4ce3 5dbe a4f1 83be
00000010: 1484 d6bd d9ec 0e3f 281d cf3d 5b0a d13d
00000020: f730 53bf 9cc9 72be 5701 55bf 1065 983e
00000030: e85d ac3e f660 4bbf c6ad 60be d8a0 98be
00000040: 1925 66be 4282 613f 7b17 c5bd 30cd 18bf
00000050: b320 283f e849 53bf ca08 4abe 5492 83bf
00000060: 768f 523f 9786 213f 8264 9b3e ab15 32be
00000070: aafb 003f 0d46 a23e 7354 d0be 5ae0 5c3e
00000080: d556 883e 493a 0fbf f592 253f 06f8 05bf
00000090: d5e1 84bf 6b20 82bf 86c0 33bf 980f ea3d
000000a0: 2bf3 0c3e 01ad 4bbf 1acb eabf 8f41 e1bd
000000b0: f425 893d c131 62bf e28d bebe 7d8a a1bf
000000c0: e688 16bf 6e61 01bf 309f 913f 7ca2 cc3e
000000d0: 9bec 8b3f 4a64 24bf 993d 103e a47d 6e3f
000000e0: 9247 1a3f 8611 aa3e 1b54 d33e 44a3 1ebf
000000f0: 8d46 163f 0518 5abe 420a 003e 5059 663f
00000100: fe5f f83e 1973 4bbe ebf3 e2bf 6dd8 1e3f
00000110: b919 a13c ca4e ed3e 5e59 05be 7c60 84bf
00000120: 941a 01bf 9136 553e 11ff 993e 1c67 35bf
00000130: 666a 08be 0a3d 9bbf d14c 73bf 33db b7be
00000140: 475a a53e 5c0a bdbe 38d4 8c3f 97cf 2d3d
00000150: 08ed a13f 20e9 23bf 3154 3f3f 5591 103f
00000160: 45b0 73be 7ebe a1bd 39b5 2b3e 3953 98be
00000170: 8731 023e 4c8c 0b3f e910 743f 2b84 51bf
00000180: 226d 71bf 6639 2a3f d930 29bf 2535 66bd
00000190: 70c2 11be c9c1 57bf ba94 943e 1649 763f
000001a0: e9ef 293f 40d9 533f 27b7 753e ef9c 79be
000001b0: 5225 ffbe 9d89 59bd db62 ef3e 3655 2b3e
000001c0: 7586 bdbe 81c8 19bf 5aad 3bbe 83f1 9bbe
000001d0: aa0b eb3e a286 363f ab03 a0bf d20b 463f
000001e0: df40 473d 80a6 163f 1e53 70bf a254 823e
000001f0: b62a 873b 39ce 69bd eef7 babe ec96 353f
00000200: 9ba0 2ebd 611f 513f b372 0fbf a755 433f
00000210: 7eec 573e 99ae ea3f 5515 bebe a276 a0be
00000220: 9e43 733f 66f9 bb3d 678e 2bbe a49b e6bf
00000230: 58e1 e53e ac8d cd3e f281 1e3d c11b a83e
00000240: 73f9 a2bf 9515 90be 1cfe ab3f 28fc d03f
00000250: 8daf e3bd 054b 8cbe b6e1 be3e 52a5 983e
00000260: baf3 8c3d a913 353f 7548 a4bf abf1 1a3f
00000270: bda6 313d 83d3 fc3e 9326 b73e 7f23 523f
00000280: dbf3 c23e 6462 7bbf 47a6 e73e 0db8 da3f
00000290: f120 b5bf 3e4a ae3e 8831 8c3f 5719 863f
000002a0: ef53 973d 8b4b 713e 19d4 de3d 0907 ee3f
000002b0: 70f9 a5bd 8983 2e3f 3c5b 723f e525 cabe
000002c0: 8bcc 49be 0fc2 c3bd 0d4b 8ebe 9895 873f
000002d0: 75bc 003f d3e6 ea3f 78cc 1e3f 9c56 4c3f
000002e0: eece f93e 48e5 953d 6e09 b7bf 10d7 8b3f
000002f0: 34b8 c1be 9ed0 7fbf 4dce 7cbe e7c0 1d3f
00000300: 32b0 04bf 9d09 363f f3b7 a33e d46f afbf
00000310: c1d8 debe ec49 28bf 1d75 7e3f 6a87 293e
00000320: cffd 533e b318 1dbe 77d4 7f3f 065a 95bd
00000330: 384b efbd f897 773f 0e06 d13d 7156 5c3e
00000340: efe7 30be 2bc0 023f d299 c0bf e9ea 9cbe
00000350: 6928 923b 51af 0040 3b34 b0be 91c0 1bbf
00000360: 06b6 c83e e053 3ebc 5785 70bf 2970 54bf
00000370: 17f2 6e3f 07af a73d eabe 943e de7a 06bf
00000380: 83ac 013e 6277 553d de2a c93f 1139 023f
00000390: e099 32bf 1b78 54be 21f0 9cbf 3743 cc3e
000003a0: af44 063f 43fa 353f 5899 cbbe 859a b63e
000003b0: 56be 2bbe fac6 873f 7361 723f 3c8c a33f
000003c0: 5d68 753f dd50 b3bf d079 ba3e 207d 773f
000003d0: 5cf6 38bf 1f6c 4e3d a174 183f 4d36 633e
000003e0: fbcb 2d3d 33de 1b3f dd22 babe 4d51 063d
000003f0: ff78 34bf 56ff 69bd c83b 02bd b9c5 9dbf
-1.5341301 -0.0118388375 -0.21668738 -0.25770295 -0.10474411 0.5583015 0.10112983 0.10207053
-0.8249659 -0.2370972 -0.8320517 0.29764605 0.33665395 -0.79444826 -0.2194129 -0.29810214
-0.22475089 0.8808938 -0.09623619 -0.5968809 0.65674895 -0.82534647 -0.19729915 -1.0279031
0.82250154 0.6309599 0.3035012 -0.17391078 0.5038401 0.3169407 -0.4068943 0.21569958
0.26628748 -0.5594831 0.64677364 -0.5233158 -1.0381418 -1.0166143 -0.7021564 0.114287555
0.13764636 -0.7956086 -1.8343232 -0.109988324 0.06696692 -0.8835717 -0.37217623 -1.2620388
-0.5880264 -0.5053929 1.1376705 0.39967716 1.0931581 -0.6421553 0.14085998 0.9316046
0.6026546 0.33216494 0.41275105 -0.61967874 0.587014 -0.21298225 0.12503913 0.8998003
0.48510736 -0.19868125 -1.7730688 0.6204899 0.019665586 0.46349174 -0.13022372 -1.0341945
-0.5043118 0.20821597 0.30077413 -0.7086046 -0.13321838 -1.2128003 -0.9503909 -0.35909423
0.3229544 -0.36921966 1.1002264 0.0424343 1.2650461 -0.64027596 0.7473784 0.5647176
-0.2379771 -0.078976616 0.1676835 -0.29750994 0.12714206 0.5451095 0.953383 -0.818423
-0.9430715 0.66493833 -0.6609016 -0.056203026 -0.14234328 -0.8428007 0.2901972 0.9620527
0.663817 0.8275337 0.23995648 -0.24376272 -0.4983316 -0.053109754 0.46755108 0.16731724
-0.37016645 -0.6007157 -0.18327847 -0.30457696 0.45907336 0.71299183 -1.2501119 0.77361786
0.04864585 0.5884781 -0.93876827 0.25455195 0.0041249646 -0.057081435 -0.3651728 0.70933414
-0.042633634 0.81688505 -0.5603439 0.7630257 0.21086308 1.8334533 -0.3712565 -0.3134051
0.9502505 0.09178428 -0.16753541 -1.8016248 0.44898486 0.4014715 0.038698144 0.32833675
-1.2732376 -0.28141466 1.3436923 1.6326952 -0.11117468 -0.27400985 0.3728158 0.2981363
0.06882425 0.70733124 -1.2834612 0.60525006 0.043371905 0.4938012 0.35771617 0.8208541
0.38076672 -0.9819701 0.45244047 1.7087418 -1.4150678 0.34041017 1.0952616 1.0476483
0.07389056 0.23563974 0.10880298 1.8595897 -0.08104217 0.68169457 0.9467046 -0.39482036
-0.19706933 -0.09558498 -0.27791634 1.0592527 0.5028756 1.8351692 0.62030745 0.79819655
0.48790687 0.073191226 -1.4299753 1.0925007 -0.37835848 -0.999277 -0.24688073 0.6162247
-0.5183135 0.7110842 0.3197628 -1.3706002 -0.43524745 -0.65737796 0.9939745 0.16555563
0.20702289 -0.15341453 0.9993357 -0.07292561 -0.11684269 0.9671626 0.10206233 0.2151735
-0.17275976 0.51074475 -1.5046942 -0.30647972 0.0044603837 2.0107005 -0.3441485 -0.6084071
0.39201373 -0.011616677 -0.9395346 -0.8298364 0.9333815 0.08187681 0.29051906 -0.5253123
0.12663464 0.052115805 1.5716207 0.50868326 -0.69766045 -0.20748942 -1.2260782 0.3989503
0.5244855 0.71084994 -0.3976543 0.35664764 -0.16771826 1.0607598 0.94679946 1.2777171
0.9586237 -1.4009053 0.3642106 0.966753 -0.72250915 0.05039608 0.5955296 0.22188683
0.04243086 0.60885924 -0.36354724 0.03279238 -0.70497125 -0.057128273 -0.031795293 -1.2325965

network_body._body_endoder.seq_layers.0.bias f4 [128]
00000000: 0000 0000 0000 0000 0000 0000 0000 0000
00000010: 0000 0000 0000 0000 0000 0000 0000 0000
00000020: 0000 0000 0000 0000 0000 0000 0000 0000
00000030: 0000 0000 0000 0000 0000 0000 0000 0000
00000040: 0000 0000 0000 0000 0000 0000 0000 0000
00000050: 0000 0000 0000 0000 0000 0000 0000 0000
00000060: 0000 0000 0000 0000 0000 0000 0000 0000
00000070: 0000 0000 0000 0000 0000 0000 0000 0000
00000080: 0000 0000 0000 0000 0000 0000 0000 0000
00000090: 0000 0000 0000 0000 0000 0000 0000 0000
000000a0: 0000 0000 0000 0000 0000 0000 0000 0000
000000b0: 0000 0000 0000 0000 0000 0000 0000 0000
000000c0: 0000 0000 0000 0000 0000 0000 0000 0000
000000d0: 0000 0000 0000 0000 0000 0000 0000 0000
000000e0: 0000 0000 0000 0000 0000 0000 0000 0000
000000f0: 0000 0000 0000 0000 0000 0000 0000 0000
00000100: 0000 0000 0000 0000 0000 0000 0000 0000
00000110: 0000 0000 0000 0000 0000 0000 0000 0000
00000120: 0000 0000 0000 0000 0000 0000 0000 0000
00000130: 0000 0000 0000 0000 0000 0000 0000 0000
00000140: 0000 0000 0000 0000 0000 0000 0000 0000
00000150: 0000 0000 0000 0000 0000 0000 0000 0000
00000160: 0000 0000 0000 0000 0000 0000 0000 0000
00000170: 0000 0000 0000 0000 0000 0000 0000 0000
00000180: 0000 0000 0000 0000 0000 0000 0000 0000
00000190: 0000 0000 0000 0000 0000 0000 0000 0000
000001a0: 0000 0000 0000 0000 0000 0000 0000 0000
000001b0: 0000 0000 0000 0000 0000 0000 0000 0000
000001c0: 0000 0000 0000 0000 0000 0000 0000 0000
000001d0: 0000 0000 0000 0000 0000 0000 0000 0000
000001e0: 0000 0000 0000 0000 0000 0000 0000 0000
000001f0: 0000 0000 0000 0000 0000 0000 0000 0000
0.0 0.0 0.0 0.0 0.0 0.0 0.0 0.0
0.0 0.0 0.0 0.0 0.0 0.0 0.0 0.0
0.0 0.0 0.0 0.0 0.0 0.0 0.0 0.0
0.0 0.0 0.0 0.0 0.0 0.0 0.0 0.0
0.0 0.0 0.0 0.0 0.0 0.0 0.0 0.0
0.0 0.0 0.0 0.0 0.0 0.0 0.0 0.0
0.0 0.0 0.0 0.0 0.0 0.0 0.0 0.0
0.0 0.0 0.0 0.0 0.0 0.0 0.0 0.0
0.0 0.0 0.0 0.0 0.0 0.0 0.0 0.0
0.0 0.0 0.0 0.0 0.0 0.0 0.0 0.0
0.0 0.0 0.0 0.0 0.0 0.0 0.0 0.0
0.0 0.0 0.0 0.0 0.0 0.0 0.0 0.0
0.0 0.0 0.0 0.0 0.0 0.0 0.0 0.0
0.0 0.0 0.0 0.0 0.0 0.0 0.0 0.0
0.0 0.0 0.0 0.0 0.0 0.0 0.0 0.0
0.0 0.0 0.0 0.0 0.0 0.0 0.0 0.0

network_body._body_endoder.seq_layers.2.weight f4 [128, 128]
00000000: 414d c7bd a022 eabc e1ca c8bd a6df 5bbd
00000010: 1372 dfbb 189e 653d 71fa ab3d 3d51 c6bd
00000020: 1108 fcbc e9c5 2dbe 2d90 d63d 8ec8 c33d
00000030: a7bc adbd 67a8 ef3c 4957 543d 6282 57bd
00000040: 3160 673b 65ab 0dbd ad85 0abe 9260 353d
00000050: c16e 073b 3fb6 20be f9c6 433d 17a4 dabd
00000060: 957d 7ebd 0f97 e4bd 07cb 93bd a2e6 743d
00000070: f88d 983d c57f fdbb d2bc babd 67b6 6a3d
00000080: ede5 8ebd b066 163c 845f 94bd e72b 813d
00000090: 2aff 0b3d afc3 00bc ba7e da3d 3ef9 59bc
000000a0: 1008 0e3d ddf8 e3bd 4a88 0abc 7e65 133e
000000b0: 1840 1cbe a67e a23c 2f76 3d3d cfb4 49be
000000c0: 0175 de3d db0b ef3c 8ac4 1c3e 2aaa 053d
000000d0: 26e5 75bd 82b1 63bb 932d 1a3d 9801 153e
000000e0: c814 183d 2765 1cbc a286 603e de7b 7fbc
000000f0: 5b58 78bd d835 ef3d adcb e63d 6bd5 b3bd
00000100: b883 8c3c 5b1c ee3d 1f82 bcbc 84cb 23be
00000110: 0ab1 af3c 7427 5b3e 446c 4abd 8951 43be
00000120: 446c 3ebd 4791 61bc fe54 babc fdf6 8e3d
00000130: 6be5 f9bd cc1d a33d d628 ba3d 1da3 d8bd
00000140: 06c6 49bd e1bc 04bd 7e94 efbd b712 02be
00000150: 6a96 9b3d 0973 5abc 96f6 6c3d 6a18 af3d
00000160: 95cf 41bc 7f2f a1bc b47a 223e df1b 493d
00000170: d59a 83bd a0b9 473e 6291 ce3d d7a7 43bd
00000180: 11f9 afbc 18c1 efbd e5a5 db3c dac1 2b3e
00000190: fa21 e4bd b98e 20bd e2b3 893c da35 babc
000001a0: d249 d73c 4b33 dc3c 52e4 e93d c04b a5bd
000001b0: c57b 183d 6342 423d 967f 82bd fc4b a93d
000001c0: 5abd 1cbe 5a04 5d3d b965 6cbd e047 483e
000001d0: 71d8 2e3d bcc7 c73d 2a8a 86be 4f94 c4b9
000001e0: ddf6 0bbd bd58 43bd 2260 94bd def8 a7bc
000001f0: dbeb 3d3c 966d cfbd 7365 0dbc 1d5f 1abd
00000200: 7bd9 84be 43a8 a43c decb 293d 3b64 27be
00000210: 5e08 97bd a88e c7bb 3511 263d 3305 173e
00000220: 3506 ecbd 07ac 0cbe 30a4 c7bd ec82 553e
00000230: 2a7a 34bd f757 f83c a520 153d a128 eabc
00000240: abd3 a53d 21d6 59bd 0580 303d e505 b7bb
00000250: 6567 333d 1a61 18be a566 db3d cf44 e9bd
00000260: 1300 533d 2621 fc3d 3dc8 253d 9376 3abd
00000270: d4c1 05bd 8347 a83c b4ce e83c 0680 133e
00000280: 95d3 1cbd 215e 673d 9b66 9fbc f5b6 063c
00000290: 4c26 e33d 920d 063c d7f8 eb3c a0f0 b2bd
000002a0: 3dd0 673c 4499 a83d f9bb 943d 90d6 36bd
000002b0: bcf9 ea3c 600d 513d 3d06 95bd 0646 293d
000002c0: 81ea 10bd 7968 c03d 0772 413d f8c6 3d3d
000002d0: 5491 903d 7915 a7bd bc83 d73d c379 e33c
000002e0: ddb9 5dbd eea3 093e 7d74 e8bb 9187 ca3d
000002f0: d4e5 0fbd 55d2 163e e57d fa3d a178 4dbe
00000300: 31b3 0cbe fa8b d83c e971 39be 06ba 70bc
00000310: 429b 32be 48e1 c33d f512 2abc ac0f b1bd
00000320: 1ebf dc3c 6e73 27bd 8879 2abd eb84 9abd
00000330: 7b4a ec3d b6f3 c43b 8fc0 c9bd d34d 023d
00000340: fd7f 21bd b084 593d 5722 63bd 4d41 04be
00000350: 48de d03d 61ce 493e 430d aa3b 48ba efbc
00000360: 3455 ad3d 3d0d 513d 1092 bb3c d600 d83c
00000370: 1f91 873d 4655 643c f832 093c f93d 983d
00000380: cca3 23bd fa42 2abe c8cc 65bc 96d6 2d3b
00000390: a2c9 a83c 316d 233d 711f 5c3c 855f dfbd
000003a0: 7eb1 d23d 5941 993d 07d6 ba3d b9dd 32bb
000003b0: e72c 963d b675 1c3c 653b aabc 0817 cc3d
000003c0: 7df1 83bc d8d0 8ebd c414 49bb 0a51 96bc
000003d0: 7d48 c23c 5fd9 d13d 9eb9 12be 818f 513c
000003e0: 02cb 25bd 0f5c 873d 9650 573d 6fd4 3c3e
000003f0: 625f f7bc 8e01 993c 4712 c8bd 1f77 12bd
-0.09731532 -0.028580964 -0.09804321 -0.053680085 -0.0068190186 0.056058973 0.08397377 -0.09683464
-0.030765565 -0.16970028 0.10476718 0.09559737 -0.08483248 0.029255105 0.051841054 -0.052614577
0.0035305137 -0.034587283 -0.13527556 0.04428155 0.002066538 -0.15694521 0.047797177 -0.10675829
-0.062131483 -0.11161625 -0.07216459 0.05979026 0.074489534 -0.0077361786 -0.09118046 0.05730286
-0.069774486 0.009179756 -0.07244781 0.06307202 0.03417889 -0.007859155 0.106687024 -0.013304053
0.034675658 -0.11131451 -0.008455345 0.14394185 -0.15258825 0.019835781 0.046255287 -0.19697879
0.108621605 0.029180458 0.15309349 0.032632984 -0.060032986 -0.0034743254 0.03764112 0.14551389
0.037129194 -0.009545601 0.21926358 -0.015593497 -0.060631137 0.11680192 0.11269317 -0.087809406
0.017152652 0.11626502 -0.023011265 -0.15995604 0.021446723 0.21401769 -0.049419656 -0.19074072
-0.04648997 -0.013767547 -0.022745606 0.06980703 -0.12201961 0.07964668 0.0908982 -0.105779864
-0.049261115 -0.03240669 -0.116982445 -0.12702452 0.075970486 -0.013333091 0.05785235 0.085495785
-0.011829277 -0.019675968 0.1586712 0.049098846 -0.06426016 0.19504404 0.10086323 -0.047767486
-0.021481069 -0.117067516 0.026812503 0.16773167 -0.11139293 -0.03919861 0.016809408 -0.022730757
0.026280317 0.026879927 0.11420502 -0.08071089 0.03722741 0.047426593 -0.06371991 0.08266446
-0.15306607 0.053959228 -0.057714198 0.19558668 0.042686883 0.09754893 -0.26277286 -0.00037494532
-0.034170974 -0.04769205 -0.072448984 -0.020504411 0.011591877 -0.10128324 -0.008630144 -0.037688363
-0.25947174 0.020099765 0.04145419 -0.16346829 -0.07374643 -0.006090004 0.040543754 0.14748077
-0.115246214 -0.13737498 -0.09748113 0.20850724 -0.044061817 0.030315382 0.036408085 -0.028583826
0.08097013 -0.053182725 0.04309084 -0.0055854195 0.043799777 -0.14880791 0.10712937 -0.11390077
0.051513743 0.1231101 0.040474165 -0.045523237 -0.032655552 0.020541912 0.028418876 0.14404306
-0.038287718 0.056486253 -0.019458106 0.008222331 0.11091289 0.008181946 0.02880518 -0.08737302
0.014148769 0.08232358 0.072624154 -0.044638216 0.028683536 0.051038146 -0.072765805 0.041326545
-0.03537989 0.093949266 0.047227886 0.04633233 0.07058969 -0.081583925 0.10523173 0.027768021
-0.05413233 0.1344144 -0.0070939646 0.098891385 -0.03513129 0.14728673 0.12231044 -0.20065548
-0.13740231 0.026433934 -0.1810986 -0.014692789 -0.17442039 0.09564453 -0.010380496 -0.08645567
0.0269466 -0.040881567 -0.041619807 -0.07544883 0.115376435 0.006010498 -0.09851181 0.0318125
-0.0394287 0.053105056 -0.05545267 -0.12915535 0.10198647 0.19707634 0.005189569 -0.02926363
0.08463517 0.051038016 0.022896796 0.026367586 0.066194765 0.013936346 0.008373968 0.07433695
-0.03995113 -0.16627112 -0.014025874 0.0026525608 0.020603959 0.039899055 0.013435231 -0.10906891
0.1028776 0.07483167 0.09122854 -0.0027292802 0.07332783 0.009549549 -0.020780275 0.0996533
-0.016106362 -0.069734275 -0.0030682543 -0.01834919 0.023716206 0.10246538 -0.1432862 0.012790562
-0.040476806 0.06609356 0.052567087 0.18440412 -0.03019685 0.0186775 -0.09769111 -0.035758134

action_model._continuous_distribution.mu.weight f4 [1, 128]
00000000: 4981 9dbc 8b39 cabb a278 82bc 1097 1cbd
00000010: 2fbf f7bc 1e95 46bc db22 063c 9ca4 2cbc
00000020: a1ba ad3b c603 c2bc e9a1 0c3a 2e3a 00bc
00000030: 63f3 203c 9858 21bb 21a8 433c ef01 f33b
00000040: 9fb7 6e3c 9b7e 7a3c 198a 893b 6244 75bc
00000050: 2d46 26bc 400a c3bc 77c1 d4bb d8ee dcbc
00000060: a2d2 a13c 3a24 d8b9 824b 0d3c eb0f 0cba
00000070: 55b2 6d3c 9dc9 e2bb ffdb 363c 10cb 6b3c
00000080: be6c 9f3b 7057 f1bc e59a 01bd 5af2 753c
00000090: 71eb 0f3b a13c 843c 2fff 03bc 77b2 06bc
000000a0: 3d42 2cbc 00f6 c3ba 107f 76bc a8e0 feba
000000b0: 0914 023c a701 b5bc 968b b4bc a828 78bc
000000c0: eaba 6ebc 2bc2 ac3c 827a dc3a 96c8 bdbb
000000d0: c364 d23c 786f 00bd bfe1 ec3c 8724 8fbc
000000e0: 1551 80bc 1a93 f9bc ce91 37bb 3b38 03b9
000000f0: 589a 6c3c cf1f 2fbc 7e46 0ebd a89f 03bc
00000100: 49b1 343b 86f4 babc 9709 7e3c f221 ce3c
00000110: 5f91 32bc 33fb bf3b a505 723c 4afb bebc
00000120: 7c56 c9bc d5e5 953c 5cff 483c 8d96 feba
00000130: 72cf ba3b 50f4 f5bb c851 fc3b 0e8e 93bc
00000140: 8e9c 0cbc e560 05bd 2ff5 2abc dd72 8abc
00000150: ee68 3e3b 4f0b 733c d3d2 b13b aa6f 0cbd
00000160: 5f1a afbb 3c04 283c c79d bebb 1fe7 05bc
00000170: e9cd 0dbc 8bb9 14bc 0717 ccbc d628 a1bc
00000180: d02b 683b c99e cc3c 662a 913c 77e8 0a3d
00000190: 07be 0e3c 650b 9f3b ed03 13bd 77f6 3cbb
000001a0: db29 79b9 6a52 3b3c 1ae2 c6bc 1f86 ffb8
000001b0: dbbf c33c 87fb bc3b ee4b 40bc 0653 a23c
000001c0: 4367 31bc b64d 153d d187 c3bb 038c 593c
000001d0: 0da8 61bc dab5 d83c 23ba 56bd 97cc f03c
000001e0: 6b39 0ebc ea77 793c 5bc2 e63c 539f af3c
000001f0: f3e1 e43c 5bd0 d33b fb19 c8bb 54bd 8cbb
-0.019226687 -0.0061714104 -0.015926663 -0.038230002 -0.03024253 -0.012120513 0.008187021 -0.010537293
0.005301789 -0.02368344 0.00053647027 -0.007826371 0.009823653 -0.0024619456 0.0119419405 0.007416002
0.014570146 0.015288974 0.0041973707 -0.014969917 -0.010148567 -0.023808599 -0.0064927894 -0.026969358
0.019753758 -0.0004122572 0.0086239595 -0.0005342948 0.01450785 -0.006921007 0.01116085 0.014391676
0.004865258 -0.029460639 -0.03164186 0.015011394 0.0021960402 0.016142191 -0.008056446 -0.00822126
-0.010513839 -0.0014950633 -0.0150449425 -0.0019445615 0.007939347 -0.022095514 -0.022039216 -0.015146412
-0.014570931 0.02108868 0.0016821178 -0.005791734 0.025682813 -0.031356305 0.028916238 -0.017473472
-0.015663663 -0.030465651 -0.002801049 -0.00012514081 0.014441095 -0.010688736 -0.034735195 -0.0080336705
0.002757149 -0.022821676 0.015505216 0.02516267 -0.010898917 0.0058588027 0.014771854 -0.023313183
-0.024577372 0.018298069 0.012267914 -0.001942353 0.005700999 -0.007505931 0.007700179 -0.018012073
-0.008582247 -0.03256311 -0.010434433 -0.016900474 0.0029054242 0.014834239 0.0054267435 -0.03428618
-0.00534372 0.010254916 -0.0058171484 -0.008172779 -0.00865505 -0.00907744 -0.024913324 -0.019672792
0.0035426505 0.024978058 0.017720412 0.033913102 0.008712298 0.0048536533 -0.035892416 -0.0028833428
-0.00023762083 0.011433223 -0.024277736 -0.000121843295 0.023895195 0.005767289 -0.011736853 0.01981498
-0.010827842 0.036451064 -0.0059671183 0.01327801 -0.013772977 0.026453901 -0.052423608 0.029394431
-0.008680682 0.015226344 0.028168848 0.021438276 0.027939772 0.006464047 -0.0061066127 -0.0042950306
