MachineLearning/results/testSumo4/MoveTOGoal/checkpoint.pt (torch, 441378 bytes, 36 tensors)

network_body._body_endoder.seq_layers.0.weight f4 [128, 6]
00000000: 554b 123f 4674 65be ecff 08be dac3 a0be
00000010: d908 353e 30fe c03c 0209 623e e07e 0fbe
00000020: c73b 2c3e c9c3 523d 0065 4d3e e801 f7be
00000030: 57e9 cebd f470 d4be e75f 1bbe 9f9a 083e
00000040: 8a9a 153f ac85 54bd 1104 503d 0667 62be
00000050: b622 073f bbf5 bfbe 210c 10be 1677 383e
00000060: f968 20be 93a1 04bf 713d aebe 3ec3 883e
00000070: 2d4a 7a3d c398 58be 39a5 24bf 48bf 613e
00000080: 0b60 ca3e 3433 033f da7f 5bbf 8d19 b2be
00000090: c615 a8be ce9a 4abc dfbd b03d df8f 9a3e
000000a0: d2b5 163f 4fdf 253e 6c0b 663f 29ac 2e3e
000000b0: 7e25 1c3f 122a 99bf 1b13 213f c940 19bf
000000c0: aec9 3cbf d3df 46be cc0a f93d 11f3 a1be
000000d0: 35c6 cabc 7007 a4be fa16 b0be 0145 b0bd
000000e0: 6398 adbe fd2b 54bd 0ba3 83be 1456 3fbf
000000f0: 0729 f13e 51ad 2bbe b55e bf3e 8cc7 713d
00000100: 3fd5 e83d c759 a7be fbb1 90be f459 31bd
00000110: 8996 b63d 0ac3 06bf cd47 213e 5d93 14bf
00000120: bb25 9c3e dae9 15bf 6763 8d3e e3e3 03bf
00000130: 9d2a a3bd 684a ba3d c1b2 2f3f e146 03be
00000140: 109a c8bd d927 f0be 536c e33d 3f65 593e
00000150: 90b2 3fbe 6a70 e5be 0120 bc3e d41e df3d
00000160: 8659 ccbe 2f6a a2be 58e8 27bf 9cdc 063e
00000170: 7b56 053f f77b 133e e041 6b3e d372 0cbe
00000180: cee3 bfbd d7b6 d6be d045 423e 0290 2e3f
00000190: 3fbc 29be 3b90 1a3e 50ba bdbe 991f 40be
000001a0: 3bb6 0bbf 41a0 d9be c473 08bf 1596 47be
000001b0: 4804 193f c5f5 543e f84a 2c3e 4c90 cebe
000001c0: 1c70 6b3d f353 843e 8c74 babe 41fd 61be
000001d0: 4ce5 4ebe ffd4 9bbe 9c85 11be 7505 34bf
000001e0: 86c8 6b3e 598e b73e 5e55 793f 041a 4c3e
000001f0: 3d4a 1ebf b2f4 33bf 5c90 a4bd 110b cf3d
00000200: 89b3 af3e 34de cfbd 6a1b 973e 9da9 5cbe
00000210: 58c1 35bf 4d94 eebd a5a6 77bc c103 63bf
00000220: 8d7e b7bd a849 353e 7ccf c63e 6935 083f
00000230: 1cd1 f9be 6d38 823e d442 04bf de70 36be
00000240: 1dd6 02bf 1332 673e 9184 513f 08ea 8ebe
00000250: 29cb 98be 94fa ea3d 94a4 4e3f ca95 8e3d
00000260: 7838 073f c129 893e efd9 2b3e cef9 e93d
00000270: 72bd 423d 5af3 903e 090b 59bc 2ad4 193e
00000280: 0323 70be 9b48 403f e0a7 d43d ad72 0a3e
00000290: 872a 273d be0f 9b3d 2395 a5be e3ca 2c3f
000002a0: 2c33 0c3f feda 7e3f 48b5 023e abe1 e9bd
000002b0: 8fc6 dbbd 3f87 2f3f bc55 c3be 1c4d d13e
000002c0: 4a5a a23e b1bd 2a3f 008a 38be 5a04 7ebd
000002d0: cc35 a63e 60a7 823e 137a 17be 92e4 00bf
000002e0: 3674 3ebf 26f6 51bf a201 b1be 232a 19be
000002f0: 71e9 19bd ef5d 253f 2cc5 5b3f 4039 13bf
00000300: 7152 e5be a315 78be 7af3 1dbf b410 363f
00000310: 3a06 93bd f011 013e e72a c8bd a607 c8be
00000320: b200 a93e 86ba b1bd 426e 6ebe 88f0 e7bd
00000330: d2a1 90be 8a10 92be 6d70 71be 653d 78be
00000340: baf2 c3bd e3a8 b43e 3c66 b4be 2680 46be
00000350: c68d 063e 7226 033f 38ae 053f edfe 8f3e
00000360: 844b 02bf a7eb 3dbf d155 db3e 60d6 f7be
00000370: 172e 8abd b699 643e f8f2 73be f1fa 483f
00000380: bf7a 89be 0aec d7be fd41 acbd 3432 0bbe
00000390: 1e0d 003d 6542 0c3e 0e26 0c3f 9c42 0ebe
000003a0: 3216 ff3e 7871 0dbe 968f 38be 56af 223d
000003b0: 0f16 033f 21b4 89be e477 c3be e599 a2be
000003c0: 1bc6 cc3e ef9f 853e 8e6c 0bbf 95b9 343e
000003d0: 4d5b 0abf 7b49 bb3e adcd 3fbf bfb0 f83b
000003e0: 3f5c 163e 310c 50be 10b1 80bd 76d5 0abf
000003f0: 7ad3 0e3e 1572 5f3e edda eb3e 66c3 c1be
0.571462 -0.22407636 -0.13378876 -0.31399423 0.17679156 0.023558706 0.22073749 -0.14013243
0.16819678 0.051456247 0.2005806 -0.48243642 -0.101031 -0.41492426 -0.15173303 0.13340233
0.5843893 -0.051885292 0.050785128 -0.22109613 0.5278734 -0.37492165 -0.14067127 0.18014178
-0.15665044 -0.5180904 -0.3403125 0.26711458 0.061105896 -0.21152024 -0.6431461 0.22045624
0.395264 0.51250005 -0.8574196 -0.3478512 -0.32829112 -0.01236601 0.08629965 0.3018789
0.58871186 0.16198467 0.8986118 0.17057861 0.6099471 -1.1965964 0.6291978 -0.5986448
-0.7374524 -0.1942132 0.121602625 -0.31630757 -0.024752716 -0.32036924 -0.3439253 -0.086069115
-0.33905324 -0.051799763 -0.2571033 -0.7474072 0.47101614 -0.16765334 0.37376943 0.059028193
0.113687985 -0.32685682 -0.28260788 -0.043298677 0.08915431 -0.52641356 0.15750046 -0.5803736
0.30497536 -0.58559954 0.276149 -0.515196 -0.07967112 0.09096223 0.6863213 -0.12820007
-0.0979501 -0.469054 0.111046456 0.21230029 -0.1872046 -0.44812328 0.36743167 0.10894552
-0.3991205 -0.31721637 -0.65588903 0.13170093 0.52085084 0.14402758 0.22974348 -0.13715677
-0.09369622 -0.4193637 0.18971944 0.6818849 -0.16575716 0.15094082 -0.37056208 -0.18762054
-0.54574937 -0.42505077 -0.53301644 -0.19490846 0.5977216 0.20796879 0.16825473 -0.40344465
0.057479963 0.25845298 -0.36417043 -0.22069265 -0.20204657 -0.3043594 -0.14211124 -0.70320827
0.23025712 0.3585079 0.97395885 0.19931799 -0.6183203 -0.7029525 -0.08035347 0.101095326
0.34316662 -0.10149804 0.29513103 -0.21549077 -0.70998144 -0.1164938 -0.015115415 -0.88677603
-0.089596845 0.17703879 0.38830173 0.532065 -0.4879235 0.25433674 -0.5166447 -0.17816493
-0.5110796 0.22577696 0.81842905 -0.27912927 -0.298425 0.11473575 0.80719876 0.06962164
0.5282054 0.26789668 0.16782354 0.114245996 0.04754395 0.28310663 -0.01324726 0.1502234
-0.23450856 0.7511079 0.10383582 0.13520308 0.04081204 0.07571362 -0.32340345 0.6749708
0.5476558 0.99552906 0.12764466 -0.11419996 -0.107312314 0.68565744 -0.38151348 0.40879142
0.3170951 0.66695696 -0.18021393 -0.06201587 0.3246292 0.25518322 -0.14792661 -0.5034877
-0.74396074 -0.8201622 -0.34571558 -0.1495748 -0.037576143 0.64596456 0.85847735 -0.5750923
-0.4478946 -0.24227004 -0.6169964 0.71119237 -0.07178922 0.12604499 -0.09773808 -0.39068335
0.33008343 -0.08678155 -0.23284248 -0.113251746 -0.2824846 -0.28528243 -0.23578043 -0.2424217
-0.09567781 0.352851 -0.3523425 -0.19384822 0.1314002 0.5123054 0.5221896 0.2812418
-0.5089648 -0.741877 0.4283891 -0.48405743 -0.06747072 0.22324261 -0.23823154 0.78507906
-0.2685146 -0.4217227 -0.08411024 -0.1359337 0.03126251 0.13697203 0.54745567 -0.13892597
0.4982162 -0.13812816 -0.18023524 0.039717995 0.51205534 -0.2689524 -0.38177407 -0.31758037
0.39994892 0.26098582 -0.54462516 0.17648919 -0.54045564 0.365795 -0.7492321 0.007589429
0.14683627 -0.2031715 -0.06283772 -0.54231966 0.1394786 0.21820863 0.46065465 -0.3784439

network_body._body_endoder.seq_layers.0.bias f4 [128]
00000000: 3f13 983d ab38 e7bc d697 bdbd c6f0 59bc
00000010: 3b9a 08bd e823 123c c512 cebd d132 9cbc
00000020: f05b 69bd 8e16 fabd 57d5 03bd b6c3 03bd
00000030: a7aa 8abd 42ef a73d d56c d0bd b9ab 54bd
00000040: a542 99bc ff81 79bd 0155 34be d761 9cbd
00000050: 7ba0 883d dc3f f1bd 1cf0 1abd 2ede b8bd
00000060: 341c 303d e98e 45be ea44 3dbd 00fb c5bd
00000070: 6e94 ccbd f451 9abd 14ac cabc 6bfe d2bd
00000080: 5103 d83d 0cbb 6ebd a0e2 f4bd ec33 b6bd
00000090: b807 19bd 3eb2 36bd 9886 15be 13e5 d4bd
000000a0: e355 1fbd d538 d2bd 7113 1ebe 7067 573d
000000b0: 7071 ca3c b75d 35bd 7a19 533d d61a 443d
000000c0: 1b04 143d 24a1 b23c 7129 14bd c780 77bd
000000d0: 4f91 ecbd 35a3 b23c ed9b 1cbd 9b37 cbbc
000000e0: 41b3 26bd 6bf1 263c a07e 1a3d eb66 c5bd
000000f0: 8b2f 1b3b 0de9 923d 0aac 703c a819 e13c
00000100: 4894 eabd 66ed 183b 9aa1 ea3a 184a 643d
00000110: 82c0 fcbd 4de7 90bd b533 96bd 9594 ffbd
00000120: 4c28 78bd a3ac b53c 4659 0dbd 531e ce3d
00000130: 62d7 dabd 2990 52bd d128 b7bd db04 a13d
00000140: a9e3 a8bc 6201 d93c 0148 f03d 7dc5 b5bd
00000150: 144a 183b c1b8 0fbe 927f 553c 8335 9dbc
00000160: 5f43 94bd 62d8 d0bd 3073 a23c 2f3a 433d
00000170: 6e8f 663c a0e9 2fbe 0c51 a0ba 5a6c eabc
00000180: 2b1b 923d 1a8a b33c 648a 08be c70d 9fbd
00000190: 32f2 66bd 5ff1 b9bd 9128 0a3b ed21 aebd
000001a0: 3c50 1abd 9784 853d 97af 3a3d 6548 b3bd
000001b0: 3f19 0dbe efda 47bc 907d d03d ac81 32be
000001c0: 8431 843d 6ecc 64bd ea9d 303c cb38 22bd
000001d0: efd3 8dbc e062 38bd c133 4dbd 4e84 ea3c
000001e0: c5c7 aabd 7815 0ebe 1a7d c2bc 1c45 8f3c
000001f0: 11b5 1fbd d138 bcbd 654e a23d 48a6 babc
0.07425546 -0.028225264 -0.09257476 -0.013302034 -0.03335021 0.0089196935 -0.10062174 -0.0190672
-0.056972444 -0.12211333 -0.03218588 -0.032169066 -0.067708306 0.08199932 -0.10177008 -0.05192158
-0.018708536 -0.06091499 -0.17610551 -0.07635849 0.06671234 -0.11779758 -0.037826642 -0.090267524
0.042995647 -0.19292797 -0.0462083 -0.09667015 -0.09989248 -0.075351626 -0.024740256 -0.103024326
0.105475076 -0.05828385 -0.11957288 -0.08896622 -0.037360877 -0.04460358 -0.14602125 -0.10395255
-0.038900267 -0.10264746 -0.15437104 0.05258888 0.024712294 -0.044278827 0.05153797 0.047877155
0.036136728 0.021805353 -0.036172334 -0.060425546 -0.11551153 0.021806339 -0.03823464 -0.024806788
-0.040698294 0.0101893945 0.037718415 -0.09638771 0.002367946 0.07173357 0.014689455 0.027478054
-0.11454064 0.002333486 0.0017900944 0.055734724 -0.123414055 -0.07075367 -0.07334081 -0.12479512
-0.060585305 0.022177046 -0.034508966 0.10064378 -0.10685612 -0.051407013 -0.08943332 0.07862254
-0.02061637 0.026489917 0.11732484 -0.088755585 0.0023237513 -0.14035322 0.013030903 -0.019190555
-0.072394125 -0.10197522 0.019830316 0.04766291 0.014072282 -0.17178965 -0.0012231185 -0.02861612
0.07134088 0.021916438 -0.13334042 -0.077663 -0.05638332 -0.09079241 0.0021081308 -0.085025646
-0.037674174 0.0651943 0.04557761 -0.087540425 -0.13779162 -0.012198194 0.10180199 -0.17432278
0.06454757 -0.05585902 0.010779837 -0.039604943 -0.017312972 -0.04501617 -0.050098184 0.02862754
-0.08338884 -0.13875377 -0.023741294 0.017489009 -0.038991038 -0.09190524 0.07925109 -0.022784367

network_body._body_endoder.seq_layers.2.weight f4 [128, 128]
00000000: ba18 263e 5cd7 8bbd c4c2 9cbd ff42 a4bb
00000010: 76d6 d8bc 5d42 f23b 440f de3c 3fbb 873e
00000020: d1f7 263b 9982 233d c3f9 f13d 6813 2ebe
00000030: 3458 503e 8b41 943d 09ac 603e 4125 70bd
00000040: 8cc5 d03d 33d6 32be 5711 2d3e 8e67 adbd
00000050: 6603 c43d 2611 a13d 7efd d23d d557 fa3c
00000060: a453 cd3c 75c7 fbbd 5e99 3e3d 21b9 573c
00000070: 14e0 ba3d 1ef7 07be 1a51 8bbd ab82 a63d
00000080: 1a08 d63d b570 323d 8f2d 9abd 6a46 69bd
00000090: cbaf a03d cfa9 8f3e 3bd4 c5bd d217 3e3e
000000a0: 7d44 183e 0d91 c5bd 789b 4f3d 2f9c 7b3c
000000b0: 8878 1dbd 0b89 ca3d 7a7c aebe 3103 3c3b
000000c0: ea21 1c3c b4d9 91bd 59a9 c73c 0c1f 25be
000000d0: c218 71bd 725b 46bc c316 193d aa4e f1bd
000000e0: 636f 213d c175 b3ba 2f44 033e 1f14 91bd
000000f0: 22cf ac3c 08d1 e4bc 61ef 773d 4088 703e
00000100: db47 78bd 3ca8 b03d 09a7 853d 7bbd f63c
00000110: 2ca4 07bd 8ed8 96be 4056 e33b 5eb5 b4bc
00000120: 8e56 223c cdb0 2cbd 60ff 343d db48 00be
00000130: 5b70 0bbd fa5c d43c 5786 c2bc 7a7e 8c3d
00000140: 3d58 2f3e 3127 c23c cb50 cd3c c783 22be
00000150: 68ec ec3d bdd2 2f3d bc7a 833d d821 7ebe
00000160: 400f 43be 7b69 453d 4224 df3d 12d7 df3d
00000170: 840e 03be 4c5f 09bd 53df e43c dbff f4bc
00000180: da16 31be a817 bf3c de31 413c 4499 8c3d
00000190: dba9 97be b752 1a3b d207 f63d 8758 d03a
000001a0: 248b 263e 97ef 83be 3e64 c23d 447e 87bd
000001b0: 3c0d a13d 1e82 033b 8973 6fbe 31fe 7a3c
000001c0: e0d6 103e 07cf 3abd 0fbe 12be cf61 7dbd
000001d0: e810 4a3e 9545 ad3c 6b7d 803d 1ea6 e43d
000001e0: 08d9 a3be e06c ddbd 665f 0d3e 0dc9 b93c
000001f0: 05cc c83b a2f9 373d c00a a63d b04d e43d
00000200: 3b54 403e 363c fa3d 0c6f a9bc 76a9 033e
00000210: 6995 b7bc ed3b 383e d919 d0bd 2738 f63d
00000220: 4157 cd3d 4183 01be ef9f 2e3e 295f bbbc
00000230: b6d3 b1bd 079d 5d3e 9c80 513d 1545 94bc
00000240: 1f3f 87bd 87c8 23bd c798 13bd 1f05 a2bc
00000250: 46d3 cc3d aa3b 353d 19c1 6c3a 74e6 14bc
00000260: 710c 22bc 0f10 e83d b28b 03be 698e e3bc
00000270: 5c7b 9abd 9b6d 99bd 3295 563d 76db 06be
00000280: 7f80 2bbe 8964 0e3e 4ce5 47bc 9137 2ebe
00000290: 89e9 2f3d c33c 703c 5d4f 393d d9ea 403e
000002a0: 3a1c 133e a0c2 a2bc c585 0a3e ee59 cdbd
000002b0: 59ce 163d b00e b03d f0d1 333d 3eb7 3cbc
000002c0: 9d49 54be 7479 fd3b ffe3 a33d a6b8 d83d
000002d0: 4f35 3abd 1eec 6a3d 1511 9abe 4ab2 47be
000002e0: 7877 ddbd 4b39 adbd 59bf cfbb 52d7 bbbd
000002f0: 9479 bb3d e9c1 113e 91a0 8cbe 5bc9 a43d
00000300: 56f1 2bbe 9f3c 223e 6283 02bd 3beb 5cbc
00000310: 4186 c1bb 582f a0bd 27c7 abbb f1e9 98bc
00000320: f976 353e e0ff fabb 9ebb 423e 3f45 b13d
00000330: 50e7 703e bf6e 413d c4a1 4dbc 14b4 103e
00000340: 8ae7 a53d b103 c93d c2f8 91bc 914d babd
00000350: 1bf7 3a3d 7460 c23c 0fae 31bd c6b9 9dbe
00000360: 59c1 753d 03fe 213d d81e 4a3d 14eb 353e
00000370: b7e1 a7bc 16d9 3d3e c928 16bd df40 bcbc
00000380: c605 1f3e b349 32bd b6ed 02be 364a e63c
00000390: 80ef 7dbe 569e 81bc 3a81 e4bd 4360 48bd
000003a0: cc6d 48bd 2586 78bd e119 9b3c 3b96 41bd
000003b0: e628 873e bd4f 333e fc0f f3bb e431 1abd
000003c0: 099c 11be df9c 683b 798f 76be 1be9 063e
000003d0: 3312 083e 12f8 473e 938c c2bc da5d 14be
000003e0: e61d fbbd 93b4 a4bd 1512 a8bd 74df 9c3d
000003f0: fbcb 1dbe 06fd 453e 1453 f43d 2cab 69bd
0.1622037 -0.06828186 -0.07654336 -0.0050128694 -0.02646945 0.007393165 0.027106889 0.26510045
0.00254773 0.03991947 0.118152164 -0.1699959 0.20346147 0.07239064 0.21940626 -0.058629278
0.10193929 -0.17464523 0.16901146 -0.08467017 0.09570961 0.07864599 0.10302256 0.03055946
0.025064297 -0.12293903 0.04653298 0.013166697 0.09124771 -0.13277861 -0.06802578 0.08130392
0.10450764 0.043564517 -0.07528221 -0.056951918 0.0784603 0.2805924 -0.096596204 0.18563774
0.14869876 -0.09646807 0.050685376 0.015357061 -0.038445026 0.0988942 -0.34079343 0.0028688426
0.00952957 -0.07121602 0.024372743 -0.16125125 -0.0588615 -0.012106763 0.037375223 -0.11782582
0.039412867 -0.001369171 0.12818979 -0.07083916 0.021094862 -0.027931705 0.060531024 0.23489475
-0.0606154 0.08625838 0.06526 0.030119648 -0.03311555 -0.29462093 0.006937772 -0.022059139
0.009908332 -0.042160798 0.044188857 -0.12527792 -0.034042697 0.02592324 -0.023745699 0.06860061
0.17123504 0.023700329 0.02506294 -0.15870582 0.115685284 0.042925585 0.06419894 -0.24817598
-0.19048786 0.048196297 0.108955875 0.10929693 -0.12798506 -0.033538148 0.02793852 -0.029907158
-0.17293873 0.02332671 0.011791674 0.068651706 -0.29621777 0.0023547837 0.1201321 0.0015895524
0.16264015 -0.2576873 0.09491776 -0.0661588 0.078638524 0.002006657 -0.23383917 0.015319393
0.14144468 -0.045607593 -0.14330314 -0.061860856 0.19733012 0.021151343 0.062739216 0.11164497
-0.3200152 -0.10811782 0.13805923 0.022678876 0.0061278366 0.044915803 0.08107519 0.1114763
0.18782131 0.122185156 -0.020682834 0.12857613 -0.022410112 0.1799161 -0.1016118 0.12022429
0.10026408 -0.12647726 0.17053197 -0.022872524 -0.08682959 0.21641932 0.051148042 -0.018099347
-0.06603836 -0.03998616 -0.03603437 -0.019777833 0.10001235 0.044246353 0.00090314593 -0.009088147
-0.009890662 0.11331188 -0.12846258 -0.027777867 -0.0754306 -0.07491609 0.052388377 -0.13169655
-0.16748236 0.13905539 -0.012200665 -0.17013384 0.042947326 0.014662924 0.045241702 0.18839587
0.14366236 -0.019868195 0.13527592 -0.10026918 0.036817882 0.085965514 0.043901384 -0.011518298
-0.20731206 0.0077354256 0.08002471 0.10582094 -0.045460995 0.057354085 -0.30091158 -0.19501606
-0.108138025 -0.084581934 -0.006339949 -0.091719285 0.091540486 0.14234127 -0.27466252 0.08046218
-0.16791281 0.15843438 -0.031863578 -0.013483818 -0.005905897 -0.0782153 -0.0052422467 -0.01866624
0.17721166 -0.007659897 0.19016883 0.08655786 0.23525739 0.047224756 -0.012550775 0.14131194
0.08100803 0.09815157 -0.017818812 -0.09096826 0.045645814 0.023727633 -0.043378886 -0.30805796
0.059998844 0.039548885 0.04934582 0.17765456 -0.020493371 0.18539843 -0.03665999 -0.022980152
0.15529546 -0.043527316 -0.12785992 0.028111558 -0.24798393 -0.01582257 -0.111574605 -0.048919927
-0.048932835 -0.060674805 0.018933238 -0.04726241 0.2639839 0.17510886 -0.007417677 -0.037645236
-0.14219679 0.0035493893 -0.24078168 0.1317486 0.13288192 0.19528225 -0.023748672 -0.14488927
-0.12261562 -0.08042254 -0.08206574 0.07659808 -0.15409844 0.19334802 0.119299084 -0.057048008

network_body._body_endoder.seq_layers.2.bias f4 [128]
00000000: 1315 64bc 99f6 b8bc d2fa e7bd e5ac 17be
00000010: 7fde 29be 5040 eebd df8b 1ebe 7c52 8fbd
00000020: 4baa 03bc c688 b0bd 30b0 eebb a5ee 26bd
00000030: 6721 b33c a4a4 35bd b048 3ebc 5491 69bd
00000040: bfcd 37be 18b9 06be 7ddf 2abe 62db 80bc
00000050: 1eac 2cbd 6848 4abe 13e1 61bd dbce 34be
00000060: 5cc0 74bd eb98 33bd 6d51 86bb 03ab 6dbd
00000070: 5f89 32be 87d5 fbbd 6c1e dbbd fb05 e2bd
00000080: 7719 19bd fef3 19bd cd66 2ebe 4fad 9cbd
00000090: c9b7 16be e397 2abe 064a 49be 99bc 28be
000000a0: c19f 57be 16a3 10be 732a 02be c11b 58bd
000000b0: 2708 7dbd b70d 1dbd 4a9f f6bd 82cb 4dbe
000000c0: d72c f3bd 8f72 183c cc05 14be 7f8d 31be
000000d0: 95c8 93bd 6ca6 1abe 2a36 4cbd 043a e2bc
000000e0: 9a2e 6a3c fe50 bebd ba37 9bbd 5b32 32be
000000f0: a701 2abc 29fe b8bb bfd5 f4bd f122 d6bd
00000100: 49c9 48be 4d05 993c fd28 94bc 56eb 12be
00000110: f6b5 c3bd 1f21 debc 4dfc 91bb 6791 54bd
00000120: b876 25be 7517 3ebe 3e49 0abe 4af6 a8bd
00000130: 7a4c 01be 0639 a7bc 2dd0 a5bd f534 d2bc
00000140: 0717 4bbe f60b 01be b7ba 243c a2a6 45bc
00000150: 76a4 28be 0846 d1bc 93ac 48bd 97d3 12be
00000160: 23e3 3fbe da13 dbbd 33f7 97bb 6bfe 59bc
00000170: 86af 2abe b7c1 313c 83bf 37be d528 4fbd
00000180: 2828 a8bd fc1d c7bc fc3c f1bd 35fc 2dbe
00000190: f48e c0bc 9ca7 1ebc 9261 28bd 1c7e 113d
000001a0: ef57 dfbd d449 f03c 165d 15be 8e7a 8dbc
000001b0: a314 cfbc cf0b 3dbe 7c0a 31be f188 30be
000001c0: 9acd 49be 8047 0ebe 1d47 b6bd 11a9 9b3c
000001d0: 105e 183d 435d c2bb 8f99 39bd 368e 95bd
000001e0: 70e2 85bc 4720 13be 1e7c 10bc cd6c 1ebe
000001f0: 6dcb 4dbd 2f76 fdbd 9c91 a5bd e432 29bd
-0.01392104 -0.022578524 -0.11327137 -0.14812048 -0.16588782 -0.116333604 -0.15483044 -0.069981545
-0.0080362065 -0.086198375 -0.007284187 -0.040754933 0.021866513 -0.044346467 -0.01161401 -0.05702336
-0.1794958 -0.13156545 -0.16686817 -0.01572961 -0.04215633 -0.19754183 -0.055146288 -0.17657034
-0.05975376 -0.043847006 -0.004099062 -0.058024418 -0.17435215 -0.122965865 -0.10699162 -0.11036297
-0.0373778 -0.037586205 -0.17031403 -0.076502435 -0.14718546 -0.16659503 -0.19657144 -0.16478194
-0.21057035 -0.14124712 -0.12711506 -0.052760843 -0.061775353 -0.038343158 -0.12042101 -0.20097163
-0.11873787 0.009304657 -0.14455336 -0.17339133 -0.07215992 -0.15102547 -0.049856342 -0.027615555
0.014293337 -0.09292792 -0.075789884 -0.17402022 -0.0103763705 -0.0056455326 -0.11954831 -0.10455883
-0.19608034 0.018679285 -0.018085951 -0.14347586 -0.09556191 -0.027115403 -0.0044551254 -0.05189648
-0.16158569 -0.18563636 -0.13504502 -0.08250101 -0.1262683 -0.020412933 -0.08096347 -0.025660018
-0.19833003 -0.12602219 0.010054282 -0.012063654 -0.16468987 -0.025546089 -0.048992705 -0.14338528
-0.1873899 -0.10697146 -0.0046376227 -0.013305287 -0.1666852 0.010849408 -0.1794415 -0.05057605
-0.08210784 -0.02430629 -0.1177921 -0.1699074 -0.023505665 -0.009683516 -0.041108675 0.035520658
-0.10905444 0.029332079 -0.1458629 -0.017270353 -0.025278395 -0.18461536 -0.17289156 -0.17239739
-0.19707337 -0.13894463 -0.089002825 0.019001516 0.03719908 -0.005931528 -0.04531246 -0.07302515
-0.016343325 -0.14367782 -0.008818654 -0.15471192 -0.05024283 -0.12376057 -0.080844134 -0.0413083

action_model._continuous_distribution.log_sigma f4 [1, 2]
00000000: 4033 acbe dc5b 19be
-0.3363285 -0.14976448

action_model._continuous_distribution.mu.weight f4 [2, 128]
00000000: 13f8 073d 5527 9a3d b8d7 87bc a150 923b
00000010: 6b34 7abb be05 9fbc ed94 c03b adce edbc
00000020: 8e51 97ba 4892 d73c 8eae 08bc f52a 2abd
00000030: ef3b 1cbd 21bf 24bc 71d2 c33d a8cb a2bc
00000040: a76c 5abc 9990 083d bdb2 7c3c 3917 9dbb
00000050: 12ad 843d 59ce e7bb 124c 433d eeb9 01bc
00000060: e6e3 4d3d 93d0 c239 818c 6abd f796 493d
00000070: a0bb dabb dfa9 9abc 076c a5bc 12c6 acba
00000080: 9ab1 34bc 0291 9eba d040 a13b 346a 073d
00000090: 5b7e 8abb 82f1 65bc ea17 8dbb 7285 e9ba
000000a0: f491 d63b b99b 41bc 125c 593c c58f 863d
000000b0: 352d 5abb 64f5 99bd 1a89 7cbc 10af 003c
000000c0: f532 6fbc 4e6e f13b b3da c8bb 42db debb
000000d0: d6cc eb3c a6d5 32bc 3737 373d 7bfa 0dbc
000000e0: 7349 a23c 94b7 2d3d f1e2 dd3b 091c 3cbc
000000f0: 2f55 e1bb 0217 aa3b 75f0 223c 2ca5 0e3d
00000100: be2e 583b 9f80 923d d408 28bd 0b8f f23c
00000110: 2a84 8e3c 2263 2cbb 98d8 6e3d 431e 503d
00000120: 3193 613c 6cb0 0bbb c362 c53b 32a9 c7bc
00000130: 2527 abbb 24c2 9b3c 570d 523d 8f40 71bd
00000140: 38ef 313c cf31 1fbc 92d6 f3bb 3889 303d
00000150: 4f5b 63bc b36a 80bd 2ab2 24bd c758 86bc
00000160: 5add 973b 9ebc abbc 3a33 c739 c563 623d
00000170: 2b35 203c 88c7 8b3d 8f4a 04bc be92 a13d
00000180: b5fc 283d 852a cfbc db35 dd3c c9ce 403b
00000190: f2e4 2bbb 4a45 1bbc c420 dabc 1b48 71bd
000001a0: 11e3 a23c 4a77 42bd 3c07 aebc fd37 e73c
000001b0: 2f0e 0b3d 3565 053c 9456 71bb 4f29 98bb
000001c0: f895 5cbb cb7e 033c 3768 5a3d d97f 0f3d
000001d0: 1dac cb3c da54 333c 860b 803d e28c cd3c
000001e0: a7a3 a43d 174d 5c3c 4a5a 5e3b c6e7 793c
000001f0: 4c06 fbbb 4903 3c3c e2f7 0d3c bba8 8d3d
00000200: ae33 783d d003 03bc 989d e03c 345a 5bbc
00000210: 2538 763a 997b 723b ca12 4cbc 2780 373c
00000220: ac03 adbb 3536 dfbc 7ce5 20bc cb3d 313c
00000230: 28fc 323d 3e69 813c 00a3 113d 2107 5cbd
00000240: db8e 0cbb 34e0 60bc 6dc4 b5bb 84a7 72bb
00000250: f7a7 31bd aacb 34bc 858f 11bd 6717 89bb
00000260: 220a 0abd f45a 24bb 1f59 c2bd 7b0d f3bc
00000270: ec7e c6ba 0b4b e8bb a249 743a f0e5 95bc
00000280: d44b ec3c 876d 45bb 83bf ddbb 064a edbc
00000290: aa68 3f3a 3f05 73b8 0bc1 cc39 7385 0cbb
000002a0: bb5a 49bc 9c74 813b f1a9 aabc 4e2b 2fbd
000002b0: 5c93 a7bc 1d39 30bd b9c4 9c3b ca3c 47bc
000002c0: 4d7b d8bb 0f63 d63b 91ed 02bc c719 0db8
000002d0: afeb 21bd 4b27 b53b 3423 04bd d594 03bc
000002e0: 5def 4b3d 8ddf b5bc cd60 01bd d5f2 d33b
000002f0: 0e74 1bbc 291c 21bc 3098 023d fc18 a0bc
00000300: e5c0 88bc 4010 493d 3f21 62bd ea2e cbbc
00000310: 4ce5 9bbc 57b4 6b3d aeff 463d f16f 19bd
00000320: fbb8 e2bb 523b 0cbc eed2 b2bb 1c89 f43b
00000330: 4d20 b83b 86ee 843c bcd3 d5bc 291a 97bd
00000340: b435 03bc 43de 2f3c f91b bdbd 77fa 6abd
00000350: 19f7 a73c 6f3a 46bd 2b7c 71bd 3d1f 6e3c
00000360: c49b 0abc a1d7 7ebc f81f 843b d22c 6bbd
00000370: 5ee0 debb 5a40 35bd bbbc a43c 9dbd e6bc
00000380: fba4 f5bc e0b9 6dbd 5a83 6abc b7fe 08bc
00000390: afc5 c7ba 4552 433c 61f0 48bd 7703 c83d
000003a0: 933f fbbc 3049 6e3d bcf5 0f3c 18c5 613d
000003b0: ffa1 253d f041 debb 8fd9 39bc e662 88bb
000003c0: a653 353c 563e 22bc 534d e8bc 61d8 933d
000003d0: 2476 203d 0c03 d33c b56a 48bd d628 80bc
000003e0: 1030 3fbd a573 3dbc 0a4c 38bd 9d01 f2bb
000003f0: 9113 893b 144a dcbc 1a01 cfbc ce2c 0bbd
0.033195566 0.07527033 -0.016582355 0.004465178 -0.0038178216 -0.019411918 0.0058771283 -0.029029215
-0.0011544691 0.02631487 -0.008342398 -0.041544873 -0.038143095 -0.010055334 0.09561623 -0.019872501
-0.013331569 0.033341024 0.015423474 -0.004794028 0.06478323 -0.007074159 0.04767997 -0.007917864
0.05026617 0.00037157963 -0.0572629 0.049216237 -0.0066751987 -0.018879829 -0.020193113 -0.0013181588
-0.011028672 -0.0012097659 0.0049210563 0.033060268 -0.0042264885 -0.014034631 -0.0043058293 -0.0017816259
0.0065481607 -0.011816912 0.01326658 0.065703906 -0.0033291106 -0.07517508 -0.015413547 0.007854238
-0.014599551 0.0073678857 -0.0061295866 -0.00680104 0.028784197 -0.010915196 0.04473039 -0.008665676
0.019810414 0.042411402 0.0067714383 -0.0114812935 -0.0068766098 0.005190731 0.009945025 0.03482549
0.0032986845 0.07153439 -0.041024044 0.029609224 0.017397005 -0.0026304205 0.05831203 0.05081011
0.013768003 -0.0021314872 0.006023736 -0.02437267 -0.0052231723 0.019013472 0.051282253 -0.05889946
0.010860257 -0.009716465 -0.0074413503 0.043099612 -0.01387675 -0.06270351 -0.040208973 -0.016399754
0.0046345415 -0.020963963 0.00037994405 0.05527093 0.009778301 0.06825167 -0.008074417 0.07889317
0.041256625 -0.02528883 0.02700322 0.0029420129 -0.0026228991 -0.009476969 -0.026626952 -0.058906656
0.019883664 -0.047477044 -0.021243684 0.02822494 0.033949073 0.008141805 -0.0036825286 -0.0046435962
-0.0033658724 0.008025835 0.053322043 0.035034034 0.024862343 0.010945523 0.06252198 0.025091592
0.08039027 0.013446114 0.0033928328 0.015253013 -0.0076606628 0.011475393 0.008665057 0.069169484
0.06059616 -0.007996514 0.027418897 -0.013388205 0.00093925215 0.003699994 -0.012455652 0.0111999875
-0.0052799787 -0.027247528 -0.009820338 0.010817955 0.043697506 0.015797254 0.03555584 -0.053717736
-0.0021447453 -0.013725329 -0.0055470974 -0.0037026117 -0.043373074 -0.011034885 -0.03553726 -0.004183698
-0.03370107 -0.0025078626 -0.09489655 -0.029669514 -0.0015144027 -0.007089024 0.00093188335 -0.01829812
0.028844751 -0.0030125098 -0.0067672147 -0.028965961 0.0007301668 -5.79406e-05 0.0003905374 -0.0021441847
-0.012289698 0.0039506685 -0.020832988 -0.042765908 -0.020456009 -0.043023217 0.0047841934 -0.012160489
-0.0066064955 0.0065425704 -0.007991211 -3.3641027e-05 -0.039531406 0.0055283657 -0.032260135 -0.00803109
0.04978882 -0.022201324 -0.031586457 0.006468157 -0.009488119 -0.009833374 0.03188342 -0.019543163
-0.016693542 0.049087763 -0.055207487 -0.024802644 -0.019030236 0.057545032 0.04858368 -0.03746027
-0.006919024 -0.008559065 -0.0054572737 0.007462634 0.005619085 0.016227018 -0.02610194 -0.073780365
-0.008008409 0.010734144 -0.09233851 -0.05736777 0.020503568 -0.04839557 -0.058956306 0.014533815
-0.008459989 -0.01555434 0.0040321313 -0.05741579 -0.006801649 -0.044250824 0.020109525 -0.028166587
-0.029985895 -0.058038592 -0.014313543 -0.00836151 -0.001524141 0.01192147 -0.04905737 0.09766286
-0.030669963 0.058175266 0.008786615 0.055119604 0.040437695 -0.0067827627 -0.011343374 -0.0041621802
0.011067307 -0.009902557 -0.028357184 0.072190054 0.039175168 0.025758289 -0.04892989 -0.015644472
-0.046676695 -0.011563216 -0.04499439 -0.007385446 0.0041832407 -0.026890792 -0.02526908 -0.033978276

action_model._continuous_distribution.mu.bias f4 [2]
00000000: 1929 7ebb 4349 433c
-0.003878182 0.011919322

exp_avg f4 [128, 6]
00000000: f0e9 b4ba 28e1 acba 5caf 6b3a 0c46 96ba
00000010: 20e1 acba 809e 5c38 7cca 873b 3cd9 993b
00000020: b6e3 983b 71d7 813b 3cd9 993b d14c 583b
00000030: b6d5 62b9 f912 dcb8 b0c6 7cb8 8933 29b9
00000040: 0213 dcb8 c6a2 9b38 9caf acba 1d09 f2ba
00000050: 0a77 02bb ff77 84ba 1c09 f2ba 525f 98ba
00000060: ee37 bb38 5d0c ad38 5338 b738 9637 b138
00000070: 5f0c ad38 59fb c437 3c3c 9339 7b29 8939
00000080: 8870 e238 9c2d 6039 7b29 8939 e6d4 b638
00000090: a8b3 9eb9 08e4 61ba 92fe 0cbb bc04 c2b9
000000a0: f4e3 61ba 5ab4 74ba 337a c93b 9302 e63b
000000b0: 61cb 013c 4fc9 c93b 9002 e63b d148 a23b
000000c0: e172 deb8 1c1c 0cb9 a663 e2b8 864a b2b8
000000d0: 1c1c 0cb9 3c41 89b8 28ab e137 bb9c 1138
000000e0: 8c10 e737 006f bd37 b99c 1138 14d1 5c37
000000f0: 06b6 ca3b c85b ec3b 66aa d23b 8ccd d43b
00000100: c85b ec3b b55d ba3b 6140 1a39 9e76 3939
00000110: e6a5 4b39 60f4 0a39 9f76 3939 ca49 0139
00000120: 6212 5d39 5264 5a39 127e 7239 bc62 5239
00000130: 5a64 5a39 720f 8f38 60ed f8b9 4049 0cb9
00000140: a51b 2c3b dcd3 1aba 4049 0cb9 58f8 8a39
00000150: 7c77 7a39 05ff 8139 e056 2b39 95b7 6e39
00000160: 06ff 8139 f767 f338 069c df3a 805d 093b
00000170: f01b b039 ec18 da3a 7e5d 093b da6f b93a
00000180: 64a2 72b9 20c2 cd38 5c5d 01ba 805e 4f37
00000190: 30c2 cd38 e84e 5c3a b8af dcb6 92e8 f4b6
000001a0: 6200 01b7 ecc6 d5b6 98e8 f4b6 f094 59b6
000001b0: 7625 c6b8 3858 1238 aae7 1739 0010 20b4
000001c0: 4458 1238 6f62 c939 ffbf 3337 0b13 3e37
000001d0: e8bd 0b37 5c9e 1d37 0813 3e37 c283 b136
000001e0: 5b08 003c 25ac 133c 59a5 dd3b 728b 0a3c
000001f0: 25ac 133c 75b0 da3b 7e57 d53a d2c4 de3a
00000200: a13a 983a 6f0a e63a cdc4 de3a ec71 ae3a
00000210: 30a1 9ab8 2011 c2b8 0e7d 8eb8 487b 8bb8
00000220: 1f11 c2b8 2bde 69b8 960a 97ba d4ca 7bba
00000230: 82e7 88b9 0f47 8eba d6ca 7bba 52fd bfb9
00000240: 200b 05bb f6fa 56bb 6e1d 5abb 34b4 dbba
00000250: f7fa 56bb ffc8 09bb a834 74ba a7ba 9dba
00000260: 23e0 3eba 4489 4dba a6ba 9dba 2021 29ba
00000270: ec37 a6bb 6884 bcbb f7e9 a2bb f0b1 a8bb
00000280: 6484 bcbb 78f2 8dbb 7814 f4ba 374b 27bb
00000290: 0dd6 1bbb 0d06 0bbb 374b 27bb 986a 1cbb
000002a0: 96ea 85bb 7684 93bb 46b4 4abb 3caf 8cbb
000002b0: 7784 93bb 1d2d 3ebb 82e6 0b3b c6ec 123b
000002c0: a018 cc39 2ef5 f03a c4ec 123b 363f a13a
000002d0: 2ce2 de37 be32 ae37 3269 3d38 aabe bf37
000002e0: c432 ae37 c4ca cf37 50ae bf38 0e92 073a
000002f0: e0dc 96b7 808f 0db7 0492 073a 723b 033a
00000300: af7c d339 6f74 ef39 12d6 cf39 4490 af39
00000310: 7074 ef39 00bb 8b39 e93e 4b39 5920 6a39
00000320: 64da 4239 4c5c 4539 5920 6a39 50ef 3339
00000330: 06ab ddb8 30f6 18b9 2b87 ecb8 5c02 13b9
00000340: 2df6 18b9 eae6 30b9 a4bb 013b ac85 d63a
00000350: f451 c239 bad7 cf3a a885 d63a dc54 d839
00000360: 9a0f 0cb9 357a 2eb9 5c5a 12b9 4949 0cb9
00000370: 367a 2eb9 d476 eab8 ea3d d2b9 cc6c ecb9
00000380: c0db 87b8 7002 b7b9 c86c ecb9 7074 69b8
00000390: ff29 483b cd73 4f3b 4691 1d3b 48e3 433b
000003a0: cd73 4f3b 9eff e93a 24aa 2739 59e0 4b39
000003b0: 6b6f 1039 ad1d 2739 5ce0 4b39 7491 0939
000003c0: dd55 8bba fb46 87ba 22a4 12ba 623c 72ba
000003d0: f146 87ba 4e45 24ba 9acf 3938 7376 8938
000003e0: 1cd6 7438 aedb 2f38 7176 8938 841f 3b38
000003f0: 3f6c 013b 4167 eb3a 09ed 0d3b 411e c73a
-0.0013802629 -0.001318966 0.0008990669 -0.0011464967 -0.0013189651 5.2599702e-05 0.004144011 0.004695086
0.004665817 0.00396245 0.004695086 0.003300477 -0.00021632653 -0.000104939514 -6.0266524e-05 -0.00016136294
-0.00010493958 7.421295e-05 -0.0013174894 -0.0018465851 -0.0019907379 -0.0010106562 -0.001846585 -0.0011625087
8.9272726e-05 8.251586e-05 8.736611e-05 8.4503714e-05 8.251587e-05 2.3482064e-05 0.00028082903 0.00026161582
0.0001079748 0.00021379296 0.00026161582 8.718092e-05 -0.00030269963 -0.0008617048 -0.002151404 -0.0003700609
-0.00086170365 -0.0009334736 0.0061486005 0.00701935 0.0079220245 0.006158031 0.0070193484 0.004952528
-0.00010607183 -0.00013361912 -0.00010795081 -8.5015825e-05 -0.00013361912 -6.54482e-05 2.6901791e-05 3.471666e-05
2.7545051e-05 2.2582244e-05 3.4716653e-05 1.3161702e-05 0.0061862497 0.0072130896 0.0064290045 0.0064942297
0.0072130896 0.0056874403 0.00014710567 0.00017687163 0.0001942139 0.00013251742 0.00017687165 0.00012329887
0.0002108305 0.00020827472 0.00023125883 0.00020063942 0.00020827484 6.821648e-05 -0.00047479104 -0.00013378728
0.0026261595 -0.00059062033 -0.00013378728 0.00026506442 0.0002388637 0.00024794802 0.00016340194 0.00022765838
0.00024794805 0.00011606508 0.0017060048 0.0020960271 0.0003359015 0.0016639507 0.0020960267 0.0014147714
-0.00023139414 9.81132e-05 -0.0004934871 1.2360164e-05 9.811332e-05 0.0008404092 -6.5769673e-06 -7.2988414e-06
-7.689088e-06 -6.371052e-06 -7.298844e-06 -3.2422213e-06 -9.4483534e-05 3.4891273e-05 0.00014486784 -1.4906982e-07
3.4891316e-05 0.00038411046 1.0713934e-05 1.1329316e-05 8.329262e-06 9.3948e-06 1.1329314e-05 5.2903497e-06
0.007814492 0.00901321 0.0067640957 0.008456098 0.00901321 0.0066738673 0.0016276685 0.0016995913
0.0011614152 0.0017550717 0.0016995907 0.0013309098 -7.373316e-05 -9.253831e-05 -6.794381e-05 -6.6509994e-05
-9.25383e-05 -5.575844e-05 -0.0011523541 -0.0009605114 -0.00026112428 -0.0010854917 -0.0009605115 -0.00036619097
-0.002030082 -0.0032803393 -0.0033281702 -0.0016762079 -0.0032803395 -0.0021024344 -0.0009315708 -0.0012033776
-0.0007281324 -0.00078405836 -0.0012033775 -0.00064517744 -0.0050725844 -0.0057530887 -0.0049717384 -0.005148165
-0.005753087 -0.004331883 -0.0018621823 -0.002552701 -0.0023778707 -0.0021213323 -0.002552701 -0.0023867246
-0.0040868027 -0.0045018746 -0.0030930205 -0.0042933505 -0.004501875 -0.0029018589 0.002134711 0.002241896
0.0003892826 0.0018383616 0.0022418955 0.0012302164 2.6569782e-05 2.0766045e-05 4.5159082e-05 2.285776e-05
2.0766056e-05 2.4770743e-05 9.140058e-05 0.0005171605 -1.7984246e-05 -8.437666e-06 0.00051715993 0.00050061115
0.00040337953 0.00045672382 0.00039641612 0.00033486087 0.00045672385 0.00026651472 0.00019383024 0.0002232803
0.00018582639 0.00018821767 0.0002232803 0.00017159921 -0.00010569957 -0.00014587562 -0.00011278534 -0.00014019891
-0.00014587557 -0.0001687069 0.001979568 0.0016366742 0.00037063623 0.0015857138 0.0016366737 0.00041261956
-0.00013357252 -0.00016639459 -0.00013957307 -0.00013378741 -0.0001663946 -0.00011180123 -0.0004010045 -0.00045094488
-6.478233e-05 -0.00034906296 -0.00045094476 -5.565997e-05 0.003054261 0.0031654716 0.0024042889 0.002989011
0.0031654716 0.0017852669 0.00015989743 0.00019443165 0.00013774417 0.00015937416 0.00019443169 0.00013119524
-0.0010630448 -0.0010320836 -0.00055939157 -0.0009240565 -0.0010320825 -0.0006266431 4.430078e-05 6.554732e-05
5.837354e-05 4.1927844e-05 6.5547305e-05 4.4613626e-05 0.0019748358 0.0017959849 0.0021656177 0.0015191511

exp_avg_sq f4 [128, 6]
00000000: 6a7e bf3a 84fa d93a fe25 913a 8de2 b33a
00000010: 76fa d93a ea2d a83a eec4 b139 0690 093a
00000020: ec7d df39 bbe0 c739 3c90 093a 604e 9a39
00000030: c384 c436 20b5 0a37 fb09 a636 6686 e936
00000040: 8db3 0a37 8a29 aa36 78e0 0639 83ee 5539
00000050: 6490 8f39 5a6b ff38 49ee 5539 25fb 5639
00000060: 68f8 8535 14d3 9b35 59bd 8235 5e39 0736
00000070: b2d2 9b35 9538 5835 2571 3f37 ab1a f337
00000080: cd6d 3538 dc54 0f38 b81b f337 e80b 3e37
00000090: 7c51 213a 526a 6c3a b57d 4d3a c26d 2c3a
000000a0: e569 6c3a 349d 3a3a bc9e 043b 493b 493b
000000b0: 0e9b 2f3b ec2a 073b 3d3b 493b 65af 233b
000000c0: 95d3 8f34 c306 ee35 0439 5f36 bdf7 9134
000000d0: 5805 ee35 8980 ca34 71d7 af36 7c2e 4e36
000000e0: d592 e434 c98b 9435 6f2e 4e36 0c99 0137
000000f0: 7e08 823a 39a8 c83a 9bbb a43a 280e 893a
00000100: 0ea8 c83a 2544 953a a035 3f36 2536 6e36
00000110: 3935 7936 8a78 6035 ec35 6e36 cfed 4436
00000120: 68c5 9936 65c0 ca36 923c bb36 0a1f 8836
00000130: 49c0 ca36 b4d0 8436 f02d 433b 2ce9 6e3b
00000140: 3925 3f3b 7b87 403b f3e8 6e3b 7b38 383b
00000150: cb92 de35 c903 0b36 3cca 1436 9063 b335
00000160: 5003 0b36 0115 9135 b4e1 343a a73c 883a
00000170: 8aa2 4e3a b0c3 333a 103c 883a 1f69 473a
00000180: 72ee 4a3a 458a 523a 0e93 1d3a 3528 503a
00000190: 448a 523a fb7a 2e3a 0baf 0933 b06c b233
000001a0: 4883 6833 7a98 7b33 9f69 b233 6902 a233
000001b0: edeb 1538 562b 3038 9f75 2138 c50a 0038
000001c0: 412b 3038 ecf1 1238 415e 9d35 53cf 8b35
000001d0: f6e6 0c34 618d 2e35 59cf 8b35 1d2c 7236
000001e0: b1ee 1d3b 2bfe 553b 181f 2e3b 9e38 213b
000001f0: 2bfe 553b 2dcc 133b ea46 7139 048f b339
00000200: 296b 9339 71ef 7439 c08d b339 b15b 8139
00000210: 1788 0d34 88c2 1636 c55d a435 dcae 0e34
00000220: 50c2 1636 431e 7036 e5d2 4638 f92f 5938
00000230: 7fda c937 8b12 8338 d92f 5938 0551 2338
00000240: 4e71 7539 be72 e839 4cfb 033a ae6d 7d39
00000250: 3173 e839 4784 a739 3659 7a38 7858 c238
00000260: 865c b038 1d3a 8438 4458 c238 6685 9b38
00000270: 9ba6 793a 3f44 aa3a cb58 7c3a f940 863a
00000280: c443 aa3a bb48 5b3a 284a ab39 126d f539
00000290: 96de a939 412b bb39 dd6c f539 3fbb b939
000002a0: 06ba 143a c70d 463a e809 003a 5509 0a3a
000002b0: a60c 463a b3f0 023a c410 603a 7b44 a53a
000002c0: 6c01 853a d2b9 693a f843 a53a 174c 8f3a
000002d0: f614 8f37 bc29 f436 ff60 a235 4243 e735
000002e0: db29 f436 4c38 8937 ffca 9939 1c7f b239
000002f0: e8a6 6739 fdd0 9b39 287f b239 3142 3d39
00000300: 58d6 b837 0b58 cd37 b363 5a37 393f 4538
00000310: b757 cd37 3fae 6637 1892 2836 71d5 8536
00000320: ee46 a136 e1f5 3136 f0d4 8536 209b 0036
00000330: 7010 9535 797f 0f36 c3e5 8735 6ecf ac35
00000340: 8b7e 0f36 4ca1 2336 5be5 063a d367 483a
00000350: d404 2a3a 4a2f 0a3a f466 483a 37bd 173a
00000360: f9d2 9534 6cd6 5335 ddb4 8635 c736 a434
00000370: 4cd6 5335 9428 e234 917b bb37 1fc5 4038
00000380: 2270 ff37 d53b 8b37 01c5 4038 40a8 be37
00000390: 4f82 ec38 1e70 0339 cb60 a238 bd09 c038
000003a0: 8a6e 0339 47aa 8938 6a4f c036 9fa5 ac37
000003b0: 667f 4a38 8420 1436 bba5 ac37 6d08 a736
000003c0: 6c98 9039 cbc8 8539 92fa 3339 f111 9b39
000003d0: c0c8 8539 3380 4739 07ee 2136 379b ca36
000003e0: 2f09 b736 b073 2936 5f9b ca36 0fc7 2937
000003f0: 5748 b139 8a54 c939 79cc 8e39 cc7c ad39
0.0014609818 0.0016630446 0.0011073945 0.0013724134 0.0016630429 0.0012831066 0.00033906795 0.00052475964
0.00042627694 0.00038123675 0.0005247628 0.00029431563 5.8567107e-06 8.267612e-06 4.9483474e-06 6.959587e-06
8.267246e-06 5.0712306e-06 0.00012862857 0.00020402115 0.00027382665 0.00012179343 0.00020402031 0.00020502189
9.981568e-07 1.1609832e-06 9.740862e-07 2.014996e-06 1.160972e-06 8.054861e-07 1.1410831e-05 2.8980276e-05
4.3256023e-05 3.417289e-05 2.8980765e-05 1.1327655e-05 0.0006153805 0.00090185285 0.0007838861 0.00065776345
0.0009018465 0.0007118762 0.0020236215 0.0030705503 0.00267953 0.0020624949 0.0030705475 0.002497637
2.6789772e-07 1.773435e-06 3.3262777e-06 2.7188608e-07 1.7733937e-06 3.7718954e-07 5.240487e-06 3.072345e-06
4.2575144e-07 1.1067542e-06 3.072342e-06 7.724633e-06 0.0009920744 0.0015308923 0.0012568118 0.0010456489
0.0015308873 0.0011388107 2.8492432e-06 3.549628e-06 3.713487e-06 8.362191e-07 3.549615e-06 2.9344699e-06
4.5827364e-06 6.042467e-06 5.5800856e-06 4.0567293e-06 6.042454e-06 3.958203e-06 0.002978202 0.00364549
0.0029166474 0.0029377628 0.0036454767 0.0028109837 1.6583011e-06 2.0714817e-06 2.2171434e-06 1.3365516e-06
2.0714542e-06 1.0809455e-06 0.00069000875 0.0010394052 0.00078824966 0.0006857468 0.0010393877 0.0007606912
0.00077412196 0.0008031468 0.00060109876 0.00079405616 0.00080314674 0.0006655899 3.2057e-08 8.308541e-08
5.413611e-08 5.8579168e-08 8.307983e-08 7.544151e-08 3.574409e-05 4.200203e-05 3.8494934e-05 3.0527608e-05
4.2001953e-05 3.503442e-05 1.1724843e-06 1.0416646e-06 1.3122539e-07 6.5025785e-07 1.0416653e-06 3.6086487e-06
0.002409857 0.0032652717 0.0026568826 0.0024600397 0.0032652717 0.0022552118 0.00023009969 0.00034248095
0.00028117865 0.00023358852 0.00034247153 0.00024673113 1.3181157e-07 2.2464974e-06 1.2246243e-06 1.3288394e-07
2.2464847e-06 3.5780402e-06 4.740329e-05 5.178151e-05 2.4062812e-05 6.250021e-05 5.1781393e-05 3.8937684e-05
0.0002340723 0.00044335978 0.00050346996 0.00024168819 0.00044336313 0.00031951276 5.968773e-05 9.2671195e-05
8.409568e-05 6.305075e-05 9.2670816e-05 7.415823e-05 0.00095234223 0.001299031 0.00096262683 0.0010242752
0.0012990166 0.00083650247 0.00032670912 0.00046811305 0.0003240003 0.00035699646 0.0004681115 0.0003542546
0.00056734716 0.00075551536 0.00048842886 0.0005265673 0.00075549853 0.00049949734 0.000854742 0.001260891
0.0010147518 0.0008915934 0.0012608757 0.0010932711 1.705669e-05 7.276625e-06 1.209817e-06 1.7230416e-06
7.2766393e-06 1.6357888e-05 0.00029333678 0.0003404551 0.00022092054 0.00029719612 0.00034045544 0.00018049103
2.203432e-05 2.4478903e-05 1.3017026e-05 4.702734e-05 2.447875e-05 1.3749638e-05 2.5118989e-06 3.9885567e-06
4.806431e-06 2.6518176e-06 3.988498e-06 1.916378e-06 1.1106149e-06 2.138286e-06 1.0125153e-06 1.2875369e-06
2.1382318e-06 2.438278e-06 0.0005145871 0.00076448655 0.0006485705 0.0005271329 0.0007644736 0.0005788388
2.7906916e-07 7.891565e-07 1.0036416e-06 3.0587236e-07 7.891547e-07 4.2125305e-07 2.2349677e-05 4.595995e-05
3.0450585e-05 1.6597953e-05 4.595984e-05 2.2728113e-05 0.00011277629 0.000125349 7.742791e-05 9.157087e-05
0.00012534313 6.564386e-05 5.731291e-06 2.0581121e-05 4.8279202e-05 2.2072645e-06 2.0581172e-05 4.9779687e-06
0.00027579383 0.0002551734 0.00017164115 0.0002957727 0.00025517307 0.00019025877 2.412942e-06 6.0381385e-06
5.454894e-06 2.5250301e-06 6.0381567e-06 1.0119532e-05 0.00033813968 0.00038400694 0.00027236695 0.00033090112

exp_avg f4 [128]
00000000: 1c06 aeb9 ecdd 9a3a d087 ddb7 3da3 f3b9
00000010: 9231 ae37 ed11 8a38 ac62 63b9 4a88 e73a
00000020: 8409 0db8 7693 1237 4aec ed3a e2b0 3a38
00000030: 5ed6 5b38 e037 0db8 4edb 8238 4846 0a3a
00000040: 301e cf37 9987 f6b5 3850 1337 1c55 3f36
00000050: 62a6 143b 4f3e e039 f959 c3b7 7375 7db9
00000060: 3e67 58ba e8c5 9eb9 d8c3 bdba b366 28ba
00000070: 6f7e 94ba c0e5 133a e259 af36 c677 0839
00000080: 290a f138 13ad 6b38 5ef9 19b8 22f1 d739
00000090: dba1 2fb8 64fd edb8 51d3 503a d439 4d38
000000a0: 332c 88b9 5f5f 8a37 22f6 ec39 2c53 d7b8
000000b0: c813 26b9 3eea 36b6 7ac5 03ba 4890 64b9
000000c0: 103b 8937 3747 97ba f004 e4b8 a08a c9b4
000000d0: fc1e 3a39 c0e5 34b7 f4a9 a5b9 1414 97b7
000000e0: 104e fdb7 b032 f835 c8bf c4b9 08ed 553a
000000f0: 10cd a0b6 9831 d7b7 28c9 b6ba 3eff 353b
00000100: 264c 963a 2a8d 273a d6ab 0b3b d9ab cc3a
00000110: 91be 19ba d669 8939 667d ba37 e63f cd39
00000120: bcaa 3b36 c493 6aba b842 feb4 ff2d 2abb
00000130: bea0 5d37 ff39 3cba a005 a233 244b 96b9
00000140: bc88 0fb7 012f 32ba 9884 1dba 8a3b db39
00000150: ae20 9039 817d fa39 074e 08bb 1ead d3ba
00000160: cc77 7636 60de efb5 407e e2b9 38e8 7a38
00000170: 3138 bb38 795a 2a36 33dc f1ba 807d 2939
00000180: 50f0 63ba f0bd d93a ae55 0eb8 0e60 86ba
00000190: 60f7 9b38 58c5 f439 3840 7537 7f36 b539
000001a0: b854 b736 6b23 3fba 62b9 b83a afe1 4638
000001b0: 5abb 153a f033 673a 477f 6a3a c20c a839
000001c0: b601 e039 ce9f 47b6 d7d7 1aba 7a3a acb9
000001d0: 75da 6cb7 762e 2b37 396d 603a 965b c2b9
000001e0: 74bd deba a5a7 f039 a0d4 d1b8 6505 d2b9
000001f0: 2750 0c39 de14 1438 700f aeb8 ec90 4837
-0.00033192418 0.0011815405 -2.6408496e-05 -0.00046470194 2.07655e-05 6.583692e-05 -0.00021685165 0.0017664519
-3.362588e-05 8.736612e-06 0.0018152085 4.451059e-05 5.2413314e-05 -3.3669057e-05 6.239732e-05 0.0005274755
2.469038e-05 -1.8367892e-06 8.78056e-06 2.8510758e-06 0.002268218 0.00042771033 -2.3287708e-05 -0.00024171713
-0.00082551304 -0.0003028356 -0.0014477922 -0.0006423995 -0.0011329184 0.00056418404 5.22587e-06 0.0001301459
0.00011493668 5.6189554e-05 -3.6710284e-05 0.00041187654 -4.187399e-05 -0.00011348238 0.0007966059 4.8929665e-05
-0.00025972872 1.6495293e-05 0.0004519681 -0.00010267491 -0.00015838363 -2.725646e-06 -0.000502668 -0.00021797523
1.6359176e-05 -0.001154161 -0.00010872807 -3.754003e-07 0.00017749885 -1.0782329e-05 -0.00031597877 -1.8009952e-05
-3.0196301e-05 1.8492192e-06 -0.0003752692 0.00081606256 -4.792244e-06 -2.5653091e-05 -0.0013945447 0.0027770544
0.0011466786 0.00063915795 0.002131214 0.001561518 -0.00058648834 0.0002620953 2.2231321e-05 0.00039148255
2.7964552e-06 -0.00089484104 -4.735973e-07 -0.0025967357 1.3210052e-05 -0.0007180273 7.544736e-08 -0.00028666214
-8.5553e-06 -0.0006797165 -0.0006008833 0.00041815295 0.0002749017 0.00047777224 -0.002079846 -0.0016149615
3.6726587e-06 -1.7871607e-06 -0.00043200143 5.9820915e-05 8.927321e-05 2.5384636e-06 -0.0018452465 0.00016163848
-0.0008695172 0.0016612392 -3.3935234e-05 -0.0010252015 7.437053e-05 0.0004668634 1.461809e-05 0.00034563613
5.4636876e-06 -0.00072913495 0.0014093334 4.7417063e-05 0.00057118165 0.000881969 0.00089453574 0.00032052962
0.00042725884 -2.974633e-06 -0.00059067964 -0.00032849965 -1.411756e-05 1.0203212e-05 0.00085611973 -0.000370708
-0.0016993717 0.00045901272 -0.00010005501 -0.0004005834 0.000133813 3.5305384e-05 -8.299842e-05 1.1954671e-05

exp_avg_sq f4 [128]
00000000: bad9 dc38 dd55 0b38 a466 0c35 97ad 5837
00000010: e6b7 9d33 cf85 f435 bd86 6f38 c3e5 4b39
00000020: 1755 ef33 f7ab 4f34 e74a cb38 02ee 7034
00000030: b82e cd34 9113 7239 4372 0c34 0409 8a38
00000040: af53 5538 f19f b431 bc6e 3236 ec5b 8c33
00000050: 97c7 5839 86e7 b537 a38b 1834 1d0a 5c36
00000060: 0469 eb37 3abb c436 c97e ac38 68a5 f837
00000070: b69d 4838 6370 a738 4b5b f634 7cd9 b437
00000080: a393 cf35 0871 8734 a535 1134 da03 4b38
00000090: c18d 5633 0b26 4336 cf11 0537 321d ae35
000000a0: 508c 8737 1b31 cb34 d7fc cb37 ebec 8835
000000b0: 04a6 d537 8a5e 5630 5358 0a38 3d34 8b35
000000c0: fb50 f137 7852 0638 9443 ad35 f0f3 1d31
000000d0: faaa 0a38 bf89 bc37 6fc1 a437 33c8 3a35
000000e0: 67a2 9337 9ee3 6134 02a2 b138 df8d 4637
000000f0: b10c af33 0030 ab36 729f 8838 846a 4f39
00000100: dc54 8d37 ebb2 2238 5c3a f038 b4d7 d438
00000110: eee1 6437 e2bb 1c38 8185 6c33 0a76 0b38
00000120: 68bf 8032 0451 1f39 bb2e 4430 2d73 2a39
00000130: 48ed 1532 7330 6737 3ec4 0e32 331a 9036
00000140: c61e 6534 241a 0937 abfa 8e39 caf9 2738
00000150: 7134 4a37 ff41 0137 14dd f838 0a2f 9739
00000160: a520 3634 869f 8333 b14e 9a38 c7cf 0c37
00000170: 880e d334 c5fe 1b34 ac80 cb38 fc62 ad37
00000180: 03d7 1c39 f5de f338 2f99 b136 57e0 5038
00000190: 00cd b138 df6d 0237 d1b8 cd34 8e64 2b38
000001a0: 5cb2 ed32 f068 1c38 f1e2 c138 9b5a a735
000001b0: 3b17 c137 1eba 1438 70ae 6d37 5e5a 0937
000001c0: b868 9238 9ec6 e234 6015 6637 d70c 0d38
000001d0: 9844 8e33 e4ba e134 ff73 8b38 fa3b 2338
000001e0: 86b8 8838 4c28 7e37 a006 3a38 bc6d c136
000001f0: 5fb4 7836 f90d af34 79bd 0237 bf1b 4d34
0.00010530972 3.322015e-05 5.2303426e-07 1.291502e-05 7.344333e-08 1.821836e-06 5.7107525e-05 0.00019445182
1.11447825e-07 1.9340938e-07 9.693746e-05 2.2438329e-07 3.8218218e-07 0.00023086208 1.3080084e-07 6.582032e-05
5.0861094e-05 5.2568727e-09 2.6588523e-06 6.5359785e-08 0.00020673718 2.1684693e-05 1.4206903e-07 3.2788441e-06
2.8063085e-05 5.8630512e-06 8.225215e-05 2.9640927e-05 4.7830596e-05 7.984114e-05 4.5887495e-07 2.1558946e-05
1.546567e-06 2.522795e-07 1.3523693e-07 4.840256e-05 4.9954682e-08 2.9079408e-06 7.931564e-06 1.2972507e-06
1.6158592e-05 3.7847425e-07 2.4317224e-05 1.0201742e-06 2.5468886e-05 7.7987095e-10 3.2984022e-05 1.037151e-06
2.8767148e-05 3.2024895e-05 1.2909172e-06 2.298517e-09 3.3061e-05 2.247549e-05 1.9640398e-05 6.958173e-07
1.759939e-05 2.1037565e-07 8.470194e-05 1.1834752e-05 8.151381e-08 5.101785e-06 6.514684e-05 0.00019780739
1.6848026e-05 3.879044e-05 0.00011454962 0.000101491256 1.3642462e-05 3.7368278e-05 5.5069453e-08 3.3250115e-05
1.4988203e-08 0.00015193602 7.137079e-10 0.0001625537 8.726893e-09 1.3779953e-05 8.310108e-09 4.2945844e-06
2.1338482e-07 8.171923e-06 0.00027271113 4.0048537e-05 1.2052348e-05 7.704365e-06 0.000118667405 0.0002883601
1.6961947e-07 6.12918e-08 7.35795e-05 8.393027e-06 3.9312386e-07 1.4528185e-07 9.703761e-05 2.06693e-05
0.00014957417 0.00011628672 5.292844e-06 4.9799997e-05 8.478202e-05 7.774185e-06 3.8318697e-07 4.0863226e-05
2.767154e-08 3.729103e-05 9.245228e-05 1.2468839e-06 2.301821e-05 3.5459285e-05 1.4166915e-05 8.186877e-06
6.981328e-05 4.2240293e-07 1.3714045e-05 3.3628978e-05 6.6248674e-08 4.2045497e-07 6.6496425e-05 3.8918086e-05
6.5193555e-05 1.5148962e-05 4.4352026e-05 5.764623e-06 3.705987e-06 3.2606457e-07 7.792719e-06 1.9102207e-07
