MachineLearning/results/testSumo17/MoveTOGoal/MoveTOGoal-500064.onnx (onnx, 75062 bytes, 7 tensors)

network_body._body_endoder.seq_layers.0.weight f4 [128, 6]
00000000: 325f 3f3d 4943 c2bd 9867 d93e c222 743e
00000010: 5efd a03d 664e 843e d6e1 2a3d 5c8a 84ba
00000020: ae80 103f 2395 a93e 6c95 a03c 6fc4 d6bd
00000030: abca 17bf 8acc bcbe c2db 49bf 3b45 353e
00000040: 92d0 a73d 7452 483f ef18 b13d 72fc c03e
00000050: a83c 063e 8896 41bf c150 5cbd 5395 ccbe
00000060: a30f 383b 6407 9e3d 0016 13bf b624 233f
00000070: 3030 86be 82c0 793c 52bc 34be d154 a73e
00000080: 693c 9ebe d386 30be b2d9 8e3e 3a9f 56be
00000090: e552 dabe 1514 983e 8a19 c53e 30c0 42be
000000a0: 07c3 7bbe e396 a6be b728 1e3e 73d7 c63c
000000b0: f509 46bf f70b e83d be78 6a3e ce1f 1abf
000000c0: 102b 923e f4b5 0cbd 67f0 05bf 78c9 82be
000000d0: c2d4 eabe 4613 39be ce04 7dbe dba1 7e3e
000000e0: 0d76 4c3f dc01 d33d f087 bb3e 4954 46bf
000000f0: 207f 44be 87a9 cb3d a7bd 6a3d 34d3 b33e
00000100: 5263 33bb 08b2 bcbe d161 5a3f 70de dc3d
00000110: c882 ecbe 471c c93d 633b 28bf 500b 9d3e
00000120: 1cca ccbd ebf5 fcbe 5379 f6be 3586 75be
00000130: 1b96 b4be 3e95 1d3d 1b5c 08bf 6989 f2be
00000140: a15a c2be 4d57 c1be 4bd4 ae3e d24d 9e3e
00000150: bd37 25bf 8cab 51bc 6b53 8cbc 5061 0cbf
00000160: 498b 22be 149b d6be b65c a9be 1618 1bbf
00000170: 312c afbe 2234 26bf a658 433e b554 ddbd
00000180: 53f3 05be 96b6 93bd b504 2c3e 553b eb3d
00000190: 51d8 9f3d dfcc 363e 0e4c 96bf 981c 3cbf
000001a0: 5b70 99bd ba61 94bf 0096 bc3e 3f6e fb3d
000001b0: be8d f23d de13 1bbe aa56 c43e 26ed 99be
000001c0: bd57 d7be 4276 e5bd f688 1ebf a9f5 09be
000001d0: d134 fb3e fcad 17be e3fe b43d feec 5ebe
000001e0: e148 5f3f 610f b63d 94b1 bcbe 8e67 a23e
000001f0: 76e1 653d 754e 65be 04c1 433d bb7f 07bf
00000200: 7244 5dbf 58d0 993e 0f86 a7be e828 d8be
00000210: 9069 84be 3d20 9a3e e912 87be 1654 023f
00000220: 220f 4dbf fb35 d73e 1f8b d4be c72d 58be
00000230: ee04 053e 0f2b d53e 0872 f73e 1291 79be
00000240: 3de8 203f 30a4 18be b017 e63e e99e 403e
00000250: 3242 e0be 3b84 82bd c5d7 d33e c048 98be
00000260: 346b f3bd c497 42bf d1a6 0d3f 7143 023f
00000270: 11e8 b63e bbe5 e4be a34c 7e3c 96a1 65bf
00000280: 6c14 36bc 25d0 61be f214 abbd 5c48 963e
00000290: 864e 4ebf ff6f ed3e e106 b53d 4e9f cebd
000002a0: fb3f aebe d4a1 1b3f c21b 25bf c3f8 9a3d
000002b0: 7305 7fbe ead8 123f c80a 5b3e 628d eabe
000002c0: 908e 74be 376d 5f3f 807a 8f3e 94e5 2b3f
000002d0: a064 94be d509 18bf ae74 703e d4ca 1bbf
000002e0: b9db 833d 69ab 4d3e b380 0b3e 1565 2abf
000002f0: 6e08 3bbe 60b6 0f3e cfe2 aa3e c207 94be
00000300: f3d5 4e3d c000 923d c56f 0abf b60c 1e3e
00000310: afc8 c6be 0931 26be 2420 14bd f625 33be
00000320: 7500 3d3e 854f 283f 522b 07bf 681a 93be
00000330: ffb3 3dbd cf2f 063e b3a8 143e dd20 a73e
00000340: 9457 2abe c67d 81be e808 e73e 3a17 723e
00000350: 440a debe 9453 8f3e e94b 28bf 42d2 3ebf
00000360: bc7f ee3e 3808 0d3f 46df d6be 8a28 a1be
00000370: 38d1 1a3d 0387 9ebe 6fd8 1dbf 477b df3e
00000380: 7f39 ccbb 5267 f63e ba04 a73e a0ba b1be
00000390: f88f 0b3f f718 48bd 4b28 f2bc c7ff 82be
000003a0: 3008 cfbd 7d98 98be 0c59 debe 74bb fc3e
000003b0: fcbf af3d 63ac 05be af61 9d3d 6f78 d6be
000003c0: 7981 c7be 8239 443f 469d af3d 0b0b 88be
000003d0: 6123 e6be 4bf4 e1be 7745 003e 30ed e43e
000003e0: 991f bebe 4fbe 74be 0bef 863b fde0 a8bd
000003f0: c853 0ebf f8dd d0be ca1f 87bd 6dc9 753e
0.046721645 -0.0948549 0.42461848 0.23841384 0.07860826 0.25841063 0.04171928 -0.0010112035
0.5644635 0.33121595 0.0196025 -0.104866855 -0.5929362 -0.368748 -0.7885095 0.1770219
0.081940785 0.78250813 0.08647334 0.376926 0.13109076 -0.7562032 -0.05378795 -0.39957675
0.0028085492 0.077162534 -0.57455444 0.6372789 -0.2620864 0.015243651 -0.17649963 0.32681897
-0.30905464 -0.17238931 0.27900463 -0.20959178 -0.42641369 0.2970282 0.38496047 -0.19018626
-0.24586116 -0.32536992 0.15445219 0.024272656 -0.77358943 0.11330407 0.22897622 -0.6020478
0.2854848 -0.03435321 -0.5231995 -0.25544333 -0.45865446 -0.18073758 -0.24708864 0.2486643
0.7986763 0.10303089 0.3662715 -0.7747236 -0.1918912 0.09944444 0.057309773 0.35122073
-0.0027372432 -0.36854577 0.85305506 0.10784614 -0.46193528 0.098198466 -0.65715617 0.30672693
-0.09999487 -0.4940637 -0.48139438 -0.23976977 -0.3527077 0.038472407 -0.5326554 -0.4737046
-0.3795977 -0.37761918 0.34146342 0.30918747 -0.64538175 -0.012797248 -0.01712962 -0.5483599
-0.15873446 -0.4191519 -0.33078545 -0.6058363 -0.34213403 -0.649233 0.19076785 -0.10807172
-0.13081102 -0.0721256 0.1679867 0.11485926 0.07804931 0.1785159 -1.174196 -0.7348113
-0.07492133 -1.1592324 0.3683319 0.12276887 0.118434414 -0.15144297 0.3834737 -0.30063742
-0.42059126 -0.112041965 -0.61927736 -0.13472618 0.49063733 -0.14812464 0.08837678 -0.21770093
0.8722058 0.08889652 -0.3685423 0.3171963 0.05612322 -0.2239321 0.047791496 -0.52929276
-0.86432564 0.30041766 -0.32719466 -0.4221871 -0.25861788 0.3010272 -0.26381615 0.50909555
-0.80101216 0.4203337 -0.4151239 -0.21111213 0.12990162 0.41634414 0.48329186 -0.24371746
0.6285437 -0.14906383 0.44939947 0.1881062 -0.43800503 -0.06372877 0.41375557 -0.29743004
-0.11885682 -0.76012826 0.55332667 0.5088416 0.35723928 -0.4470652 0.015521201 -0.89699686
-0.011113267 -0.22052057 -0.083536044 0.2935208 -0.8058857 0.4637451 0.08839203 -0.10088979
-0.34033188 0.60793805 -0.6449548 0.07566979 -0.24904422 0.57362235 0.21390831 -0.45810992
-0.23882508 0.87276024 0.28023148 0.67147183 -0.2898302 -0.5939 0.2348201 -0.60856366
0.06438393 0.20084919 0.13623314 -0.6656049 -0.18264934 0.14034414 0.33376166 -0.2891217
0.050497007 0.07129049 -0.54076797 0.15434536 -0.38824984 -0.16229643 -0.036163464 -0.1749495
0.18457206 0.6574634 -0.52800477 -0.28731084 -0.046314236 0.13104175 0.14517479 0.3264226
-0.16634971 -0.2529127 0.45123982 0.23641673 -0.43367207 0.27993453 -0.6574083 -0.7453958
0.4658183 0.55090666 -0.4196722 -0.3147624 0.037797183 -0.3096238 -0.61658376 0.4364874
-0.00623244 0.48125702 0.32620794 -0.34712696 0.54516554 -0.048851933 -0.029560229 -0.25585768
-0.101089835 -0.2980384 -0.43427312 0.49361765 0.0858154 -0.13054042 0.07684647 -0.4188876
-0.38965967 0.7665025 0.085749194 -0.26570925 -0.44948867 -0.44131693 0.12526499 0.4471221
-0.37133482 -0.23900722 0.0041178516 -0.08246038 -0.5559659 -0.4079435 -0.0659786 0.24002619

network_body._body_endoder.seq_layers.0.bias f4 [128]
00000000: 651b 71bd a2cd 15bd 1845 313c 8567 6a3c
00000010: 099b e83b 4795 2dbe e2d3 033c 4603 a5bc
00000020: f12f fb3b e2ff 43bd 0491 f63c 30ae cebd
00000030: 00cf ccbd 1967 a63d 649f 1c3c f5ac a7bd
00000040: 70c7 afbd fbec f7bc 57a2 a4bd 8db4 1dbd
00000050: dbaf a6bb ef60 01be bfde b5bc 3caf 623d
00000060: 29d9 e13d 667b b53c 37de f2bd af29 e0bc
00000070: 98a8 82bc 4d38 73bd cf5d a0bd 8821 debd
00000080: b571 d03c deec 4a3b f660 43bc dd5c b6bc
00000090: db09 42bd 2e49 64bd 2b63 933d 5b8a 96bd
000000a0: 7450 9dbb ca13 00be b901 873c 2c3a fdbd
000000b0: 17e6 04be db43 44be a23f cf3d 746d 73bc
000000c0: 21a8 7cbd 9c05 02bd 93ca f9bc 4dc6 0fbd
000000d0: 5d96 49bb a702 aabd 1cfb 86bd a6de 1abe
000000e0: e247 293d bf43 3bbd 4ded 6fbc 9d2a d6bc
000000f0: 22e7 09bd 2458 adba 9461 0cbd aa9f af3d
00000100: 9d85 88bd d9bc 403d 21e1 dcbd 42d5 c63b
00000110: 08e8 eebd b1ee 7ebd 330e eebc b882 cc3d
00000120: 3eb7 b43b e92f 97bd 47c7 81bc be49 b5bd
00000130: 1c83 16bd c107 d8bd ae48 21bd e5f1 43bd
00000140: 23df fabb 1fca 4ebe fd65 e2bb 65a2 47bd
00000150: bbfa 59bd bc9e e1bc 9ae0 9fbc 19ec b6bc
00000160: 96d0 13bd 9248 12bd 979c 15bd 8d10 91bd
00000170: 8880 293b 9808 0bbd c9c6 cf3b e204 16bd
00000180: cfa9 e8bc 6cbc bebd d9ef e2bd 5280 38be
00000190: 5855 763d 875c c9bd 67a1 02bb 27de c63d
000001a0: 16c8 febc 385d fbbc 4a5e a1bb 27df 41bd
000001b0: af83 52bd 7445 29bd 9c3b 63bd a471 213d
000001c0: 6607 37bd 027f 80bd 3898 b5bd e51e 5bbe
000001d0: 787e 51bd a39a 923d f9dc a3bc fefd 643d
000001e0: b6e9 443d 824a 59bd dbb0 88bd 23ff 4ebd
000001f0: dcae a93c 24e3 a3bc 7cd4 19bc 2a62 4fbc
-0.058864016 -0.03657306 0.010819696 0.014306908 0.0070985598 -0.16951476 0.008046122 -0.020143162
0.007665627 -0.04785145 0.030098446 -0.100918174 -0.100004196 0.08125133 0.009559486 -0.08187286
-0.085829616 -0.030264368 -0.08038776 -0.038502265 -0.0050868816 -0.12634633 -0.02220094 0.055342898
0.11027748 0.022153568 -0.1185879 -0.027363626 -0.015949532 -0.059379864 -0.078303926 -0.10846239
0.025444845 0.0030963938 -0.011924973 -0.022261078 -0.04737268 -0.055733852 0.07196649 -0.07350608
-0.0048008505 -0.12507549 0.016480314 -0.12364611 -0.12978397 -0.1916651 0.10119559 -0.014857639
-0.061683778 -0.03174363 -0.030492103 -0.035101224 -0.003075979 -0.08301287 -0.06590864 -0.15123996
0.04132832 -0.045718905 -0.014643979 -0.026143366 -0.03366769 -0.001322512 -0.034272745 0.085753754
-0.0666611 0.0470551 -0.107851274 0.006067903 -0.1166535 -0.062239353 -0.029059505 0.0998587
0.0055150082 -0.07382185 -0.015842093 -0.08851956 -0.03674613 -0.10548354 -0.039375953 -0.04783811
-0.0076559945 -0.2019429 -0.0069091306 -0.048738856 -0.05321763 -0.02754151 -0.019516278 -0.022329377
-0.036087595 -0.03571374 -0.03652629 -0.07083235 0.0025863964 -0.033943743 0.0063408357 -0.03662575
-0.028401284 -0.09313282 -0.110809036 -0.180177 0.060139984 -0.09832101 -0.001993263 0.09710341
-0.031101268 -0.030684099 -0.00492457 -0.047331955 -0.051395115 -0.041326 -0.05547677 0.039415017
-0.04468479 -0.06274225 -0.08866924 -0.21398504 -0.051146 0.07158401 -0.020002829 0.05590629
0.048074447 -0.05304957 -0.066743575 -0.050536286 0.020713262 -0.02000577 -0.009389039 -0.0126576815

network_body._body_endoder.seq_layers.2.weight f4 [128, 128]
00000000: 9ff1 e3bc e961 2abe 801b 3ebe d27a 12bc
00000010: d4c0 183e eb50 1c3e c227 133e 5da3 513c
00000020: 920a c23d 347d 7cbe 65f8 d83d 2e8d 473e
00000030: 44ad 0b3c cb7a 32be 4c6f 1abc f104 5b3d
00000040: e246 9f3b 1153 11be 42e3 503d 27aa 343d
00000050: 9e86 14bd 3cb0 ac3d d51a a13a 9c3d 863b
00000060: 6004 7fbc ae10 bdbd b229 3abd f47f 933c
00000070: 9b96 e23d 7a11 b5bc 0abb 5ebd c467 303c
00000080: 8a29 143e c8ab a53e 538a 773e 20c0 683e
00000090: ee27 d9bd 0e68 dcbc 848b d83d 180d eabd
000000a0: d558 fa3d d1b1 063e ab6b 61bd cf71 01be
000000b0: a8ee 793d effb 10bd 061a ff3c 1161 4e3c
000000c0: 3276 813d 5fbf b6bc 473a 373e 3888 2d3e
000000d0: 6c75 413d 5a5c 543e ac8e 543d 93ab 4cbd
000000e0: 00f2 0b3e 2043 f33d 2cc6 293e 607d 803d
000000f0: de89 8d3a bdc0 883d be4c b33c 7bec ca3d
00000100: 770d 8bbd 5014 2e3e b36e af3d 6f4f 5c3d
00000110: eb7e a13d f9fa dd3d 361a 803d debc 96bd
00000120: ae3a aabd 0206 7d3d 6615 aebb a2d6 b93d
00000130: cecc 553e ae23 6dbc 4f55 8b3e e825 483e
00000140: 9d6b 4a3e ed9e d4bd f05c c23d 626d ecbd
00000150: 070d 093e 1021 f2bc 72bf 623c 9347 383e
00000160: 2010 bf3d 5637 0d3e b70a dcbd 3dc1 413e
00000170: a539 16bc 302e df3d edb1 a63d e694 1fbd
00000180: d8e5 d7bd 132d 693d 10fe 513e a34f 323d
00000190: 42d7 443e f186 fc3d 4763 813d df48 1d3d
000001a0: 7515 3f3c e188 803e 1c09 803d 768d 223e
000001b0: bb56 d2bd 9783 19be fa86 933d 178e 763d
000001c0: 7636 46bc f2e7 eabd 1843 313e 63dc 0b3d
000001d0: 776f 8a3b 07df 0fbe a5ac 663e 6f88 3a3e
000001e0: 886e e23c 3f9f 823d c225 86bd 9b0f cdbd
000001f0: 2a65 b23d 856b ddbd 7dca 223e 8886 e33c
00000200: a6d9 2cbc 86ba aa3d 5ffb c83d 8802 2f3d
00000210: c8e0 07be d07f adbc 1969 323d 4e0d 7ebd
00000220: d6c7 213e e534 1d3e c851 22be da3d dfbc
00000230: 54b0 d6bc 95b8 ce3d 5d4d d7bd 280c f53d
00000240: 3c08 803d 037e 2cbe ca12 47bd db20 e33d
00000250: 7707 45be cd8b 1bbe 722f ed3c 936c c8bd
00000260: 42cb ed3d a287 46bd fbd7 003e a069 7cbe
00000270: 5b4b 403e d064 873d c211 fa3d 8f70 b93d
00000280: c129 1ebc e5bd 80bd 7a5d 1cbe cccb b63c
00000290: 01b4 55be c87a 403e ee49 893d 60b5 e83c
000002a0: d00f 053e 7cd3 42bd 6528 5f3c f1e2 8abd
000002b0: 7796 6f3c f6b0 82bd d3db 01be 6f83 3b3e
000002c0: 32de 30be f037 50bd 6b7f 0cbe a8fb a4bd
000002d0: acd2 a73d 7cdf 04bd 0c5a 9c3d dfbf f83c
000002e0: 35cd 11be 7056 ec39 9b8f c1bd a461 cabd
000002f0: 10ae 1d3d 25f9 b7bd 9cfd a3bd ddef ef3c
00000300: 4fdb 6dbd dafe 5abd 9063 30bd 0f88 b13d
00000310: a18f 863d 2f0e c23d 7190 093e 889a f73d
00000320: b837 d6bd 42bd 213e 0781 93bc 7134 973c
00000330: a25f 343d f853 9bbd 4cd2 013e 657e 35be
00000340: a692 1fbd e557 40bd f167 dbbd da36 333e
00000350: 7e60 173e 8294 3d3c b432 1e3d 2b81 103e
00000360: cec4 6abc 4fde b3bd 1dca fbbc e8a9 433c
00000370: 61e0 2abd a235 423d 674a 89bd d5d0 b6bd
00000380: 436d 063d 9d5d 24be 0060 103e f149 85bd
00000390: bef8 133e 9a86 213e 02f4 a4bd e768 12be
000003a0: 2dc5 3c3d d764 f9bd aff0 013d 2115 5abb
000003b0: ce25 c1bd 2a32 95be e7c4 a0be f90c 4cbc
000003c0: be2c 213d 710e 2bbe 46aa 66be fd32 d4bc
000003d0: d809 d73d 2493 163d 1351 7b3d 9873 293d
000003e0: b3a6 ecbd 5f8c 61be ed85 ac3d 6632 1bbe
000003f0: bca4 8bbe 6705 04bc 7000 ff3c 2106 253e
-0.027825175 -0.16638912 -0.18565178 -0.008940415 0.14917308 0.15265243 0.14370635 0.0127952965
0.094746724 -0.24657136 0.105942525 0.1948745 0.008525196 -0.17429654 -0.009425949 0.05347151
0.004860745 -0.14191844 0.05099798 0.044107582 -0.036261193 0.084320515 0.0012291322 0.0040967
-0.015565008 -0.09231697 -0.04544992 0.018005349 0.11063882 -0.02210306 -0.054377593 0.010766927
0.14468971 0.3235762 0.2417386 0.2272954 -0.10603319 -0.026905086 0.105734855 -0.11428279
0.122239746 0.13153769 -0.05503432 -0.12641071 0.061018616 -0.035396513 0.031140339 0.012596385
0.06321372 -0.02230805 0.17893325 0.16946495 0.047231123 0.20738354 0.051893875 -0.049968313
0.13666534 0.118780375 0.16579503 0.062739134 0.0010798534 0.06677387 0.02188718 0.09908386
-0.067896776 0.16999936 0.08566036 0.05378669 0.07885536 0.10838885 0.06254999 -0.07360242
-0.083119735 0.061773308 -0.0053126095 0.09074141 0.20878908 -0.014473839 0.27213523 0.1954571
0.19767614 -0.10381875 0.09490383 -0.115443006 0.13383876 -0.029556781 0.013839589 0.17996053
0.093292475 0.1379064 -0.10744231 0.18921371 -0.009169017 0.108974814 0.081394054 -0.03896036
-0.10541886 0.05692775 0.20507073 0.04353298 0.1922274 0.123304255 0.06317764 0.038399573
0.011662831 0.2510443 0.062517375 0.15874276 -0.10270449 -0.14991604 0.07203479 0.0601941
-0.012097945 -0.11470021 0.1731075 0.034145724 0.0042247134 -0.14049922 0.22526796 0.18216108
0.027640596 0.0637803 -0.065501705 -0.10012742 0.08710702 -0.10811523 0.15897556 0.02777411
-0.010549938 0.08336358 0.0981357 0.042727023 -0.13269341 -0.02117911 0.04355726 -0.062024407
0.15798888 0.15352209 -0.1585151 -0.027251173 -0.026207127 0.100938 -0.10512803 0.11965209
0.062515706 -0.16844945 -0.048601903 0.11090251 -0.19241129 -0.15190049 0.028953288 -0.09786334
0.11611034 -0.048469193 0.1258239 -0.24649668 0.18778746 0.06611025 0.12210418 0.09054672
-0.00965351 -0.062862195 -0.15270033 0.022313975 -0.20869447 0.18796837 0.06703554 0.028406799
0.12994313 -0.04756497 0.013620471 -0.06781567 0.014623276 -0.06381409 -0.12681513 0.18311857
-0.17272261 -0.050834596 -0.13720481 -0.08055812 0.08194479 -0.032439694 0.076343626 0.030364929
-0.14238437 0.0004507783 -0.09451219 -0.09881905 0.038496077 -0.089830674 -0.080073565 0.02928918
-0.058070477 -0.0534657 -0.0430637 0.08668529 0.06570364 0.094753616 0.13434006 0.12090021
-0.10459846 0.15794852 -0.018005861 0.018457623 0.044036515 -0.07584375 0.12677878 -0.17723997
-0.038958214 -0.046958823 -0.107131846 0.17501393 0.14782903 0.011571052 0.038622573 0.14111774
-0.014329148 -0.087826364 -0.030736024 0.011942364 -0.04171789 0.04741443 -0.06703644 -0.0892655
0.032819044 -0.16051336 0.14099121 -0.06508244 0.14450356 0.15774003 -0.08054353 -0.1429783
0.04608648 -0.12177437 0.031723674 -0.0033276754 -0.09431039 -0.29139835 -0.31400225 -0.012454265
0.03934931 -0.16704728 -0.22525892 -0.02590322 0.104999244 0.036761418 0.061356615 0.041370004
-0.11555233 -0.22026204 0.08423982 -0.15155944 -0.2727412 -0.008057929 0.031128138 0.16115619

network_body._body_endoder.seq_layers.2.bias f4 [128]
00000000: c834 99bc d7c8 bf3a e280 99bd 7dde 42b9
00000010: 4481 13bd 81f1 af3b 99f2 bdbd b226 27bd
00000020: 20a3 f5bc cf67 a7bc 1e0e 0abd b945 cdbd
00000030: f80c 70bd f983 d1bd 7fc3 0bbe 19ab dfbd
00000040: 931b 01be 4372 11bd d9fc 48bd 631f c9bd
00000050: 2d47 85bb b8c3 e7bc 093a 99bd e501 a6bd
00000060: 7902 47be b2ac be3c e389 023d 6b84 72bc
00000070: d2eb 61bd 41b0 143d 4e2b 5cbd 1327 8fbd
00000080: 28bb 95bd 97a2 d4bd d211 e9bd 7f3a 5f3d
00000090: 698b 513d f857 c4bc 73d7 aabd 2b30 c7bd
000000a0: 749f cebc 3a09 1fbd 00d3 133d 69c8 4cbe
000000b0: a995 aabd 3f09 57bc 811d 1dbd 0db4 02bd
000000c0: 819a a2bc 743d 0cbd 4d6d 4bba 6da2 d33c
000000d0: ad47 83bd 04e2 1fbc 34ef cebd baee c0bc
000000e0: b199 5bbc 7cf4 b7bc b8cc 12be ba6d a9bd
000000f0: 819f 12be 34e7 aebd b7da 23bd 6300 6ebc
00000100: 0205 32bd 5f37 67bc c6d6 52be 95be b23c
00000110: db4b 51bd 3d49 b5bd 9773 e43c 8720 eebd
00000120: 907f a2bb eb6f 293d 1f9d 1abe f5e2 d0bc
00000130: 6aca b2bc 3269 c6bd 59c8 06bc bd2f 81bd
00000140: 775f 763b 6f4a 60be ebd4 38be 9e69 b8bb
00000150: b5d9 e9bd 5b51 29be e22a 9c3b 267f 8b3c
00000160: 9dff 68bd 0b14 afbc 5b0a fabd 296d efbb
00000170: 44cd 873c 815f 97bd 7fcf 46bc 87bf 66bd
00000180: ec57 2fbd ef61 ee3c 8e83 dabc c282 93bc
00000190: 21c4 b9bd 0cae 20be 4374 ab39 420c 43be
000001a0: 5def f33c 7aad 1b3c 8609 dbbd 7bfc c2bc
000001b0: 15f9 a5bd ac5c d33b 4efc 94bc 2313 0ebe
000001c0: 7e6d b9bc a8c7 efbc 7281 fabc d8c8 90bc
000001d0: 84d1 d9bb ed5d 7dbd 1ee6 c63c 8e69 cbbd
000001e0: 6b13 d33c bde0 34be 364c d73c a7b7 03bd
000001f0: 74f9 bfbd bfd9 47bd 6bc9 04be 9fde aabc
-0.018701926 0.0014631998 -0.074952856 -0.00018584165 -0.03601195 0.0053693657 -0.092747875 -0.040808387
-0.02998501 -0.020435242 -0.03370487 -0.10023064 -0.058606118 -0.1023025 -0.13648795 -0.10921306
-0.12608175 -0.03550936 -0.04906926 -0.0982044 -0.0040673227 -0.028291568 -0.074817725 -0.0810583
-0.19434537 0.023275707 0.03186978 -0.014802079 -0.055156536 0.0363009 -0.053752236 -0.06989875
-0.07311088 -0.10382574 -0.11380352 0.054499146 0.051158343 -0.023967728 -0.08341875 -0.09725984
-0.025222518 -0.03882716 0.036089897 -0.19998325 -0.08329327 -0.013124763 -0.038358215 -0.03190999
-0.019849064 -0.034238294 -0.00077601225 0.025834287 -0.064101554 -0.009758476 -0.10104218 -0.023551334
-0.013403342 -0.022455446 -0.14335907 -0.08272882 -0.14318658 -0.08540192 -0.040003505 -0.014526459
-0.043461807 -0.014112323 -0.20589742 0.021819392 -0.051097732 -0.0885186 0.027887149 -0.11627298
-0.0049590543 0.0413665 -0.15099 -0.025498847 -0.021825034 -0.09688033 -0.008226478 -0.063079335
0.0037593523 -0.21903394 -0.18049972 -0.005627825 -0.114184774 -0.16534941 0.004765854 0.017028403
-0.056884397 -0.021371862 -0.122090064 -0.007306714 0.01657737 -0.07391263 -0.012134432 -0.056335
-0.04280846 0.029099433 -0.026674058 -0.018006686 -0.09070612 -0.15691394 0.00032702283 -0.19047645
0.029777223 0.009501809 -0.10695176 -0.023802033 -0.08104149 0.0064502563 -0.018186715 -0.13874488
-0.022635218 -0.029270008 -0.030579302 -0.017673895 -0.0066472907 -0.061857153 0.02427965 -0.09932242
0.025766095 -0.17663856 0.026281457 -0.032157566 -0.09373751 -0.048791643 -0.1296746 -0.020858107

action_model._continuous_distribution.log_sigma f4 [1, 2]
00000000: 6287 17bd aee1 b0bd
-0.036994345 -0.08636795

action_model._continuous_distribution.mu.weight f4 [2, 128]
00000000: cbb6 e8bc 9224 e73c 60ce 16bd a810 e13c
00000010: 587f bebb 1010 97bd 1d7c d6bb 499a 76bb
00000020: 0a38 00bd ecf4 7cbd 6cf7 0bbd 5585 f0bc
00000030: d444 d53c 803e cabb 6467 243d 45e5 da3c
00000040: 519b 2f3c 9aee e5bd 6c54 3a3d 74ea 4f3b
00000050: 3025 6f3d d277 c3bc cbe3 243b 29bf fcbb
00000060: 7721 afbc ae72 0f3d 639c 2ebd 4221 973b
00000070: 7fc2 79bd b8a3 92bd c63c 52bd d9a5 563c
00000080: 178e cbbc e215 803c e035 6f3c beb7 a7bd
00000090: e2f0 743d 65ab d8bb 212d 28bd 049e ee3c
000000a0: 85db 483c b36a 05bc dd57 a6bd 6578 dabc
000000b0: ca7c 613d be83 13bd 0292 5e3b 6cba 88bd
000000c0: a422 293c eb3e f6bc b6ed 42bd 21a2 103d
000000d0: bd26 b53b d9e9 87bc cd83 083c 90f3 233c
000000e0: ad89 babc 5344 be3d 67cf ff3b 84d6 803c
000000f0: 5d55 623b 3b9f 1fbd 72f7 0cbd ec36 a3bb
00000100: 9888 a7bc 9546 45bc c4bb 8fbc c15b 1e3d
00000110: a9b1 6d3c cbe7 893c 50a8 59bc 9d6a f2bc
00000120: feef 993c 4e39 dd3d 2175 b0bc 1b81 35bc
00000130: 8769 6d3c 3b25 13b8 3b46 053d d4cc 86bd
00000140: 574c 333d e467 953b de17 09bd 2a4a 473d
00000150: f000 3abd d3bf 1a3c e400 31bd c59b 1e3c
00000160: 3eca a7bd a1d9 34bc 2475 23bc bc05 913d
00000170: c335 fdbc 28a3 0ebd 335a 9dbd 4dd1 8d3a
00000180: 7efa 67bd 6b36 573d 80e4 d13c 2689 523d
00000190: 287e e93c b4b4 9ebb bb1b 953c 6328 e33b
000001a0: e3d5 433c 3e9a 15bd fcff cb3c 6864 293b
000001b0: a107 04bd 16d2 eb3c f2b5 40bd f7fa 303c
000001c0: 2861 f4bc 6c77 0b3b eb9c 94bb ef31 24bd
000001d0: 44fe 843a 2f35 163b 784d 1d3e bde9 d53b
000001e0: d2ae 5cbd 1023 2abc 9fd7 bc3d cb9c b1bc
000001f0: 81cc d4bc fe9b 22bd cf18 2dbd dbc6 053e
00000200: a6b1 e83d b36c 49bd e681 e33d 5eda de3d
00000210: b80f 37bc 6757 0f3d a96e 833d 1cdf 98bb
00000220: 8653 a63b 322a ad3d 9575 e8bb f07f a8bb
00000230: bc73 4d3d 6938 e8bc f6c9 51bc 56d2 18bc
00000240: 09f3 d5bc 1588 4cbb beb0 3e3c d526 233d
00000250: 00d9 03bc ced8 ed3d 5ceb 8abc 2007 76bd
00000260: 6bad b3bb 4ae9 bebc 20d3 c23c 36b0 3bbd
00000270: 0e20 eb3d fc20 95bd a874 573d 533e d23a
00000280: f89f b03d aad9 75bc e85c 1cbd 9f9d fdbd
00000290: 78ac 97bd 4601 fb3b f1a9 e03d dfdc 3bbc
000002a0: 37e1 2fbc 33d6 c83d 74a3 533d 82b6 44bc
000002b0: 973c 24bd 78ef 0d3d 7b6e dcb8 fc2d b03d
000002c0: b5ef 1bbc e323 933b 9c90 2f3d e76c 153c
000002d0: 3f2a 16bc a369 18bc 85e8 49bb 7222 6f3c
000002e0: 7a68 6abc 37ff 9b3c 6113 9ebc 46d2 263d
000002f0: 1b02 fa3b e411 993d 71df 163e de7f 243c
00000300: f5ec 293d 2c17 853c 01a9 5cbc 957c 4cbd
00000310: 1919 053d 95e5 01bc b671 e53c c61c a43c
00000320: 2283 9cbc ee26 7f3b 3324 353d 93ec 783c
00000330: 78ff a43d f97e 84bb 467f 51bc 2ec2 593d
00000340: 4c39 c43c cbb8 29bc 9065 b5bc b156 08bc
00000350: 92ea 793c 5cb9 86bb 2b67 b1bd 9fa2 abbc
00000360: 6015 a8bd 5442 71bd 886f d4bc 71e2 803c
00000370: 1497 913d 416d 5a3d be8b 743d f7ee a7bd
00000380: 7e44 073e 4ce4 8cbb c306 ba3b 47ff 27bd
00000390: eb3b d7bb 2a2c 72bc 6709 c03b 981e debc
000003a0: 617a ce3b 5446 2dbd 0272 d23d 3b59 b1bd
000003b0: da62 28bd 8dd4 16bd e963 22bd c9c1 c0bc
000003c0: fb67 fd3d 9697 8a3b 3cc7 c3bc 835f e43d
000003d0: 3ec9 da3d 143d a2bc ffb9 093c 4476 afbc
000003e0: bfe2 dd3d a0e4 63bc 2dcc 953d be2f d93d
000003f0: 0926 d63b deb9 c53d c837 4d3b 211f cfbd
-0.028407475 0.02821568 -0.03681791 0.027473763 -0.0058135204 -0.073761106 -0.006545557 -0.0037628582
-0.031303443 -0.061757013 -0.034171507 -0.029360453 0.026033796 -0.0061720014 0.040137663 0.026720652
0.010718183 -0.1122715 0.045490667 0.0031725438 0.058385074 -0.023860846 0.002516019 -0.0077132178
-0.021378262 0.035021476 -0.04262961 0.004612119 -0.0609765 -0.07160133 -0.05132749 0.013101065
-0.024848027 0.015635435 0.014600247 -0.08189343 0.059800036 -0.0066122287 -0.041058663 0.029128082
0.012259369 -0.008143115 -0.08122227 -0.026668737 0.05505065 -0.03601431 0.003396154 -0.06676182
0.0103232 -0.030059299 -0.04758998 0.03531087 0.0055282996 -0.016591 0.008332205 0.0100068
-0.022770727 0.092903756 0.0078067067 0.015727289 0.0034535744 -0.038970213 -0.03441567 -0.0049809124
-0.020450875 -0.012040754 -0.017545588 0.038661722 0.0145076895 0.01683416 -0.013284758 -0.029591853
0.018791195 0.108019456 -0.021540226 -0.011078144 0.014490492 -3.5082205e-05 0.03253768 -0.065820366
0.043773975 0.004559504 -0.033470027 0.048654713 -0.04541105 0.0094451485 -0.04321374 0.009680693
-0.081928715 -0.011038215 -0.009976659 0.07081172 -0.030909425 -0.034823567 -0.0768322 0.0010819823
-0.056635372 0.05254213 0.025621653 0.051400326 0.028502539 -0.004843319 0.0182017 0.0069323047
0.01195285 -0.03652405 0.024902336 0.00258472 -0.032233838 0.0287867 -0.047048517 0.010802022
-0.029831484 0.0021280898 -0.0045353076 -0.040086683 0.0010146578 0.0022919883 0.15361583 0.006528108
-0.05387766 -0.010384336 0.09220814 -0.02168121 -0.025976421 -0.039699547 -0.042259987 0.13064139
0.11362009 -0.04917593 0.111087605 0.10881494 -0.011173181 0.034995463 0.06417591 -0.0046652686
0.0050758747 0.08455314 -0.007094095 -0.0051422045 0.0501592 -0.028347211 -0.012804499 -0.009327492
-0.026116865 -0.003120904 0.011638818 0.039831955 -0.008047342 0.11613618 -0.016957931 -0.06006539
-0.0054833195 -0.0233046 0.023782313 -0.045822345 0.11480723 -0.07281682 0.052601486 0.0016040303
0.086242616 -0.015005508 -0.03817454 -0.123835795 -0.07405943 0.007660064 0.10969914 -0.011466234
-0.010734848 0.0980648 0.051669553 -0.012006404 -0.040096845 0.034652203 -0.00010510996 0.08602521
-0.0095176 0.004490362 0.04286252 0.009120203 -0.009165346 -0.0093025295 -0.0030808758 0.014595615
-0.014307136 0.019042594 -0.01929635 0.040727876 0.0076296455 0.074741155 0.14733674 0.010040252
0.041485745 0.0162464 -0.013468028 -0.0499235 0.032494638 -0.007928272 0.028008323 0.020033251
-0.019105498 0.0038933116 0.044223975 0.015193122 0.08056539 -0.0040434566 -0.012786692 0.0531637
0.023953103 -0.0103589995 -0.022143155 -0.00832145 0.01525368 -0.004111452 -0.08662256 -0.020951567
-0.08207202 -0.058901146 -0.025932088 0.015732976 0.07108894 0.05332685 0.05970358 -0.08199876
0.13209721 -0.004299676 0.0056770756 -0.041014936 -0.006568422 -0.014781037 0.005860496 -0.027114198
0.00630121 -0.0423034 0.102756515 -0.086595975 -0.041109897 -0.036823798 -0.039646063 -0.023529904
0.12373348 0.0042294962 -0.023898713 0.1115103 0.10682915 -0.019804515 0.008406161 -0.021418698
0.10834264 -0.013909489 0.07314334 0.10604809 0.006535296 0.09654592 0.0031313766 -0.10113359

action_model._continuous_distribution.mu.bias f4 [2]
00000000: 9582 30bc 7a77 bfbb
-0.010773321 -0.0058431
