MachineLearning/results/testSumo17/MoveTOGoal/MoveTOGoal-499992.pt (torch, 441819 bytes, 36 tensors)

network_body._body_endoder.seq_layers.0.weight f4 [128, 6]
0.046721645 -0.0948549 0.42461848 0.23841384 0.07860826 0.25841063 0.04171928 -0.0010112035
0.5644635 0.33121595 0.0196025 -0.104866855 -0.5929362 -0.368748 -0.7885095 0.1770219
0.081940785 0.78250813 0.08647334 0.376926 0.13109076 -0.7562032 -0.05378795 -0.39957675
0.0028085492 0.077162534 -0.57455444 0.6372789 -0.2620864 0.015243651 -0.17649963 0.32681897
-0.30905464 -0.17238931 0.27900463 -0.20959178 -0.42641369 0.2970282 0.38496047 -0.19018626
-0.24586116 -0.32536992 0.15445219 0.024272656 -0.77358943 0.11330407 0.22897622 -0.6020478
0.2854848 -0.03435321 -0.5231995 -0.25544333 -0.45865446 -0.18073758 -0.24708864 0.2486643
0.7986763 0.10303089 0.3662715 -0.7747236 -0.1918912 0.09944444 0.057309773 0.35122073
-0.0027372432 -0.36854577 0.85305506 0.10784614 -0.46193528 0.098198466 -0.65715617 0.30672693
-0.09999487 -0.4940637 -0.48139438 -0.23976977 -0.3527077 0.038472407 -0.5326554 -0.4737046
-0.3795977 -0.37761918 0.34146342 0.30918747 -0.64538175 -0.012797248 -0.01712962 -0.5483599
-0.15873446 -0.4191519 -0.33078545 -0.6058363 -0.34213403 -0.649233 0.19076785 -0.10807172
-0.13081102 -0.0721256 0.1679867 0.11485926 0.07804931 0.1785159 -1.174196 -0.7348113
-0.07492133 -1.1592324 0.3683319 0.12276887 0.118434414 -0.15144297 0.3834737 -0.30063742
-0.42059126 -0.112041965 -0.61927736 -0.13472618 0.49063733 -0.14812464 0.08837678 -0.21770093
0.8722058 0.08889652 -0.3685423 0.3171963 0.05612322 -0.2239321 0.047791496 -0.52929276
-0.86432564 0.30041766 -0.32719466 -0.4221871 -0.25861788 0.3010272 -0.26381615 0.50909555
-0.80101216 0.4203337 -0.4151239 -0.21111213 0.12990162 0.41634414 0.48329186 -0.24371746
0.6285437 -0.14906383 0.44939947 0.1881062 -0.43800503 -0.06372877 0.41375557 -0.29743004
-0.11885682 -0.76012826 0.55332667 0.5088416 0.35723928 -0.4470652 0.015521201 -0.89699686
-0.011113267 -0.22052057 -0.083536044 0.2935208 -0.8058857 0.4637451 0.08839203 -0.10088979
-0.34033188 0.60793805 -0.6449548 0.07566979 -0.24904422 0.57362235 0.21390831 -0.45810992
-0.23882508 0.87276024 0.28023148 0.67147183 -0.2898302 -0.5939 0.2348201 -0.60856366
0.06438393 0.20084919 0.13623314 -0.6656049 -0.18264934 0.14034414 0.33376166 -0.2891217
0.050497007 0.07129049 -0.54076797 0.15434536 -0.38824984 -0.16229643 -0.036163464 -0.1749495
0.18457206 0.6574634 -0.52800477 -0.28731084 -0.046314236 0.13104175 0.14517479 0.3264226
-0.16634971 -0.2529127 0.45123982 0.23641673 -0.43367207 0.27993453 -0.6574083 -0.7453958
0.4658183 0.55090666 -0.4196722 -0.3147624 0.037797183 -0.3096238 -0.61658376 0.4364874
-0.00623244 0.48125702 0.32620794 -0.34712696 0.54516554 -0.048851933 -0.029560229 -0.25585768
-0.101089835 -0.2980384 -0.43427312 0.49361765 0.0858154 -0.13054042 0.07684647 -0.4188876
-0.38965967 0.7665025 0.085749194 -0.26570925 -0.44948867 -0.44131693 0.12526499 0.4471221
-0.37133482 -0.23900722 0.0041178516 -0.08246038 -0.5559659 -0.4079435 -0.0659786 0.24002619
00000000: 325f 3f3d 4943 c2bd 9867 d93e c222 743e
00000010: 5efd a03d 664e 843e d6e1 2a3d 5c8a 84ba
00000020: ae80 103f 2395 a93e 6c95 a03c 6fc4 d6bd
00000030: abca 17bf 8acc bcbe c2db 49bf 3b45 353e
00000040: 92d0 a73d 7452 483f ef18 b13d 72fc c03e
00000050: a83c 063e 8896 41bf c150 5cbd 5395 ccbe
00000060: a30f 383b 6407 9e3d 0016 13bf b624 233f
00000070: 3030 86be 82c0 793c 52bc 34be d154 a73e
00000080: 693c 9ebe d386 30be b2d9 8e3e 3a9f 56be
00000090: e552 dabe 1514 983e 8a19 c53e 30c0 42be
000000a0: 07c3 7bbe e396 a6be b728 1e3e 73d7 c63c
000000b0: f509 46bf f70b e83d be78 6a3e ce1f 1abf
000000c0: 102b 923e f4b5 0cbd 67f0 05bf 78c9 82be
000000d0: c2d4 eabe 4613 39be ce04 7dbe dba1 7e3e
000000e0: 0d76 4c3f dc01 d33d f087 bb3e 4954 46bf
000000f0: 207f 44be 87a9 cb3d a7bd 6a3d 34d3 b33e
00000100: 5263 33bb 08b2 bcbe d161 5a3f 70de dc3d
00000110: c882 ecbe 471c c93d 633b 28bf 500b 9d3e
00000120: 1cca ccbd ebf5 fcbe 5379 f6be 3586 75be
00000130: 1b96 b4be 3e95 1d3d 1b5c 08bf 6989 f2be
00000140: a15a c2be 4d57 c1be 4bd4 ae3e d24d 9e3e
00000150: bd37 25bf 8cab 51bc 6b53 8cbc 5061 0cbf
00000160: 498b 22be 149b d6be b65c a9be 1618 1bbf
00000170: 312c afbe 2234 26bf a658 433e b554 ddbd
00000180: 53f3 05be 96b6 93bd b504 2c3e 553b eb3d
00000190: 51d8 9f3d dfcc 363e 0e4c 96bf 981c 3cbf
000001a0: 5b70 99bd ba61 94bf 0096 bc3e 3f6e fb3d
000001b0: be8d f23d de13 1bbe aa56 c43e 26ed 99be
000001c0: bd57 d7be 4276 e5bd f688 1ebf a9f5 09be
000001d0: d134 fb3e fcad 17be e3fe b43d feec 5ebe
000001e0: e148 5f3f 610f b63d 94b1 bcbe 8e67 a23e
000001f0: 76e1 653d 754e 65be 04c1 433d bb7f 07bf
00000200: 7244 5dbf 58d0 993e 0f86 a7be e828 d8be
00000210: 9069 84be 3d20 9a3e e912 87be 1654 023f
00000220: 220f 4dbf fb35 d73e 1f8b d4be c72d 58be
00000230: ee04 053e 0f2b d53e 0872 f73e 1291 79be
00000240: 3de8 203f 30a4 18be b017 e63e e99e 403e
00000250: 3242 e0be 3b84 82bd c5d7 d33e c048 98be
00000260: 346b f3bd c497 42bf d1a6 0d3f 7143 023f
00000270: 11e8 b63e bbe5 e4be a34c 7e3c 96a1 65bf
00000280: 6c14 36bc 25d0 61be f214 abbd 5c48 963e
00000290: 864e 4ebf ff6f ed3e e106 b53d 4e9f cebd
000002a0: fb3f aebe d4a1 1b3f c21b 25bf c3f8 9a3d
000002b0: 7305 7fbe ead8 123f c80a 5b3e 628d eabe
000002c0: 908e 74be 376d 5f3f 807a 8f3e 94e5 2b3f
000002d0: a064 94be d509 18bf ae74 703e d4ca 1bbf
000002e0: b9db 833d 69ab 4d3e b380 0b3e 1565 2abf
000002f0: 6e08 3bbe 60b6 0f3e cfe2 aa3e c207 94be
00000300: f3d5 4e3d c000 923d c56f 0abf b60c 1e3e
00000310: afc8 c6be 0931 26be 2420 14bd f625 33be
00000320: 7500 3d3e 854f 283f 522b 07bf 681a 93be
00000330: ffb3 3dbd cf2f 063e b3a8 143e dd20 a73e
00000340: 9457 2abe c67d 81be e808 e73e 3a17 723e
00000350: 440a debe 9453 8f3e e94b 28bf 42d2 3ebf
00000360: bc7f ee3e 3808 0d3f 46df d6be 8a28 a1be
00000370: 38d1 1a3d 0387 9ebe 6fd8 1dbf 477b df3e
00000380: 7f39 ccbb 5267 f63e ba04 a73e a0ba b1be
00000390: f88f 0b3f f718 48bd 4b28 f2bc c7ff 82be
000003a0: 3008 cfbd 7d98 98be 0c59 debe 74bb fc3e
000003b0: fcbf af3d 63ac 05be af61 9d3d 6f78 d6be
000003c0: 7981 c7be 8239 443f 469d af3d 0b0b 88be
000003d0: 6123 e6be 4bf4 e1be 7745 003e 30ed e43e
000003e0: 991f bebe 4fbe 74be 0bef 863b fde0 a8bd
000003f0: c853 0ebf f8dd d0be ca1f 87bd 6dc9 753e

network_body._body_endoder.seq_layers.0.bias f4 [128]
-0.058864016 -0.03657306 0.010819696 0.014306908 0.0070985598 -0.16951476 0.008046122 -0.020143162
0.007665627 -0.04785145 0.030098446 -0.100918174 -0.100004196 0.08125133 0.009559486 -0.08187286
-0.085829616 -0.030264368 -0.08038776 -0.038502265 -0.0050868816 -0.12634633 -0.02220094 0.055342898
0.11027748 0.022153568 -0.1185879 -0.027363626 -0.015949532 -0.059379864 -0.078303926 -0.10846239
0.025444845 0.0030963938 -0.011924973 -0.022261078 -0.04737268 -0.055733852 0.07196649 -0.07350608
-0.0048008505 -0.12507549 0.016480314 -0.12364611 -0.12978397 -0.1916651 0.10119559 -0.014857639
-0.061683778 -0.03174363 -0.030492103 -0.035101224 -0.003075979 -0.08301287 -0.06590864 -0.15123996
0.04132832 -0.045718905 -0.014643979 -0.026143366 -0.03366769 -0.001322512 -0.034272745 0.085753754
-0.0666611 0.0470551 -0.107851274 0.006067903 -0.1166535 -0.062239353 -0.029059505 0.0998587
0.0055150082 -0.07382185 -0.015842093 -0.08851956 -0.03674613 -0.10548354 -0.039375953 -0.04783811
-0.0076559945 -0.2019429 -0.0069091306 -0.048738856 -0.05321763 -0.02754151 -0.019516278 -0.022329377
-0.036087595 -0.03571374 -0.03652629 -0.07083235 0.0025863964 -0.033943743 0.0063408357 -0.03662575
-0.028401284 -0.09313282 -0.110809036 -0.180177 0.060139984 -0.09832101 -0.001993263 0.09710341
-0.031101268 -0.030684099 -0.00492457 -0.047331955 -0.051395115 -0.041326 -0.05547677 0.039415017
-0.04468479 -0.06274225 -0.08866924 -0.21398504 -0.051146 0.07158401 -0.020002829 0.05590629
0.048074447 -0.05304957 -0.066743575 -0.050536286 0.020713262 -0.02000577 -0.009389039 -0.0126576815
00000000: 651b 71bd a2cd 15bd 1845 313c 8567 6a3c
00000010: 099b e83b 4795 2dbe e2d3 033c 4603 a5bc
00000020: f12f fb3b e2ff 43bd 0491 f63c 30ae cebd
00000030: 00cf ccbd 1967 a63d 649f 1c3c f5ac a7bd
00000040: 70c7 afbd fbec f7bc 57a2 a4bd 8db4 1dbd
00000050: dbaf a6bb ef60 01be bfde b5bc 3caf 623d
00000060: 29d9 e13d 667b b53c 37de f2bd af29 e0bc
00000070: 98a8 82bc 4d38 73bd cf5d a0bd 8821 debd
00000080: b571 d03c deec 4a3b f660 43bc dd5c b6bc
00000090: db09 42bd 2e49 64bd 2b63 933d 5b8a 96bd
000000a0: 7450 9dbb ca13 00be b901 873c 2c3a fdbd
000000b0: 17e6 04be db43 44be a23f cf3d 746d 73bc
000000c0: 21a8 7cbd 9c05 02bd 93ca f9bc 4dc6 0fbd
000000d0: 5d96 49bb a702 aabd 1cfb 86bd a6de 1abe
000000e0: e247 293d bf43 3bbd 4ded 6fbc 9d2a d6bc
000000f0: 22e7 09bd 2458 adba 9461 0cbd aa9f af3d
00000100: 9d85 88bd d9bc 403d 21e1 dcbd 42d5 c63b
00000110: 08e8 eebd b1ee 7ebd 330e eebc b882 cc3d
00000120: 3eb7 b43b e92f 97bd 47c7 81bc be49 b5bd
00000130: 1c83 16bd c107 d8bd ae48 21bd e5f1 43bd
00000140: 23df fabb 1fca 4ebe fd65 e2bb 65a2 47bd
00000150: bbfa 59bd bc9e e1bc 9ae0 9fbc 19ec b6bc
00000160: 96d0 13bd 9248 12bd 979c 15bd 8d10 91bd
00000170: 8880 293b 9808 0bbd c9c6 cf3b e204 16bd
00000180: cfa9 e8bc 6cbc bebd d9ef e2bd 5280 38be
00000190: 5855 763d 875c c9bd 67a1 02bb 27de c63d
000001a0: 16c8 febc 385d fbbc 4a5e a1bb 27df 41bd
000001b0: af83 52bd 7445 29bd 9c3b 63bd a471 213d
000001c0: 6607 37bd 027f 80bd 3898 b5bd e51e 5bbe
000001d0: 787e 51bd a39a 923d f9dc a3bc fefd 643d
000001e0: b6e9 443d 824a 59bd dbb0 88bd 23ff 4ebd
000001f0: dcae a93c 24e3 a3bc 7cd4 19bc 2a62 4fbc

network_body._body_endoder.seq_layers.2.weight f4 [128, 128]
-0.027825175 -0.16638912 -0.18565178 -0.008940415 0.14917308 0.15265243 0.14370635 0.0127952965
0.094746724 -0.24657136 0.105942525 0.1948745 0.008525196 -0.17429654 -0.009425949 0.05347151
0.004860745 -0.14191844 0.05099798 0.044107582 -0.036261193 0.084320515 0.0012291322 0.0040967
-0.015565008 -0.09231697 -0.04544992 0.018005349 0.11063882 -0.02210306 -0.054377593 0.010766927
0.14468971 0.3235762 0.2417386 0.2272954 -0.10603319 -0.026905086 0.105734855 -0.11428279
0.122239746 0.13153769 -0.05503432 -0.12641071 0.061018616 -0.035396513 0.031140339 0.012596385
0.06321372 -0.02230805 0.17893325 0.16946495 0.047231123 0.20738354 0.051893875 -0.049968313
0.13666534 0.118780375 0.16579503 0.062739134 0.0010798534 0.06677387 0.02188718 0.09908386
-0.067896776 0.16999936 0.08566036 0.05378669 0.07885536 0.10838885 0.06254999 -0.07360242
-0.083119735 0.061773308 -0.0053126095 0.09074141 0.20878908 -0.014473839 0.27213523 0.1954571
0.19767614 -0.10381875 0.09490383 -0.115443006 0.13383876 -0.029556781 0.013839589 0.17996053
0.093292475 0.1379064 -0.10744231 0.18921371 -0.009169017 0.108974814 0.081394054 -0.03896036
-0.10541886 0.05692775 0.20507073 0.04353298 0.1922274 0.123304255 0.06317764 0.038399573
0.011662831 0.2510443 0.062517375 0.15874276 -0.10270449 -0.14991604 0.07203479 0.0601941
-0.012097945 -0.11470021 0.1731075 0.034145724 0.0042247134 -0.14049922 0.22526796 0.18216108
0.027640596 0.0637803 -0.065501705 -0.10012742 0.08710702 -0.10811523 0.15897556 0.02777411
-0.010549938 0.08336358 0.0981357 0.042727023 -0.13269341 -0.02117911 0.04355726 -0.062024407
0.15798888 0.15352209 -0.1585151 -0.027251173 -0.026207127 0.100938 -0.10512803 0.11965209
0.062515706 -0.16844945 -0.048601903 0.11090251 -0.19241129 -0.15190049 0.028953288 -0.09786334
0.11611034 -0.048469193 0.1258239 -0.24649668 0.18778746 0.06611025 0.12210418 0.09054672
-0.00965351 -0.062862195 -0.15270033 0.022313975 -0.20869447 0.18796837 0.06703554 0.028406799
0.12994313 -0.04756497 0.013620471 -0.06781567 0.014623276 -0.06381409 -0.12681513 0.18311857
-0.17272261 -0.050834596 -0.13720481 -0.08055812 0.08194479 -0.032439694 0.076343626 0.030364929
-0.14238437 0.0004507783 -0.09451219 -0.09881905 0.038496077 -0.089830674 -0.080073565 0.02928918
-0.058070477 -0.0534657 -0.0430637 0.08668529 0.06570364 0.094753616 0.13434006 0.12090021
-0.10459846 0.15794852 -0.018005861 0.018457623 0.044036515 -0.07584375 0.12677878 -0.17723997
-0.038958214 -0.046958823 -0.107131846 0.17501393 0.14782903 0.011571052 0.038622573 0.14111774
-0.014329148 -0.087826364 -0.030736024 0.011942364 -0.04171789 0.04741443 -0.06703644 -0.0892655
0.032819044 -0.16051336 0.14099121 -0.06508244 0.14450356 0.15774003 -0.08054353 -0.1429783
0.04608648 -0.12177437 0.031723674 -0.0033276754 -0.09431039 -0.29139835 -0.31400225 -0.012454265
0.03934931 -0.16704728 -0.22525892 -0.02590322 0.104999244 0.036761418 0.061356615 0.041370004
-0.11555233 -0.22026204 0.08423982 -0.15155944 -0.2727412 -0.008057929 0.031128138 0.16115619
00000000: 9ff1 e3bc e961 2abe 801b 3ebe d27a 12bc
00000010: d4c0 183e eb50 1c3e c227 133e 5da3 513c
00000020: 920a c23d 347d 7cbe 65f8 d83d 2e8d 473e
00000030: 44ad 0b3c cb7a 32be 4c6f 1abc f104 5b3d
00000040: e246 9f3b 1153 11be 42e3 503d 27aa 343d
00000050: 9e86 14bd 3cb0 ac3d d51a a13a 9c3d 863b
00000060: 6004 7fbc ae10 bdbd b229 3abd f47f 933c
00000070: 9b96 e23d 7a11 b5bc 0abb 5ebd c467 303c
00000080: 8a29 143e c8ab a53e 538a 773e 20c0 683e
00000090: ee27 d9bd 0e68 dcbc 848b d83d 180d eabd
000000a0: d558 fa3d d1b1 063e ab6b 61bd cf71 01be
000000b0: a8ee 793d effb 10bd 061a ff3c 1161 4e3c
000000c0: 3276 813d 5fbf b6bc 473a 373e 3888 2d3e
000000d0: 6c75 413d 5a5c 543e ac8e 543d 93ab 4cbd
000000e0: 00f2 0b3e 2043 f33d 2cc6 293e 607d 803d
000000f0: de89 8d3a bdc0 883d be4c b33c 7bec ca3d
00000100: 770d 8bbd 5014 2e3e b36e af3d 6f4f 5c3d
00000110: eb7e a13d f9fa dd3d 361a 803d debc 96bd
00000120: ae3a aabd 0206 7d3d 6615 aebb a2d6 b93d
00000130: cecc 553e ae23 6dbc 4f55 8b3e e825 483e
00000140: 9d6b 4a3e ed9e d4bd f05c c23d 626d ecbd
00000150: 070d 093e 1021 f2bc 72bf 623c 9347 383e
00000160: 2010 bf3d 5637 0d3e b70a dcbd 3dc1 413e
00000170: a539 16bc 302e df3d edb1 a63d e694 1fbd
00000180: d8e5 d7bd 132d 693d 10fe 513e a34f 323d
00000190: 42d7 443e f186 fc3d 4763 813d df48 1d3d
000001a0: 7515 3f3c e188 803e 1c09 803d 768d 223e
000001b0: bb56 d2bd 9783 19be fa86 933d 178e 763d
000001c0: 7636 46bc f2e7 eabd 1843 313e 63dc 0b3d
000001d0: 776f 8a3b 07df 0fbe a5ac 663e 6f88 3a3e
000001e0: 886e e23c 3f9f 823d c225 86bd 9b0f cdbd
000001f0: 2a65 b23d 856b ddbd 7dca 223e 8886 e33c
00000200: a6d9 2cbc 86ba aa3d 5ffb c83d 8802 2f3d
00000210: c8e0 07be d07f adbc 1969 323d 4e0d 7ebd
00000220: d6c7 213e e534 1d3e c851 22be da3d dfbc
00000230: 54b0 d6bc 95b8 ce3d 5d4d d7bd 280c f53d
00000240: 3c08 803d 037e 2cbe ca12 47bd db20 e33d
00000250: 7707 45be cd8b 1bbe 722f ed3c 936c c8bd
00000260: 42cb ed3d a287 46bd fbd7 003e a069 7cbe
00000270: 5b4b 403e d064 873d c211 fa3d 8f70 b93d
00000280: c129 1ebc e5bd 80bd 7a5d 1cbe cccb b63c
00000290: 01b4 55be c87a 403e ee49 893d 60b5 e83c
000002a0: d00f 053e 7cd3 42bd 6528 5f3c f1e2 8abd
000002b0: 7796 6f3c f6b0 82bd d3db 01be 6f83 3b3e
000002c0: 32de 30be f037 50bd 6b7f 0cbe a8fb a4bd
000002d0: acd2 a73d 7cdf 04bd 0c5a 9c3d dfbf f83c
000002e0: 35cd 11be 7056 ec39 9b8f c1bd a461 cabd
000002f0: 10ae 1d3d 25f9 b7bd 9cfd a3bd ddef ef3c
00000300: 4fdb 6dbd dafe 5abd 9063 30bd 0f88 b13d
00000310: a18f 863d 2f0e c23d 7190 093e 889a f73d
00000320: b837 d6bd 42bd 213e 0781 93bc 7134 973c
00000330: a25f 343d f853 9bbd 4cd2 013e 657e 35be
00000340: a692 1fbd e557 40bd f167 dbbd da36 333e
00000350: 7e60 173e 8294 3d3c b432 1e3d 2b81 103e
00000360: cec4 6abc 4fde b3bd 1dca fbbc e8a9 433c
00000370: 61e0 2abd a235 423d 674a 89bd d5d0 b6bd
00000380: 436d 063d 9d5d 24be 0060 103e f149 85bd
00000390: bef8 133e 9a86 213e 02f4 a4bd e768 12be
000003a0: 2dc5 3c3d d764 f9bd aff0 013d 2115 5abb
000003b0: ce25 c1bd 2a32 95be e7c4 a0be f90c 4cbc
000003c0: be2c 213d 710e 2bbe 46aa 66be fd32 d4bc
000003d0: d809 d73d 2493 163d 1351 7b3d 9873 293d
000003e0: b3a6 ecbd 5f8c 61be ed85 ac3d 6632 1bbe
000003f0: bca4 8bbe 6705 04bc 7000 ff3c 2106 253e

network_body._body_endoder.seq_layers.2.bias f4 [128]
-0.018701926 0.0014631998 -0.074952856 -0.00018584165 -0.03601195 0.0053693657 -0.092747875 -0.040808387
-0.02998501 -0.020435242 -0.03370487 -0.10023064 -0.058606118 -0.1023025 -0.13648795 -0.10921306
-0.12608175 -0.03550936 -0.04906926 -0.0982044 -0.0040673227 -0.028291568 -0.074817725 -0.0810583
-0.19434537 0.023275707 0.03186978 -0.014802079 -0.055156536 0.0363009 -0.053752236 -0.06989875
-0.07311088 -0.10382574 -0.11380352 0.054499146 0.051158343 -0.023967728 -0.08341875 -0.09725984
-0.025222518 -0.03882716 0.036089897 -0.19998325 -0.08329327 -0.013124763 -0.038358215 -0.03190999
-0.019849064 -0.034238294 -0.00077601225 0.025834287 -0.064101554 -0.009758476 -0.10104218 -0.023551334
-0.013403342 -0.022455446 -0.14335907 -0.08272882 -0.14318658 -0.08540192 -0.040003505 -0.014526459
-0.043461807 -0.014112323 -0.20589742 0.021819392 -0.051097732 -0.0885186 0.027887149 -0.11627298
-0.0049590543 0.0413665 -0.15099 -0.025498847 -0.021825034 -0.09688033 -0.008226478 -0.063079335
0.0037593523 -0.21903394 -0.18049972 -0.005627825 -0.114184774 -0.16534941 0.004765854 0.017028403
-0.056884397 -0.021371862 -0.122090064 -0.007306714 0.01657737 -0.07391263 -0.012134432 -0.056335
-0.04280846 0.029099433 -0.026674058 -0.018006686 -0.09070612 -0.15691394 0.00032702283 -0.19047645
0.029777223 0.009501809 -0.10695176 -0.023802033 -0.08104149 0.0064502563 -0.018186715 -0.13874488
-0.022635218 -0.029270008 -0.030579302 -0.017673895 -0.0066472907 -0.061857153 0.02427965 -0.09932242
0.025766095 -0.17663856 0.026281457 -0.032157566 -0.09373751 -0.048791643 -0.1296746 -0.020858107
00000000: c834 99bc d7c8 bf3a e280 99bd 7dde 42b9
00000010: 4481 13bd 81f1 af3b 99f2 bdbd b226 27bd
00000020: 20a3 f5bc cf67 a7bc 1e0e 0abd b945 cdbd
00000030: f80c 70bd f983 d1bd 7fc3 0bbe 19ab dfbd
00000040: 931b 01be 4372 11bd d9fc 48bd 631f c9bd
00000050: 2d47 85bb b8c3 e7bc 093a 99bd e501 a6bd
00000060: 7902 47be b2ac be3c e389 023d 6b84 72bc
00000070: d2eb 61bd 41b0 143d 4e2b 5cbd 1327 8fbd
00000080: 28bb 95bd 97a2 d4bd d211 e9bd 7f3a 5f3d
00000090: 698b 513d f857 c4bc 73d7 aabd 2b30 c7bd
000000a0: 749f cebc 3a09 1fbd 00d3 133d 69c8 4cbe
000000b0: a995 aabd 3f09 57bc 811d 1dbd 0db4 02bd
000000c0: 819a a2bc 743d 0cbd 4d6d 4bba 6da2 d33c
000000d0: ad47 83bd 04e2 1fbc 34ef cebd baee c0bc
000000e0: b199 5bbc 7cf4 b7bc b8cc 12be ba6d a9bd
000000f0: 819f 12be 34e7 aebd b7da 23bd 6300 6ebc
00000100: 0205 32bd 5f37 67bc c6d6 52be 95be b23c
00000110: db4b 51bd 3d49 b5bd 9773 e43c 8720 eebd
00000120: 907f a2bb eb6f 293d 1f9d 1abe f5e2 d0bc
00000130: 6aca b2bc 3269 c6bd 59c8 06bc bd2f 81bd
00000140: 775f 763b 6f4a 60be ebd4 38be 9e69 b8bb
00000150: b5d9 e9bd 5b51 29be e22a 9c3b 267f 8b3c
00000160: 9dff 68bd 0b14 afbc 5b0a fabd 296d efbb
00000170: 44cd 873c 815f 97bd 7fcf 46bc 87bf 66bd
00000180: ec57 2fbd ef61 ee3c 8e83 dabc c282 93bc
00000190: 21c4 b9bd 0cae 20be 4374 ab39 420c 43be
000001a0: 5def f33c 7aad 1b3c 8609 dbbd 7bfc c2bc
000001b0: 15f9 a5bd ac5c d33b 4efc 94bc 2313 0ebe
000001c0: 7e6d b9bc a8c7 efbc 7281 fabc d8c8 90bc
000001d0: 84d1 d9bb ed5d 7dbd 1ee6 c63c 8e69 cbbd
000001e0: 6b13 d33c bde0 34be 364c d73c a7b7 03bd
000001f0: 74f9 bfbd bfd9 47bd 6bc9 04be 9fde aabc

action_model._continuous_distribution.log_sigma f4 [1, 2]
-0.036994345 -0.08636795
00000000: 6287 17bd aee1 b0bd

action_model._continuous_distribution.mu.weight f4 [2, 128]
-0.028407475 0.02821568 -0.03681791 0.027473763 -0.0058135204 -0.073761106 -0.006545557 -0.0037628582
-0.031303443 -0.061757013 -0.034171507 -0.029360453 0.026033796 -0.0061720014 0.040137663 0.026720652
0.010718183 -0.1122715 0.045490667 0.0031725438 0.058385074 -0.023860846 0.002516019 -0.0077132178
-0.021378262 0.035021476 -0.04262961 0.004612119 -0.0609765 -0.07160133 -0.05132749 0.013101065
-0.024848027 0.015635435 0.014600247 -0.08189343 0.059800036 -0.0066122287 -0.041058663 0.029128082
0.012259369 -0.008143115 -0.08122227 -0.026668737 0.05505065 -0.03601431 0.003396154 -0.06676182
0.0103232 -0.030059299 -0.04758998 0.03531087 0.0055282996 -0.016591 0.008332205 0.0100068
-0.022770727 0.092903756 0.0078067067 0.015727289 0.0034535744 -0.038970213 -0.03441567 -0.0049809124
-0.020450875 -0.012040754 -0.017545588 0.038661722 0.0145076895 0.01683416 -0.013284758 -0.029591853
0.018791195 0.108019456 -0.021540226 -0.011078144 0.014490492 -3.5082205e-05 0.03253768 -0.065820366
0.043773975 0.004559504 -0.033470027 0.048654713 -0.04541105 0.0094451485 -0.04321374 0.009680693
-0.081928715 -0.011038215 -0.009976659 0.07081172 -0.030909425 -0.034823567 -0.0768322 0.0010819823
-0.056635372 0.05254213 0.025621653 0.051400326 0.028502539 -0.004843319 0.0182017 0.0069323047
0.01195285 -0.03652405 0.024902336 0.00258472 -0.032233838 0.0287867 -0.047048517 0.010802022
-0.029831484 0.0021280898 -0.0045353076 -0.040086683 0.0010146578 0.0022919883 0.15361583 0.006528108
-0.05387766 -0.010384336 0.09220814 -0.02168121 -0.025976421 -0.039699547 -0.042259987 0.13064139
0.11362009 -0.04917593 0.111087605 0.10881494 -0.011173181 0.034995463 0.06417591 -0.0046652686
0.0050758747 0.08455314 -0.007094095 -0.0051422045 0.0501592 -0.028347211 -0.012804499 -0.009327492
-0.026116865 -0.003120904 0.011638818 0.039831955 -0.008047342 0.11613618 -0.016957931 -0.06006539
-0.0054833195 -0.0233046 0.023782313 -0.045822345 0.11480723 -0.07281682 0.052601486 0.0016040303
0.086242616 -0.015005508 -0.03817454 -0.123835795 -0.07405943 0.007660064 0.10969914 -0.011466234
-0.010734848 0.0980648 0.051669553 -0.012006404 -0.040096845 0.034652203 -0.00010510996 0.08602521
-0.0095176 0.004490362 0.04286252 0.009120203 -0.009165346 -0.0093025295 -0.0030808758 0.014595615
-0.014307136 0.019042594 -0.01929635 0.040727876 0.0076296455 0.074741155 0.14733674 0.010040252
0.041485745 0.0162464 -0.013468028 -0.0499235 0.032494638 -0.007928272 0.028008323 0.020033251
-0.019105498 0.0038933116 0.044223975 0.015193122 0.08056539 -0.0040434566 -0.012786692 0.0531637
0.023953103 -0.0103589995 -0.022143155 -0.00832145 0.01525368 -0.004111452 -0.08662256 -0.020951567
-0.08207202 -0.058901146 -0.025932088 0.015732976 0.07108894 0.05332685 0.05970358 -0.08199876
0.13209721 -0.004299676 0.0056770756 -0.041014936 -0.006568422 -0.014781037 0.005860496 -0.027114198
0.00630121 -0.0423034 0.102756515 -0.086595975 -0.041109897 -0.036823798 -0.039646063 -0.023529904
0.12373348 0.0042294962 -0.023898713 0.1115103 0.10682915 -0.019804515 0.008406161 -0.021418698
0.10834264 -0.013909489 0.07314334 0.10604809 0.006535296 0.09654592 0.0031313766 -0.10113359
00000000: cbb6 e8bc 9224 e73c 60ce 16bd a810 e13c
00000010: 587f bebb 1010 97bd 1d7c d6bb 499a 76bb
00000020: 0a38 00bd ecf4 7cbd 6cf7 0bbd 5585 f0bc
00000030: d444 d53c 803e cabb 6467 243d 45e5 da3c
00000040: 519b 2f3c 9aee e5bd 6c54 3a3d 74ea 4f3b
00000050: 3025 6f3d d277 c3bc cbe3 243b 29bf fcbb
00000060: 7721 afbc ae72 0f3d 639c 2ebd 4221 973b
00000070: 7fc2 79bd b8a3 92bd c63c 52bd d9a5 563c
00000080: 178e cbbc e215 803c e035 6f3c beb7 a7bd
00000090: e2f0 743d 65ab d8bb 212d 28bd 049e ee3c
000000a0: 85db 483c b36a 05bc dd57 a6bd 6578 dabc
000000b0: ca7c 613d be83 13bd 0292 5e3b 6cba 88bd
000000c0: a422 293c eb3e f6bc b6ed 42bd 21a2 103d
000000d0: bd26 b53b d9e9 87bc cd83 083c 90f3 233c
000000e0: ad89 babc 5344 be3d 67cf ff3b 84d6 803c
000000f0: 5d55 623b 3b9f 1fbd 72f7 0cbd ec36 a3bb
00000100: 9888 a7bc 9546 45bc c4bb 8fbc c15b 1e3d
00000110: a9b1 6d3c cbe7 893c 50a8 59bc 9d6a f2bc
00000120: feef 993c 4e39 dd3d 2175 b0bc 1b81 35bc
00000130: 8769 6d3c 3b25 13b8 3b46 053d d4cc 86bd
00000140: 574c 333d e467 953b de17 09bd 2a4a 473d
00000150: f000 3abd d3bf 1a3c e400 31bd c59b 1e3c
00000160: 3eca a7bd a1d9 34bc 2475 23bc bc05 913d
00000170: c335 fdbc 28a3 0ebd 335a 9dbd 4dd1 8d3a
00000180: 7efa 67bd 6b36 573d 80e4 d13c 2689 523d
00000190: 287e e93c b4b4 9ebb bb1b 953c 6328 e33b
000001a0: e3d5 433c 3e9a 15bd fcff cb3c 6864 293b
000001b0: a107 04bd 16d2 eb3c f2b5 40bd f7fa 303c
000001c0: 2861 f4bc 6c77 0b3b eb9c 94bb ef31 24bd
000001d0: 44fe 843a 2f35 163b 784d 1d3e bde9 d53b
000001e0: d2ae 5cbd 1023 2abc 9fd7 bc3d cb9c b1bc
000001f0: 81cc d4bc fe9b 22bd cf18 2dbd dbc6 053e
00000200: a6b1 e83d b36c 49bd e681 e33d 5eda de3d
00000210: b80f 37bc 6757 0f3d a96e 833d 1cdf 98bb
00000220: 8653 a63b 322a ad3d 9575 e8bb f07f a8bb
00000230: bc73 4d3d 6938 e8bc f6c9 51bc 56d2 18bc
00000240: 09f3 d5bc 1588 4cbb beb0 3e3c d526 233d
00000250: 00d9 03bc ced8 ed3d 5ceb 8abc 2007 76bd
00000260: 6bad b3bb 4ae9 bebc 20d3 c23c 36b0 3bbd
00000270: 0e20 eb3d fc20 95bd a874 573d 533e d23a
00000280: f89f b03d aad9 75bc e85c 1cbd 9f9d fdbd
00000290: 78ac 97bd 4601 fb3b f1a9 e03d dfdc 3bbc
000002a0: 37e1 2fbc 33d6 c83d 74a3 533d 82b6 44bc
000002b0: 973c 24bd 78ef 0d3d 7b6e dcb8 fc2d b03d
000002c0: b5ef 1bbc e323 933b 9c90 2f3d e76c 153c
000002d0: 3f2a 16bc a369 18bc 85e8 49bb 7222 6f3c
000002e0: 7a68 6abc 37ff 9b3c 6113 9ebc 46d2 263d
000002f0: 1b02 fa3b e411 993d 71df 163e de7f 243c
00000300: f5ec 293d 2c17 853c 01a9 5cbc 957c 4cbd
00000310: 1919 053d 95e5 01bc b671 e53c c61c a43c
00000320: 2283 9cbc ee26 7f3b 3324 353d 93ec 783c
00000330: 78ff a43d f97e 84bb 467f 51bc 2ec2 593d
00000340: 4c39 c43c cbb8 29bc 9065 b5bc b156 08bc
00000350: 92ea 793c 5cb9 86bb 2b67 b1bd 9fa2 abbc
00000360: 6015 a8bd 5442 71bd 886f d4bc 71e2 803c
00000370: 1497 913d 416d 5a3d be8b 743d f7ee a7bd
00000380: 7e44 073e 4ce4 8cbb c306 ba3b 47ff 27bd
00000390: eb3b d7bb 2a2c 72bc 6709 c03b 981e debc
000003a0: 617a ce3b 5446 2dbd 0272 d23d 3b59 b1bd
000003b0: da62 28bd 8dd4 16bd e963 22bd c9c1 c0bc
000003c0: fb67 fd3d 9697 8a3b 3cc7 c3bc 835f e43d
000003d0: 3ec9 da3d 143d a2bc ffb9 093c 4476 afbc
000003e0: bfe2 dd3d a0e4 63bc 2dcc 953d be2f d93d
000003f0: 0926 d63b deb9 c53d c837 4d3b 211f cfbd

action_model._continuous_distribution.mu.bias f4 [2]
-0.010773321 -0.0058431
00000000: 9582 30bc 7a77 bfbb

exp_avg f4 [128, 6]
-0.21333905 -82.64851 0.3925264 -0.040697206 -25.60422 0.05382919 -0.001587854 -0.093153335
0.002004945 0.03723521 -0.13739593 0.011439687 0.16130553 61.762104 -0.29274237 0.01156603
18.999083 -0.043399293 0.0015859036 0.0040306915 0.002268248 0.001242447 0.0039901347 0.0020288718
0.21675777 82.58217 -0.39217675 -0.015546732 25.780586 -0.06853972 -0.00059018156 -0.0020979706
-0.0012160537 -0.0008024596 -0.0021145523 -0.0010111957 -0.00015671927 -0.020548325 4.825543e-05 -6.494929e-05
-0.04039374 0.00013440948 -1.711924e-05 -3.349976e-05 5.6173676e-06 1.36398e-05 -3.3526372e-05 3.1591688e-05
0.5968374 228.47432 -1.0830946 0.031117033 70.30082 -0.16538909 0.0001629141 0.0017229621
0.0003173423 0.00076361606 0.001772984 0.0013028589 -0.0014805783 -0.013334584 -0.0018950766 0.0026869734
-0.018063992 -0.00024848455 0.56286746 215.40976 -1.0214107 0.026229484 66.25112 -0.15652402
0.38056925 145.6946 -0.6906881 0.019809341 44.784054 -0.1054039 0.20904958 80.74353
-0.38280898 0.0406672 24.781712 -0.050578963 0.60800815 232.78226 -1.103621 0.031454187
71.61349 -0.16868183 0.31072456 118.85839 -0.56342036 0.012809161 36.54609 -0.08684168
-0.087868445 -33.528675 0.15738265 -0.013724857 -10.364656 0.021467661 0.13732167 53.008953
-0.25123307 0.02651716 16.144337 -0.032877207 0.55987066 214.14813 -1.0149462 0.023757813
65.82033 -0.15616952 0.12259071 47.351135 -0.2241101 0.023650095 14.385245 -0.029652491
0.0009408781 0.0023994127 0.0006980336 0.00083752803 0.0023362497 0.0017644053 0.30242845 115.44034
-0.5472742 0.0011636945 35.447117 -0.0872384 0.004562188 0.17162189 -0.0013009567 -0.07091717
0.24301217 -0.019465644 -0.009283408 -1.9960301 0.002713033 -0.005373355 -0.6744901 -0.0042305896
0.3684663 140.90921 -0.6662432 0.039651446 43.428757 -0.09465559 -0.4242305 -165.57404
0.7929145 -0.07934438 -51.02536 0.10966781 0.24323653 93.16432 -0.441633 0.015628338
28.655163 -0.06651119 -0.0018172924 -0.005705188 -0.0023175161 -0.002220131 -0.00571318 -0.0033496297
-0.0021167279 -0.0066535883 -0.0031679114 -0.002545918 -0.0066363825 -0.0036468748 -0.22867784 -86.85434
0.4084439 -0.007820985 -26.700626 0.06280267 0.3299906 126.44028 -0.5994125 0.021661866
38.93592 -0.090491846 0.39308926 150.69002 -0.71454424 0.02769718 46.370064 -0.10727395
0.6227946 238.76514 -1.1317965 0.04831363 73.53732 -0.16880612 0.41234785 157.68303
-0.7477264 0.012521279 48.43656 -0.11643376 0.0025184094 0.099431776 -0.0013021545 -0.03970197
0.14263704 -0.010348715 0.0074506053 0.28028908 -0.0020125774 -0.114743665 0.39780694 -0.031349454
0.0011158744 0.0026560694 0.00084741175 0.00084936555 0.0026082962 0.0017453948 -0.0026409056 -0.0077816704
-0.0035756044 -0.002851272 -0.0077566276 -0.0045251283 0.30206963 115.16763 -0.5441861 0.012990005
35.39736 -0.083204634 -0.0005729903 -0.0014752406 -0.0010898301 -0.00060538494 -0.0014675464 -0.0005466888
-0.00016285533 -0.019860806 -0.00025051826 -0.0001620578 -0.038879696 0.00010693139 -0.000264509 -0.0013487883
-0.0007069081 -0.00053590786 -0.0013829814 -0.0006699799 0.41676435 159.57455 -0.7565921 0.021223862
00000000: 8d75 5abe 0a4c a5c2 38f9 c83e 1db2 26bd
00000010: 71d5 ccc1 ff7b 5c3d 8a1f d0ba 2dc7 bebd
00000020: 6565 033b f383 183d 85b1 0cbe 866d 3b3c
00000030: 472d 253e 650c 7742 54e2 95be 727f 3d3c
00000040: 1ffe 9741 75c3 31bd 18de cf3a e413 843b
00000050: e3a6 143b 9ad9 a23a adbf 823b d2f6 043b
00000060: c0f5 5d3e 122a a542 64cb c8be b8b7 7ebc
00000070: a43e ce41 8d5e 8cbd 6ab6 1aba 1b7e 09bb
00000080: fe63 9fba 275c 52ba 4d94 0abb 198a 84ba
00000090: 0255 24b9 f654 a8bc e065 4a38 6235 88b8
000000a0: e873 25bd 45f0 0c39 4a9b 8fb7 1882 0cb8
000000b0: d27c bc36 7fd6 6437 ab9e 0cb8 5181 0438
000000c0: 56ca 183f 6d79 6443 d8a2 8abf 26e9 fe3c
000000d0: 059a 8c42 c25b 29be ecd3 2a39 04d5 e13a
000000e0: f660 a639 682d 483a 7963 e83a b1c4 aa3a
000000f0: f70f c2ba 4d79 5abc 3864 f8ba ef17 303b
00000100: f0fa 93bc 0847 82b9 1518 103f e668 5743
00000110: 96bd 82bf 37df d63c 9380 8442 d547 20be
00000120: f9d9 c23e d1b1 1143 efd0 30bf 3347 a23c
00000130: df22 3342 00de d7bd 1811 563e b07c a142
00000140: 8aff c3be a692 263d f240 c641 e32b 4fbd
00000150: 6ca6 1b3f 42c8 6843 7443 8dbf 1bd6 003d
00000160: 1b3a 8f42 eeba 2cbe 4a17 9f3e 7fb7 ed42
00000170: 513c 10bf 84dd 513c 322f 1242 0dda b1bd
00000180: 5ff4 b3bd 5d1d 06c2 eb28 213e 39de 60bc
00000190: a2d5 25c1 f3dc af3c 0d9e 0c3e 2b09 5442
000001a0: 9fa1 80be 843a d93c 9a27 8141 40aa 06bd
000001b0: af53 0f3f ec25 5643 c2e9 81bf bf9f c23c
000001c0: 02a4 8342 e7ea 1fbe d710 fb3d 9067 3d42
000001d0: 1e7d 65be d8bd c13c f729 6641 c8e9 f2bc
000001e0: 43a5 763a 773f 1d3b 3efc 363a 8e8d 5b3a
000001f0: c41b 193b 9e43 e73a e7d7 9a3e 74e1 e642
00000200: 291a 0cbf 1c87 983a d9c9 0d42 0caa b2bd
00000210: 687e 953b a6bd 2f3e dd84 aaba 053d 91bd
00000220: 2fd8 783e 6a76 9fbc 6f19 18bc ea7d ffbf
00000230: 24cd 313b f812 b0bb 62ab 2cbf c2a0 8abb
00000240: 9da7 bc3e c2e8 0c43 ea8e 2abf 8e69 223d
00000250: 0cb7 2d42 cada c1bd bd34 d9be f492 25c3
00000260: 72fc 4a3f 4e7f a2bd f819 4cc2 8499 e03d
00000270: ff12 793e 2254 ba42 b81d e2be 0007 803c
00000280: c63d e541 0537 88bd 3732 eeba 96f2 babb
00000290: 78e1 17bb 9e7f 11bb a135 bbbb 7685 5bbb
000002a0: cdb8 0abb 5806 dabb bc9c 4fbb 6bd9 26bb
000002b0: 0376 d9bb 6800 6fbb 862a 6abe 6cb5 adc2
000002c0: 8f1f d13e 9723 00bc e29a d5c1 b09e 803d
000002d0: 87f4 a83e 6ce1 fc42 1973 19bf 3a74 b13c
000002e0: 62be 1b42 ca53 b9bd ff42 c93e a5b0 1643
000002f0: 5fec 36bf 32e5 e23c f27a 3942 72b2 dbbd
00000300: 786f 1f3f e0c3 6e43 b5de 90bf 83e4 453d
00000310: 1c13 9342 83db 2cbe 421f d33e dbae 1d43
00000320: ff6a 3fbf 0d26 4d3c 0abf 4142 d374 eebd
00000330: e60b 253b e3a2 cb3d 0ead aaba 889e 22bd
00000340: 720f 123e a88d 29bc 3524 f43b 0d82 8f3e
00000350: 72e5 03bb bafe eabd 5aad cb3e 4968 00bd
00000360: 8842 923a 7311 2e3b d724 5e3a f5a7 5e3a
00000370: f3ef 2a3b bbc5 e43a 0b13 2dbb 62fd febb
00000380: b054 6abb 68dc 3abb 4f2b febb 8747 94bb
00000390: dfa8 9a3e d455 e642 c84f 0bbf 08d4 543c
000003a0: e696 0d42 3167 aabd ba34 16ba dc5c c1ba
000003b0: a1d8 8eba b2b2 1eba b05a c0ba aa4f 0fba
000003c0: 25c4 2ab9 21b3 a2bc fe57 83b9 0fee 29b9
000003d0: 5140 1fbd 5a40 e038 ccad 8ab9 d3c9 b0ba
000003e0: cd4f 39ba 2b7c 0cba 2845 b5ba 97a1 2fba
000003f0: 2362 d53e 1693 1f43 05b0 41bf aadd ad3c

exp_avg_sq f4 [128, 6]
0.07322078 4889.1025 0.11855242 0.41659254 479.51376 0.037043188 0.03858136 138.24026
0.012209591 3.379402 51.71646 0.25317252 0.060895987 6887.584 0.1334077 1.0991622
2241.4697 0.14343204 0.0002299756 0.066898786 0.00029799153 0.010837485 1734.2588 0.06543877
0.44571608 50405.242 0.9286617 9.355573 25723.969 1.3667893 3.495233e-05 0.00012659686
1.621614e-05 3.5598478e-05 0.00012892128 6.879515e-05 0.016504275 622.6487 0.020343963 0.11288615
15146.589 0.48037845 4.054986e-05 7.222058e-05 9.518261e-06 4.1367486e-05 7.161817e-05 6.0660113e-06
0.92371786 104165.98 1.9239237 19.445955 48949.586 2.877165 0.00031448068 0.0007740239
0.00016224444 0.00032402328 0.0007808883 0.00017455975 0.00038752935 0.34507757 8.842314e-05 0.048569016
0.74481994 0.0036503947 0.8169406 97437.266 1.7584623 18.168968 44453.523 2.653837
0.3912928 45607.58 0.86333203 7.740583 19188.102 1.1353335 0.0949098 11470.376
0.21673283 0.063126385 3510.1646 0.10443321 0.8367365 108900.445 2.0179877 19.73576
48213.848 2.8711462 0.2821042 32326.672 0.59213006 6.001807 10525.838 0.7467106
0.008175479 1084.0944 0.02551883 0.047382724 100.92321 0.004880788 0.09228872 12337.865
0.21991606 0.07796906 4193.981 0.12714323 0.957867 108704.58 2.0071757 19.548107
49412.12 2.9172525 0.091336906 13687.396 0.24315871 0.08685681 4686.5195 0.14434779
0.09998644 1.258517 0.007475973 0.001126565 0.5674611 0.00020163917 0.3525958 41302.9
0.74507016 8.495201 19380.676 1.1968279 0.21874252 14788.472 0.09288123 13.445365
30566.557 1.9086055 0.010915164 1434.9805 0.03328132 0.0021830555 132.84483 0.003213215
0.23236838 24933.547 0.5125674 3.351087 9741.501 0.53388655 0.28353783 23088.225
0.51121414 0.034219727 2245.1873 0.057180077 0.1486253 16636.113 0.31575093 2.759183
6935.924 0.40809706 0.00021682352 0.0006789937 9.120388e-05 0.00048208763 0.0013054791 0.00020044608
0.0013267617 27.689615 0.0015222487 0.013626962 1894.2983 0.0694673 0.15908271 18939.023
0.34610924 3.714082 6364.023 0.45957065 0.25193948 27409.3 0.51026845 4.969612
10326.092 0.6574146 0.3413559 39820.777 0.7678382 6.354047 11626.821 0.7971284
0.77660847 87605.516 1.6128839 15.029685 38781.37 2.2452006 0.5533778 64373.254
1.1873807 11.947245 29112.2 1.7474868 0.040402595 4237.4385 0.025497917 4.16125
8754.058 0.5660187 0.5617412 38388.11 0.23863855 35.26614 73293.89 4.7451878
9.744455e-05 0.0003211948 5.2582676e-05 9.828451e-05 0.00032421696 8.848975e-05 0.00022319001 0.00076068204
0.00024281694 0.00024123344 0.00077240734 0.00028197156 0.26197332 30688.713 0.58043313 5.5312514
13202.85 0.7951273 3.9446993e-05 8.9978865e-05 3.4508277e-05 3.5890094e-05 8.841642e-05 8.850407e-06
0.007893067 288.99005 0.009624721 0.06653623 9106.312 0.3043614 0.00016078251 0.0003909232
4.6496345e-05 0.0001474114 0.00042986294 0.00012783005 0.46832752 53768.926 1.0052305 9.505668
00000000: c7f4 953d d2c8 9845 9ccb f23d 9e4b d53e
00000010: c3c1 ef43 99ba 173d 7d07 1e3d 823d 0a43
00000020: bd0a 483c 1f48 5840 a8dd 4e42 d49f 813e
00000030: 126e 793d ac3c d745 079c 083e 59b1 8c3f
00000040: 8417 0c45 d9df 123e 9b25 7139 3b02 893d
00000050: bf3b 9c39 b58f 313c 48c8 d844 c304 863d
00000060: e634 e43e 3ee5 4447 c6bc 6d3f 6db0 1541
00000070: f0f7 c846 f4f2 ae3f c799 1238 16bf 0439
00000080: e507 8837 934f 1538 0b2f 0739 1d46 9038
00000090: f933 873c 84a9 1b44 62a8 a63c db30 e73d
000000a0: 5baa 6c46 2af4 f53e 1514 2a38 2175 9738
000000b0: 9fb0 1f37 0082 2d38 b631 9638 a48a cb36
000000c0: c678 6c3f fd72 cb47 2243 f63f 5191 9b41
000000d0: 9635 3f47 7923 3840 e2e0 a439 dde7 4a3a
000000e0: 2920 2a39 abe1 a939 87b4 4c3a 070a 3739
000000f0: 4f2d cb39 02ae b03e d06f b938 4ef0 463d
00000100: 85ac 3e3f 763b 6f3b 0523 513f a24e be47
00000110: 4b15 e13f 0c5a 9141 86a5 2d47 77d8 2940
00000120: 8857 c83e 9427 3247 5403 5d3f dbb2 f740
00000130: 34e8 9546 9c52 913f 1260 c23d 8139 3346
00000140: 36ef 5d3e 6848 813d a262 5b45 14e1 d53d
00000150: 5d34 563f 39b2 d447 b626 0140 d6e2 9d41
00000160: d955 3c47 dcc0 3740 f66f 903e 588d fc46
00000170: d695 173f ce0e c040 5a77 2446 6d28 3f3f
00000180: 72f2 053c 0583 8744 de0c d13c 6314 423d
00000190: afd8 c942 04ef 9f3b de01 bd3d 76c7 4046
000001a0: ad31 613e 3eae 9f3d d90f 8345 d631 023e
000001b0: c636 753f 4a50 d447 9175 0040 8662 9c41
000001c0: 1f04 4147 44b4 3a40 d80e bb3d 96dd 5546
000001d0: 99fe 783e fce1 b13d 2874 9245 e8cf 133e
000001e0: b1c5 cc3d 1617 a13f 02f9 f43b 40a9 933a
000001f0: 2145 113f 1a6f 5339 7087 b43e e656 2147
00000200: ebbc 3e3f 58ec 0741 5a69 9746 a831 993f
00000210: 0afe 5f3e e311 6746 8438 be3d 3720 5741
00000220: 1dcd ee46 2f4d f43f 84d5 323c 605f b344
00000230: fe51 083d 9811 0f3b 47d8 0443 cd94 523b
00000240: faf1 6d3e 18cb c246 9e37 033f 3678 5640
00000250: 0136 1846 caac 083f df2b 913e 7360 b446
00000260: eede 023f fc29 0c3d ff52 0c45 a835 6a3d
00000270: 3b31 183e 3af8 8146 1baa a13e 7496 3040
00000280: 64bf d845 19f2 d03e 1f5b 6339 7ffe 313a
00000290: b644 bf38 b5c0 fc39 9c1c ab3a d62e 5239
000002a0: bce6 ad3a 5584 dd41 3186 c73a 9f43 5f3c
000002b0: 8cc9 ec44 df44 8e3d 94e6 223e 0cf6 9346
000002c0: 3b35 b13e 85b3 6d40 2fe0 c645 d84c eb3e
000002d0: 36fe 803e 9a22 d646 f4a0 023f 1007 9f40
000002e0: 5e58 2146 534c 283f 33c6 ae3e c78c 1b47
000002f0: 0b91 443f 5a54 cb40 49ab 3546 9b10 4c3f
00000300: d0cf 463f c21a ab47 fb72 ce3f 9779 7041
00000310: 5f7d 1747 5eb1 0f40 2baa 0d3f 4175 7b47
00000320: 17fc 973f ea27 3f41 6670 e346 a6ad df3f
00000330: 317d 253d 826b 8445 02e1 d03c f628 8540
00000340: 3bc8 0846 9ae6 103f 45ce 0f3f 1cf4 1547
00000350: aa5d 743e 8710 0d42 f226 8f47 94d8 9740
00000360: 255b cc38 0966 a839 388c 5c38 181e ce38
00000370: aafb a939 9393 b938 1d08 6a39 8268 473a
00000380: ad9c 7e39 9cf3 7c39 617b 4a3a 95d5 9339
00000390: 5e21 863e 6dc1 ef46 4497 143f 0300 b140
000003a0: 664b 4e46 768d 4b3f e373 2538 09b3 bc38
000003b0: fbbc 1038 b288 1638 346c b938 357c 1437
000003c0: ec51 013c ba7e 9043 01b1 1d3c 2644 883d
000003d0: 3f49 0e46 42d5 9b3e ba97 2839 d3f4 cc39
000003e0: 1205 4338 7292 1a39 3a5f e139 1e0a 0639
000003f0: a0c8 ef3e ed08 5247 65ab 803f 3717 1841

exp_avg f4 [128]
0.0021836138 0.00071826804 -0.000997716 0.0010015641 -0.0019380781 -0.0005294846 4.832026e-05 -8.3463665e-06
-0.00432142 0.00044820944 -0.00073339324 -0.0040843226 -0.0027726477 -0.0015862205 -0.0044681374 -0.0022297634
0.00019340299 -0.0009998349 -0.0039593535 -0.0008979692 0.00058013236 -0.002190407 -0.00010452988 -0.0027098195
-0.0018221699 0.0062294425 -0.0017191295 -0.0014267557 -0.0016643042 0.0006492784 -0.0024152189 -0.0029170215
-0.0044926596 -0.0030710301 -6.2811334e-05 -0.00010733907 0.0006489597 -0.0019405872 -0.0015705442 -0.0003661396
-1.5376172e-05 -0.00034830577 -0.0030979454 -0.0034175082 0.0010101431 0.00093933946 -0.0007820309 -0.0006059179
-0.0037499412 -0.0027892783 -0.00048703607 -0.0016012241 -2.9451081e-05 -0.0014810939 -0.0010533989 -0.0011520009
-0.0031185306 -8.0948885e-05 0.0017307475 -0.0019648205 0.0010055458 -0.004584629 -0.00080692023 1.0159876e-06
-0.00010925237 -0.0031389012 -0.0015261862 -0.0007668878 0.00032929317 -0.0015121519 0.00042705124 -0.00066001015
0.001077113 -0.0023955062 -0.0011974239 -0.0006436697 -0.0024588904 -9.260444e-05 -0.0033548377 0.0014726787
-0.0036059616 0.0007727141 0.00047354217 0.0023908678 -0.001743202 -0.0013853817 -0.002692013 -0.003750873
-0.0015921185 -0.004463384 0.0015732098 -0.0027186407 -0.0032157777 0.001946102 -0.0041585425 0.0003246849
0.00030556633 -0.0016077867 0.0010478173 -0.0002621254 -0.00010616461 -0.00052336586 -0.00029011263 -0.0025965911
-5.994527e-06 -7.315316e-05 -0.001577057 -0.0003142838 -0.0022320515 0.0021295082 0.00079188653 0.002117095
-2.6688027e-05 0.0011088172 -0.00063992135 0.0005318168 -0.0015062109 -0.0016376001 -0.0037733002 -0.0040579136
-0.00073957175 -0.0012007724 -0.00010386028 0.00022071056 -0.00025341875 -0.0013379544 -0.0012648376 5.1065712e-05
00000000: f61a 0f3b 274a 3c3a cbc5 82ba ea46 833a
00000010: 1c07 feba 1ccd 0aba 7cab 4a38 5f07 0cb7
00000020: b39a 8dbb a7fd ea39 3041 40ba c8d5 85bb
00000030: 4fb5 35bb bae8 cfba 7469 92bb 3921 12bb
00000040: 38cc 4a39 e40c 83ba 77bd 81bb b165 6bba
00000050: 0614 183a ee8c 0fbb 0d37 dbb8 3a97 31bb
00000060: e0d5 eeba 5a20 cc3b 6a54 e1ba fa01 bbba
00000070: c824 daba 5634 2a3a a648 1ebb 802b 3fbb
00000080: 2937 93bb 5643 49bb 94b9 83b8 391b e1b8
00000090: f31e 2a3a 4d5b feba b8da cdba 6df6 bfb9
000000a0: 14fc 80b7 cf9c b6b9 e606 4bbb 46f8 5fbb
000000b0: c766 843a 013e 763a 3501 4dba 76d6 1eba
000000c0: 93c1 75bb 53cc 36bb e058 ffb9 2ae0 d1ba
000000d0: b70d f7b7 4421 c2ba 3412 8aba bcfe 96ba
000000e0: 4360 4cbb 1ac3 a9b8 40da e23a 38c4 00bb
000000f0: 85cc 833a a83a 96bb 8087 53ba 115d 8835
00000100: 6b1e e5b8 06b6 4dbb 500a c8ba f808 49ba
00000110: fba4 ac39 6633 c6ba d9e5 df39 8804 2dba
00000120: ea2d 8d3a edfd 1cbb e1f2 9cba f1bb 28ba
00000130: 5625 21bb a134 c2b8 d6dc 5bbb e606 c13a
00000140: ff51 6cbb f78f 4a3a c145 f839 1bb0 1c3b
00000150: 277c e4ba b295 b5ba 7c6c 30bb 35d1 75bb
00000160: a2ae d0ba 9441 92bb 2934 ce3a 392b 32bb
00000170: ccbf 52bb 5914 ff3a 6244 88bb 783a aa39
00000180: 6b34 a039 5fbc d2ba ea56 893a e06d 89b9
00000190: b1a4 deb8 7d32 09ba 421a 98b9 922b 2abb
000001a0: 9824 c9b6 ce69 99b8 40b5 ceba 75c6 a4b9
000001b0: 9c47 12bb 388f 0b3b 9b96 4f3a f6be 0a3b
000001c0: 1ae0 dfb7 bb55 913a 65c0 27ba 9f69 0b3a
000001d0: 0d6c c5ba bea4 d6ba 7949 77bb 3ff8 84bb
000001e0: d2df 41ba 3c63 9dba 90cf d9b8 8a6e 6739
000001f0: 4add 84b9 4d5e afba e8c8 a5ba 642f 5638

exp_avg_sq f4 [128]
1.5619295e-05 1.35894425e-05 1.6455024e-05 1.33021185e-05 5.199253e-05 7.879506e-06 1.0155512e-05 4.4697204e-06
6.058066e-05 4.7679467e-05 2.4383527e-05 7.997529e-05 2.5769737e-05 6.048167e-06 6.183161e-05 1.6480331e-05
4.729084e-06 6.053575e-06 6.294549e-05 8.6282525e-06 2.5291478e-05 2.3524799e-05 2.2740956e-05 8.010773e-05
5.895072e-05 7.094134e-05 9.5257865e-06 3.9266368e-05 3.5208355e-05 1.788102e-05 1.4637973e-05 2.035708e-05
4.9215334e-05 3.7838712e-05 1.3653014e-05 5.9321676e-05 1.9954923e-05 4.708294e-05 3.8058366e-05 5.527581e-06
6.770488e-06 2.426125e-05 3.1487587e-05 3.600964e-05 5.9506438e-06 1.4030843e-05 1.2342784e-05 1.0128786e-05
5.4163473e-05 2.0525e-05 5.618926e-06 2.74167e-05 1.4384525e-05 3.386149e-05 1.4469792e-05 1.3079183e-05
2.991641e-05 7.808211e-06 6.914763e-05 4.0182586e-05 3.2203938e-05 5.170542e-05 3.5849607e-05 8.48752e-06
7.276313e-06 3.700222e-05 2.0799025e-05 3.9721213e-05 1.6961274e-05 3.0861777e-06 8.316946e-06 3.133338e-05
4.9167924e-05 1.6223974e-05 2.1658376e-05 4.7174094e-06 1.6735821e-05 8.764837e-08 4.8534894e-05 3.1559313e-05
4.343963e-05 7.910322e-06 4.01181e-06 4.783536e-05 4.94343e-05 1.278503e-05 6.1687766e-05 6.465215e-05
1.7132897e-05 4.654518e-05 1.5351128e-05 3.6388847e-05 5.093012e-05 7.806197e-05 5.28896e-05 1.8045988e-05
1.0223414e-05 9.992484e-06 2.2786126e-05 3.4392738e-07 1.1782977e-05 8.357582e-06 7.4026707e-06 4.6720146e-05
1.3572637e-07 2.5082043e-05 3.335579e-05 1.6479682e-05 1.7513248e-05 8.09771e-05 1.9336114e-05 9.986334e-05
9.49446e-07 1.8569252e-05 2.6751002e-05 1.0203039e-05 2.246967e-05 0.00022869265 3.3948803e-05 4.5151584e-05
2.6858272e-06 2.9049488e-05 1.4792164e-07 2.0533216e-05 1.7573453e-05 1.6379227e-05 2.864082e-05 3.0181734e-05
00000000: 2e06 8337 36fe 6337 e508 8a37 2a2c 5f37
00000010: 8e12 5a38 3832 0437 9861 2a37 9bfa 9536
00000020: fd17 7e38 70fb 4738 3a8b cc37 68b8 a738
00000030: 172c d837 5cf1 ca36 98ab 8138 3e3f 8a37
00000040: 86ae 9e36 d01f cb36 9a01 8438 10c2 1037
00000050: 0929 d437 1f57 c537 d5c3 be37 83ff a738
00000060: db41 7738 58c6 9438 f1d0 1f37 f1b1 2438
00000070: afac 1338 33ff 9537 9e95 7537 7fc4 aa37
00000080: 906c 4e38 02b5 1e38 400f 6537 2ad0 7838
00000090: df64 a737 ec7a 4538 dca0 1f38 8f79 b936
000000a0: 0d2e e336 a384 cb37 8a11 0438 0e09 1738
000000b0: a4ab c736 0366 6b37 db13 4f37 ceee 2937
000000c0: 962d 6338 1a2d ac37 358a bc36 eafc e537
000000d0: 1055 7137 7f06 0e38 49c3 7237 aa6e 5b37
000000e0: 00f5 fa37 0300 0337 5a03 9138 b989 2838
000000f0: b712 0738 46de 5838 395d 1638 9f65 0e37
00000100: 0e27 f436 d532 1b38 9179 ae37 549a 2638
00000110: 0f48 8e37 211c 4f36 0389 0b37 f66b 0338
00000120: a839 4e38 b818 8837 02af b537 3d4a 9e36
00000130: e763 8c37 3339 bc33 f291 4b38 8e5e 0438
00000140: f332 3638 93b6 0437 2f9d 8636 d4a2 4838
00000150: ad57 4f38 497f 5637 5e5e 8138 dc95 8738
00000160: 9eb8 8f37 8239 4338 4cc6 8037 3aa0 1838
00000170: cd9d 5538 33b5 a338 c7d5 5d38 7761 9737
00000180: 3b85 2b37 64a5 2737 d524 bf37 05a5 b834
00000190: 80af 4537 8b37 0c37 7564 f836 60f5 4338
000001a0: 2ebc 1134 4767 d237 82e7 0b38 d93d 8a37
000001b0: 6ae9 9237 40d2 a938 fd33 a237 b96d d138
000001c0: 6fdd 7e35 2ac5 9b37 5767 e037 b82d 2b37
000001d0: 407d bc37 37cd 6f39 4064 0e38 2561 3d38
000001e0: 293e 3436 4daf f337 64d4 1e34 bf3e ac37
000001f0: b46a 9337 1f66 8937 b141 f037 c82e fd37
