MachineLearning/results/Test4/MoveTOGoal.onnx (onnx, 75062 bytes, 7 tensors)

network_body._body_endoder.seq_layers.0.weight f4 [128, 6]
000000 58 9d cc be 4e 48 46 3e 17 e8 ed be 00 b9 c1 bd
       -0.39963794 0.1936352 -0.46466133 -0.09459114
000010 92 88 06 3e de 98 d7 3e b1 1c 01 3f 03 07 2d be
       0.13138035 0.42108816 0.50434405 -0.16897206
000020 a5 4b 6d be 09 b0 1c be c7 41 3e bd ff b4 13 3f
       -0.23173387 -0.15301527 -0.04644945 0.57698053
000030 26 02 25 3e c4 da 42 bf ee 9e a4 bd b9 03 94 be
       0.16114101 -0.7611506 -0.08038126 -0.2890909
000040 6c ed 6a be 24 17 8a 3f 9f f4 06 be 1f ed 1f 3f
       -0.22942132 1.0788312 -0.13179253 0.62471193
000050 e7 d2 ba 3d 58 c5 05 3e 66 2d cd be 1c 1a ad 3e
       0.09122258 0.13063562 -0.400737 0.33808982
000060 d0 7e a3 3e 67 f5 7f be 36 38 f2 be ba 6f 2e be
       0.31932688 -0.24995957 -0.4730851 -0.17034808
000070 3e 95 58 3e 89 3d 0a 3f 24 23 ac bd ea 45 08 bd
       0.21150681 0.54000145 -0.0840514 -0.0332698
000080 9b 3b 19 3e 83 ad 7e be 3f ef 6b 3f 4c c3 27 3f
       0.14964144 -0.24870877 0.92161936 0.65532374
000090 b9 db 3a bf 67 b8 21 3d c8 11 71 bd 19 15 1d bf
       -0.7299152 0.0394825 -0.05885485 -0.6136032
0000a0 72 c3 59 3e 19 ac bf 3e 55 d3 1d bf af 9d 08 3f
       0.21265963 0.37435988 -0.6165059 0.53365606
0000b0 13 3e 2f bf b4 27 34 bf 2c 0f a0 3e 5c 29 16 3e
       -0.6845409 -0.7037308 0.31261575 0.14664215
0000c0 3c b7 ba 3e 85 7a 38 3e e1 c7 42 bc ac e8 63 bf
       0.36467922 0.18015487 -0.011888475 -0.89026904
0000d0 41 f0 b8 3b bc b4 59 3e f6 c8 b4 3e 6c 0f 43 3d
       0.005643875 0.21260351 0.3530957 0.04762213
0000e0 66 0b 8a be 68 da 79 3f 6c d6 27 3e e3 2e 1c bf
       -0.2696182 0.97598886 0.16390389 -0.61009043
0000f0 7c 19 97 be d6 2c ac be 10 e1 1e be 7c 18 9f 3e
       -0.2951163 -0.33627957 -0.15515542 0.31073368
000100 0b f5 99 be 1f 6f d8 3e d9 70 a8 be 81 0f b2 3e
       -0.30069765 0.4227228 -0.32898596 0.34777454
000110 98 eb 89 3e e5 ea 5e be 8b ad 77 3c 64 11 cf bd
       0.26937556 -0.21769293 0.015117059 -0.10110739
000120 b4 d2 f7 3e 7b 06 41 3f eb 0f 52 3e 40 2d c9 3e
       0.4840294 0.75400513 0.20513885 0.39292336
000130 ec 9e f9 be e4 d6 bb be 1e 59 40 be 33 e3 55 3e
       -0.4875406 -0.36687386 -0.18783996 0.20887451
000140 87 91 96 3e 17 3f 98 be 01 b5 11 3f 25 72 b3 3e
       0.29407904 -0.29735634 0.56916815 0.35048023
000150 b7 ad 00 3f b4 24 34 3f b8 79 1d be 6c 8c 08 3f
       0.5026507 0.70368505 -0.15378463 0.53339267
000160 f0 7d 17 3e 0f 82 86 3d 12 43 08 bf cf da 76 3e
       0.14794135 0.065677755 -0.5322734 0.24106906
000170 94 47 e3 3e ad 1a 7f bd ee 2f ff bc 89 c8 15 3f
       0.44390547 -0.0622813 -0.031150784 0.5850912
000180 91 41 d2 3d 95 10 81 bb 83 10 36 3f 7d 05 1a bf
       0.10266412 -0.0039387443 0.71118945 -0.60164624
000190 44 55 e7 be 92 04 c1 bd c3 af cd 3d e0 d2 fa be
       -0.4518224 -0.094247 0.100432895 -0.4898901
0001a0 4e 72 91 be e3 20 e6 3e 6e 51 50 3e 88 5e ae 3d
       -0.2840752 0.44946966 0.20343563 0.08514124
0001b0 b0 4b 26 bf 73 da ed 3d 7b 08 66 be 66 88 77 be
       -0.6495924 0.116139315 -0.22464173 -0.24173126
0001c0 07 81 ab be e5 6a 1b 3d 14 9a 9d 3e c5 07 9a bb
       -0.33496878 0.03794374 0.30781615 -0.004700633
0001d0 38 f1 0c 3e c6 fa 7c 3b 69 af 84 3e 87 4c 31 3f
       0.13763893 0.003860162 0.25915077 0.69257396
0001e0 ed 9f 40 be f2 ee 1b 3e d6 4d 9b be 7b 89 b7 3e
       -0.18811007 0.15227869 -0.30332822 0.35847077
0001f0 3a 3d 48 3e a1 60 21 be 09 f5 32 be f9 f4 d2 be
       0.19554606 -0.15759517 -0.17476286 -0.41202524
000200 4e 4f a9 3e 98 ac b8 be fa be 05 3c 8b ff 5b be
       0.33068317 -0.3606918 0.008163208 -0.214842
000210 97 fd 99 3e dd 7b ed 3d cf 86 43 be 32 3f 9f be
       0.30076286 0.11595891 -0.19094394 -0.31102902
000220 a6 c4 60 3f b7 ad 19 3f b3 a2 bd 3e 7e 61 16 3f
       0.8780006 0.6003069 0.37038192 0.5874251
000230 bc bb f5 3e a2 32 2b bd c5 45 5d bf f4 19 71 3c
       0.47994792 -0.041796334 -0.86434585 0.01471566
000240 ea 98 64 bf 26 14 f1 bd 79 92 05 be 13 42 59 3e
       -0.8929583 -0.11771421 -0.13044156 0.21216612
000250 87 53 45 3d ac 28 61 3e 86 50 5b bf ab 11 98 3c
       0.04817536 0.21988171 -0.85669744 0.018563112
000260 e4 9a 3d 3e 61 df 44 3e 12 c7 4a be 4e 72 e5 3d
       0.18516117 0.19225837 -0.19802502 0.112034425
000270 30 49 2b 3f 69 38 59 bd 16 22 95 3e a4 70 72 be
       0.6690855 -0.053032313 0.29127568 -0.23675781
000280 45 2b 40 3f f2 a4 13 3f 49 64 9c 3d 4d 52 f8 be
       0.75066024 0.5767356 0.076363154 -0.4850029
000290 15 92 3f bf af c4 1c 3e 3c f3 04 3f ce e3 b4 3e
       -0.7483228 0.15309404 0.51933646 0.3533005
0002a0 83 74 12 be ea 62 b0 3c 67 27 b1 be 90 30 48 3f
       -0.14302258 0.02153154 -0.34600374 0.781991
0002b0 03 e0 0d 3f 69 88 c5 3e 40 9e 20 bf 88 0d fe 3d
       0.5541994 0.38580635 -0.6274147 0.12404925
0002c0 c5 2c 29 bf 17 a3 19 bf ba 54 47 3d 55 4f 6f 3e
       -0.6608394 -0.6001448 0.048664786 0.23370107
0002d0 16 50 c4 3d a7 66 0f 3f d3 64 a9 3e bb d9 9f 3e
       0.09585588 0.5601601 0.33084735 0.31220803
0002e0 ae da a0 bf 92 1c cd 3d 14 1e 92 be 17 c9 f7 3d
       -1.2566736 0.10015215 -0.28538573 0.12098902
0002f0 de fa c9 be 4b 3a 4d be 14 25 bb bc 7f 37 ba 3e
       -0.3944921 -0.20041768 -0.022844829 0.36370465
000300 f9 68 5a 3e 1f dd 5a 3d 1f 71 3a bf 51 37 f0 be
       0.21329106 0.053433534 -0.7282886 -0.46917203
000310 f0 cb de be 3d 78 ce be 80 f9 40 3e 38 7f 17 3e
       -0.43514967 -0.4032611 0.18845177 0.14794624
000320 cf 7f 58 3f 5a b1 36 bf ca c4 ca be 44 f3 c6 be
       0.8457002 -0.71364367 -0.39603263 -0.38857472
000330 5a 57 05 3f b3 69 0c be d0 84 9b 3d bd 1b ff 3c
       0.5208641 -0.13712196 0.07593691 0.031141156
000340 ff eb 1b 3f be a6 6c be a8 12 9b be c9 b8 9f bd
       0.60906976 -0.23110482 -0.3028767 -0.07798917
000350 f6 c3 49 be 92 ab 59 bf f8 3d d6 be 49 7b 9c bc
       -0.1970366 -0.8502742 -0.41844153 -0.019101756
000360 e9 c3 dd 3e c5 03 85 3e 6f eb 96 3e bf 22 0a be
       0.4331353 0.25979438 0.29476497 -0.13489817
000370 f9 30 34 3d 94 87 b8 bc dd f5 81 3e 54 f4 08 3f
       0.043992016 -0.022525586 0.2538289 0.53497815
000380 a1 81 c4 3d 1e 52 1f bf a0 47 e2 3e c8 16 19 bf
       0.09595037 -0.62234676 0.4419527 -0.59800386
000390 c3 1c 9a be 8f 0e 19 3f d8 e4 b1 be 7d e2 60 bf
       -0.30100068 0.5978784 -0.34744906 -0.87845594
0003a0 72 03 ea bd 8b b9 49 3f a4 42 71 3e b1 9e d1 be
       -0.114264384 0.7879874 0.23560578 -0.40941384
0003b0 99 ef 13 bf 40 31 70 3f 5d a9 3c 3f f3 a7 90 bd
       -0.5778747 0.9382515 0.7369593 -0.07063284
0003c0 65 b6 01 3f b3 35 d4 3d 9a cd 0b 3f a6 21 1a 3e
       0.50668937 0.10361805 0.546106 0.15051898
0003d0 a1 83 1d bf 88 25 6c 3e b7 ab 39 bf e3 1b 3d 3f
       -0.61528975 0.23061192 -0.7252764 0.73870677
0003e0 dd b1 81 be a3 01 02 bd ff 09 20 be ef 67 7b 3e
       -0.2533101 -0.031739842 -0.15628813 0.24551366
0003f0 4b 42 81 3e c7 95 1f 3f 9e 83 21 3e 34 dc 3f be
       0.2524589 0.6233792 0.15772864 -0.18736345

network_body._body_endoder.seq_layers.0.bias f4 [128]
000000 83 90 74 bb 0b 8a 31 bc d0 63 82 bb 4b ae 16 3b
       -0.003731758 -0.010836135 -0.0039791837 0.002299207
000010 0f 50 c6 3b 26 d8 a7 3a d9 eb b2 38 a9 f9 51 bb
       0.006052024 0.0012805506 8.5316315e-05 -0.0032039678
000020 a1 ee 40 bb 2c db 8a bb f2 fe 8e 3c 0b 1e cf b9
       -0.002943911 -0.004237553 0.017455552 -0.000395045
000030 28 df d7 bb 4d 83 43 bb 40 1b 2b 3c 7b 42 1e bc
       -0.0065878816 -0.00298329 0.010443509 -0.009659405
000040 08 34 4c bb df 18 d5 bb 66 81 a5 bb be 1f f3 3c
       -0.0031158943 -0.006503209 -0.005050826 0.029678222
000050 3b 97 be 3a b8 b5 7a 37 57 d7 1d 3c 3c 18 df 3b
       0.001454092 1.4943471e-05 0.009633861 0.006808309
000060 31 ce 9a bb fc 93 27 b9 43 e4 de 3c cb af 4a 3b
       -0.004724287 -0.0001598149 0.027208453 0.0030927535
000070 03 1c 77 bb 22 61 70 3b 2a 90 1a 3d 09 45 95 3a
       -0.0037705905 0.003667899 0.03773514 0.0011388372
000080 1c 29 88 ba 8c 27 db ba fc 4e 0e 3b 14 ce 08 bc
       -0.0010388228 -0.001672016 0.0021714559 -0.008349914
000090 cf bf 8b 3c 4b 2f d0 39 af 1d 1d 3b 94 55 05 3c
       0.017059235 0.00039708088 0.0023973992 0.008138079
0000a0 a8 6c be 3c 19 0d 3d 3a 87 dc e2 3c 3b 2c 70 3c
       0.02324517 0.00072117295 0.027693046 0.014658983
0000b0 51 25 27 3c ab 4a 2e 3d 38 b3 38 bc fd be 66 b9
       0.010201768 0.042551678 -0.011273198 -0.00022005658
0000c0 7f 52 ad ba 65 94 3a 3c 1d 75 85 39 ed 3b 5c 3c
       -0.0013223438 0.011387919 0.00025454993 0.013442022
0000d0 d1 97 f8 b9 79 ef 88 bb 25 3c 8c bc 40 fb 25 3c
       -0.00047415358 -0.004178938 -0.017118523 0.010130703
0000e0 c0 ec 8b 3b 1f ed 6f bb f1 e2 95 3c af 43 46 bb
       0.004270166 -0.003660984 0.01829669 -0.0030252745
0000f0 4f f5 ad 3c 8c df 49 3b 2c 8a 69 3a 0c ef 80 39
       0.021235136 0.003080341 0.0008908834 0.00024592166
000100 87 45 1a 3d 2a 70 89 bb 90 cf 49 bb 1c 92 dd bb
       0.037663963 -0.004194279 -0.0030793883 -0.0067618024
000110 27 e5 0e 3b 02 90 1a bc 94 61 54 bb a3 de ba bb
       0.0021804066 -0.009433748 -0.0032406794 -0.00570281
000120 dc 03 30 bb f5 2f 8e bb de 84 1e bb 36 6d 7d b9
       -0.002685777 -0.004339213 -0.0024188082 -0.00024168644
000130 4b 6d 85 3d 86 8d f8 3c f4 2a ef 3a 02 54 9a ba
       0.065149866 0.030340921 0.0018247054 -0.0011774304
000140 f6 06 b2 39 66 c4 b0 3b f4 3c 8d 3b c3 25 be 3a
       0.00033955992 0.0053945063 0.0043102447 0.0014507103
000150 69 e1 0a 3c 02 97 0f ba b1 8b 02 3b 92 54 87 3b
       0.0084765935 -0.0005477519 0.0019919688 0.0041299546
000160 a9 11 be bb 4e e8 9b 3a f7 a4 39 bc 58 87 45 3b
       -0.005800445 0.0011894794 -0.011330835 0.0030140486
000170 5e 82 97 3c b1 06 76 3d 77 33 c8 bb b3 0f 15 3b
       0.018494781 0.060064975 -0.0061096507 0.0022744953
000180 1c c0 83 3c d6 a8 c5 bb 26 37 e8 3c b4 56 c2 bb
       0.016082816 -0.0060320897 0.02834661 -0.005930746
000190 31 dc 3c bc 3f 1c 54 bb 89 7f 8a 3b 0f d0 37 bb
       -0.011527107 -0.0032365469 0.004226629 -0.0028047597
0001a0 1e ce 1e bb a5 2a 48 bb 9c 00 92 bb bc b1 2c bb
       -0.0024231742 -0.0030542996 -0.004455639 -0.0026351055
0001b0 99 c4 fb bb d8 8a f7 3a e8 d2 40 3b 69 fb e6 3c
       -0.0076833484 0.0018885983 0.0029422585 0.028196054
0001c0 8f 66 22 3d b1 dc 2b bb 41 ea 09 bc b4 34 0b 3b
       0.03964859 -0.0026224072 -0.008417667 0.002124113
0001d0 16 0a b8 b9 bd d4 53 3b f7 95 05 bb 3b a2 b3 3c
       -0.0003510273 0.0032322847 -0.0020383575 0.021927943
0001e0 a0 a9 86 bb d8 e5 17 bc 57 a4 f7 3b 75 e3 ad 3b
       -0.0041095763 -0.009271108 0.0075574326 0.005306656
0001f0 6a 97 37 bc 4e 3a d4 bb 9b 5d e1 bb c6 b5 05 3a
       -0.0112055335 -0.006476677 -0.0068776137 0.0005100634

network_body._body_endoder.seq_layers.2.weight f4 [128, 128]
000000 99 da 68 bd 76 49 dd 3d 22 3a bb 3d 27 1d 35 be
       -0.056849096 0.10805027 0.09141947 -0.17686902
000010 3c 08 44 bd 39 8b 31 3d ff 9f e8 3c bf 50 a7 3d
       -0.047859415 0.043345664 0.028396605 0.08169698
000020 90 a4 23 be b5 66 09 bd 8d 6d 29 bc 99 ac 1f 3e
       -0.15980744 -0.033545215 -0.01034106 0.15593185
000030 68 d4 7a bd 28 c3 e4 3c 4f fc c4 bd c3 95 55 3d
       -0.061237723 0.027925089 -0.096184365 0.052144777
000040 6c b8 21 be 13 64 f9 bc 11 9c 4b bd b5 16 66 3d
       -0.15793008 -0.030443227 -0.049709383 0.056174
000050 16 87 fd 3c a0 30 76 bd 70 c1 4c 3d 20 53 8b bc
       0.030948203 -0.060104966 0.049989164 -0.01700741
000060 11 47 5a 3d 69 5f 26 bd be 1e 7a bc 0c 4b 90 3c
       0.05329043 -0.040618334 -0.015266119 0.01761391
000070 a3 7d 71 3c 88 bc 46 3d ea e0 8c bc 53 c2 46 3c
       0.014739427 0.04851964 -0.017197091 0.012131291
000080 c5 3b 5c 3c a7 9f 7e bd b9 28 a4 bb 6f 6d 2b 3d
       0.013441985 -0.062163975 -0.0050097373 0.04185241
000090 1e 02 92 bd ed 82 b2 bc 3f a8 55 be c5 8e 0c 3d
       -0.0712931 -0.021790946 -0.20864962 0.034315843
0000a0 d0 8c e8 bb 65 3d 20 be 57 53 9f bd fd 6c 2f bc
       -0.0070968643 -0.1564842 -0.07779568 -0.010707137
0000b0 10 ac 55 bd 87 5d 0f 3e 74 8c ac bd 03 de a0 bd
       -0.052166045 0.14000522 -0.08425227 -0.078548454
0000c0 c3 b0 9f bd 7b ea fb 38 6b 23 f6 bc 24 2f 4d bd
       -0.077973865 0.00012012288 -0.030046185 -0.050093785
0000d0 98 a6 13 3e 81 66 26 bc a9 25 b4 3d 25 56 27 bd
       0.14419019 -0.010156275 0.087962456 -0.04085364
0000e0 8a 21 31 bd 5c b6 4a 3e 92 2e a8 bd 34 9a e7 bd
       -0.043244876 0.19796127 -0.082120076 -0.11308709
0000f0 c1 fd 91 3d 2f d8 48 3c f1 a7 67 bd ee 14 5b bd
       0.07128478 0.012258573 -0.056556646 -0.053486757
000100 0b 1c 1c bb 95 dd df bd 01 7e 59 3b da 7f ed bc
       -0.0023820426 -0.10930935 0.0033186676 -0.028991628
000110 ae 87 3e bd 7c eb c1 3d a0 d2 a1 bd 84 c0 ca bd
       -0.046516113 0.09468743 -0.07901502 -0.09900001
000120 d4 b1 01 be 8c 23 cc 3d 55 ee 66 bd b9 a6 9a bd
       -0.12665492 0.099677175 -0.056379635 -0.07551331
000130 8f d5 47 39 71 be 33 be c2 ca f3 bc 1e 04 10 3e
       0.00019057676 -0.17553116 -0.029759768 0.1406407
000140 cd 49 24 bd c0 9c 9d bd 4c 88 98 bd c8 d5 34 be
       -0.040109444 -0.07695913 -0.074478716 -0.17659676
000150 03 b8 5d 3d 09 c9 c3 3c 55 17 92 3d 8c 42 dd 3b
       0.054130565 0.023899572 0.071333565 0.006752318
000160 45 58 34 be ae 86 a7 bd 08 f6 b9 bd ff f8 ef 3c
       -0.17611797 -0.08179985 -0.0908013 0.029293535
000170 3b ae 55 bd dd 46 45 3d 3b 5a 01 be f0 d0 8d bd
       -0.052168112 0.048163284 -0.12632076 -0.06924617
000180 bc 1c a2 bd 5d 34 0b be 01 81 e3 3d 3f 5a f8 bc
       -0.07915637 -0.13594194 0.1110859 -0.03031647
000190 70 1e c2 3c eb 15 31 3b f1 7a 1f bd c0 c3 e6 3d
       0.023696154 0.002702112 -0.038935605 0.11267805
0001a0 e5 b1 95 3d 20 22 7f 3d cb 0c 52 bd b1 50 5a 3c
       0.07309321 0.062288404 -0.05128173 0.013324902
0001b0 25 d8 0d bd f0 c5 b5 3c c8 c9 40 3c 81 d9 59 bd
       -0.03462996 0.02218911 0.011766858 -0.053185944
0001c0 9d fb bc 3c 59 c7 01 bd f9 e5 bf 3c c3 8b 53 3d
       0.023069197 -0.031684253 0.02342509 0.05164696
0001d0 c6 ab 1a 3d 2d 08 38 3e d2 8b 46 3d 75 3a c9 bd
       0.037761472 0.17971869 0.048473187 -0.09825603
0001e0 d3 5e 27 bd 7b 01 23 be 1d d3 8c bd 0b 91 b6 3c
       -0.040861916 -0.15918534 -0.06876204 0.022285959
0001f0 d0 f4 a0 bd d9 ff b1 bd 84 2f e0 bd c6 b5 01 3e
       -0.07859194 -0.08691377 -0.10946563 0.12666997
000200 2f c6 db 3d f4 31 6d bc 40 f7 16 3e 56 41 9b bd
       0.1073116 -0.014477242 0.14742756 -0.07580821
000210 92 cd df bd 9a 85 87 bd ea bd fe bb a3 86 34 3d
       -0.10927881 -0.06617279 -0.0077741044 0.044073712
000220 03 74 ee bc 3e 10 8f 3d bf 20 50 bc 14 ac db bd
       -0.029108053 0.0698552 -0.01270312 -0.10726181
000230 e0 6b 16 be 5b b7 dc bc dc 62 3f 3c 35 8f 4c 3d
       -0.14689589 -0.0269429 0.011681285 0.04994126
000240 7d 5c 90 3c af 4d 06 3b da b7 66 3d 82 c5 ed bd
       0.017622227 0.002049308 0.05632768 -0.11609937
000250 17 9e b8 bd 5c 92 eb bd a7 d3 94 bd c1 6e b3 ba
       -0.09014528 -0.11502525 -0.07266932 -0.0013689623
000260 3b ce 12 3d a5 08 c0 bc 6a 00 0b be 2c 5e 6b be
       0.035841208 -0.023441622 -0.13574377 -0.22985142
000270 3b bd 47 bc e9 2a 56 3d d0 79 6b be 88 b6 3f bd
       -0.012191112 0.052287016 -0.22995687 -0.046804935
000280 06 55 5f bd 96 50 7f 3c 86 37 9d 3d dd ac 0e 3d
       -0.054524444 0.015583178 0.07676606 0.034832824
000290 ce 74 99 bd 07 e6 98 3d 52 15 6f bd 81 c8 df bd
       -0.07492982 0.07465749 -0.058369942 -0.10926915
0002a0 e7 8d 05 be 7a 1c 65 3b 3b 82 e0 3d a0 c3 c8 bc
       -0.13042413 0.00349596 0.109623395 -0.024507344
0002b0 dd 20 d8 bd 28 1d f2 bd 81 4d 96 bc f3 6a 97 3d
       -0.10553143 -0.11821967 -0.018347504 0.07393446
0002c0 e0 46 83 3d c3 c1 24 bc 4b 07 5c 3b de 24 26 3e
       0.06410003 -0.010055962 0.0033573683 0.16225001
0002d0 c9 cb 3b 3e cb 0c ce bd d6 89 19 3d 6d 73 bb 3e
       0.18339457 -0.10061034 0.037484966 0.366115
0002e0 dd a0 81 bd 06 df 83 bc 09 32 71 3d 44 de b6 bd
       -0.0632951 -0.016097557 0.058885608 -0.089291126
0002f0 2a a7 e4 bd ca e2 7b bd 62 58 0b 3e e6 0f 00 bd
       -0.111646965 -0.06149558 0.13607934 -0.031265162
000300 30 a0 2d 3b db 41 d0 3d 39 ff b6 bd a2 38 69 3c
       0.0026493184 0.10168811 -0.089353986 0.014234694
000310 c3 e0 a8 bd 4f 35 46 3c a8 7d 2b 3e 39 c6 08 3e
       -0.08245995 0.012097671 0.16747153 0.13356866
000320 91 3a 38 3d 93 e6 0a be fb cf 9f bc 37 c0 43 bd
       0.04497773 -0.1356452 -0.019508353 -0.047790732
000330 c3 a7 86 bd d9 56 3a 3e 8f 28 aa bd 31 53 e1 3d
       -0.06574967 0.18197192 -0.08308517 0.110021956
000340 b4 79 3c bd 75 cc 03 bd 33 2b 2a bd a5 48 16 be
       -0.046014503 -0.032177407 -0.041545104 -0.14676149
000350 d9 a8 9e bc 90 9e ee bc f8 75 21 3c e0 f8 3c 3d
       -0.019367622 -0.029128343 0.009854786 0.046135783
000360 b6 a3 06 bd da ff 6d 3e 0e f9 64 bd 3c ab 3f bd
       -0.03287097 0.23242131 -0.05590158 -0.04679416
000370 bb 07 6e bc b9 c6 51 bd 4b 73 56 3d 51 86 12 be
       -0.01452821 -0.051214907 0.052356046 -0.1430905
000380 6a d5 5e 3d c6 34 67 3d 4a 02 a9 3a 4a 86 25 3e
       0.054402746 0.056446813 0.0012894359 0.16164508
000390 cc 5b f1 bd ff 65 38 3d b5 70 11 3e 2e 32 3f bd
       -0.11785087 0.045019146 0.1420315 -0.046678714
0003a0 af dc 29 3d 29 98 8f bd 6f fb 59 3d 71 c0 0f bd
       0.041470226 -0.07011444 0.0532183 -0.035095636
0003b0 a8 6c 42 bc 3b e9 32 3a 96 0c 0b be a5 92 17 3e
       -0.011866726 0.0006824915 -0.1357902 0.14802034
0003c0 1d 5f e5 bd 41 48 50 3d 6f 44 25 3d 29 1c 8f bd
       -0.11199782 0.050850157 0.040348466 -0.06987793
0003d0 b2 b3 fc bc 14 0f e9 bc b3 ec 8a bd e3 34 bd bd
       -0.030847404 -0.028449573 -0.06783428 -0.09238603
0003e0 25 78 7e 3d 97 bf 78 bb a1 3b 80 3d a2 18 f4 bd
       0.062126298 -0.0037955993 0.06261373 -0.11918761
0003f0 2d e1 9f 3d a2 32 57 bd 0e a9 29 be 60 80 58 3d
       0.07806621 -0.05253852 -0.16568395 0.052856803

network_body._body_endoder.seq_layers.2.bias f4 [128]
000000 f4 fa 06 3b 59 98 e6 3a f6 73 15 bb 27 54 47 3b
       0.0020596357 0.001759301 -0.0022804714 0.003041515
000010 df 48 93 3a bf 70 6f bb 45 36 b0 bb 38 ea 6b 3b
       0.0011236927 -0.0036535708 -0.005377563 0.003599776
000020 70 fc 7e bb c6 5e c4 3c 8e 2c 90 3a 4d db bc 3b
       -0.0038907789 0.023970973 0.0010999606 0.0057634474
000030 64 83 0b 3b a0 7f be 3c 25 0f f6 3b 9f c4 c4 bb
       0.0021288032 0.023254216 0.0075091296 -0.0060048844
000040 a8 4a 77 3b 88 55 d1 bb db 8f 1b bb 95 a8 ae 3a
       0.0037733708 -0.00638837 -0.0023736868 0.0013325388
000050 d6 9f b5 bb e7 ca df bb c0 59 c1 3c 57 4a 99 bb
       -0.0055427356 -0.0068296078 0.023602366 -0.0046780515
000060 5d c7 b5 ba 1b 7e 13 bb a1 96 2d 3c 59 55 6c ba
       -0.0013868619 -0.0022505585 0.010594995 -0.00090154033
000070 76 a4 6a 3c 3e 79 70 bb 06 0f 53 bb 01 ea 8b 3b
       0.014321437 -0.003669336 -0.0032205 0.004269839
000080 34 ac f0 ba c9 07 5b bb 70 14 0d bc dd 6d 28 3b
       -0.0018361867 -0.0033421388 -0.00861083 0.002570025
000090 ad dc ad 3c 89 7a 7e bb 21 3e 00 bb ca b3 3c 3c
       0.02122339 -0.003883036 -0.0019568282 0.011517474
0000a0 ca a0 81 3b b0 f0 c7 b9 54 77 94 3c d6 92 c4 3b
       0.003955935 -0.00038135564 0.018123306 0.0059989495
0000b0 7e be 80 39 1e b2 17 bc 40 a8 97 ba cd 55 90 38
       0.0002455599 -0.009258775 -0.0011570528 6.882437e-05
0000c0 35 0d c8 3b 67 71 b1 ba f3 4f e6 b9 a3 fd 55 bb
       0.00610509 -0.0013537825 -0.00043928585 -0.00326524
0000d0 41 f3 59 bb 43 83 ca 3b 9f 9e 9d 3b eb 0d 43 ba
       -0.0033256563 0.0061801984 0.004810169 -0.00074407336
0000e0 d7 ae 55 bb 20 3d c0 ba 16 06 05 ba 02 c5 58 3b
       -0.0032605433 -0.0014666654 -0.0005074454 0.003307641
0000f0 11 d1 4b bb b0 2e 85 ba 25 b2 0c 3b ad 42 0d bb
       -0.0031099955 -0.0010161009 0.0021468487 -0.0021554634
000100 9b 38 af 3a 27 3d a6 b8 eb fe c8 bb b5 e3 1c bb
       0.001336831 -7.926887e-05 -0.006133904 -0.0023939435
000110 c4 7a f7 bb 54 7f 05 bb 43 07 b1 ba 52 c8 8b bb
       -0.0075524766 -0.0020370083 -0.0013506192 -0.0042658234
000120 98 18 99 3a 53 17 ba bb 60 fd 0d 3d 42 63 0f 3b
       0.0011680303 -0.00567905 0.034665465 0.002187923
000130 60 e3 d5 3c f9 11 ad ba 10 c3 c5 3b 8f 3c b4 bb
       0.026109397 -0.0013204209 0.006035216 -0.005500383
000140 d4 0e 0e 3c fc 9a 59 3b 69 6e 1a 3c 1f d3 ac bb
       0.0086705275 0.003320395 0.009425738 -0.005274191
000150 83 c8 9f 3b 24 c5 45 3a cd 25 2a 3c 6d e2 10 3b
       0.004876198 0.000754433 0.010384989 0.0022107617
000160 f9 74 01 bb 7c 5c 8d bb 05 89 aa 3b 64 e7 95 3b
       -0.001975356 -0.0043140035 0.0052043223 0.004574703
000170 a2 dc 89 bb 98 25 6e ba 9e e5 3b bb e1 56 a8 3b
       -0.0042072097 -0.00090845814 -0.0028670798 0.00513731
000180 09 e3 db 3c bc 35 c9 bb a3 95 f1 3a 4a 12 92 bb
       0.026841657 -0.006140439 0.0018431436 -0.0044577466
000190 43 74 ab bb 22 c8 3e b9 76 78 8d bb bb 2b 25 ba
       -0.0052323653 -0.00018194367 -0.0043173386 -0.0006300767
0001a0 2f 15 72 bb f8 ed 4b bb 3c eb 80 bb 51 71 43 3d
       -0.0036938896 -0.0031117182 -0.003934292 0.04771549
0001b0 f0 9b 7a 3b ee c6 9f bb a7 06 65 3b 0e 82 ab 3b
       0.0038239919 -0.004876009 0.0034946592 0.0052340096
0001c0 d5 dc d9 ba ea e6 47 3a 05 d0 96 bb 1f 76 9b bb
       -0.0016621599 0.00076256564 -0.0046024346 -0.0047443057
0001d0 62 6f d1 bb b1 29 c2 ba de d7 14 bb be 17 f0 b9
       -0.0063914517 -0.001481345 -0.0022711675 -0.00045794056
0001e0 87 bd 54 3a d8 83 87 3b ba a9 df 39 b7 28 d8 3c
       0.00081154 0.00413559 0.0004266033 0.026386602
0001f0 bb 25 a9 bb 96 5b 00 bc 87 06 4e bc 15 e2 d4 ba
       -0.0051619685 -0.007834336 -0.012574798 -0.0016241694

action_model._continuous_distribution.log_sigma f4 [1, 2]
000000 f7 79 8d 3c 80 e1 c6 3b
       0.017270071 0.006069362

action_model._continuous_distribution.mu.weight f4 [2, 128]
000000 f6 e3 7a 3c 3a 6b 11 bc 91 e5 e7 3b d5 91 c3 bc
       0.015313139 -0.008875662 0.007076927 -0.02387325
000010 a0 d2 ff b9 c9 14 55 3c b6 69 f7 3b bc ac d5 bb
       -0.00048794318 0.013005444 0.0075504435 -0.0065208357
000020 80 bf 80 3c b3 81 27 3d b4 a4 c0 ba c4 31 07 bd
       0.015716314 0.040895175 -0.0014697523 -0.033006445
000030 4b 60 da bc 86 80 19 3d f2 70 9b bc a0 c2 9a 3b
       -0.026657244 0.037476085 -0.018974755 0.004722908
000040 cb 2c d8 bb 90 61 35 3b d6 6f f7 3b 34 6d 82 bc
       -0.0065971366 0.002767656 0.0075511737 -0.015921213
000050 3b ae a9 3c 04 d5 7f 3c e9 3a 6e 3d 8c 26 99 3c
       0.020712962 0.015614752 0.05816165 0.018695138
000060 93 4e a8 b9 99 e9 ac ba 7b da 58 bc ca 7b 93 ba
       -0.00032102 -0.0013192176 -0.013235684 -0.0011252102
000070 11 bb ed 3d 74 db 87 3c 62 84 c4 3c ac ec c1 bb
       0.11607946 0.016584136 0.023988906 -0.005918106
000080 50 78 8d 3c aa 5a 05 3c b0 75 81 3a 8c e5 bd 3b
       0.017269284 0.008139292 0.0009876993 0.0057951864
000090 23 a3 4e 3d 6c 8d f5 3c 4c f8 ab 3c 4f d2 08 3d
       0.050448548 0.029974662 0.02099242 0.03340369
0000a0 fc 10 1a bc 2c d5 38 bb 93 7f 57 3d 09 69 8d bc
       -0.009403463 -0.0028203232 0.0526119 -0.017261999
0000b0 c2 d9 9b 3b c7 3d 8c 3b 4f 54 8f 3a 2f 26 a3 bb
       0.0047561834 0.0042798254 0.001093516 -0.004978917
0000c0 80 c9 2c bc e3 6a 50 39 0a 72 b4 3c 6b f3 25 3d
       -0.010546088 0.00019876244 0.022027034 0.040515345
0000d0 f9 39 a9 3b 2d 9e 5d bd e7 0a 00 bd db da e1 ba
       0.0051643816 -0.054105926 -0.031260397 -0.0017231362
0000e0 d5 61 9c 3c 72 90 3e 3c 94 d7 fa bb f0 a7 df bc
       0.019089619 0.011631118 -0.0076550934 -0.027301759
0000f0 8b b0 e6 3b 36 9f 96 ba 4a 2a fe 3c 24 92 39 bc
       0.0070400885 -0.001149154 0.031026024 -0.011326347
000100 3f c0 1a bc 31 b6 cf 3a 20 47 55 3c e7 f0 ed bb
       -0.009445249 0.0015847144 0.013017446 -0.007261384
000110 9c 44 30 3d c8 d8 3c 3c 26 88 4f bc 85 4b 9e 3c
       0.04303418 0.011526294 -0.012666738 0.01932312
000120 57 16 1e 3c 4e d1 a4 3c a1 b1 64 3d ef 40 37 bc
       0.009648881 0.020119336 0.055833463 -0.011184915
000130 c7 26 79 bd 8b 17 23 39 23 d3 43 bc 08 e3 64 3b
       -0.060827997 0.00015553662 -0.011952194 0.003492536
000140 09 ac cd 3c 56 88 6c bc d4 83 6d 3d 0c 73 88 3c
       0.025106447 -0.014436802 0.05798705 0.016656421
000150 92 fe 6c bc 70 9f ae bc 68 db 8d bc 2d c6 fa bb
       -0.014464991 -0.02131626 -0.017316535 -0.007653019
000160 c6 ca c1 3b d3 f5 c7 3b b5 03 f1 bc 70 d6 d7 bc
       0.005914065 0.0061023026 -0.029420713 -0.026347369
000170 2d cd cb 3b 33 b4 d9 3b eb b5 d2 3c 9c 4e 52 bc
       0.006219527 0.006643796 0.02572151 -0.012836125
000180 b0 56 4e 3d 2d c6 1f 3c 14 77 75 bb d6 e9 8f 3c
       0.05037564 0.009751839 -0.003745501 0.017567556
000190 e8 7c ae 3c 72 ed c8 3a 06 c6 1c 3c ee 1b b1 b8
       0.021299794 0.0015329553 0.009568697 -8.44522e-05
0001a0 af 81 3f 3d b4 16 51 bb dc 77 20 3b b7 6c 36 bd
       0.046754535 -0.0031904401 0.0024485504 -0.044537272
0001b0 d3 80 d8 bc c0 e9 0e 3d 9a a8 c9 bc 67 16 ae 3c
       -0.026428616 0.03489089 -0.024616528 0.021250917
0001c0 aa 7e eb 3c 51 6e 41 bc 8f 40 83 3c 9f b7 32 3c
       0.028746922 -0.011806087 0.016021995 0.0109080365
0001d0 42 54 b0 3c ad a5 da 3a e6 73 ce bc 8b 44 3d bc
       0.021524552 0.0016681455 -0.025201749 -0.011551986
0001e0 fe 9d 84 bc 44 58 45 bc 7f 4e f9 bb f0 18 8f 3d
       -0.016188618 -0.01204497 -0.0076082344 0.06987178
0001f0 ad a8 d8 3b 93 9b 9d 3a d9 2d 9c bc 49 90 91 bc
       0.0066119046 0.0012024514 -0.01906483 -0.017768996
000200 a5 fb a4 bc 1d 7f c6 3b 8f 9d 2a bc 69 b4 f4 3b
       -0.020139525 0.0060576336 -0.010413541 0.0074677956
000210 bb 77 b6 bc 00 69 f7 3c 9a 3e 31 3c ba b1 a1 3a
       -0.022273889 0.030201435 0.010818148 0.0012336292
000220 e4 20 c3 bb a5 a2 0b 3c ee f2 f6 ba 6a 8a 03 bc
       -0.0059548486 0.008522664 -0.0018840709 -0.008028606
000230 cc 87 e6 bb b8 f6 58 bb 82 86 42 bc e9 4b 5d 39
       -0.007035231 -0.003310604 -0.0118728895 0.00021104481
000240 be b7 60 3a f7 7b 4a bc 66 93 29 3c df 63 2f bd
       0.00085723016 -0.012358657 0.010350084 -0.042819854
000250 aa 84 b8 3a e4 88 fe 3b 9d b3 9a 3c eb 58 79 bb
       0.0014077623 0.0077677835 0.018884474 -0.0038047384
000260 3c 7f 45 3c a4 e0 7a 3c fd e6 35 bc 22 91 68 3b
       0.012054261 0.015312348 -0.011102435 0.0035486897
000270 ee 8c db 3c 57 b8 78 3c 98 7d 1c bc ce 37 cb bb
       0.026800599 0.015180669 -0.009551428 -0.006201721
000280 9f b8 26 bb bf d3 fd 3b 20 fa 20 b9 aa 6a 02 3b
       -0.0025439633 0.0077461894 -0.00015351968 0.0019900003
000290 fa 1e c0 bc 3e c2 b0 bb 3e 4e 59 bc 9e b3 81 3c
       -0.02345227 -0.005394249 -0.013263283 0.015832718
0002a0 95 8e 79 bc 62 97 2e 3c 54 6d 08 3d 4d 10 70 bc
       -0.015231748 0.01065621 0.03330739 -0.014652324
0002b0 10 0e fd bc a7 13 38 3a 36 33 cc 3b 1c 87 24 3c
       -0.030890495 0.00070219714 0.0062316908 0.010041978
0002c0 52 41 67 ba 87 09 d2 3c 26 ad 33 bc 3e dc be bc
       -0.0008821684 0.025639309 -0.010966575 -0.023298379
0002d0 8e 20 37 3c a0 a2 a1 bc 02 d5 e2 39 58 bc 11 3c
       0.011177195 -0.019730866 0.00043264782 0.008895002
0002e0 42 56 9b 3a cb bf 9b bc c1 01 fe 3c 80 3b 57 3c
       0.0011851268 -0.019012352 0.031006696 0.0131367445
0002f0 d1 3c b9 bb 47 a9 eb 3b b7 0a 80 bc 52 c8 ab 3a
       -0.005653002 0.0071918103 -0.01563011 0.0013105965
000300 38 95 49 3c df 06 21 bc 43 a4 45 3c 5c bc 31 3d
       0.012303643 -0.009828298 0.012063089 0.043392524
000310 55 d3 26 3d 6e b6 22 bc d0 1b 2c 3d fa c3 ab 3b
       0.040728886 -0.00993119 0.04201871 0.005241868
000320 9b d3 45 3c d1 b3 5d 3c 4b c2 2e bc e2 fb 83 3a
       0.012074376 0.013531641 -0.01066644 0.0010069574
000330 10 c7 f1 3c 79 f1 ca 3c c2 41 a7 bc c2 fa b3 3c
       0.029513866 0.024773346 -0.020417098 0.021970157
000340 fc c3 8c 3c 6e ea e2 39 86 b5 ad bb b5 03 b6 3c
       0.017183296 0.00043280743 -0.0053011803 0.022218565
000350 6d 4e cb bc 45 d2 ce 3c 0e 58 23 bc fc d7 a6 bc
       -0.02481767 0.025246749 -0.009969724 -0.020366661
000360 28 e4 08 bc ef a7 4d 3c fd b8 0b ba 24 86 0e bc
       -0.008355178 0.0125522455 -0.00053299946 -0.008698974
000370 b0 e0 4e 3c 18 1d 7e bc 6a be 10 3d 07 ea 09 bb
       0.012626812 -0.015509866 0.035337843 -0.0021044032
000380 2d 32 2a 3d 3e 48 c0 3a 76 c3 97 bc 34 5f 87 bb
       0.041551758 0.0014669967 -0.01852582 -0.004131222
000390 c1 3f 95 ba 7a 02 b3 ba ac 2a 09 3c 79 52 33 bb
       -0.0011386798 -0.0013657354 0.00837199 -0.002736239
0003a0 50 07 46 3c a2 f8 83 3c b1 1b c9 ba b9 1b f5 bb
       0.012086704 0.016109768 -0.0015343336 -0.0074801114
0003b0 02 bf 49 bd 32 90 3b 3a ea 4c c8 3b cd 89 72 bc
       -0.049254425 0.00071549707 0.0061126845 -0.014803362
0003c0 4a f2 db bc fd 2c 88 bc 56 e7 61 3c f2 88 d4 3b
       -0.02684893 -0.016623015 0.013788065 0.0064860517
0003d0 db 9e 67 bb ef a3 12 3d 2e b0 1b 3b 48 da 0c 3d
       -0.0035342488 0.03580087 0.0023756134 0.034387857
0003e0 05 b8 e4 3c 6b 1f c6 3a 2e c7 02 3c c4 f9 8e 3c
       0.027919779 0.0015115564 0.007982058 0.017453082
0003f0 d6 42 21 3c fc f2 ac 39 7a 91 9c bb ac 8f 95 3c
       0.009842595 0.00032987434 -0.0047780843 0.018256985

action_model._continuous_distribution.mu.bias f4 [2]
000000 17 e5 a4 bb 7e 41 94 ba
       -0.0050321925 -0.0011311022
