MachineLearning/results/Test3/MoveTOGoal.onnx (onnx, 75062 bytes, 7 tensors)

network_body._body_endoder.seq_layers.0.weight f4 [128, 6]
000000 b1 56 1e 3f 12 61 c3 3e 6c e4 e3 be e9 8e 83 3e
       0.6185103 0.38159996 -0.4451021 0.2569497
000010 b2 ac 8d 3e 09 d3 4b 3e 7a bf e5 3e b2 9e ad bd
       0.2767082 0.19904722 0.44872648 -0.08477534
000020 fa cd 08 bf 19 fa 0b 3d 1c c0 dc 3e a1 28 9e be
       -0.53439295 0.03417406 0.43115318 -0.30890372
000030 a7 b2 3c 3d 97 82 3a bf 61 fc 3c bd fd 55 61 3d
       0.046068814 -0.72855514 -0.046139125 0.055013645
000040 a4 fe fe bd 8f fc bd bd 4c 88 45 3e 66 68 01 3f
       -0.124509126 -0.09276687 0.19290274 0.50549924
000050 73 76 46 3f 26 86 c2 3e c4 91 bb 3e 94 95 cd 3e
       0.7752449 0.37992972 0.36634648 0.40153182
000060 f7 ab b1 be e3 08 0d 3f b4 8e 81 be 94 0b 5b be
       -0.3470151 0.55091685 -0.25304186 -0.21391135
000070 08 31 9b 3e d6 82 54 bf 02 52 64 bf d4 b1 1e 3d
       0.30310845 -0.8301214 -0.89187634 0.03874381
000080 35 3f 67 3f ea 1d 09 3f df ba 40 be 3a 6e 80 3e
       0.9033082 0.5356127 -0.18821286 0.25084096
000090 ec 5c 6a 3e 82 9e 33 be 87 9f e6 3e 7d 12 52 bc
       0.2288701 -0.17540935 0.45043585 -0.012821791
0000a0 dc e0 14 be 5a 8e 0e 3e d3 3d 3c be 6c 71 56 3d
       -0.14538902 0.1392149 -0.18382959 0.05235426
0000b0 2a 53 ab 3e 20 84 56 be 28 21 fe be c8 32 96 be
       0.33461887 -0.20948839 -0.4963467 -0.29335618
0000c0 01 c0 07 bf a1 2c bd 3e 43 64 b4 3e ff 42 bb bd
       -0.5302735 0.36948112 0.35232744 -0.09143638
0000d0 6c 18 08 be d6 ad c7 3e 77 e7 81 3e 09 70 15 3f
       -0.13290566 0.38999814 0.25371906 0.5837408
0000e0 c1 7d ee 3e 90 38 b6 be d0 0c b3 3e 19 56 1e bf
       0.46580318 -0.3559003 0.34970713 -0.61850125
0000f0 7e 60 7a be 94 21 1b 3f e3 52 2a bf 77 85 11 3f
       -0.24450871 0.6059811 -0.66532725 0.56844276
000100 b5 22 2b be 98 e6 68 3e 8e 9a be 3d 75 31 7d bf
       -0.16712458 0.22744215 0.09306823 -0.9890359
000110 4b 12 55 3f b5 0d 6c 3f eb b1 f1 3e c1 75 54 be
       0.8323104 0.92208415 0.47206053 -0.20748045
000120 ce 62 67 3f 63 27 a1 3d 04 0a 27 3f c5 f6 90 bd
       0.9038514 0.078688405 0.6524966 -0.070783176
000130 10 b0 97 be 9d 3b 97 bd c8 7c ad 3e f5 80 1a 3e
       -0.29626513 -0.07384417 0.33884263 0.15088256
000140 15 a2 e8 3e d3 a4 6f bf dc 74 15 bf 5f d1 4b 3e
       0.4543616 -0.93610877 -0.5838144 0.19904087
000150 db 4d 89 be e8 be a8 bd 60 31 cb bd ba c5 83 3d
       -0.26817212 -0.082395375 -0.09921527 0.06434198
000160 b3 80 ea bd 45 ca 85 3e 86 3c e5 3c 94 ac 2e bf
       -0.11450329 0.26130882 0.027982961 -0.68232083
000170 45 5b 03 3e 86 fd ce be 5f 2b 97 bd 3f 4a 78 be
       0.12827785 -0.40427798 -0.07381319 -0.24247073
000180 2a 92 98 3f ca 05 92 3e 0a 07 04 3e e3 d3 7d bc
       1.1919606 0.28520042 0.1289331 -0.015492412
000190 bd 44 05 3e 01 a1 64 bd b5 67 17 bf 33 c5 65 be
       0.13014503 -0.055817608 -0.5914262 -0.22438507
0001a0 73 ec bc 3d 51 15 db 3d 97 db 8d 3b 7a 94 6f be
       0.092247866 0.10697425 0.0043291557 -0.23396483
0001b0 88 21 20 bf 61 88 a0 bd 99 b2 5d 3e 1b 6a 07 be
       -0.62551165 -0.07838512 0.21650161 -0.1322407
0001c0 6f 7a 9a be 9d 52 80 3f da e7 ef bd cc 04 21 3f
       -0.30171534 1.0025212 -0.11714144 0.62897944
0001d0 28 13 91 be fa 47 39 be 11 11 06 bf 25 c2 80 be
       -0.28334928 -0.18093863 -0.5236979 -0.2514812
0001e0 ab ab b4 be c4 d8 d3 be 34 71 82 3f 8a 09 66 3e
       -0.35287222 -0.41376317 1.0190797 0.22464576
0001f0 72 9c ba 3e b4 fe e4 be d1 09 4a be 68 23 38 3f
       0.36447483 -0.44725573 -0.19730307 0.71929026
000200 4e 3f 77 be 15 b0 53 3f 19 db a5 be 69 ce 0a 3e
       -0.24145243 0.82690555 -0.3239372 0.13555302
000210 7e 7e c0 bd ea 0c 10 be 1a bd a6 3e 02 30 b0 3e
       -0.093991265 -0.14067426 0.32566148 0.34411627
000220 60 3b 6f 3f 85 b4 82 3d fa c2 8e be ce db c5 3e
       0.93449974 0.063820876 -0.2788313 0.3864426
000230 27 cc fc be 05 5c 8b 3e 78 6b 26 3f 42 95 87 be
       -0.49374506 0.27218643 0.65007734 -0.26481062
000240 59 dd 53 be 72 81 70 be d8 04 ca 3d 31 22 4f 3e
       -0.20689906 -0.2348688 0.09864205 0.20227887
000250 c5 5e d9 be 37 bb f9 be 00 b5 65 be 0b 2b 95 3e
       -0.42455116 -0.48775646 -0.22432327 0.29134402
000260 2d 05 c8 3e 7f 03 c3 3b 9e 45 b8 be 28 54 28 3c
       0.3906645 0.0059513445 -0.35990614 0.010273971
000270 71 7f 89 3e 87 90 17 3e 72 bd 35 bf bc 5c 9c bd
       0.26855043 0.14801227 -0.70992196 -0.07634875
000280 39 66 01 be 4f cd 01 be 1f e2 83 be 33 af f0 3e
       -0.12636651 -0.12675975 -0.25758454 0.47008666
000290 15 a6 0e bc 15 4f e9 bd 65 61 8f 3e 47 b4 95 3e
       -0.008706589 -0.11392037 0.28003994 0.29239103
0002a0 07 61 3e be 25 c9 22 bd 2e e4 1b be df b6 1d 3f
       -0.185917 -0.039742608 -0.15223762 0.61607164
0002b0 d1 6d be be 8e a3 cb 3d 65 c9 ea be b5 7e 04 3f
       -0.37193158 0.09943305 -0.45856777 0.5175584
0002c0 cf e6 2c 3f 81 f0 e0 be 0c 60 e1 be 3c 2a de 3e
       0.67539686 -0.4393349 -0.4401859 0.43391597
0002d0 eb df 5e be 11 53 54 3e 71 42 22 3d c5 53 26 be
       -0.21765105 0.20734812 0.039614145 -0.16242893
0002e0 42 75 12 bf d2 3e f7 bd b3 62 2a 3e ac 57 0f 3d
       -0.5721017 -0.12072529 0.16639213 0.03499572
0002f0 5c de 3c bf a6 5a 1c bf e4 6a 31 3e 40 a9 ae 3d
       -0.73776793 -0.6107582 0.17325932 0.085283756
000300 55 11 10 bf d3 7a 97 be 18 7d 24 3f 2d 18 04 3f
       -0.56276447 -0.29585895 0.6425338 0.5159939
000310 87 ae 9a 3e 52 02 76 bd 05 1f ed be 31 cd d5 be
       0.3021128 -0.060060807 -0.4631273 -0.4175811
000320 28 be 09 3f 04 ef 11 bf 1c 14 6a 3e 31 4e 47 3f
       0.5380578 -0.57005334 0.22859234 0.77853686
000330 eb 9e 24 bf b5 66 fb 3d 5a a6 f2 bc 76 a7 5b 3f
       -0.6430499 0.12275449 -0.029620338 0.858024
000340 da ce 96 be 4a 06 a1 3e 91 39 18 3f b4 b6 07 be
       -0.2945469 0.3145011 0.5946284 -0.1325329
000350 11 3b 25 bf 1c dd 49 3e 2a db 93 be 53 c2 75 bd
       -0.64543253 0.19713253 -0.28878146 -0.059999775
000360 76 59 05 3f 41 3c d1 be f5 28 c4 3d 48 9b 14 bf
       0.5208963 -0.40866283 0.095781244 -0.5804944
000370 3e 83 35 be e1 07 c3 be a4 2e 1a bf bb a6 d1 3d
       -0.17725846 -0.3809195 -0.6022742 0.102368794
000380 fa 0d 3c 3e 8d ff 70 3e 18 47 9b 3e ec 95 86 3e
       0.18364707 0.23534985 0.30327678 0.26286256
000390 a5 eb c0 bd 7d a8 8f be 90 e9 e5 be 1a a2 3c be
       -0.094199456 -0.28058234 -0.44904757 -0.18421212
0003a0 04 b2 13 be 47 c9 4e 3f 9b 96 a7 3b bc 02 de be
       -0.14423376 0.80775875 0.005114389 -0.4336146
0003b0 d9 01 da 3e 78 06 62 3d a8 b5 3e bf 8c 3f ac be
       0.42579535 0.05518195 -0.74495935 -0.33642232
0003c0 a7 10 88 bc 25 3e 1b 3f 61 46 1e be 49 97 c4 3e
       -0.016609503 0.606417 -0.15456535 0.3839667
0003d0 ce 50 95 be bf 17 66 be 35 cb e9 bd 39 eb a5 be
       -0.29163212 -0.22469996 -0.11415712 -0.32406023
0003e0 04 db a5 3e f8 32 84 be 4f 64 6c 3e 84 18 53 be
       0.32393658 -0.25820136 0.2308514 -0.2061482
0003f0 73 20 e0 be 80 8b 3e 3e 4b ba 7e 3c a3 a6 4c 3e
       -0.43774757 0.18607903 0.015547345 0.19985442

network_body._body_endoder.seq_layers.0.bias f4 [128]
000000 af 93 58 39 3c d8 ff b9 d4 68 ec b8 84 8b 9f 3a
       0.00020654382 -0.00048798497 -0.00011272883 0.0012172316
000010 26 42 0f 3a 28 b7 56 3a 84 a7 8e 3a fe f1 a2 3a
       0.0005464874 0.00081907446 0.0010883664 0.0012431738
000020 64 58 87 39 3b 4a 44 bb 26 4a 37 ba b3 f0 71 bb
       0.00025815063 -0.0029951471 -0.0006991945 -0.003691715
000030 2d 9b 53 bb 5f c5 16 bb ab 8d 99 39 d8 e5 47 3a
       -0.0032288537 -0.0023005826 0.00029287985 0.0007625497
000040 b4 51 e0 bb a9 bd 09 bb c7 ff 89 39 0a be 9c 39
       -0.0068456773 -0.0021017587 0.00026321245 0.0002989623
000050 9a b7 82 3b 35 ac 00 ba ea 2c 51 bb f1 1c 83 b9
       0.003989172 -0.00049084733 -0.003191764 -0.0002500783
000060 55 9b db b9 8a 52 98 ba ee cf 15 b9 15 38 1c ba
       -0.00041886666 -0.0011621278 -0.00014287207 -0.00059592846
000070 23 25 8a 38 54 b5 ce 3a 3f da 8a ba a1 d2 d5 37
       6.58727e-05 0.0015770593 -0.0010593607 2.548966e-05
000080 a2 32 02 ba 4e 07 79 39 15 d5 7e b9 d9 dd dd b8
       -0.00049666513 0.00023749212 -0.00024302707 -0.000105794235
000090 89 70 44 3a a2 92 b3 b8 c3 5c 80 b9 b7 a6 a8 3a
       0.00074935757 -8.5626976e-05 -0.00024483175 0.0012867068
0000a0 5c 71 b6 b9 43 04 fc 39 0f 2e 0f ba 00 94 b8 3b
       -0.00034798204 0.0004806836 -0.00054618804 0.0056328773
0000b0 15 5e 83 3b 81 05 84 3a db f7 5e ba 33 98 63 b7
       0.004009018 0.0010072441 -0.0008505561 -1.3565691e-05
0000c0 e8 12 3d bb 68 f5 d1 3a 4c 3b 02 ba 3c 6d 0a 3b
       -0.002885038 0.0016018571 -0.00049679424 0.0021122238
0000d0 3c 4a 77 ba a3 20 a4 3a df e2 38 ba 59 03 53 ba
       -0.0009433364 0.0012521934 -0.00070528494 -0.000804951
0000e0 61 9b 26 39 3c 98 2a 3b 29 2e dc 3b 28 ba 96 b9
       0.00015888877 0.002603068 0.00671937 -0.00028748927
0000f0 ff c7 a9 ba e7 0d 07 3a b7 76 2d bb ed 00 18 ba
       -0.001295328 0.0005151913 -0.0026468465 -0.0005798478
000100 93 6b 57 ba 74 02 d8 b8 de f8 1d b9 a3 0e b1 ba
       -0.0008217629 -0.000103001395 -0.00015065397 -0.001350839
000110 27 50 86 ba 1b 23 db ba ca fb 85 39 ff 4f ea 38
       -0.0010247276 -0.0016718836 0.00025555334 0.0001117289
000120 4b 8d eb bb 52 e6 26 3a 3b a0 99 b8 cc e7 c1 3a
       -0.0071884743 0.0006366718 -7.325454e-05 0.0014793812
000130 15 54 e4 b9 ba 2c 19 ba 68 70 e1 ba c3 d6 39 38
       -0.00043550195 -0.00058431516 -0.0017199637 4.430745e-05
000140 20 05 3b ba 40 39 eb 39 77 df d0 b9 4e 44 48 3b
       -0.00071342476 0.00044865347 -0.00039839346 0.003055829
000150 45 36 b0 3a 35 18 48 ba b7 9c 08 3a 0d df e6 b9
       0.0013443908 -0.00076330017 0.00052113406 -0.00044035204
000160 7d 6a c0 3a df ed 84 b9 9e 50 81 ba 46 ef 9e 3a
       0.0014680173 -0.0002535423 -0.0009865945 0.0012125752
000170 d4 73 31 3a 9f 7a e3 3b a7 97 28 3a 9d ae 29 ba
       0.0006769274 0.006942108 0.00064312894 -0.0006472858
000180 3d a7 9c b9 06 d1 d3 3a df 53 44 39 6d 5b 23 38
       -0.0002987924 0.0016160316 0.00018723261 3.8947375e-05
000190 ff 75 0e ba ff d7 bf 39 4f 88 4d 3a 84 a4 2e b9
       -0.0005434453 0.00036591289 0.0007840441 -0.0001665522
0001a0 f4 1a c6 b9 a9 07 2b ba db 49 b7 39 b0 66 30 ba
       -0.00037785585 -0.0006524274 0.00034959507 -0.0006729169
0001b0 1f 41 b1 ba 9c fc 03 bb ad dd 22 b9 0b 26 c5 bb
       -0.0013523436 -0.002013958 -0.00015532105 -0.006016498
0001c0 01 fc 15 ba 26 be 5f bb 92 70 25 ba 58 fd 58 3a
       -0.00057214504 -0.0034140437 -0.0006311025 0.0008277497
0001d0 26 57 f0 b8 c2 e6 ac b7 6a e5 b1 39 1c 8f a2 ba
       -0.000114603245 -2.0611453e-05 0.00033930998 -0.0012402269
0001e0 d4 76 2e bb f4 c1 9c b8 50 c7 52 b9 00 bd 8d ba
       -0.002662112 -7.474786e-05 -0.0002010141 -0.0010813773
0001f0 fa 7d 8d 3b 13 54 14 3b 94 67 68 3a 21 3e 98 39
       0.004317996 0.002263312 0.0008865532 0.0002903799

network_body._body_endoder.seq_layers.2.weight f4 [128, 128]
000000 cc 26 0e 3d 43 26 17 3e 41 71 53 3d b2 fd 89 3d
       0.03470497 0.1476069 0.05162168 0.06737842
000010 9a f5 47 bc 9f 97 16 bd 5c b4 b1 bd c2 93 08 3d
       -0.012204552 -0.03676569 -0.08676979 0.033344038
000020 46 db c0 bd 1c e9 f1 bd c1 ec 19 3e 8f 6f b2 3d
       -0.09416823 -0.1181204 0.1503172 0.08712684
000030 20 52 1a 3e e5 4b 7a bb d9 05 b3 bc 93 1a 96 3a
       0.1507039 -0.003819221 -0.021853374 0.0011452012
000040 93 85 0d be 07 21 f3 3d ed 2e 43 3e 22 cf b8 bd
       -0.13820486 0.11871534 0.1906087 -0.090238824
000050 9e f3 b6 bd b4 19 00 3c 04 5a 8b 3c c3 47 15 bd
       -0.08933185 0.007818628 0.017010696 -0.03644539
000060 c6 8d 6c 3d d9 3c 95 3d d0 df 45 3c f2 7a 1d 3e
       0.057752393 0.072869964 0.012077287 0.15378931
000070 d2 38 09 be 56 87 11 3b 2a 50 f7 bd c0 a0 09 be
       -0.13400581 0.002220591 -0.12075837 -0.13440228
000080 23 da 8f bc aa e7 54 3c d0 ec 64 3e fb 06 2e be
       -0.01756007 0.012994686 0.22355962 -0.1699485
000090 b2 e8 9c 3d 11 c0 01 bd 7f be 78 bd 6c 45 a6 bd
       0.076615706 -0.03167731 -0.060728546 -0.0811871
0000a0 5c 8f 11 3d e0 0a fa 3d 38 ae 7a bb df 83 a4 bd
       0.03553711 0.122091055 -0.0038250815 -0.08032965
0000b0 92 9c 82 bc 67 aa fa bc 53 e4 d2 bd 08 e2 3b 3b
       -0.0159438 -0.030598832 -0.10297456 0.002866866
0000c0 6f 84 1f bd cd af 5c bd 3a 54 60 3d 2a 88 f8 3c
       -0.038944658 -0.053878594 0.054767825 0.030338366
0000d0 69 a1 c6 bd 52 dd 7d 3d 60 c8 ec bd ad 88 1d 3e
       -0.09698755 0.061978646 -0.11561656 0.15384169
0000e0 ce a0 66 bd 72 15 a9 bd be 8a 71 bd cc 80 1c bc
       -0.0563057 -0.082560435 -0.058970205 -0.009552192
0000f0 e2 67 14 3b 0f 26 f8 3d 9d 6a 63 3d fc ea 98 3d
       0.0022644927 0.12116634 0.055521596 0.07466695
000100 35 4e 08 bd 15 ec a7 bc b5 57 a0 3c 29 c0 88 3d
       -0.03327771 -0.020498315 0.019573072 0.06677277
000110 c3 b9 20 bc 1f e8 28 be fa 7e bc bd 12 3e 02 3e
       -0.009809914 -0.16494797 -0.09203906 0.1271899
000120 24 a7 2a 3d a9 a4 ff 3c e8 48 53 3c 68 84 6f 3d
       0.041663304 0.031206446 0.0128958 0.05847588
000130 d9 ab 9d 3d 42 be b4 3d 13 86 9c bd 58 26 f5 bb
       0.07698793 0.08825351 -0.0764276 -0.0074813776
000140 8f 06 73 bd bf 3b fa bd b6 6a 64 bd 42 b7 98 3c
       -0.059332427 -0.12218427 -0.05576583 0.018642072
000150 f0 dc c4 3d e3 e7 97 3c 37 7f 4d 3e 06 9d f6 3c
       0.09612453 0.01854319 0.2006806 0.030104171
000160 40 ce eb bd 69 b1 f0 3b 60 10 5a bd d1 75 03 bc
       -0.115139484 0.0073453677 -0.053238273 -0.008023695
000170 d9 e0 1a 3e 38 fe b5 bd 83 d5 a8 3d d0 f2 34 3d
       0.15124835 -0.08886379 0.08243849 0.044176877
000180 aa fd cf bd b2 fd 1a 3d 24 e5 78 bd ce 58 3e 3d
       -0.101558045 0.0378396 -0.0607654 0.04647141
000190 80 f7 cf 3d 6b 78 20 3c 87 5b 32 bd 79 09 80 bd
       0.10154629 0.009794335 -0.04354432 -0.06251807
0001a0 4f 3e 06 bc eb e9 eb bc f0 5c 9d bd d9 d2 73 3c
       -0.008193566 -0.028798064 -0.07683742 0.014881813
0001b0 58 b7 90 bd 37 a4 47 be 4d b5 fa 3c 3c 86 eb 3c
       -0.0706622 -0.19496237 0.03060403 0.028750531
0001c0 36 36 33 3c e0 82 67 be 49 e4 7d 3c c9 72 92 bc
       0.010938218 -0.22608519 0.015496322 -0.017877
0001d0 b5 7c 1c 3d 43 83 f0 3d 31 0f 30 3d 4a 77 9a 3d
       0.038204867 0.11743786 0.042983238 0.07542284
0001e0 29 14 c4 bd db ce 01 bc c3 12 ed 3d 54 af ca 3d
       -0.09574158 -0.007922853 0.11575844 0.098967224
0001f0 9d 04 25 3d 96 cc 79 bc 40 2f a3 3d c0 86 e7 bd
       0.040287603 -0.015246531 0.079679966 -0.113049984
000200 da 1d 66 3d a6 9f cd bd b3 ba 29 be 87 d3 aa 3d
       0.056180812 -0.10040216 -0.16575126 0.08341127
000210 00 25 a4 3b 63 c8 02 be 85 79 65 be a1 e8 1e bc
       0.0050092936 -0.12771754 -0.22409637 -0.009699018
000220 ef f4 4d 3d 9e b0 bb bd ee f2 b3 bb 59 de 80 bd
       0.050282415 -0.091645464 -0.005491606 -0.062924094
000230 82 9f 7d be a7 0e 34 3e ae a9 d4 bc 83 c6 f0 bd
       -0.24767879 0.17583714 -0.025959816 -0.11756613
000240 53 2d b4 bd c7 05 34 bd d3 25 82 bd 1a 9c b6 bc
       -0.087977074 -0.043950822 -0.06354871 -0.022291232
000250 ee 3c 15 3e 87 b1 87 bb be ad 0f 3c 47 8a 93 3d
       0.14574024 -0.004141036 0.008769451 0.07204109
000260 8e 62 83 3d ce 57 73 3d 2b a8 5d 3d ad df c8 3b
       0.06415282 0.05940991 0.054115456 0.00613018
000270 0d df 9e bd 1e df 4e 3d 5c 6d 0c 3d c9 8d 49 bb
       -0.07757387 0.05050575 0.03428398 -0.0030754677
000280 e5 78 49 3b 5b e6 e4 bb f3 f3 0e bd d6 5a 29 be
       0.0030742225 -0.0069854683 -0.034900617 -0.16538557
000290 c1 a2 4e bc 52 6b 63 3d d1 2d 83 3d e1 2a e8 3d
       -0.012612046 0.05552227 0.06405223 0.113363035
0002a0 f0 82 ad bc 1d 84 1e bd 29 62 12 be c2 d2 5f bc
       -0.0211806 -0.03870021 -0.14295258 -0.013661088
0002b0 d2 77 4b 3e 3c 2b a0 3d 52 00 41 ba 53 4a ad 3c
       0.19869927 0.07820746 -0.00073624135 0.021153605
0002c0 1f f2 c7 3b 4b f0 ab ba 2b 16 b5 3d 0f be 4b 3d
       0.006101861 -0.0013117878 0.08842119 0.0497418
0002d0 f9 28 b4 3b 28 77 0c 3d 3b c3 07 bc 92 da b4 bd
       0.0054980484 0.034293324 -0.008286293 -0.088307515
0002e0 cc a3 dc 3d ca 3b 1a 3d d1 61 35 3e 7f f7 56 3e
       0.10773429 0.037654676 0.17713095 0.2099285
0002f0 81 80 d8 bc 76 b3 35 3d a3 20 02 3e 12 6d 87 bc
       -0.026428463 0.0443606 0.12707762 -0.016531501
000300 6a f7 c5 bd 30 38 b1 3c 21 2a 13 3e 2b 72 cb 3d
       -0.09666331 0.021633238 0.1437154 0.09933885
000310 ba 34 d3 bd 13 f1 c9 3d f5 1d dc bd 19 e7 aa bb
       -0.10312791 0.098604344 -0.10747901 -0.0052155373
000320 06 30 af bd 0b 12 40 bd 55 ae 03 3e 56 b4 69 bd
       -0.085540816 -0.046892207 0.12859471 -0.057056747
000330 d9 ba a5 bd c4 ef b2 be 84 7b a7 bc 7a bb 60 3d
       -0.08092279 -0.34948552 -0.020444639 0.05486629
000340 be 28 fc bd 80 ba b3 3c d9 41 c9 3c b6 9f d7 3d
       -0.123124585 0.021939516 0.024567531 0.10528509
000350 5f 49 e2 3d c1 05 9e 3c 13 1b 17 3e 69 77 3f bc
       0.11049151 0.019289853 0.14756422 -0.011686184
000360 10 f4 03 be 1a 38 19 3c 5e ae c5 bd 98 62 8b bd
       -0.12886071 0.009351755 -0.096523985 -0.06805915
000370 80 e0 1e 3e 4f 1d 0c bd 9c 1f 4d 3e a0 85 3b 3e
       0.15515327 -0.03420764 0.2003159 0.18312693
000380 c2 84 83 bc 5a c6 05 3e da a0 93 3b c6 0d c5 3c
       -0.016054515 0.13063946 0.004505259 0.02405442
000390 d2 3b a6 3b 9f de e6 bc 5c 8a ed bc bd c4 ca bd
       0.005073049 -0.028182326 -0.028996639 -0.09900806
0003a0 6a 92 c9 3d 4d 41 29 bd 67 aa 4b 3c 19 90 d7 bd
       0.098423794 -0.04132204 0.012430764 -0.10525531
0003b0 78 ec 64 3d 02 4b 16 3e fc 8a d3 3a 28 ee 07 3e
       0.055889577 0.1467705 0.0016139443 0.13274443
0003c0 e4 74 23 be 46 df 1d 3e df 58 e8 bd 45 4e 87 be
       -0.15962559 0.15417203 -0.11345076 -0.26426902
0003d0 8d 66 46 3d cf b1 c6 3c e4 d3 60 bc df df 86 bd
       0.048437644 0.024254708 -0.013722394 -0.06585669
0003e0 ef 88 38 3d 41 50 bf 3c a1 38 b1 3c ea be f5 3c
       0.045052465 0.023353698 0.021633448 0.029998261
0003f0 6f 41 14 3e 36 74 35 3e f8 31 89 bd 6a 6c 43 3e
       0.14478086 0.17720112 -0.06698984 0.19084325

network_body._body_endoder.seq_layers.2.bias f4 [128]
000000 ba a3 31 b9 02 e0 48 38 c5 da b0 39 2e 0d 26 39
       -0.00016941028 4.789234e-05 0.00033732332 0.00015835903
000010 43 b3 8e 39 a0 56 28 b7 fe f3 c2 39 86 32 4a b9
       0.0002721791 -1.0033749e-05 0.00037184352 -0.00019283043
000020 8f 47 2c 38 f8 8e 21 ba 03 39 91 38 ee 04 28 39
       4.107464e-05 -0.00061629666 6.924758e-05 0.00016023565
000030 07 9d c5 b9 6e e7 b5 b8 eb 11 2e 3a c1 59 98 ba
       -0.00037691763 -8.67386e-05 0.0006640243 -0.0011623428
000040 3d ba 08 bb 92 30 3a 39 03 98 27 3b eb 44 f5 b8
       -0.002086296 0.00017756436 0.0025572784 -0.00011695347
000050 dc c3 ec ba 67 fb e7 37 3a 6c 04 b9 d4 d8 96 39
       -0.0018063742 2.7654414e-05 -0.00012628819 0.0002877178
000060 de 1a 97 3b 62 85 14 ba 0e 53 17 b9 4a 5a 72 b8
       0.004611357 -0.00056656275 -0.00014431422 -5.7781384e-05
000070 ff ad 5a bb 4a 69 b1 38 52 16 42 38 35 ab fd b8
       -0.003336787 8.459629e-05 4.627399e-05 -0.0001209587
000080 2e 32 3b 3a 8a fb 18 b9 84 47 06 bb 8c 6d 9f 3a
       0.0007140961 -0.00014589555 -0.0020489404 0.0012163385
000090 99 75 1a ba 48 87 61 b9 c9 1e 0f 39 b7 51 8d b7
       -0.0005892157 -0.00021508068 0.00013649011 -1.6846561e-05
0000a0 bb 9b 92 3a 4d 43 93 39 5a 1a b7 b8 09 ca fa 39
       0.0011185327 0.00028088168 -8.731028e-05 0.00047834244
0000b0 4e f3 86 3b c7 8b 1e 38 e3 43 15 ba a0 6a 6d 39
       0.0041183596 3.7800313e-05 -0.0005694015 0.00022641802
0000c0 1a 02 01 b9 70 30 ef 39 a0 6e 90 b9 7c f2 13 ba
       -0.00012303182 0.0004562172 -0.00027548242 -0.0005643738
0000d0 a2 a8 a6 3a f7 9f 92 b9 49 2a 47 ba d1 b7 92 b8
       0.0012715051 -0.00027966473 -0.00075975485 -6.996061e-05
0000e0 97 1c 31 ba af 4b 40 b9 a8 55 ef 3a 99 8f 57 3b
       -0.00067562744 -0.00018338741 0.001825978 0.0032891987
0000f0 9c f6 24 b9 37 ce f9 b9 4f 75 f3 b7 db 4c 7d b9
       -0.00015732128 -0.00047646623 -2.9022483e-05 -0.00024156591
000100 e9 e0 80 b8 c1 a7 8d b9 15 df 55 ba ca 81 8d 3a
       -6.1454084e-05 -0.00027018602 -0.0008158547 0.0010796126
000110 47 b5 eb 39 96 8d 82 b8 f8 ab cd 3b 55 d0 5f 3a
       0.00044957755 -6.2252555e-05 0.006276604 0.0008537819
000120 d0 91 6b ba ec cb 20 39 05 2f 4f ba 56 cf 87 b9
       -0.00089862663 0.00015334756 -0.000790343 -0.00025903684
000130 da 42 33 ba 46 e0 5c 39 f7 98 d0 39 6d 17 9f 39
       -0.000683827 0.00021064383 0.0003978682 0.00030344297
000140 0c 1c 24 ba 5c b9 bf b8 51 a7 01 bb e3 dd bf ba
       -0.0006260283 -9.1421156e-05 -0.0019783566 -0.0014638271
000150 a3 fc c3 b9 60 f9 79 ba 4c 15 89 b9 02 35 74 ba
       -0.00037381527 -0.0009535756 -0.00026146544 -0.000931576
000160 3c 69 ad ba 37 19 a9 38 4e 04 1a b9 78 70 0d 39
       -0.0013230215 8.0632446e-05 -0.00014688188 0.00013488706
000170 af 83 3a ba 5a ca 07 bb 8c 6a 26 39 49 2c 83 b9
       -0.00071149593 -0.0020719976 0.00015870685 -0.00025019262
000180 b6 87 83 b9 b0 a2 6b b7 fd 6d ec 39 d5 12 bf b9
       -0.0002508738 -1.404497e-05 0.00045095375 -0.0003644439
000190 65 d8 82 b8 c5 8c cc ba 97 83 0b ba 5b 0e a3 3a
       -6.23919e-05 -0.0015605917 -0.00053220376 0.0012440191
0001a0 aa 09 2e ba 86 ca e3 b9 ed bd 92 b9 42 49 33 b9
       -0.00066390133 -0.00043447706 -0.00027988796 -0.00017098061
0001b0 b6 d0 79 b7 ee 57 8f b8 cb ea f5 b8 b2 af 16 ba
       -1.4890151e-05 -6.8351495e-05 -0.00011726244 -0.00057482265
0001c0 df 51 60 b9 b6 95 90 ba 81 a4 62 b9 9c 92 02 b9
       -0.00021392804 -0.0011030945 -0.00021614322 -0.00012452382
0001d0 e8 b3 86 b9 bd 69 d8 39 2f 56 0f 3a 44 fc 4a 3b
       -0.00025692512 0.00041277512 0.00054678594 0.0030973116
0001e0 1c 44 d6 39 49 87 30 3a 71 53 05 ba 64 d7 dd ba
       0.00040868006 0.0006734026 -0.0005085981 -0.0016925153
0001f0 67 03 f2 38 e4 c4 1a ba 62 b9 bb ba 46 f1 4d ba
       0.00011540093 -0.0005903973 -0.0014322216 -0.0007856082

action_model._continuous_distribution.log_sigma f4 [1, 2]
000000 e6 20 3d 3b c3 47 99 3b
       0.002885872 0.004677744

action_model._continuous_distribution.mu.weight f4 [2, 128]
000000 8e 5d b3 3c 7a 62 52 3c a4 d5 dc 3b b1 ca 0d bd
       0.021895196 0.012840861 0.006739335 -0.03461713
000010 b1 5e ca 3b fa 06 5b 3c b7 1a 97 bb 4d 13 9d 3c
       0.006175839 0.013368363 -0.004611339 0.019174242
000020 93 b2 a0 bc 00 eb 1a bb cd 61 48 bc 00 f3 9c bc
       -0.0196164 -0.0023638606 -0.012230349 -0.01915884
000030 5d 95 00 bd 56 9e bc bc 54 37 e4 bb 55 95 35 bc
       -0.031392444 -0.02302472 -0.0069646034 -0.011082967
000040 fe d2 73 3c 35 1f 32 3a 41 9f 99 3c 29 8c 32 bc
       0.014881847 0.00067948113 0.018752696 -0.010897675
000050 60 0d 4e 3b 49 a7 9f bc be 2b 35 bc 8d ab 8a bc
       0.0031441078 -0.019488947 -0.011057792 -0.016927505
000060 ff ca 36 bb f2 42 83 3c 41 d7 b5 3b 5d 17 b6 bc
       -0.0027891991 0.016023133 0.005549342 -0.022227937
000070 03 e3 80 bc aa 7b 54 3b b1 73 fb 3c 5e 9a e9 3a
       -0.015733248 0.0032422342 0.030694814 0.0017822494
000080 99 47 3f 3c 32 bb 57 3c 16 49 d6 b9 9f aa 60 3c
       0.011674785 0.013167189 -0.00040871714 0.013712554
000090 94 61 70 bc 29 29 e6 bc d4 92 d8 36 02 71 1b 3c
       -0.014671702 -0.028095799 6.4543947e-06 0.009487392
0000a0 e4 15 84 b9 75 75 fc bc f5 39 b9 3b a7 83 23 bc
       -0.00025193312 -0.030817727 0.005652661 -0.009980119
0000b0 28 f8 d8 3a 1a 94 91 bc bf f8 db 3b af c4 38 3d
       0.0016553449 -0.017770816 0.0067130025 0.045109447
0000c0 86 cd 17 bc e1 25 f7 bc 3f 78 b7 bc ee 22 5a bc
       -0.009265309 -0.03016943 -0.022396205 -0.013313992
0000d0 a5 02 14 3c ac 4c 9a bc 4a 50 02 bc 4e aa 88 bb
       0.009033834 -0.018835388 -0.007953713 -0.0041706925
0000e0 37 82 2a 3b e4 bd d3 3c a8 03 be 3c 07 a9 18 3c
       0.0026017556 0.025847383 0.023195103 0.009317643
0000f0 d2 ff 2e 3c 41 1b 11 3c 75 0a 03 3c d8 e7 4e 3c
       0.0106811095 0.0088565955 0.007998099 0.012628518
000100 69 75 1b bc b3 5b 33 3b f9 28 90 bc 9c 08 01 bd
       -0.009488442 0.002736789 -0.017597662 -0.03150235
000110 74 64 96 3c 4b 3b cb b8 bb c4 8b bc e6 10 b5 3c
       0.018358447 -9.6908385e-05 -0.017061582 0.022102784
000120 1e c7 55 3c 18 a8 6b 3b f5 4a 98 3c 3a 76 8c bc
       0.0130479615 0.0035958346 0.01859043 -0.017146219
000130 20 6f 7f 3b 72 62 b7 bc 68 a4 73 bc 6a 66 03 bc
       0.0038976148 -0.02238581 -0.0148707405 -0.008020023
000140 f7 2f b1 b9 14 f0 a9 bb f6 f7 bc 3c c8 13 59 3c
       -0.00033795807 -0.0051860902 0.023067456 0.013249345
000150 70 5c 25 bc 50 88 83 bb a7 d9 11 bc 65 ef e6 bb
       -0.01009284 -0.0040140525 -0.00890199 -0.007047581
000160 b7 5f bb 39 c4 e1 d0 bc 22 f3 33 3b 25 9f 48 bb
       0.00035738733 -0.025498278 0.002745815 -0.0030612436
000170 c7 4a 9a bb 76 38 cb 3c ab 43 31 3c 26 63 ca ba
       -0.004708621 0.024807196 0.010819356 -0.0015440925
000180 41 45 a6 3c 83 f2 da 3c 24 a5 05 3d 68 2e 4a 3b
       0.020296695 0.026726967 0.032628193 0.0030850414
000190 3e 1f b2 bb b9 06 1c 3c 24 70 5f 3c c8 2e a5 bc
       -0.0054358533 0.009523087 0.013637576 -0.020163909
0001a0 5d 6f 80 3b 4e a0 91 bb 23 c1 bb 3c 7b 9c e1 3b
       0.0039195255 -0.0044441586 0.022919243 0.006885109
0001b0 ac de f8 39 c0 5a 2c 3d a4 3e 5c 3c 64 6a 0f bc
       0.0004746815 0.042078733 0.013442669 -0.008753393
0001c0 9f ab 13 bb bc b5 c5 bc 20 a7 be 3c 25 de dc b9
       -0.0022532714 -0.02413451 0.02327305 -0.0004212718
0001d0 dd b5 af bc dd e1 7b 3b b1 5e ce bc e3 af 18 3b
       -0.021449024 0.0038434186 -0.025191637 0.0023298196
0001e0 ae e9 08 3d 9a 63 de bc 2d 62 3e 3c 80 d5 81 3a
       0.03342598 -0.027147103 0.011620087 0.0009905547
0001f0 b3 e6 8c 3c a6 89 d2 bb f4 e7 60 3c cb c3 16 3c
       0.01719985 -0.0064251004 0.013727177 0.009201954
000200 16 e6 dc 3c 89 1b 23 bb 6d ad 04 bc 8a ce d4 bc
       0.026965182 -0.0024888238 -0.008097989 -0.025977392
000210 63 bf b7 bc 58 67 35 bb 62 f9 a8 bc 7d 3e 18 3c
       -0.022430127 -0.0027680006 -0.020626727 0.009292242
000220 ad 40 41 bc 14 61 30 bc 40 a4 13 bc 97 cb 89 bc
       -0.011795205 -0.010765333 -0.009011328 -0.016820712
000230 05 37 34 3c 1e 8e 5b bc ec 94 03 3d 95 26 88 bb
       0.010999446 -0.013400583 0.032124445 -0.00415499
000240 ab 7f a8 3c 0d bd 7a 3c 67 e8 25 3d 94 d4 48 bc
       0.02056869 0.015303862 0.04050484 -0.012257714
000250 3d 0a 49 3c ae 3b 6a bc 55 ca b4 bc 1c 92 17 3b
       0.012270507 -0.014296455 -0.022069136 0.002312786
000260 d2 58 90 bc d5 54 08 3b 06 98 f5 3b 48 c7 f5 bb
       -0.017620478 0.0020802517 0.0074949292 -0.007500563
000270 d3 07 05 bd 74 5c da 3c 3f 49 90 ba 5a 2f 84 bc
       -0.032478165 0.026655413 -0.0011008157 -0.01613586
000280 a5 1f ec 3c 30 b8 06 3a b7 f1 0e bc 2a 95 99 bc
       0.028823683 0.00051391404 -0.0087246215 -0.018747885
000290 7c fa 74 3b 0c d8 e0 3c 37 1d 65 bb ff b9 87 bc
       0.0037380746 0.02744677 -0.003496004 -0.016568182
0002a0 52 a7 d4 3c 7e cc 0b bb c9 a7 08 bc 42 a8 07 bd
       0.02595869 -0.0021331604 -0.008340784 -0.033119448
0002b0 db 0e 78 bc a3 7c 4e bc be 31 20 3d 78 b4 4d bc
       -0.015140261 -0.012602958 0.039109938 -0.012555234
0002c0 bf 90 73 3c c2 35 81 bc bf ee 0f 3b 79 a1 5f 3b
       0.014866053 -0.015772704 0.0021962372 0.0034123345
0002d0 ad 2e 16 3c ed df 44 3c 7b e0 65 3c 39 6c fa 3b
       0.009166402 0.012016279 0.014030571 0.0076422957
0002e0 e3 c6 93 3c 7c 05 3d 3c 3e 34 51 bc cd 76 c7 3c
       0.018039173 0.011536952 -0.012768803 0.02434864
0002f0 d1 1f 58 bc fb c5 a3 3b dc a0 46 bc 39 5c 29 3c
       -0.013191179 0.0049979663 -0.012123313 0.010336929
000300 1e 3f 1a 3d 62 50 1a bd 36 e8 6f bc 16 84 d9 bc
       0.03765785 -0.037674315 -0.014642766 -0.026552241
000310 f3 07 60 bc 81 80 b1 3c c0 ea a2 bc 3b 9f 8b 3c
       -0.01367377 0.02166772 -0.019887328 0.0170437
000320 e5 43 4a bc 19 f3 92 bc 7a b3 8e bb cb c6 84 3c
       -0.012345289 -0.017938184 -0.0043548914 0.016208073
000330 07 3c 31 3c 76 9e 8f bc 0e ed c0 bc 1b 89 49 3d
       0.010817534 -0.017531615 -0.023550536 0.04920302
000340 d8 f1 33 3b 5e 65 2a 3d 4e 7a b5 3c 98 42 82 bb
       0.0027457383 0.041600578 0.022153046 -0.0039752237
000350 e4 33 0a 3c f9 fe cc 3c b8 c5 17 3c 0d 5c 47 bc
       0.008435223 0.025023924 0.009263448 -0.012167943
000360 dd 56 a4 bc d3 13 ff bb c3 94 9d bc a6 31 10 3d
       -0.02006095 -0.0077843457 -0.019235974 0.0352036
000370 87 3c 68 3c 23 05 2c bb 16 15 bc bc 17 c9 94 bc
       0.014174587 -0.002624818 -0.022959273 -0.018162293
000380 7e 58 56 bc 2d fe d2 bc d8 d3 85 39 7d 6c fc bc
       -0.013082622 -0.025755966 0.00025525573 -0.03081345
000390 61 5c bf 3b 5f 3d f6 3b 35 0b 8d 3c 84 d6 21 bd
       0.00583987 0.00751464 0.017217258 -0.03951122
0003a0 51 49 91 3c ad 13 df 3c 80 0b a9 3c 12 2d 18 ba
       0.017735155 0.027231062 0.020635366 -0.0005805056
0003b0 c7 57 01 3d db cb 4b bc f1 99 23 bd bb b9 24 3b
       0.03157785 -0.01243874 -0.03994173 0.0025135118
0003c0 7d 84 b1 bc 37 6e c2 bb 07 d3 3d 3d aa 3a a9 bb
       -0.02166962 -0.005933549 0.04634383 -0.005164464
0003d0 67 0a 9b 3b 6f 0a 61 3c a5 f4 86 bc 04 ca 6f bc
       0.0047314647 0.013735398 -0.016474077 -0.014635567
0003e0 db 08 a1 bc 22 6d 8a 3c 86 16 ab 3c e4 13 bb 3b
       -0.019657543 0.016897742 0.020884763 0.0057091583
0003f0 f1 7d e7 bb c6 19 11 3a 7d 9f 30 3d bf 39 a2 bc
       -0.007064574 0.00055351516 0.04312085 -0.019802926

action_model._continuous_distribution.mu.bias f4 [2]
000000 fa 0c f9 38 5a 90 9b 38
       0.00011875662 7.4178635e-05
